experiments/diff_reward_weights_data/kappa1_0.5_kappa2_1_kappa3_1/dqn_proposed_target_erf.pth (torch, 306152 bytes, 6 tensors)

weight f4 [256, 4]
00000000: 509c 40be f861 6bbe a6c4 c6be c430 ccbe
00000010: 84e9 9fbe 74bf f6be dc60 2cbe c4ac d4be
00000020: dc5e a23d 70b9 03bf a055 9abe 25c5 eb3c
00000030: 61c6 c13e e08d e93d e2fa ab3b 471f 073f
00000040: 0460 d43d 55a1 dbbc b5ee f9be c376 7e3e
00000050: bef0 65be a4d1 e1bd ccad 2a3d fafe ea3e
00000060: acb8 22be af42 b43e 93e9 fbbd 0de5 1dbf
00000070: f19f eabe ab69 d63e 400c 84be 3585 0dbf
00000080: 5ed0 3abe c747 54be 7343 d33e 99bd 333e
00000090: 8052 c4bd c0d5 2dbd 1085 c6bd a40e f2be
000000a0: 3fd1 e03e 1c97 a13c b2ed a6be 7239 fdbe
000000b0: c3f0 e6be a0f1 1f3d 5010 793d 4045 903c
000000c0: a756 843e aa3d ff3d 09a1 dabc ab9d 73be
000000d0: 1005 d2bd 0011 57be 9423 26be e4be bbbe
000000e0: 9a61 92bb 4298 e33e 887e a1bd 7da1 833e
000000f0: 71ed 803d e7b9 f83e 6deb 03be 72e9 bf3e
00000100: fdc9 213e f93c 1c3e 3958 c1be 0177 fc3e
00000110: 92e6 3b3e 36ab d83d cc02 90be 41ce 7bbd
00000120: 5521 133e 45a6 02be 3df5 8fbe 2949 febe
00000130: 703f 4fbd 3827 31be 6697 a9be 6821 963d
00000140: fe1d 12be 02bc 41be d428 423e d1fd f43e
00000150: 18cc 5abd 027c c03e ba18 77be 3130 613e
00000160: 464d f93e 2800 a3be 11d3 91be bd5b 20be
00000170: a2b1 263e 268d 8f3e ea97 edbe 71ca c3be
00000180: af6f 90be 8a6f 0d3f ec32 9fbe 9023 5fbe
00000190: 659d 703e bce5 a93c 3e2f acbe 66b1 a03e
000001a0: 1103 d13d c8f3 c53e 5e9a ab3d bf3c 9b3e
000001b0: f509 7f3e e9a3 99be 01e4 6ebe 1115 a0be
000001c0: 805d ccbc a3b7 efbe 9071 0b3d 7ec1 cc3e
000001d0: f1c0 1e3e c8c8 29bd 5a66 ba3e b4d7 dabe
000001e0: 0123 843d 24a7 adbe 7c6c 47be 308b bebe
000001f0: 8c75 fabe 6c42 b0be ac2c ffbe 30d1 90bd
00000200: e082 333e 61f2 bfbe c979 66be 3035 3bbe
00000210: 00ba 71be 0ee1 5a3e e5e6 91be 4464 733e
00000220: 4123 b83e 8b83 f03e f17c 853e 3da3 543d
00000230: 5c14 20bc f5bf 243f 20c8 a03d 79f5 be3d
00000240: d73c 913d 0d2f 053f f7b4 4abe f552 063f
00000250: ec6f c6be 8035 c6bc f01c e7be 0055 22bb
00000260: f15d 09be d7c1 3d3f 1215 4b3e 1c96 44bb
00000270: c06f 62bd 00ae d0bc 00de 61bd ca5f e4be
00000280: 5336 e13e 1544 173f bc3e 4dbd e6b9 a0be
00000290: fa80 803e 8bd0 a9bd 83ce 3d3e 3592 70be
000002a0: 23d8 0a3e e86d afbe 00a3 a2be 4b6f aabe
000002b0: e856 31be 62e0 89be 0e7d d7be 2824 bd3d
000002c0: 7c8e f1be 003c 8ebd 84f2 d63e 4e44 d13e
000002d0: e640 e13e 3b43 823d 0299 2bbe 1a88 353e
000002e0: 0ff3 fa3c 1dac 6d3e e12c d73d 3644 2d3e
000002f0: 7c0c 3c3e ab4c f9bc ceca 883e 4d8b 873e
00000300: 85b8 893e e0a2 e5be 0f5a f83e be9c 40be
00000310: d845 e93e 7051 0c3f 646d 80be aeda 923d
00000320: 47bc 8abe fc2b ee3e 1a42 1dbe 9e7a 81be
00000330: 799f c53e 44e7 94bd 441c c43e a7b9 c43e
00000340: 7bcb ab3e 576a 66be 0c3e a9be 4450 12be
00000350: b489 7cbe f826 1a3e 6267 b7be 4ba5 e13d
00000360: 535a c13e 1202 0b3f 2bdb c0be a47e 0cbf
00000370: 1038 59bd 5a7d bb3e 3669 fc3d 4052 0ebf
00000380: 2c36 bf3d c6ad 7bbe ae87 343e 495c f7bb
00000390: 3f8f 533d 0bc8 ebbe af91 47bb 95be e13e
000003a0: a047 2bbd 2e9f 87be 5609 ccbe aa3d e0be
000003b0: dea7 333e 8662 d03e 8ac4 023f ff06 9fbe
000003c0: 98ab d83e e377 dfbd 0c9d f83e fb32 cf3c
000003d0: df06 fa3e 0ff7 f4be c656 d93e 2740 e53d
000003e0: 07b1 d13e 775e bd3e 95c0 05bf ecdf e33e
000003f0: 80f8 fcbe fbfa bd3e f177 77be 687b 95bd
-0.18809628 -0.22986591 -0.38821906 -0.39880955 -0.31232846 -0.48192942 -0.16833824 -0.4153806
0.07928249 -0.5145483 -0.30143452 0.02878053 0.37846664 0.11404014 0.0052484134 0.527821
0.10369876 -0.026810328 -0.48814932 0.24849992 -0.22455117 -0.11026314 0.041669652 0.45897657
-0.15890759 0.35207126 -0.1230041 -0.6167763 -0.4582515 0.41877493 -0.25790596 -0.5528138
-0.18243548 -0.20730506 0.41262397 0.17552795 -0.09586048 -0.042440176 -0.096933484 -0.47276795
0.43909642 0.019725375 -0.32603222 -0.4945789 -0.45105562 0.03904879 0.060806572 0.017611146
0.2584736 0.12462933 -0.026688116 -0.23790614 -0.10254872 -0.21002579 -0.1622451 -0.36669075
-0.0044672014 0.444521 -0.07885462 0.25709143 0.06295288 0.48579332 -0.12882777 0.37482792
0.15799709 0.15257634 -0.3776262 0.49309543 0.18349674 0.10579531 -0.28127134 -0.061475996
0.14368184 -0.1275874 -0.2811679 -0.49665192 -0.050597608 -0.17300117 -0.3312332 0.073305905
-0.14269254 -0.18919376 0.18960887 0.47849897 -0.053417295 0.3759461 -0.24130526 0.2199104
0.48691767 -0.31836057 -0.28481343 -0.15659995 0.16278699 0.28037375 -0.46404964 -0.38240388
-0.28210208 0.5524832 -0.31093538 -0.2179091 0.23497541 0.020739429 -0.33629793 0.31385344
0.10205663 0.38662553 0.083790526 0.30319783 0.24906142 -0.30007866 -0.23329164 -0.31266072
-0.024946928 -0.4681979 0.03404385 0.39991373 0.15503289 -0.041451246 0.36406213 -0.42742693
0.06451989 -0.3391658 -0.19474977 -0.37215567 -0.48917806 -0.34425676 -0.4983877 -0.07071149
0.17530394 -0.37489608 -0.22507395 -0.18282008 -0.2360611 0.21374914 -0.2849647 0.23768717
0.35964397 0.4697536 0.26071885 0.05191349 -0.009770479 0.64355403 0.07850671 0.09324164
0.070916824 0.5202492 -0.19795595 0.5247033 -0.38757265 -0.024195433 -0.45139265 -0.0024769902
-0.13414742 0.741239 0.19832256 -0.0029996699 -0.055282354 -0.025473595 -0.055143356 -0.4460433
0.4398676 0.5908826 -0.050108656 -0.3139183 0.250984 -0.082917295 0.18535809 -0.23493274
0.13559012 -0.3426354 -0.31764984 -0.33288035 -0.17318308 -0.26929003 -0.42087597 0.09235412
-0.4717902 -0.06945038 0.419819 0.40872425 0.43994826 0.063604794 -0.16757587 0.177277
0.030633477 0.23210187 0.10506607 0.16920552 0.18364137 -0.030432066 0.26717228 0.26473466
0.2689859 -0.44850826 0.4850621 -0.18809792 0.455611 0.54811764 -0.25083458 0.07170616
-0.2709677 0.46517932 -0.15357247 -0.25288862 0.3859823 -0.07270673 0.38302815 0.38422891
0.3355368 -0.22501503 -0.3305515 -0.14288431 -0.24661905 0.15053928 -0.35821062 0.11017855
0.37764224 0.54300034 -0.37667212 -0.5488074 -0.05303198 0.36619073 0.12324755 -0.55594254
0.09336504 -0.24578008 0.17629883 -0.007548843 0.051650282 -0.46051058 -0.0030451824 0.44090715
-0.041816354 -0.26488632 -0.39850873 -0.43797046 0.17544505 0.40700167 0.51081145 -0.31060025
0.42318416 -0.109115385 0.48557317 0.025292864 0.48833367 -0.4784474 0.42449015 0.11193877
0.40955374 0.36986133 -0.5224698 0.44506776 -0.4940834 0.37105545 -0.24166848 -0.072989285

bias f4 [256]
00000000: 6808 193e bed0 a6be 6a6b f13e e765 023e
00000010: caf4 e3be 2a2f 753e 9518 1e3d f5a9 be3e
00000020: 576e f2be 4174 cfbe a0cc a5be a0c9 83bc
00000030: 233d b63e 8e5c f63e a0f3 263e cc3f 243f
00000040: a105 09bf a181 04bf 038d c7be 20c1 1a3e
00000050: ca85 4b3d dacb 81be dc7a 19be 47e3 c73e
00000060: 415c 3cbe 9093 03be 8367 a93e 2784 e4be
00000070: 00ce 2ebb 355d 06bf baed 7c3e 920c bb3e
00000080: 3b8c 983e 1070 f43e 93c9 23be 5aed bc3e
00000090: f714 e13d 5a78 c23e defc 3a3f 7a14 9cbe
000000a0: 7dc9 093e dd78 dbbe bcae f03d 7865 afbd
000000b0: d8cb b83e 4039 49be b4ed e93e 5c0a d93e
000000c0: a5d2 59be 8cbf 473e b443 78bd 2349 df3e
000000d0: 153a f13e 7001 5abe b3cd 8bbe 4aac 6d3e
000000e0: c34c 8fbe 1f37 953e 00c5 dd3b 9827 8cbb
000000f0: c564 f8bd 1cf6 343e 47d6 cfbe db0e a23e
00000100: 1702 0d3e af89 8dbd e79c 92be 244c 2a3e
00000110: 3681 b03e e5e6 95be 9016 9b3e 3e1b ffbe
00000120: 4e42 81be b09d 093e a8f9 3a3e bbc1 123f
00000130: 2008 973e c9cd a8bd edaf 0f3f 340a ebbe
00000140: 04ea 62be 77cb c2be 4494 453d 24fc cd3d
00000150: 4831 163f d12e 593b 765a c93e 4a65 273f
00000160: b822 bb3d 9cdc 883e 83e7 353e 34aa 583d
00000170: 6c2e 903d 4076 d6be 92ba 9ebe d456 13be
00000180: 9eba e4be 18c8 013f 1966 a83e 349a 1a3f
00000190: a970 36be 0a27 c63e a6ab 83bd 40ea 03bf
000001a0: ea7e 55be a429 d9be 3637 a1bc 6d15 c13e
000001b0: 5c79 e0be daaf f3be 73de 423e eee2 b73d
000001c0: c3be 09bf 303a 9e3d ca9c babe c98f e13d
000001d0: 8625 0fbe 6bcf cfbe 3e9e e43e 1737 d73d
000001e0: 3896 6cbe 68b8 5abc 14f3 16be 8c43 c6be
000001f0: eb87 4e3e b073 283d f916 ddbe 7a1a 193f
00000200: 60ed ca3e 6fcc 033f 3002 95be b5e2 ebbe
00000210: f324 2b3c 3634 073f c97d 643e 7afd c9be
00000220: 244a 4dbe 9ba7 a9be 260f b4be 8cb7 173f
00000230: 986c 4e3e 1879 c5bd 8cb8 09be fb4d 853d
00000240: fc90 56be 74ce 10be 314a a53e bdd4 a83e
00000250: 367e 39be e6ff a13d 1f37 e53e 06bf 87be
00000260: f2f9 c9be 34b1 56be 4c89 c1bd 090b c93e
00000270: 3e5b 163f a337 c0be b173 d7be 6032 8b3e
00000280: 96c9 ccbc 6cd8 31be a3c3 103f c5ba 6fbe
00000290: 00fa 0bbf 9b6d 90be 1a98 6fbe 5c53 c53d
000002a0: b8ce a0be 1075 68be 02fe bc3e 5e77 d8bd
000002b0: 0672 d7bd 0916 473e 4471 403e 325e 113f
000002c0: 48fa b0bd 232c bc3e bed7 033f 4c3a b43e
000002d0: 5378 c23e a883 9abb 9ff3 bbbd 8e32 a93d
000002e0: 9194 45be 224d 0e3f 726a f73e 7997 983e
000002f0: 6c7b a63e 0a27 b33e 6173 9dbe dbff 9bbe
00000300: 7fc8 0e3f 0e9a f73e 75fe e63e be05 8c3e
00000310: 98cb 0e3f 9f60 843e 688a 9d3d bded 3f3d
00000320: 8620 ac3e fcda cc3d 4959 8ebe a81e 933e
00000330: 2340 f2be b022 58be 0aff 583e 2895 ba3d
00000340: 1f68 e03e 7279 203f 5539 bf3e 29d6 993e
00000350: 8044 37be 35cc 893e 0fc0 e4bd b8ab a13e
00000360: 07e0 2ebe fb4e 9f3d 6081 a2bd d4c7 29be
00000370: 6b5b f73e 2a69 913e 9842 d13e 4a16 863e
00000380: 187b 913e fcc5 8e3e 31cd 11bd 44ba 9d3e
00000390: a2e3 99be 4e69 64be 368a b8be 6de6 e1bd
000003a0: 0209 903c 9e2e a0be 0264 533e b8fa 61bd
000003b0: 1e50 8b3e 63e3 103f f178 19bd 9cf2 dabe
000003c0: 02b2 d73e a044 9ebe bfd0 413d 5c71 bd3e
000003d0: 2e83 973e 98f4 06be 10b1 153e 3c9f 093f
000003e0: 3cda 9b3e 2e20 bc3e 2a72 d2be 5bda 93bd
000003f0: 6627 00bf c569 f2be ee62 313f 24e8 193e
0.14944613 -0.32581133 0.47152263 0.12734185 -0.44522697 0.23943773 0.038597662 0.37239042
-0.47349808 -0.40518382 -0.3238268 -0.016087353 0.3559352 0.4811749 0.16303873 0.64159846
-0.53524214 -0.517603 -0.3897477 0.15112734 0.049688138 -0.2535084 -0.14988273 0.39040586
-0.18394567 -0.1284926 0.33086786 -0.44632074 -0.0026673079 -0.5248597 0.2470006 0.36533028
0.29794487 0.47741747 -0.15994863 0.36899835 0.10990327 0.37982446 0.73042095 -0.30484372
0.13455768 -0.4286565 0.11752078 -0.085642755 0.3609302 -0.19650745 0.45689166 0.42390716
-0.21271761 0.19506663 -0.06061144 0.43610486 0.47114626 -0.21289611 -0.27305374 0.23210254
-0.27988252 0.29143617 0.006767869 -0.004277181 -0.12128595 0.17672008 -0.40593168 0.3165196
0.13770328 -0.06911027 -0.28635332 0.16630608 0.3447358 -0.2927772 0.3029065 -0.49825472
-0.252459 0.1343906 0.18259299 0.5732686 0.29498386 -0.082423754 0.56127816 -0.45906222
-0.22159582 -0.38045856 0.0482371 0.10057858 0.5866895 0.0033139477 0.3932683 0.6538893
0.091374815 0.26730812 0.17764096 0.052896693 0.07040104 -0.41887093 -0.31001717 -0.14388591
-0.44673628 0.50695944 0.32890394 0.60391545 -0.17816414 0.3870166 -0.06429224 -0.5152931
-0.20849195 -0.42414582 -0.019679647 0.3771166 -0.4384259 -0.47595102 0.1903017 0.0897883
-0.53806704 0.07725942 -0.36447746 0.11013753 -0.13979158 -0.40587935 0.4465198 0.105085544
-0.23104179 -0.01334963 -0.14741164 -0.3872341 0.20169036 0.041125953 -0.4318159 0.59806025
0.39634228 0.51483816 -0.2910323 -0.460714 0.010445821 0.5281404 0.22313608 -0.394512
-0.20047814 -0.33135685 -0.35167807 0.59264445 0.20158613 -0.096422374 -0.13449305 0.06509014
-0.20953745 -0.14141256 0.32283166 0.32974806 -0.18114552 0.07910137 0.44768617 -0.26512927
-0.39448506 -0.20966035 -0.094500154 0.39266232 0.58732975 -0.37542447 -0.42080453 0.2718687
-0.024998467 -0.17367715 0.5654852 -0.2341109 -0.54678345 -0.28208622 -0.23397866 0.0963504
-0.31407714 -0.22700906 0.36912543 -0.105696425 -0.10519795 0.19442 0.18793207 0.56784356
-0.08641487 0.36752424 0.5150107 0.35200727 0.37982425 -0.0047154017 -0.091773264 0.08261596
-0.19294955 0.55586445 0.483234 0.29803064 0.32516038 0.34990722 -0.3075209 -0.3046864
0.5577468 0.48359722 0.4511601 0.2734813 0.5577941 0.25854966 0.076924145 0.046857584
0.33618563 0.100027055 -0.27802494 0.28734326 -0.47314557 -0.21106982 0.2119104 0.091104805
0.43829438 0.6268531 0.37348428 0.30046204 -0.17897224 0.2691361 -0.11169445 0.31576324
-0.17077647 0.07778736 -0.079348326 -0.16580135 0.48311934 0.28400546 0.4087112 0.2618888
0.28414226 0.27885425 -0.035596076 0.30806172 -0.30056483 -0.22305796 -0.36042947 -0.11030278
0.01758242 -0.31285566 0.20643619 -0.055170745 0.27209562 0.56596965 -0.037468854 -0.4276322
0.42127997 -0.30911732 0.047318216 0.3700055 0.2959227 -0.13179243 0.14618325 0.537586
0.30439937 0.367433 -0.41102725 -0.072193824 -0.5006012 -0.4734632 0.6929158 0.15029961

weight f4 [256, 256]
00000000: 1aec 2cbd 80f7 e43c a737 6b3d b32b 35bd
00000010: 0598 953c 84b1 9e3c c62d 2cbd 9cb8 0fbd
00000020: 33dd c73d 4c66 f9bc b201 a5bb d8f3 4ebc
00000030: f58a 383d b2a1 2b3d d980 acbd 1f61 ddbb
00000040: eea8 5a3d e2d5 9c3c 05b8 413d c8d6 0abd
00000050: 5c7c 2b3e 933b f9bc 89e4 0d3d e2b3 ecbb
00000060: d21b 5e3d 14ad a2bc d6d7 b33c 3531 113d
00000070: 00d7 4bba f6a6 413c 4912 843c b8af 2ebd
00000080: 3652 283d 9e4f 14bd 49ab 32b9 bbd1 bfbc
00000090: a95f 4fbc a41c 803c 3f61 6cbd 1039 da3b
000000a0: b1ad b63c fbd4 993d a341 243c fef4 783d
000000b0: e248 abbc 3edc 0fbd ed1b 2a3c d119 16bd
000000c0: fd34 fc3c 85d3 91bc 177b 2f3c 05be 2ebc
000000d0: 1b7b 85bc 00db 4eba aeeb 4abd 212a f1bb
000000e0: 0a6c 46bc 3b4b 5b3c 6423 4cbd dbb2 dc3c
000000f0: 00a8 26bd 8db3 94bb e849 8db9 ff14 30bd
00000100: cce3 50bc 3352 fcbb 8b0b 4f3d 09d9 d4bd
00000110: eaa9 5d3d f7ca 7f3c a569 853d 808c 9e3a
00000120: 6ce2 f8bc c0d0 a13c ea53 873c fe98 93bd
00000130: 389e f53c 4f14 733c 857c 38bc 029a 5bbd
00000140: 1c84 993d 6025 973d d87a 473d 1193 383d
00000150: 3d23 583d 5ceb f93b f13b febd 212b 31be
00000160: fa22 7b3d 99d4 16bd 354d 783c 7720 ef3c
00000170: 812f 103d 0b8f 223e 2bcf b43c 76a3 04bd
00000180: b3f2 8c3c 1725 52bd 7da1 403d 8c7d 00be
00000190: f748 9c3d 7541 3ebd c2b1 423d 1c63 2d3d
000001a0: 88b6 aabc 8e3f a53d 16ac 2bbd a73a 5bbd
000001b0: 41cc b03d 2ee4 3d3d e549 68bd 32e6 353d
000001c0: f9cd cd3d 80c3 603d a2b8 213d 8b17 283c
000001d0: 2287 37bd 5794 423d 8066 68bb def0 1abd
000001e0: 07e1 e8bc 53ff 09bd cdfa 783d 3041 fe3b
000001f0: c917 863c b4b9 26bd 0f9d 523d 3359 2c3c
00000200: 8afa b03c cd80 31bd e10e 0bbc a1a4 b33a
00000210: 4812 063e aae7 98bc 2eb9 eabb d811 303d
00000220: 102f b0bc ca48 bc3d efc5 a53d a5b1 0fbd
00000230: 5285 08bd feae 2c3d 2338 653d 79d7 443d
00000240: d265 31bc b9fc 5e3d a850 14bc 23a6 cbbd
00000250: 2d88 82bc c633 923d 27fa 08be 0c65 493d
00000260: e0e9 34bb a495 493d 23ca 3b3d 1234 f13c
00000270: 5709 22bd ced2 f4bc fb0d ffbc 4caf 89bd
00000280: fd38 5d3d 95bd d23c 3aee 94bd 5913 cd3d
00000290: 6b55 df3c 87e2 4dbc d739 793d 9db7 7a3d
000002a0: 40a5 043c dcc7 19bd c856 393d 4c70 07bd
000002b0: 0fcb 813b 1f8e ef3d deeb f4bb 405f 4dbd
000002c0: 8238 6f3d 4f1a 4cbd 9b7a 8b3c 8717 bb3d
000002d0: fb24 6e3c 53d0 893c 36b6 c03c c0d7 b43c
000002e0: ab58 2f3d 9b85 443d 0fb2 2639 1a18 003d
000002f0: 28a7 43bd 4441 93bc f04c cc3d 5230 973d
00000300: ee46 603d 6e16 32bd d7af 01bd 3c84 d03a
00000310: b14a bebd 8ab2 72bc fc0c 0abc 1f67 16bd
00000320: 1a01 7a3d 01b4 9e3c de01 123d 40cf e83c
00000330: 4427 1c3d d8cb 4f3c be58 b7bc 5369 493d
00000340: 7c0a bf3d da4b 19bd e402 6dbd a635 763d
00000350: c800 2b3c 3036 3e3d afa3 54bc 84a2 bdbc
00000360: 5bd5 583d 3e87 57bc 8055 133b 97bc 253d
00000370: 0c74 35be 9ccf 853d ce12 5a3d 5b14 633d
00000380: b70a 7d3c 5467 84bd 8eb0 133d 7028 113d
00000390: 2bd5 123d 5d97 313d 2f77 2fbd 4330 043b
000003a0: e844 cabc eec2 583d 3ad7 8c3d b64f b73c
000003b0: 9093 983c 2c81 d9bc e9c2 493d f02e 703d
000003c0: 6a18 503c 9478 f33b a50d 7dbc 803e d3bb
000003d0: 3cc9 66bd 2c32 03bc 8f28 29bc 3fee a6bd
000003e0: b241 2dbd d226 37bd ca1d 913c f148 083d
000003f0: 758a 003e be3d 753d bab0 3f3d 13ee d23c
-0.04221735 0.027950048 0.05742612 -0.044231128 0.018260965 0.019371755 -0.04203584 -0.035088167
0.09758987 -0.030444287 -0.0050356025 -0.012631379 0.045054395 0.04190225 -0.08423013 -0.0067559625
0.05338376 0.019144956 0.047294635 -0.033896238 0.16746658 -0.030423915 0.034641776 -0.007223592
0.05422575 -0.01985792 0.021953505 0.035447318 -0.0007775873 0.011819592 0.016122 -0.042648047
0.041094027 -0.03620874 -0.00017039212 -0.023415437 -0.0126570845 0.015638657 -0.05770993 0.0066596344
0.02229962 0.07511326 0.010025415 0.060780518 -0.020908777 -0.03512215 0.010382635 -0.036645714
0.030786986 -0.017801056 0.010710499 -0.010665421 -0.016294053 -0.000789091 -0.049541168 -0.0073597585
-0.012110719 0.013384636 -0.04983844 0.026940754 -0.04068756 -0.0045380057 -0.0002694868 -0.042988773
-0.0127496235 -0.0077002286 0.050548118 -0.10392959 0.05411712 0.015612355 0.06514291 0.0012096316
-0.030381404 0.01975286 0.016519506 -0.07206915 0.029982671 0.014836385 -0.0112601565 -0.05361367
0.07495901 0.073801756 0.048701137 0.04506213 0.05276798 0.007626934 -0.12413777 -0.17301609
0.061312653 -0.036823843 0.015155126 0.029190285 0.035201553 0.15874879 0.022071442 -0.03238245
0.017205572 -0.051304903 0.047029007 -0.12547892 0.076311044 -0.046449143 0.047532804 0.042330846
-0.02083899 0.08068763 -0.04191216 -0.053522732 0.08632708 0.046360187 -0.056711096 0.044408984
0.10049052 0.054873943 0.03948272 0.010259519 -0.044806607 0.04750475 -0.0035461485 -0.037827365
-0.028427614 -0.03369076 0.060786057 0.007759236 0.016368764 -0.040704444 0.051419314 0.010519314
0.021603841 -0.043335725 -0.008487434 0.001370568 0.13092911 -0.018665154 -0.0071631884 0.042985767
-0.021506816 0.09193571 0.080943935 -0.035081524 -0.03333027 0.042159073 0.05596174 0.048057053
-0.0108274985 0.054440234 -0.009052433 -0.099437974 -0.015934074 0.07138781 -0.13376676 0.04916863
-0.002760522 0.049214974 0.04584707 0.029443774 -0.03955969 -0.029885676 -0.031134596 -0.06722888
0.054009426 0.025725165 -0.072720006 0.10013456 0.02726241 -0.012566215 0.060846176 0.061210264
0.008096039 -0.037544116 0.045248777 -0.03306608 0.003960974 0.11697029 -0.0074744066 -0.050139666
0.0584035 -0.049829777 0.017026236 0.09135347 0.014535184 0.01682297 0.023524385 0.022075534
0.04280917 0.04797898 0.00015897326 0.031272985 -0.047766834 -0.017975457 0.09975612 0.07382263
0.054755144 -0.043478422 -0.031661835 0.001590855 -0.0929159 -0.014813075 -0.008425947 -0.036719438
0.061036207 0.019372942 0.035646312 0.028419137 0.038123384 0.0126828775 -0.022381183 0.04917271
0.093281716 -0.037425853 -0.057864085 0.060109757 0.010437198 0.046438396 -0.012978478 -0.023148783
0.052937847 -0.013154803 0.0022481382 0.040463056 -0.1772005 0.06533739 0.05324059 0.055439334
0.015444449 -0.06465021 0.036057048 0.035438955 0.035847824 0.043357242 -0.04283827 0.0020170368
-0.02469106 0.052920274 0.06876989 0.022376876 0.01862505 -0.026550852 0.049258146 0.058638513
0.012701133 0.0074301455 -0.015445148 -0.0064466596 -0.056344256 -0.008007567 -0.010324611 -0.081509106
-0.04229898 -0.044714756 0.0177144 0.033272687 0.12552817 0.059873335 0.0467994 0.025748288

bias f4 [256]
00000000: c3cd 9bbb ba53 6bbd 3cac 9f3d babe b33d
00000010: 32d9 d93c d8f2 33bc 9ccf 89bd f749 843d
00000020: 9cc9 833c 4cfd 0cbd 0864 373d ea3c 5cbd
00000030: e06a e83d 71af e33d 3a96 6dbd 38b1 8d3d
00000040: 6ca9 553d 3880 213c 009f 913c 2845 b2bc
00000050: b07d 00bc 2012 61bc 42d9 13bd ae5a f83d
00000060: 1b34 2e3c c00f cd3c 832b b13d 90f5 ab3d
00000070: b891 60bd 1d52 1c3a d93f 71bd 49cd 523d
00000080: 2ad0 ea3c 8372 fa3c 67b6 afbc c2e9 51bd
00000090: 6af0 3dbd 4c0d 72bb 5dbf 3b3d 2cbf 17bd
000000a0: 8036 63bc ea10 61bd 8f90 a4bc 2c2b 6abd
000000b0: 7ea5 53bd c8a0 db3b aa51 ba3d 3576 0d3e
000000c0: 9e63 66bd 0831 883c 202b d5bc ae01 443d
000000d0: cb25 19bd 7a46 41bc 1e49 13bd 0c38 09bd
000000e0: f9ee 9fbc 38bc 423d 1306 473d 35fb 643c
000000f0: 08a6 17bd ba18 95bd 6b7d e4bc f81e 423d
00000100: 8ab6 fc3c b613 2cbd 9458 033d 4451 8b3a
00000110: fc8c 2f3d 43f8 ebbb dcd7 0f3d 551e c63c
00000120: 9975 d83d b20b 973d 8a81 c0ba 9983 033d
00000130: 0c63 eb3d d00b dd3b 9965 133e 58d7 d33c
00000140: 4c32 97bc 9ea9 a83d fb97 833d 7c02 cdbc
00000150: 9711 fdbc 1dba fa3c aae2 793d d078 113b
00000160: 1bd2 a73d 5510 e43d ac50 0a3d b406 11bd
00000170: 3098 243e 7d5f 003d 16a0 613d 2d31 6e3b
00000180: 68d4 61bc 2898 7f3c 4e4e e83d 665d 32bd
00000190: 30e2 debc 2feb d2bc d2ab 77bd 20f2 1dbd
000001a0: 74dd a4bc 8207 9d3c 397c 3dbc 48cc 2bbd
000001b0: e4cd fdbb 432f 8b3d 2cb3 0dbd 4366 073e
000001c0: 7805 313d 7088 423d 914e 89bc bca1 f83d
000001d0: e82d b0bd 4eb0 903d 3453 f13c 05f8 243d
000001e0: f8da 0b3d 5136 4bbb 20b5 1cbb 0ed9 443d
000001f0: cb43 6bbc cacd 1f3d 047a 7fba 3d07 4d3d
00000200: ef70 8e3d f6d1 1fbd e83e 013e 0a12 34bd
00000210: de2e 06bd 0898 373c e20f c63b 5d86 8ebc
00000220: 3860 9c3c 34c1 4dbb a1fe a73c ce06 8dbd
00000230: 4b58 1d3d 3935 103d b9fb cabb dc98 8a3d
00000240: f86e cc3c a905 3a3d e9d8 063d 3a42 423d
00000250: 542e 6b3d 8bb1 b33c bd32 d8ba ef8d 26bd
00000260: ceff 1fbd 1523 923d 6d74 583d 69f1 c0bc
00000270: 3284 673d fc80 d93c 6688 13bd ea1a 2abd
00000280: b09f de3c f1f2 43bd 0723 10bc d6c2 7e3d
00000290: a2c5 203e 2e97 f7bc 3464 223d 0f3a 3fbd
000002a0: f079 ee3b 2541 09bd 8542 02bc 8948 81bc
000002b0: 4d5a 003e e893 e5bc f538 063c 0b1c 78bd
000002c0: a18f d03b d9b9 323d 5ba7 973c c0d8 a0bb
000002d0: d090 56bc 22fe 5dbd 1ad8 93bc 0795 b93c
000002e0: d106 823b 7529 163d a215 b2bc b77e 313b
000002f0: b633 18bd 581f b7bb 978c 2abb ba16 6b3b
00000300: 2a82 d8bc 181d 88bc 7782 8639 bacc 6f3b
00000310: e4e2 ba3c 8a4c 5abd 52cf 133e 3f4f 2d3d
00000320: 9e29 e53b d3a1 543d 4a60 29bd 6d65 9a3a
00000330: 43f1 c6bb 8b39 8cbd 6f27 073d bb47 9b3d
00000340: 2629 cb3b b9b9 973d 00ee 08bc 2a48 203d
00000350: 5a94 d13d cf07 1b3d 035a 1bbc 8188 d03d
00000360: 963d 9abd 4a49 273d 226c 043d 042b e53c
00000370: 5624 bb3d eb6d cd3d f3f7 fb3b 3411 84bd
00000380: 41ba 543d ce36 1bbc c189 6f3d 525b 773d
00000390: ba55 823d 522f 3d3d cc65 2bbd 749f 01bd
000003a0: 5368 5bbd 1629 93ba 0a37 3dbd 1eaf d13d
000003b0: 4046 34bd 87bd 863d 92c0 603d 1a79 d9b9
000003c0: 8262 2b3e c6f3 983b 2a9e 6d3d af43 f73d
000003d0: a41f 2c3d b519 813c ec35 023e 4a0d bd3d
000003e0: ead4 4e3d 0ce9 93bc 3c9c f53d 9e12 1abd
000003f0: a4df 7b3d 84f5 7c3d e077 ea3d 806c 323d
-0.0047547533 -0.057452895 0.07796523 0.087766126 0.026592825 -0.010983191 -0.067290515 0.0645942
0.016087346 -0.03442125 0.04477313 -0.05376903 0.1134851 0.11117447 -0.058004595 0.069185674
0.052163526 0.00985723 0.017776012 -0.021761492 -0.007842466 -0.0137372315 -0.036095865 0.12126671
0.01063254 0.025031924 0.08650877 0.08396447 -0.05482647 0.00059631636 -0.05889878 0.051465306
0.028663713 0.030572182 -0.02144928 -0.05124832 -0.046371855 -0.0036934195 0.045836795 -0.03704755
-0.013867974 -0.05494777 -0.020088462 -0.05717008 -0.051671498 0.006702516 0.090976074 0.13814624
-0.056247346 0.016624942 -0.02602154 0.047853164 -0.037389558 -0.011796588 -0.0359584 -0.033500716
-0.01952313 0.04754278 0.048589777 0.013975908 -0.037023574 -0.07280107 -0.027891835 0.047392815
0.03084876 -0.042010985 0.032066897 0.0010629077 0.042859063 -0.007201226 0.03511797 0.024184385
0.10569305 0.073752776 -0.0014687043 0.032107923 0.11493501 0.006745793 0.14394225 0.02585952
-0.0184566 0.08235477 0.06425472 -0.025025599 -0.030892177 0.030606324 0.06100718 0.0022197254
0.08194371 0.111359276 0.03376834 -0.035406783 0.1607368 0.031341065 0.05508431 0.003634523
-0.013783552 0.015600242 0.113430604 -0.043546103 -0.027207464 -0.02574691 -0.060466595 -0.038560987
-0.020125128 0.019168619 -0.0115652615 -0.041942865 -0.0077454913 0.06796124 -0.0345947 0.13222603
0.043218106 0.0474934 -0.016761096 0.121402234 -0.08602506 0.070648775 0.02945862 0.040275592
0.03414437 -0.0031007717 -0.002391167 0.048058562 -0.014359425 0.039014615 -0.000974566 0.05005573
0.06955134 -0.039018594 0.12621653 -0.043962516 -0.03275954 0.011205681 0.006044374 -0.017398054
0.01908885 -0.0031395676 0.020507159 -0.068860635 0.03841428 0.035207007 -0.0061945585 0.06767437
0.024955258 0.045415554 0.032921705 0.04742644 0.05741723 0.021935245 -0.0016494613 -0.040662702
-0.039062314 0.071355976 0.052845407 -0.023552613 0.056522556 0.026550762 -0.03601875 -0.041529574
0.027175754 -0.04783911 -0.008797414 0.06219753 0.15700391 -0.030223455 0.039646342 -0.04668623
0.0072777197 -0.033509392 -0.00795043 -0.015781658 0.12534447 -0.028024629 0.008192291 -0.06057362
0.006364778 0.04363427 0.018512418 -0.004908651 -0.013096049 -0.054197438 -0.018047381 0.02265407
0.0039680977 0.03666063 -0.021738831 0.0027083585 -0.03715869 -0.0055884533 -0.002602374 0.00358717
-0.026429255 -0.016615435 0.00025655676 0.0036590532 0.022813268 -0.05329565 0.14434555 0.042311903
0.0069934865 0.05191214 -0.041351594 0.0011779495 -0.006071241 -0.06846913 0.03299659 0.07582041
0.0061999736 0.07408471 -0.008357525 0.03913132 0.10233374 0.037849244 -0.00948191 0.10182286
-0.07531278 0.04084138 0.032329686 0.027974613 0.0913779 0.10030731 0.00768947 -0.06448594
0.051935438 -0.009473516 0.05848098 0.060389824 0.06364007 0.046187706 -0.041845128 -0.031646207
-0.05356629 -0.0011227455 -0.046195067 0.10238479 -0.044012308 0.06579118 0.05487115 -0.00041479693
0.16736796 0.004667732 0.058012165 0.120734565 0.042022362 0.015759328 0.12715882 0.0923105
0.05049602 -0.018055461 0.1199269 -0.03761541 0.061492577 0.06175758 0.114486456 0.043560505

weight f4 [33, 256]
00000000: 1905 673d 0960 463d 4ce1 813c 347a 0abd
00000010: 7085 7dbd c267 74bd b436 823c 2143 873c
00000020: 7231 0e3b dc1c a13c 6214 69bd 1d45 1c3c
00000030: 87c4 85bd 4a6a a2bd e046 2c3d 8dd4 00be
00000040: 60f7 c8bd 9b29 60bd f4f5 d13c e8ed 1b3c
00000050: efa1 2bbd 601f 7a3b 42e4 1c3d 2655 9ebd
00000060: b520 163d 10b1 15bc 4924 b2bd bf7f 453a
00000070: ba88 483d f20f 03bd d31b a0bc 80a6 923c
00000080: e0dc febc d0ba 273c 755d 983d a877 05bc
00000090: afaf 303d 4856 663d 92a3 6f3b 64e9 b5bb
000000a0: 6408 afbc 1ca1 38bd c392 653b 76c3 1fbd
000000b0: 0094 82bb eb25 9c3c 124f c1bb f1c4 d4bd
000000c0: f2c8 6abd 70f6 763c 1842 003d cbf6 49bd
000000d0: 781a b73d 7c4f c9bd 12b3 2f3d f2f8 81bc
000000e0: df68 c33c dac1 7abd ec97 61bd 7b83 b3ba
000000f0: 560c 17bd ea36 e1bc a01d 1ebc 41a3 5c3d
00000100: b409 4c3d 132d 133d 60a0 6f3b 5f20 383d
00000110: e808 adbd fe41 1abd 7cdf a7bc 3d20 c5bc
00000120: ac30 e5bc a9a0 52bd 60ba 66bd 788e cdbb
00000130: cdaf f6ba 1c5f 503d 6805 b0bc 3c0b febc
00000140: 8328 653b a630 123d 1a81 69bd 2613 e7bb
00000150: 4653 4fbd 75b3 8d3c 80be 6a3b 7be3 913d
00000160: d356 8e3c a8a7 9ebd 2010 45bd da51 2a3d
00000170: ef4f 6fbd 8233 9abd 140f 1f3d fc3a 46bd
00000180: d0df 353d 381f 2f3c 23b5 0bbd 7437 a0bc
00000190: 247e ecbc c1a3 883c a5d8 33bc c037 6ebd
000001a0: 6667 74bd bdb4 0cbd a849 15bd e87d 1bbd
000001b0: 0a51 6e3d 4188 dc3c e00b cbbb 507c 98bd
000001c0: 7e80 f4bc 31ae 433d 16c2 e9bb 1826 80bc
000001d0: 2263 623d 0550 53bd d8e4 2abd 57b5 763c
000001e0: c06a 10bc d212 533d 5af6 3d3d 3d8f 5a3d
000001f0: 4e4c 263d f9ed e9bc 3cb4 1b3d 483d 84bd
00000200: 4579 26bd 9631 20bd 7b95 cebd 77d9 21bd
00000210: 148b 703d aa76 063d 0f4a d53c 0eee 233d
00000220: a07b 4e3d e589 7e3c ad05 a23c d624 12b9
00000230: 694d a5bd 967c 33bd 2e2d 433d a045 1dbd
00000240: 760f 4a3d e095 86bd 7cb8 a13a 23ac e23c
00000250: ec2a 31bd ebc1 01bd 2438 153d 0a22 e13c
00000260: e037 4b3d 2f8f b93c f608 0dbc 86a7 123d
00000270: 8a9e 063d 3616 6c3d 8409 25bd 781d 6a3c
00000280: 3eed 78bc 5021 9c3b 4350 29bd 71aa e1bd
00000290: 7e40 3c3c 45e7 d4bc 2203 27bd a15c 483d
000002a0: 80fc ab3c 726d 6cbc ce5e 39bd a778 04bc
000002b0: a9b5 39bd c6e1 7b3d 7763 453d 338f 593d
000002c0: 3fcb 083d ce8c 1abd 6360 7fbd 7ef2 573d
000002d0: b8ba b4bc 8fb4 373d f71a 333d caa4 7b3d
000002e0: 7c6a 013d be27 73bd cd38 67bc 402c e73c
000002f0: 3cf3 fb3c 183e 783d 28fa b1bb 6f86 95bc
00000300: fe1f 21bd 43c9 003d 65ef a03d 7a08 18bd
00000310: 0861 173c 34d8 f6bc 3831 0abd 560d 3fbb
00000320: 18da 233d 5cd0 583c 1434 32bd d5c3 8dbc
00000330: 3c47 54bc 0d36 0c3d 43b4 86bc 1d30 89bd
00000340: eb16 a4bd b265 0cbc 91f5 263d 8c84 05bd
00000350: 737e 2ebd 4a82 8c3c 5faf debc d213 6cbc
00000360: 02f8 6abd 6e35 09bd e3ec e0bc f83d 953c
00000370: a977 2d3b 0069 5bbd 58d1 8fbc 51f3 b63a
00000380: 3431 0ebd 7c34 243d 37e8 05bd 4c00 5d3d
00000390: 067e 50bd a481 e43c 502f 9b3c 9837 ecbc
000003a0: cf49 22bc 42d5 08bd dc85 1a3d fc7f 58bc
000003b0: 3ba2 8dbd 44d5 b9bc 88eb 9a3c f303 6fbd
000003c0: bb16 c6bd 8c34 29bd 2c38 ac3c a4a5 0d3d
000003d0: 2858 0dbd c0e9 b83c 3398 053d 130f 363c
000003e0: 2672 403d 0fff 35bd 91ec 59bd f67a 22bb
000003f0: e1dd 85bc a257 723d 582d a1bd 7849 6a3d
0.056401346 0.04843143 0.0158545 -0.03380795 -0.061894834 -0.059669264 0.015895225 0.016511502
0.0021696952 0.019667082 -0.056904204 0.009537962 -0.06531625 -0.07930429 0.04205978 -0.12581082
-0.09812808 -0.054727178 0.025629975 0.0095171705 -0.04190248 0.0038165674 0.03830362 -0.077310845
0.036652286 -0.009136453 -0.08698327 0.0007533989 0.048958518 -0.03199763 -0.019544518 0.017901659
-0.03111118 0.010237411 0.074397005 -0.008146204 0.043136295 0.056234628 0.0036566001 -0.005551504
-0.021366306 -0.04507552 0.0035030104 -0.039004765 -0.003984928 0.01906105 -0.0058993185 -0.10389126
-0.057320543 0.015073404 0.031313032 -0.049307626 0.089405954 -0.098296136 0.042895384 -0.015865777
0.023853717 -0.061220028 -0.055076525 -0.00136958 -0.036877 -0.027492005 -0.009650618 0.05386663
0.04981394 0.035931658 0.0036564097 0.044952746 -0.08448964 -0.03766059 -0.020492308 -0.024063224
-0.02797731 -0.05142275 -0.056330085 -0.006273087 -0.0018820703 0.050871953 -0.021486953 -0.031011216
0.0034966774 0.035690926 -0.057007886 -0.007051843 -0.050616525 0.017297486 0.0035819113 0.071234666
0.017375385 -0.07746822 -0.04811108 0.041581966 -0.05842584 -0.075293556 0.03883274 -0.048396096
0.044402897 0.0106885955 -0.034108292 -0.019557692 -0.028868742 0.016679646 -0.010976945 -0.058158636
-0.05966892 -0.034352053 -0.036447197 -0.03796187 0.058182754 0.02692044 -0.006196484 -0.07445586
-0.029846426 0.047773544 -0.0071337325 -0.015643165 0.05527032 -0.051589984 -0.04172215 0.015057883
-0.008814514 0.05153162 0.046377517 0.05335926 0.040600114 -0.028555857 0.03801368 -0.06457001
-0.040642995 -0.03910979 -0.10087105 -0.03951403 0.058726385 0.03282801 0.02603629 0.04002195
0.050410867 0.015535806 0.019778097 -0.00013937367 -0.080714054 -0.043819986 0.04765051 -0.038396478
0.04933115 -0.06571555 0.0012338306 0.027669972 -0.043253824 -0.031679075 0.036430493 0.027482051
0.049613833 0.022651283 -0.0086080935 0.035804294 0.03286604 0.05763837 -0.040292278 0.014289252
-0.015193282 0.0047647133 -0.04133631 -0.11018837 0.0114899855 -0.025989184 -0.040774472 0.048916463
0.020994425 -0.014430391 -0.04525643 -0.008085406 -0.04533926 0.06149461 0.04819056 0.05311508
0.033396956 -0.037731938 -0.06234778 0.052721493 -0.02206169 0.04484993 0.043726888 0.061436452
0.031595692 -0.059364073 -0.014112663 0.028219342 0.030755632 0.060606092 -0.0054314323 -0.01825258
-0.03933715 0.031441938 0.07858161 -0.03711746 0.009239443 -0.03013239 -0.033738345 -0.0029152236
0.040002912 0.0132332705 -0.043506697 -0.017305294 -0.012956437 0.034231234 -0.016443377 -0.0669863
-0.08012184 -0.008569168 0.040761534 -0.03259711 -0.04260106 0.01715197 -0.027183233 -0.014409022
-0.057365425 -0.03349822 -0.027456706 0.018218026 0.0026469028 -0.053566933 -0.017555878 0.0013958012
-0.034714893 0.040089116 -0.03269216 0.05395536 -0.050901435 0.027893849 0.018943459 -0.028835103
-0.009905293 -0.033406503 0.037725314 -0.013214108 -0.06915709 -0.0226847 0.018911138 -0.058353376
-0.09672304 -0.04130988 0.021022879 0.034581795 -0.0345079 0.022572398 0.03261585 0.011111992
0.04698386 -0.044432696 -0.053204123 -0.0024792529 -0.016341152 0.059165604 -0.07869977 0.05719897

bias f4 [33]
00000000: f85c 90bc 9a0e d1bd 4cc7 ba3b d59b e63b
00000010: 2a72 b4bd b378 f63b 7624 3d3c 8304 8bbb
00000020: 83ed 1c3c 95bf 11bd 5d8c 85bd 306d 67bc
00000030: 33b4 a8ba 276c 513c ec01 fd3b 75fe 133b
00000040: 91f6 babd f7ab bebb 4302 5cbd 5433 52bd
00000050: 254c 7cbd 4a8e 813c 2862 d83c b2b1 013c
00000060: 22e1 4dbc ba5e 68bd 0b5d a53b c1b7 9abd
00000070: 1c14 72bd 3109 8abc 3847 49bc 5e5b 0a3c
00000080: 10e9 65bd
-0.017622456 -0.10207863 0.0057000276 0.0070376196 -0.088108376 0.0075217127 0.0115443375 -0.004242481
0.009578112 -0.035583097 -0.06520913 -0.014125153 -0.0012871086 0.012782133 0.0077211764 0.0022582088
-0.0912906 -0.0058188397 -0.053713094 -0.05131848 -0.061596055 0.015814919 0.026413992 0.007915901
-0.012565883 -0.056730963 0.005046492 -0.075545795 -0.05910121 -0.016850086 -0.012285046 0.008444635
-0.05613047
