experiments/diff_reward_weights_data/kappa1_3_kappa2_1_kappa3_1/dqn_proposed_erf.pth (torch, 306018 bytes, 6 tensors)

weight f4 [256, 4]
00000000: 509c 40be f861 6bbe a6c4 c6be c430 ccbe
00000010: 84e9 9fbe 74bf f6be dc60 2cbe c4ac d4be
00000020: b53e e83d f5fb fdbe 2dd6 8dbe dd81 4bbd
00000030: 2da9 c83e 3f63 5b3d fd11 433d 6b5e 4d3f
00000040: 85f2 d33d 7185 ba3d baf4 18bf 10bb e53e
00000050: b518 6dbe 1081 01be 8550 0c3c fa6c dc3e
00000060: 2eb9 e339 2031 ed3e 6799 d6be ffc0 fdbe
00000070: 95e2 d1be 2bf6 ed3e 040b 83be e7c5 0bbf
00000080: d2c8 2abe 7182 83be 526f de3e 820e 4b3e
00000090: 8052 c4bd c0d5 2dbd 1085 c6bd a40e f2be
000000a0: 6d99 e23e 2662 6d3c 3e3a a7be 9573 39bf
000000b0: b8f0 e6be a0f1 1f3d 5010 793d 4045 903c
000000c0: a49e 823e ac83 ce3d 3093 09bc e4cd 41be
000000d0: 1005 d2bd 0011 57be 9423 26be e4be bbbe
000000e0: 28f7 0f3b 6f7b ce3e 856b 1abd 9844 173f
000000f0: 1c56 8e3d 4c05 d23e adaa c3bd 74b6 3d3f
00000100: 1c85 183e 5b01 553e b58c e0be 0c74 b13e
00000110: 9a7d 333e b7fd 3a3e 9f8a a9be c235 7fbe
00000120: 062c 223e 0578 82bd 8b4f 8abe c88a 2abf
00000130: 703f 4fbd 3427 31be 6697 a9be 6821 963d
00000140: 9768 66be dda9 1fbe 26b1 1b3e 39b2 e03e
00000150: 248e 573b 81c8 d63e 0e2c 99be 39e0 ae3e
00000160: a22e fa3e 2ea3 a1be e8e8 8abe b16b a4be
00000170: e6c4 1f3e 0728 943e fec3 fabe f340 1dbf
00000180: 1c49 96be 434b 0c3f 85af a1be 58b4 68be
00000190: ad4e 693e 4b1c 993d 8f9f bebe ded6 ee3e
000001a0: 1cc7 e33d 1103 ae3e 612d ee3d b74e 1e3f
000001b0: ae83 813e ba16 63be 57b8 87be dc23 13bf
000001c0: 805d ccbc 98b7 efbe 9071 0b3d 7ec1 cc3e
000001d0: ee3a 213e 7d0e 9dbd 6d6a d03e b7e2 1cbf
000001e0: 1883 a03d cdde 76be e3cc f2be a017 bebe
000001f0: 8c75 fabe 6c42 b0be a82c ffbe 30d1 90bd
00000200: 83bd 3f3e 54b1 9abe a118 5ebe 6003 a4be
00000210: 023f 33be f554 953e bca4 a8be 0d32 083e
00000220: 42fc ba3e b895 d83e 3e46 8f3e 5f25 d13e
00000230: b699 81bb a1b6 0f3f b526 dc3d b244 c53e
00000240: 86d0 9c3d 21da e63e 182a 38be 8e17 513f
00000250: ec6f c6be 8035 c6bc f01c e7be 0055 22bb
00000260: 1e09 32be e0d9 2e3f c14e 2d3e 9a0d a53e
00000270: c06f 62bd 00ae d0bc 00de 61bd ca5f e4be
00000280: 6f60 db3e c10e 073f 10f4 70bd 11cb cabe
00000290: c5a5 803e 4672 29be ed70 543e e857 bcbe
000002a0: 3ab7 d93d e53a 8bbe 7c5f 15bf f3a8 87be
000002b0: e856 31be 62e0 89be 0e7d d7be 2824 bd3d
000002c0: 314b ebbe e725 9abd 0917 d93e fed7 173f
000002d0: a190 e73e aab1 8e3d 47eb 24be 2297 7a3e
000002e0: 9aab 233d bac0 3c3e 5d5d 0d3e 707c df3e
000002f0: 4413 4f3e 482e d4bc 50f3 9a3e af01 2b3f
00000300: 57f9 933e 9c52 dabe 548d 0b3f 525d 17bd
00000310: ced5 e83e e1f2 0e3f 5e06 80be 6ee5 db3d
00000320: 8145 8ebe a8b7 f53e ecce 28be 244c 87be
00000330: 1997 cc3e 6690 1cbe 3c2e dd3e dcfd 433f
00000340: 1438 b03e c5cb 61be d61a 97be 6c3c a7be
00000350: b489 7cbe f826 1a3e 6267 b7be 48a5 e13d
00000360: 2e48 c03e dcdc 083f c479 c4be d147 11bf
00000370: e54f 60bd 03f5 953e eccc cd3d 9ed7 6bbf
00000380: bbd1 c03d 3cf0 b9be 3fe8 863e e1c9 103d
00000390: e37c 8f3d c431 bebe 3804 a73c 1327 2e3f
000003a0: a047 2bbd 2e9f 87be 5609 ccbe aa3d e0be
000003b0: 9ad4 2e3e 19c0 943e 4c77 0d3f d914 ebbe
000003c0: 17ab e13e 0538 5cbe 1426 0f3f dda3 0f3e
000003d0: ab26 fd3e e138 eebe 4ba4 f13e 1431 41bd
000003e0: a2bb d83e bd23 c43e 9b0c f2be 8b41 1f3f
000003f0: c851 d8be 6de0 d63e 2103 73be 1bd1 2dbd
-0.18809628 -0.22986591 -0.38821906 -0.39880955 -0.31232846 -0.48192942 -0.16833824 -0.4153806
0.113400854 -0.4960629 -0.27702466 -0.049684394 0.3919157 0.053561445 0.047624577 0.80222195
0.10348991 0.09107483 -0.59748423 0.4486928 -0.23153956 -0.1264689 0.008564119 0.43051893
0.00043434784 0.46326542 -0.41913912 -0.49561307 -0.4099318 0.46476874 -0.25594342 -0.5459885
-0.1667817 -0.25685456 0.43444306 0.19829753 -0.09586048 -0.042440176 -0.096933484 -0.47276795
0.4425768 0.014488732 -0.32661623 -0.7244199 -0.4510553 0.03904879 0.060806572 0.017611146
0.25511658 0.10083708 -0.008396909 -0.18926197 -0.10254872 -0.21002579 -0.1622451 -0.36669075
0.0021967385 0.40328547 -0.037700195 0.5908904 0.06950018 0.41019666 -0.09554038 0.74106526
0.14894527 0.20801298 -0.4385735 0.3465885 0.17528382 0.18260847 -0.33113572 -0.2492285
0.15837106 -0.06370548 -0.2701381 -0.66618013 -0.050597608 -0.17300111 -0.3312332 0.073305905
-0.22500835 -0.15592141 0.15204296 0.43885973 0.003289112 0.41949847 -0.29916424 0.34155443
0.48863703 -0.3156981 -0.27130818 -0.32113412 0.15602455 0.28936788 -0.48977655 -0.6142723
-0.29352653 0.5480234 -0.31579223 -0.22725046 0.22783919 0.074760996 -0.3723111 0.46648306
0.111219615 0.33986714 0.11629749 0.6183886 0.25295776 -0.22176638 -0.26507828 -0.5747659
-0.024946928 -0.46819758 0.03404385 0.39991373 0.15745136 -0.07668779 0.40706196 -0.6128344
0.07837504 -0.24108429 -0.4742194 -0.371274 -0.48917806 -0.34425676 -0.49838758 -0.07071149
0.18724637 -0.30213416 -0.21689083 -0.32033825 -0.17504504 0.2916638 -0.32938182 0.13300343
0.36520582 0.42301726 0.27983278 0.40848824 -0.0039550913 0.56138045 0.1074957 0.38528973
0.0765696 0.45088294 -0.17984807 0.81676567 -0.38757265 -0.024195433 -0.45139265 -0.0024769902
-0.1738629 0.683012 0.16924573 0.3223694 -0.055282354 -0.025473595 -0.055143356 -0.4460433
0.4284701 0.5275689 -0.058826506 -0.39608052 0.25126472 -0.16547498 0.20746203 -0.36785817
0.10630651 -0.2719337 -0.5834882 -0.26496086 -0.17318308 -0.26929003 -0.42087597 0.09235412
-0.45955804 -0.075267605 0.42400387 0.5931395 0.4522753 0.069674805 -0.16105376 0.24471715
0.039958574 0.18432894 0.13805147 0.43649626 0.20222193 -0.025900975 0.30263758 0.66799444
0.2890117 -0.4264115 0.54512525 -0.03695423 0.4547562 0.55839354 -0.25004858 0.107371196
-0.27787402 0.4799168 -0.16485184 -0.26425278 0.39959028 -0.15289459 0.43199337 0.76559234
0.34417784 -0.22050388 -0.29512662 -0.32663286 -0.24661905 0.15053928 -0.35821062 0.11017853
0.3755507 0.53462005 -0.3837415 -0.5675021 -0.054763693 0.29288492 0.10048851 -0.9212588
0.09415003 -0.36316097 0.26349065 0.035348777 0.07006242 -0.37147343 0.020387754 0.6802837
-0.041816354 -0.26488632 -0.39850873 -0.43797046 0.17073289 0.2905281 0.5526016 -0.45914343
0.44075844 -0.21505745 0.5591748 0.14027353 0.49443564 -0.4652777 0.47195658 -0.047165945
0.42330652 0.38308516 -0.47275242 0.62209386 -0.42249894 0.41968098 -0.23731662 -0.042435747

bias f4 [256]
00000000: 6808 193e bed0 a6be abe1 fa3e 847d 9e3d
00000010: 0499 a7be d79a 643e 72d0 693e 6fa3 e33e
00000020: 69e6 05bf 4074 cfbe 777a a8be a0c9 83bc
00000030: 852e b33e 8e5c f63e 08bd 0b3e 1c25 143f
00000040: 31ed 00bf 2277 edbe c9d7 a6be 20c1 1a3e
00000050: 61f9 a93d 0c01 4bbe 51c0 16be cd75 c03e
00000060: 0e9c 44be 5beb 9dbd a640 973e 4b6b bcbe
00000070: 00ce 2ebb 9fd4 10bf 06ae b03e 920c bb3e
00000080: 2ccd bd3e f930 013f 1b06 55be ac9e 9a3e
00000090: 4beb 623d 5a78 c23e 52fd 383f 7a14 9cbe
000000a0: ff84 9c3d 07db 02bf 28bd 403e 7865 afbd
000000b0: 95d4 b73e efdf 36be 072a d93e dd73 df3e
000000c0: a432 43be e866 623e b473 6fbd a420 b43e
000000d0: 4f89 f33e 7001 5abe 3793 99be 1207 0e3e
000000e0: 2366 cbbe 4acd c23e 00c5 dd3b 6bf7 f8bd
000000f0: d5c5 66be 9c71 423e cbcf bdbe eae1 ce3e
00000100: f782 183d 1fb9 67bc 1336 70be 74a7 b83d
00000110: 3681 b03e 7f2c 94be f1a3 c33e 3e1b ffbe
00000120: 0734 a6be b09d 093e aa33 e33d d84c e63e
00000130: 2008 973e 2c93 83bc 537d fe3e 340a ebbe
00000140: d88b 4ebe 881a d0be 16ff 013e 9fc8 aa3d
00000150: 0794 053f 2538 f83c d6ef cc3e 2b03 f63e
00000160: b822 bb3d 3b81 943e 96e4 233e cabe a4bc
00000170: 6969 2e3e 0180 d9be b0f5 aebe d456 13be
00000180: cf39 d6be 0acf 023f e40f dd3e 9edc 113f
00000190: 06c8 16be 6867 b53e 625d dcbd cd60 c9be
000001a0: 3fef 6fbe ee41 9ebe 7eb1 563c 9156 b53e
000001b0: fa62 d3be 5478 cabe d986 d03d 34d6 943c
000001c0: 2075 19bf a255 3c3e ca9c babe 77cd 483d
000001d0: a7da d2bb 0a9f debe 3e9e e43e 0dfc 53bc
000001e0: 3b7c a3be b6a1 1ebe adc6 83be 8c43 c6be
000001f0: 2926 9f3e b073 283d 2955 d2be ddc8 143f
00000200: e0de b03e 3b7d 083f 1396 9cbe 4151 ebbe
00000210: 0f63 01be dcc6 e83e 3818 ab3e f2e4 a5be
00000220: 244a 4dbe 33ab a8be 6393 b3be 2851 1d3f
00000230: 986c 4e3e c8e9 66be 8cb8 09be 5f6c b43d
00000240: 42dd 69be dd31 cabc bf9b 1b3e 9042 9c3e
00000250: 5ca2 3ebe b00d a43d e24d 0b3f 06bf 87be
00000260: f2f9 c9be 34b1 56be c0e4 35bd 3e12 ec3e
00000270: 82a8 073f cc54 91bd e748 19bf 9c64 a83e
00000280: e715 8dbe a068 bcbe 2414 c63e fc67 3ebe
00000290: b588 f4be 54be b0be 08f3 67be 7a0b 803d
000002a0: 3de5 b8be 1075 68be 02fe bc3e 52b1 4bbd
000002b0: 041b 25be e844 213e 017e 593e b81e 043f
000002c0: 48fa b0bd 5d42 bb3e 4dde 063f 2de5 fe3e
000002d0: b470 c23e 413b 513d 21f0 0cbe 5a09 263e
000002e0: ab2b 31be 5cae 013f 10d6 e33e 1c38 9d3e
000002f0: 1c3b cf3e 0a27 b33e 601c 9bbe 3ad4 97be
00000300: ac48 ff3e f102 df3e 8d32 143f 0be8 033e
00000310: d986 223f 3b9d 293e 25f8 d43d d672 5abd
00000320: 5a16 a03e e85b 543d 8282 9fbe a81e 933e
00000330: 6bbd 24bf b022 58be 54af 093e 199a 293d
00000340: e1de f93e 50ca 2e3f 4c55 c13e 818f aa3e
00000350: 8044 37be 2ecc 893e e40c 06be ed28 953e
00000360: d4c3 00be 27c3 3f3d 6081 a2bd fd9a 37be
00000370: ac55 f13e c22e 453e c56c 9b3e 0f73 483e
00000380: b48b 163e c90a 9c3e a15d 16bd aac9 933e
00000390: e8c2 7fbe 768a 1bbe 368a b8be e86b 16be
000003a0: 7fcf e63c 1cde eebe 84f6 623e cb21 b33a
000003b0: 9160 983e 61e5 363f a7e2 08be 9cf2 dabe
000003c0: 423d d23e de0b a1be dcad fb3c 5c71 bd3e
000003d0: 2e83 973e 6dd1 10be 8f2c 473e f3e2 223f
000003e0: e38e 843e 2e20 bc3e 8df0 d4be 55b9 a6bc
000003f0: 7b55 f2be 59e6 c0be b7df ee3e 5661 bc3d
0.14944613 -0.32581133 0.49000296 0.07738784 -0.3273393 0.22324692 0.22833422 0.44460627
-0.52304703 -0.4051838 -0.32905933 -0.016087353 0.3499643 0.4811749 0.13646328 0.57869124
-0.50361925 -0.46379954 -0.32586506 0.15112734 0.082995184 -0.19824618 -0.147218 0.37589875
-0.19200155 -0.07710906 0.2954151 -0.36800608 -0.0026673079 -0.56574434 0.3450777 0.36533028
0.37070596 0.5046535 -0.2080311 0.30199182 0.055400174 0.37982446 0.72261536 -0.30484372
0.076425545 -0.5111546 0.18822157 -0.085642755 0.35904375 -0.17858861 0.42414877 0.43643084
-0.19062287 0.22109568 -0.058459952 0.35181153 0.47565696 -0.21289611 -0.2999513 0.13869885
-0.39726362 0.38047248 0.006767869 -0.12156566 -0.22536404 0.18988651 -0.37072596 0.40406734
0.037234273 -0.014143257 -0.23458128 0.09016314 0.3447358 -0.28940198 0.38211015 -0.49825472
-0.3246157 0.1343906 0.110938385 0.44980502 0.29498386 -0.016061388 0.4970499 -0.45906222
-0.20170534 -0.40645242 0.12694964 0.08339047 0.52178997 0.03030021 0.4002673 0.48049292
0.091374815 0.29004845 0.16005167 -0.020110507 0.17032398 -0.42480472 -0.3417182 -0.14388591
-0.4184098 0.51097167 0.43176186 0.5697726 -0.1472474 0.35430455 -0.10759999 -0.39331666
-0.23431109 -0.30909675 0.013103841 0.35417607 -0.4128645 -0.39544928 0.1018197 0.018168546
-0.59944344 0.18392041 -0.36447746 0.04902407 -0.006434757 -0.43480712 0.4465198 -0.012938512
-0.31930718 -0.15491375 -0.25737515 -0.3872341 0.310838 0.041125953 -0.41080597 0.58118993
0.3454504 0.53316087 -0.30583248 -0.4596043 -0.12635444 0.45464218 0.33416915 -0.32401234
-0.20047814 -0.32943115 -0.35073385 0.6145196 0.20158613 -0.22550118 -0.13449305 0.08809733
-0.2283831 -0.02468198 0.15196131 0.30519533 -0.18616623 0.08010423 0.54415715 -0.26512927
-0.39448506 -0.20966035 -0.044407606 0.46107668 0.529915 -0.07096252 -0.59876865 0.3288926
-0.27555773 -0.36798573 0.3868724 -0.18594354 -0.4776055 -0.3452021 -0.22651303 0.06252189
-0.36112395 -0.22700906 0.36912543 -0.049729653 -0.16123587 0.15748942 0.21239473 0.51609373
-0.08641487 0.3657407 0.52682954 0.49784222 0.3797661 0.0510819 -0.13763477 0.16214505
-0.17301814 0.50656676 0.44499254 0.3070687 0.40474784 0.34990722 -0.30295086 -0.29654104
0.49860132 0.43556932 0.57889634 0.12881486 0.6348701 0.16563885 0.10398892 -0.053332172
0.31267053 0.05184546 -0.31154257 0.28734326 -0.6435153 -0.21106982 0.13445789 0.041406725
0.48802856 0.68277454 0.3776039 0.3331261 -0.17897224 0.2691359 -0.13090855 0.29132786
-0.12574703 0.04681697 -0.079348326 -0.17930217 0.47135675 0.19256118 0.30356422 0.19575141
0.1470173 0.30476978 -0.036710385 0.28864795 -0.24976695 -0.15189537 -0.36042947 -0.146896
0.028175114 -0.4665383 0.22164351 0.0013666687 0.29761174 0.71443754 -0.13367711 -0.4276322
0.4106236 -0.31454366 0.030722551 0.3700055 0.2959227 -0.1414239 0.19450592 0.6362755
0.25890264 0.367433 -0.41589776 -0.020352045 -0.4733084 -0.3767574 0.46655056 0.09198253

weight f4 [256, 256]
00000000: 1aec 2cbd 80f7 e43c 7038 37bc 49fe b7bc
00000010: c6a4 86bd 9aac 8f3c 10c5 afbe f287 3dbe
00000020: b943 913d 4c66 f9bc a9fe dabc d8f3 4ebc
00000030: 7a24 743d b2a1 2b3d 76b9 2b3e 4373 a73d
00000040: 6354 643c 6f02 3bbd e255 69bd c8d6 0abd
00000050: aeb2 b93d 2b95 92be 774a 8d3c eaee 413c
00000060: a95b e8bd 7587 1bbd 629b 9d3d 6138 73bd
00000070: 00d7 4bba 52e1 4a3c d89e 82be b8af 2ebd
00000080: 2325 6e3b de56 21be 7e68 bf3c 09e8 aa3d
00000090: 6b27 8b3d a41c 803c 77a4 013e 1039 da3b
000000a0: 341b 1c3d 53d6 963d 809d 42be fef4 783d
000000b0: d50d 2a3d cb0a 04bd 03e2 b03d ef01 1f3b
000000c0: 6744 143d 5dac 0abb 5505 1fbe e5da 923c
000000d0: 0f26 97bc 00db 4eba c7f3 6ebd 8581 adbd
000000e0: 9ec4 fcbc 7491 0e3d 6423 4cbd 3182 633d
000000f0: 8042 c2bc d224 123c 6789 c7ba 404b 23be
00000100: 8f4c 7b3d bafe f3bc 8bf6 623d 1614 d5bc
00000110: eaa9 5d3d 2688 4cbe 6e78 a73d 808c 9e3a
00000120: f775 afbd c0d0 a13c c47e ce3c 33fb c13d
00000130: 389e f53c 2a36 963c dbd0 07bd 029a 5bbd
00000140: a134 5a3d 1e62 abbd a776 03bc eb27 913d
00000150: b25a ddbd 0c01 1abe b2e6 4b3c 19fd 92ba
00000160: fa22 7b3d dcb0 46bc 0484 223d 8138 0f3d
00000170: f52a ea3c 4d18 933c c260 df3b 76a3 04bd
00000180: 362f 89bb 7435 39bd 0148 6cbd df39 e83b
00000190: 82b2 b03d a783 d6bc b73a 9f3d 583e 0d3d
000001a0: dc18 11bc b32b 9a3c 9d2c 42be 2785 e2bc
000001b0: 7720 093d 9bd2 b63c 304e 053d e5e7 b83d
000001c0: b94c 9f3d 3131 943d a2b8 213d 22df fe3c
000001d0: 6c4f 2bbd 0337 8e3d 8066 68bb b321 de3b
000001e0: 5fc8 63bb b7f9 36bd 4e0e 6f3e 3041 fe3b
000001f0: 6a3b dd3a b4b9 26bd a57a 3f3d db2f 483c
00000200: 92bc 113d 58bd 1ebd 8e11 9abc fa72 bcbb
00000210: 05f2 d03e 0703 123e 429f 933a 01d7 2c3d
00000220: 102f b0bc 3574 083d 3ac6 983d 9ea7 05bd
00000230: 5285 08bd 2013 8d3e 1638 653d 3d6b 1b3d
00000240: d0da ecb9 ea94 10be 40f6 133e 5fcc 7f3d
00000250: 3ea8 57bd 5372 d5bd 4c14 af3e 0c65 493d
00000260: e0e9 34bb a495 493d 0f26 433d c0ad 323d
00000270: a977 16bc 41c1 403e d7a3 adbc 8340 07be
00000280: c577 9d3e 3093 503d e399 e4bd c4d7 c6bb
00000290: 4d80 703c 3314 e8bb 755c f6bd 2cce db3d
000002a0: 609d f83c dcc7 19bd c856 393d 5ecc 8abe
000002b0: ad5f df3d ed7f 563d ea5c f63d c31c febc
000002c0: 8238 6f3d e975 c6bc d051 093d 2272 80be
000002d0: 50b6 2f3d b063 c03b effb 4d3d 3ad2 32be
000002e0: 63a0 563d b6fa a63d 07bc 3b3d 8049 7e3d
000002f0: 8d14 3cbe 4441 93bc 1680 46bd a9b5 ce3c
00000300: ce52 023e 7874 e4bc de00 cb3d 47f7 2d3e
00000310: 7405 503e 51ea b6bc 6c48 4f3c b93d f7bc
00000320: 5944 c23d 403c 843d 50ce b93c 40cf e83c
00000330: e943 e03e d8cb 4f3c 57f5 3b3e bbd0 07bd
00000340: 777f 7e3d 186a a33d 5b91 37bd d1ad c93c
00000350: c800 2b3c 2636 3e3d 700b 233a f4a6 4c3d
00000360: 1727 1f3e 29bb 14bd 8055 133b c674 843d
00000370: 1b2e bb3e 505a 0cbd c240 91bc b76f 8c3d
00000380: d213 6a3e 9919 b63d 5610 d5bd 8621 7c3c
00000390: 5fbc 23bd 12a4 613d 2877 2fbd c3ce 8c3c
000003a0: 7c5d 4bbe 77c1 813d 3397 c13d 7f79 183d
000003b0: 8b57 373d 5c94 be3e f188 793d f02e 703d
000003c0: ffe5 413d 7774 2abe c657 c33c 803e d3bb
000003d0: 3cc9 66bd 11e2 1b3c 9f62 873c b1a3 d33e
000003e0: cfa8 2cbd d226 37bd e856 36be 10c4 523b
000003f0: fc40 ab3c 7231 693d c99a 553d e89b c5bc
-0.04221735 0.027950048 -0.011182889 -0.02246012 -0.06574397 0.017538358 -0.34330034 -0.1850889
0.07092995 -0.030444287 -0.02673276 -0.012631379 0.0596051 0.04190225 0.16769966 0.08176281
0.013936135 -0.045656618 -0.05696667 -0.033896238 0.090672836 -0.2862943 0.017247422 0.011836747
-0.11345608 -0.03797098 0.076956525 -0.05937994 -0.0007775873 0.012382822 -0.25511813 -0.042648047
0.0036338053 -0.15755793 0.023365255 0.083450384 0.06794628 0.015638657 0.12660395 0.0066596344
0.03811188 0.07365098 -0.19005394 0.060780518 0.041517098 -0.032236855 0.08636858 0.0024262627
0.036198046 -0.0021159865 -0.15529378 0.017926643 -0.018450765 -0.000789091 -0.058337953 -0.084719695
-0.030855473 0.034806684 -0.04983844 0.055544082 -0.02371335 0.008919911 -0.0015223444 -0.15946674
0.06135231 -0.029784549 0.055410903 -0.026010554 0.05411712 -0.19973812 0.08177267 0.0012096316
-0.08567422 0.01975286 0.025206931 0.094717406 0.029982671 0.018336374 -0.033158164 -0.05361367
0.053272847 -0.08368324 -0.008023894 0.07087692 -0.108083144 -0.15039462 0.012445139 -0.0011214345
0.061312653 -0.0121271275 0.03967668 0.034965996 0.028584937 0.017955923 0.0068169544 -0.03238245
-0.004186536 -0.045216992 -0.057685856 0.007086977 0.08627798 -0.026185824 0.07774871 0.034483284
-0.008856025 0.018819666 -0.18962331 -0.027651383 0.033478227 0.022317221 0.03254527 0.09028605
0.077783056 0.07235945 0.03948272 0.031112257 -0.04182379 0.069440864 -0.0035461485 0.0067789196
-0.0034756882 -0.04467174 0.233453 0.007759236 0.0016878669 -0.040704444 0.046747822 0.012218441
0.035580225 -0.03875479 -0.018807199 -0.005751011 0.40809646 0.14258967 0.0011262672 0.04219723
-0.021506816 0.03331395 0.07459684 -0.032630555 -0.03333027 0.27553654 0.05596169 0.037944067
-0.00045176456 -0.14119306 0.14449406 0.062450763 -0.052650683 -0.10422196 0.34195173 0.04916863
-0.002760522 0.049214974 0.047643717 0.043622732 -0.009183803 0.1882372 -0.021196289 -0.13208203
0.3075544 0.05092162 -0.11162164 -0.0060682017 0.014679027 -0.007082486 -0.120293535 0.107326835
0.03034848 -0.037544116 0.045248777 -0.27109045 0.109069206 0.052368093 0.12029441 -0.031019574
0.0584035 -0.024226146 0.033525288 -0.25087076 0.042898476 0.0058712587 0.05028909 -0.17463008
0.05239905 0.08153288 0.045833614 0.062081814 -0.18367215 -0.017975457 -0.048461996 0.025233107
0.127269 -0.027887568 0.09912275 0.1698886 0.2031458 -0.022328528 0.012651544 -0.030180799
0.094856925 0.06456804 0.022681385 0.028419137 0.4380181 0.0126828775 0.18355308 -0.033158045
0.06213328 0.0797922 -0.044816356 0.024619015 0.010437198 0.04643836 0.0006219661 0.049963906
0.15542255 -0.036311302 0.0022481382 0.06467585 0.36558613 -0.034265816 -0.017731074 0.068572454
0.22859123 0.08891601 -0.104035065 0.015388852 -0.039974567 0.05508811 -0.042838246 0.017188435
-0.1985988 0.063357286 0.09452667 0.037225243 0.04476122 0.37222564 0.060921613 0.058638513
0.047338482 -0.1664599 0.023845565 -0.0064466596 -0.056344256 0.009514348 0.016526518 0.41335824
-0.042153176 -0.044714756 -0.1780659 0.003216032 0.02090501 0.05693192 0.052149568 -0.024122193

bias f4 [256]
00000000: 1cd5 d23d ba53 6bbd d6fc c13d 7b32 a93d
00000010: 30d9 d93c 98d4 c73c d75d 70b9 0b5d a13d
00000020: 1fe9 3dbc e55d 17bd ca45 1e3c 38db 44bd
00000030: a2fd 803d 533f fe3c 3a96 6dbd 9c0d 11bc
00000040: e718 4fbd 3880 213c 009f 913c 50d3 9ebc
00000050: b07d 00bc 2012 61bc 42d9 13bd b78c 953d
00000060: 6084 13bd 2bce 8f3d cdf0 1d3d a973 893d
00000070: ed50 49bd 027c 3cbd 4d5a 533c 2b6a 523d
00000080: 4c4b f03c 95de da3d 7683 863b c2e9 51bd
00000090: 938f 8ebb 00c1 8abb c9c7 16bd 49d8 423d
000000a0: 0073 86bc ea10 61bd 69ab a1bc 5ddf 6dbd
000000b0: 7ea5 53bd a514 1f3e 4469 2e3d addc 2d3c
000000c0: 9e63 66bd 0831 883c 202b d5bc 8c17 013d
000000d0: c8a1 28be c8ff 443d 498f 13bd b515 b0ba
000000e0: fb9d 6b3c 38bc 423d 509d 863d fbb8 83bd
000000f0: 08a6 17bd 7a8c 6abd 2b57 1e3d 4c60 423d
00000100: afef f1bc a058 10bc 9458 033d c533 673d
00000110: 6ede 27bd 40f8 ebbb 8ca7 0f3d 53db bdba
00000120: aea5 4b3d 3c32 8a3d 2e47 32bc 6c20 0dbb
00000130: fa07 a93d d00b dd3b 09ce f43d 58d7 d33c
00000140: 4c32 97bc 112b 9d3d 5e59 803b 9557 e23c
00000150: 799a 523d 7b6c fa3c aae2 793d cbb5 ba3d
00000160: f95e c53c b120 a03d ac50 0a3d b406 11bd
00000170: 060a b03d 0cf2 253e 16a0 613d 3bf6 6a3c
00000180: 68d4 61bc 2898 7f3c 63df 933d 665d 32bd
00000190: 30e2 debc c570 28bc f325 89bc 695f 20bd
000001a0: fa7f 10bd 5563 ba3d dd88 1dbd 6a0a 2fbd
000001b0: c841 08bc f031 b7bc 2cb3 0dbd c166 ad3d
000001c0: f05c 9d3d ce44 3f3d 990d 89bc b6e3 8c3d
000001d0: 1c75 4cbd 6ca5 9d3c 23e5 1bbc 2ce2 64bd
000001e0: f8da 0b3d 919f 21bb bdda 053d 98bb 523d
000001f0: 5551 0f3d f547 dd3d 007a 7fba 704c f3bc
00000200: 073f a03d f6d1 1fbd 0027 fd3c d616 06bd
00000210: de2e 06bd 0898 373c f78a a5bc 0404 72bc
00000220: 3860 9c3c 7afc 7f3d 56e2 b53d 36be 81bd
00000230: 552a e03c 2b05 41bd ca0b dfbb 4e08 143c
00000240: 1473 903d 5218 aa3b 7add eebc 533f 633a
00000250: 542e 6b3d 37d1 98ba ea0e 10be d86b 1fbc
00000260: e699 1dbd 4e73 a23c e68f 423d 9cdc b1bc
00000270: 4f2a 95bb 01b5 c43c dc98 13bd ea1a 2abd
00000280: 793a 213c a351 9cbd 2e24 47bd 2260 0f3d
00000290: 8c17 d13d f388 c5bc 7a9a 183d 9aae 4a3c
000002a0: f079 ee3b 0f52 08bd 9401 1dbc 1ea6 19bd
000002b0: 7346 42bc e893 e5bc 629a ff3c bc53 373c
000002c0: fc7f aabc ac95 053d cfdf 9dbb c0d8 a0bb
000002d0: 0587 6dbc 3eed a43b f7c5 21bd 5119 5abd
000002e0: 3878 80bd e855 523c d7b4 adbc 9dba 6c3b
000002f0: 9fee e83c 5523 d4bb c957 873c d619 4f3d
00000300: 29e8 fd3d b8aa 16bd 4d69 323c 6eb8 853c
00000310: e4e2 ba3c 8a4c 5abd 0e04 a73d 4ed5 09bd
00000320: 7dd7 1f3d efda 413d 4a60 29bd 6084 163e
00000330: dd4e 9e3c 666a d63c 3837 973d 5698 983c
00000340: 6e51 073e 88b1 393d 1763 10be 71cf 1c3d
00000350: eb2b 813d f340 2abd 85a5 9c3d 1c19 ac3d
00000360: dfa1 d8bc 4a49 273d a660 5c3d 042b e53c
00000370: eebc ed3c 93c0 07bc 2405 84bc a5cd 8bbc
00000380: 7033 f63d 5b3d 573d 2b8c b03d 525b 773d
00000390: 21f4 963d 6616 333d cc65 2bbd be67 28bd
000003a0: deab 083d c474 023d 0a37 3dbd 32d8 c03d
000003b0: d814 ba3c ff6b 1d3d 92c0 603d f022 b4b8
000003c0: 3b0f fd3d 8ec7 d0bc 2a9e 6d3d bdc5 613d
000003d0: 533b dcbc 5f3d dfbc 0ffa 943d e7af 893d
000003e0: f712 ec3d 56aa 733c b6af 103d cd4a 1bbd
000003f0: 80dc 373d 6222 763d ef6f fd3b 806c 323d
0.10294554 -0.057452895 0.09472053 0.082615815 0.02659282 0.024393365 -0.00022923142 0.07879075
-0.011591225 -0.03695478 0.009660194 -0.048060626 0.062983766 0.031036055 -0.058004595 -0.008853342
-0.050560858 0.00985723 0.017776012 -0.019387871 -0.007842466 -0.0137372315 -0.036095865 0.0730223
-0.036014915 0.07021745 0.038559724 0.067115135 -0.049149442 -0.0460167 0.012899947 0.05137078
0.02933278 0.106869854 0.004105027 -0.05124832 -0.0043506115 -0.004234433 -0.036811624 0.047569547
-0.016412258 -0.05494777 -0.019735055 -0.058074344 -0.051671498 0.15535219 0.042580858 0.010611695
-0.056247346 0.016624942 -0.02602154 0.031516597 -0.16467965 0.048095495 -0.03602532 -0.0013434204
0.014380927 0.04754278 0.06572974 -0.064317666 -0.037023574 -0.057262875 0.03865735 0.047455117
-0.029533235 -0.008810192 0.032066897 0.056445856 -0.04098361 -0.0072012246 0.035071895 -0.0014484919
0.04971855 0.06747863 -0.010881228 -0.0021534218 0.082534745 0.006745793 0.119533606 0.02585952
-0.0184566 0.0767423 0.0039169034 0.027629653 0.051416848 0.030569306 0.06100718 0.091167055
0.024093138 0.078187354 0.03376834 -0.035406783 0.08595662 0.16205615 0.05508431 0.0143409325
-0.013783552 0.015600242 0.07220342 -0.043546103 -0.027207464 -0.010280793 -0.016741728 -0.03915349
-0.035278298 0.09100977 -0.0384606 -0.04273454 -0.008316465 -0.02236268 -0.0345947 0.084668644
0.07683742 0.046696477 -0.016730117 0.0687937 -0.04991637 0.019243918 -0.00951508 -0.055879757
0.03414437 -0.002466176 0.03267931 0.051448435 0.034989674 0.1080474 -0.00097456574 -0.029699534
0.078245215 -0.039018594 0.030902386 -0.03273662 -0.03275954 0.011205681 -0.020207865 -0.014771465
0.01908885 0.06249664 0.08881061 -0.06335108 0.027363935 -0.04712407 -0.0068068253 0.009035183
0.070531994 0.0051908875 -0.029158343 0.0008668799 0.05741723 -0.001165903 -0.1406819 -0.009730302
-0.038476847 0.019830372 0.047500513 -0.02171164 -0.0045521627 0.02401209 -0.03603445 -0.041529574
0.009840601 -0.076327585 -0.048618488 0.03500379 0.10209569 -0.024113154 0.037256695 0.01237073
0.0072777197 -0.033281382 -0.009582896 -0.037511937 -0.011857617 -0.028024629 0.031201545 0.011189397
-0.02081298 0.03261344 -0.00481794 -0.004908651 -0.014497523 0.0050331643 -0.039495435 -0.0532468
-0.0627293 0.012837864 -0.021204395 0.0036121972 0.028434096 -0.0064739385 0.016521351 0.05056175
0.12397797 -0.036783904 0.0108893635 0.016323294 0.022813268 -0.05329565 0.0815507 -0.03365069
0.039023865 0.047327932 -0.041351594 0.14698935 0.019324714 0.026173782 0.07383579 0.018627327
0.13214657 0.045335323 -0.141003 0.03828377 0.06307205 -0.041565847 0.07648758 0.08403227
-0.026444374 0.04084138 0.05380311 0.027974613 0.029020753 -0.008285659 -0.016115732 -0.017065832
0.1202153 0.052548748 0.08620485 0.060389824 0.07370783 0.043722533 -0.041845128 -0.04111456
0.03336703 0.031849638 -0.046195067 0.09416236 0.022715017 0.03843307 0.05487115 -8.5895765e-05
0.123564206 -0.02548578 0.058012165 0.05512022 -0.026883757 -0.027250944 0.072742574 0.06723004
0.11527055 0.014872154 0.03532382 -0.037913132 0.04488802 0.060091384 0.007734291 0.043560505

weight f4 [33, 256]
00000000: f1f3 893d 0460 463d 54bf 0d3d 0cfd 6f3b
00000010: 7085 7dbd 83f3 a8bd c243 9b3d c25e 563d
00000020: 12b4 103d dc1c a13c f0e7 933d 5a89 8d3c
00000030: 6e56 b7bc 6316 8ebd e046 2c3d b6b1 c13c
00000040: a6e8 08bd 9229 60bd f4f5 d13c e8ed 1b3c
00000050: e8a1 2bbd 601f 7a3b 42e4 1c3d c54c c4bd
00000060: b93e a33d 7c86 a63c 005d d93a f7f7 073e
00000070: 7999 123c 06d9 183c d08c 2e3d 80a6 923c
00000080: e0dc febc 5d4c 8a3d 1600 a53d a877 05bc
00000090: 7826 5b3d 4856 663d c873 263c 52f4 24bc
000000a0: 8775 88bc 1ca1 38bd 7015 af3b 76c3 1fbd
000000b0: 0094 82bb a46c 593e 3b86 3ebd 489e ecbc
000000c0: f2c8 6abd 70f6 763c 1842 003d ed09 39bc
000000d0: e396 813e a9ea 533c 12b3 2f3d 1fcb 973c
000000e0: 3fd0 9a3d dac1 7abd 4b02 3b3d e2b2 06bd
000000f0: 560c 17bd 13d9 ac3a 2801 393d 8af3 5c3d
00000100: dbad ec3d dec8 7f3d 60a0 6f3b a234 843d
00000110: 4c04 75bd fe41 1abd 7cdf a7bc b78b 533d
00000120: 021e 88bd 24da d5bb 1c90 cdbc 885c 893d
00000130: 246e bd3d 1c5f 503d 2f46 0dbe 3c0b febc
00000140: 8028 653b 7a9d 923d c457 94bd 0c42 56bc
00000150: aa54 dbbc 81ba cc3d 80be 6a3b 9f69 ba3d
00000160: df9e 2a3d 45f3 b9bd 2010 45bd da51 2a3d
00000170: e932 d93c e183 303e 140f 1f3d faee 753d
00000180: d0df 353d 381f 2f3c 4d57 463d 7437 a0bc
00000190: 247e ecbc 6fae 15bc 1359 2bbc c037 6ebd
000001a0: e1f1 733d 243e 0cbb 85c0 c9bc e87d 1bbd
000001b0: 0a64 783d 8add 7f3d e00b cbbb 54cb dfbd
000001c0: c0f5 c03d 30ae 433d b179 a03d d905 e53d
000001d0: 363c 603d 8616 513d 8851 5d3b c9f7 773d
000001e0: c06a 10bc bc0b 5b3d d055 df3d ac26 4f3d
000001f0: 251e 973d b48d c83b 3cb4 1b3d b4bb ccbc
00000200: 2d2c 5c3c 9631 20bd a7c2 67bc 640a a93c
00000210: 148b 703d aa76 063d 8cf9 bf3c bb3c f73c
00000220: a07b 4e3d 372b 103d 095d 0f3d 7df1 4dbd
00000230: 6428 e8bb 23cc 5e3c 2e2d 433d 0ad0 bfbc
00000240: 431f 5f3d 0f05 61bd 866d 0a3d ed42 f53d
00000250: ec2a 31bd 82d0 1f3c 58a7 6d3e 44ce 513d
00000260: c4e7 483d 8354 ad3d cfa8 a3bd 86a7 123d
00000270: 9596 ee3c 3616 6c3d 8409 25bd 781d 6a3c
00000280: db47 c93c 8608 853d 787a 81bd efdb 593d
00000290: 34bf a03d b16e 913d 2203 27bd f90c b93d
000002a0: 80fc ab3c 7bcc 61bc ce5e 39bd bdf1 023d
000002b0: 70ca 163d c6e1 7b3d 6604 9e3d afe4 813d
000002c0: ff02 a43d 3497 2abe b3c2 213d 7ef2 573d
000002d0: b8ba b4bc d7d3 823d 2039 ffbc 9c66 fd3d
000002e0: a571 9a3c 5882 ebbc 150c 9b3d 402c e73c
000002f0: ae54 8f3d 183e 783d 797e c93b 2776 013c
00000300: d6ef 683e d2c8 963d 2198 6b3d d363 0bbd
00000310: 0861 173c 34d8 f6bc 22f8 9abd 0618 babc
00000320: b5bb 9a3d a2a5 353e 1434 32bd 9e20 e73d
00000330: 2b6a d53d ebf8 363d 5697 973c d99d e53c
00000340: fa65 553e b955 873c f426 333e 08e8 a43d
00000350: 9a39 f0bb 85f3 4a3d f87e d3bc 97ec 02be
00000360: d26e 2bbc 6e35 09bd 5485 173d f83d 953c
00000370: f3d5 ab3d 00d6 7a39 630c 8a3d 71af afbc
00000380: c342 d83c 12c0 c43d 8471 603b 4c00 5d3d
00000390: a1c3 db3b a481 e43c 502f 9b3c 32a6 3fbd
000003a0: e2f7 04bb 94f8 0dbd dc85 1a3d f0b6 623d
000003b0: 9095 73bd 8b10 233d 88eb 9a3c 64d6 69bd
000003c0: 6308 a23c 7c2c 9dbd 2c38 ac3c 2ae1 463d
000003d0: d607 953d e5f1 4d3d 5c70 e8bb 3ab5 eb3d
000003e0: 2507 b63d 4e01 13bd 9cb9 103e 0098 61bb
000003f0: 6e45 7ebd a257 723d ccab 953d 7849 6a3d
0.06735981 0.04843141 0.034606293 0.0036619334 -0.061894834 -0.08249571 0.07581283 0.05233646
0.03532798 0.019667082 0.07221973 0.017277408 -0.02238008 -0.06937864 0.04205978 0.02364431
-0.033424996 -0.054727145 0.025629975 0.0095171705 -0.041902453 0.0038165674 0.03830362 -0.09584955
0.07970948 0.020327799 0.0016583502 0.13278185 0.008947724 0.009329086 0.042614758 0.017901659
-0.03111118 0.067528464 0.08056657 -0.008146204 0.053503484 0.056234628 0.01015944 -0.010068016
-0.016657604 -0.04507552 0.0053431317 -0.039004765 -0.003984928 0.2123285 -0.04651473 -0.028884068
-0.057320543 0.015073404 0.031313032 -0.01129387 0.2531043 0.012934365 0.042895384 0.018529473
0.07559251 -0.061220028 0.045656484 -0.03288544 -0.036877 0.0013187252 0.04516712 0.053943194
0.11556598 0.06244742 0.0036564097 0.064553514 -0.05981855 -0.03766059 -0.020492308 0.051646914
-0.066463485 -0.0065262485 -0.02509313 0.06707102 0.09249523 0.050871953 -0.13796304 -0.031011216
0.0034966767 0.071589425 -0.072433025 -0.01307727 -0.02677377 0.0999651 0.0035819113 0.09102177
0.041655418 -0.09079603 -0.04811108 0.041581966 0.026513534 0.17237808 0.03883274 0.06004236
0.044402897 0.0106885955 0.0484231 -0.019557692 -0.028868742 -0.0091358265 -0.010458249 -0.058158636
0.059556846 -0.0021399343 -0.024627933 -0.03796187 0.06064228 0.062467135 -0.006196484 -0.10927454
0.09421873 0.04777354 0.07835711 0.11182756 0.05474492 0.05104687 0.003377052 0.06053904
-0.008814514 0.053477988 0.10905039 0.05057399 0.073787965 0.006120408 0.03801368 -0.024991848
0.013438267 -0.03910979 -0.01414553 0.020634837 0.058726385 0.03282801 0.023434423 0.030180326
0.050410867 0.035197463 0.035000835 -0.05027913 -0.007084893 0.013598475 0.04765051 -0.02341463
0.054473173 -0.054936465 0.033795856 0.11975656 -0.043253824 0.009754302 0.23208368 0.0512221
0.049049154 0.08463385 -0.07991182 0.035804294 0.029124537 0.05763837 -0.040292278 0.014289252
0.024570396 0.06495766 -0.06322187 0.05318826 0.07848969 0.07101191 -0.040774472 0.090356775
0.020994425 -0.013781662 -0.04525643 0.03196882 0.036814153 0.06149461 0.07715683 0.06342446
0.08008384 -0.16659242 0.03949232 0.052721493 -0.02206169 0.063880615 -0.031155169 0.12373087
0.018853018 -0.028748676 0.07570664 0.028219342 0.06998573 0.060606092 0.00614911 0.007901705
0.2274774 0.07362522 0.05751813 -0.034030747 0.009239443 -0.03013239 -0.07566859 -0.022716533
0.075553335 0.17738965 -0.043506697 0.11285518 0.104206406 0.04467098 0.01850478 0.02802937
0.20839682 0.016520368 0.17495328 0.08052069 -0.0073310854 0.049548645 -0.02581738 -0.12785564
-0.010463433 -0.03349822 0.036992386 0.018218026 0.08390417 0.00023921579 0.06740644 -0.021445962
0.026399022 0.09606947 0.0034247348 0.05395536 0.0067066704 0.027893849 0.018943459 -0.046789356
-0.0020289351 -0.03466089 0.037725314 0.055350244 -0.059468806 0.0398107 0.018911138 -0.057089224
0.01977939 -0.076745 0.021022879 0.048554577 0.07276885 0.050279517 -0.0070934724 0.115091756
0.088880815 -0.035889916 0.14133304 -0.0034422874 -0.062077932 0.059165604 0.07308158 0.05719897

bias f4 [33]
00000000: aa74 6f3d 6415 2dbd 0c5c e03d 3b18 663d
00000010: 9a71 cebc 4ecc 933d 6646 a23d 2207 533d
00000020: 31d9 a63d 55d7 6a3c ed24 053c b7e8 f03c
00000030: 2954 683d 3bef 733d 691a 303d c30f 9a3d
00000040: a98b 58bd d711 953d 4818 483d 5f49 dd3c
00000050: 8acf 113b a1bb 1c3d 9d1b 8c3d 1431 893d
00000060: d312 ff3c 6b46 51bc 8c75 633d baba d9bc
00000070: afe4 d0bb a182 9c3c 8709 3a3d a064 c43d
00000080: 32c0 2e3c
0.05846087 -0.042256728 0.109550565 0.05617545 -0.025200654 0.072167024 0.07923584 0.051520474
0.08146895 0.014333566 0.00812648 0.029407842 0.056720886 0.05955432 0.042993937 0.075225376
-0.052867565 0.07278793 0.04885128 0.027012525 0.0022248947 0.038264874 0.06841204 0.06698814
0.031136906 -0.012773137 0.055532023 -0.026578296 -0.0063749175 0.019105257 0.045419242 0.09589505
0.01066594
