experiments/diff_context_data/snow_models/rainbow_dqn_proposed_target_erf.pth (torch, 380358 bytes, 13 tensors)

weight f4 [256, 4]
00000000: 509c 40be f861 6bbe a6c4 c6be c430 ccbe
00000010: 84e9 9fbe 74bf f6be dc60 2cbe c4ac d4be
00000020: f6b4 893d 271f 07bf 6cbc 85be ea0c 983c
00000030: c3df c03e e2ad 633d ae6a b5bb 6dc2 fd3e
00000040: ab90 a73d 1d4b 3abd 82bb debe 9e7b 683e
00000050: 484f 72be 60b8 06be 0027 633b 8a58 d13e
00000060: 9dad 0cbd bf13 b23e cf9b 11bd 1a17 ccbe
00000070: 4bd7 06bf 0fc0 b33e 5dbd 49be b4ca fcbe
00000080: 8c37 0fbe 2696 1dbe c0e9 e23e 60e7 2e3e
00000090: 8052 c4bd c0d5 2dbd 1085 c6bd a40e f2be
000000a0: e96d dc3e aa5f 1abc ee81 a5be d634 f4be
000000b0: c3f0 e6be a0f1 1f3d 5010 793d 4045 903c
000000c0: 9b00 763e b74c 0d3c ee8e 5dbd 72bb 82be
000000d0: 1bfe e0bd 3a90 5ebe 9423 26be a84e bfbe
000000e0: 2d9a 88bc 2768 af3e af24 8cbd 241e 853e
000000f0: a887 6c3d ad9a c23e 61c6 0fbe d0d5 cd3e
00000100: 82f1 1b3e b2c9 3d3e f8b0 b5be 7bb9 dd3e
00000110: 4003 313e 4cb2 193e f254 90be 1152 85bd
00000120: 3da3 fa3d 83c5 f4bd 5157 7ebe fb95 e7be
00000130: 703f 4fbd 3827 31be 6697 a9be 6821 963d
00000140: 4b14 3dbe a42e 60be bf9f 083e 5746 c13e
00000150: 8601 ffbd 28ae 953e e6b3 9cbe 70bb dd3d
00000160: 844f f43e af52 8bbe c2eb 93be 15ea 88be
00000170: 4e5e fe3d 066c 513e 04c2 fbbe e6cf b1be
00000180: a70f dbbe 86bb f53e 8cde b0be 38f9 b2be
00000190: 118e 543e 490a 693c 34a2 c0be d6a4 823e
000001a0: df6a bd3d e9f8 993e c7cc 6c3d f88a 923e
000001b0: 4393 703e 4883 72be 45c4 79be 88cd c5be
000001c0: 805d ccbc a3b7 efbe 9071 0b3d 7ec1 cc3e
000001d0: 9468 1a3e 21b0 1e3c 5760 b63e 3aaa e4be
000001e0: 6499 373d 93fc acbe d85f 3abe 8c0d bebe
000001f0: 8c75 fabe 6c42 b0be ac2c ffbe 30d1 90bd
00000200: ebdc 2a3e 8648 adbe 8208 68be a1cd 67be
00000210: b031 54bd 2705 a33e 8219 69be cc32 c23e
00000220: 6ca8 b33e b4c1 dd3e 0050 793e cd6b db3d
00000230: 23dc 54bc 5c28 063f 9553 6c3d 1f43 a93d
00000240: 5dcb 623d 79e3 cf3e 064d 66be c9c1 033f
00000250: ec6f c6be 8035 c6bc f01c e7be 0055 22bb
00000260: 6996 22be 5187 1b3f a93e 453e 2825 b23d
00000270: c06f 62bd 00ae d0bc 00de 61bd ca5f e4be
00000280: 594e de3e 0a4d 003f d673 5fbd b5c1 9abe
00000290: 1a97 823e adc2 27bc 3b5b 483e 7352 93be
000002a0: 4432 0a3e ffb2 9bbe 1e6f 9abe aac2 97be
000002b0: e856 31be 62e0 89be 0e7d d7be 2824 bd3d
000002c0: 6242 f2be 356e bcbd fd1c d03e a571 c53e
000002d0: b2c2 de3e 4ea0 023d 4eff 36be 4820 bb3d
000002e0: 8474 de3c 904f 0c3e 97f5 be3d b456 3b3e
000002f0: 94c0 433e a49c d2bc 35b3 863e 76cf b13e
00000300: c012 813e 4a88 e7be af73 e73e 938e a8be
00000310: 13a2 e43e 8960 ea3e d109 86be f79e ca3d
00000320: 2b61 cfbe 8769 c23e cf12 2ebe ee23 acbe
00000330: 1307 c43e bcf8 edbd 1626 c13e eaa6 d53e
00000340: 0da8 a53e 6209 88be 4e10 abbe 2e71 42be
00000350: b489 7cbe f826 1a3e 6267 b7be 4ba5 e13d
00000360: 2d42 ba3e 7263 ed3e bb31 c2be 9f47 ecbe
00000370: 7692 5fbd 2414 963e f456 d53d 1b38 c9be
00000380: b0b6 bc3d be51 5abe 4ede 373e 3dd5 bfbd
00000390: dd6e 633d 4ef1 c8be d9cd d4bc dbac ae3e
000003a0: a047 2bbd 2e9f 87be 5609 ccbe aa3d e0be
000003b0: a574 123e 8cee 8e3e 6576 ed3e fe24 aebe
000003c0: 0633 d93e a9bc 0fbe 5ee1 f63e 861e a5bd
000003d0: 1fc0 f63e b671 e6be 536e d43e 6ac7 b73d
000003e0: 82bb d23e e714 bd3e 9ad5 fcbe de24 ee3e
000003f0: 0162 09bf 708b 9d3e 5391 1abe e4c8 4e3b
-0.18809628 -0.22986591 -0.38821906 -0.39880955 -0.31232846 -0.48192942 -0.16833824 -0.4153806
0.06723969 -0.5278191 -0.26120317 0.018560845 0.37670717 0.05558575 -0.005536399 0.49562398
0.0818189 -0.04548179 -0.43502432 0.22703406 -0.23663056 -0.13156271 0.0034660697 0.40887862
-0.034345258 0.3478069 -0.03554898 -0.39861375 -0.5267226 0.35107467 -0.19701143 -0.493734
-0.13986033 -0.15389308 0.44318962 0.1708045 -0.09586048 -0.042440176 -0.096933484 -0.47276795
0.43052605 -0.009422222 -0.3232569 -0.4769656 -0.45105562 0.03904879 0.060806572 0.017611146
0.24023668 0.008624247 -0.054091386 -0.25533634 -0.10985967 -0.21734706 -0.1622451 -0.37364697
-0.01667508 0.3425915 -0.06842934 0.25999558 0.05774656 0.38008633 -0.1404052 0.40202188
0.15228847 0.18533972 -0.3548658 0.43305573 0.17286396 0.15009421 -0.28189808 -0.065097935
0.122381665 -0.11951735 -0.24837996 -0.45231614 -0.050597608 -0.17300117 -0.3312332 0.073305905
-0.18464772 -0.21892792 0.13342188 0.37748978 -0.124514624 0.29234433 -0.30606002 0.108267665
0.47716916 -0.2721152 -0.28890806 -0.2674109 0.12420331 0.20451364 -0.4917146 -0.34728926
-0.4278538 0.47994632 -0.3454479 -0.34955764 0.20757319 0.014223644 -0.3762375 0.25516385
0.092489 0.30072716 0.05781248 0.2862165 0.23493676 -0.23682892 -0.24391277 -0.3863337
-0.024946928 -0.4681979 0.03404385 0.39991373 0.15078956 0.009685547 0.35620376 -0.44661123
0.04482402 -0.3378645 -0.18200624 -0.3711971 -0.48917806 -0.34425676 -0.4983877 -0.07071149
0.16685836 -0.33844393 -0.22659495 -0.22637035 -0.0518052 0.31839868 -0.22763637 0.3792938
0.35089433 0.43311846 0.24346924 0.10713921 -0.012991938 0.52405334 0.057696898 0.082647555
0.055369724 0.40603235 -0.2249032 0.5146757 -0.38757265 -0.024195433 -0.45139265 -0.0024769902
-0.1587769 0.6075335 0.19262184 0.08698493 -0.055282354 -0.025473595 -0.055143356 -0.4460433
0.4341915 0.5011755 -0.05455383 -0.30225912 0.25505906 -0.010239285 0.19566052 -0.2877384
0.13495737 -0.3041 -0.301629 -0.29640704 -0.17318308 -0.26929003 -0.42087597 0.09235412
-0.4731627 -0.09200708 0.40647116 0.38563266 0.43507916 0.03189116 -0.17870829 0.091370165
0.027155168 0.13702226 0.09324186 0.18294793 0.19116431 -0.025709458 0.263086 0.34728593
0.25209618 -0.45221168 0.45205447 -0.32921275 0.44654903 0.45776775 -0.26179364 0.098936014
-0.4050382 0.37971136 -0.16999362 -0.33621162 0.38286647 -0.11619708 0.3772437 0.41728908
0.32354775 -0.2656966 -0.33410877 -0.18988487 -0.24661905 0.15053928 -0.35821062 0.11017855
0.36378613 0.46364933 -0.37928566 -0.46148393 -0.054583035 0.2931224 0.104169756 -0.39300618
0.092145324 -0.21320245 0.17955896 -0.09366844 0.05552565 -0.392466 -0.025977062 0.34116253
-0.041816354 -0.26488632 -0.39850873 -0.43797046 0.14302309 0.27916372 0.4637939 -0.34012598
0.4242174 -0.14036812 0.48218817 -0.080624625 0.48193452 -0.4500863 0.4149042 0.08973582
0.41158682 0.3693001 -0.49381715 0.46512502 -0.5366517 0.30770445 -0.150945 0.0031552846

bias f4 [256]
00000000: 6808 193e bed0 a6be 6b9f ea3e 60f5 763d
00000010: 9683 edbe 4464 5f3e bae3 393e 609b 9b3e
00000020: f515 d7be 4174 cfbe b0b8 b4be a0c9 83bc
00000030: 7399 6e3e 9b9e f23e 0bb0 643d b7a4 073f
00000040: a6d5 fdbe b832 f2be 376b c3be 20c1 1a3e
00000050: 26be a33c 9d0d bcbe d63e d4bd b1d3 9d3e
00000060: 29ce a8be c8af 09be b8d5 733e be21 c4be
00000070: 00ce 2ebb e0ea f1be 2643 7e3e 920c bb3e
00000080: fe35 ab3e b41d 223f 3c1a 54be c528 793e
00000090: 4e55 0fbc 5a78 c23e 96e6 183f 7a14 9cbe
000000a0: 3f9a 1f3d ea9d b6be 79cd 1f3e 7865 afbd
000000b0: 7b71 a53e 727c 6abe 8cf0 b53e f130 d83e
000000c0: 109d 5dbe 58e6 c93d d55a 47be 2d37 c33e
000000d0: ea65 dc3e 7001 5abe 6bbc b4be 1842 253e
000000e0: 693d 7dbe dc0d b83e 00c5 dd3b a143 0bbe
000000f0: bfac 1cbe aa00 523e afe5 cdbe 9e43 8c3e
00000100: ac86 d03c 7589 ecbd c62b adbe ed46 f63d
00000110: 3681 b03e b7e5 a3be 32a6 973e 3e1b ffbe
00000120: 52b4 9abe b09d 093e 6dd1 633d 3543 da3e
00000130: 1917 f13e 2765 72bc ad19 e13e 340a ebbe
00000140: c6d5 0bbe a797 dabe 07dd 163d b2c0 ad3c
00000150: c58e 1a3f 1ecf e4bd ac5b 963e 0019 ea3e
00000160: b822 bb3d 5f2b 3c3e 5aee 233e 91f6 9d3d
00000170: c9a2 033e 3ed1 e7be 7005 9fbe d456 13be
00000180: 275e cdbe a5cf fb3e eb60 bf3e 77cf f63e
00000190: cde6 73be 3c0b a93e f5ba 07be 06ab 06bf
000001a0: 4f34 a9be 958a c0be 8bb0 bfbd e4b7 a93e
000001b0: f093 d1be 7a31 c3be 0d3d e33d 6125 e0ba
000001c0: 0974 e8be 3e2f 003e ca9c babe 4a90 043d
000001d0: 057c 10be a1f7 e4be 3e9e e43e 1b06 e63b
000001e0: c48b a6be 6355 cbbd 5a69 0abe 8c43 c6be
000001f0: 849f 303e b073 283d 7a5a b8be 1ab2 f13e
00000200: 205b b73e be94 013f 458c c9be 2589 cdbe
00000210: 233b df3d 1fec c73e ab10 7c3e 48a0 b2be
00000220: 244a 4dbe d39b 94be 02c8 a3be 2d2c fe3e
00000230: 986c 4e3e 9eac f5bd 8cb8 09be c27b c63d
00000240: a677 40be 1ae2 babd 58d2 8b3e 1cce 8c3e
00000250: 405f 04be 5a94 203c 6bd6 a33e 06bf 87be
00000260: f2f9 c9be 34b1 56be 1c8f d6bd a2d2 933e
00000270: d9b3 043f e02c a5be 8b13 f8be f0e9 fd3e
00000280: da3d 2cbd f4e3 8fbe 8b47 dd3e e2e4 79be
00000290: ff79 eabe 14b7 a8be 0dac 78be 420c 873c
000002a0: 1a7d a8be 1075 68be 02fe bc3e 2dbb 77be
000002b0: 8767 68be ca47 5e3e 7a01 7fbd 8639 ff3e
000002c0: 48fa b0bd ab7f 873e 2a09 df3e 3161 f03e
000002d0: 0839 a23e 5134 13bd 0c33 47be 04c4 92bd
000002e0: d76e ecbd 1c8b d53e 4739 bd3e d076 533e
000002f0: d865 a43e 0a27 b33e 601c 9bbe 81a0 a9be
00000300: 8a81 f73e d040 c93e be87 be3e ff05 183e
00000310: 5885 d73e 716d 323e 5667 f83d 7271 873c
00000320: fb3b 893e 177b bfbc 9543 65be a81e 933e
00000330: e69b dbbe b022 58be a0f5 213e 202a c2bc
00000340: d6df ba3e d118 093f a81a 813e 0034 853e
00000350: 8044 37be 35cc 893e b5e6 0abe d251 4f3e
00000360: 708f f9bd e126 52bd 6081 a2bd 30fc 82be
00000370: e4d0 c03e bf0c 993e d1a9 933e 39fd 183e
00000380: 66a5 9f3e c8c3 4d3e 40c6 2bbd 4214 ab3e
00000390: 5583 8ebe 5a27 49be 368a b8be aa48 30be
000003a0: 333f d2bd 9e5a c5be 8218 623e 51c9 d0bd
000003b0: 9f19 873e 4149 eb3e 61fb 1abd 9cf2 dabe
000003c0: 6651 a63e 3d68 c1be a90e 93bd 5c71 bd3e
000003d0: 2e83 973e cb27 e4bd 6a60 6d3d 1a62 e93e
000003e0: d691 923e 2e20 bc3e 79f9 d4be 1bcb 9e3d
000003f0: d3ae e3be 2abc d6be 9c12 0a3f a8bd 4d3e
0.14944613 -0.32581133 0.4582475 0.0602926 -0.46389455 0.21815592 0.18153277 0.3039198
-0.4200894 -0.40518382 -0.35297155 -0.016087353 0.23300724 0.4738663 0.05583195 0.5298571
-0.49577063 -0.4730432 -0.38167736 0.15112734 0.01998813 -0.36729136 -0.103635475 0.3082557
-0.32969788 -0.13445961 0.23811996 -0.38306993 -0.0026673079 -0.47249508 0.24830303 0.36533028
0.3343963 0.63326573 -0.20713133 0.24331959 -0.008748366 0.37982446 0.59726846 -0.30484372
0.03896546 -0.35667354 0.15605725 -0.085642755 0.3231314 -0.22899035 0.35535085 0.4222484
-0.21641946 0.09858388 -0.19468243 0.38128033 0.43046504 -0.21289611 -0.35300002 0.16138494
-0.24730457 0.35948074 0.006767869 -0.13600017 -0.15300272 0.20508066 -0.40214297 0.27395338
0.025454842 -0.11549655 -0.3382246 0.12025247 0.3447358 -0.32011196 0.29618984 -0.49825472
-0.30215698 0.1343906 0.055619646 0.426294 0.47087935 -0.014794624 0.43964902 -0.45906222
-0.13655767 -0.42693827 0.03683188 0.021210048 0.603741 -0.11172317 0.29366815 0.45722198
0.091374815 0.1837592 0.16008893 0.077130444 0.12855066 -0.45276827 -0.31058836 -0.14388591
-0.40110895 0.49181858 0.3737863 0.48205158 -0.23818512 0.33016384 -0.13254912 -0.5260471
-0.3304772 -0.3760573 -0.09359845 0.3314811 -0.4093318 -0.38123685 0.11095629 -0.0017100984
-0.45401028 0.12518021 -0.36447746 0.032364167 -0.1410981 -0.44720176 0.4465198 0.007019771
-0.32528508 -0.099283956 -0.13516751 -0.3872341 0.1724835 0.041125953 -0.36006528 0.47206193
0.3581171 0.5061759 -0.3936483 -0.40143695 0.10899951 0.39047334 0.24615733 -0.3488791
-0.20047814 -0.29025134 -0.3198853 0.49643078 0.20158613 -0.11995815 -0.13449305 0.09691574
-0.18795642 -0.09125157 0.27308917 0.27501 -0.1292696 0.009800995 0.31999525 -0.26512927
-0.39448506 -0.20966035 -0.10476515 0.28871638 0.51836926 -0.322608 -0.4845241 0.49592543
-0.042051174 -0.28103602 0.43218645 -0.24403718 -0.457962 -0.32952178 -0.24284382 0.016485337
-0.32907945 -0.22700906 0.36912543 -0.24192496 -0.22695743 0.21707073 -0.062257268 0.49848574
-0.08641487 0.2646459 0.4356168 0.4694915 0.31684136 -0.035938565 -0.19453067 -0.07166293
-0.115445785 0.41707695 0.36957762 0.20650792 0.3210895 0.34990722 -0.30295086 -0.33130267
0.48341018 0.3930726 0.37212938 0.14846037 0.4209392 0.17424561 0.12129085 0.016533587
0.26803574 -0.023374123 -0.22389062 0.28734326 -0.4289238 -0.21106982 0.15816355 -0.023701727
0.36498898 0.5355349 0.2521565 0.26016235 -0.17897224 0.2691361 -0.1356457 0.20246056
-0.12185562 -0.05130661 -0.079348326 -0.2558303 0.3765937 0.29892537 0.28840497 0.14940347
0.31180876 0.20094216 -0.041937113 0.33413893 -0.27834573 -0.19643918 -0.36042947 -0.17215219
-0.102659605 -0.38545698 0.22079661 -0.10194648 0.26386735 0.45954326 -0.03783739 -0.4276322
0.32483977 -0.3777484 -0.071805306 0.3700055 0.2959227 -0.111404024 0.057953276 0.45582658
0.2862689 0.367433 -0.41596583 0.07753583 -0.44469318 -0.41940433 0.53934646 0.2009188

weight f4 [256, 256]
00000000: 1aec 2cbd 80f7 e43c 5025 253d 8765 5ebd
00000010: 510d d63c 50de cb3b d72b e4bd 3fa8 3ebd
00000020: 30f3 c4bc 4c66 f9bc c104 9dbc d8f3 4ebc
00000030: 7cb6 293d 0e66 293d 60d4 b1bc a3d4 843c
00000040: 7a43 de3c 4bc5 81ba 9d38 383d c8d6 0abd
00000050: 20fa cd3c b896 46bd 654b 933c 4652 393c
00000060: e7cc 2b3d 61c3 19bd f17c ce3c ee7b 993b
00000070: 00d7 4bba 97c3 aabb e923 bf3c b8af 2ebd
00000080: 8725 d63c deaf 1ebd f236 fdbb 5b2d 383c
00000090: 7968 8d39 a41c 803c 41d4 01bc 1039 da3b
000000a0: c8ce 9a3c 4086 713d a890 c7ba fef4 783d
000000b0: 48d8 33bd bb67 45bd 4ccb b63c bd1e 31bd
000000c0: e961 493c e217 b2bc d1a4 dcba 0517 a2bc
000000d0: ed57 c0bc 00db 4eba 70c4 5fbd 2814 d53b
000000e0: b7e5 25bd 44ad cdbc 6423 4cbd d2a5 ba3c
000000f0: 6f32 59bd 0e89 90bc f57d 4dbc 2f7e 32bd
00000100: 7c0b 9abb 70a2 46bc 958d 2b3d 5ea5 b5bd
00000110: eaa9 5d3d 15ac 92bc 58c2 683d 808c 9e3a
00000120: 2b52 ffbc c0d0 a13c b44e 9e3c 108a 55bd
00000130: 534c f13c 0d81 c4bc e50e 92bc 029a 5bbd
00000140: 5f3c 653d 61ce 4d3d e32a 623d 6e3e 073d
00000150: 0ee6 17bc 84cb 80bb 99f6 a5bd becd 25bd
00000160: fa22 7b3d 3aa6 12bd ac1c fcb9 e024 523c
00000170: 462c 8b3c 311e 423d 09aa da3b 76a3 04bd
00000180: 3a14 afbb 7076 74bd 97f1 453d aa7f acbd
00000190: 565a a9bc 63ea 50bd e784 283d 09cb c33c
000001a0: feb5 f5bc 971b 5b3d 91f0 5fbd 18ff 6ebd
000001b0: 7b9b 5d3d 583b d03c d17e 4abd b5ab 153d
000001c0: 25f5 823d 6471 3e3d a2b8 213d b3bc 7d3b
000001d0: 5053 63bd 0b1b 193d 8066 68bb d8ee 36bd
000001e0: 1d56 1bbd 72f6 d1bc 098b a6bb 3041 fe3b
000001f0: cb40 393b b4b9 26bd bfb6 073d 68cc 213c
00000200: c046 243c 90c6 4ebd 5751 90bc c80f 24bc
00000210: 57f8 483d aff4 443c 9425 aebc 3cba ee3c
00000220: 102f b0bc a552 863d 1c47 6d3d c935 17bd
00000230: 5285 08bd 7ed9 223d 2338 653d 56de 033d
00000240: 6596 d1bc 69f4 183c 4d62 4cbd 93d4 bbbd
00000250: 7ffe 1bbd 035b 673d 0fed 43bd 0c65 493d
00000260: e0e9 34bb a495 493d 7719 103d e5a2 f83c
00000270: 8007 35bd 32bd d4bc 3288 2fbd c594 86bd
00000280: d25d f53c e726 a43c 76e7 54bd 25ae 14bc
00000290: 4060 fa3b 6ce1 b7bc 70cc 3f3c 6874 5d3d
000002a0: 1ad6 35ba dcc7 19bd c856 393d 58ab 41bd
000002b0: 5344 fd3c 0283 d83c b5c4 843c d870 5cbd
000002c0: 8238 6f3d 3c81 65bd 9b89 d43c 5438 4a3d
000002d0: 372f 383c ae01 523c fd37 803c b4b0 ff3b
000002e0: 9e1a fd3b 4d74 483d 5832 513b 9625 ea3c
000002f0: 7f94 3abd 4441 93bc 1680 46bd 4d96 703d
00000300: 90cc b3bb d651 3abd 104f 4abb 39b3 863c
00000310: 0fac 4fbd b7b4 b2bc 9dc1 01bd 7443 0cbd
00000320: 44a8 4a3d 466f a43c fcb6 683c 40cf e83c
00000330: f17a a4bd d8cb 4f3c d912 afbc 383a b73c
00000340: bbd8 6d3d 3e7b a0bc 226a 003c 9900 52bc
00000350: c800 2b3c 3036 3e3d 4e46 dabc ffaf d0bb
00000360: 5b66 ea3c 4041 c4bc 8055 133b 847d 083d
00000370: dfce c6bd 252d 04bd 3b54 64bd e920 613d
00000380: 6307 0dbd 2008 61bd 397b 55bd 9745 3abc
00000390: 3ee2 a53c 753b 1e3d 2f77 2fbd 76f3 a8bb
000003a0: 8530 1ebd 2b95 323d 5d0e 5f3d 181f 743c
000003b0: 08bf 4b3b 9e17 403c 362e 113d f02e 703d
000003c0: ecf5 663c b2bd 68bb 98c1 42bc 803e d3bb
000003d0: 3cc9 66bd 8ec7 91bc 8ad6 5ebd de26 203d
000003e0: 2f81 25bd d226 37bd 5732 043d 84d3 2e3c
000003f0: 5a39 9b3d 2d81 2a3d a702 bb3c 3409 4a3c
-0.04221735 0.027950048 0.040318787 -0.054296043 0.026129397 0.00622157 -0.11141174 -0.04654717
-0.024041742 -0.030444287 -0.019167306 -0.012631379 0.041433796 0.041357093 -0.021707714 0.016214674
0.027131785 -0.0009900717 0.044975866 -0.033896238 0.025143683 -0.04848358 0.017980287 0.011311119
0.041943457 -0.037539843 0.025206061 0.004683963 -0.0007775873 -0.0052113044 0.023332553 -0.042648047
0.026140941 -0.03874194 -0.0077274973 0.011241282 0.00026971454 0.015638657 -0.00792414 0.0066596344
0.01889743 0.05896592 -0.0015225606 0.060780518 -0.043907434 -0.04819463 0.022313736 -0.043242205
0.01229141 -0.021739904 -0.0016833787 -0.019786367 -0.023479426 -0.000789091 -0.054630697 0.006502647
-0.040502276 -0.025107034 -0.04983844 0.022784147 -0.053026613 -0.017643478 -0.0125422375 -0.04357737
-0.004701076 -0.012123689 0.04188307 -0.08869432 0.05411712 -0.01790432 0.056825966 0.0012096316
-0.03116711 0.01975286 0.019324638 -0.05213362 0.02945534 -0.023987317 -0.017829368 -0.05361367
0.055965777 0.050245646 0.05521668 0.033018522 -0.009271158 -0.003930511 -0.081036754 -0.040479414
0.061312653 -0.035803057 -0.00048086548 0.0128261745 0.016988885 0.047392074 0.006673102 -0.03238245
-0.0053429874 -0.059683263 0.0483261 -0.084227875 -0.020672958 -0.05100478 0.04114237 0.023900526
-0.029994007 0.05349311 -0.05467278 -0.058348745 0.054103356 0.025418922 -0.049437348 0.036540706
0.06394414 0.046494856 0.03948272 0.003871721 -0.055499375 0.037379306 -0.0035461485 -0.044661373
-0.03792392 -0.02563021 -0.0050824923 0.007759236 0.002826738 -0.040704444 0.033133265 0.009875394
0.010026634 -0.050482333 -0.01761691 -0.010013528 0.04906496 0.012021228 -0.021258153 0.029141538
-0.021506816 0.06558732 0.057929143 -0.036916528 -0.03333027 0.039758198 0.05596174 0.032194458
-0.025584409 0.009335616 -0.049898434 -0.09171405 -0.038084503 0.05648328 -0.0478335 0.04916863
-0.002760522 0.049214974 0.035180535 0.030351112 -0.044196606 -0.025969122 -0.042854495 -0.06571344
0.029951964 0.020038081 -0.05197855 -0.009074722 0.0076408684 -0.022446357 0.011706457 0.05406609
-0.00069365057 -0.037544116 0.045248777 -0.047282547 0.030916369 0.026429657 0.016207078 -0.053818554
0.0584035 -0.05603145 0.025944522 0.049370125 0.011241726 0.012817783 0.015651697 0.007803047
0.0077241203 0.048939038 0.0031920876 0.028582375 -0.045551773 -0.017975457 -0.048461996 0.058737088
-0.0054870322 -0.0454882 -0.0030869879 0.016442882 -0.050701197 -0.021814687 -0.031678785 -0.034244016
0.049476877 0.02007259 0.014203783 0.028419137 -0.08031262 0.0126828775 -0.021371292 0.022366628
0.05806802 -0.019590016 0.007837804 -0.012817525 0.010437198 0.046438396 -0.026644852 -0.0063686366
0.02861326 -0.023956895 0.0022481382 0.033322826 -0.09707426 -0.032269616 -0.05574439 0.054963026
-0.034430873 -0.05493939 -0.052119467 -0.011369131 0.020249482 0.03863092 -0.04283827 -0.005155976
-0.03862049 0.04359929 0.054457057 0.014899991 0.0031089205 0.011724381 0.03544446 0.058638513
0.014096718 -0.0035513458 -0.011886977 -0.0064466596 -0.056344256 -0.01779535 -0.05440382 0.039099567
-0.040406402 -0.044714756 0.03227457 0.010670546 0.07579298 0.041627098 0.022828413 0.012331296

bias f4 [256]
00000000: bea9 103d ba53 6bbd 9d61 113d 2d8b 903d
00000010: 32d9 d93c e6b4 203d dae7 52bd fdf7 1f3d
00000020: 96a4 0abd 6180 a8bc 7290 7b3d ce65 64bd
00000030: b587 873d 6a0a 533d 3a96 6dbd b655 a03b
00000040: db94 dbbc 3880 213c 009f 913c cd0b a5bb
00000050: b07d 00bc 8472 7abc 42d9 13bd 020f a13d
00000060: a08b 3cbd 4132 da3c 0559 193d f5b1 183d
00000070: 5c9b 7ebd 5338 6cbd d3ef 0dbd 91e6 503d
00000080: f8ad f73c d296 ef3c afcf b0bc c2e9 51bd
00000090: 9644 61bb 2183 4cbb 595a 42bd 2f4b b93c
000000a0: 8036 63bc ea10 61bd 174c a2bc 2c2b 6abd
000000b0: 7ea5 53bd 78b1 b4bb 3e29 9dbb 247e 4c3d
000000c0: 9e63 66bd 0831 883c 202b d5bc 1ad5 3b3d
000000d0: b5ef 01bd d587 b63c 5e9a 13bd c343 eebc
000000e0: 69dc 3cbd 38bc 423d 976b d43c 6bc9 68bd
000000f0: 08a6 17bd f78b 42bd 5239 d7bc 700b 423d
00000100: 2dee 193d 8335 67bd 9458 033d 1d9b 1638
00000110: a7e3 22bd 43f8 ebbb 3da3 113d 6c01 b0bc
00000120: 7501 163d 0dbb 703d 6a09 93bc 8e56 b93b
00000130: 7e0e 2f3d d00b dd3b 8203 8e3d 58d7 d33c
00000140: 4c32 97bc 6f58 313d 80d5 bb3c 66da 8f3c
00000150: 478c 2a3d bd67 9d3b aae2 793d 9d5c 163d
00000160: da8b 223d 864a b43d ac50 0a3d b406 11bd
00000170: 08d2 443d 77ff 0a3c 16a0 613d 4969 3f3c
00000180: 68d4 61bc 2898 7f3c 78df 823d 665d 32bd
00000190: 30e2 debc 7e47 99bc 323f 24bb 9e58 1fbd
000001a0: bf99 36bc 7ac3 a63d 406d 44bc 3053 35bd
000001b0: 5d8c 0dbc 70d0 b6bc 2cb3 0dbd 040d aa3d
000001c0: 8176 083c 7f24 3c3d 55bc bbbc ec87 0e3c
000001d0: 59fe 48bd 3a93 133d 5181 563b 5a6f 63bd
000001e0: f8da 0b3d 72c5 81bc 10a3 3cbb 98bb 523d
000001f0: ccab 7bbc 3b7a 963d 047a 7fba a3e7 e7bc
00000200: 9e11 6b3d f6d1 1fbd 1cce 163d f5fd 08bd
00000210: de2e 06bd 0898 373c 2149 c5bc ff4b 10bd
00000220: 3860 9c3c 5573 1f3c 5d92 353d f62b b2bc
00000230: 0f8b 2c3c e41a 01bd 64ae c53b 17f3 193d
00000240: 950c 3a3d fd5d e13c 8174 04bc 674e 25bd
00000250: 542e 6b3d edfc 8dbc f8e5 d73a 5764 5dbd
00000260: 0e0c 1fbd e13f 523c 239e 97bc 9cdc b1bc
00000270: 0566 2fbd 9971 d43c 01ea ec3a ea1a 2abd
00000280: baa2 6cbc 5000 3bbd 0544 ebbc ee59 ff3b
00000290: 6039 403c 98fe ccbc 3464 223d 5ef8 45bd
000002a0: f079 ee3b 75e4 06bd 5264 093d 4687 30bd
000002b0: 083d 37bc e893 e5bc bcdf 42bc 767b 3cbd
000002c0: d0a1 4bbd b626 5dbb 1afb d7bc c0d8 a0bb
000002d0: 71a9 103b 649f 72bd bbcf e2bc 685b c03c
000002e0: 5887 92bd 99f8 ae3c cbf0 2ebd c0cf 9f3b
000002f0: b633 18bd db82 e7bb 241b 873c 5d17 4d3d
00000300: ea16 41bd 4783 a4bd c32e 7e3c 4e0f 2e3d
00000310: e4e2 ba3c 8a4c 5abd 32f7 953d a1d2 45bd
00000320: f7b8 dc3c 11db 2abd 4a60 29bd 4cbf 883c
00000330: 1e5e 48bc 1ef9 97bc a5b8 9f3d 4b55 7d3c
00000340: 7b80 6abd ff0f d63c b5d3 0ebc e978 d23b
00000350: 9d0a 3c3d 3f24 22bd d935 743d 36d7 253d
00000360: bdde aebc 4a49 273d 51a4 5a3d 042b e53c
00000370: 6204 9e3c 5597 0abc 5eac 6bbd 5b5c 4aba
00000380: e7d8 a33d a78d 28bc 7f8f 863d 525b 773d
00000390: fda5 963d 5f8f 323d cc65 2bbd 7f65 2dbd
000003a0: b162 9cbb d29e 1a3d 0a37 3dbd 8d51 933d
000003b0: 5c1e 073d a3ba 1f3d 92c0 603d 3402 013b
000003c0: f953 cf3d 0cc5 1bbd 9243 673d a282 633d
000003d0: ddc7 81bd 401d 38bd 4301 f73c cc69 863b
000003e0: b66a 943c 840a 833c 82f4 b0bc 0c1f a0bc
000003f0: 64cf 033c 84f5 7c3d a2ca 813d 806c 323d
0.03531813 -0.057452895 0.035493482 0.07057796 0.026592825 0.03923502 -0.051490642 0.03905486
-0.033848368 -0.020569028 0.06141705 -0.05576115 0.06617681 0.051523603 -0.058004595 0.00489303
-0.026804378 0.00985723 0.017776012 -0.005036807 -0.007842466 -0.015286092 -0.036095865 0.07864191
-0.046031594 0.026635291 0.03743841 0.037279088 -0.06215988 -0.057670902 -0.034652542 0.051001135
0.030234322 0.029246721 -0.021583406 -0.05124832 -0.0034373156 -0.0031206089 -0.047449443 0.022618858
-0.013867974 -0.05494777 -0.019811673 -0.05717008 -0.051671498 -0.00551432 -0.004796176 0.049924985
-0.056247346 0.016624942 -0.02602154 0.045857526 -0.031722743 0.022281567 -0.036035888 -0.029085046
-0.046108637 0.04754278 0.02593021 -0.056832712 -0.037023574 -0.047496762 -0.02627245 0.04737419
0.037580658 -0.056447517 0.032066897 3.5907247e-05 -0.039767887 -0.007201226 0.035556067 -0.021485053
0.036622483 0.058772136 -0.017948825 0.00565607 0.04273843 0.006745793 0.06934263 0.02585952
-0.0184566 0.043297227 0.022928953 0.017560195 0.041637685 0.0048036263 0.06100718 0.036709417
0.039684154 0.08803277 0.03376834 -0.035406783 0.048051864 0.008483759 0.05508431 0.011682817
-0.013783552 0.015600242 0.063902795 -0.043546103 -0.027207464 -0.018710848 -0.0025062081 -0.03890287
-0.011145054 0.08142753 -0.011988938 -0.044268787 -0.008639422 -0.022316188 -0.0345947 0.08303264
0.008329035 0.045933243 -0.022916952 0.0086993985 -0.04907069 0.036029078 0.0032730887 -0.055526115
0.03414437 -0.01584122 -0.0028783716 0.051448435 -0.015360784 0.07347532 -0.000974566 -0.028308695
0.057389848 -0.039018594 0.036817655 -0.033445317 -0.03275954 0.011205681 -0.024082722 -0.035228726
0.01908885 0.009732087 0.044329036 -0.021749478 0.010531201 -0.031519786 0.006032752 0.037585344
0.045422155 0.027510637 -0.008084417 -0.040357973 0.05741723 -0.017332518 0.0016471734 -0.05405077
-0.038829856 0.012832613 -0.018508023 -0.02171164 -0.042821903 0.025933074 0.001807511 -0.041529574
-0.014443094 -0.045654595 -0.028718958 0.007792703 0.011732429 -0.025023744 0.039646342 -0.048332565
0.0072777197 -0.032932717 0.03354294 -0.043097757 -0.011183985 -0.028024629 -0.011894163 -0.04601618
-0.049714863 -0.0033744997 -0.026364852 -0.004908651 0.0022073651 -0.059234038 -0.027686944 0.023481086
-0.07154721 0.021358775 -0.042710107 0.0048770607 -0.03715869 -0.0070651597 0.016492434 0.05007111
-0.047140993 -0.08032852 0.015514079 0.042495064 0.022813268 -0.05329565 0.073225394 -0.048296575
0.026943667 -0.041712824 -0.041351594 0.01669278 -0.012229471 -0.018551406 0.0779889 0.01546223
-0.057251435 0.026130674 -0.008717467 0.006423105 0.04590856 -0.03958535 0.059621666 0.040488444
-0.021346444 0.04084138 0.05337936 0.027974613 0.0192892 -0.008458932 -0.05753743 -0.00077194505
0.08000355 -0.010287679 0.065703385 0.060389824 0.073558785 0.04359376 -0.041845128 -0.042333122
-0.004772507 0.03774912 -0.046195067 0.07193289 0.032987937 0.03899635 0.05487115 0.001968515
0.101234384 -0.038029715 0.056460924 0.055544503 -0.06336949 -0.04494977 0.030151969 0.0041019674
0.01811729 0.015996225 -0.021600965 -0.019546054 0.008045051 0.06175758 0.06337477 0.043560505

weight_mu f4 [1, 256]
00000000: 0ec1 0e3d 0960 463d f688 283d 3b12 3ebd
00000010: 7085 7dbd 2ac7 cebd 9e7a 2a3d 2fdf a63c
00000020: 39cf 2c3c 30ba 08bc 8b45 c3bd faa8 753d
00000030: 4228 8bbd fdb5 9dbd e046 2c3d 949f a2bd
00000040: 80ea 7cbd 9b29 60bd f4f5 d13c 7462 fd3c
00000050: efa1 2bbd 39b0 c83b 42e4 1c3d d7e1 aabd
00000060: 8162 533d 13af 6cbc 0788 74bd ccb9 6d3d
00000070: 1e62 ac3c 78d6 b23c a013 c53c 7cad 883c
00000080: 9a23 2bbd 6e61 233c 7ee5 593d a877 05bc
00000090: 07be 02be 931c 613d 3200 e03c 27af 3cbd
000000a0: 6408 afbc 1ca1 38bd 2f75 273b 76c3 1fbd
000000b0: 0094 82bb 9dbb 1b3d ce7b 1c3c 93dc a8bd
000000c0: f2c8 6abd 70f6 763c 1842 003d 0091 70bd
000000d0: 87a1 b93c a7f1 e8bd 7e4c 2d3d e5f8 93bc
000000e0: bf1c 363d dac1 7abd 70a1 1ebd 0dca 903c
000000f0: 560c 17bd 2aa5 10bd 3d66 17bc 6186 593d
00000100: 97cf 2e3d 7557 113d 60a0 6f3b a604 2a3d
00000110: 83af 74bd fe41 1abd dedd a7bc d3f0 35bd
00000120: ff88 413c f168 6ebd 7c6e 7abd c27c b1bd
00000130: cd74 193d 1c5f 503d 25b5 10bd 3c0b febc
00000140: 8328 653b 77fe 3c3d d320 7bbd 49f8 9bbd
00000150: 43e2 8cbd d98c dd3c 80be 6a3b 4218 6f3d
00000160: a676 7c3d 52cb a3bd 2010 45bd da51 2a3d
00000170: 49f0 e7bc 286b 35bd 140f 1f3d f3cb bcbd
00000180: d0df 353d 381f 2f3c 0b5a 76bd 7437 a0bc
00000190: 247e ecbc 2026 4f3c 5a49 86bd 438c 7dbd
000001a0: 3175 72bd 4690 a4bd f714 aebd af92 20bd
000001b0: fb37 743d 3301 7d3d e00b cbbb 98c2 79bd
000001c0: d9c3 d2bd 180a 463d 85a4 47bc 1e3a 223d
000001d0: 031e 6d3d 6980 30bd a432 49bd ece7 313d
000001e0: c06a 10bc 5b2c 633d f8fe 3e3d ac26 4f3d
000001f0: 962e 293d 6a2d f2bd 3cb4 1b3d ca80 e5bc
00000200: 8af8 43bd 9631 20bd 61c1 c6bd 3371 7b3c
00000210: 148b 703d aa76 063d 2fd7 383d cfa7 7e3d
00000220: a07b 4e3d 764a 193a b6a6 dfbc 9ff9 babd
00000230: e597 9fbd f374 7cbd ea2c 3e3d 7417 67bd
00000240: 020d 0a3d 2948 8fbd 3136 073d 21ea 583d
00000250: ec2a 31bd 30f3 69bd ca78 663d c49b 103d
00000260: 982f 463d c425 0c3d fe88 043e 86a7 123d
00000270: d53f 863d 3a6d 683d 14ac a5bd 781d 6a3c
00000280: 152f 993b b1c0 5b3b 83a5 22bd 8f10 e3bd
00000290: e975 293d d1ee 61bd 2203 27bd 1d87 9c3d
000002a0: 80fc ab3c 415c 53bc 129a cabd 7180 c83c
000002b0: 8c14 0f3d c6e1 7b3d eafa 653d 1146 283d
000002c0: 9eb4 3a3d d665 a5bd 5eff 803b 7ef2 573d
000002d0: 6350 41bd 8977 403d 3af1 6b3d cb7d 723d
000002e0: d3bf 663d ab34 82bd 6a7c 4ebd 402c e73c
000002f0: 3cf3 fb3c 0ba5 793d 1e70 1abd 37a6 39bd
00000300: 1603 2a3d 077a 313d 4eb5 213d 7436 a5bd
00000310: 0861 173c 34d8 f6bc c8f7 5fbd e831 913c
00000320: 8a88 b5bd 58ff cd3d 1434 32bd adf7 12bd
00000330: 6f21 533d 4316 e73b b2e8 57bd 69ff 97bd
00000340: 7a84 613b 9c30 bcbb bf0e b03c e7c3 393d
00000350: 775a 35bd 4002 493d 45de 86bd 7467 963b
00000360: ddda a9bd 6e35 09bd 855f 123d f83d 953c
00000370: 2144 903b 6f17 a7ba 3926 e8bb 6a62 34bd
00000380: 4cf9 5bbd e584 1e3d 4b70 51bd 4c00 5d3d
00000390: fb29 6cbd 9bd3 e53c 502f 9b3c 281f 49bd
000003a0: ad99 3ebd 9740 a1bd dc85 1a3d b571 9dbd
000003b0: e068 c3bd 331a babd 88eb 9a3c aa83 64bd
000003c0: b0e4 d6bd 6ae8 a1bd d696 a13c 283c 403d
000003d0: 3cc1 8c3c afa5 213d 1959 563d cea9 253d
000003e0: 3c75 363d de60 27bd 9c68 9c3d acf8 28bd
000003f0: 1e34 233b a257 723d b3d0 c1bd 7849 6a3d
0.03485208 0.04843143 0.04114624 -0.046404105 -0.061894834 -0.10096581 0.041620843 0.020370094
0.010547453 -0.008345172 -0.09534749 0.0599756 -0.06794788 -0.07700727 0.04205978 -0.07940593
-0.061747074 -0.054727178 0.025629975 0.030930735 -0.04190248 0.006124523 0.03830362 -0.08343857
0.051607613 -0.014446038 -0.05970004 0.058038518 0.02104288 0.021830782 0.02405721 0.016684286
-0.041782 0.0099719595 0.053197376 -0.008146204 -0.12767802 0.05495889 0.027343843 -0.046065476
-0.021366306 -0.04507552 0.0025552025 -0.039004765 -0.003984928 0.03802072 0.009551002 -0.08245196
-0.057320543 0.015073404 0.031313032 -0.058732033 0.02266003 -0.113742165 0.042309277 -0.018063018
0.04446101 -0.061220028 -0.038728178 0.01767447 -0.036877 -0.035313763 -0.009240684 0.05310667
0.04267844 0.035483796 0.0036564097 0.04150834 -0.059737694 -0.03766059 -0.020491537 -0.04441912
0.011812448 -0.05820555 -0.061140522 -0.08666374 0.037464906 0.050871953 -0.035329003 -0.031011216
0.0034966774 0.046141114 -0.0613106 -0.07615716 -0.068790935 0.0270447 0.0035819113 0.058372743
0.06163659 -0.07997765 -0.04811108 0.041581966 -0.02831282 -0.044291645 0.03883274 -0.09218588
0.044402897 0.0106885955 -0.060144465 -0.019557692 -0.028868742 0.012643367 -0.065569595 -0.061901342
-0.059193794 -0.080353305 -0.085000925 -0.03920239 0.0596237 0.06176872 -0.006196484 -0.060976595
-0.10291261 0.04834947 -0.012185221 0.039606206 0.05788995 -0.04309121 -0.04912056 0.04343407
-0.008814514 0.055462223 0.046629876 0.05057399 0.041304193 -0.11825068 0.03801368 -0.028015513
-0.047844447 -0.03910979 -0.09704853 0.015346813 0.058726385 0.03282801 0.04512709 0.062171753
0.050410867 0.00058475824 -0.027301174 -0.09129643 -0.077926435 -0.06163497 0.046429552 -0.05641885
0.03370381 -0.06996185 0.033010665 0.052957658 -0.043253824 -0.057116687 0.056267537 0.0353048
0.048385233 0.034215704 0.12942883 0.035804294 0.06555144 0.05674479 -0.08089462 0.014289252
0.004674802 0.00335316 -0.039708626 -0.11087143 0.041372214 -0.055159394 -0.040774472 0.07642958
0.020994425 -0.012900413 -0.09892668 0.024475308 0.034931704 0.06149461 0.056147493 0.041082446
0.045582406 -0.08076064 0.003936692 0.052721493 -0.047195803 0.046988998 0.0576031 0.059201997
0.05633528 -0.06357702 -0.05041162 0.028219342 0.030755632 0.060948413 -0.03770458 -0.04532453
0.04150685 0.043329265 0.039479546 -0.08067027 0.009239443 -0.03013239 -0.054679662 0.017723992
-0.088639334 0.100584686 -0.043506697 -0.035880733 0.051545557 0.0070522144 -0.05271215 -0.074217625
0.0034411238 -0.0057430994 0.021491406 0.045352843 -0.044275727 0.04907441 -0.06585363 0.0045899693
-0.08293698 -0.03349822 0.035735626 0.018218026 0.004402653 -0.0012748073 -0.0070846346 -0.044039167
-0.053704545 0.038700957 -0.05113248 0.05395536 -0.057657223 0.028055003 0.018943459 -0.04910198
-0.046533275 -0.07873648 0.037725314 -0.076877035 -0.09541488 -0.09087028 0.018911138 -0.055789627
-0.104928374 -0.079056576 0.019725244 0.04693237 0.017181985 0.03946465 0.052331064 0.04044514
0.044545397 -0.040863864 0.0763714 -0.041252777 0.002490289 0.059165604 -0.09463634 0.05719897

weight_sigma f4 [1, 256]
00000000: b63e c63c 0000 003d 7497 fe3c 62cb 2b3c
00000010: 0000 003d 53cd aa39 fb06 f83c 68fa cb3c
00000020: 0292 b43c 4c28 3b3c 01dc a9b8 3abc 273c
00000030: 864c e43a ae94 ce37 0000 003d 1b5a 933a
00000040: 2f41 953b 0000 003d 0000 003d 40e8 903c
00000050: 0000 003d f57a 093d 0000 003d 0afd 2139
00000060: 8bf7 fe3c 84a0 033d 4900 193c f226 023d
00000070: 2d42 0a3d b528 053d 8fed 5e3c 75c4 033d
00000080: 7493 d53c 5b7c ff3c 5af7 043d 0000 003d
00000090: f9c3 bb3a 2cd6 023d 4b8d fe3c 8e44 003a
000000a0: 0000 003d 0000 003d 2bcc f33c 0000 003d
000000b0: 0000 003d 03f5 f73c ab55 f43c b27b a63a
000000c0: 0000 003d 0000 003d 0000 003d a857 703b
000000d0: 6331 fc3c 87dc 893b dd5d 023d 8384 f73c
000000e0: be8f a73c 0000 003d 274c b03c 23b4 fa3c
000000f0: 0000 003d a426 b23c e3a7 fb3c 4750 003d
00000100: e61f 573c 7329 ef3c 0000 003d 2458 013d
00000110: dbea f73c 0000 003d 3300 003d 065b 543c
00000120: 4f09 483c aaf9 703b 4fbd 363b b48d e1b9
00000130: 3a49 ee3c 0000 003d c992 703b 0000 003d
00000140: 0000 003d e17f d83c 2ca6 933a e8bd 0d3b
00000150: 5f56 163a 2356 f93c 0000 003d 8a0c ef3c
00000160: e661 643c 805c 48ba 0000 003d 0000 003d
00000170: 335a 993c a536 853c 0000 003d cf65 673b
00000180: 0000 003d 0000 003d 93f1 363c 0000 003d
00000190: 0000 003d 431c ff3c ce5e 79ba b3b3 f23c
000001a0: 17e3 e73a f13b 16ba f239 cd3b 6b70 fb3c
000001b0: 572c 003d 0392 fb3c 0000 003d 62f0 293b
000001c0: 2afd 6f3b 7c54 023d 9060 e83c eb95 fb3c
000001d0: 5ac9 ee3c 35ce 8a3c 6de3 e43b 1318 223c
000001e0: 0000 003d 431b 343c ab56 f83c 0000 003d
000001f0: 1340 f23c e99e 363b 0000 003d daf4 ed3c
00000200: 8fca 733b 0000 003d eb89 573b 0499 fe3c
00000210: 0000 003d 0000 003d c3e3 fd3c 3df0 ec3b
00000220: 0000 003d 552f 063d 43a3 a13c f92e 11ba
00000230: 8bcb 8cb7 3e89 90b9 4d99 5f3c 79a0 043c
00000240: 12f8 6f3c 4a0d 983a ea83 e33b d71f 003d
00000250: 0000 003d e706 1e3c 0e01 483c 8360 ca3c
00000260: 853c 033d 147c 013d 39af bf3b 0000 003d
00000270: 12f6 b73c 8d7b 023d 6d48 e6b9 0000 003d
00000280: f411 9a3c 03bb f03c f5c9 283c a67b 75b9
00000290: 0f40 bb3c 853d 1b3c 0000 003d cf99 503c
000002a0: 0000 003d f3a3 fe3c 5e38 2c3a 7720 a23c
000002b0: 2b52 ff3c 0000 003d e753 a33c 6d6a cd3c
000002c0: 037e f63c 9814 0c3c fc22 bc3c 0000 003d
000002d0: 8591 8b3c 9b68 fb3c 2d3a 033d 12d5 ee3c
000002e0: bbc9 423c 01e4 6138 3193 243b 0000 003d
000002f0: 0000 003d 5ce3 f23c cb94 a73c 37ad 623b
00000300: 6cc9 013d 4add e03c 2565 033d de16 d539
00000310: 0000 003d 0000 003d 9e1d 253c 9cce 033d
00000320: a529 263b 8a13 343c 0000 003d 8ff5 923c
00000330: 2ea7 bd3c f2a3 e53c 2982 3a3b 7441 6439
00000340: 841d 043d 0192 c63c 55a8 033d db7a f93c
00000350: e2a6 563c 5beb f93c 750e 603b f158 e83c
00000360: 098b ee38 0000 003d dbd7 f63c 0000 003d
00000370: 7f07 003c a344 fe3c fe2a 7d3c b70d 983c
00000380: 7e77 6d3b 0231 ee3c a13d 563c 0000 003d
00000390: 4bce 1c3b 6383 ff3c 0000 003d 9dc8 043d
000003a0: 039d 2a3c 2563 063b 0000 003d 61e1 633c
000003b0: 9e53 ddb8 72dc 9f3a 0000 003d 85cb 003d
000003c0: 1d5d feb8 18a3 8e3b b52e 043d 9bf6 f43c
000003d0: 8a02 003d 9bca f33c 74e9 013d 5be0 ff3c
000003e0: 1651 c83c 04ea fd3c 6cc3 b73c c9b9 8a3c
000003f0: 535b fb3c 0000 003d 0728 e638 0000 003d
0.024199825 0.03125 0.031078078 0.010485502 0.03125 0.00032577905 0.030276766 0.024899676
0.022042278 0.011423182 -8.099527e-05 0.010237748 0.0017417825 2.4626348e-05 0.03125 0.0011242063
0.0045548896 0.03125 0.03125 0.01768887 0.03125 0.033564527 0.03125 0.00015448421
0.031123897 0.0321355 0.009338447 0.031775422 0.033754516 0.032509524 0.013606443 0.032169778
0.026071288 0.031187227 0.032462455 0.03125 0.0014325372 0.03194253 0.031073233 0.0004893028
0.03125 0.03125 0.02976044 0.03125 0.03125 0.030268198 0.029826006 0.0012701659
0.03125 0.03125 0.03125 0.003667334 0.030785268 0.004207197 0.031827796 0.030214554
0.020454284 0.03125 0.021520687 0.030603474 0.03125 0.02174694 0.030719703 0.03132656
0.013130164 0.02919457 0.03125 0.031578198 0.030263355 0.03125 0.03125019 0.012961155
0.012209251 0.0036769905 0.0027883833 -0.0004302092 0.029087652 0.03125 0.0036708585 0.03125
0.03125 0.026428165 0.0011264733 0.0021628086 0.0005734916 0.030436581 0.03125 0.029180784
0.013939356 -0.0007643178 0.03125 0.03125 0.018719768 0.016261408 0.03125 0.0035308485
0.03125 0.03125 0.011165994 0.03125 0.03125 0.031141406 -0.0009512723 0.029626703
0.0017691579 -0.0005730978 0.006263011 0.030693254 0.031292286 0.030709272 0.03125 0.0025930633
0.0036619403 0.03181885 0.028366357 0.030711135 0.029148746 0.01694403 0.006985119 0.009893435
0.03125 0.010992828 0.030314764 0.03125 0.029571569 0.0027865714 0.03125 0.029047418
0.0037199592 0.03125 0.0032888602 0.031078823 0.03125 0.03125 0.030992394 0.007230787
0.03125 0.032759983 0.01973117 -0.00055383105 -1.6784083e-05 -0.00027568074 0.01364739 0.0080949
0.014646547 0.001160064 0.0069432156 0.031280365 0.03125 0.0096452 0.012207283 0.024704223
0.032040138 0.03161247 0.0058497456 0.03125 0.022456203 0.03185611 -0.0004392298 0.03125
0.018807389 0.02938605 0.010302057 -0.00023411083 0.022857694 0.009475117 0.03125 0.012731983
0.03125 0.031084036 0.00065696787 0.019790871 0.03116711 0.03125 0.019937469 0.025075162
0.030089384 0.008549832 0.0229659 0.03125 0.017037163 0.030689528 0.032037903 0.029154334
0.011888917 5.3856525e-05 0.0025112147 0.03125 0.03125 0.029649429 0.020456692 0.0034588107
0.03168623 0.027449269 0.03207888 0.00040643563 0.03125 0.03125 0.010077862 0.03217946
0.0025354412 0.010990987 0.03125 0.017939357 0.023151007 0.028032277 0.002845893 0.00021768158
0.03225471 0.024239542 0.032142956 0.03045409 0.013101311 0.030507734 0.0034188305 0.028362723
0.00011374622 0.03125 0.030132225 0.03125 0.007814287 0.031038588 0.015452145 0.018561227
0.0036234553 0.029076103 0.013076217 0.03125 0.002392667 0.03119058 0.03125 0.032417882
0.010413411 0.0020505872 0.03125 0.013908715 -0.00010553676 0.0012196435 0.03125 0.03144409
-0.000121290075 0.0043529384 0.032271106 0.029902747 0.03125242 0.029759696 0.03171678 0.03123491
0.024452727 0.030995376 0.022432052 0.016934292 0.030683195 0.03125 0.0001097471 0.03125

weight_epsilon f4 [1, 256]
00000000: 5869 8abf bcb8 babf 9a79 f2bf fb73 0b40
00000010: ac49 00c0 8e08 e33f 843a a23f cc61 973f
00000020: f981 27c0 eb11 e93f b2c7 30bf 6ce0 923f
00000030: 1386 adbf 6143 7ebe 1287 0f40 dae8 1a40
00000040: 38cd a43f c37a 7abf 1499 60bf a19c 493e
00000050: 072f 80bf 1b64 0040 1753 763f 7c90 fcbf
00000060: d5fb b93f abf0 b1bf 30fc dcbf 3668 b6bf
00000070: ba03 e9bf ec89 903f 2907 fa3f 1767 b93f
00000080: 0ce1 e33f 0ef3 2cbf 48dd 1bc0 4623 1d40
00000090: 4754 12bf 0c1a 0d40 bdae 0fbf a4e2 7b3f
000000a0: 1939 f53f 07af 053f a1d3 e1be 6deb 113f
000000b0: 8d99 ec3f 958a c4bf 233e f1bf f175 99bf
000000c0: c6ad c03f b5ef 54bf 5eef bc3f f1b7 f5bf
000000d0: 713f 09c0 4d4e babf dd32 d2bf 7488 01c0
000000e0: b079 583f f91b c43f 4600 8bbf 75fb 5bbf
000000f0: 85e8 04c0 af8b 8ebe c6f8 03c0 e107 0dc0
00000100: dfe1 02c0 92f3 95bf e7df 8abf 5c49 5bbf
00000110: c0a1 553f bc18 e23e 53d2 4f3f 1ca8 0840
00000120: 7e68 eebf ee17 00c0 111b e03f ca76 eebf
00000130: 677b 983f aa28 d43f b9d3 bcbf 3510 bb3f
00000140: e059 64bf d07d c3bf 2f1c 77bf 901d b73f
00000150: e3e5 ce3f 3e9f 9f3f 9943 59bf 0d67 1ac0
00000160: 1d0c dfbf 123a 95bf aec1 0140 d4a3 ae3f
00000170: 20c9 9e3f e27c 0dc0 84d1 fb3f 0473 393f
00000180: 04e2 c2bf b08d f4bf 8813 76bf 6f92 973f
00000190: 7c1d c13f daa8 fcbf e436 12c0 d97f 4bbf
000001a0: 4b2a 01bf f033 23c0 caab 94bf 9a97 4bbe
000001b0: 2eea 543f 8c59 a5bf 6fa4 aebf 3fc7 95bf
000001c0: 1aea 85be 234f f33f a281 f8bf cbb1 b73f
000001d0: e8be ccbf 2968 d83f 4040 963f 2f6a 943f
000001e0: a714 ebbf 928a c73f 4bb0 213e 26cd ec3f
000001f0: 7834 b43f 99da 923f 413b a53e bc14 acbf
00000200: 3597 aebf e487 36bf d947 0f40 37f0 d63f
00000210: 0591 0040 4c85 18c0 3b60 debe d214 da3e
00000220: cb3f cbbf a3b3 ae3f 41e8 9fbf 7225 673f
00000230: 9b86 e83f ccc6 92bf df6b ac3f 744f 2e3f
00000240: c74f cdbf e575 893f 3210 f1bf 6907 723f
00000250: d18a 2f3f ecf0 21c0 ab82 a93f 022e 873f
00000260: 53e0 eabf e194 c4bf 0b11 943f a94d c23f
00000270: bc18 eebf da99 893f 17a0 1240 11fd be3f
00000280: 081e eb3f 0059 8f3f e34e d53e ba5f 9dbf
00000290: fee3 ccbf 68d7 553f 70a7 62bf 5692 01bf
000002a0: 3e89 fb3e 22ee 43bf a8bc 503f 344a 0d40
000002b0: a4cf 8d3e 47d4 85bf 3f2d f13f 9c87 da3f
000002c0: 4361 28c0 d3f6 80bf d164 953f 6cf6 993f
000002d0: b082 8a3f 7bd8 adbf 9a70 3fbf 3d80 11c0
000002e0: 315b f3bf ab30 04c0 4e24 be3f 37a4 d1bf
000002f0: aa3b c6bf 98fc 9c3f 6b6c 2040 4037 823f
00000300: 8f27 eb3f 782f cb3f 5a65 c2bf 137f a23f
00000310: a2b2 a53e b2ab 863f 5a82 d53f 86a2 91bf
00000320: 0329 383f 8837 b83f 2a9b b23e e2a8 0a3f
00000330: 8902 4c3f 2251 d53f adc3 f43e a0a5 1f3f
00000340: d98a cdbf 51df e13f 2e1b e8bf 43d3 943f
00000350: 8bf1 1340 0d72 92bf 3daf d93e a725 ec3f
00000360: ad37 41bf 1240 1340 9657 49bf 7763 76bf
00000370: 66c0 c9bf 3a8a 833f dda1 ddbf 7396 c1bf
00000380: 9ada 1740 be0c 2bbf 179f 793f b8fa ecbf
00000390: ca28 0040 046c bfbf fef2 02c0 4919 dbbf
000003a0: 5405 36bf 83d1 8e3f 8008 07bf df42 0b3f
000003b0: 408c 6d3e b6d0 e43f 3ae3 813f 5352 abbf
000003c0: 3441 b6bf f2f0 3440 62db 13c0 120a 81bf
000003d0: 0713 1a40 071a 933f 8588 4dbf 74a2 6f3f
000003e0: 6121 62bf 8f4b bf3f e0cf 3140 7822 8b3f
000003f0: e9fa 833f eb57 c0bf 15e4 12c0 e9ec bc3f
-1.0813398 -1.4587626 -1.894336 2.178954 -2.0044966 1.7736986 1.2674108 1.182672
-2.617308 1.8208593 -0.6905471 1.1474738 -1.3556541 -0.2483039 2.242619 2.4204621
1.2875128 -0.9784357 -0.8773358 0.19688655 -1.0014352 2.00611 0.96220535 -1.9731593
1.4529978 -1.3901571 -1.7264462 -1.4250553 -1.8204262 1.129209 1.9533435 1.4484586
1.7803054 -0.6755837 -2.435381 2.455278 -0.5715985 2.2047148 -0.56126004 0.983927
1.915805 0.52220196 -0.44106773 0.56999856 1.848436 -1.5354792 -1.8847088 -1.1989118
1.5053031 -0.83178264 1.4760549 -1.919676 -2.1444972 -1.4555146 -1.6421772 -2.0239534
0.8456068 1.5321037 -1.0859458 -0.8593057 -2.0766919 -0.27840945 -2.062059 -2.203606
-2.045036 -1.1714957 -1.084958 -0.8565881 0.83449936 0.44159496 0.81180304 2.1352606
-1.8625638 -2.0014606 1.750826 -1.8630002 1.191266 1.657491 -1.4752113 1.4614321
-0.8919964 -1.527277 -0.9652738 1.4305897 1.6163906 1.2470472 -0.8486877 -2.4125397
-1.7425572 -1.1658347 2.0274463 1.3643746 1.2405128 -2.2107472 1.9673314 0.72441125
-1.5225224 -1.910574 -0.9612355 1.1841563 1.5087123 -1.973903 -2.2846003 -0.79491955
-0.5045516 -2.550045 -1.1614926 -0.1988205 0.8316983 -1.2917953 -1.3643931 -1.170143
-0.26155168 1.9008526 -1.9414561 1.4351133 -1.599576 1.6906787 1.1738358 1.1594905
-1.8365678 1.5589163 0.15789907 1.8500106 1.4078512 1.1472961 0.3227177 -1.3443828
-1.3639895 -0.713011 2.2387602 1.6792058 2.0088513 -2.3831358 -0.43432793 0.4259401
-1.5878843 1.3648571 -1.2492753 0.9029151 1.8166078 -1.1466918 1.347042 0.68089986
-1.6039971 1.0739104 -1.8833067 0.94542557 0.6857119 -2.5303297 1.3243002 1.0560915
-1.8349708 -1.5357934 1.1567701 1.517995 -1.8601298 1.0750077 2.291021 1.492098
1.836854 1.1199036 0.41661748 -1.2294838 -1.6007078 0.8353181 -0.8853674 -0.50613916
0.49128145 -0.76535237 0.81537867 2.207654 0.2769748 -1.0455407 1.8841933 1.7072635
-2.6309364 -1.0075325 1.1671392 1.2028327 1.0821133 -1.358169 -0.7478119 -2.273452
-1.9012204 -2.0654705 1.4854829 -1.6378239 -1.5486958 1.2264585 2.5066173 1.0173111
1.8371447 1.5873861 -1.518718 1.269503 0.3236285 1.0521147 1.6680405 -1.1377723
0.7193758 1.4391947 0.34884006 0.54163945 0.7969137 1.6665385 0.4780554 0.623621
-1.6057998 1.7646276 -1.8133295 1.1626972 2.3116176 -1.1441056 0.4251651 1.844899
-0.7547558 2.3007855 -0.7864927 -0.9624552 -1.576184 1.0276558 -1.7315022 -1.5124038
2.3727174 -0.6681632 0.97508377 -1.8514013 2.0024896 -1.4954839 -2.046081 -1.7117091
-0.7110188 1.1157688 -0.52747345 0.5439891 0.23198032 1.7876194 1.0147469 -1.3384498
-1.4238648 2.8272061 -2.310265 -1.0081198 2.4074113 1.1492318 -0.8028644 0.9360726
-0.8833218 1.4944934 2.7783127 1.0869894 1.0310947 -1.502683 -2.295171 1.4759799

weight_mu f4 [33, 256]
00000000: bcc9 23bd 543b 2f3d a889 4a3b dc19 0f3c
00000010: d03d 0a3c 8745 753c 2edd 1e3d ce2c 3e3d
00000020: 5e8c 3e3d 97e6 4b3d 95a8 873c 6605 f7bd
00000030: 097e 4abd 5657 3e3d ba5b 3ebd 5036 233d
00000040: 8d2c c539 444b 4dbd 1886 b73c 332c 353d
00000050: 1452 463d fd71 143c 1cf5 6a3d 38c9 733d
00000060: 6ca0 0cbd fb35 6c3d 48e7 f6bb d1cf cbbc
00000070: 706f 42bb f666 1dbd 535b 213d 1ea9 1c3b
00000080: 8027 223d 8552 103d 7af8 483d c427 11bd
00000090: 3b53 133d eec2 99bc d6b2 ad3c e6f2 edbc
000000a0: 80a1 823c 8eb1 473d 2305 7a3c 8c74 ffbc
000000b0: 3250 4dbd 6e75 28bd 9674 153b 3867 af3c
000000c0: a833 aa3c 1c36 bdbc 1c54 2fbd 090d cabc
000000d0: 5323 fcba d5ba 143d fc19 f93c c1fc 4bbd
000000e0: 1d1f 81bd 2835 dbbc b064 febc e2af d03c
000000f0: 28fd 183d 0f74 5ebd 2f78 333c 6731 2e3c
00000100: b6d6 01bd cb4e 65bd 004e 9ab9 9329 633d
00000110: 4047 b1bc 6c8d d73c 22b0 533d 3765 4e3d
00000120: a01b 91bc 3fda 43bd 4820 aebc 4eb4 51bc
00000130: cbf0 633d c8dc 04bc 0e42 02bd fe57 4d3d
00000140: 804e 913a cef0 2ebc fe19 40bd 4449 37bd
00000150: 3e27 55bd fb12 76bc dcf5 443d dd5e 863d
00000160: bd89 15be 6217 7c3d 143c d2bc 62be 583c
00000170: cf4e a93c 03bd 93bc 3869 c8bc 0a44 d13c
00000180: 00ab c53c fa75 33bd 4f96 3c3c c83d 88bc
00000190: 30de 483d bdfd 84bc 73c6 033c 483b 493d
000001a0: 0158 7c3d 17f3 013d 0147 9fbc 8449 05bc
000001b0: 7608 1a3d 6d33 813d 8007 93ba 80ae 47bd
000001c0: 265f c6bc 27b6 b4ba 51dd f6bb 616c 55bd
000001d0: daa0 623d d30d 593a 08c0 1bbd a788 0ebc
000001e0: 006c d139 5a0f 9cbd 02dd 62bd 70fc e7bc
000001f0: 6f08 36bc d4a8 79bd b608 79bd 9fb2 29bd
00000200: 587b a13c febe 7cbd 79bb 813d f339 ffbc
00000210: 6896 7c3c 00bf 2f3d 5556 99bb 4441 203d
00000220: 946a 003d a3bd 7c3d 1f00 b53b aaa1 5d3d
00000230: 683f 02bd 4acd edbc 5022 9f3d 5612 2bbd
00000240: b53e 45bc ea10 6c3d d1ae 253d cd6e 813d
00000250: fca7 f6bc db92 42bc 31ab 1c3d 659d 4abc
00000260: 889d c2bc a3e2 6c3d 536c eabd 0088 173c
00000270: a235 b7bc 2c21 03bd 7acf 2cbd 707d 96bc
00000280: 6daa cd3c 188f b43c 37ba 533c 8804 18bd
00000290: 3ce6 d9bd d8e4 dc3b 8041 d1bc 2098 18bd
000002a0: ca48 61bd 1ce3 f1bc 683b 103d 8530 2cbd
000002b0: ade9 053d 1031 f93c 553c d33c 0d8d e93c
000002c0: 8f8a 0a3c a2a0 42bd 46fc 703d d0c0 99bc
000002d0: 09a0 62bd 9814 beba 8885 46bd f552 98bc
000002e0: 94cb ef3c 1ab9 233d f1e5 57bd 6272 02bd
000002f0: f822 353d 8a52 5b3c d799 16bb 543f bf3c
00000300: 4dc2 0a3b 24dc 843c 1e7b 2cbd 0271 693c
00000310: 443d 2d3d 28d2 c43c 52d8 7abd 3e51 27bd
00000320: 8b2b babc f45a d2bd 1ab5 6bbd 36bf 513d
00000330: 49c1 713c 08ac 31bc 2034 abbc 4dfe a83c
00000340: ee2f 25bd b969 65bd 571a 3cbd 29e6 c53c
00000350: 2e3f 20bc 9a32 6bbd 09ea 0dbd de1d 323d
00000360: e349 5a3c 0c57 e03c 3d23 053d 06b1 14bd
00000370: d405 babd a474 763d a4fd 94bd dba7 8c3c
00000380: 8f25 f43c 93ae ea3a 2e23 173d 2c35 753d
00000390: 3fa6 783d b976 c3bc 5063 243d 698f 48bd
000003a0: f372 9f3b 0114 7c3d 8a8e 563d 697f f7bc
000003b0: c63b 80bc 70a4 5abd c0de 363b c346 fa3c
000003c0: be9c 073d d83f 4abd 1e96 9b3c 7e4b 103d
000003d0: ca08 603d 7f43 3b3d 9a2a 643d 4ac2 f1bb
000003e0: 203d 9ebb 9f8f b33c 4225 c4bd 1671 203d
000003f0: cc2c 8cbc 748e bc3c c901 243d 70b4 02bd
-0.03998731 0.04278119 0.0030904803 0.008734193 0.008437589 0.01497019 0.038785152 0.046429448
0.046520583 0.049780454 0.016559878 -0.120615765 -0.049436603 0.04647001 -0.046474196 0.03984672
0.0003760796 -0.050120607 0.022402808 0.044231605 0.04841812 0.00906038 0.05736266 0.05951807
-0.034332678 0.057668667 -0.007534895 -0.024879368 -0.0029668473 -0.03842827 0.039393734 0.0023904513
0.03958845 0.035234947 0.04906509 -0.035438314 0.035968047 -0.018769708 0.02120344 -0.029046487
0.01594615 0.048753314 0.015260014 -0.031183504 -0.05012531 -0.041127615 0.0022805086 0.021411523
0.020776585 -0.02309709 -0.042804822 -0.024664419 -0.0019236602 0.03631099 0.030407898 -0.04980159
-0.063047625 -0.026758745 -0.03105387 0.025474492 0.037350804 -0.0543099 0.010953947 0.010631896
-0.031698905 -0.055983346 -0.00029431283 0.05545957 -0.02164042 0.026312552 0.051681645 0.050389495
-0.017713368 -0.047815558 -0.021255627 -0.012799336 0.05564956 -0.008109279 -0.031801276 0.050132744
0.0011086017 -0.0106775295 -0.046899788 -0.044747606 -0.052039377 -0.015019174 0.048086032 0.065610625
-0.14603324 0.061545737 -0.025663413 0.013228985 0.020667462 -0.018034464 -0.024464235 0.025545139
0.02412939 -0.043813683 0.011510446 -0.016631022 0.04904002 -0.016234273 0.008042919 0.0491288
0.061607365 0.03172597 -0.019443037 -0.008135203 0.037605725 0.06308637 -0.0011217445 -0.0487504
-0.024215292 -0.0013787196 -0.007533707 -0.05210531 0.05532918 0.0008279953 -0.038024932 -0.008699573
0.00039944053 -0.076201156 -0.05538655 -0.028318614 -0.011110409 -0.060952023 -0.060799323 -0.041430112
0.019712135 -0.06170558 0.06334586 -0.031155562 0.015416719 0.04290676 -0.004679481 0.039124742
0.03135164 0.06170429 0.005523696 0.054109253 -0.03179875 -0.029028554 0.077702165 -0.041765533
-0.012038876 0.057633318 0.04044992 0.06319962 -0.030109398 -0.011875833 0.0382492 -0.012366627
-0.023756757 0.057833325 -0.114464425 0.0092487335 -0.022364441 -0.032014057 -0.042190053 -0.01837036
0.02510568 0.022040889 0.012922815 -0.037113696 -0.10639617 0.0067411475 -0.025543928 -0.037254453
-0.055001058 -0.02952724 0.035212904 -0.04203846 0.032693554 0.030418903 0.025785604 0.028509641
0.0084558865 -0.047516473 0.058834337 -0.018768698 -0.055328403 -0.0014501987 -0.04846719 -0.018594244
0.029271878 0.03997145 -0.052709524 -0.031847365 0.044222802 0.013386378 -0.002297988 0.023345627
0.0021172941 0.016218252 -0.0421096 0.014248135 0.042294756 0.024025992 -0.061241455 -0.040848963
-0.022725841 -0.10271254 -0.05754576 0.051207744 0.014755555 -0.010844238 -0.020898879 0.020629073
-0.040328912 -0.056009028 -0.045923557 0.0241576 -0.009780688 -0.057421304 -0.03464702 0.043485515
0.01332328 0.027385257 0.03250431 -0.036301635 -0.09083143 0.06016983 -0.072749406 0.017169883
0.029803066 0.001790481 0.036898784 0.05986516 0.06070542 -0.023860322 0.040133774 -0.04896489
0.004865998 0.061542515 0.05238203 -0.030212121 -0.015653502 -0.053379476 0.0027903765 0.03055132
0.033108465 -0.049377292 0.01899248 0.035228245 0.054695882 0.045718666 0.05570469 -0.0073778974
-0.004829064 0.02191907 -0.09577419 0.039170347 -0.017111205 0.023017146 0.040040765 -0.03191036
