experiments/diff_kappa_data/kappa1_1.5_kappa2_1_kappa3_1/rainbow_dqn_sse.pth (torch, 352134 bytes, 13 tensors)

weight f4 [256, 4]
-0.18809628 -0.22986591 -0.38821906 -0.39880955 -0.31232846 -0.48192942 -0.16833824 -0.4153806
0.13958752 0.39250025 0.30482674 0.75057167 0.39023238 0.8506079 0.46531582 1.107184
0.16258055 0.88276887 0.17085087 0.976324 -0.23663056 -0.13156271 0.0034660697 0.40887862
-0.021453837 1.1709243 0.48620442 0.23761675 -0.21857347 1.308207 0.4264153 0.3879957
-0.0737727 0.7217366 0.9504794 0.83229166 -0.09586048 -0.042440176 -0.096933484 -0.47276795
0.49343467 0.7646515 0.13202733 0.11648151 -0.4510553 0.03904879 0.060806572 0.017611146
0.27168337 0.84317255 0.44934672 0.3953097 -0.10254872 -0.21002579 -0.1622451 -0.36669075
0.004228001 1.1539502 0.40615442 0.8913377 0.080983736 1.2277471 0.3760204 1.0621203
0.17931125 1.0638369 0.1418313 1.1175766 0.22795486 1.0570005 0.23383673 0.6323501
0.17799164 0.77049375 0.2695074 0.23788607 -0.050597608 -0.17300111 -0.3312332 0.073305905
-0.051651396 0.7066098 0.68554395 1.0954604 -0.021482963 1.1389105 0.12194668 0.8100958
0.5464011 0.4602248 0.15791625 0.29602134 0.15854582 1.0166065 0.032655664 0.29038152
-0.21715249 1.2779003 0.08936676 0.36593634 0.27042443 0.9130996 0.14870955 0.9403957
0.11535995 1.1517265 0.57504976 0.95511425 0.29383454 0.63107735 0.23864257 0.27593073
-0.024946928 -0.46819758 0.03404385 0.39991373 0.1904076 0.9044181 0.87174124 0.24252129
0.100595765 0.56281036 0.35258 0.34076568 -0.48917806 -0.34425676 -0.49838758 -0.07071149
0.21358086 0.55210894 0.28464428 0.4790151 -0.079061575 1.124129 0.2690943 1.0022857
0.35941353 1.236588 0.72802854 0.72564477 0.0017576804 1.3614426 0.57049465 0.73299134
0.08484386 1.243434 0.29616758 1.1657463 -0.38757265 -0.024195433 -0.45139265 -0.0024769902
-0.17230806 1.4034126 0.69525266 0.6846838 -0.055282354 -0.025473595 -0.055143356 -0.4460433
0.46435452 1.3344392 0.44767484 0.3461823 0.2957608 0.8726931 0.7011859 0.3878169
0.18218273 0.5833349 0.20968351 0.40124732 -0.17318308 -0.26929003 -0.42087597 0.09235412
-0.42418987 0.83505034 1.009911 1.0951481 0.4842062 0.8529953 0.30020732 0.7230042
0.048929013 0.97237825 0.608821 0.83182025 0.20233333 0.795415 0.75686514 0.9837988
0.2962304 0.4075179 0.95737934 0.32347 0.47778264 1.2770214 0.22378089 0.72707105
-0.3059867 1.1712917 0.33104458 0.38600504 0.39807573 0.68215644 0.8594796 1.0321558
0.38395327 0.5922285 0.17063805 0.47794378 -0.24661905 0.15053928 -0.35821062 0.11017853
0.41578037 1.3047389 0.11809842 0.19514443 -0.04523152 1.0961144 0.60430026 0.21807644
0.121432304 0.66831845 0.6832456 0.5802132 0.0910183 0.5024043 0.47850394 1.0254427
-0.041816354 -0.26488632 -0.39850873 -0.43797046 0.18678989 1.1487603 1.0006636 0.34046307
0.46988755 0.74441993 0.9845589 0.6002089 0.5234494 0.40468493 0.9094838 0.74424404
0.45567372 1.1656693 -0.035472255 1.0725892 -0.32400483 1.2309927 0.43636835 0.8382265
00000000: 509c 40be f861 6bbe a6c4 c6be c430 ccbe
00000010: 84e9 9fbe 74bf f6be dc60 2cbe c4ac d4be
00000020: 08f0 0e3e cbf5 c83e 4012 9c3e 7725 403f
00000030: 8acc c73e 70c1 593f e03d ee3e 35b8 8d3f
00000040: 847b 263e 24fd 613f 88f3 2e3e 5ff0 793f
00000050: 484f 72be 60b8 06be 0027 633b 8a58 d13e
00000060: f5bf afbc d9e0 953f c9ef f83e ce51 733e
00000070: b9d1 5fbe 5473 a73f 1b53 da3e 5fa7 c63e
00000080: 2416 97bd bbc3 383f 9e52 733f 1111 553f
00000090: 8052 c4bd c0d5 2dbd 1085 c6bd a40e f2be
000000a0: 78a3 fc3e 33c0 433f 2c32 073e dc8d ee3d
000000b0: b8f0 e6be a0f1 1f3d 5010 793d 4045 903c
000000c0: 151a 8b3e 28da 573f c610 e63e 0866 ca3e
000000d0: 1005 d2bd 0011 57be 9423 26be e4be bbbe
000000e0: 0b8b 8a3b a4b4 933f 79f3 cf3e b52e 643f
000000f0: cdda a53d d126 9d3f bf85 c03e 8ff3 873f
00000100: 5e9d 373e cf2b 883f 393c 113e c00c 8f3f
00000110: 006d 693e cb4b 873f e572 6f3e b2e1 213f
00000120: 7143 363e 143f 453f e0fc 893e 6898 733e
00000130: 703f 4fbd 3427 31be 6697 a9be 6821 963d
00000140: 6a90 53bd 61e4 343f cf7f 2f3f 0c38 8c3f
00000150: 0afd afbc d2c7 913f 2ebf f93d 7062 4f3f
00000160: f1e0 0b3f 96a2 eb3e ccb4 213e 1c90 973e
00000170: d659 223e 2920 823f f2c1 053d e3ac 943e
00000180: 395d 5ebe 3d92 a33f eb05 b73d 025c bb3e
00000190: 1275 8a3e e5c0 693f 5147 183e c6bd 703f
000001a0: d641 ec3d c66b 933f 7636 133f 5e82 743f
000001b0: 7b71 963e 498e 213f b85e 743e cb46 8d3e
000001c0: 805d ccbc 98b7 efbe 9071 0b3d 7ec1 cc3e
000001d0: 36fa 423e f287 673f 6f2a 5f3f 8057 783e
000001e0: 2705 ce3d 5714 103f 5e85 b43e d778 ae3e
000001f0: 8c75 fabe 6c42 b0be a82c ffbe 30d1 90bd
00000200: f1b4 5a3e 0357 0d3f e5bc 913e 7841 f53e
00000210: 09eb a1bd 76e3 8f3f bac6 893e e64a 803f
00000220: 0d05 b83e 8448 9e3f 1460 3a3f dbc3 393f
00000230: f861 e63a c043 ae3f f00b 123f 52a5 3b3f
00000240: 9ec2 ad3d d828 9f3f 47a3 973e 2d37 953f
00000250: ec6f c6be 8035 c6bc f01c e7be 0055 22bb
00000260: 8671 30be 06a3 b33f 14fc 313f 7047 2f3f
00000270: c06f 62bd 00ae d0bc 00de 61bd ca5f e4be
00000280: e0bf ed3e e7ce aa3f a335 e53e ce3e b13e
00000290: f66d 973e d168 5f3f eb80 333f f08f c63e
000002a0: 1c8e 3a3e 7055 153f 46b7 563e 4a70 cd3e
000002b0: e856 31be 62e0 89be 0e7d d7be 2824 bd3d
000002c0: 6a2f d9be dcc5 553f c344 813f d02d 8c3f
000002d0: e0e9 f73e e65d 5a3f c6b4 993e ce16 393f
000002e0: ca69 483d c8ed 783f b1db 1b3f 2cf2 543f
000002f0: 7830 4f3e 51a0 4b3f eac1 413f 3dda 7b3f
00000300: 83ab 973e 30a6 d03e d016 753f dc9d a53e
00000310: ed9f f43e 7075 a33f d126 653e 5421 3a3f
00000320: 4aaa 9cbe e3ec 953f ad7e a93e 74a2 c53e
00000330: 95d0 cb3e cea1 2e3f db06 5c3f ae1d 843f
00000340: 8695 c43e 499c 173f bebb 2e3e 0cb5 f43e
00000350: b489 7cbe f826 1a3e 6267 b7be 48a5 e13d
00000360: 2ae1 d43e af01 a73f 96dd f13d f1d3 473e
00000370: b044 39bd 7a4d 8c3f 6cb3 1a3f 6e4f 5f3e
00000380: 80b1 f83d eb16 2b3f 2fe9 2e3f da88 143f
00000390: cd67 ba3d 919d 003f 78fe f43e b541 833f
000003a0: a047 2bbd 2e9f 87be 5609 ccbe aa3d e0be
000003b0: d945 3f3e 940a 933f bf15 803f 2d51 ae3e
000003c0: 1a95 f03e 4e92 3e3f 0d0c 7c3f 4aa7 193f
000003d0: c800 063f dd32 cf3e eed3 683f c786 3e3f
000003e0: 114e e93e a734 953f 5b4b 11bd 9a4a 893f
000003f0: f6e3 a5be 2b91 9d3f ac6b df3e 0396 563f

bias f4 [256]
0.14944613 -0.32581133 1.378579 0.85478586 0.46446434 0.21815592 0.997286 1.423483
0.45560232 -0.4051838 0.42119762 -0.016087353 1.0666091 0.4811749 0.86577296 1.3765687
0.38457966 0.43700647 0.50835854 0.15112734 0.94562966 0.55195713 0.6287076 1.1189909
0.5759101 0.7645386 1.08906 0.48485163 -0.0026673079 0.42266998 1.1489648 0.36533028
1.224958 1.4340093 0.59536254 1.079991 0.8273745 0.37982446 1.3893878 -0.30484372
0.87202114 0.52767915 1.0435009 -0.085642755 1.2509221 0.5931431 1.18989 1.2425534
0.6433269 0.91679394 0.7099142 1.1784855 1.288413 -0.21289611 0.48835608 0.96216
0.6342342 1.2543616 0.006767869 0.73204803 0.7325779 1.059865 0.3936859 1.3480012
0.8749362 0.99795145 0.5202381 0.98185134 0.3447358 0.5967647 1.1305774 -0.49825472
0.61018896 0.1343906 0.91699415 1.2612679 1.2435012 0.84064704 1.2954022 -0.45906222
0.72920376 0.5254874 1.1347594 0.8937954 1.4082832 0.93931866 1.1136376 1.3302934
0.091374815 1.0204985 1.0116109 0.919395 0.92009676 0.5054097 0.48148364 -0.14388591
0.42700437 1.3127079 1.2456063 1.3264645 0.738001 1.1686561 0.68809277 0.3489122
0.53105396 0.43205544 0.9726736 1.1532202 0.45263547 0.46723914 0.9473672 0.8426602
0.40501547 1.0013875 -0.36447746 0.98525584 0.68925947 0.3805968 0.4465198 0.83646625
0.48718122 0.8509334 0.75844926 -0.3872341 1.048764 0.041125953 0.511687 1.3443735
1.2302961 1.3141133 0.43687704 0.4386412 0.9538587 1.2239218 1.1241955 0.5016271
-0.20047814 0.23403928 0.50417995 1.3014917 0.20158613 0.7757474 -0.13449305 0.9806191
0.6900499 0.75592756 1.1736892 1.1267072 0.716257 0.85709995 1.1360018 -0.26512927
-0.39448506 -0.20966035 0.6975958 1.129224 1.3258698 0.49785486 0.36055195 1.3567805
0.8586297 0.5903644 1.3309815 0.7230756 0.3205635 0.5064647 0.73717916 0.8978954
0.5033528 -0.22700906 0.36912543 0.7552723 0.6079651 1.1321487 0.9720576 1.328312
-0.08641487 1.1034735 1.264829 1.2504559 1.1186961 0.76412493 0.6164404 0.9684734
0.74381995 1.2792048 1.1981877 1.0778166 1.400292 0.34990722 -0.30295086 0.5419903
1.4102818 1.2291968 1.3527249 1.0041591 1.2546142 0.9898091 1.0214239 0.93781286
1.0956095 0.7922388 0.6579904 0.28734326 0.42575324 -0.21106982 0.9991666 0.8392801
1.2716672 1.4110096 1.0704887 1.2492129 -0.17897224 0.2691359 0.7476637 1.0435276
0.7249956 0.7989846 -0.079348326 0.53486127 1.170443 1.2423574 1.2747878 0.98772824
1.1740144 1.0218059 0.8889709 1.1871091 0.5938991 0.6869702 -0.36042947 0.6158529
0.7882572 0.43110013 1.0871087 0.7204311 1.1129428 1.2820154 0.8382397 -0.4276322
1.1453743 0.4831262 0.77042055 0.3700055 0.2959227 0.6709805 1.0402354 1.2304137
1.211041 0.367433 0.43733257 0.90790355 0.3755795 0.44022223 1.47171 1.086737
00000000: 6808 193e bed0 a6be 4775 b03f 3fd3 5a3f
00000010: 45ce ed3e 4464 5f3e 234e 7f3f b134 b63f
00000020: b544 e93e 4074 cfbe 37a7 d73e a0c9 83bc
00000030: a686 883f 8e5c f63e 4ca3 5d3f 6733 b03f
00000040: a0e7 c43e 50bf df3e c923 023f 20c1 1a3e
00000050: c914 723f 104d 0d3f fbf2 203f 183b 8f3f
00000060: d86e 133f cdb8 433f 5166 8b3f 793e f83e
00000070: 00ce 2ebb 3368 d83e 4711 933f 920c bb3e
00000080: 6ccb 9c3f 9e8d b73f ae69 183f 253d 8a3f
00000090: d1ce 533f 5a78 c23e 76d7 b13f 7a14 9cbe
000000a0: c73c 5f3f fb15 073f 7091 853f 7865 afbd
000000b0: 371e a03f 3ad8 173f 514e 983f fd0b 9f3f
000000c0: 12b1 243f 02b3 6a3f f0bc 353f 9dd8 963f
000000d0: b8ea a43f 7001 5abe cf09 fa3e 1e50 763f
000000e0: 2c5d 223f ec8e a03f 00c5 dd3b 8067 3b3f
000000f0: 3a8a 3b3f a8a9 873f 3391 c93e 4e8b ac3f
00000100: d2fb 5f3f bf79 7f3f 532e 053f 9c5a 7b3f
00000110: 3681 b03e 92c5 183f c3b6 903f 3e1b ffbe
00000120: 5835 1c3f b09d 093e 21c0 6a3f 3a71 a13f
00000130: 0c2b 9f3f a534 573f bdcf a53f 340a ebbe
00000140: 19ad 3a3f 5886 063f cc3f 913f c6cf 643f
00000150: a042 b43f 3077 703f ad8b 8e3f 0e47 aa3f
00000160: b822 bb3d b29f 823f 777c 813f 795d 6b3f
00000170: 768b 6b3f 8862 013f 0685 f63e d456 13be
00000180: 51a0 da3e d006 a83f 0770 9f3f 97c9 a93f
00000190: a2ed 3c3f 8696 953f d926 303f 9fa4 b23e
000001a0: 27f3 073f 5f36 dd3e 2301 793f b89c 933f
000001b0: d6bf e73e f839 ef3e a886 723f 94b8 573f
000001c0: 305e cf3e 772d 803f ca9c babe ba39 7c3f
000001d0: 4f73 303f 95dd c23e 3e9e e43e a722 563f
000001e0: d16f f93e c5d6 593f bb29 423f 8c43 c6be
000001f0: e63d 863f b073 283d ebfd 023f 6e14 ac3f
00000200: 587a 9d3f dd34 a83f 59ae df3e 9495 e03e
00000210: 1530 743f 78a9 9c3f a3e5 8f3f a26a 003f
00000220: 244a 4dbe fea7 6f3e f011 013f 4897 a63f
00000230: 986c 4e3e 6297 463f 8cb8 09be da09 7b3f
00000240: 1ca7 303f 7884 413f 733b 963f f137 903f
00000250: 9e5c 373f e76a 5b3f 8268 913f 06bf 87be
00000260: f2f9 c9be 34b1 56be a395 323f 698a 903f
00000270: 1ab6 a93f d5e6 fe3e 449a b83e fcaa ad3f
00000280: 28cf 5b3f 1f22 173f 9a5d aa3f 7c1b 393f
00000290: e620 a43e aca7 013f c6b7 3c3f 79dc 653f
000002a0: bbdb 003f 1075 68be 02fe bc3e 8759 413f
000002b0: 9aa3 1b3f 40ea 903f c4d8 783f 2106 aa3f
000002c0: 48fa b0bd 9f3e 8d3f ebe5 a13f f00e a03f
000002d0: 6f31 8f3f b19d 433f 0acf 1d3f dfed 773f
000002e0: fc6a 3e3f fcbc a33f 375e 993f e5f5 893f
000002f0: c53c b33f 0a27 b33e 601c 9bbe e0bf 0a3f
00000300: 1d84 b43f 5256 9d3f 1726 ad3f 4988 803f
00000310: 3397 a03f 2164 7d3f 05be 823f 8114 703f
00000320: ef3c 8c3f 29d0 4a3f 0f72 283f a81e 933e
00000330: 54fc d93e b022 58be 62c9 7f3f 10db 563f
00000340: fec5 a23f f69b b43f c605 893f 35e6 9f3f
00000350: 8044 37be 2ecc 893e e366 3f3f 5092 853f
00000360: 5099 393f 418a 4c3f 6081 a2bd abec 083f
00000370: 14d1 953f 9105 9f3f 3f2c a33f c2db 7c3f
00000380: 1b46 963f 89ca 823f 9993 633f 31f3 973f
00000390: c509 183f 47dd 2f3f 368a b8be 89a8 1d3f
000003a0: 39cb 493f 28b9 dc3e 6126 8b3f 2c6e 383f
000003b0: e974 8e3f 1519 a43f e196 563f 9cf2 dabe
000003c0: a09b 923f 515c f73e 483a 453f 5c71 bd3e
000003d0: 2e83 973e 61c5 2b3f 6f26 853f 327e 9d3f
000003e0: 6403 9b3f 2e20 bc3e 0eea df3e 5e6c 683f
000003f0: f54b c03e cf64 e13e fe60 bc3f 331a 8b3f

weight f4 [256, 256]
-0.04221735 0.027950048 0.0249096 -0.055781342 0.008439148 0.00622157 -0.052480318 -0.053407528
-0.03824471 -0.030444287 -0.023382304 -0.012631379 0.040402986 0.04190225 0.03874462 0.024940852
0.019496556 -0.008566567 0.027583834 -0.033896238 0.03131595 -0.055634826 0.013285266 0.01538745
0.035083562 -0.04254446 0.02870901 -0.0075603225 -0.0007775873 -0.007825722 -0.007989289 -0.042648047
0.020715864 -0.029827323 -0.007884246 0.023774022 0.007639972 0.015638657 0.029512776 0.0066596344
0.019005721 0.0562835 -0.0123350555 0.060780518 -0.049030785 -0.05102337 0.027931852 -0.04276396
0.008225395 -0.021894017 -0.008594801 -0.020520475 -0.026326302 -0.000789091 -0.05615665 0.037115432
-0.047890868 -0.035443336 -0.04983844 0.023617756 -0.054746773 -0.019797489 -0.015301291 -0.050363593
0.0016734467 -0.017024968 0.04036363 -0.06837748 0.05411712 -0.023901638 0.055402823 0.0012096316
-0.028357701 0.01975286 0.020181717 -0.026762133 0.029982671 -0.033361085 -0.02170362 -0.05361367
0.051613264 0.04465383 0.05165251 0.03153964 0.050370675 -0.010863677 -0.05032329 -0.04282979
0.061312653 -0.034652837 -0.0032641483 0.009296129 0.012041337 0.049455453 0.0026478642 -0.03238245
-0.011492855 -0.06195772 0.023608088 -0.06672207 -0.020148845 -0.05099883 0.041585047 0.019732531
-0.031580165 0.044457983 -0.060843244 -0.058453266 0.04382027 0.020720083 -0.0410296 0.036952883
0.055316076 0.045762215 0.03948272 0.003363138 -0.05769665 0.036767717 -0.0035461485 -0.044033032
-0.0385529 -0.023379045 0.01211718 0.007759236 -0.0017352554 -0.040704444 0.029905593 0.008780104
0.00794871 -0.052412964 -0.02038847 -0.0119867185 0.05126454 0.039140694 -0.024511082 0.026632056
-0.021506816 0.0567664 0.052130684 -0.03821135 -0.03333027 0.028780684 0.05596169 0.027822059
-0.028171184 -0.025927419 -0.02963853 -0.06624024 -0.044970755 0.049573727 -0.027403256 0.04916863
-0.002760522 0.049214974 0.032991603 0.03099944 -0.043719187 -0.013418792 -0.044589374 -0.06159902
0.017077666 0.020439368 -0.05202693 -0.005976729 0.003022139 -0.023932861 0.006886288 0.05450146
-0.0010400891 -0.037544116 0.045248777 -0.054494265 0.04296622 0.0267219 0.013277559 -0.05397521
0.0584035 -0.056558568 0.02834843 0.04721447 0.011813285 0.011257809 0.01511734 0.0011000481
0.0019013865 0.05044543 0.0060412893 0.029358597 -0.05241982 -0.017975457 -0.048461996 0.054376263
5.410441e-05 -0.045503743 -0.005668019 0.038109556 -0.03479216 -0.024555821 -0.048776615 -0.038807243
0.047996238 0.022198858 0.008897691 0.028419137 -0.06533862 0.0126828775 -0.0008820957 0.02093466
0.049858034 -0.019857695 0.022649962 -0.0200587 0.010437198 0.04643836 -0.02917653 8.636157e-05
0.050244737 -0.02808347 0.0022481382 0.033114284 -0.03245707 -0.026648749 -0.0383676 0.05516188
-0.017864434 -0.025388058 -0.05756961 -0.036839712 0.005428155 0.038920052 -0.042838246 -0.0061173043
-0.04558244 0.042453423 0.051935323 0.014108709 -0.019155635 0.04260289 0.032713145 0.058638513
0.01593827 -0.010458351 -0.009522532 -0.0064466596 -0.056344256 -0.018777717 -0.05048046 0.041924994
-0.0526592 -0.044714756 0.0010607233 0.005753616 0.051635478 0.037548043 0.024931362 0.009453452
00000000: 1aec 2cbd 80f7 e43c 380f cc3c fa7a 64bd
00000010: 5a44 0a3c 50de cb3b 9af5 56bd dac1 5abd
00000020: 7ca6 1cbd 4c66 f9bc 3f8c bfbc d8f3 4ebc
00000030: 9a7d 253d b2a1 2b3d aeb2 1e3d c250 cc3c
00000040: 3eb7 9f3c c95a 0cbc 7ef7 e13c c8d6 0abd
00000050: 2745 003d 58e1 63bd 72aa 593c a51b 7c3c
00000060: c8b3 0f3d 1a43 2ebd 282f eb3c 95bc f7bb
00000070: 00d7 4bba 7537 00bc 82e5 02bc b8af 2ebd
00000080: 51b4 a93c 6e58 f4bc ed2c 01bc bdc1 c23c
00000090: bb58 fa3b a41c 803c c7c4 f13c 1039 da3b
000000a0: e3b1 9b3c 8789 663d f918 4abc fef4 783d
000000b0: 81d4 48bd e2fd 50bd 57d1 e43c 4329 2fbd
000000c0: cfc3 063c 155b b3bc 35d1 0cbc 8e1a a8bc
000000d0: 42aa d7bc 00db 4eba 8404 66bd 5a06 183d
000000e0: 3729 44bd 082d 11bd 6423 4cbd 067a c13c
000000f0: 273e 60bd 582e a2bc 44b2 7abc 0e4a 4ebd
00000100: 8e57 db3a f277 8bbc 5554 253d 7e09 8cbd
00000110: eaa9 5d3d 5ecd c3bc 12ee 623d 808c 9e3a
00000120: 694e e8bc c0d0 a13c 2154 a53c 433c dbbc
00000130: 389e f53c a2a5 08bd cacb b1bc 029a 5bbd
00000140: 6e68 533d efe6 363d 9591 533d b62f 013d
00000150: 7b51 4e3d 90fd 31bc cb1f 4ebd 4a6e 2fbd
00000160: fa22 7b3d 22f0 0dbd 52eb 55bb cb4e 183c
00000170: 0749 453c cd91 4a3d ca87 2d3b 76a3 04bd
00000180: 874c 3cbc 61c7 7dbd c065 c13c 95a5 88bd
00000190: 310f a5bc 26e4 50bd 1555 2a3d 1ea6 a13c
000001a0: 345a 01bd 9319 363d c436 79bd b16c 6fbd
000001b0: e27c 333d 2abd a93c a70e 28bd e85b 173d
000001c0: 1c93 623d 2971 3b3d a2b8 213d 1868 5c3b
000001d0: 5353 6cbd bf99 163d 8066 68bb fb5b 34bd
000001e0: a5e9 1dbd 6985 bfbc 2387 463c 3041 fe3b
000001f0: 8271 e3ba b4b9 26bd 93fc f43c 6dda 0f3c
00000200: 4e3b 023c faae 56bd b805 a7bc f163 44bc
00000210: c4fa 513d fe51 203d 77cb c8bc 782b da3c
00000220: 102f b0bc e283 683d fc86 553d 8183 1cbd
00000230: 5285 08bd 78c5 eb3c 1638 653d 16eb e33c
00000240: 41c7 e6bc bd65 d4bc 81cc f2bc f7a8 87bd
00000250: 4133 38bd d20d 4b3d cb7c e0bc 0c65 493d
00000260: e0e9 34bb a495 493d 3422 073d 8af2 fd3c
00000270: e412 33bd 7eda 5bbc 59a3 36bd 414f 7cbd
00000280: 76e6 8b3c 7670 a73c 311a 55bd 70d8 c3bb
00000290: 140f 463b d90e c4bc 5fa6 e13b ec3c 5f3d
000002a0: 9953 88ba dcc7 19bd c856 393d 6135 5fbd
000002b0: 59fd 2f3d e3e7 da3c 1e8a 593c 1c15 5dbd
000002c0: 8238 6f3d f5a9 67bd f73a e83c f663 413d
000002d0: 828c 413c ac72 383c b8ae 773c 7d2f 903a
000002e0: f237 f93a de9f 4e3d 02f6 c53b 7181 f03c
000002f0: 2ab6 56bd 4441 93bc 1680 46bd a5b9 5e3d
00000300: 2bee 6238 2262 3abd caba b9bb c418 1c3d
00000310: 3982 0ebd 4a29 c9bc fdc9 47bd 58f4 1ebd
00000320: b497 443d 61da b53c 9fc7 113c 40cf e83c
00000330: 41d0 85bd d8cb 4f3c 713c 67ba 2a7f ab3c
00000340: f037 4c3d 9bac a2bc 6a8c b93c 2552 a4bc
00000350: c800 2b3c 2636 3e3d 9e03 efbc 041d b538
00000360: 6dcd 4d3d 4e0f e6bc 8055 133b d8a2 073d
00000370: b4f1 04bd 7a4e dabc 5827 1dbd 6cf1 613d
00000380: 6f58 92bc 9efa cfbc 1dce 6bbd 3de5 16bd
00000390: aade b13b a26a 1f3d 2877 2fbd ab73 c8bb
000003a0: a7b4 3abd a4e3 2d3d 22ba 543d 3728 673c
000003b0: 47ec 9cbc 5e80 2e3d 38fe 053d f02e 703d
000003c0: fa90 823c 8159 2bbc 6504 1cbc 803e d3bb
000003d0: 3cc9 66bd bad3 99bc 99c4 4ebd 8bb9 2b3d
000003e0: 2cb1 57bd d226 37bd f807 8b3a d488 bc3b
000003f0: b97f 533d facb 193d db3c cc3c a7e2 1a3c

bias f4 [256]
0.048217766 -0.057452895 0.03618314 0.63984585 0.02659282 0.5699526 -0.050784525 0.04916295
0.65596265 -0.035773687 0.5927491 -0.047894474 0.6007927 0.5617261 -0.058004595 0.52514905
0.5209666 0.00985723 0.017776012 0.701386 -0.00960112 -0.0137372315 -0.036095865 0.58701986
-0.04644883 0.026925564 0.62195414 0.032561112 -0.0623012 0.68382114 0.6024737 0.05101351
0.6032752 0.70533705 -0.020745149 -0.05124832 -0.04727968 -0.002638004 -0.036617532 0.5619399
-0.013867974 -0.05494777 0.6118579 -0.05717008 -0.051671498 -0.0028887999 0.62009656 0.5968475
-0.056247346 0.016624942 -0.02602154 0.62541044 -0.032259304 0.5715119 -0.035686273 0.5882364
-0.029061766 0.04754278 0.61235243 -0.056794133 -0.037023574 0.5397289 -0.026916284 0.04754885
0.047588855 -0.04493167 0.032066897 0.0001973813 0.50280654 0.7276069 0.036759615 0.555345
0.66992974 0.6156401 0.5387845 0.60099196 0.044355232 0.006745793 0.70291656 0.02585952
-0.019013526 0.049471214 0.5956911 0.5592083 0.5756032 0.0048919516 0.06100718 0.045184795
0.02461364 0.61355954 0.03376834 -0.035406783 0.6693184 0.5594598 0.05508431 -0.019011004
-0.01608338 0.015600242 0.051715307 -0.043546103 -0.027953217 0.61354744 0.5346078 0.5371336
0.57633096 0.6167525 0.56375474 0.6805919 -0.0085731745 -0.022387918 -0.0345947 0.63874835
0.6389205 0.047666624 0.6054873 0.009222975 -0.05004791 0.6429636 0.600597 -0.06055113
0.03414437 -0.0032771633 -0.0029834765 0.049196508 0.5388009 0.6478723 -0.00097456574 0.5473748
0.63940614 -0.039018594 0.6296274 -0.031353764 -0.03473328 0.011205681 -0.021920789 -0.017657788
0.01908885 0.01938761 0.67490077 0.5002294 0.52394253 0.5849396 -0.006713414 0.6486248
0.05632374 0.56105524 0.72555053 -0.039887488 0.05741723 0.5451069 -0.006708006 0.58709705
-0.039041165 0.017759735 0.003188647 -0.02171164 -0.029828016 0.026550762 0.5260281 -0.041529574
0.6245868 0.5979046 0.5601892 0.5191309 0.05771971 0.5850388 0.039646342 -0.039578814
0.0051507284 0.6344436 0.608704 0.559813 -0.010963377 -0.028024629 0.0057725348 -0.030206488
-0.037507813 0.5693927 0.58668 -0.004908651 -0.013096049 -0.05513825 -0.028132403 0.024176918
-0.05952635 0.5721364 -0.057388533 0.0048770607 -0.037158683 -0.0063964366 0.5902524 0.64636856
-0.04516315 -0.068440735 0.015527342 0.58995974 0.022813268 -0.05329565 0.64717776 -0.043661226
0.0027987822 -0.031085668 -0.041351594 0.61605287 -0.01048399 0.6228341 0.64350235 0.5293037
-0.057047095 0.64074063 -0.008843013 0.008874466 0.62621194 -0.03980752 0.58855766 0.67618364
0.5375969 0.04084138 0.05300571 0.027974613 0.68208516 0.6190853 -0.063486665 0.5550737
0.61728513 -0.009422345 0.639847 0.060389824 0.65126514 0.046187706 -0.041845128 0.6965885
0.5435001 0.6292429 -0.046195067 0.6607157 0.56727463 0.6563087 0.05487115 0.5539417
0.6237171 0.557865 0.058012165 0.05547673 -0.06206358 -0.041120473 0.042699672 0.006975033
0.05579113 0.6090493 -0.022290155 0.57714397 0.6328457 0.06175758 0.62149495 0.04125854
00000000: fe7f 453d ba53 6bbd c634 143d f0cc 233f
00000010: 30d9 d93c 6ae8 113f 6f03 50bd 175f 493d
00000020: 2bed 273f 6e87 12bd 68be 173f ff2c 44bd
00000030: 8dcd 193f 48cd 0f3f 3a96 6dbd 2b70 063f
00000040: 115e 053f 3880 213c 009f 913c 088e 333f
00000050: 044e 1dbc 2012 61bc 42d9 13bd ef46 163f
00000060: 2141 3ebd 0093 dc3c 6338 1f3f cd5e 053d
00000070: 8b2f 7fbd e70e 2f3f b73b 1a3f 8bf3 503d
00000080: 3e70 1a3f f890 343f bbf1 a9bc c2e9 51bd
00000090: 56a8 41bd 5de2 2cbb 44fc 15bd 4bdb 0f3f
000000a0: 8036 63bc ea10 61bd b8a2 1c3f 2c2b 6abd
000000b0: 7ea5 53bd 0552 3dbb a6be 1e3f ffca 183f
000000c0: 9e63 66bd 0831 883c 202b d5bc e61a 203f
000000d0: 5522 04bd 9b4e 123f c52b 12bd a996 163f
000000e0: f112 eebc 38bc 423d 21c3 1c3f f7a0 68bd
000000f0: 08a6 17bd ac2b 0a3f 8a7f dcbc 95c2 423d
00000100: 88ec 423d 450a 38bd 9458 033d 24f8 4e39
00000110: eeb7 003f 7244 3a3f 4091 163d 172b 0e3f
00000120: 8480 2b3f 979a 1d3f c8ed 093f 9cda 193f
00000130: d5ad 353d d00b dd3b 57f2 333f 58d7 d33c
00000140: 41c2 9bbc 54a2 4a3d 367f 183f 4628 0f3f
00000150: bb5a 133f aa4c a03b aae2 793d b113 393d
00000160: 8ba2 c93c 3d12 1d3f ac50 0a3d b406 11bd
00000170: 7358 2b3f c238 0f3f 16a0 613d f7bc 9bbc
00000180: 4bc1 83bc 2898 7f3c 6ed3 533d 665d 32bd
00000190: 25fe e4bc 7211 1d3f 0fdc 083f 9681 093f
000001a0: 6d8a 133f 7ee3 1d3f 3b52 103f 453b 2e3f
000001b0: 8076 0cbc de66 b7bc 2cb3 0dbd 0385 233f
000001c0: 4b90 233f 143e 433d 3701 1b3f f61b 173c
000001d0: 0aff 4cbd 4399 243f bac0 193f 7604 78bd
000001e0: f8da 0b3d adc5 56bb 6e86 43bb 4782 493d
000001f0: dbee 093f f6da 253f 007a 7fba c120 0c3f
00000200: 1fb0 233f f6d1 1fbd 432f 213f ce6c 00bd
00000210: 7c44 0ebd 0898 373c 3a93 b3bc 11a7 90bc
00000220: 3860 9c3c c4d2 9e3c 4cc6 2c3f 090f 003f
00000230: 1921 063f 9abe 153f 33fc dbbb 460c 263f
00000240: b9b3 663d 51a1 0f3f aebd 393f 1061 23bd
00000250: 542e 6b3d 208c 0b3f d5ce dbbb fe4b 163f
00000260: a1e9 1fbd dd7c 913c 9ff8 503b 9cdc b1bc
00000270: e259 f4bc fc80 d93c c7a9 063f ea1a 2abd
00000280: ece4 1f3f 4710 193f 8f68 0f3f c3e5 043f
00000290: 816b 6c3d 1ac5 153f 3464 223d 651d 22bd
000002a0: 71c7 a83b e56a 223f 06d4 1b3f e84f 0f3f
000002b0: bc9f 33bc e893 e5bc 8827 bd3b 9973 f7bc
000002c0: cba1 19bd b8c3 113f a930 163f c0d8 a0bb
000002d0: d090 56bc a5d8 61bd ed75 e6bc ac0e c63c
000002e0: e7d1 73bd 8877 123f 3d10 6bbd c0cf 9f3b
000002f0: b433 18bd 3399 d1bb c81a 173f 6978 253f
00000300: fffc 38bd a82a 8cbd 6566 7e3c 9a07 173f
00000310: e4e2 ba3c 8a4c 5abd 71ad 253f 1dd6 32bd
00000320: c66b 373b 5fa7 febc 4a60 29bd a4b5 1d3f
00000330: 0bc5 2bbc 0e72 1f3f 92bc 243f 7380 073f
00000340: 37aa 69bd 9407 243f 49e2 10bc 3566 113c
00000350: 6d4f 203f 360d 23bd b7ab 163f 5f1a 2d3f
00000360: f39f 093f 4a49 273d 841c 593d 042b e53c
00000370: 229d 2e3f 607c 1e3f 4c05 82bd 4f19 0e3f
00000380: 6606 1e3f 2e60 1abc 03cd 233f 525b 773d
00000390: 50b9 263f 522f 3d3d cc65 2bbd a053 323f
000003a0: d322 0b3f 1016 213f 0a37 3dbd aa24 293f
000003b0: e938 113f d903 283f 92c0 603d 20cf 0d3f
000003c0: edab 1f3f 3ed0 0e3f 2a9e 6d3d 913b 633d
000003d0: 6136 7ebd f16d 28bd dae5 2e3d d18e e43b
000003e0: 3d85 643d a8ea 1b3f d899 b6bc b5bf 133f
000003f0: 2d02 223f 84f5 7c3d 4b1a 1f3f b7fe 283d

weight_mu f4 [1, 256]
0.033040717 0.04843141 0.04351079 -0.68010974 -0.061894834 -0.73994464 0.041469887 0.017184926
-0.69297034 0.016709587 -0.7357956 0.013924996 -0.69486135 -0.7096459 0.04205978 -0.72030896
-0.7133783 -0.054727145 0.025629975 -0.69546205 -0.041917328 0.0038165674 0.03830362 -0.7167383
0.051676497 -0.010234025 -0.7043398 0.04790881 0.016062098 -0.69364244 -0.7147617 0.016608061
-0.7147092 -0.6847357 0.0540914 -0.008146204 0.04107978 0.055347625 0.025345944 -0.6732739
-0.021366306 -0.04507552 -0.69657815 -0.039004765 -0.003984928 0.037627403 -0.65363073 -0.71033263
-0.057320543 0.015073404 0.031313032 -0.6884215 0.022262026 -0.7338815 0.03845742 -0.69395286
0.039366215 -0.061220028 -0.6982775 0.0158741 -0.036877 -0.68025255 -0.01100192 0.05355313
0.045849897 0.030770304 0.0036564097 0.04312242 -0.7387962 -0.68729913 -0.021130662 -0.68870854
-0.73288405 -0.69418454 -0.69773996 -0.70254236 0.037808817 0.050871953 -0.70136464 -0.031011216
-0.008137807 0.03693859 -0.70243615 -0.71677303 -0.71549225 0.02649332 0.0035819113 0.055967007
0.03483509 -0.72226137 -0.04811108 0.041581966 -0.7059331 -0.6951855 0.03883274 0.0064472007
0.04196231 0.0106885955 -0.000856784 -0.019557692 -0.029196037 -0.68198943 -0.7020864 -0.7383692
-0.6994343 -0.711225 -0.6983664 -0.68300265 0.05918576 0.06176415 -0.006196484 -0.709362
-0.71701765 0.047552496 -0.7179681 0.03983009 0.052942436 -0.6917583 -0.68709415 0.038453817
-0.008814514 0.04919258 0.04578556 0.04949121 -0.57729155 -0.70030546 0.03801368 -0.7068419
-0.7063792 -0.03910979 -0.70561254 0.020167824 0.057986345 0.03282801 0.045131784 0.03915555
0.050410867 0.0002495662 -0.70869106 -0.730922 -0.7196653 -0.7062677 0.044770915 -0.68913484
0.023799943 -0.698303 -0.6847013 0.05344346 -0.043253824 -0.6832149 0.05543916 -0.69838625
0.04803794 0.037936978 0.054875236 0.035804294 0.05032503 0.05763837 -0.72342175 0.014289252
-0.70497274 -0.68838805 -0.6830538 -0.74110585 0.033610158 -0.69818413 -0.040774472 0.050502725
0.018613268 -0.7297814 -0.72416615 -0.6814375 0.035058666 0.06149461 0.053784043 0.028515162
0.041780483 -0.6888082 -0.67780113 0.052721493 -0.02206169 0.04327006 0.057326656 0.060184546
0.045231767 -0.7032788 -0.0059589082 0.028219342 0.030755632 0.05868977 -0.67836046 -0.6905347
0.040482204 0.041049853 0.039112207 -0.71700954 0.009239443 -0.03013239 -0.6842645 0.015973084
0.0021072163 0.05724905 -0.043506697 -0.69116026 0.038994707 -0.71081567 -0.69699395 -0.71529275
0.004870454 -0.71696293 0.021319918 0.04437856 -0.68040943 0.048190467 -0.71976346 -0.6870591
-0.7141577 -0.03349822 0.034671925 0.018218026 -0.6759666 -0.6793626 0.0016055909 -0.70366937
-0.71194845 0.039790366 -0.704211 0.05395536 -0.6940199 0.027893849 0.018943459 -0.7393096
-0.67585737 -0.7204904 0.037725314 -0.67789227 -0.72801185 -0.70014316 0.018911138 -0.7354737
-0.7353309 -0.69028634 0.021022879 0.04628858 0.016111309 0.0370363 0.051587787 0.04091571
0.037342757 -0.71458036 0.054293986 -0.68847775 -0.6930836 0.059165604 -0.7222964 0.05699956
00000000: b455 073d 0460 463d 5f38 323d ac1b 2ebf
00000010: 7085 7dbd 036d 3dbf 54dc 293d 67c7 8c3c
00000020: 8166 31bf 8be2 883c 1a5d 3cbf ab25 643c
00000030: 6fe2 31bf 5bab 35bf e046 2c3d 2b66 38bf
00000040: f69f 36bf 9229 60bd f4f5 d13c cd09 32bf
00000050: 81b1 2bbd 601f 7a3b 42e4 1c3d 297c 37bf
00000060: bcaa 533d 9dac 27bc 9d4f 34bf 073c 443d
00000070: a994 833c 8d92 31bf 9ffa 36bf a10d 883c
00000080: 2ff7 36bf d74a 2fbf f28e 5d3d a877 05bc
00000090: 4543 283d 31b4 623d 4ca2 cf3c ae5b 2cbf
000000a0: 6408 afbc 1ca1 38bd f252 32bf 76c3 1fbd
000000b0: 0094 82bb 311f 1a3d 5854 27bf 5cd8 35bf
000000c0: f2c8 6abd 70f6 763c 1842 003d 643c 30bf
000000d0: da5e b63c a8df 3bbf 8785 1d3d e5a6 31bf
000000e0: 783e 213d dac1 7abd 50c2 32bf 670a 823c
000000f0: 560c 17bd 0825 2ebf 6641 34bc 875a 5b3d
00000100: 1acd 3b3d 0112 fc3c 60a0 6f3b 22a1 303d
00000110: bf21 3dbf d6f2 2fbf 361a adbc 344f 30bf
00000120: 4a9e 3bbf 14b6 31bf 169f 32bf d1d9 33bf
00000130: 6bdd 1a3d 1c5f 503d a28c 33bf 3c0b febc
00000140: 7054 05bc eb4c 173d dbd2 33bf 707e 37bf
00000150: 802a 37bf 8508 d93c 80be 6a3b a93d 653d
00000160: 3daf 0e3d 1fe6 38bf 2010 45bd da51 2a3d
00000170: 08b8 34bf adf7 31bf 140f 1f3d 0a43 d33b
00000180: ace0 2b3d 381f 2f3c cd99 60ba 7437 a0bc
00000190: 872c efbc dc96 2ebf efbb 33bf c405 3dbf
000001a0: 200e 33bf d712 36bf 24c8 32bf 43d9 2ebf
000001b0: c46c 723d 68fc 7c3d e00b cbbb bf98 35bf
000001c0: 788e 37bf 68c6 423d c2cc 37bf e024 233d
000001d0: 2bda 583d 1217 31bf 67e5 2fbf c081 1d3d
000001e0: c06a 10bc 297e 493d a489 3b3d 4cb7 4a3d
000001f0: 61c9 13bf 3847 33bf 3cb4 1b3d 97f3 34bf
00000200: 44d5 34bf 9631 20bd 06a3 34bf fe36 a53c
00000210: 1783 6d3d aa76 063d 1bdc 383d 9261 203d
00000220: a07b 4e3d 35d8 8239 c76c 35bf b41d 3bbf
00000230: fc3b 38bf f6cd 34bf b561 373d 246b 30bf
00000240: 19f8 c23c fcc3 32bf 9648 2fbf 88e7 5a3d
00000250: ec2a 31bd 2ce7 2ebf 2c14 633d 71c9 32bf
00000260: 6ec3 443d ce63 1b3d dbc4 603d 86a7 123d
00000270: 9e21 4e3d 3616 6c3d 2b32 39bf 781d 6a3c
00000280: 1879 34bf 333a 30bf 9ddc 2ebf 1db9 3dbf
00000290: ceaa 093d 32bc 32bf 2203 27bd f2db 4e3d
000002a0: da7a 983c f4d2 3abf f462 39bf b072 2ebf
000002b0: ad99 0f3d c6e1 7b3d a84c 5c3d a198 e93c
000002c0: 0322 2b3d bc55 30bf 6084 2dbf 7ef2 573d
000002d0: b8ba b4bc f23b 313d 5bcf 6a3d 1284 763d
000002e0: f244 393d 140a 34bf f242 c3bb 402c e73c
000002f0: 3cf3 fb3c af64 703d 08a9 2dbf e2c6 30bf
00000300: abd0 253d e423 283d 1f34 203d f08d 37bf
00000310: 0861 173c 34d8 f6bc f52b 2fbf fcd9 823c
00000320: 3919 0a3b fb7d 6a3d 1434 32bd e1ef 30bf
00000330: eab8 1f3d 04f8 35bf 326e 32bf 6d1d 37bf
00000340: 5498 9f3b e28a 37bf 1ca7 ae3c 4bc6 353d
00000350: 502f 2ebf 5e63 453d 6b42 38bf 1be3 2fbf
00000360: 0ad3 36bf 6e35 09bd 2604 0e3d f83d 953c
00000370: 260c 2dbf b5ea 2dbf b172 d23a ad23 34bf
00000380: 4142 36bf 39fb 223d 2c47 34bf 4c00 5d3d
00000390: 4aab 31bf a481 e43c 502f 9b3c 6543 3dbf
000003a0: fd04 2dbf 0f72 38bf dc85 1a3d 598a 2dbf
000003b0: fc5e 3abf 953c 33bf 88eb 9a3c 0148 3cbf
000003c0: a53e 3cbf 9bb6 30bf 2c38 ac3c 1899 3d3d
000003d0: ddfb 833c 60b3 173d b74d 533d 3b97 273d
000003e0: b8f4 183d bdee 36bf 5f63 5e3d 1440 30bf
000003f0: ed6d 31bf a257 723d 6be8 38bf 5f78 693d

weight_sigma f4 [1, 256]
0.031089809 0.03125 0.031424586 0.024840418 0.03125 0.018511865 0.030782681 0.031151347
0.019034907 0.031063244 0.016378669 0.032229755 0.0365978 0.027029054 0.03125 0.026604837
0.020999921 0.03125 0.03125 0.01541086 0.0312321 0.03125 0.03125 0.009532867
0.030550487 0.030444728 0.015167879 0.031360064 0.03148822 0.018229857 0.01398166 0.030694515
0.025603788 0.009441963 0.0308899 0.03125 0.03092053 0.032042943 0.032023612 0.01443625
0.03125 0.03125 0.021280361 0.03125 0.03125 0.031209476 0.017838323 0.009899114
0.03125 0.03125 0.03125 0.022051947 0.03173339 0.027582545 0.032157697 0.01961527
0.030909372 0.03125 0.029063322 0.031585358 0.03125 0.0120220035 0.029892461 0.030649593
0.030694453 0.03048322 0.03125 0.032104917 0.02024669 0.015970338 0.030775929 0.020553073
0.01760487 0.019328041 0.022576015 0.026789013 0.030501341 0.03125 0.017292649 0.03125
0.030967794 0.029557107 0.018713618 0.023255026 0.016320566 0.0308987 0.03125 0.032060582
0.03074447 0.02133862 0.03125 0.03125 0.024801573 0.013467403 0.03125 0.031931896
0.028836088 0.03125 0.03141156 0.03125 0.030956471 0.017262796 0.013685876 0.019164043
0.015956918 0.016254585 0.017556828 0.02226866 0.031078132 0.031814966 0.03125 0.023375813
0.020492377 0.031167233 0.021990478 0.02995399 0.029856572 0.027645206 0.019359777 0.032294277
0.03125 0.03212449 0.03184224 0.03133269 0.021819808 0.023152933 0.03125 0.011281371
0.010300122 0.03125 0.018161895 0.030785922 0.030681517 0.03125 0.030440765 0.03205485
0.03125 0.030780936 0.02733734 0.018313736 0.030568315 0.008588548 0.03161561 0.011119367
0.031865522 0.019351264 0.021014495 0.030443657 0.03125 0.024115205 0.031516045 0.022103278
0.030440602 0.031389408 0.031623878 0.03125 0.031233253 0.03125 0.029505413 0.03125
0.022389567 0.016168762 0.020099152 0.02865256 0.030427901 0.020312428 0.03125 0.030037977
0.02888011 0.02397452 0.01644805 0.017715085 0.030248161 0.03125 0.031223519 0.03099312
0.032045703 0.0220351 0.02462363 0.03125 0.03125 0.03218796 0.03209793 0.030644232
0.031389516 0.022438021 0.031953678 0.03125 0.03125 0.029489083 0.013016886 0.022397626
0.030620247 0.030377608 0.03103688 0.014191002 0.03125 0.03125 0.024832135 0.03152484
0.031994615 0.030878358 0.03125 0.027027523 0.031352382 0.019655133 0.01829398 0.015061327
0.031147694 0.027148891 0.03057269 0.030882204 0.01545282 0.031080347 0.031690877 0.01625471
0.019987652 0.03125 0.032156676 0.03125 0.022543872 0.026356693 0.030546026 0.018352468
0.026229473 0.031332724 0.0214966 0.03125 0.018769274 0.03125 0.03125 0.024789145
0.014161181 0.026318295 0.03125 0.015438988 0.020807596 0.019315746 0.03125 0.019182416
0.01756475 0.014036281 0.03125 0.031145928 0.032259826 0.031120038 0.031200906 0.031437308
0.032288007 0.014456335 0.031498116 0.02099266 0.029394088 0.03125 0.01801087 0.031416606
00000000: 0eb0 fe3c 0000 003d 11b7 003d 227e cb3c
00000010: 0000 003d 32a6 973c f62b fc3c 1c31 ff3c
00000020: 18ef 9b3c 5878 fe3c 8f2c 863c 5903 043d
00000030: 93e7 153d 096c dd3c 0000 003d 63f2 d93c
00000040: 0708 ac3c 0000 003d 0000 003d d57d 7c3c
00000050: 76da ff3c 0000 003d 0000 003d be2f 1c3c
00000060: 0445 fa3c 3967 f93c b282 783c 6973 003d
00000070: cbf9 003d c856 953c 5513 653c 1073 fb3c
00000080: 09bf d13c 77b2 1a3c d10c fd3c 0000 003d
00000090: 0d4d fd3c 763f 033d 312b 033d 0586 6c3c
000000a0: 0000 003d 0000 003d 2754 ae3c 0000 003d
000000b0: 0000 003d 04ab ff3c ad21 923c e52f 223c
000000c0: 0000 003d 0000 003d 0000 003d 49a6 b43c
000000d0: dffa 013d caf4 e13c cab7 033d 34b0 a03c
000000e0: a735 fd3c 0000 003d 3416 ee3c a65f 013d
000000f0: 0000 003d f0f7 443c 09e1 f43c db14 fb3c
00000100: ef72 fb3c f2b7 f93c 0000 003d 7280 033d
00000110: 63dc a53c 3ad4 823c cd1d fc3c eb5e a83c
00000120: 1738 903c d755 9e3c 56f1 b83c a274 db3c
00000130: f3dd f93c 0000 003d 50a9 8d3c 0000 003d
00000140: 2cb0 fd3c bf21 f23c 4d4d 993c 5381 be3c
00000150: b5b2 853c 451f fd3c 0000 003d f551 033d
00000160: d4db fb3c 54ce ae3c 0000 003d 0000 003d
00000170: ab2c cb3c 62a6 5c3c 0000 003d 05cb 023d
00000180: a939 ec3c 0000 003d 68a9 003d 0000 003d
00000190: 6d98 fd3c b56a 8d3c b93a 603c e9fd 9c3c
000001a0: 15b8 823c 5628 853c 56d3 8f3c c46c b63c
000001b0: 9197 fe3c 6950 023d 0000 003d a27e bf3c
000001c0: a1df a73c 6d52 ff3c 6025 b43c 1262 f53c
000001d0: c595 f43c 3378 e23c 6598 9e3c 0147 043d
000001e0: 0000 003d f894 033d 026d 023d b556 003d
000001f0: 74bf b23c 38ab bd3c 0000 003d 80d5 383c
00000200: d8c1 283c 0000 003d 41c8 943c c232 fc3c
00000210: ce57 fb3c 0000 003d e95e f93c f24b 033d
00000220: 0000 003d 4d28 fc3c 8ff2 df3c b006 963c
00000230: 676a fa3c fbb6 0c3c 5f7f 013d 012e 363c
00000240: 6c85 023d 8b86 9e3c 9726 ac3c fa64 f93c
00000250: 0000 003d 408d c53c f816 013d ef11 b53c
00000260: 925e f93c 2e92 003d 0a88 013d 0000 003d
00000270: e1dc ff3c 0000 003d 56b5 f13c 0000 003d
00000280: 536a b73c 5a74 843c faa6 a43c c6b8 ea3c
00000290: ef43 f93c 4066 a63c 0000 003d 3412 f63c
000002a0: fb95 ec3c 3666 c43c 10be 863c 3a1f 913c
000002b0: feca f73c 0000 003d 77c8 ff3c 49e5 fd3c
000002c0: 5b42 033d f482 b43c 7fb7 c93c 0000 003d
000002d0: 0000 003d 86d7 033d 1e79 033d 9d09 fb3c
000002e0: 4b92 003d f1cf b73c dce1 023d 0000 003d
000002f0: 0000 003d 1793 f13c c744 553c 3a7b b73c
00000300: 50d7 fa3c 76da f83c 0e41 fe3c 6081 683c
00000310: 0000 003d 0000 003d c36c cb3c 3120 013d
00000320: c90c 033d 9cf4 fc3c 0000 003d d368 dd3c
00000330: 5b6b 003d cd03 a13c 42dd 953c c9c3 763c
00000340: 7329 ff3c 5a67 de3c 9473 fa3c adfc fc3c
00000350: d32d 7d3c 369c fe3c 4bce 013d 9928 853c
00000360: 25bd a33c 0000 003d b8b6 033d 0000 003d
00000370: edad b83c fee9 d73c a93b fa3c ea57 963c
00000380: 31df d63c be56 003d a319 b03c 0000 003d
00000390: 05c2 993c 0000 003d 0000 003d 9b12 cb3c
000003a0: 4c04 683c 7799 d73c 0000 003d cff3 7c3c
000003b0: b174 aa3c 0e3c 9e3c 0000 003d 7124 9d3c
000003c0: f3e3 8f3c 6ef8 653c 0000 003d bf25 ff3c
000003d0: e122 043d 73ef fe3c 0b99 ff3c 68c4 003d
000003e0: 6e40 043d 44da 6c3c 2b04 013d cdf8 ab3c
000003f0: dfcb f03c 0000 003d 888b 933c b3ae 003d

weight_epsilon f4 [1, 256]
0.82884955 0.83861667 -1.1889454 0.22758192 -1.0291692 -0.67015636 -0.5536001 -0.37219512
0.6829344 0.20219916 -0.72522146 1.0236632 -0.9266886 0.7132051 -0.52506065 -0.42429283
0.5966712 0.75299585 0.7327334 -0.85771215 0.2796242 0.7252577 1.0606025 -0.24845956
0.53993595 -0.7877792 0.7202657 0.60334855 0.53731275 -1.2464063 1.2787613 0.8982799
-0.84756386 -1.0541302 -0.47440857 0.91200554 0.3941619 0.37287328 -0.5227964 -1.2119893
0.4517575 -0.9073155 0.3366724 -0.9977009 -0.38433945 0.39132136 1.082252 -0.9377758
0.20922565 0.89129806 -1.0599853 0.793971 0.32580265 0.83897156 1.2394165 0.54707205
0.8067521 -0.8328103 -0.71921176 -1.1463331 -0.36040407 0.8419074 -0.025978066 0.95059174
1.1739966 1.0391685 -0.6426406 0.60123867 0.82650256 -0.49059626 -0.7425044 -0.41246817
0.74840814 0.38869724 0.8848362 -0.51775336 -0.6698272 0.42506847 0.45808703 -0.4116728
-0.7713331 0.14758329 -0.6439034 1.0481992 0.63359565 -0.8028942 0.28336966 0.85199934
0.1932301 1.0054042 -0.7014411 0.72340965 -0.5325653 0.7099852 -0.858863 -0.49020544
-0.71459657 0.58162224 0.6232636 -0.7328651 -1.0610074 0.661433 0.63606167 -0.43381193
-0.76070905 -1.0972083 -1.0433682 -0.81126326 -0.82473326 1.1199847 -0.71446425 -0.82512593
0.57926244 0.8524253 -0.648751 0.8981249 -1.0711353 0.92002195 -0.45276237 -0.73486835
0.7956323 -0.6776665 -1.0966179 -1.1053443 0.43045518 -1.1202301 -0.56211627 0.9727415
-0.42996442 0.84928226 0.2056337 0.353293 1.4272817 -1.3708794 -0.79305387 0.8467252
0.57450587 -0.32551917 0.61911047 -0.63318866 0.7160618 -0.78181237 1.1667098 0.670293
0.85848814 -0.6055763 1.071387 -0.5848232 -1.1568145 -0.7802815 -0.68954945 1.2269366
-0.63908833 0.4513078 -0.84561557 0.61625165 -0.5581815 0.78763914 0.56370616 0.800907
-0.7856511 -0.85847694 -0.55530787 0.6849842 1.1092744 -0.57543534 0.47066942 0.5142687
1.2230722 0.9769927 -0.11920003 -0.080243185 -0.46382532 0.5644848 -0.4343148 0.3974681
-0.3616529 -0.8194788 -0.58471006 1.1654918 -1.1948229 -1.268855 -0.15250193 0.730968
0.8704077 0.9146984 1.0535736 -0.86409473 -0.5553919 -0.9298787 0.12756096 0.23961432
0.62796974 1.2792938 0.7208364 -0.21007907 0.2529262 1.1494256 -0.483868 1.4693931
-1.0475745 -0.50795174 0.97845626 -0.64426357 -0.2497864 0.939359 -0.48357415 0.6121289
0.6438513 -0.38165593 -0.7738758 0.5509658 0.831399 -0.605948 -0.61136276 -1.0743548
-1.1446317 -0.3031525 0.47054955 -1.079861 0.4619834 -0.8017266 0.43756393 -1.3652538
1.0578308 0.8004967 -1.1125985 -0.6255106 -0.63336533 1.0598906 0.30809483 1.0634084
-0.243737 -0.57571065 -1.0028038 0.8591643 -0.99726456 0.019469984 1.060184 0.43325514
-1.2786964 -0.39797404 0.9873438 -1.2497793 -0.42583463 -0.23485343 -0.37653512 -0.9386899
0.9709478 -0.49017668 -0.7942837 1.4904383 -0.878735 0.62358975 0.87183017 -0.42792997
00000000: 7c2f 543f 95af 563f 5d2f 98bf 3c0b 693e
00000010: d1bb 83bf 5e8f 2bbf bcb8 0dbf 5c90 bebe
00000020: cad4 2e3f 4c0d 4f3e 1da8 39bf 6507 833f
00000030: 773b 6dbf 9c94 363f 606a 06bf e93c d9be
00000040: 72bf 183f 56c4 403f 6b94 3b3f 0693 5bbf
00000050: e72a 8f3e 7daa 393f d3c1 873f 2f6c 7ebe
00000060: 3e39 0a3f e6ab 49bf 5563 383f 0d75 1a3f
00000070: 548d 093f 3e8a 9fbf 73ae a33f acf5 653f
00000080: f2f9 58bf bded 86bf aee5 f2be 3279 693f
00000090: 97cf c93e 3fe9 be3e fcd5 05bf 7722 9bbf
000000a0: c24c e73e d445 68bf 5360 ac3e 5469 7fbf
000000b0: 24c8 c4be 465b c83e 3c87 8a3f 1312 70bf
000000c0: 403f 563e 1c2c 643f 99ad 87bf af41 4b3f
000000d0: 9bcf a63e d7c6 563f 33a5 9e3f ea0c 0c3f
000000e0: 4e87 4e3f 0e33 55bf 431e 38bf 0bbb 92bf
000000f0: e286 b8be 3e87 573f f4cf d4bc fb59 733f
00000100: 8545 963f 7903 853f 1884 24bf c7ea 193f
00000110: ac95 533f 6f2f fbbe c514 3ebf 072f d3be
00000120: ad97 3f3f 5303 c73e a084 623f 7c8b 04bf
00000130: cc79 2bbf 93a2 d93e 628a ea3e c7c6 d2be
00000140: 1676 45bf 1320 173e dad6 24bf 642b 863f
00000150: 5333 223f 798a 4dbf d415 913e a11c 5a3f
00000160: 1dde 453e 16b1 803f a591 33bf 6031 393f
00000170: 3356 08bf 97c1 353f 72de 5bbf 35fc fabe
00000180: cdef 36bf 32e5 143f 348e 1f3f 0c9d 3bbf
00000190: 17cf 87bf ac53 293f f0d4 223f 991c debe
000001a0: d4bd 42bf 5271 8cbf 178d 85bf f3ae 4fbf
000001b0: b821 53bf a95b 8f3f 21e7 36bf 743b 53bf
000001c0: 8b4a 143f 8b38 5a3f 8c14 26bf 83eb 653f
000001d0: f61a 89bf 8f86 6b3f 78d0 e7be 5520 3cbf
000001e0: 8fae 4b3f 8d7b 2dbf fa5d 8cbf ec7b 8dbf
000001f0: 9f64 dc3e b363 8fbf dae6 0fbf 9605 793f
00000200: 4c24 dcbe 906a 593f a491 523e d2e2 b43e
00000210: 2bb1 b63f fa78 afbf 9405 4bbf fcc2 583f
00000220: d112 133f 73aa a6be 067e 1e3f a718 22bf
00000230: d34f 373f db24 48bf bf56 953f 5298 2b3f
00000240: e1c5 5b3f 0c07 1bbf 3623 893f f9b6 15bf
00000250: 7f12 94bf 87c0 47bf 5086 30bf 420c 9d3f
00000260: 4b9b 23bf d111 e73e 437a 58bf abc2 1d3f
00000270: fce4 0ebf b8a2 493f 0c4f 103f 3e08 4d3f
00000280: 6e20 49bf 25c5 5bbf a828 0ebf 205b 2f3f
00000290: b4fc 8d3f bb4f 13bf 95fb f03e 1da7 033f
000002a0: a18d 9c3f 321c 7a3f 251f f4bd 8a56 a4bd
000002b0: 837a edbe 1382 103f 825e debe f080 cb3e
000002c0: 922a b9be 5dc9 51bf 8faf 15bf d62e 953f
000002d0: f5ef 98bf d769 a2bf 7729 1cbe b820 3b3f
000002e0: 0ad3 5e3f ad29 6a3f 80db 863f 5035 5dbf
000002f0: 2a2e 0ebf 880c 6ebf 579f 023e 755d 753e
00000300: a0c2 203f e6bf a33f bc88 383f f81e 57be
00000310: 8b7f 813e 6120 933f 8cbd f7be 1315 bc3f
00000320: ec16 86bf 2009 02bf 1c7c 7a3f 75ee 24bf
00000330: 02c8 7fbe d579 703f 0897 f7be 7bb4 1c3f
00000340: 70d3 243f 6868 c3be b91c 46bf 180c 0d3f
00000350: 91d6 543f 681f 1bbf 4582 1cbf 7584 89bf
00000360: 4b83 92bf ce36 9bbe dfeb f03e e338 8abf
00000370: 1789 ec3e f43d 4dbf 6108 e03e a3c0 aebf
00000380: 0067 873f 5aed 4c3f a169 8ebf 7621 20bf
00000390: 3b24 22bf 7faa 873f 9bbe 9d3e c41d 883f
000003a0: 3196 79be c661 13bf e05b 80bf 31f2 5b3f
000003b0: bb4c 7fbf 847f 9f3c 1cb4 873f 9ed3 dd3e
000003c0: 53ac a3bf 41c3 cbbe 90c2 7c3f c5f8 9fbf
000003d0: ff06 dabe 6b7d 70be 36c9 c0be fb4d 70bf
000003e0: 0990 783f 70f8 fabe 2d56 4bbf afc6 be3f
000003f0: c7f4 60bf 94a3 1f3f 4330 5f3f a319 dbbe

weight_mu f4 [24, 256]
-0.02630921 0.04278119 0.003390309 0.023352012 0.008437589 0.040746618 0.03895787 0.05722705
0.09664895 0.037393853 0.037247706 -0.027072016 -0.039446365 0.061217032 -0.046474196 0.058410686
0.013269156 -0.050120607 0.022402808 0.07119688 0.04841873 0.011213519 0.05736266 0.076638855
-0.03439958 0.05347509 0.0025573033 -0.020835867 0.002012306 -0.0076635242 0.025263032 0.0024662719
0.07229768 0.09494092 0.048212588 -0.035438314 0.030281153 -0.01915769 0.026386783 -0.018047858
0.01594615 0.048753314 0.041146822 -0.031183481 -0.05012531 -0.040678635 0.009549025 0.037445653
0.020776585 -0.02309709 -0.042804822 -0.0139873605 -0.0015682825 0.085526496 0.03439209 -0.026104372
-0.052638058 -0.026758745 -0.008072841 0.027274895 0.037350804 -0.041284442 0.010012118 0.0101851765
-0.010873712 -0.054036584 -0.00029431283 0.05384569 0.0027817064 -0.007478263 0.05176853 0.066291004
-0.032295413 -0.03610909 -0.0053598406 0.010552541 0.055290096 -0.008109279 0.03813722 0.050132744
-0.0010100068 -0.0018880899 -0.03183459 -0.024968421 -0.034227833 -0.014414148 0.048086032 0.06796393
-0.056242533 0.07829689 -0.025663413 0.013228975 0.07363856 0.0058747423 -0.024464235 0.046267662
0.0264967 -0.043813683 0.06504958 -0.016631022 0.04906347 -0.023151252 0.0239652 0.07757665
0.0816273 0.047985815 0.0097647775 -0.073512055 0.03804349 0.063091114 -0.0011217445 -0.02887122
0.028006945 -0.00079749513 -0.050008636 -0.05232916 0.058847517 0.064981334 -0.030574877 0.018046273
0.00039944053 -0.056103136 -0.05681258 -0.028238744 0.03746411 -0.03565498 -0.060799323 -0.019523408
0.03740151 -0.06170558 0.096666254 -0.03626109 0.015463904 0.04290676 -0.0047258534 0.042951766
0.03135164 0.06231338 0.055090718 0.07627902 -0.014805039 0.0021081907 0.04817711 -0.028748488
0.0002244845 0.07097002 0.003199906 0.06271431 -0.030109398 0.0054847193 0.02239044 -0.0030263357
-0.02340981 0.054154925 -0.031519722 0.0092487335 -0.009088891 -0.032860026 -0.02999317 -0.01837036
0.03694824 0.06971012 0.024576047 -0.026124606 -0.057782058 0.020477423 -0.025543928 -0.010719465
-0.052650217 -0.087207064 0.055811476 -0.019342024 0.03256869 0.030418903 0.02135549 0.040864885
0.014606708 -0.009235899 0.07560977 -0.018768698 -0.0514004 0.0027461823 -0.048190735 -0.019546619
0.061196744 0.05348209 -0.03571564 -0.031847365 0.044222802 0.014226382 0.031536784 0.03820443
0.0031413725 0.01844717 -0.041780595 0.028630188 0.042294756 0.024025992 -0.03279236 -0.039151687
0.031788655 -0.045530315 -0.05754576 0.07299127 0.029683147 -0.007450169 -0.0059464034 0.031768396
-0.041757755 -0.065970786 -0.04564897 0.025133649 -0.0023282415 -0.056537796 -0.020167807 0.05709462
0.029057013 0.027385257 0.03356735 -0.036301635 -0.0053163515 0.09754546 -0.045434162 0.02980075
0.048962988 0.0005010018 0.05816641 0.05986516 0.07536839 -0.023855194 0.040133774 -0.061559353
0.015968986 0.09162141 0.05238203 0.032817494 -0.0020718728 -0.01516475 0.0027903765 0.05773626
0.04211273 -0.020319277 0.018788703 0.03587177 0.05649979 0.048126247 0.06350847 -0.007847465
0.015212898 0.049246017 -0.04997804 0.065797836 0.01053207 0.023017146 0.05327773 -0.03190137
00000000: 6a86 d7bc 543b 2f3d f22f 5e3b b84c bf3c
00000010: d03d 0a3c ede5 263d 4a92 1f3d e966 6a3d
00000020: e2ef c53d 4c2a 193d 0d91 183d 22c6 ddbc
00000030: 8392 21bd b6be 7a3d ba5b 3ebd 0b40 6f3d
00000040: e066 593c 444b 4dbd 1886 b73c abcf 913d
00000050: b852 463d e8b8 373c 1cf5 6a3d d5f4 9c3d
00000060: 93e6 0cbd b208 5b3d 6e98 273b fbaf aabc
00000070: e4e0 033b 4d1e fbbb 6bf4 ce3c 2da1 213b
00000080: ce10 943d 6370 c23d 907a 453d c427 11bd
00000090: 2e10 f83c 97f0 9cbc 1829 d83c 1ad9 93bc
000000a0: 80a1 823c 8eb1 473d 9289 283d 8074 ffbc
000000b0: 3250 4dbd a49e 26bd 8473 1c3c 9d60 193d
000000c0: a833 aa3c 1c36 bdbc 1c54 2fbd 3e2b 65bc
000000d0: d48e cdba 8428 af3d b8de 0c3d d6d8 d5bc
000000e0: 019b 57bd 2835 dbbc f343 04bc 9a6f df3c
000000f0: 28fd 183d e019 29bd de09 243c badf 263c
00000100: a727 32bc 7755 5dbd 004e 9ab9 4c8d 5c3d
00000110: 4a4d 363b 380c f5bb 3d0b 543d 94c3 873d
00000120: 3248 04bd 20e7 13bd 9aa1 afbb 91e4 2c3c
00000130: de77 623d c8dc 04bc c635 1c3d fe57 4d3d
00000140: 3462 84ba c979 f7ba fd64 02bd 938a ccbc
00000150: 7c32 0cbd 5229 6cbc dcf5 443d ac30 8b3d
00000160: 925e 66bd 1f5a a03d 143c d2bc 58be 583c
00000170: d0cf 963d e980 c03b 3869 c8bc 2983 3d3d
00000180: 9b0f d93c fa75 33bd b738 853d c83d 88bc
00000190: c7f6 483d b2a7 bdbc ab52 c43c 82e0 9e3d
000001a0: 372c a73d c68c 443d 72fc 1f3c 7d8d 96bd
000001b0: 7ed3 1b3d ea35 813d 8007 93ba 5683 ecbc
000001c0: d26e e53c fe0e 51ba dbd5 4cbd 1a57 56bd
000001d0: 180a 713d ef14 853d 2a78 fabc c7d5 933c
000001e0: 006c d139 67cc 65bd 4fb4 68bd f054 e7bc
000001f0: f773 193d f50a 12bd b608 79bd 8eef 9fbc
00000200: 5332 193d febe 7cbd f5f8 c53d 8286 14bd
00000210: 505c 7d3c 00bf 2f3d 55db 9abb 31ee 2f3d
00000220: 946a 003d 513c 7f3d cea6 613d 2d38 9c3d
00000230: d690 72bc 9229 0a3b 5c55 453d f381 ebbc
00000240: 9963 6b39 bb58 913d 84b5 513b 5c70 803d
00000250: fca7 f6bc 29b9 b33b 286c b73c 7d55 46bb
00000260: eec5 bfbc 8ed1 5d3d d31a 01bd 0088 173c
00000270: 92e9 14bc 3c98 06bd 3db4 f5bc 707d 96bc
00000280: 0a57 173d 2ec4 8e3d b553 c93c 4503 d6bc
00000290: e1ac 6cbd 45c0 a73c 8041 d1bc b2a0 2fbc
000002a0: c1a7 57bd 9e99 b2bd 939a 643d 2a73 9ebc
000002b0: bf66 053d 1031 f93c b5f1 ae3c f061 273d
000002c0: f950 6f3c 2b52 17bc 4cd9 9a3d d0c0 99bc
000002d0: 3a89 52bd 4bf9 333b a663 45bd 3b20 a0bc
000002e0: 70a9 7a3d 0910 5b3d 904a 12bd 6272 02bd
000002f0: f822 353d c515 693c b72c 013d 407c 1c3d
00000300: 7cdf 4d3b 851e 973c 2122 2bbd db89 ea3c
00000310: 443d 2d3d 28d2 c43c 4851 06bd 855d 20bd
00000320: d234 023d ff7d 3abd 1ab5 6bbd 727c 953d
00000330: 122a f33c 8c20 f4bb 0cda c2bb 941f 023d
00000340: 2e0a 2bbd b11b 87bd 6afa 3abd 15e5 cd3c
00000350: 6995 18bb 2d94 67bd f536 a5bc 0cdc 693d
00000360: f908 ee3c 0c57 e03c eb7d 093d 06b1 14bd
00000370: ca34 aebb eac5 c73d 2c19 3abd b420 f43c
00000380: 6a8d 483d a955 033a e73f 6e3d 2c35 753d
00000390: be5a 9a3d f86b c3bc 5063 243d a925 7cbd
000003a0: 64d1 823c 01a4 bb3d 8a8e 563d a36b 063d
000003b0: 42c8 07bb 9275 78bc c0de 363b db7c 6c3d
000003c0: 667e 2c3d 9d74 a6bc c4ea 993c 47ee 123d
000003d0: 536c 673d 0720 453d bb10 823d a792 00bc
000003e0: 853f 793c 31b6 493d c6b5 4cbd 04c1 863d
000003f0: b48e 2c3c 748e bc3c c039 5a3d 03ab 02bd
