experiments/diff_kappa_data/kappa1_1_kappa2_1_kappa3_1.5/rainbow_dqn_target_tem.pth (torch, 343122 bytes, 13 tensors)

weight f4 [256, 4]
000000 50 9c 40 be f8 61 6b be a6 c4 c6 be c4 30 cc be
       -0.18809628 -0.22986591 -0.38821906 -0.39880955
000010 84 e9 9f be 74 bf f6 be dc 60 2c be c4 ac d4 be
       -0.31232846 -0.48192942 -0.16833824 -0.4153806
000020 ac 90 9c 3d 88 a0 f0 be 19 a9 94 be 98 da 70 3d
       0.076447815 -0.46997476 -0.2903526 0.058802217
000030 74 de c1 3e d5 88 0c 3d 8f bf 4d bb 10 34 11 3f
       0.3786503 0.03431018 -0.0031394695 0.56720066
000040 5a d9 c2 3d ff 9c d3 3c aa 8b f5 be a9 d2 8d 3e
       0.09514113 0.025831698 -0.47958118 0.27699783
000050 64 f7 74 be d5 5e 09 be 5a 5d 67 3a 39 03 d0 3e
       -0.23922497 -0.13415082 0.0008825861 0.4062746
000060 16 ee d5 bd 5e d9 88 3e 30 38 01 be de 3c f0 be
       -0.10445802 0.26728338 -0.1261909 -0.46921438
000070 a6 de c5 be 9c 9f a9 3e 35 9a 69 be 07 81 db be
       -0.3864643 0.33129585 -0.22812732 -0.42871878
000080 0a 97 0a be 20 8e 40 be 32 93 e3 3e b1 41 67 3e
       -0.1353418 -0.18804216 0.4444824 0.22583653
000090 80 52 c4 bd c0 d5 2d bd 10 85 c6 bd a4 0e f2 be
       -0.09586048 -0.042440176 -0.096933484 -0.47276795
0000a0 d1 e1 de 3e f3 79 f9 bb 77 fe a6 be 18 9e 12 bf
       0.4353166 -0.0076134144 -0.32616016 -0.5727248
0000b0 c3 f0 e6 be a0 f1 1f 3d 50 10 79 3d 40 45 90 3c
       -0.45105562 0.03904879 0.060806572 0.017611146
0000c0 48 54 7b 3e 89 ae a2 3b 71 39 18 bd 6e e5 2c be
       0.2454387 0.004964654 -0.037164155 -0.16884395
0000d0 78 cb a6 36 df 0b b2 bd 6d 52 51 be 53 54 64 be
       4.9708724e-06 -0.086936705 -0.20441599 -0.22297792
0000e0 6e 86 b3 bc a0 75 a8 3e 2d 8f e2 bd 6f d6 9d 3e
       -0.021914687 0.3290224 -0.11062465 0.30827662
0000f0 cc e4 75 3d 77 8b bc 3e 4b 20 0a be eb 56 ec 3e
       0.06003265 0.36825153 -0.13488881 0.46160063
000100 c3 03 18 3e f7 23 82 3e fa 48 c3 be f2 f5 fb 3e
       0.14845185 0.25418064 -0.38141614 0.4921108
000110 24 7a 30 3e 03 91 2f 3e fb 9c 98 be 62 4d 06 be
       0.17234093 0.17145161 -0.29807267 -0.13115457
000120 f6 9e 14 3e 82 a5 97 bd 63 41 5b be f2 5b 03 bf
       0.14513764 -0.07404615 -0.21411662 -0.5131217
000130 70 3f 4f bd 38 27 31 be 66 97 a9 be 68 21 96 3d
       -0.050597608 -0.17300117 -0.3312332 0.073305905
000140 94 d3 34 be 59 6e 67 be 40 ca 08 3e ad bc c5 3e
       -0.17658836 -0.22600688 0.13358402 0.3862051
000150 3f 28 06 be 94 1c 74 3e dd d7 c4 be 13 e4 be 3d
       -0.1310129 0.23839027 -0.3844594 0.093208455
000160 30 21 f4 3e 76 47 a7 be 84 c3 86 be 37 02 87 be
       0.4768157 -0.32671708 -0.26321042 -0.26368877
000170 31 2f e7 3d eb 5c 6b 3e 40 5c 0e bf 91 dc 98 be
       0.11288298 0.22984664 -0.5560951 -0.2985578
000180 20 2a d7 be d8 22 d4 3e 54 ed e5 be e2 3a b6 be
       -0.42024326 0.41432834 -0.4490763 -0.355918
000190 90 ac 65 3e f5 71 44 3d 6d 9e ba be 6b 90 7f 3e
       0.22429109 0.04796024 -0.36448994 0.24957435
0001a0 d6 6a cb 3d 57 5d 96 3e eb 42 95 3d e4 1d c6 3e
       0.09932487 0.29368088 0.07288154 0.3869468
0001b0 18 1e 6d 3e bc c0 62 be 61 9f 80 be 49 bd e6 be
       0.23156011 -0.22143835 -0.25121596 -0.45066288
0001c0 80 5d cc bc a3 b7 ef be 90 71 0b 3d 7e c1 cc 3e
       -0.024946928 -0.4681979 0.03404385 0.39991373
0001d0 e5 81 23 3e 4f f2 34 bd b4 8f c6 3e 76 7d b1 be
       0.1596752 -0.044176396 0.38781512 -0.34666032
0001e0 36 4a 58 3d 0c 12 8e be 0e 77 84 be 12 03 af be
       0.052805148 -0.27748144 -0.25872082 -0.3418203
0001f0 8c 75 fa be 6c 42 b0 be ac 2c ff be 30 d1 90 bd
       -0.48917806 -0.34425676 -0.4983877 -0.07071149
000200 ad d3 33 3e 3e be a4 be ad 3e 65 be be f0 8f be
       0.17561217 -0.32176393 -0.2238719 -0.2811336
000210 d8 ce 60 be 05 51 27 3e 70 4b 99 be df b8 81 3e
       -0.21953905 0.163395 -0.29940367 0.25336358
000220 ab 25 b4 3e 5f b9 d5 3e 12 4b 84 3e c5 13 2e 3e
       0.35184988 0.4174299 0.25838524 0.16999729
000230 7a fb ed bb 3a b1 02 3f 20 12 99 3d 45 78 17 3e
       -0.0072626444 0.51051676 0.0747416 0.14791973
000240 b0 b0 80 3d 8b 84 ca 3e 8c 84 53 be c0 3d 18 3f
       0.062837005 0.39554247 -0.20656031 0.59469223
000250 ec 6f c6 be 80 35 c6 bc f0 1c e7 be 00 55 22 bb
       -0.38757265 -0.024195433 -0.45139265 -0.0024769902
000260 b4 9f 38 be de 93 1a 3f 1e 77 47 3e 38 95 df 3d
       -0.18029672 0.6038188 0.19479033 0.10917133
000270 c0 6f 62 bd 00 ae d0 bc 00 de 61 bd ca 5f e4 be
       -0.055282354 -0.025473595 -0.055143356 -0.4460433
000280 71 55 e1 3e 02 50 00 3f 91 7a 47 bd 50 95 8b be
       0.440105 0.5012208 -0.048700873 -0.27262354
000290 1f 5c 80 3e ee 69 9d bc 6c 77 3e 3e 2e 1d bc be
       0.25070283 -0.01921555 0.18600243 -0.36741012
0002a0 e4 35 13 3e 4a 17 8a be d2 31 99 be 3b d0 b5 be
       0.14376026 -0.26970893 -0.29920822 -0.3551043
0002b0 e8 56 31 be 62 e0 89 be 0e 7d d7 be 28 24 bd 3d
       -0.17318308 -0.26929003 -0.42087597 0.09235412
0002c0 1d 67 fd be 17 b4 f6 bd 38 30 c9 3e 8b c6 a4 3e
       -0.49492732 -0.12046068 0.392946 0.32182726
0002d0 83 cf e4 3e f1 01 69 3d e6 cf 2f be 95 61 08 3e
       0.4468957 0.056886617 -0.1716915 0.13318475
0002e0 5e 9a d0 3c 50 8e cb 3d 99 bd c8 3d ec b8 68 3e
       0.025464233 0.09939253 0.09801788 0.22726792
0002f0 35 4d 3d 3e 07 bc 6b bd 3a bd 82 3e 69 73 b4 3e
       0.18486483 -0.057552364 0.25534993 0.352443
000300 e9 b9 86 3e ce 26 ed be b8 19 f5 3e 6c 27 5c be
       0.26313713 -0.46318668 0.47871184 -0.21499413
000310 0c f4 e3 3e 66 8d ea 3e 09 6b 89 be ed ff e9 3c
       0.4452213 0.45811003 -0.26839474 0.028564418
000320 06 f9 c1 be da 24 a8 3e b9 dd 85 be f5 29 a6 be
       -0.37885302 0.32840616 -0.26145723 -0.32453886
000330 ed 9f c2 3e 18 2d 11 be 07 62 bf 3e 29 69 f0 3e
       0.3801264 -0.14177358 0.37379476 0.4695523
000340 c4 74 a9 3e df c9 3d be 5e 7c af be 7d 85 5a be
       0.33096898 -0.18534039 -0.34274572 -0.21339984
000350 b4 89 7c be f8 26 1a 3e 62 67 b7 be 4b a5 e1 3d
       -0.24661905 0.15053928 -0.35821062 0.11017855
000360 7d d2 bb 3e bd 33 e9 3e ed 76 c0 be 1f f4 05 bf
       0.36684027 0.45547286 -0.37590733 -0.52325624
000370 77 2c 61 bd 94 d0 80 3e f9 2b e7 3d ef 81 17 bf
       -0.054974046 0.25159132 0.11287684 -0.5918264
000380 25 69 c3 3d a2 27 4b be 39 4b 4a 3e a9 f7 39 b8
       0.09541539 -0.19839337 0.19755258 -4.433809e-05
000390 af ff 76 3d 90 9d bc be 1a 07 54 bc 75 a7 e4 3e
       0.060302433 -0.3683896 -0.012941146 0.4465901
0003a0 a0 47 2b bd 2e 9f 87 be 56 09 cc be aa 3d e0 be
       -0.041816354 -0.26488632 -0.39850873 -0.43797046
0003b0 ea 9d 28 3e ef cc 93 3e 10 08 03 3f cb 00 87 be
       0.1646649 0.2886729 0.5118418 -0.26367792
0003c0 4e ff d9 3e a2 00 d2 bd 72 0b fd 3e ae e5 68 bc
       0.42577595 -0.10254027 0.49422795 -0.014214916
0003d0 af 4b fa 3e ca 8c d9 be 0d 31 dc 3e 49 c6 5a 3e
       0.48885867 -0.42490226 0.43006173 0.21364702
0003e0 ed 6a d7 3e 91 db c0 3e 6d e1 f8 be 81 73 0e 3f
       0.42073765 0.37667516 -0.48609486 0.55644995
0003f0 b6 7d e3 be 0d a4 8f 3e ca 07 53 be 35 a4 5a 3d
       -0.44431847 0.28054848 -0.2060844 0.053379256

bias f4 [256]
000000 68 08 19 3e be d0 a6 be 61 1e 04 3f b5 fc 1b 3d
       0.14944613 -0.32581133 0.51608855 0.038082797
000010 bf 00 c9 be 41 bc 5c 3e fe 81 eb 3d 9e 7a da 3e
       -0.39258382 0.21556188 0.114994034 0.42671674
000020 98 91 e8 be 41 74 cf be e0 cb b3 be a0 c9 83 bc
       -0.4542358 -0.40518382 -0.35116482 -0.016087353
000030 9a 87 69 3e 05 b0 1a 3f f1 d4 26 3d df 3d 04 3f
       0.22805634 0.60424834 0.04073042 0.5165691
000040 65 c8 d9 be 26 c2 e5 be 8c 23 ac be 20 c1 1a 3e
       -0.425357 -0.44874686 -0.3362087 0.15112734
000050 0d 86 53 3c 58 61 bf be 4b 08 22 be 1e 00 aa 3e
       0.012910378 -0.37378955 -0.15823476 0.33203214
000060 9b e8 a4 be 8a 88 ce bd eb 03 6c 3e 95 40 bc be
       -0.32208714 -0.100846365 0.2304837 -0.36768022
000070 00 ce 2e bb da c5 06 bf 31 0c 9e 3e 92 0c bb 3e
       -0.0026673079 -0.5264565 0.30868676 0.36533028
000080 5b c0 b3 3e d0 36 f7 3e ff a9 65 be 72 2c 6a 3e
       0.35107693 0.48284006 -0.2242813 0.22868517
000090 9e 6c ac bc 5a 78 c2 3e ac c8 16 3f 7a 14 9c be
       -0.021047886 0.37982446 0.5889995 -0.30484372
0000a0 76 7d 1b 3d 04 b0 ba be 6e 04 43 3e 78 65 af bd
       0.037961446 -0.36462414 0.19044659 -0.085642755
0000b0 17 e0 96 3e 8e 7e 50 be ae 17 a2 3e db 25 c7 3e
       0.29467842 -0.20360777 0.3165869 0.3889607
0000c0 63 da 68 be cf 6b c7 3d 7f 89 2c be 15 4b b5 3e
       -0.22739558 0.0973736 -0.16849326 0.35408846
0000d0 2b c5 02 3f 70 01 5a be 19 f4 b8 be 2d c2 f4 3d
       0.51082104 -0.21289611 -0.36123732 0.119510986
0000e0 ab 13 6e be 93 61 c4 3e 00 c5 dd 3b 11 e8 03 be
       -0.2324969 0.38355693 0.006767869 -0.12881495
0000f0 fd 97 eb bd cf ca 6b 3e 38 92 ca be 8b 89 bb 3e
       -0.11503599 0.23026584 -0.3956468 0.36628374
000100 e5 79 ca 3a b2 cd 81 bd 59 8b ad be db 0d 79 3d
       0.0015447704 -0.063380614 -0.33895376 0.06080423
000110 36 81 b0 3e 10 db b9 be 84 f9 8e 3e 3e 1b ff be
       0.3447358 -0.36299944 0.2792474 -0.49825472
000120 36 5d 9e be b0 9d 09 3e b3 05 a5 3d 00 ea ba 3e
       -0.3093049 0.1343906 0.08057728 0.36506653
000130 38 e3 a2 3e 66 1d 5e bd a1 13 ea 3e 34 0a eb be
       0.3181398 -0.054227255 0.457181 -0.45906222
000140 88 24 22 be b8 9c ed be a8 f1 33 3e b6 31 04 3c
       -0.15834248 -0.4640863 0.17572653 0.008068493
000150 7c ff 03 3f 94 9f 88 bc ea 8b bf 3e 18 3b e2 3e
       0.51561713 -0.016677655 0.37411433 0.4418571
000160 b8 22 bb 3d 38 6f 31 3e 26 e7 18 3e 78 6e 7d 3d
       0.091374815 0.17327583 0.14931926 0.06187293
000170 45 1c b0 3d 36 3c e9 be 49 1c aa be d4 56 13 be
       0.08599142 -0.4555375 -0.33224705 -0.14388591
000180 f2 cd c1 be ba 1e ea 3e fa f3 ce 3e ee aa f4 3e
       -0.37852436 0.45726568 0.40420514 0.4778666
000190 a3 31 60 be 24 8c 9b 3e e0 a8 22 be 36 a6 fe be
       -0.21893935 0.30380356 -0.15884733 -0.49736184
0001a0 ad f1 93 be 0d 1d be be 70 e1 7e bc a5 cc a5 3e
       -0.2889532 -0.3713154 -0.015556678 0.32382694
0001b0 c1 4b d4 be e3 0a c6 be 50 4f ad 3d a9 82 eb bc
       -0.41464046 -0.3868018 0.08462393 -0.028748827
0001c0 d5 b8 f9 be da 90 ef 3d ca 9c ba be 37 64 19 3d
       -0.48773828 0.1169755 -0.36447746 0.037449088
0001d0 c6 4b fb bd 35 c1 f4 be 3e 9e e4 3e a5 4a 96 bb
       -0.12270312 -0.47803655 0.4465198 -0.004586535
0001e0 3e 63 b0 be 8d 7f 8a bd 44 d1 20 be 8c 43 c6 be
       -0.34450716 -0.0676261 -0.15704829 -0.3872341
0001f0 ce bf 70 3e b0 73 28 3d 76 9d cb be cb 60 05 3f
       0.23510668 0.041125953 -0.3976857 0.5210082
000200 21 ab b1 3e ee a3 f9 3e d4 b8 c3 be 61 bc d6 be
       0.34700873 0.4875788 -0.3822695 -0.41940597
000210 3e 29 38 3d 79 c2 b9 3e cb 42 8d 3e 0e 5f ab be
       0.044961207 0.36281183 0.27590021 -0.33470958
000220 24 4a 4d be d6 a0 98 be 44 8b 96 be 52 74 09 3f
       -0.20047814 -0.29810208 -0.29403126 0.53693116
000230 98 6c 4e 3e 8f 3c e7 bd 8c b8 09 be 77 65 95 3d
       0.20158613 -0.112908475 -0.13449305 0.072947435
000240 2b c5 1c be 8d 69 8b bd 2d 5c 6b 3e 1a ba 83 3e
       -0.15309589 -0.068072416 0.22984381 0.25727922
000250 a1 9f 0d be a8 9b d5 3b cf ce 9b 3e 06 bf 87 be
       -0.13830425 0.0065188 0.3043122 -0.26512927
000260 f2 f9 c9 be 34 b1 56 be 10 15 dd bd 06 f2 96 3e
       -0.39448506 -0.20966035 -0.10795033 0.29481524
000270 e8 7e 02 3f 6c 45 b9 be 48 f7 00 bf af 0f d0 3e
       0.50974894 -0.36185777 -0.5037732 0.40636966
000280 ee 6e 09 be 7d 73 8d be 71 36 d0 3e bd 0f 80 be
       -0.13421223 -0.27627173 0.40666535 -0.25012007
000290 c5 9f f3 be 98 b5 a7 be 23 e0 4d be d9 34 db 3c
       -0.47582832 -0.32755733 -0.20105033 0.026758598
0002a0 f3 e6 b2 be 10 75 68 be 02 fe bc 3e c7 eb 46 be
       -0.34941825 -0.22700906 0.36912543 -0.1942588
0002b0 5c 3f 78 be 05 2f 41 3e 76 1b 2d 3e ea f2 03 3f
       -0.2424292 0.18865593 0.16905007 0.5154253
0002c0 48 fa b0 bd 4c 4c 8b 3e fd 20 db 3e 87 45 d6 3e
       -0.08641487 0.27206647 0.42798606 0.4184992
0002d0 27 46 9e 3e 18 17 06 bd c4 78 60 be db 78 6c 3c
       0.30912897 -0.032736868 -0.21921068 0.014433111
0002e0 a8 ab 09 be 72 db d1 3e 6a fe c6 3e 99 a1 5c 3e
       -0.13444388 0.40987736 0.38865978 0.2154602
0002f0 57 4c f5 3e 0a 27 b3 3e 60 1c 9b be 0f 0c 89 be
       0.47909805 0.34990722 -0.30295086 -0.26767012
000300 2d 4a e6 3e 78 26 cf 3e 89 e7 c9 3e ee ce 01 3e
       0.44978467 0.40459037 0.3943446 0.12676594
000310 b0 dc cd 3e d0 1b 40 3e 6e 67 ae 3d 07 c2 be 3b
       0.40207434 0.1876061 0.085158214 0.0058214697
000320 68 04 72 3e 34 1a 33 bd 79 20 69 be a8 1e 93 3e
       0.23634493 -0.04372616 -0.22766294 0.28734326
000330 65 8c f2 be b0 22 58 be 89 0d ec 3d 51 89 9c bc
       -0.47372738 -0.21106982 0.11526019 -0.019108446
000340 76 32 b7 3e a6 a7 04 3f fe 92 80 3e 3f 9b 9e 3e
       0.35780686 0.5181831 0.25112146 0.30977818
000350 80 44 37 be 35 cc 89 3e c2 9c d2 bd a1 e7 45 3e
       -0.17897224 0.2691361 -0.102838054 0.1932664
000360 31 0e 56 be 68 e7 0f 3d 60 81 a2 bd 13 b3 8c be
       -0.20903851 0.035132796 -0.079348326 -0.27480373
000370 83 62 b7 3e 38 8f a0 3e 0d f4 b3 3e d2 c9 19 3e
       0.35817346 0.31359267 0.35147133 0.15018395
000380 27 df 84 3e 28 ac 55 3e 73 1d fc bc 09 90 a0 3e
       0.25951502 0.20866454 -0.030775761 0.3135989
000390 a8 11 76 be ad 39 33 be 36 8a b8 be 48 c1 44 be
       -0.24030173 -0.1750247 -0.36042947 -0.19214356
0003a0 d6 b0 ae bd 9d 77 e3 be 33 a3 01 3e 62 4e f5 bd
       -0.085298225 -0.44427195 0.12659912 -0.11977841
0003b0 24 46 69 3e c3 7a d7 3e 0c 72 94 bd 9c f2 da be
       0.22780663 0.42085847 -0.07248315 -0.4276322
0003c0 0f 5d 9a 3e 49 fe d2 be 03 16 9e bd 5c 71 bd 3e
       0.30149123 -0.4120963 -0.07719042 0.3700055
0003d0 2e 83 97 3e 7b ae 28 be 48 5c c3 3d c2 4b ba 3e
       0.2959227 -0.16472809 0.095390856 0.36385924
0003e0 c5 f1 91 3e 2e 20 bc 3e 31 fd c9 be 89 ed 21 3d
       0.28504768 0.367433 -0.39450982 0.03953317
0003f0 45 3e df be e9 47 d3 be 2a 9a 16 3f 67 13 1d 3e
       -0.43602195 -0.412658 0.58828986 0.15339433

weight f4 [256, 256]
000000 1a ec 2c bd 80 f7 e4 3c 99 c8 d2 3c 96 1a 48 bd
       -0.04221735 0.027950048 0.025730418 -0.04885348
000010 de e5 2e 3c 50 de cb 3b 59 41 42 bd e6 9f 26 bd
       0.010674922 0.00622157 -0.0474256 -0.040679835
000020 6c ed 79 3d 4c 66 f9 bc d1 59 f0 bc d8 f3 4e bc
       0.06101744 -0.030444287 -0.029339703 -0.012631379
000030 21 bf 19 3d e8 ae c9 3c 18 0e 70 bd 5a 3d 3c 3c
       0.03753579 0.024619535 -0.05860719 0.011489237
000040 e6 5e b0 3c 93 40 bc bc 93 95 67 bc c8 d6 0a bd
       0.021529626 -0.02298001 -0.014134782 -0.033896238
000050 84 f2 6d 3d 06 85 2b bd da 36 6e 3c c1 e6 87 bd
       0.05809261 -0.041874908 0.014539445 -0.0663581
000060 b9 a8 43 3d 9b 12 3b bd cc b3 f7 3c f4 ca 3a bc
       0.04776833 -0.04567204 0.030237101 -0.011400927
000070 00 d7 4b ba de ea 74 3a 30 16 93 bb b8 af 2e bd
       -0.0007775873 0.0009342859 -0.004488729 -0.042648047
000080 83 6d d2 3b 7c 4a 8c bc 06 27 7a bb da 24 3f 3c
       0.006421746 -0.01712536 -0.0038170232 0.011666501
000090 5a 01 08 bb a4 1c 80 3c ee f5 ff bc 10 39 da 3b
       -0.0020752759 0.015638657 -0.031245198 0.0066596344
0000a0 60 16 7c 3c ca 11 7d 3d 96 73 d3 bd fe f4 78 3d
       0.015386194 0.061784543 -0.10324781 0.060780518
0000b0 03 0d 3e bd 34 e3 43 bd ae df f1 3c 6c 57 11 bd
       -0.046399128 -0.0478241 0.029525604 -0.035483763
0000c0 76 11 a7 3c ac ec d5 bc 0d 19 88 3b ab 0e 4f bc
       0.020394068 -0.02611383 0.004153377 -0.012637774
0000d0 7b bc 10 bd 00 db 4e ba 1b 70 93 bd cc 08 f0 bd
       -0.035336 -0.000789091 -0.07199117 -0.11720428
0000e0 b2 42 ec bc 79 91 8d 3b 64 23 4c bd 31 29 e2 3c
       -0.028840397 0.00432032 -0.04983844 0.027607532
0000f0 a1 58 41 bd db b9 37 bc 20 61 85 bc dd 63 1a bd
       -0.047203664 -0.011213745 -0.016281664 -0.037692893
000100 93 e9 c4 3b 2d 6f 0f bc bd 61 18 3d f0 a7 8d bd
       0.0060092895 -0.008754534 0.037202585 -0.06916797
000110 ea a9 5d 3d 0e 42 2f bc 0c 36 6d 3d 80 8c 9e 3a
       0.05411712 -0.010696901 0.05791287 0.0012096316
000120 e2 d6 f5 bc c0 d0 a1 3c 52 3e c3 3b d5 a8 97 bc
       -0.03000969 0.01975286 0.005958357 -0.018513123
000130 75 6e 09 3d 1f b8 45 3b df 07 16 bd 02 9a 5b bd
       0.033552606 0.003016956 -0.0366286 -0.05361367
000140 5c df 5f 3d 9b f9 93 3d 61 5c 0b 3b 17 ec 2b 3d
       0.05465637 0.07225343 0.002126478 0.0419732
000150 ba 28 50 3d 74 37 f5 3a 95 13 be bd c4 5a f5 bd
       0.05082009 0.0018708543 -0.09281079 -0.11980203
000160 fa 22 7b 3d 63 d2 25 bd 75 06 47 3c fd 79 a2 3c
       0.061312653 -0.040483844 0.012147536 0.01983356
000170 ce 54 a1 3c 5b d3 97 3d ac f9 5d 3b 76 a3 04 bd
       0.019693758 0.0741336 0.003387074 -0.03238245
000180 17 22 d6 ba 83 0e 80 bd 52 de 7b bc d9 ce a7 bd
       -0.0016337064 -0.06252768 -0.0153728295 -0.0819375
000190 a0 38 bb 3a 2e 81 53 bd fd 18 40 3d 30 33 bc 3c
       0.0014283843 -0.051636867 0.04689883 0.022973627
0001a0 f0 b2 f1 bc 7a 7e 26 3d c0 20 46 bd 3c b7 6e bd
       -0.02950427 0.04064796 -0.048371077 -0.058280215
0001b0 2b db 6c 3d 5f c5 af 3c 43 fa 04 bd 56 8d 4c 3d
       0.057826202 0.021456419 -0.03246523 0.049939476
0001c0 2e 44 a1 3d 4a d4 45 3d a2 b8 21 3d 34 a8 93 bb
       0.07874332 0.048298158 0.03948272 -0.0045061354
0001d0 b3 81 6b bd 37 65 30 3d 80 66 68 bb e6 39 08 bd
       -0.057496738 0.043065276 -0.0035461485 -0.03325834
0001e0 5d 7d 01 bd 40 6a f1 bc f2 0c 79 3d 30 41 fe 3b
       -0.031613696 -0.02946961 0.06080336 0.007759236
0001f0 2a 69 dc bb b4 b9 26 bd e6 ed 0b 3d 9b 51 71 bb
       -0.0067264037 -0.040704444 0.034162425 -0.0036822322
000200 1c c9 80 3c d1 97 63 bd 62 31 01 bd 73 b4 72 bc
       0.015720896 -0.055564705 -0.031541236 -0.01481353
000210 6c ea 0a 3e 8d a1 21 3d c7 e9 89 bc d4 90 e1 3c
       0.13565987 0.039460707 -0.016835107 0.02753488
000220 10 2f b0 bc 32 05 80 3d 2d 82 8a 3d 6a 18 64 bd
       -0.021506816 0.06250991 0.0676311 -0.055687346
000230 52 85 08 bd 31 20 b5 3d 23 38 65 3d 33 16 0f 3d
       -0.03333027 0.08844031 0.05596174 0.03493328
000240 dd 77 a2 bc 96 e1 05 bd dd e3 a5 bb 94 a2 57 bd
       -0.019832546 -0.03268584 -0.005062564 -0.05264528
000250 2d 61 26 bd c5 35 81 3d 55 10 94 bc 0c 65 49 3d
       -0.040620018 0.06309084 -0.018074194 0.04916863
000260 e0 e9 34 bb a4 95 49 3d c8 1f ff 3c d4 0d a6 3c
       -0.002760522 0.049214974 0.031143084 0.020270266
000270 04 e6 26 bd b6 25 2b bc ef 14 1c bd b7 fb f1 bd
       -0.040746704 -0.010446003 -0.0381059 -0.11815589
000280 53 14 65 3d f4 df c2 3c 07 e7 5f bd 60 5f 84 3c
       0.055927586 0.02378843 -0.054663684 0.01615876
000290 dc 41 9a 3b c9 44 b4 bc f2 7b 44 bc fb b3 87 3d
       0.004707558 -0.022005456 -0.0119924415 0.066261254
0002a0 91 18 6b 3b dc c7 19 bd c8 56 39 3d 76 ce 2b bd
       0.0035872797 -0.037544116 0.045248777 -0.041944943
0002b0 05 0d 13 3d cf bf da 3c 63 d1 81 bb 71 8c 68 bd
       0.03590109 0.02670279 -0.0039617284 -0.05677456
0002c0 82 38 6f 3d b7 13 57 bd eb 0b 59 3b aa 7a 59 3d
       0.0584035 -0.052509036 0.0033118676 0.053095497
0002d0 0b 60 4a 3c 61 79 6e bc 73 44 a8 3c d2 27 5c 3c
       0.012352 -0.014555306 0.020540452 0.013437228
0002e0 b0 b7 f4 3c b4 c8 46 3d de ef 9a 3b 9e 39 fc 3c
       0.029872745 0.04853125 0.0047283014 0.030789193
0002f0 1f 3b 26 bd 44 41 93 bc 16 80 46 bd ef 0a 0d 3d
       -0.040583726 -0.017975457 -0.048461996 0.034434255
000300 8f da 1b bd 0c 8d 55 bd ca 77 63 bd df 1a 59 3d
       -0.03805023 -0.052136466 -0.05553416 0.053004142
000310 2f fa 9f bd 9f 0e e9 bc 49 62 40 3c fd 96 21 bd
       -0.078113906 -0.028449355 0.011742183 -0.039450634
000320 fa 44 7d 3d 93 fb c6 3c 2e 9a ab 3c 40 cf e8 3c
       0.06183336 0.024289882 0.020947542 0.028419137
000330 c1 d5 90 3d d8 cb 4f 3c b0 dd 04 3d 3a 96 20 3d
       0.0707202 0.0126828775 0.03243798 0.039205767
000340 60 4f 46 3d c8 01 88 bc ac cb f1 3c 61 2f 1f bc
       0.04841554 -0.016602412 0.029516064 -0.009715886
000350 c8 00 2b 3c 30 36 3e 3d 61 07 af bc 6c bd 8d bb
       0.010437198 0.046438396 -0.021365823 -0.0043255594
000360 7e 10 88 3d 19 02 24 bd 80 55 13 3b 4c 51 16 3d
       0.06643771 -0.040041063 0.0022481382 0.036698624
000370 35 48 f2 bd 95 19 80 bd 5b ba c5 bd a0 19 47 3d
       -0.11830179 -0.062548794 -0.09654685 0.048608422
000380 dc e3 16 3d 65 6d 0c bd d1 2c 5a bd f1 41 5c bc
       0.036838397 -0.034284014 -0.053265397 -0.013443456
000390 a1 73 a9 bd 92 7f 19 3d 2f 77 2f bd 85 3f d8 bb
       -0.082740076 0.037475176 -0.04283827 -0.006599369
0003a0 04 ff 06 bd 1f 4c 3a 3d f1 d1 8b 3d e8 15 78 3c
       -0.032958046 0.04548275 0.068271525 0.015141942
0003b0 ac 22 61 bd 89 4d 47 3d c9 7f 2d 3d f0 2e 70 3d
       -0.054964706 0.048657928 0.042358194 0.058638513
0003c0 cb 93 5a 3c 66 e2 1d 3b 85 67 81 bc 80 3e d3 bb
       0.013340901 0.0024091243 -0.015796432 -0.0064466596
0003d0 3c c9 66 bd b0 c5 6d bc 72 6f 30 bd c9 12 56 3d
       -0.056344256 -0.014512464 -0.043075033 0.05226401
0003e0 e7 0b 1d bd d2 26 37 bd 60 c2 91 3b cc c5 4d 3c
       -0.03834143 -0.044714756 0.00444822 0.0125593655
0003f0 06 d6 a8 3d 1e a5 36 3d e3 85 17 bd 33 ff 8f 3c
       0.08243947 0.04459106 -0.03699292 0.017577743

bias f4 [256]
000000 67 44 cc 3c ba 53 6b bd e8 88 7a 3d 91 8b 85 3d
       0.02493496 -0.057452895 0.06116572 0.06520761
000010 32 d9 d9 3c 2e 80 08 bc a8 80 19 bd 8a 88 84 3d
       0.026592825 -0.008331342 -0.03747621 0.06471355
000020 11 a4 62 bc 4c fd 0c bd 55 ae 6d 3c d0 47 a7 bc
       -0.013833062 -0.03442125 0.014506896 -0.020419985
000030 ac 3e 23 3d 02 1b bd 3c 3a 96 6d bd fb 91 c0 bc
       0.03985469 0.023084167 -0.058004595 -0.023507109
000040 e8 87 45 bd 38 80 21 3c 00 9f 91 3c 50 d3 9e bc
       -0.048225313 0.00985723 0.017776012 -0.019387871
000050 b0 7d 00 bc f8 a8 e5 3c 42 d9 13 bd 85 25 45 3d
       -0.007842466 0.028034672 -0.036095865 0.048131485
000060 e1 60 40 bd 19 d1 db 3c 38 3b 4f 3c 93 63 9a 3d
       -0.04696739 0.026833104 0.012648396 0.075385235
000070 7c b8 b2 bd 9b c1 68 bd 20 5d 00 bd 68 bc 4d 3d
       -0.08726594 -0.05682526 -0.03133881 0.050228506
000080 8a 8d 09 3d 1d 0e 30 3d d8 ff b5 bc c2 e9 51 bd
       0.033582248 0.04298221 -0.022216722 -0.05124832
000090 a1 1c 42 bd d7 e3 a9 bb 9e 67 10 bd 37 90 ac bb
       -0.047390584 -0.0051846313 -0.035255067 -0.005266215
0000a0 80 36 63 bc ea 10 61 bd 3f 56 a2 bc 2c 2b 6a bd
       -0.013867974 -0.05494777 -0.019816516 -0.05717008
0000b0 7e a5 53 bd a5 1d 29 3d 38 8c a5 3c be 55 20 3c
       -0.051671498 0.041288037 0.020208463 0.0097860675
0000c0 9e 63 66 bd 08 31 88 3c 20 2b d5 bc de 04 99 3c
       -0.056247346 0.016624942 -0.02602154 0.018679079
0000d0 60 e8 05 bd a8 e3 3b bc ce 98 13 bd 95 52 0a bd
       -0.032692313 -0.011467852 -0.036034398 -0.033770163
0000e0 9a 1b e8 bc 38 bc 42 3d 5e f0 a6 3b 3b 9f 68 bd
       -0.028333474 0.04754278 0.005094572 -0.05679248
0000f0 08 a6 17 bd 51 3c 8a bd 3a 44 da bc d0 91 42 3d
       -0.037023574 -0.06749786 -0.026643861 0.04750234
000100 c1 ff 66 3d e0 ef 3d bd 94 58 03 3d ac 2f 8b 3a
       0.05639625 -0.04637134 0.032066897 0.0010619066
000110 df 66 11 bd 43 f8 eb bb 7d 07 13 3d fe a9 24 bd
       -0.035498496 -0.007201226 0.035895813 -0.04020118
000120 52 4a 27 ba a7 8f 47 3d 11 b9 49 bd ce b8 f1 bc
       -0.0006381619 0.048720982 -0.04924876 -0.029507067
000130 4f d5 81 3d d0 0b dd 3b 3e a5 6d 3d 58 d7 d3 3c
       0.063395135 0.006745793 0.058018915 0.02585952
000140 4c 32 97 bc 76 8b 85 3d 64 3f 1a bc b7 5b af 3a
       -0.0184566 0.06520741 -0.009414528 0.0013378774
000150 10 e6 f9 3c ce 2c 93 3c aa e2 79 3d aa eb 7a 3d
       0.03050521 0.0179657 0.06100718 0.061259903
000160 a0 49 c7 3c c8 3e 8b 3d ac 50 0a 3d b4 06 11 bd
       0.0243271 0.06799084 0.03376834 -0.035406783
000170 db e6 77 3d 54 ef 3e bc 16 a0 61 3d 27 b8 85 bb
       0.060522895 -0.01165374 0.05508431 -0.0040807906
000180 68 d4 61 bc 28 98 7f 3c af 93 89 3d 66 5d 32 bd
       -0.013783552 0.015600242 0.067176215 -0.043546103
000190 30 e2 de bc 9b 92 99 3b 9e 45 1e bd 20 f2 1d bd
       -0.027207464 0.004686666 -0.03864061 -0.038560987
0001a0 ed 0c 82 bc 69 01 82 3d f7 99 8f bc 00 73 31 bd
       -0.015875304 0.06347925 -0.01752947 -0.043322563
0001b0 be 15 1a bc 70 ef b5 bc 2c b3 0d bd 40 c9 5e 3d
       -0.009404598 -0.0222089 -0.0345947 0.054391146
0001c0 2f 7e fe 3b 7f 95 3e 3d ab 71 e7 bc a3 15 15 3d
       0.007766507 0.04652929 -0.028252443 0.036397588
0001d0 71 aa 4d bd ea 40 6b 3d 92 44 26 3c 4d 16 13 bd
       -0.050211374 0.057434954 0.010148184 -0.03590994
0001e0 f8 da 0b 3d 61 c1 4b bb 21 87 43 bb 98 bb 52 3d
       0.03414437 -0.0031090605 -0.0029835182 0.051448435
0001f0 96 64 60 bc 74 ab 7c 3d 04 7a 7f ba c2 3b d1 bc
       -0.013695857 0.061686948 -0.000974566 -0.02554119
000200 58 49 f8 3c f6 d1 1f bd b7 46 b2 3b 9d e3 0c bd
       0.03030841 -0.039018594 0.005440559 -0.034396756
000210 de 2e 06 bd 08 98 37 3c 0d 7d 40 bc c6 27 94 bc
       -0.03275954 0.011205681 -0.011748564 -0.018085372
000220 54 b6 89 3c ef f1 f4 3c 85 cb 21 3c ae 03 7e bd
       0.016810574 0.02990052 0.009875183 -0.062015228
000230 7c f9 f3 bc 81 3d a2 bd 0f e3 d1 3c a1 9f 51 3c
       -0.02978205 -0.07921887 0.025620965 0.012794406
000240 02 81 69 3d fb cd ae bb 7c c1 f4 bc c7 e1 52 bc
       0.057007797 -0.0053346134 -0.029877417 -0.012871212
000250 54 2e 6b 3d e6 38 0b bd 82 75 d4 bb e7 6d 26 bd
       0.05741723 -0.03398981 -0.0064837346 -0.040632155
000260 de ce 1d bd 43 42 2c 3d 7b b9 93 3c 9c dc b1 bc
       -0.038527362 0.04205538 0.01803278 -0.02171164
000270 4c 19 f0 bc 49 4a d3 3c 7d f3 0d bd ea 1a 2a bd
       -0.029308937 0.025792258 -0.034656037 -0.041529574
000280 9a c2 8e 3b 30 6e 3d bd f2 1d 18 bd 50 77 c2 bc
       0.0043566944 -0.04624766 -0.037137933 -0.023738533
000290 8a 82 6c 3d b3 f4 63 bd 34 64 22 3d 17 4d 26 bd
       0.05774168 -0.055653285 0.039646342 -0.040600862
0002a0 f0 79 ee 3b 85 3d 07 bd 9d 27 0a 3d 6b 03 5a bd
       0.0072777197 -0.033017654 0.033729184 -0.053225916
0002b0 75 47 88 3c e8 93 e5 bc 3e 89 d5 3c 8b 4b 8c bc
       0.016635636 -0.028024629 0.026066419 -0.017125865
0002c0 10 07 b8 bc 72 07 1e bd 99 02 a9 bc c0 d8 a0 bb
       -0.022464305 -0.03858132 -0.020631121 -0.004908651
0002d0 d0 90 56 bc 92 92 5e bd b3 af e2 bc 50 8b c1 3c
       -0.013096049 -0.054339 -0.02767167 0.023626
0002e0 bb 09 2e bd 82 39 29 3a 56 2d 2c bd 8a f2 6a 3b
       -0.04248975 0.0006455408 -0.042035423 0.003585013
0002f0 8e 4a 1f bd 8c 34 f9 bb 3a 4f d4 ba ca 35 e5 3c
       -0.03888946 -0.007605141 -0.0016197928 0.02797975
000300 b8 f8 3e bd 17 2c 5c bd 88 88 dd 3c 7b c1 74 3b
       -0.046623915 -0.053752985 0.027042642 0.0037346769
000310 e4 e2 ba 3c 8a 4c 5a bd 5a 8c 81 3d 8a 54 0b bd
       0.022813268 -0.05329565 0.06325598 -0.03401617
000320 06 ef 2a 3b f5 7f 2d bc 4a 60 29 bd 1a ca 02 3d
       0.002608241 -0.010589589 -0.041351594 0.03193102
000330 27 dc e8 3c ba 1a 9c bc 2e 99 3f 3d f4 03 bc bc
       0.02842529 -0.019055713 0.046776943 -0.022951104
000340 b7 db 88 bc 39 44 da 3c c6 02 16 bc e2 f0 6c 3c
       -0.01670633 0.02664386 -0.009155935 0.014461728
000350 c7 2b bd 3c 4f 52 25 bd 87 e9 68 3d 8d 55 82 3d
       0.023092164 -0.0403617 0.056863334 0.06363974
000360 8e 8a 50 bd 4a 49 27 3d d0 93 4a 3d 04 2b e5 3c
       -0.050913386 0.04084138 0.04945737 0.027974613
000370 e6 61 49 bc 4e 8e 6a 3c 0d 1a 43 bd ed f0 89 bc
       -0.012291407 0.014316155 -0.047632266 -0.016838515
000380 27 3e 03 3d e7 5b 29 bc 02 fb 44 3d b2 ff 97 3d
       0.032041695 -0.010336853 0.048090942 0.07421817
000390 dd f3 5d 3d 52 2f 3d 3d cc 65 2b bd be 67 28 bd
       0.054187644 0.046187706 -0.041845128 -0.04111456
0003a0 30 d9 53 bc 28 b7 f9 3c 31 f3 44 bd 78 55 4b 3d
       -0.0129301995 0.030482844 -0.048083488 0.049642056
0003b0 5d 2e d3 3c 67 2e d9 3c 92 c0 60 3d 89 f3 d5 39
       0.025778944 0.026511384 0.05487115 0.00040807974
0003c0 40 6f 89 3d 78 aa 63 bd f2 f4 64 3d ca 09 64 3d
       0.067106724 -0.055582494 0.05589766 0.055673398
0003d0 da 69 2f bd de 13 1f bd d3 59 a3 3d ed ea 0d 3d
       -0.042825557 -0.038837306 0.07976117 0.03464787
0003e0 83 48 87 3d f2 8e 4b 3d ec a0 29 3a bd 6e 14 bd
       0.066056274 0.04969687 0.00064708176 -0.03623842
0003f0 64 8a 02 3c 84 f5 7c 3d 95 1f c2 bb fe 84 2e 3d
       0.007967565 0.06175758 -0.005924175 0.0426073

weight_mu f4 [1, 256]
000000 73 22 b3 3d 09 60 46 3d 27 70 c6 3d f9 e4 f1 bc
       0.08746805 0.04843143 0.0968936 -0.029528128
000010 70 85 7d bd b4 80 5e bd 18 32 a0 3d b8 0e 50 3d
       -0.061894834 -0.05432196 0.078220546 0.050795287
000020 f0 b4 80 3d dc 1c a1 3c 71 00 47 bd 76 00 c9 3d
       0.06284511 0.019667082 -0.048584405 0.09814541
000030 3b 27 80 bd c3 a1 60 bd e0 46 2c 3d 5f 06 48 bd
       -0.062574826 -0.054841768 0.04205978 -0.0488342
000040 90 a0 28 bd 9b 29 60 bd f4 f5 d1 3c e8 ed 1b 3c
       -0.04116875 -0.054727178 0.025629975 0.0095171705
000050 ef a1 2b bd ea 06 18 3d 42 e4 1c 3d 92 a7 aa bd
       -0.04190248 0.03711597 0.03830362 -0.08332743
000060 69 66 53 3d b8 9f 38 bc 20 34 bc bc 48 7b 5d 3e
       0.051611338 -0.011268549 -0.022974074 0.2162906
000070 dc c1 e2 3d c1 d6 c9 3c fd 15 6b 3c dc bb 83 3c
       0.11072132 0.024638535 0.014348504 0.01608079
000080 88 e4 59 ba 6e 98 64 3d d1 0d 58 3d a8 77 05 bc
       -0.0008311947 0.05580943 0.05274755 -0.008146204
000090 06 85 2b 3d 51 e9 5b 3d a2 62 e0 3c 73 db fb bc
       0.041874908 0.053689305 0.027390782 -0.03074429
0000a0 64 08 af bc 1c a1 38 bd 08 c4 c6 3a 76 c3 1f bd
       -0.021366306 -0.04507552 0.0015164623 -0.039004765
0000b0 00 94 82 bb f7 9c 1b 3e d1 f7 25 3d 59 4d d9 bc
       -0.003984928 0.15196596 0.04051954 -0.02652614
0000c0 f2 c8 6a bd 70 f6 76 3c 18 42 00 3d 46 e7 9b bd
       -0.057320543 0.015073404 0.031313032 -0.07612471
0000d0 42 87 26 3d 99 ea 5d bd 9e 68 2d 3d a6 32 9a bc
       0.040656336 -0.054178808 0.0423361 -0.01882298
0000e0 d3 36 6b 3d da c1 7a bd 55 bb 1d bc 85 14 92 3c
       0.05742533 -0.061220028 -0.009627183 0.01783205
0000f0 56 0c 17 bd a4 31 93 bd 2e 97 19 bc a9 74 5a 3d
       -0.036877 -0.071872026 -0.009374423 0.053333912
000100 50 84 a4 3d 2d 2f 09 3d 60 a0 6f 3b ae 83 2f 3d
       0.08033049 0.033492256 0.0036564097 0.04285019
000110 f2 ee d6 bd fe 41 1a bd 4c 2c 8a bc 2c 91 7d 3d
       -0.10494794 -0.03766059 -0.016866826 0.061906025
000120 6e 69 62 3c 0f 28 d9 bd 36 be 35 bd 3c d4 00 3d
       0.013819082 -0.10603344 -0.044370852 0.031452402
000130 c4 ca 91 3d 1c 5f 50 3d f8 66 57 3c 3c 0b fe bc
       0.071187526 0.050871953 0.013147108 -0.031011216
000140 83 28 65 3b bd c3 95 3d 60 2c 92 bd 09 f4 dc bd
       0.0034966774 0.07312725 -0.0713737 -0.107887335
000150 f3 97 f9 bd 24 03 9f 3d 80 be 6a 3b 33 9d b6 3d
       -0.12187185 0.07764271 0.0035819113 0.08916702
000160 5d d3 16 3d 0e ec 26 be 20 10 45 bd da 51 2a 3d
       0.036822665 -0.16300985 -0.04811108 0.041581966
000170 5a 1b 86 3c 4e 09 a7 bb 14 0f 1f 3d d0 27 56 3d
       0.016370464 -0.0050975448 0.03883274 0.052284062
000180 d0 df 35 3d 38 1f 2f 3c aa ba 5f 3d 74 37 a0 bc
       0.044402897 0.0106885955 0.054621376 -0.019557692
000190 24 7e ec bc 33 08 c0 3c 80 2c 43 bd c0 37 6e bd
       -0.028868742 0.02344141 -0.04764986 -0.058158636
0001a0 8a 56 d7 3d 26 0b e9 bd a2 88 ce bd dd 42 13 bd
       0.10514553 -0.113790795 -0.100846544 -0.035952438
0001b0 73 eb 70 3d b3 71 7d 3d e0 0b cb bb 7c cd 0b bd
       0.058818292 0.06187601 -0.006196484 -0.034131512
0001c0 df 58 09 be 9f 92 3f 3d a4 ab 0a bb a3 8f bd 3d
       -0.13412808 0.04677069 -0.0021159435 0.09255912
0001d0 b9 6a 5e 3d 9a 72 03 3e 92 39 01 be e0 ba c6 3d
       0.054300997 0.12836686 -0.12619618 0.09703612
0001e0 c0 6a 10 bc 2f d7 38 3d 7f 8e 3b 3d ac 26 4f 3d
       -0.008814514 0.04512709 0.04579019 0.05057399
0001f0 7d 35 5e 3d d9 27 e3 bd 3c b4 1b 3d 9f b9 d5 bd
       0.05425023 -0.11091585 0.03801368 -0.10435795
000200 ce e1 45 bc 96 31 20 bd de b8 a9 bc cc b4 86 3c
       -0.012077762 -0.03910979 -0.020718034 0.016443633
000210 14 8b 70 3d aa 76 06 3d a3 4c 9c 3d 06 19 24 3d
       0.058726385 0.03282801 0.07631805 0.040062927
000220 20 af 4d 3d e8 82 14 3d 2a 0d 0b 3d 50 44 41 bd
       0.05021584 0.036257654 0.0339481 -0.04718429
000230 f7 fe 3e bd 13 f7 c8 3c f3 a7 c1 3d 17 17 10 bd
       -0.046629872 0.024531877 0.09455862 -0.03517827
000240 fc dd 02 3d 62 72 59 bd 9c ae 00 3d f9 ab dd 3d
       0.031949982 -0.0530876 0.03141652 0.10823817
000250 ec 2a 31 bd 40 65 4b bc 82 8c 65 3d 89 05 d3 3c
       -0.043253824 -0.012414277 0.0560422 0.025759475
000260 b8 96 46 3d 63 83 9b 3d 62 3b 02 3e 86 a7 12 3d
       0.04848358 0.075934194 0.12717965 0.035804294
000270 89 7d 58 3d ea ee 68 3d 65 9c 18 bd 78 1d 6a 3c
       0.052854095 0.05686847 -0.037258524 0.014289252
000280 54 14 16 3d 83 e6 ef 3b 4f fb 5b bd 1c a9 c1 bd
       0.03664048 0.0073211803 -0.053706463 -0.09456083
000290 04 ed 09 3d d0 86 c8 bb 22 03 27 bd b9 67 52 3d
       0.0336733 -0.0061195865 -0.040774472 0.05136845
0002a0 80 fc ab 3c 14 51 84 bc c9 5a 13 3e d9 7d 1c 3c
       0.020994425 -0.016151942 0.143901 0.009551489
0002b0 e7 e7 9f 3d c6 e1 7b 3d 58 3b a8 3d 17 ad 7b 3d
       0.07807904 0.06149461 0.08214444 0.06144437
0002c0 75 0a 9e 3d 49 9b 00 3c 6b 7f 21 3d 7e f2 57 3d
       0.07716838 0.007849523 0.039428156 0.052721493
0002d0 b8 ba b4 bc df ed 35 3d fa b2 6c 3d 73 94 72 3d
       -0.02206169 0.044416305 0.057787873 0.059223603
0002e0 b1 8d c9 3d c9 8e 5c bd 79 b8 ed bd b4 a2 f9 3c
       0.098414786 -0.053847108 -0.11607451 0.03047309
0002f0 c2 24 ef 3c c2 22 67 3d 3b af f6 bb 23 d9 f8 bc
       0.029192332 0.056429632 -0.0075282133 -0.030376976
000300 07 99 30 3d ad 3d 95 3d 49 15 ac 3d 15 15 0e bd
       0.04311469 0.07287154 0.08402497 -0.034688074
000310 08 61 17 3c 34 d8 f6 bc 09 01 d9 bc e9 47 4f 3d
       0.009239443 -0.03013239 -0.026489751 0.05060569
000320 3a 2d e2 3a 11 5b 9b 3d 14 34 32 bd c3 32 59 3d
       0.001725591 0.07585729 -0.043506697 0.053026926
000330 a2 35 34 3e 2d 9b 68 3d a7 82 4c bd 80 2b b4 3c
       0.17598584 0.056788612 -0.049929287 0.021993399
000340 ef 44 55 3d ec 7b f7 3b e7 75 ad 3c 14 ec 8e 3d
       0.052067693 0.0075526144 0.021174384 0.06978622
000350 00 c3 c5 bc bf 37 3e 3d 94 8a 33 be 25 f0 02 3d
       -0.024140835 0.046439882 -0.17533332 0.0319673
000360 22 13 9d bd 6e 35 09 bd 7d f1 1e 3d f8 3d 95 3c
       -0.07669665 -0.03349822 0.03880452 0.018218026
000370 73 b3 99 3d aa f9 42 3d 93 3f 85 3d 70 b3 bf bc
       0.0750493 0.04760138 0.065062664 -0.023400992
000380 7b 37 2e 3d 85 d8 1b 3d b2 ba dc bc 1e 03 d5 3d
       0.04253338 0.038048286 -0.026944492 0.10400985
000390 08 de 51 bd a4 81 e4 3c 50 2f 9b 3c 32 a6 3f bd
       -0.051237136 0.027893849 0.018943459 -0.046789356
0003a0 c6 a4 90 bd be 7f ce 3d 1c c5 0f 3d 3f f2 a9 3c
       -0.07062678 0.10082959 0.035100088 0.020745395
0003b0 d5 7f 34 be cb fc bd bd 88 eb 9a 3c a2 5f 6d bd
       -0.17626889 -0.09276732 0.018911138 -0.05795253
0003c0 e6 b6 d2 bd 56 f4 a7 bd 96 64 a0 3c ff 24 3e 3d
       -0.10288791 -0.082009 0.019579213 0.046422
0003d0 a0 bc 83 3d 9d 63 19 3d 77 5f 38 3e f5 de ae 3d
       0.06432462 0.037448514 0.18005167 0.085386194
0003e0 d1 62 95 3d 85 53 2e be c6 46 e8 bc aa 7e 45 bb
       0.07294238 -0.17024048 -0.02835406 -0.0030135312
0003f0 ed 4c 1c 3b a2 57 72 3d 2a 5e b3 3c 82 8d 69 3d
       0.0023849562 0.059165604 0.021895487 0.057019718

weight_sigma f4 [1, 256]
000000 18 8d 39 3c 00 00 00 3d 3b 01 28 39 66 d3 ac 3c
       0.011325143 0.03125 0.00016022187 0.021096896
000010 00 00 00 3d 8a 93 07 3d 09 a4 b9 3b 82 b7 25 3b
       0.03125 0.03309969 0.0056653065 0.002528638
000020 9b 37 85 3b 00 00 00 3d 60 6f 96 3c 8a 7a fa 3b
       0.0040654666 0.03125 0.018363655 0.0076440023
000030 f9 e2 b9 3c c0 e3 e0 3c 00 00 00 3d dd 10 ac 3c
       0.022691237 0.02745235 0.03125 0.021004135
000040 88 d7 d6 3c 00 00 00 3d 00 00 00 3d 00 00 00 3d
       0.02622582 0.03125 0.03125 0.03125
000050 00 00 00 3d bb a9 55 3c 00 00 00 3d 8a ae b8 3c
       0.03125 0.013040955 0.03125 0.022544164
000060 e3 4f f9 3c c2 0b ef 3c e2 91 ee 3c 83 a8 1a 3c
       0.0304336 0.029180411 0.029122297 0.00943959
000070 94 10 2e 3c eb bf f4 3c da a3 aa 3c 5b 21 f1 3c
       0.01062407 0.02987667 0.020830084 0.02943485
000080 fd 5f 3f 3c 75 2a 14 3b 1d d6 08 3d 00 00 00 3d
       0.0116806 0.0022608314 0.03340732 0.03125
000090 b4 a4 01 3d 6a e3 ec 3c 3b 5d f3 3c 5b f0 f4 3c
       0.031651214 0.028917033 0.029707542 0.029899767
0000a0 00 00 00 3d 00 00 00 3d 47 82 00 3d 00 00 00 3d
       0.03125 0.03125 0.031374242 0.03125
0000b0 00 00 00 3d 95 2f e0 3b c3 31 3e 3c fa 32 00 3d
       0.03125 0.0068416097 0.011608544 0.031298615
0000c0 00 00 00 3d 00 00 00 3d 00 00 00 3d 8e f4 b5 3c
       0.03125 0.03125 0.03125 0.02221134
0000d0 bd a9 cb 3c 25 e2 03 3d cb 79 fb 3c fb 56 f3 3c
       0.024861211 0.03219809 0.030697724 0.029704561
0000e0 d6 e4 9c 3b 00 00 00 3d 5b 79 f3 3c 8b 42 ff 3c
       0.0047880216 0.03125 0.029720953 0.03115966
0000f0 00 00 00 3d be 42 82 3c 23 d1 f1 3c 13 c6 fd 3c
       0.03125 0.015900966 0.02951867 0.030978238
000100 91 55 89 3b 93 e4 fa 3c 00 00 00 3d c3 2c f6 3c
       0.0041911085 0.03062657 0.03125 0.03005064
000110 81 15 8e 3c 00 00 00 3d a5 c9 05 3d 2d ed 34 3c
       0.017344238 0.03125 0.032663006 0.011042875
000120 b5 ed bd 3c e2 41 87 3c d8 1e ce 3c 3a e5 38 3c
       0.023184637 0.016510908 0.025161192 0.011285121
000130 f2 2f 7e 3b 00 00 00 3d cf c2 a6 3c 00 00 00 3d
       0.0038785902 0.03125 0.020356564 0.03125
000140 00 00 00 3d cd 84 f2 3a 0a f1 c2 3c 32 4e 4e 3c
       0.03125 0.0018502712 0.023796577 0.012591885
000150 41 02 7f 3c 0b 20 38 b9 00 00 00 3d ab be 16 3b
       0.015564502 -0.00017559544 0.03125 0.002300183
000160 4b 60 00 3d 8b b6 bc 3c 00 00 00 3d 00 00 00 3d
       0.031341832 0.023036262 0.03125 0.03125
000170 c5 8e c7 3c 31 29 e7 3c 00 00 00 3d 04 62 13 3c
       0.02436007 0.028217884 0.03125 0.008995537
000180 00 00 00 3d 00 00 00 3d 63 e7 d8 3b 00 00 00 3d
       0.03125 0.03125 0.0066193803 0.03125
000190 00 00 00 3d 5c c2 13 3c da ae e8 3c 00 00 00 3d
       0.03125 0.009018507 0.028403688 0.03125
0001a0 86 76 9d 3c 10 a8 7e 3c ca e0 3a 3c ea 53 ed 3c
       0.019221555 0.015542999 0.011406133 0.028970677
0001b0 23 22 f1 3c c3 27 fb 3c 00 00 00 3d bb 70 f6 3c
       0.029435223 0.030658608 0.03125 0.030083051
0001c0 3e 21 0e 3c 13 4e f8 3c aa 0f ef 3c b4 54 46 b8
       0.008674918 0.030310666 0.029182274 -4.7285765e-05
0001d0 ed 8a 01 3d f0 be 03 3c 06 f7 fa 3b 24 11 52 39
       0.03162663 0.0080411285 0.007658842 0.00020033546
0001e0 00 00 00 3d ad 5e 18 3d bd 5a 02 3d 00 00 00 3d
       0.03125 0.037199665 0.031824816 0.03125
0001f0 2e f8 01 3d 43 b6 87 3c 00 00 00 3d 6c e3 65 3c
       0.031730823 0.016566401 0.03125 0.014031272
000200 bc 4d b5 3c 00 00 00 3d 34 7b f1 3c ab 05 00 3d
       0.022131793 0.03125 0.029477693 0.031255405
000210 00 00 00 3d 00 00 00 3d 97 a1 a9 39 bb e9 e6 3c
       0.03125 0.03125 0.00032354586 0.028187623
000220 9d ae 00 3d 4b 97 6e 3c f9 b3 45 3c 38 43 c9 3c
       0.031416524 0.014562438 0.012066835 0.024568185
000230 b1 ff dd 3c 6d 1b 99 3c 73 a3 b4 3a a3 16 b3 3c
       0.027099462 0.018689835 0.0013781622 0.02186138
000240 22 dc eb 3c 98 f1 f7 3c 22 a4 ec 3c ea 16 21 3b
       0.028791491 0.030266568 0.028886858 0.0024580308
000250 00 00 00 3d 55 41 07 3d ed 20 02 3d cb 6c f9 3c
       0.03125 0.03302129 0.03176968 0.030447384
000260 ba 77 00 3d fe 4e e7 39 dd 52 c1 3a 00 00 00 3d
       0.03136418 0.00044118607 0.0014749427 0.03125
000270 f0 4a df 3c 93 3b f9 3c a2 af e8 3c 00 00 00 3d
       0.027257413 0.030423915 0.02840406 0.03125
000280 40 e6 ac 3c b9 69 da 3c 83 43 dd 3c 9b 6c e0 3c
       0.021105886 0.02666174 0.027009731 0.027395537
000290 3c e9 fd 3c fb 27 ff 3c 00 00 00 3d d4 4d f7 3c
       0.030995004 0.031146994 0.03125 0.030188479
0002a0 00 00 00 3d f6 86 00 3d 66 9d 89 3b bd 20 ed 3c
       0.03125 0.03137871 0.0041996716 0.028946275
0002b0 b7 d7 af 3b 00 00 00 3d 6d e4 bf b9 42 69 03 3b
       0.0053662914 0.03125 -0.0003660055 0.0020051752
0002c0 54 5d 4c 3a e4 9a 10 3c fb 8a 52 3c 00 00 00 3d
       0.00077958894 0.008825991 0.012850518 0.03125
0002d0 00 00 00 3d 3f 5c ba 3c 34 fc 01 3d cb 57 f0 3c
       0.03125 0.022749064 0.03173466 0.029338738
0002e0 55 07 80 3c 35 50 62 3c ef 21 c9 3c 5b 36 fa 3c
       0.015628496 0.013813068 0.024552314 0.030543497
0002f0 93 dc f3 3c 2b a2 fa 3c 0a 95 eb 3c 91 78 da 3c
       0.029768264 0.030594906 0.02875759 0.026668819
000300 dd 76 02 3d da 38 12 38 60 c0 18 3b f4 a0 f2 3c
       0.031851638 3.486206e-05 0.0023308024 0.029617764
000310 00 00 00 3d 00 00 00 3d 86 e6 eb 3c a9 1f c3 3b
       0.03125 0.03125 0.028796446 0.005954702
000320 a3 2a fa 3c d5 72 42 3c 00 00 00 3d 54 1f 83 3c
       0.030537909 0.011868198 0.03125 0.01600615
000330 f7 35 f4 3b 19 64 90 3c 4d be c2 3c cd 59 cb 3c
       0.007452722 0.017625855 0.023772383 0.024823094
000340 4f 5e c7 3b 2b 6f f6 3c 63 7c fc 3c 7e a4 d6 3c
       0.0060842405 0.030082306 0.030821031 0.026201483
000350 d2 ad e7 3c 3f 7b 00 3d 28 10 a9 3b ee b1 99 3c
       0.028281126 0.031367537 0.0051593967 0.018761601
000360 7e 0f 69 3c 00 00 00 3d 21 16 da 3c 00 00 00 3d
       0.014224885 0.03125 0.02662188 0.03125
000370 04 cd 6b 3b d7 60 5c 3c 05 a2 ae 3a ab a9 ff 3c
       0.0035980353 0.013450823 0.0013323432 0.031208834
000380 5a 82 d3 3c d3 07 f2 3c 9b 7b d9 3c 71 e7 ec 3c
       0.025818992 0.029544747 0.026548197 0.028918954
000390 1c 27 92 3c 00 00 00 3d 00 00 00 3d 00 00 00 3d
       0.017840914 0.03125 0.03125 0.03125
0003a0 96 ef 7b 3c e0 67 32 3c db 14 f1 3c bd fa e6 3c
       0.015376946 0.010889024 0.02942889 0.028195733
0003b0 f7 cd d3 3b ad 8b 5f 3c 00 00 00 3d 49 1b df 3c
       0.006463762 0.013644141 0.03125 0.02723469
0003c0 c0 31 ad 3c 4f 68 b5 3c 1d 3f 04 3d 43 27 f9 3c
       0.021141887 0.022144465 0.032286752 0.03041423
0003d0 77 43 14 3c da a2 ea 3c 0b c6 31 3c f6 e2 3b 3a
       0.009049288 0.028642107 0.01085044 0.00071673037
0003e0 7b 46 5b 39 a4 0c e1 3b a8 b3 3d 3c bc eb c7 3c
       0.00020911724 0.006867962 0.011578478 0.0244044
0003f0 03 dd fb 3c 00 00 00 3d c6 c1 90 3c c3 33 00 3d
       0.030745035 0.03125 0.017670523 0.031299364

weight_epsilon f4 [1, 256]
000000 4b 1c 3b bf 59 b1 99 3f 92 05 f1 3f f8 42 72 bf
       -0.73090047 1.2007247 1.8829825 -0.94633436
000010 c9 73 93 be 6b 78 56 bf 70 6a 45 3f a2 c5 82 3f
       -0.28799275 -0.83777493 0.77115536 1.0216563
000020 57 b2 9a bf 76 a6 3e bf a1 23 20 bf 44 cc 98 3f
       -1.2085675 -0.7447275 -0.62554365 1.1937337
000030 16 7a a3 3f 1c 96 b4 bf 87 49 5b 3f d9 05 b5 3f
       1.2771633 -1.410831 0.8565907 1.414241
000040 7a ee b2 3f ed dd a5 bf 4c 48 d7 bf 97 0e 60 bf
       1.3979027 -1.2958351 -1.6818938 -0.8752226
000050 b5 e0 02 bf 39 82 ed 3f 16 f0 c8 3f fa 3f 35 bf
       -0.51124126 1.8555366 1.5698268 -0.70800745
000060 39 fc 3a bf 9f 74 95 3f 0f 26 b0 3f 16 fa af bf
       -0.7304111 1.1676215 1.3761615 -1.3748195
000070 21 e8 01 bf 8f 1d cd bf 5d 96 7a 3f 17 a3 8b 3f
       -0.50744826 -1.6024646 0.97885686 1.0909146
000080 06 84 67 3f ab 47 be 3f 90 c5 de 3e 59 16 a5 3f
       0.90435827 1.4865621 0.43510103 1.2897445
000090 c0 79 66 3f 97 61 a6 3f 35 44 ab 3f 59 a9 85 3f
       0.90029526 1.2998532 1.338019 1.0442306
0000a0 a0 95 a2 3f e7 1b a5 bf a8 56 ed bf a6 2c 4e 3f
       1.2701912 -1.289914 -1.854207 0.8053688
0000b0 ec 6c ee bf 75 17 bc 3f ca bf 08 bf 60 8b f8 bf
       -1.862699 1.4694659 -0.53417647 -1.9417534
0000c0 a7 ba a2 3f e7 cb 8b bf 8e bc 3f bf 71 ff b5 3f
       1.2713212 -1.0921601 -0.74897087 1.421858
0000d0 f0 23 b8 3f ac 71 bf 3f c7 ce 9c 3f c0 33 ac bf
       1.4385967 1.4956565 1.2250603 -1.3453293
0000e0 1d 6a 9d bf e9 9f b6 bf 82 c8 87 3f 75 a9 d6 3f
       -1.2298008 -1.4267551 1.0608065 1.6770464
0000f0 cc 6a bd 3e 03 e8 50 bf fb ef ca bf 8e 90 6f bf
       0.36995542 -0.8160402 -1.5854486 -0.9357995
000100 f3 60 ff 3e c2 32 05 3f 10 c3 bd 3f 42 48 c6 bf
       0.49878654 0.52030575 1.4825153 -1.5490801
000110 c7 0a 54 bf b7 18 c7 3f b2 81 7b bf 40 c0 fd be
       -0.82828945 1.5554417 -0.98244774 -0.49560738
000120 59 fb 69 3f ed 28 ab bf c0 3c c5 3f 1a 55 56 3f
       0.9139915 -1.3371865 1.5409164 0.83723605
000130 ce f4 a8 3f 7b f3 05 c0 41 95 a5 bf a6 38 bd 3f
       1.3199708 -2.0929859 -1.2936174 1.4782913
000140 60 63 85 3f 56 b3 2f 3f b2 d1 de 3e 66 3f 3e 3f
       1.0420952 0.6863302 0.4351936 0.7431549
000150 25 29 30 3f dc 3d 32 bf 60 07 a3 bf c3 c5 e4 bf
       0.6881278 -0.6962564 -1.2736626 -1.7872852
000160 89 bd b8 3f 44 43 7a bf a7 8f fa bf 57 ee a8 bf
       1.4432842 -0.9775889 -1.9575089 -1.3197736
000170 a2 d5 95 bf fa 79 9f bf 72 7e 8b bf e5 f2 e3 bf
       -1.170582 -1.2459099 -1.0897963 -1.78085
000180 9c 38 d7 3f d4 72 99 3f 26 12 fe bf e5 37 e9 bd
       1.6814151 1.1988168 -1.9849288 -0.11387614
000190 3d d0 d0 bf cf 74 d0 bf 4c 1e d4 bf 08 4a 37 bf
       -1.6313549 -1.6285647 -1.6571746 -0.7159734
0001a0 53 5b 4d 3f 95 d1 ab bf 9b 62 46 3f ac ab 78 3f
       0.80217475 -1.3423334 0.7749421 0.9713695
0001b0 8f cb 9b 3f ee 49 dd be 32 09 90 bf 27 43 f5 3f
       1.2171496 -0.43220466 -1.1252806 1.9161118
0001c0 37 1a 87 bf fe 9f 29 3f de d5 a7 bf 49 8f 22 3f
       -1.0554875 0.66259754 -1.3112142 0.63499886
0001d0 11 5c b8 3f c5 ce a9 3f c9 6c 60 bf fd cb 67 bf
       1.4403096 1.3266226 -0.8766599 -0.90545636
0001e0 1f e4 84 3f 27 98 f4 bf d2 f5 96 bf f5 f7 30 3f
       1.0382117 -1.9108933 -1.1793768 0.6912835
0001f0 77 4a ae 3f ca 99 d6 3f 78 d0 de 3f f1 a6 3a bf
       1.3616475 1.6765683 1.740737 -0.7291098
000200 cc 59 ce 3f a9 fc ff bf 1c f7 7a bf 20 72 76 3f
       1.6121154 -1.9998981 -0.9803331 0.9626789
000210 8c f2 ae 3f dc a8 14 bf 14 d1 df 3f 52 32 b0 3f
       1.366777 -0.5807016 1.748568 1.3765357
000220 e9 fd 15 be 09 91 70 bf c3 4b 31 3f 24 84 5b bf
       -0.1464764 -0.93971306 0.6925623 -0.85748506
000230 fb 9d e9 bf 9d 2a c0 3f c7 0c d8 bf 9c f1 99 bf
       -1.8251337 1.5013005 -1.6878899 -1.2026858
000240 96 60 c2 3f 2e f9 be be 8c 89 95 3f 77 c3 b0 3f
       1.5185726 -0.37299484 1.1682601 1.3809651
000250 62 7e be bf 36 5f 93 bf 57 17 24 bf 69 11 7d bf
       -1.4882319 -1.1513431 -0.64098114 -0.9885469
000260 5b 71 5f bf ad 27 9e 3f 01 f3 a5 bf 42 fd 99 3f
       -0.8728234 1.2355858 -1.2964784 1.2030413
000270 2f de a1 bf b1 c2 bb bf f0 44 e0 3f df d9 83 bf
       -1.264593 -1.466879 1.7521038 -1.0300864
000280 f0 ad a3 bf 9d fe 53 3f 0a da ab 3f af 8a c3 bf
       -1.2787457 0.82810384 1.3425915 -1.5276698
000290 d8 96 d4 bf 2e 14 63 bf da d3 ad bf c3 a7 ab bf
       -1.6608534 -0.88702667 -1.3580277 -1.3410572
0002a0 4c 20 ee bf 06 dc 6a 3f b4 7f bf bf 46 51 a5 bf
       -1.8603606 0.9174198 -1.4960847 -1.2915428
0002b0 13 81 7c bf dd da ad 3f e0 45 4a 3f 38 65 a6 3f
       -0.9863445 1.3582417 0.7901287 1.299964
0002c0 ea f4 3a 3f 01 e5 0b bf 1d 9c 86 bf d6 77 88 bf
       0.7302996 -0.5464631 -1.0516392 -1.0661571
0002d0 b8 1f de 3f 00 03 73 3f 73 d5 ad 3f 05 3e aa 3f
       1.735343 0.9492645 1.3580765 1.3300177
0002e0 2f ff 8a bf be c8 15 40 8e ea c4 bf ee 77 e4 3f
       -1.0859126 2.3403773 -1.538408 1.78491
0002f0 fc bd 22 3f 37 17 ff be cd 64 9c bf 6f 4d 8f bf
       0.63571143 -0.498224 -1.2218262 -1.1195506
000300 63 e9 e9 bf ba 76 d4 3f 0e 7e a6 bf 7f ea d7 bf
       -1.8274349 1.6598732 -1.3007219 -1.6868438
000310 f3 e8 a7 bf 4a a0 13 c0 cd 06 c7 3f 4c db 3f 3f
       -1.3117965 -2.3066583 1.554895 0.74943995
000320 73 12 59 bf c0 84 81 3f a7 cf 6c bf 76 96 89 3f
       -0.84793776 1.0118637 -0.9250435 1.0749042
000330 fd c4 8b bf c2 c6 d8 bf 0a f6 82 bf 1f 21 9c 3f
       -1.0919491 -1.6935656 -1.0231335 1.2197608
000340 32 6f 50 3f 89 15 a9 bf ed 19 75 3f 07 48 6c 3f
       0.8141967 -1.3209697 0.95742685 0.92297405
000350 b4 c9 b3 3f 06 09 93 bf 9c 37 33 3f 51 2d d4 bf
       1.404593 -1.1487129 0.7000673 -1.657633
000360 0a a9 64 bf 6a c2 59 bf 1a 64 d1 bf 50 ff de bf
       -0.89320433 -0.8506228 -1.6358674 -1.7421665
000370 b3 a8 ce 3f f3 4c 93 3f ad 2b 91 bf 3a 8a a3 3f
       1.6145233 1.1507858 -1.1341454 1.2776558
000380 e6 77 f5 3e bb 19 24 bf df 1d 0b bf 99 f7 0b 3f
       0.47943038 -0.6410176 -0.54342455 0.5467468
000390 32 c3 b9 3f 55 83 0b 3f da bd 3d bf 5a 67 c4 bf
       1.4512694 0.5449727 -0.74117815 -1.534404
0003a0 30 22 b3 3f a5 45 f4 be 32 5d 09 bf 42 e2 86 bf
       1.3994808 -0.47709385 -0.5365783 -1.0537798
0003b0 20 82 f7 bf 43 62 b0 3f c7 e9 50 bf 69 ad 92 be
       -1.9336586 1.3779987 -0.81606716 -0.28647926
0003c0 c0 f8 13 bf 68 ac 9c 3f fc 85 54 3f 25 68 0f 3f
       -0.5780144 1.2240114 0.83016944 0.56018287
0003d0 76 90 7f 3f 27 d2 00 bf a1 d7 14 bf 58 3b cd be
       0.99829805 -0.5032067 -0.58141524 -0.40084338
0003e0 92 10 5a 3f a5 73 de 3f 66 af 39 3f fc ff 30 bf
       0.85181534 1.7379042 0.7253326 -0.691406
0003f0 43 92 0f bf dd 92 13 bf e1 f9 ec be ac 66 d9 3f
       -0.5608255 -0.5764597 -0.46284392 1.6984458
