experiments/diff_kappa_data/kappa1_3.5_kappa2_1_kappa3_1/dqn_proposed_erf.pth (torch, 306018 bytes, 6 tensors)

weight f4 [256, 4]
0	0xbe409c50	-0.18809628
1	0xbe6b61f8	-0.22986591
2	0xbec6c4a6	-0.38821906
3	0xbecc30c4	-0.39880955
4	0xbe9fe984	-0.31232846
5	0xbef6bf74	-0.48192942
6	0xbe2c60dc	-0.16833824
7	0xbed4acc4	-0.4153806
8	0x3dee690e	0.11641131
9	0xbed7fbd1	-0.42184308
10	0xbe960e07	-0.29307577
11	0x3e5cd433	0.21565323
12	0x3ec81be5	0.39083782
13	0x3d0b06d6	0.033942066
14	0x3d805088	0.0626536
15	0x3f1c4a35	0.6105073
16	0x3e0cae82	0.13738444
17	0x3d8aa677	0.06770032
18	0xbf13b8b6	-0.5770372
19	0x3f13963a	0.576511
20	0xbe76e108	-0.2410928
21	0xbe0b4adc	-0.13602775
22	0xba835925	-0.0010021074
23	0x3ecf1061	0.40442184
24	0xbe2cbf09	-0.16869749
25	0x3eba433c	0.3637942
26	0xbc906c87	-0.017629875
27	0xbf32f887	-0.6991047
28	0xbee0c9d6	-0.4390399
29	0x3f04ef11	0.51927286
30	0xbe97d080	-0.2965126
31	0xbf253efe	-0.64549243
32	0xbd8ee590	-0.06977379
33	0xbeb00d8c	-0.34385335
34	0x3f07d3f9	0.5305782
35	0x3ecc9a01	0.39961246
36	0xbdc45280	-0.09586048
37	0xbd2dd5c0	-0.042440176
38	0xbdc68510	-0.096933484
39	0xbef20ea4	-0.47276795
40	0x3ee2544b	0.44204935
41	0x3c760635	0.015016128
42	0xbea6475a	-0.32476312
43	0xbf198277	-0.599647
44	0xbee6f0b8	-0.4510553
45	0x3d1ff1a0	0.03904879
46	0x3d791050	0.060806572
47	0x3c904540	0.017611146
48	0x3e826863	0.25470266
49	0x3de54eb2	0.111966506
50	0xbc2e4dce	-0.010638667
51	0xbed7c0a8	-0.42139173
52	0xbdd20510	-0.10254872
53	0xbe571100	-0.21002579
54	0xbe262394	-0.1622451
55	0xbebbbee4	-0.36669075
56	0x37abe14a	2.0489697e-05
57	0x3ef026f1	0.4690471
58	0xbe804179	-0.25049952
59	0x3e5ef863	0.2177444
60	0x3d934ce0	0.07192397
61	0x3ef29fca	0.47387534
62	0xbdd41d20	-0.10357118
63	0x3f09b9e6	0.53799284
64	0x3e20f1cf	0.15717243
65	0x3e70008d	0.2343771
66	0xbead95cf	-0.33903357
67	0x3f4c5ea0	0.79831886
68	0x3e3b22b0	0.18274951
69	0x3e4f9523	0.20271735
70	0xbe93c856	-0.28863782
71	0xbdd287fc	-0.10279843
72	0x3e1f64f1	0.1556585
73	0xbc610b88	-0.013735659
74	0xbe86d366	-0.2633316
75	0xbf126211	-0.5718089
76	0xbd4f3f70	-0.050597608
77	0xbe312734	-0.17300111
78	0xbea99766	-0.3312332
79	0x3d962168	0.073305905
80	0xbe938d4e	-0.28818744
81	0xbe45d21d	-0.19318433
82	0x3e3cd762	0.18441537
83	0x3ef8d8d5	0.4860293
84	0x3b746e7f	0.0037297306
85	0x3efaa06b	0.48950514
86	0xbec00aad	-0.37508145
87	0x3e8ee51b	0.2790917
88	0x3ef4bf43	0.4780217
89	0xbea80183	-0.32813653
90	0xbe993b07	-0.29927847
91	0xbef2312f	-0.4730315
92	0x3d86ad5e	0.06576036
93	0x3ee41b9c	0.44552314
94	0xbef3a67c	-0.47587955
95	0xbebb497c	-0.36579502
96	0xbe9d08e8	-0.30670857
97	0x3f1d054c	0.6133621
98	0xbeabcc2c	-0.33554208
99	0xbea27c7a	-0.31735593
100	0x3e6cc31c	0.23121303
101	0x3d8d451b	0.068979464
102	0xbebdbea8	-0.37059522
103	0x3f0cadab	0.54952496
104	0x3de0b004	0.10971072
105	0x3ea6851e	0.32523435
106	0x3dfeba17	0.124378376
107	0x3ece21f7	0.40260288
108	0x3e80d364	0.25161278
109	0xbe6817ed	-0.22665377
110	0xbe8a52d4	-0.27016318
111	0xbed8e243	-0.42360124
112	0xbccc5d80	-0.024946928
113	0xbeefb798	-0.46819758
114	0x3d0b7190	0.03404385
115	0x3eccc17e	0.39991373
116	0x3e201ad8	0.1563524
117	0xbdf728a5	-0.12068299
118	0x3ed2784e	0.4110741
119	0xbf371ab2	-0.7152511
120	0x3d07d4e0	0.033161998
121	0xbea68be6	-0.3252861
122	0xbe41fdbc	-0.18944448
123	0xbeba8132	-0.36426693
124	0xbefa758c	-0.48917806
125	0xbeb0426c	-0.34425676
126	0xbeff2ca8	-0.49838758
127	0xbd90d130	-0.07071149
128	0x3e3f0517	0.18654285
129	0xbea7349e	-0.3265733
130	0xbe63bfbe	-0.22241113
131	0xbe25f48f	-0.16206573
132	0xbe864cd1	-0.2623048
133	0x3eb014d1	0.34390882
134	0xbebdca3f	-0.37068364
135	0x3cd2f521	0.025751652
136	0x3ebafe6b	0.3652223
137	0x3ed4e93a	0.41584188
138	0x3e9e465d	0.30913058
139	0x3e045223	0.12921958
140	0xbb3f72de	-0.0029212753
141	0x3f1f4c03	0.6222536
142	0x3ddb1e23	0.106991075
143	0x3ddeec51	0.108849175
144	0x3d8d85fd	0.06910322
145	0x3ee48f4f	0.44640586
146	0xbe4d8f09	-0.20074095
147	0x3f421e40	0.7582741
148	0xbec66fec	-0.38757265
149	0xbcc63580	-0.024195433
150	0xbee71cf0	-0.45139265
151	0xbb225500	-0.0024769902
152	0xbe2e265c	-0.1700682
153	0x3f3ae444	0.73004556
154	0x3e137406	0.14399728
155	0x3e412dcf	0.18865131
156	0xbd626fc0	-0.055282354
157	0xbcd0ae00	-0.025473595
158	0xbd61de00	-0.055143356
159	0xbee45fca	-0.4460433
160	0x3ed7e993	0.4217039
161	0x3f4105d1	0.753995
162	0xbdea49a7	-0.11439829
163	0xbf1617f6	-0.5863031
164	0x3e7ee15c	0.24890655
165	0xbe1a398c	-0.15061015
166	0x3e6ef3f8	0.23335254
167	0xbf185c8c	-0.59516215
168	0x3dd8f5a3	0.105937265
169	0xbe5ddd85	-0.21666534
170	0xbf19f229	-0.6013513
171	0xbdf94931	-0.12172163
172	0xbe3156e8	-0.17318308
173	0xbe89e062	-0.26929003
174	0xbed77d0e	-0.42087597
175	0x3dbd2428	0.09235412
176	0xbf17a348	-0.5923352
177	0xbd1b9f4f	-0.037993725
178	0x3eafacf7	0.3431165
179	0x3f0f1c1e	0.5590228
180	0x3eec3ef9	0.46141794
181	0x3d0b5b59	0.034022663
182	0xbd906a0e	-0.07051478
183	0x3debcbd2	0.11513485
184	0x3d2a0b46	0.041514657
185	0x3e4ef6a8	0.2021128
186	0x3e1e0554	0.1543172
187	0x3e826359	0.2546642
188	0x3e4ea947	0.20181762
189	0xbb94952f	-0.0045343856
190	0x3e9e2d14	0.30893767
191	0x3ee1fd24	0.44138443
192	0x3e90b9a5	0.28266636
193	0xbede4a2a	-0.43415958
194	0x3f0f7239	0.56033665
195	0xbea12c8c	-0.314793
196	0x3ee95d96	0.45579213
197	0x3f17f140	0.59352493
198	0xbe7a1d27	-0.24425183
199	0x3e2b2165	0.16711958
200	0xbe9da8fb	-0.30792984
201	0x3f0aaea5	0.54172736
202	0xbe49cb11	-0.1970637
203	0xbec72c3d	-0.3890094
204	0x3ec8d041	0.39221385
205	0xbe04d487	-0.12971698
206	0x3ed7a324	0.42116654
207	0x3f09088d	0.5352867
208	0x3eac60d4	0.33667624
209	0xbc8eefca	-0.017448325
210	0xbec0fb52	-0.37691742
211	0xbe7d09f8	-0.24710834
212	0xbe7c89b4	-0.24661905
213	0x3e1a26f8	0.15053928
214	0xbeb76762	-0.35821062
215	0x3de1a548	0.11017853
216	0x3eba7fa7	0.36425516
217	0x3f284187	0.65724987
218	0xbee0b7be	-0.43890184
219	0xbea62719	-0.32451704
220	0xbd58eb65	-0.052958865
221	0x3ea85e10	0.32884264
222	0x3db8aa92	0.09016909
223	0xbf66f7aa	-0.90221655
224	0x3dc84ca6	0.097802445
225	0xbeb2e1be	-0.34937853
226	0x3e8dc926	0.27692527
227	0xbeb3957e	-0.3507499
228	0x3d8527b6	0.06501715
229	0xbedff1ec	-0.4373926
230	0x3d0d4523	0.034489762
231	0x3f1d5e22	0.6147176
232	0xbd2b47a0	-0.041816354
233	0xbe879f2e	-0.26488632
234	0xbecc0956	-0.39850873
235	0xbee03daa	-0.43797046
236	0x3e2e80f4	0.17041379
237	0x3e81bac0	0.2533779
238	0x3f11e87d	0.56995374
239	0xbf184a2b	-0.5948817
240	0x3edc1f36	0.42992562
241	0xbe8f1266	-0.27943724
242	0x3f0d4e43	0.5519754
243	0xbe583dac	-0.21117276
244	0x3ef9b37f	0.48769757
245	0xbed8e9a6	-0.4236576
246	0x3eef10ef	0.46692607
247	0xbe3b365d	-0.18282457
248	0x3ed7f344	0.42177784
249	0x3ece355c	0.40275085
250	0xbefcbbec	-0.49362123
251	0x3f306012	0.6889659
252	0xbeeee186	-0.46656436
253	0x3eecd448	0.46255708
254	0xbe91c363	-0.2846938
255	0xbe1d056a	-0.15334097

bias f4 [256]
0	0x3e190868	0.14944613
1	0xbea6d0be	-0.32581133
2	0x3f107165	0.56423026
3	0x3d52845b	0.051395755
4	0xbeb39124	-0.3507167
5	0x3e5ad284	0.21369368
6	0x3d30cc86	0.0431638
7	0x3eceb375	0.4037129
8	0xbf1c2ba4	-0.6100409
9	0xbecf7440	-0.4051838
10	0xbea83583	-0.32853326
11	0xbc83c9a0	-0.016087353
12	0x3eb8448c	0.35989797
13	0x3ef65c8e	0.4811749
14	0x3e5c56c7	0.21517478
15	0x3f26bcdc	0.65131927
16	0xbee86e0d	-0.45396462
17	0xbee181d5	-0.44044366
18	0xbe8d41d7	-0.27589294
19	0x3e1ac120	0.15112734
20	0x3d3b516f	0.045731958
21	0xbe2cdb3f	-0.16880511
22	0xbe237c8e	-0.15965483
23	0x3f13bd95	0.57711154
24	0xbe558ef9	-0.20855321
25	0xbd9f923d	-0.077915646
26	0x3e90aa20	0.28254795
27	0xbebeeca2	-0.37289912
28	0xbb2ece00	-0.0026673079
29	0xbf1acd32	-0.60469353
30	0x3e85920a	0.2608798
31	0x3ebb0c92	0.36533028
32	0x3eb149dd	0.34626666
33	0x3ee4d0bb	0.446905
34	0xbe551cea	-0.20811811
35	0x3ebdfc9c	0.37106788
36	0x3d5775f3	0.05260272
37	0x3ec2785a	0.37982446
38	0x3f49a0d4	0.7876103
39	0xbe9c147a	-0.30484372
40	0x3ea30612	0.3184057
41	0xbefe0aea	-0.49617702
42	0x3e7955e0	0.24349165
43	0xbdaf6578	-0.085642755
44	0x3ec4834f	0.3838143
45	0xbe5a1399	-0.21296538
46	0x3ee32ff3	0.4437252
47	0x3eebd4af	0.46060702
48	0xbe4b211f	-0.19836853
49	0x3e80e52b	0.2517484
50	0xbdc7d45e	-0.09757303
51	0x3ec2607f	0.37964246
52	0x3f2f4abf	0.6847343
53	0xbe5a0170	-0.21289611
54	0xbe1d40b2	-0.1535671
55	0x3e3dba4e	0.18528101
56	0xbec457f9	-0.38348368
57	0x3ea10d24	0.31455338
58	0x3bddc500	0.006767869
59	0xbe264d29	-0.16240372
60	0xbe95b8a3	-0.2924243
61	0x3e6d101e	0.2315068
62	0xbeb53acb	-0.35396418
63	0x3eb18ebf	0.3467922
64	0x3d559ea4	0.052153245
65	0x3c0ccb64	0.008593414
66	0xbd8428e8	-0.06453115
67	0x3e1af92f	0.15134118
68	0x3eb08136	0.3447358
69	0xbe90f397	-0.28310844
70	0x3ebd194f	0.3693337
71	0xbeff1b3e	-0.49825472
72	0xbea86bc7	-0.32894728
73	0x3e099db0	0.1343906
74	0x3e4ec0f2	0.2019079
75	0x3f027e5f	0.50974077
76	0x3e970820	0.29498386
77	0xbd923d1d	-0.07140563
78	0x3f0a46dc	0.5401437
79	0xbeeb0a34	-0.45906222
80	0xbe073947	-0.13205443
81	0xbeca7fd9	-0.39550665
82	0x3e905705	0.2819139
83	0xbc4fe8be	-0.012689767
84	0x3eda7982	0.42670828
85	0xbbead40d	-0.0071663917
86	0x3eca4d90	0.395123
87	0x3eb4b7ba	0.35296422
88	0x3dbb22b8	0.091374815
89	0x3ec03ccc	0.37546384
90	0x3df87835	0.12132303
91	0xbd14bbf9	-0.036312077
92	0x3cb4178d	0.021983886
93	0xbee34251	-0.44386533
94	0xbe9ed930	-0.31025076
95	0xbe1356d4	-0.14388591
96	0xbf029e60	-0.5102291
97	0x3ec89ef6	0.39183778
98	0x3ee42454	0.44558966
99	0x3f30abff	0.69012445
100	0xbe539819	-0.2066349
101	0x3e907b58	0.28219104
102	0xbe007b66	-0.12547073
103	0xbf11e82a	-0.5699488
104	0xbe5a225f	-0.21302174
105	0xbec5bf41	-0.38622478
106	0x3c32b75a	0.010907972
107	0x3ed60165	0.4179794
108	0xbee27aa8	-0.44234204
109	0xbe8f13a5	-0.27944675
110	0x3e0af26b	0.13569038
111	0x3d392669	0.045202646
112	0xbf29edd3	-0.66378516
113	0x3e56acd4	0.20964366
114	0xbeba9cca	-0.36447746
115	0xbc883075	-0.016624669
116	0xbd2a940d	-0.0416451
117	0xbef90451	-0.48636106
118	0x3ee49e3e	0.4465198
119	0x3ce9d0e2	0.028541986
120	0xbe959cb9	-0.29221132
121	0xbd3c1923	-0.04592241
122	0xbe9e70c5	-0.3094541
123	0xbec6438c	-0.3872341
124	0x3e4ca66e	0.19985363
125	0x3d2873b0	0.041125953
126	0xbec67f3b	-0.38768944
127	0x3f0d4b40	0.5519295
128	0x3e941442	0.28921705
129	0x3f219cad	0.63129693
130	0xbe520820	-0.20510912
131	0xbed70826	-0.41998404
132	0xbe73e033	-0.23815994
133	0x3eecc6a7	0.4624531
134	0x3e2cc7c9	0.16873087
135	0xbec43c74	-0.38327372
136	0xbe4d4a24	-0.20047814
137	0xbec42413	-0.38308772
138	0xbef4cd38	-0.4781282
139	0x3f069b7d	0.52581006
140	0x3e4e6c98	0.20158613
141	0xbe6aa6e4	-0.22915226
142	0xbe09b88c	-0.13449305
143	0x3d8ee251	0.0697676
144	0xbe906f19	-0.2820976
145	0xbcf2ba6d	-0.02962991
146	0x3e069eec	0.13146561
147	0x3ea3cbc6	0.31991404
148	0xbe65a701	-0.22426988
149	0x3d2f8e83	0.04286052
150	0x3f0dbcd8	0.5536628
151	0xbe87bf06	-0.26512927
152	0xbec9f9f2	-0.39448506
153	0xbe56b134	-0.20966035
154	0x3c5be0b8	0.013420276
155	0x3f08653f	0.5327949
156	0x3f1bf286	0.60916936
157	0xbc5a6f09	-0.013332137
158	0xbee41179	-0.4454458
159	0x3f04e6cf	0.51914686
160	0xbe73cf7b	-0.23809616
161	0xbeb7cfcf	-0.35900733
162	0x3ecd7515	0.4012839
163	0xbe6438da	-0.22287312
164	0xbf02d651	-0.5110827
165	0xbe0e2132	-0.1387985
166	0xbe58e767	-0.21182023
167	0x3d46caff	0.048533436
168	0xbe949720	-0.2902155
169	0xbe687510	-0.22700906
170	0x3ebcfe02	0.36912543
171	0x3b2bc6e6	0.0026211082
172	0xbdab3cd9	-0.08361215
173	0x3e12a716	0.1432155
174	0x3e580355	0.21095021
175	0x3f2d6131	0.6772643
176	0xbdb0fa48	-0.08641487
177	0x3ed70815	0.41998354
178	0x3f1b1299	0.6057525
179	0x3eab049e	0.3340196
180	0x3ec79222	0.38978678
181	0x3e129537	0.14314733
182	0xbdd113dc	-0.10208866
183	0x3e588a82	0.21146587
184	0xbe7a26bb	-0.24428837
185	0x3efbb4ac	0.4916128
186	0x3f0adc1c	0.5424211
187	0x3e965680	0.2936287
188	0x3ebd97d1	0.3702989
189	0x3eb3270a	0.34990722
190	0xbe9b1c60	-0.30295086
191	0xbe87da70	-0.26533842
192	0x3f0ab7f8	0.54186964
193	0x3f0e4f6e	0.5558995
194	0x3f023634	0.5086396
195	0x3e314798	0.17312467
196	0x3f318549	0.69344
197	0x3e363d92	0.17796925
198	0x3dd12332	0.10211791
199	0xbc1a3703	-0.00941253
200	0x3ea09cda	0.31369668
201	0x3cf88a93	0.030339515
202	0xbebfeef0	-0.37486982
203	0x3e931ea8	0.28734326
204	0xbf39e258	-0.72611
205	0xbe5822b0	-0.21106982
206	0x3dfa5394	0.122229725
207	0x3d6b20e0	0.0574044
208	0x3f04348a	0.5164267
209	0x3f34d0c7	0.7063107
210	0x3eed3cf7	0.46335575
211	0x3e9c8cf7	0.30576298
212	0xbe374480	-0.17897224
213	0x3e89cc2e	0.2691359
214	0xbe2b4e3f	-0.16729067
215	0x3eb9bfb8	0.36279082
216	0xbdc977d2	-0.09837307
217	0x3c85e26b	0.016343316
218	0xbda28160	-0.079348326
219	0xbe32a292	-0.17444828
220	0x3e846cf6	0.2586438
221	0x3ec59dee	0.38597053
222	0x3e9e19c9	0.30879048
223	0x3e923c92	0.28561836
224	0x3db217a8	0.08695918
225	0x3ed4b515	0.41544405
226	0x3e1cd6e6	0.15316352
227	0x3ea33885	0.31879058
228	0xbe89acab	-0.26889548
229	0xbd108e0b	-0.035291713
230	0xbeb88a36	-0.36042947
231	0xbccfc50d	-0.025362516
232	0xbc8a0643	-0.016848689
233	0xbea4ebfb	-0.3221129
234	0x3dcbb220	0.09946084
235	0x3e21ba46	0.15793714
236	0x3e755132	0.23956755
237	0x3f387a86	0.72061956
238	0xbe1b384e	-0.15158197
239	0xbedaf29c	-0.4276322
240	0x3ebf4f23	0.37365064
241	0xbe841dff	-0.25804135
242	0x3dea05b4	0.11426869
243	0x3ebd715c	0.3700055
244	0x3e97832e	0.2959227
245	0xbe05bd0c	-0.13060397
246	0x3e030e86	0.12798509
247	0x3f2a0b2c	0.66423297
248	0x3e930d84	0.2872125
249	0x3ebc202e	0.367433
250	0xbec1eb9d	-0.3787507
251	0xbc9fb576	-0.019495707
252	0xbf06c5f8	-0.52645826
253	0xbed447c8	-0.41461015
254	0x3f5ebc30	0.870059
255	0x3dc8dbd5	0.09807555

weight f4 [256, 256]
0	0xbd2cec1a	-0.04221735
1	0x3ce4f780	0.027950048
2	0xbdba9dde	-0.09112142
3	0xbd0ec1a5	-0.034852643
4	0xbe0cd373	-0.13752536
5	0x3b0c2152	0.0021382165
6	0xbe40da13	-0.18833189
7	0xbe66514b	-0.22491948
8	0x3e7324d7	0.23744522
9	0xbcf9664c	-0.030444287
10	0xbcd0aea9	-0.02547391
11	0xbc4ef3d8	-0.012631379
12	0x3d7c2128	0.061555058
13	0x3d2ba1b2	0.04190225
14	0x3ee70e62	0.4512816
15	0x3d663601	0.056203846
16	0xbd32f603	-0.043691646
17	0xbd12842e	-0.035770588
18	0xbd6ed51c	-0.058308706
19	0xbd0ad6c8	-0.033896238
20	0x3c03adb8	0.008037023
21	0xbf10d773	-0.5657875
22	0x3c3fc8c0	0.011705577
23	0x3e3557e2	0.17709306
24	0xbe54581a	-0.20736733
25	0xbd855b85	-0.065115966
26	0x3d8787b2	0.06617679
27	0xbd3128b7	-0.04325172
28	0xba4bd700	-0.0007775873
29	0x3d04ac4a	0.03239087
30	0xbb931630	-0.004488729
31	0xbd2eafb8	-0.042648047
32	0x3c1d2a7c	0.009592649
33	0xbe3c23b4	-0.18372995
34	0x3cb0714b	0.021538397
35	0x3d9e7d7e	0.077387795
36	0x3b369c1c	0.0027864045
37	0x3c801ca4	0.015638657
38	0x3e06b961	0.13156654
39	0x3bda3910	0.0066596344
40	0x3d242ed0	0.040083706
41	0x3da9adbf	0.082850926
42	0xbe855e6d	-0.26048604
43	0x3d78f4fe	0.060780518
44	0x3c984e76	0.0185921
45	0xbd237a1f	-0.039911386
46	0x3d9ff241	0.07809878
47	0xbb9bc2e7	-0.004753459
48	0x3d24b3d7	0.04021057
49	0xbc1338ff	-0.008985757
50	0xbe6c324f	-0.23066066
51	0x3c47f37e	0.012204049
52	0xbcd6f51d	-0.026239926
53	0xba4edb00	-0.000789091
54	0xbd7c88fd	-0.06165408
55	0x3d0d8505	0.034550685
56	0xbc853a4c	-0.01626315
57	0xbcbfa6ac	-0.023394905
58	0xbd4c2364	-0.04983844
59	0x3d8e2191	0.06939996
60	0xbcbd9f39	-0.023147212
61	0x3c1f799c	0.009733584
62	0xbcd4d373	-0.025979733
63	0xbe5db4ab	-0.2165095
64	0x3d5840f5	0.052796323
65	0xbde8f03b	-0.11373945
66	0x3d51e746	0.05124595
67	0x3d25e6d9	0.040503357
68	0x3d5da9ea	0.05411712
69	0xbe7f9541	-0.2495928
70	0x3d970f4b	0.07375964
71	0x3a9e8c80	0.0012096316
72	0x3d9adc86	0.07561593
73	0x3ca1d0c0	0.01975286
74	0x3d12a180	0.03579855
75	0x3dc2cec5	0.095120944
76	0x3cf59e38	0.029982671
77	0xbc65a427	-0.014016188
78	0xbcd7da6d	-0.02634927
79	0xbd5b9a02	-0.05361367
80	0x3d8f38dd	0.06993268
81	0xbe3c2aca	-0.18375698
82	0x3d5f4698	0.054510683
83	0x3d878bef	0.06618487
84	0xbdc79bb9	-0.097464986
85	0xbe5b99fe	-0.21445462
86	0x3c91ba56	0.017789047
87	0xbd9a34c5	-0.07529596
88	0x3d7b22fa	0.061312653
89	0xbb312b3d	-0.0027033829
90	0x3ccd83f7	0.02508734
91	0x3cbf086e	0.02331945
92	0x3b98161f	0.004641309
93	0xbd50514f	-0.050858792
94	0x3c168ce5	0.009188865
95	0xbd04a376	-0.03238245
96	0xbb29add1	-0.0025890956
97	0xbd84e921	-0.06489778
98	0xbc8b18eb	-0.016979655
99	0x3bf798a8	0.00755604
100	0xbd1f527a	-0.038897015
101	0xbcbfc980	-0.023411512
102	0x3da38151	0.079836495
103	0x3c8741af	0.016510813
104	0xbcab7b94	-0.02093295
105	0x3cba8ead	0.022773111
106	0xbe4c4dca	-0.19951549
107	0xbd160f35	-0.036635596
108	0x3d270b6c	0.040782377
109	0x3c966660	0.018359363
110	0x3cc0fe5a	0.023558784
111	0x3db0a387	0.0862494
112	0x3da0d00a	0.0785218
113	0x3d9d14e6	0.07670002
114	0x3d21b8a2	0.03948272
115	0xbbb741ab	-0.005592545
116	0xbd2bac43	-0.04191233
117	0x3d96096d	0.073260166
118	0xbb686680	-0.0035461485
119	0xba2a8248	-0.0006504399
120	0xbc14b531	-0.0090764025
121	0x3c242586	0.010018712
122	0x3e413de3	0.18871264
123	0x3bfe4130	0.007759236
124	0xbcc1ee8e	-0.023673322
125	0xbd26b9b4	-0.040704444
126	0x3c9edf28	0.019393519
127	0x3c5b3fb7	0.01338189
128	0x3d1cbee5	0.03826799
129	0xbd36aa58	-0.044596046
130	0xbd13c23a	-0.0360739
131	0xbbad820f	-0.005295045
132	0x3ed41dfc	0.41429126
133	0x3df65eaf	0.12029778
134	0xbc1db130	-0.009624764
135	0x3d2e7ed5	0.042601425
136	0xbcb02f10	-0.021506816
137	0x3ce87756	0.028377216
138	0x3d69419b	0.056947332
139	0xbd46ae61	-0.048506144
140	0xbd088552	-0.03333027
141	0x3e773379	0.24140729
142	0x3d653816	0.05596169
143	0x3d44e068	0.048065573
144	0x3a9423f2	0.0011302216
145	0xbd9f81cc	-0.07788429
146	0x3dbe8fae	0.093047485
147	0x3d539db8	0.051664084
148	0xbd4b975b	-0.04970489
149	0xbe405e99	-0.18786086
150	0x3efe2469	0.49637154
151	0x3d49650c	0.04916863
152	0xbb34e9e0	-0.002760522
153	0x3d4995a4	0.049214974
154	0x3cf258cb	0.029583355
155	0x3d24b0d1	0.040207688
156	0xbc4b0961	-0.012392373
157	0x3e8a0538	0.26957107
158	0xbcfa67c0	-0.03056705
159	0xbcfa170c	-0.030528568
160	0x3e04a616	0.12953982
161	0x3d832ef0	0.06405437
162	0x3bdb47f4	0.006691927
163	0xbdd95d60	-0.10613513
164	0xbb8e850e	-0.0043493574
165	0x397b2db4	0.00023954251
166	0xbe729680	-0.23690224
167	0x3ddcc388	0.10779482
168	0x3cfab0c0	0.03060186
169	0xbd19c7dc	-0.037544116
170	0x3d3956c8	0.045248777
171	0xbf2d3c48	-0.67670107
172	0x3dbe9eb7	0.09307616
173	0x3c937065	0.01799793
174	0x3de34a20	0.110981226
175	0xbce6598c	-0.028118871
176	0x3d6f3882	0.0584035
177	0xbd0bf6b3	-0.034170818
178	0x3d1ea3ab	0.038730305
179	0x3d4e4670	0.050360143
180	0x3d2207d0	0.03955823
181	0x3b756d0a	0.0037449026
182	0x3d368a2a	0.044565357
183	0xbf00fdd5	-0.50387317
184	0x3d0e8c27	0.03480163
185	0x3db58e6b	0.08865055
186	0x3d2cf1fb	0.042222958
187	0x3d7e1c96	0.06203898
188	0xbe6777b8	-0.22604263
189	0xbc934144	-0.017975457
190	0xbd468016	-0.048461996
191	0x3d265cb9	0.04061577
192	0x3dc49816	0.095993206
193	0xbd026fcc	-0.0318449
194	0x3d3fb9a3	0.046807896
195	0x3e146193	0.14490347
196	0x3eb99efb	0.36254105
197	0xbc8fbe8c	-0.017546915
198	0x3cc989f0	0.024601907
199	0x3dd562db	0.10419246
200	0x3db0ccaa	0.086327866
201	0x3d59fc79	0.053219292
202	0x3d117a01	0.035516743
203	0x3ce8cf40	0.028419137
204	0x3ef90936	0.4863984
205	0x3c4fcbd8	0.0126828775
206	0x3e0d0f19	0.1377529
207	0xbdf453f9	-0.11930079
208	0x3e156549	0.14589418
209	0x3dd2b750	0.1028887
210	0x3f149622	0.58041584
211	0xbdc63b8c	-0.096793264
212	0x3c2b00c8	0.010437198
213	0x3d3e3626	0.04643836
214	0xbb2751c3	-0.0025530912
215	0x3d2627c6	0.040565275
216	0x3e1663e6	0.14686546
217	0xbd2277d8	-0.039665073
218	0x3b135580	0.0022481382
219	0x3d6b4c21	0.05744565
220	0xbe8e4cd1	-0.2779298
221	0xbc53d889	-0.012930044
222	0xbe07a663	-0.13247065
223	0x3da2b020	0.079437494
224	0x3e38b9a6	0.1803957
225	0x3da318a2	0.07963683
226	0x3d88fe9b	0.06689187
227	0xbdb70cfe	-0.08938025
228	0xbdae0fc3	-0.084991
229	0x3dc7c8fc	0.097551316
230	0xbd2f7728	-0.042838246
231	0x3c4f00bb	0.0126344515
232	0xbe90c9ef	-0.28279063
233	0x3d9ba179	0.07599158
234	0x3ddf2b10	0.108968854
235	0x3d2addcf	0.04171544
236	0xbcac5d02	-0.021040443
237	0x3f0cd7aa	0.5501658
238	0x3d9d061a	0.076671794
239	0x3d702ef0	0.058638513
240	0x3d4a05f5	0.049322087
241	0xbeecc65b	-0.46245083
242	0x3c3cb675	0.0115181105
243	0xbbd33e80	-0.0064466596
244	0xbd66c93c	-0.056344256
245	0x3c0a825a	0.00845393
246	0xbdb8ac44	-0.09017232
247	0x3f045954	0.51698804
248	0xbded57c4	-0.115890056
249	0xbd3726d2	-0.044714756
250	0xbddc6a01	-0.10762406
251	0x3cf5fa41	0.030026557
252	0x3cbb2188	0.022843137
253	0x3d5c72fa	0.053820588
254	0x3d82759d	0.06370089
255	0x3d31c4f0	0.043400705

bias f4 [256]
0	0x3dd7384e	0.10508786
1	0xbd6b53ba	-0.057452895
2	0x3dd92a06	0.106037185
3	0x3dab39f1	0.08360661
4	0x3cd9d930	0.02659282
5	0x3dbb51cb	0.0914646
6	0x3bdcc6ac	0.0067375507
7	0x3d8d85c7	0.06910282
8	0xbd807a9a	-0.062733844
9	0xbda52d56	-0.08065288
10	0x3d90b76b	0.07066234
11	0xbbc2b7e4	-0.0059423316
12	0x3d437394	0.047717646
13	0x3dc40652	0.09571518
14	0xbd6fe415	-0.058567125
15	0x3c8319bb	0.01600348
16	0xbd53f5d0	-0.051748097
17	0x3c218038	0.00985723
18	0x3c919f00	0.017776012
19	0xbc9ed350	-0.019387871
20	0xbc007db0	-0.007842466
21	0xbc611220	-0.0137372315
22	0xbd13d942	-0.036095865
23	0x3dff89c0	0.124774456
24	0xbd2f5509	-0.042805705
25	0x3cda96f9	0.026683317
26	0x3e5fd0cb	0.21856992
27	0x3d8e2077	0.06939786
28	0xbd7eb6d6	-0.062186085
29	0xbd1ef6ac	-0.038809463
30	0x3cb0327f	0.021508453
31	0x3d522549	0.05130509
32	0x3d2b15b2	0.041768737
33	0x3dfce10a	0.1234761
34	0xbcb502c1	-0.02209604
35	0xbd51e9c2	-0.05124832
36	0x3e334897	0.1750816
37	0xbb8d2317	-0.0043071616
38	0xbd26c6a1	-0.04071677
39	0x3d45df2f	0.048308548
40	0xbc633680	-0.013867974
41	0xbd6110ea	-0.05494777
42	0x3c5fbd9c	0.013656046
43	0xbd6a2b2c	-0.05717008
44	0xbd53a57e	-0.051671498
45	0x3e0a8429	0.13526978
46	0x3dc01244	0.09378484
47	0x3c22fe45	0.009948318
48	0xbd66639e	-0.056247346
49	0x3c883108	0.016624942
50	0xbcd52b20	-0.02602154
51	0x3d27e265	0.04098739
52	0x3c4e4612	0.012589948
53	0xbc89c3ee	-0.01681706
54	0xbd1bfb59	-0.0380815
55	0xbc12cbc9	-0.008959719
56	0x3c908704	0.017642505
57	0x3d42bc38	0.04754278
58	0x3d6b358a	0.057424106
59	0xbc2289c0	-0.0099205375
60	0xbd17a608	-0.037023574
61	0xbd82338c	-0.06357488
62	0x3d0dcbf3	0.03461833
63	0x3d429193	0.04750211
64	0x3db01b36	0.0859894
65	0xbc3c6d03	-0.0115006
66	0x3d035894	0.032066897
67	0x3e65c435	0.22438128
68	0x3c0a4c1d	0.008440998
69	0xbbebf840	-0.0072012246
70	0x3d1a1120	0.037613988
71	0xbc487b96	-0.012236496
72	0x3d8533a1	0.06503988
73	0x3dc03847	0.09385734
74	0xbcabc761	-0.020969095
75	0x3cd23f56	0.025664967
76	0x3dcc10a2	0.0996411
77	0x3bdd0bd0	0.006745793
78	0x3dad327d	0.084568955
79	0x3cd3d758	0.02585952
80	0xbc97324c	-0.0184566
81	0x3d6131b6	0.05497905
82	0x3c159bf8	0.009131424
83	0x3c79f727	0.01525668
84	0x3d748ec7	0.059706476
85	0x3d4e3630	0.050344646
86	0x3d79e2aa	0.06100718
87	0x3dcc3ad9	0.09972162
88	0x3cc2a515	0.023760358
89	0x3db623a9	0.088935204
90	0x3d0a50ac	0.03376834
91	0xbd1106b4	-0.035406783
92	0x3e6d5995	0.23178704
93	0x3cb5573d	0.022136325
94	0x3d61a016	0.05508431
95	0x3d5bdc96	0.053677164
96	0xbc61d468	-0.013783552
97	0x3c7f9828	0.015600242
98	0x3db30090	0.08740342
99	0xbd325d66	-0.043546103
100	0xbcdee230	-0.027207464
101	0xb9ab8722	-0.00032716343
102	0x3bc02d09	0.0058647436
103	0xbd1df220	-0.038560987
104	0xbb310c8d	-0.0027015537
105	0x3dba620a	0.09100731
106	0x3d80d468	0.06290513
107	0xbd2bb1a8	-0.041917473
108	0xbc089218	-0.008335613
109	0xbcb7f4b7	-0.022455556
110	0xbd0db32c	-0.0345947
111	0x3dcc18ff	0.09965705
112	0x3d1eb414	0.038745955
113	0x3cdab230	0.026696295
114	0xbd381503	-0.044941913
115	0x3d8b6dfa	0.06808086
116	0xbd4e5876	-0.05037733
117	0x3db110de	0.08645795
118	0x3c7c1b8c	0.015387427
119	0xbd9f0159	-0.07763929
120	0x3d0bdaf8	0.03414437
121	0x3d168dbc	0.036756262
122	0x3d14b3ab	0.036304157
123	0x3d52bb98	0.051448435
124	0x3cc9688b	0.024585983
125	0x3dc8e933	0.09810104
126	0xba7f7a00	-0.00097456574
127	0xbcf4dfc2	-0.029891852
128	0x3d825f1d	0.06365798
129	0xbd1fd1f6	-0.039018594
130	0x3b96fb78	0.004607614
131	0xbd096a86	-0.033548854
132	0xbd062ede	-0.03275954
133	0x3c379808	0.011205681
134	0xbde37109	-0.11105544
135	0x3d0f170b	0.034934085
136	0x3c9c6038	0.01908885
137	0x3d913bbd	0.07091472
138	0x3da0a1e1	0.07843376
139	0xbda83bbb	-0.08214518
140	0x3cee3c57	0.029081507
141	0x3d28c19c	0.041200265
142	0xbc8184f1	-0.015810462
143	0x3cd1e38f	0.025621204
144	0x3d75e258	0.06003031
145	0x3d184ad1	0.037180725
146	0xbe06ffad	-0.1318347
147	0xbcb25970	-0.021771163
148	0x3d6b2e54	0.05741723
149	0xbba7d233	-0.0051214932
150	0x3d1401b7	0.036134448
151	0x3b98ac62	0.0046592215
152	0x3df2a6a1	0.11848188
153	0x3d4230f2	0.04740996
154	0x3d43d750	0.04781276
155	0xbcb1dc9c	-0.02171164
156	0x3d8f42e2	0.06995179
157	0x3cd2d0de	0.025734361
158	0xbd0936cc	-0.033499524
159	0xbd2a1aea	-0.041529574
160	0xbc003a52	-0.007826405
161	0xbd3e30ad	-0.04643314
162	0xbd1542c9	-0.036440644
163	0x3c17b9e8	0.009260632
164	0x3dd286a7	0.10279589
165	0xbc88285e	-0.016620811
166	0x3d170ba8	0.03687635
167	0x3c2e98e1	0.010656566
168	0x3bee79f0	0.0072777197
169	0xbd0869d8	-0.033304065
170	0xbc201e5b	-0.009772862
171	0xbc7cac90	-0.0154220015
172	0xbc50956f	-0.01273094
173	0xbce593e8	-0.028024629
174	0x3d495d68	0.049161345
175	0x3caee83d	0.021350974
176	0xbcab9117	-0.020943208
177	0x3dbe0d21	0.09279848
178	0x3b9e4618	0.004830133
179	0xbba0d8c0	-0.004908651
180	0xbc5690d0	-0.013096049
181	0x3c0a9ded	0.008460504
182	0x3e0798a4	0.13241822
183	0x3cc16e9e	0.023612317
184	0xbd2920e9	-0.04129115
185	0x3c1bee67	0.009517289
186	0xba3e2563	-0.0007253496
187	0x3b9fcfc0	0.0048770607
188	0x3cfff109	0.031242864
189	0xbb8af5a0	-0.0042407066
190	0x3d1f0569	0.03882352
191	0x3d6240f0	0.05523771
192	0xbd3e93a9	-0.04652754
193	0xbcd345a3	-0.025790041
194	0x3cc97ffe	0.024597164
195	0x39cffc02	0.00039669877
196	0x3cbae2e4	0.022813268
197	0xbd5a4c8a	-0.05329565
198	0x3e218676	0.15773949
199	0xbd67ab3b	-0.056559782
200	0x3d62d21b	0.055376153
201	0x3cf30520	0.02966553
202	0xbd29604a	-0.041351594
203	0x3d1106d3	0.0354069
204	0x3d15a236	0.03653165
205	0x3d2ecc69	0.04267541
206	0x3dc33c5e	0.095329985
207	0x3c584460	0.013199896
208	0xbb7eddcd	-0.0038889528
209	0x3d2b842f	0.041874107
210	0xbe3504cb	-0.1767761
211	0x3d3a3a19	0.045465562
212	0x3d48ba89	0.04900602
213	0xbbeabba2	-0.007163481
214	0x3d9594ed	0.07303796
215	0x3d8f230c	0.069891065
216	0xbba50d57	-0.0050369906
217	0x3d27494a	0.04084138
218	0x3d5c3152	0.053757973
219	0x3ce52b04	0.027974613
220	0xbdd0ca2b	-0.101948105
221	0xbc01f276	-0.007931342
222	0xbc94899c	-0.018132024
223	0xbc8ad996	-0.016949456
224	0x3dcadc1f	0.09905266
225	0xbc21a3d8	-0.009865724
226	0x3dc85d5e	0.097834334
227	0x3d775b52	0.060389824
228	0x3daa558c	0.08317098
229	0x3e4b1675	0.19832785
230	0xbd2b65cc	-0.041845128
231	0xbd2867be	-0.04111456
232	0x3cf8110e	0.03028157
233	0xba613389	-0.0008590748
234	0xbd3d370a	-0.046195067
235	0x3db6f63c	0.08933684
236	0x3da33506	0.07969098
237	0x3e6811e2	0.22663072
238	0x3d60c092	0.05487115
239	0xbe394c64	-0.18095547
240	0x3d601eca	0.054716863
241	0xbbb1da90	-0.005427666
242	0x3d6d9e2a	0.058012165
243	0x3d638d4c	0.055554673
244	0x3dec8598	0.115489185
245	0xbca734c8	-0.02041091
246	0x3d7304d0	0.05933076
247	0x3d9170d7	0.071016006
248	0x3def791a	0.1169302
249	0x3c818b9f	0.015813647
250	0xbc887f84	-0.016662367
251	0xbd18a8de	-0.03727042
252	0x3d40289d	0.04691373
253	0x3dd349c2	0.103168026
254	0x3d8f7738	0.07005161
255	0x3d326c80	0.043560505

weight f4 [33, 256]
0	0x3d995098	0.07486075
1	0x3d466004	0.04843141
2	0x3e081146	0.1328784
3	0x3be0ebe8	0.0068640597
4	0xbd7d8570	-0.061894834
5	0xbcda4a50	-0.026646763
6	0x3db28faf	0.08718812
7	0x3d7c0b5c	0.06153427
8	0x3dc8133b	0.09769293
9	0x3ca11cdc	0.019667082
10	0x3cbee7aa	0.023303825
11	0x3dbbb84b	0.091660105
12	0xbd8c46d9	-0.068494506
13	0xbe96e5bb	-0.29472145
14	0x3d2c46e0	0.04205978
15	0x3c1e1f62	0.009651037
16	0xbd068f87	-0.032851722
17	0xbd602992	-0.054727145
18	0x3cd1f5f4	0.025629975
19	0x3c1bede8	0.0095171705
20	0xbd2ba1e8	-0.041902453
21	0x3b7a1f60	0.0038165674
22	0x3d1ce442	0.03830362
23	0xbeb31605	-0.34977737
24	0x3dd48084	0.10376075
25	0xbc15b110	-0.009136453
26	0x3e297251	0.16547514
27	0x3dfe1e9a	0.124081805
28	0x3ca3542c	0.019937597
29	0x3e0b47c5	0.13601597
30	0x3d6b3077	0.057419267
31	0x3c92a680	0.017901659
32	0x3de884d1	0.11353458
33	0x3dc8fd48	0.098139346
34	0x3d60f0ae	0.05491703
35	0xbc0577a8	-0.008146204
36	0x3e7c6997	0.24649654
37	0x3d665648	0.056234628
38	0x3d717095	0.058945257
39	0x3b0ab408	0.0021164436
40	0xbcaf0864	-0.021366306
41	0xbd38a11c	-0.04507552
42	0x3d37f7c7	0.044914033
43	0xbd1fc376	-0.039004765
44	0xbb829400	-0.003984928
45	0x3e55d22a	0.20880952
46	0xbe87cbe9	-0.2652276
47	0xbcec9e48	-0.028884068
48	0xbd6ac8f2	-0.057320543
49	0x3c76f670	0.015073404
50	0x3d004218	0.031313032
51	0x3ba940e0	0.0051652044
52	0x3de725be	0.112864956
53	0xbd64b178	-0.05583331
54	0x3d2fb312	0.042895384
55	0x3cab79a6	0.02093203
56	0x3d9504a2	0.07276274
57	0xbd7ac1da	-0.061220028
58	0x3d146a45	0.03623416
59	0xbd8d584a	-0.069016054
60	0xbd170c56	-0.036877
61	0xbb48ee85	-0.0030659747
62	0x3d7587b1	0.05994386
63	0x3d618333	0.055056762
64	0x3de4bc87	0.11168771
65	0x3d8d86f0	0.06910503
66	0x3b6fa060	0.0036564097
67	0x3e7dc22b	0.247811
68	0xbe1f2bb0	-0.15544009
69	0xbd1a41fe	-0.03766059
70	0xbca7df7c	-0.020492308
71	0x3d3d00b4	0.04614325
72	0xbda75541	-0.08170558
73	0x3b9e0fe7	0.004823673
74	0xbc5f0730	-0.0136125535
75	0x3dbbee6a	0.09176333
76	0x3daf3142	0.08554317
77	0x3d505f1c	0.050871953
78	0x3d57ec15	0.05271538
79	0xbcfe0b3c	-0.031011216
80	0x3b652880	0.0034966767
81	0x3db37bd8	0.08763856
82	0x3d9e9a69	0.07744295
83	0xbc40224c	-0.011726927
84	0xba76bab7	-0.0009411978
85	0x3de0d123	0.1097739
86	0x3b6abe80	0.0035819113
87	0x3dc56c43	0.0963979
88	0x3d203dd6	0.03912147
89	0x3d64d1ea	0.055864252
90	0xbd451020	-0.04811108
91	0x3d2a51da	0.041581966
92	0x3e424b1d	0.18973966
93	0x3d83416b	0.06408962
94	0x3d1f0f14	0.03883274
95	0x3d9b5067	0.07583695
96	0x3d35dfd0	0.044402897
97	0x3c2f1f38	0.0106885955
98	0x3d227144	0.0396588
99	0xbca03774	-0.019557692
100	0xbcec7e24	-0.028868742
101	0xbc9eb816	-0.019374888
102	0xbbe43e1f	-0.006965413
103	0xbd6e37c0	-0.058158636
104	0x3d612665	0.054968257
105	0xbc24f16e	-0.010067327
106	0xbeb2f477	-0.34952137
107	0xbd0425eb	-0.032262724
108	0x3d78640a	0.06064228
109	0x3d7fdd8a	0.062467135
110	0xbbcb0be0	-0.006196484
111	0xbe1252c2	-0.14289382
112	0x3db02e74	0.0860261
113	0x3de5a99c	0.11213991
114	0x3dbdfb60	0.092764616
115	0x3dd3e151	0.1034571
116	0x3d603c36	0.05474492
117	0x3db3f60f	0.08787166
118	0x3c8be989	0.017079132
119	0x3dbe0ffe	0.09280394
120	0xbc106ac0	-0.008814514
121	0x3dc166ab	0.094434105
122	0x3e11c7e1	0.14236404
123	0x3d4f26ac	0.05057399
124	0x3db46838	0.08808941
125	0x3cf75947	0.030193938
126	0x3d1bb43c	0.03801368
127	0xbcd94353	-0.02652136
128	0x3c1e8542	0.009675326
129	0xbd203196	-0.03910979
130	0xbcc53914	-0.024075069
131	0x3ca90a64	0.020634837
132	0x3d708b14	0.058726385
133	0x3d0676aa	0.03282801
134	0x3dd5eac9	0.10445172
135	0xbe2ad440	-0.1668253
136	0x3d4e7ba0	0.050410867
137	0x3d2a6f9a	0.041610338
138	0x3ce8dac3	0.028424626
139	0xbd53eb75	-0.05173822
140	0xbc30343c	-0.010754641
141	0x3e3b28a1	0.18277217
142	0x3e0186a7	0.12649022
143	0xbd9470d0	-0.0724808
144	0x3d62bf16	0.055358015
145	0xbcbe0918	-0.023197696
146	0x3e51edc3	0.20500855
147	0x3def29bd	0.11677883
148	0xbd312aec	-0.043253824
149	0x3ceca8b7	0.028889043
150	0x3dd581ca	0.10425146
151	0x3d7fa6cc	0.06241493
152	0x3e514416	0.20436129
153	0x3db52791	0.08845437
154	0x3bdc7558	0.0067278557
155	0x3d12a786	0.035804294
156	0xbe4051bc	-0.18781179
157	0x3d6c1636	0.05763837
158	0xbd250984	-0.040292278
159	0x3c6a1d78	0.014289252
160	0x3d2182c4	0.03943135
161	0x3b9c2150	0.0047647133
162	0xbe022464	-0.12709194
163	0x3cd45112	0.025917564
164	0x3d9a3ccf	0.075311296
165	0x3da13135	0.078707136
166	0xbd270322	-0.040774472
167	0x3dce1ba9	0.100638695
168	0x3cabfc80	0.020994425
169	0xbc62c589	-0.013841041
170	0xbd395ece	-0.04525643
171	0x3d404d73	0.04694886
172	0x3d16ca70	0.036814153
173	0x3d7be1c6	0.06149461
174	0x3dbbed64	0.09176138
175	0x3d8f0518	0.069833934
176	0x3da77321	0.08176256
177	0xbec12f04	-0.37731183
178	0x3d0ffb22	0.03515161
179	0x3d57f27e	0.052721493
180	0xbcb4bab8	-0.02206169
181	0x3da28167	0.07934838
182	0x3e519648	0.20467484
183	0x3d7ba4ca	0.061436452
184	0xbdf8ae40	-0.121426105
185	0xbb98bb2d	-0.004660985
186	0x3d4ed801	0.050498966
187	0x3ce72c40	0.028219342
188	0x3dbbcf2d	0.09170375
189	0x3d783e18	0.060606092
190	0x3cff1800	0.031139374
191	0x3c147811	0.009061829
192	0x3d2e8254	0.04260476
193	0x3dc2c69e	0.095105395
194	0x3d967fd1	0.07348598
195	0xbd18087a	-0.03711746
196	0x3c176108	0.009239443
197	0xbcf6d834	-0.03013239
198	0xbecb1f7b	-0.39672455
199	0x3cd86207	0.02641393
200	0x3d85b6e2	0.06529023
201	0x3df8d47a	0.12149902
202	0xbd323414	-0.043506697
203	0x3d4aecae	0.04954212
204	0x3de48838	0.11158794
205	0x3d4a39ca	0.04937152
206	0x3c40d5b0	0.011769697
207	0x3c8008a3	0.015629118
208	0xbe5af5d8	-0.21382844
209	0xbbd767a6	-0.006573635
210	0x3e9915dc	0.2989949
211	0x3da857be	0.082198605
212	0xbc32eb8b	-0.010920416
213	0xbd6d2c50	-0.057903588
214	0x3c38d1d7	0.0112804985
215	0xbe2cd35b	-0.168775
216	0xbc248f50	-0.010043934
217	0xbd09356e	-0.03349822
218	0x3d178554	0.036992386
219	0x3c953df8	0.018218026
220	0x3e747979	0.23874463
221	0x397ad600	0.00023921579
222	0x3d8a4b1c	0.06752607
223	0xbcbc55ea	-0.022990186
224	0x3be22caf	0.0069022994
225	0x3d24347c	0.040089116
226	0x3c69a6fd	0.0142610045
227	0x3d5d004c	0.05395536
228	0x3c674c4d	0.014117313
229	0x3e6cb140	0.2311449
230	0x3c9b2f50	0.018943459
231	0xbd3fa632	-0.046789356
232	0x3b32f3c0	0.002730593
233	0xbd08d542	-0.033406503
234	0x3d1a85dc	0.037725314
235	0x3d4e7890	0.050407946
236	0x3d0522df	0.03250396
237	0x3e38a97d	0.18033405
238	0x3c9aeb88	0.018911138
239	0x3e5f7ad2	0.21824196
240	0xbd62ecc2	-0.05540157
241	0xbe59c1ff	-0.2126541
242	0x3cac382c	0.021022879
243	0x3d46e12a	0.048554577
244	0x3e57da97	0.21079479
245	0x3d756e59	0.05991969
246	0x3c507a62	0.012724491
247	0x3deb8f9c	0.11502001
248	0x3da95804	0.08268741
249	0xbd13014e	-0.035889916
250	0x3d1bf178	0.03807208
251	0xbb300625	-0.0026859131
252	0xbda0db28	-0.07854301
253	0x3e18a38f	0.14906143
254	0x3d5d398f	0.05400997
255	0x3d6a4978	0.05719897

bias f4 [33]
0	0x3d8347a5	0.064101495
1	0xbd379fb6	-0.044830047
2	0x3db405bb	0.087901555
3	0x3d562fc5	0.05229165
4	0xbc55a403	-0.013039592
5	0x3d6d2cb0	0.057903945
6	0x3d8fd4e9	0.07023031
7	0x3d9c2815	0.076248325
8	0x3d91d582	0.071208015
9	0x3cc16716	0.023608726
10	0xbc65b505	-0.014020209
11	0x3d376993	0.044778418
12	0x3d09cabe	0.033640616
13	0x3db2a36e	0.08722578
14	0x3d41ba7b	0.047296982
15	0x3d821e84	0.06353477
16	0xbd061760	-0.032737136
17	0x3d34c528	0.044133335
18	0x3d382c0f	0.044963893
19	0x3cc097cf	0.023509888
20	0x3bdf3b8e	0.0068125194
21	0x3d7bdade	0.061488025
22	0x3d9acf07	0.075590186
23	0x3da50595	0.08057705
24	0x3cfb596d	0.03068229
25	0xbcd02bb5	-0.025411466
26	0x3d7ba2d5	0.061434586
27	0xbc4f1241	-0.012638629
28	0x3c0ecf4d	0.008716417
29	0x3ca8090a	0.020512123
30	0x3d060c18	0.032726377
31	0x3dbedca8	0.093194306
32	0x3a74002a	0.0009307886
