experiments/diff_kappa_data/kappa1_3.5_kappa2_1_kappa3_1/rainbow_dqn_target_tem.pth (torch, 343122 bytes, 13 tensors)

weight f4 [256, 4]
00000000: 509c 40be f861 6bbe a6c4 c6be c430 ccbe
00000010: 84e9 9fbe 74bf f6be dc60 2cbe c4ac d4be
00000020: 64ce 8d3d 284e f1be 22b9 a7be 8a20 c23d
00000030: 6564 c43e d281 133d 29d5 003d 0f5e 1a3f
00000040: 109e c73d 7d69 003d 9ef5 fcbe 6b55 a43e
00000050: 9cab 74be fd1d 09be 7c0c 8e3a 3935 d03e
00000060: 51bf 5cbc 1bca a53e fa31 a6be 1048 fcbe
00000070: 9b06 d4be b90d be3e 2f28 6ebe 295d e4be
00000080: af46 b1bd 5172 50be d33d fb3e 7f0a ae3e
00000090: 8052 c4bd c0d5 2dbd 1085 c6bd a40e f2be
000000a0: 627f e13e 2619 49bd 9418 a2be 746d 1ebf
000000b0: c3f0 e6be a0f1 1f3d 5010 793d 4045 903c
000000c0: c5d1 7e3e 8a5d 483d fd45 34bd 4cd4 06be
000000d0: 1568 813c 85b4 babd 3729 84be 53a3 c9be
000000e0: 9205 c0bb fc4b b33e 3935 a7bd d837 c23e
000000f0: 1d8c 843d c73a cf3e 0e87 02be 3387 0a3f
00000100: 7d8b 173e 3f4f 8a3e f0b4 b8be 3d15 113f
00000110: d628 353e 981f 0d3e 4eb9 93be b345 22be
00000120: 0a67 1a3e cb0c a5bd 4eea 67be f0fc 09bf
00000130: 703f 4fbd 3827 31be 6697 a9be 6821 963d
00000140: 2fed 1abe 824b 6bbe 1399 173e 0e01 dc3e
00000150: e007 d0bd 9924 913e 28ab a9be 37ef 0a3e
00000160: 5719 f43e a704 90be 38d9 96be f021 c2be
00000170: 64e6 ce3d c3ba 813e dd0e 0abf cc25 a4be
00000180: e475 cbbe ec40 e93e ec14 ccbe 1e9e a2be
00000190: 5ef1 643e adc7 cb3d 4240 bbbe 1fff bb3e
000001a0: 51e8 d23d 9e25 a83e 17ec a43d adce e53e
000001b0: db67 753e 216d 60be 5e54 80be f7bf eebe
000001c0: 805d ccbc a3b7 efbe 9071 0b3d 7ec1 cc3e
000001d0: 3b19 1e3e bcee f7bc ac76 ba3e 542f 10bf
000001e0: 07a7 633d ce58 8abe 08b7 85be 4735 a0be
000001f0: 8c75 fabe 6c42 b0be ac2c ffbe 30d1 90bd
00000200: 9ae3 333e e341 aabe 99ab 5ebe cdba a6be
00000210: fc66 87be 3fb8 093e db4b d8be d9a3 db3d
00000220: 3ad8 b53e f091 f83e 854e 8b3e 486b 5e3e
00000230: 5b94 27bc f211 0d3f 8816 8b3d 47be 563e
00000240: 15fb 8d3d 9602 de3e 0341 4ebe 4c09 283f
00000250: ec6f c6be 8035 c6bc f01c e7be 0055 22bb
00000260: 8b35 11be 7a03 213f 8f2d 613e 77c4 4f3e
00000270: c06f 62bd 00ae d0bc 00de 61bd ca5f e4be
00000280: 6fac dd3e 9752 083f 235b 5fbd 3e7d 6abe
00000290: 1bfb 803e eafd 14bd e0d1 3e3e 0d16 dcbe
000002a0: 25ef 123e 1a70 8ebe 2342 a7be 7806 a2be
000002b0: e856 31be 62e0 89be 0e7d d7be 2824 bd3d
000002c0: b033 04bf b6ad 05be 6556 c13e 8a55 843e
000002d0: 22b9 e23e 668a a9bc ba40 10be d605 5a3e
000002e0: ff1e e33c 3e6e 073e 7e96 de3d ec17 9b3e
000002f0: d3e3 443e b099 d3bc 438b 8c3e db2b ea3e
00000300: b3ce 843e 2e17 d9be 0425 fd3e 8c33 b1be
00000310: da09 e73e 11a6 e53e ea12 7dbe 33ea 773e
00000320: 8a7a bebe 08ea bb3e 5cae 53be 2790 94be
00000330: cccc c53e ee92 d0bd 4715 ca3e 2dfd fb3e
00000340: b8aa b03e f86f 21be f4ea 9cbe be2f 0bbe
00000350: b489 7cbe f826 1a3e 6267 b7be 4ba5 e13d
00000360: 55d5 be3e 511e 1f3f 937c d1be 3f42 03bf
00000370: 3db1 47bd 63ba e53e 6cdb d53d 2f74 b1be
00000380: 180d bd3d db68 81be 4636 4f3e 7579 28be
00000390: 21fc 6c3d c216 c1be 2bc2 48bb 4bee fd3e
000003a0: a047 2bbd 2e9f 87be 5609 ccbe aa3d e0be
000003b0: 70e1 2b3e b60b 8b3e f663 073f dc51 28be
000003c0: 1db2 d53e bd8b 76be 8811 033f 626b 27bd
000003d0: a209 f23e b59e 0abf b845 d83e 12e8 ef3d
000003e0: ba70 d53e d893 ce3e 3f00 ffbe 7241 0f3f
000003f0: 3858 f6be 1c21 9b3e b85b 49be 3308 3a3d
-0.18809628 -0.22986591 -0.38821906 -0.39880955 -0.31232846 -0.48192942 -0.16833824 -0.4153806
0.069241315 -0.4712994 -0.32758433 0.094788626 0.38357845 0.03601248 0.031453285 0.6029977
0.09746945 0.0313506 -0.4940614 0.3209642 -0.23893589 -0.13390346 0.0010837461 0.40665606
-0.013473348 0.32380757 -0.32460004 -0.4927373 -0.4141129 0.37119845 -0.23257516 -0.44602326
-0.0865606 -0.20356108 0.49070606 0.33992383 -0.09586048 -0.042440176 -0.096933484 -0.47276795
0.44042498 -0.04909625 -0.31659377 -0.6188576 -0.45105562 0.03904879 0.060806572 0.017611146
0.24884708 0.04891733 -0.04401206 -0.13166922 0.0157967 -0.091164626 -0.25812694 -0.3938242
-0.005860039 0.3501891 -0.08164448 0.3793323 0.06472037 0.4047453 -0.12746832 0.5411255
0.14799304 0.27013585 -0.36075544 0.5667303 0.17691359 0.13781583 -0.28852314 -0.158469
0.15078369 -0.08059081 -0.22647974 -0.53901577 -0.050597608 -0.17300117 -0.3312332 0.073305905
-0.15129541 -0.22978023 0.14804487 0.42969555 -0.10157752 0.28348234 -0.33138394 0.13567816
0.47675583 -0.2812855 -0.294626 -0.37916517 0.10102537 0.253378 -0.5392893 -0.32060087
-0.3973838 0.45557344 -0.39859712 -0.3176126 0.223577 0.099501945 -0.36572462 0.3671808
0.10298217 0.328412 0.08052843 0.44884244 0.23965399 -0.2191663 -0.25064367 -0.46630833
-0.024946928 -0.4681979 0.03404385 0.39991373 0.15439312 -0.030265205 0.36418664 -0.56322217
0.05557921 -0.27020878 -0.26116204 -0.31290647 -0.48917806 -0.34425676 -0.4983877 -0.07071149
0.17567292 -0.33253393 -0.21745147 -0.32564393 -0.26445758 0.1344919 -0.42245373 0.10724611
0.3551653 0.4854884 0.27208343 0.21720612 -0.010228242 0.5510551 0.06791407 0.20971023
0.06932656 0.43361348 -0.20141988 0.65639186 -0.38757265 -0.024195433 -0.45139265 -0.0024769902
-0.14180581 0.6289593 0.21990035 0.20289789 -0.055282354 -0.025473595 -0.055143356 -0.4460433
0.4329562 0.5325102 -0.054530274 -0.22899339 0.25191578 -0.036374964 0.18634748 -0.42985573
0.14349039 -0.27819902 -0.32667646 -0.3164556 -0.17318308 -0.26929003 -0.42087597 0.09235412
-0.5164137 -0.13054547 0.37761226 0.2584651 0.4428187 -0.020695876 -0.14087191 0.21291289
0.027724741 0.13225648 0.10868548 0.30291688 0.19227533 -0.02583012 0.27449998 0.45736584
0.2593895 -0.42400497 0.49442303 -0.3460964 0.45124704 0.4485326 -0.24714246 0.24210434
-0.37202865 0.3670199 -0.20671982 -0.2901623 0.3863281 -0.101842746 0.39469358 0.49216595
0.34505248 -0.15765369 -0.30648005 -0.13592431 -0.24661905 0.15053928 -0.35821062 0.11017855
0.37272134 0.62155634 -0.40915355 -0.5127296 -0.048753012 0.44868764 0.10442242 -0.34658954
0.09231013 -0.2527531 0.20235547 -0.16452582 0.057857636 -0.37712675 -0.0030633311 0.49595866
-0.041816354 -0.26488632 -0.39850873 -0.43797046 0.16785216 0.27157372 0.52886903 -0.16437477
0.41737452 -0.24076743 0.51198626 -0.040873893 0.47272974 -0.5414842 0.4224069 0.11714186
0.41687566 0.4034717 -0.49804875 0.55959237 -0.4811418 0.30298698 -0.19663894 0.045417976

bias f4 [256]
00000000: 6808 193e bed0 a6be cac7 033f 7297 283d
00000010: 522d c6be 0908 5d3e 4271 053e ccd6 cd3e
00000020: bd83 f0be 4174 cfbe 3109 c9be a0c9 83bc
00000030: fad4 8b3e 569e 193f bbfc 813d 23ee 0d3f
00000040: a500 d1be 27a3 f7be 1a7d afbe 20c1 1a3e
00000050: 35bc 153c 324f b0be bc05 e7bd 3af0 b63e
00000060: 6934 99be cbab 45bd ed5f 883e e016 bbbe
00000070: 00ce 2ebb 1d51 03bf 0ac5 a13e 920c bb3e
00000080: ba3c ae3e 8917 dd3e 41f7 1dbe 1f63 8a3e
00000090: c86f 963c 5a78 c23e 8400 1e3f 7a14 9cbe
000000a0: 41ae 903d 7992 c3be ef52 3a3e 7865 afbd
000000b0: 41b6 913e c8ad 8fbe 9799 b33e aee5 d73e
000000c0: 1bbb 40be adfc b53d 7b8d 25be 405c ca3e
000000d0: 9edb 093f 7001 5abe d347 45be c9ee a33e
000000e0: 1adf 92be 5ae8 bf3e 00c5 dd3b bce4 13be
000000f0: 56d4 81be 15d3 e83d 275d bcbe 01af a83e
00000100: 50b2 293d 413e a2bd c5e5 90be 26bb 4f3d
00000110: 3681 b03e db85 95be 0f6e 9a3e 3e1b ffbe
00000120: f278 9bbe b09d 093e 7664 e43d 46a6 f13e
00000130: 6fcf be3e f481 93bd 7899 f33e 340a ebbe
00000140: 050c 31be 3568 d4be cf27 103e 1eb3 89bd
00000150: 6ba5 f13e 2581 45bd 58a5 a63e 112a b13e
00000160: b822 bb3d 67ed 693e f17b 303e 9fe7 363d
00000170: 730e ce3d df23 f1be e00d b5be d456 13be
00000180: a7e8 d4be 73ee fb3e 7a53 c73e 025b 003f
00000190: b112 83be 6c81 873e 8e05 03be cb6c f1be
000001a0: e845 86be 248d c9be 0c1e 0cbd 503c b73e
000001b0: 7e58 d4be 17b4 c6be 5b8f e03d b259 093c
000001c0: 06ff fbbe 4685 203e ca9c babe 8ba5 223d
000001d0: b548 4bbd ed02 05bf 3e9e e43e 2a6e 293c
000001e0: c078 b5be bbff 4cbd f9b4 4abe 8c43 c6be
000001f0: 7178 823e b073 283d f00d c4be 0441 053f
00000200: 6cae 523e d41e ea3e 4d04 a3be a7ad e9be
00000210: e015 d6bb a63b d33e d4eb a43e 043d b5be
00000220: 244a 4dbe bf39 a1be 9109 b2be f8e1 043f
00000230: 986c 4e3e 0f12 03be 8cb8 09be 5a2b 9e3d
00000240: f6d1 84be 1ae4 8ebd 4daf 6d3e c3e3 983e
00000250: 5561 27be cd8a 1d3d f076 973e 06bf 87be
00000260: f2f9 c9be 34b1 56be 3314 7bbd a3f6 b33e
00000270: 3fe5 093f 4ad1 adbe f5c1 fcbe 4af1 c53e
00000280: 630e 06be a453 8dbe c802 c23e ad85 83be
00000290: 2383 e3be 72b0 b1be 2dcb 62be 3db7 d33c
000002a0: 9e09 aabe 1075 68be 02fe bc3e 8a5e 4bbe
000002b0: 8d26 4fbe 7007 383e d746 b73d b2a3 093f
000002c0: 48fa b0bd 1d11 973e 984b ee3e bb53 dc3e
000002d0: 4bef 9a3e 0137 e93c 1051 50be 8ad3 bbbc
000002e0: f6a1 80be e963 f43e 6652 cf3e 3e51 763e
000002f0: 622c c03e 0a27 b33e 601c 9bbe 9cd2 34be
00000300: 35f6 fd3e a232 dd3e d77e eb3e cba1 223e
00000310: 8cd0 ea3e 7912 fc3d fdf1 c43d 3fdc 4d3d
00000320: 01a2 8f3e 8980 ecbb 0a70 82be a81e 933e
00000330: aeeb 07bf b022 58be 936e 2d3e 3cf7 d9bc
00000340: 8fab c83e 6d5e 303f e999 a13e 22d1 b03e
00000350: 8044 37be 35cc 893e f2e7 b6bd 7342 623e
00000360: 41d6 c3bd 44cc cc3c 6081 a2bd 19b8 66be
00000370: 92a9 8a3e 0885 bb3e b92d a23e 3320 473e
00000380: 90cd 6d3e 8af2 613e a43c 04bd b35d a73e
00000390: df95 76be 10a1 57be 368a b8be 03e0 17be
000003a0: f3dc 87bd d443 e0be 0352 e23d aeef 6dbd
000003b0: 100e 9a3e ac7f 043f 4715 a8bd 9cf2 dabe
000003c0: b826 a43e d3bf b5be 70b0 35bd 5c71 bd3e
000003d0: 2e83 973e 0d28 29be e315 d93d 8f3d bc3e
000003e0: 24ee a43e 2e20 bc3e b567 c9be 7a62 2b3c
000003f0: 70de e0be b8bd e0be 1771 183f 3c57 fd3d
0.14944613 -0.32581133 0.5147673 0.041160055 -0.38706452 0.21585096 0.13031486 0.4020294
-0.46975508 -0.40518382 -0.39264825 -0.016087353 0.27310926 0.60007226 0.06347033 0.5544149
-0.40820804 -0.48366663 -0.34275132 0.15112734 0.00913911 -0.3443542 -0.112803906 0.35730153
-0.29922798 -0.048259538 0.26635686 -0.3654089 -0.0026673079 -0.51295644 0.3159564 0.36533028
0.34030706 0.43182018 -0.15426351 0.27028748 0.018363848 0.37982446 0.61719537 -0.30484372
0.07064486 -0.38197687 0.18195699 -0.085642755 0.2845936 -0.28062272 0.35078117 0.4216742
-0.18821375 0.08886085 -0.16167252 0.39523506 0.53850734 -0.21289611 -0.1926568 0.32018116
-0.28685838 0.37481958 0.006767869 -0.14442724 -0.25357312 0.11368386 -0.3678982 0.32946017
0.041429818 -0.0792203 -0.283003 0.050715588 0.3447358 -0.29203686 0.30162093 -0.49825472
-0.3036571 0.1343906 0.11151974 0.4719717 0.37267634 -0.07202521 0.47578025 -0.45906222
-0.17289741 -0.41485754 0.14077686 -0.06723617 0.47196516 -0.048218865 0.32548022 0.34602407
0.091374815 0.22844468 0.1723478 0.044654485 0.1006135 -0.4709768 -0.35362148 -0.14388591
-0.4158375 0.4920536 0.38930875 0.50138867 -0.25600198 0.2646593 -0.12795088 -0.47153315
-0.2622521 -0.39365494 -0.034208342 0.35788202 -0.41473764 -0.38809273 0.10964843 0.008383201
-0.49218005 0.1567584 -0.36447746 0.039708655 -0.049629886 -0.5195759 0.4465198 0.010341207
-0.35443687 -0.05004857 -0.19795598 -0.3872341 0.25482515 0.041125953 -0.38291883 0.5205233
0.20574349 0.45726645 -0.3183922 -0.456403 -0.0065333694 0.41256446 0.32211173 -0.35398114
-0.20047814 -0.3148937 -0.34772924 0.519073 0.20158613 -0.12799858 -0.13449305 0.077231124
-0.25941437 -0.06977101 0.23211403 0.29861268 -0.16345723 0.03846245 0.2958293 -0.26512927
-0.39448506 -0.20966035 -0.06129856 0.35149106 0.53865427 -0.33948737 -0.49366727 0.3866065
-0.13091426 -0.27602875 0.37892747 -0.25687924 -0.44435987 -0.3470493 -0.22147818 0.02584421
-0.33210462 -0.22700906 0.36912543 -0.19860283 -0.2022955 0.17971587 0.089490585 0.53765404
-0.08641487 0.29505244 0.46542048 0.4303263 0.3026069 0.02846861 -0.20343423 -0.022928018
-0.25123566 0.47732475 0.40492553 0.24054429 0.3753386 0.34990722 -0.30295086 -0.17658466
0.49601904 0.43202692 0.4599521 0.15882032 0.45862234 0.12308211 0.09616468 0.05025887
0.28053287 -0.007217471 -0.25476104 0.28734326 -0.53093994 -0.21106982 0.16936712 -0.026607148
0.3919339 0.6889408 0.31562737 0.34534556 -0.17897224 0.2691361 -0.08930959 0.22095661
-0.0956235 0.024999745 -0.079348326 -0.22531165 0.27082497 0.36624932 0.3167551 0.19445877
0.23222947 0.22065178 -0.032284394 0.32688674 -0.24080609 -0.21057534 -0.36042947 -0.14831547
-0.066339396 -0.4380175 0.11050799 -0.058089904 0.30088854 0.5175731 -0.08207183 -0.4276322
0.3206079 -0.35497913 -0.044357717 0.3700055 0.2959227 -0.16519184 0.10599878 0.36765715
0.32212937 0.367433 -0.39336935 0.01046049 -0.43919706 -0.43894744 0.5954756 0.12370154

weight f4 [256, 256]
00000000: 1aec 2cbd 80f7 e43c aa66 d6bd 10f0 1ebd
00000010: 1a33 1dbe 99b4 cd3b 425e 65be 15b2 75bd
00000020: ca6e 013e 4c66 f9bc 6900 f1bc d8f3 4ebc
00000030: b38c 4b3d 5533 153e e6cd 183e 07b6 8a3d
00000040: 95db 383d 7611 9bbc d0dd 02bd c8d6 0abd
00000050: 6440 963d 6b39 c1bd 408d 383c cfed 8f3d
00000060: c949 8a3b fb13 00bd 79d3 713d 13a1 0cbd
00000070: 00d7 4bba ca20 8bbb 98da 04be b8af 2ebd
00000080: b1a6 083c 8938 d8bb df4a 183c 64e0 8c3d
00000090: ba87 723d a41c 803c 995f 083e 1039 da3b
000000a0: 2cf6 ff3c 9710 7a3d 8e22 86bd fef4 783d
000000b0: 3e7f 59bd 1221 2ebd 358d 843d bd15 a0bc
000000c0: 154d 783c 2269 01bc 8388 1fbd f7f4 ddba
000000d0: f78f b7bc 00db 4eba 8fa2 5fbd ff90 a33d
000000e0: e739 42bd 9430 8b3a 6423 4cbd 41bb 273d
000000f0: e96a 2bbd 9d69 ecbb ac88 72bb 98fb 80bd
00000100: 453b 243d 134a 17bd fb63 463d f154 98bd
00000110: eaa9 5d3d df00 b6bd 861b 8d3d 808c 9e3a
00000120: 50ff ceba c0d0 a13c bc88 eb3c b8f0 383d
00000130: f3b0 b23d d983 2dbc 38f0 c8bc 029a 5bbd
00000140: 2723 2f3d 0e9e 20bd cde2 5d3d 343e 473d
00000150: 2683 c23c b335 efbc f3c4 d43b fe9f 2cbd
00000160: fa22 7b3d d7da b9bc 0606 8c3c 5e60 a83c
00000170: e71c 8c3c d888 8f3d 7464 6fb9 76a3 04bd
00000180: e19e 64bc 85c2 53bd b946 35bd 8a5c 9dbc
00000190: a771 06bd 3f84 1bbd 7c25 773d ab82 d33c
000001a0: dc80 8dbc 3ef7 af3c 005e a7bd 4468 28bd
000001b0: ac3f ea3c a4b8 883c ff21 8d3b 092d 823d
000001c0: 4f67 683d d750 6d3d a2b8 213d 8070 033d
000001d0: 57e9 50bd 6374 543d 8066 68bb 61f5 89bc
000001e0: a4c0 a5bc ca21 9b3d 981e c13c 3041 fe3b
000001f0: 5620 d13b b4b9 26bd 1fb5 143d 38ed 523c
00000200: 6080 9d3c 2a91 3dbd fe7a 34bc dff2 11bc
00000210: e61c 563e 6bd6 eb3d 96c0 59bc e8a7 fc3c
00000220: 102f b0bc c22a 373d c6c0 7b3d ce4f e1bc
00000230: 5285 08bd 7492 5d3d 2338 653d b6b8 dc3c
00000240: 5543 90bc 33f9 c3bd 6fbf 26bd 8e17 583b
00000250: eb05 67bd 3ba4 613c 2be8 6ebe 0c65 493d
00000260: e0e9 34bb a495 493d de08 323d 7b3c 303d
00000270: d98a cabc 931e 2abe 0a7d e8bc 88f1 3bbd
00000280: 7283 d43b 0f5a 0c3d 0362 e2bd 99d5 42bc
00000290: 91da 133c 531a 5cbc 2908 85bd ab84 9f3d
000002a0: 1a58 713c dcc7 19bd c856 393d 1215 acbd
000002b0: 698b c43d 56d2 873d 40bd e43d 62c8 2dbd
000002c0: 8238 6f3d 1f00 18bd 2f1f 243d be01 05be
000002d0: 8072 ec3c a34d 233c 91a1 053d ba79 b9bc
000002e0: 955f b93c 0f3c 883d c9d0 fb3c cc27 423d
000002f0: bed3 68bd 4441 93bc 1680 46bd 43e6 4d3d
00000300: 8587 8a3d 4400 08bd 6cf7 ae3d 493a e93d
00000310: 2af5 b93d ff53 d2bc b860 bb3b 0e52 adbb
00000320: 010f 913d d494 4b3d 0eb5 053c 40cf e83c
00000330: e963 423e d8cb 4f3c 14e8 a13d 783e e43d
00000340: f079 313e 3cfd 173d a24b 383e 9fe4 58bd
00000350: c800 2b3c 3036 3e3d d900 86bc cb3e 133d
00000360: ce4c 013e 4e5e dabc 8055 133b 9673 543d
00000370: ad57 63be 30fb 713d 86fc 6dbc 3566 853d
00000380: b989 1dbc ad29 443d 34f0 443d 5cbc 86bd
00000390: 78a5 3ebd 4eac c73c 2f77 2fbd 5819 c43b
000003a0: 10f9 a1bd bf53 533d a727 803d 4602 d03c
000003b0: 8104 f23d aada 483e b133 133d f02e 703d
000003c0: 1542 0a3d 2eb2 3ebd 2b04 7a3c 803e d3bb
000003d0: 3cc9 66bd b82c c8bb afbb 34bc 9b39 3fbe
000003e0: 029f ebbc d226 37bd e05b 2cbe c7cc 80bb
000003f0: edc0 b03c b682 253d 01e0 0f3e 59d2 28bd
-0.04221735 0.027950048 -0.104688 -0.03880316 -0.15351525 0.0062776324 -0.22399238 -0.059984285
0.12639919 -0.030444287 -0.02941914 -0.012631379 0.049694728 0.14570363 0.14922294 0.06773
0.045131285 -0.018929224 -0.031949818 -0.033896238 0.073365 -0.0943478 0.011264145 0.0702778
0.0042202217 -0.031269055 0.059039567 -0.0343333 -0.0007775873 -0.004245852 -0.12974012 -0.042648047
0.008340524 -0.0065985364 0.009295194 0.068787366 0.05921147 0.015638657 0.13317718 0.0066596344
0.031245314 0.061050978 -0.065495595 0.060780518 -0.053099863 -0.042512007 0.064722456 -0.019541616
0.015155097 -0.007898601 -0.038948547 -0.0016933967 -0.022407515 -0.000789091 -0.054598387 0.0798664
-0.0474185 0.0010619336 -0.04983844 0.040950064 -0.041850004 -0.0072147385 -0.0037007732 -0.06297988
0.040095586 -0.036935877 0.048435193 -0.07438076 0.05411712 -0.08886885 0.06890015 0.0012096316
-0.0015792642 0.01975286 0.028751723 0.045151442 0.08725157 -0.010590517 -0.024528608 -0.05361367
0.042758133 -0.039213233 0.054171372 0.048643306 0.023744177 -0.02920041 0.0064932047 -0.042144768
0.061312653 -0.022687359 0.017092716 0.020553764 0.017103625 0.07008523 -0.00022830238 -0.03238245
-0.013953895 -0.05169918 -0.0442569 -0.019209165 -0.03282323 -0.037967917 0.060338482 0.025819143
-0.017273359 0.021480199 -0.08172226 -0.04111506 0.028594814 0.016689606 0.004307031 0.06356246
0.056739148 0.057938423 0.03948272 0.03208971 -0.05100378 0.051868808 -0.0035461485 -0.016840639
-0.02023346 0.07574804 0.023574159 0.007759236 0.0063820286 -0.040704444 0.036305543 0.01287394
0.019226253 -0.046281017 -0.011015652 -0.008908003 0.20909461 0.11515506 -0.013290545 0.030841783
-0.021506816 0.04471851 0.06146314 -0.027503874 -0.03333027 0.054094747 0.05596174 0.026943546
-0.017610231 -0.09569015 -0.04070991 0.0032973024 -0.05640213 0.013772066 -0.23330753 0.04916863
-0.002760522 0.049214974 0.043465488 0.04302643 -0.02472441 -0.16613226 -0.028379936 -0.04588464
0.006485396 0.034265574 -0.110538505 -0.011891746 0.009024278 -0.013434011 -0.06495697 0.07788976
0.014730478 -0.037544116 0.045248777 -0.08402456 0.09596903 0.06631915 0.11168909 -0.042427428
0.0584035 -0.03710949 0.0400688 -0.12988946 0.028863192 0.0099672405 0.032624785 -0.022641052
0.022628585 0.0665208 0.030739205 0.047401235 -0.056842558 -0.017975457 -0.048461996 0.050268423
0.067641295 -0.03320338 0.08543286 0.1138807 0.090799645 -0.025674818 0.005718317 -0.0052893227
0.0708294 0.04970248 0.008160843 0.028419137 0.18983425 0.0126828775 0.079055935 0.111447275
0.17331672 0.037106737 0.17997602 -0.052952405 0.010437198 0.046438396 -0.016357826 0.035948556
0.12626955 -0.026656296 0.0022481382 0.051868044 -0.22201414 0.05907744 -0.014525538 0.06513635
-0.009615355 0.047891308 0.048080638 -0.065788954 -0.046544522 0.024374153 -0.04283827 0.0059844665
-0.07908833 0.05159354 0.06257563 0.025391709 0.11817265 0.19614664 0.03593797 0.058638513
0.033754427 -0.046556644 0.015259783 -0.0064466596 -0.056344256 -0.0061088465 -0.011031075 -0.18674318
-0.028762344 -0.044714756 -0.16831923 -0.0039306614 0.02157637 0.04040786 0.14050294 -0.04121623

bias f4 [256]
00000000: f9eb af3d ba53 6bbd 7cd6 933d 3d41 893d
00000010: 32d9 d93c 2e65 19bc e3c8 4abc 87b3 ac3d
00000020: e4fa 3ebb ae8f 14bd a59b 953c 6739 e5bc
00000030: 3846 d73c 7a80 083d 3a96 6dbd f05a 2dbd
00000040: b7a7 b8bc 3880 213c 009f 913c 1882 b2bc
00000050: b07d 00bc 2012 61bc 42d9 13bd 3100 363d
00000060: d0c9 a6bc 0362 303d 2e49 d93d ef5f 953d
00000070: e5eb 05be 0219 31bc 5ec7 253d 48b9 4d3d
00000080: df74 343d 1a83 9f3d 6014 babc c2e9 51bd
00000090: 7300 4b3d 5d33 87bb bc9c 133a a996 73bc
000000a0: 8036 63bc ea10 61bd 1d48 aebc 2c2b 6abd
000000b0: 7ea5 53bd f3a5 0c3d 79d8 b1bb 0b21 233d
000000c0: 9e63 66bd 0831 883c 202b d5bc 0ace 833c
000000d0: 81d6 02bc 78e5 3cbc b016 093c 64c8 a9bc
000000e0: 9378 d7b9 38bc 423d b845 553d 9653 b3bc
000000f0: 08a6 17bd 4d4a 9fbd 1a4d d8bc 603c 443d
00000100: 67e7 a93d 1829 93bc 9458 033d 8c47 c13d
00000110: ef36 28bd 43f8 ebbb e5ea 133d 02a8 92bd
00000120: 9afc bc3c 1e80 e73c bf5d 58bd 3fc8 473b
00000130: da9f a53d d00b dd3b 68c0 b03d 58d7 d33c
00000140: 4c32 97bc a89c a83d 24ea 73bc bd8b dabc
00000150: cd49 1aba 47bb bc3b aae2 793d 63c0 c43d
00000160: 6b06 823d 1507 6b3d ac50 0a3d b406 11bd
00000170: c0c0 923d 4802 01bd 16a0 613d fbb2 8b3c
00000180: 68d4 61bc 2898 7f3c dd0f b83d 665d 32bd
00000190: d32b ecbc 5ca0 f53b 8bd1 14bd 20f2 1dbd
000001a0: a151 4ebd 181a 3c3d ea96 0ebd 48cc 2bbd
000001b0: 7e7f 18bc f007 b4bc 2cb3 0dbd 9c68 323d
000001c0: 9351 053c efc5 3e3d 7594 37bc 06d1 663d
000001d0: c1f4 44bd be38 333d 8609 53bc 59f2 a3bc
000001e0: f8da 0b3d 3018 8e3c ffe5 243d 98bb 523d
000001f0: 2b9f 6ebc 8ea9 963d 047a 7fba 33e3 1abd
00000200: baed c93c f6d1 1fbd 93cc 563d a5d7 0bbd
00000210: de2e 06bd 0898 373c 45bb 873c 4650 5ebd
00000220: 3860 9c3c 5e1b a03d 9813 243d 2d0f 86bd
00000230: 05bb 2abd 6144 6cbd 093a 3d3d f692 593c
00000240: ffee bf3d 1ad2 593b dbad adbd 0daf 953b
00000250: 542e 6b3d 2798 20bd a31b cd3c 726e 2dbc
00000260: 7d57 633d d0a1 703d 7d61 373d e8c2 b5bc
00000270: 364c bf3a 9c99 913d e9db 0bbc ea1a 2abd
00000280: aa88 2a3d ed4f fabd 53f2 66bd c128 a8bc
00000290: 708e b13d 513b 08bd fd66 1a3d 5594 633d
000002a0: f079 ee3b edd0 06bd 1e84 24bc 99d3 04bd
000002b0: 60e6 30bc e893 e5bc 476b 533d 8eb7 2d3c
000002c0: 471e 463b 05f0 08bd e99d 55bc c0d8 a0bb
000002d0: 741f 79bc dfa3 0f3d fb30 983c 483f c03c
000002e0: ab7d cfbc 57c5 9dbb f6ee 5ebd eed1 233b
000002f0: de76 1bbd 748c 733d 2787 9b3a 0739 0e3d
00000300: 825b ee3b 5175 c6bc 8759 553d 4f63 333d
00000310: e4e2 ba3c 8a4c 5abd 8989 433d 2aff acbc
00000320: 129e 233d f6e4 743c 4a60 29bd a0d0 5e3d
00000330: e8f9 e53c d534 afbc 5098 3c3d 460d 273c
00000340: 3928 dbbc 051a ee3c aa1f 59bc c91b 5a3d
00000350: 440f c83c 65b5 b93b b6e3 703d f929 9e3d
00000360: 86d6 63bd 4a49 273d 9472 d63d 042b e53c
00000370: d286 80bc fcbb f7bb 222f aebc 6592 89bc
00000380: 302b 2a3d b077 31bc 566f 4b3d 525b 773d
00000390: 55df 703d 374e 373d cc65 2bbd 802e 32bd
000003a0: a1d6 13bd 9ba5 f539 0a37 3dbd 72e7 053d
000003b0: 4fd6 a8bb 025e cf3d 92c0 603d 3e93 91ba
000003c0: 6162 a13d 00e0 90bd 1224 663d ae99 dc3d
000003d0: 61a2 68bc 18c6 44bb 201a af3d 5c36 573d
000003e0: 8615 c63d 9d8f 783d 3809 d93c fd24 33bc
000003f0: 5c00 033c 737d 7a3d 1e1b a33c 9fc8 973d
0.0858993 -0.057452895 0.07218644 0.06701896 0.026592825 -0.009362502 -0.012376997 0.084326796
-0.0029141242 -0.036269836 0.018262694 -0.027981473 0.0262786 0.03332565 -0.058004595 -0.042323053
-0.02254091 0.00985723 0.017776012 -0.02179055 -0.007842466 -0.0137372315 -0.036095865 0.044433776
-0.020359904 0.04306222 0.10609661 0.072936885 -0.13078268 -0.010809185 0.040473334 0.050225526
0.04405677 0.077886775 -0.022714794 -0.05124832 0.049560975 -0.004125996 0.000563096 -0.014867463
-0.013867974 -0.05494777 -0.02127462 -0.05717008 -0.051671498 0.03433795 -0.005427417 0.039826434
-0.056247346 0.016624942 -0.02602154 0.016089458 -0.007985712 -0.011529319 0.0083672255 -0.020725437
-0.0004109783 0.04754278 0.052068442 -0.021890443 -0.037023574 -0.077778436 -0.026403952 0.04790914
0.082960896 -0.017963931 0.032066897 0.094374746 -0.041068014 -0.007201226 0.036112685 -0.07160951
0.023069669 0.028259333 -0.05282378 0.0030484346 0.0808713 0.006745793 0.086304486 0.02585952
-0.0184566 0.08233005 -0.014887366 -0.02667796 -0.0005885631 0.00575963 0.06100718 0.09607007
0.063488804 0.0573798 0.03376834 -0.035406783 0.071656704 -0.031496316 0.05508431 0.017053118
-0.013783552 0.015600242 0.08987401 -0.043546103 -0.02882949 0.007495923 -0.03633265 -0.038560987
-0.050370816 0.045923322 -0.03481189 -0.041942865 -0.00930774 -0.021976441 -0.0345947 0.043556795
0.008137125 0.046575483 -0.0112048285 0.056351684 -0.048084978 0.043755285 -0.0128806885 -0.020013021
0.03414437 0.017345518 0.040258404 0.051448435 -0.014564316 0.07356559 -0.000974566 -0.03781433
0.02464949 -0.039018594 0.05244119 -0.0341412 -0.03275954 0.011205681 0.01656879 -0.054275773
0.01908885 0.0781772 0.04005775 -0.06545863 -0.041682262 -0.0576824 0.046197925 0.013279667
0.09371757 0.0033236803 -0.08480426 0.004567987 0.05741723 -0.039207604 0.025037592 -0.010585414
0.055503357 0.058748066 0.044770706 -0.022187665 0.0014594856 0.07109377 -0.008536317 -0.041529574
0.04163424 -0.12222276 -0.056383442 -0.020527245 0.08669746 -0.033259694 0.037695874 0.055561382
0.0072777197 -0.03291409 -0.010041265 -0.032428358 -0.010797113 -0.028024629 0.05161598 0.010602845
0.003023045 -0.033432025 -0.013038137 -0.004908651 -0.015205253 0.03506839 0.018578043 0.023467675
-0.025328478 -0.0048147845 -0.05442711 0.0024996954 -0.037955157 0.05946012 0.001186584 0.034722354
0.007274092 -0.024225863 0.052087333 0.04379588 0.022813268 -0.05329565 0.047738586 -0.021117765
0.03994567 0.014947167 -0.041351594 0.05439818 0.028073266 -0.021387497 0.046043694 0.010196036
-0.026752578 0.029065141 -0.013252178 0.053249154 0.024421342 0.005667376 0.058810912 0.077228494
-0.055624507 0.04084138 0.10471073 0.027974613 -0.015689287 -0.0075602513 -0.021262709 -0.01679344
0.041545093 -0.010831758 0.049666725 0.060389824 0.058806736 0.044752326 -0.041845128 -0.043501377
-0.036093358 0.00046853427 -0.046195067 0.032691427 -0.0051525007 0.101253524 0.05487115 -0.0011106504
0.078800924 -0.070739746 0.056186743 0.107714996 -0.01419887 -0.00300253 0.08549905 0.052542076
0.09672074 0.060683835 0.026493654 -0.010934112 0.007995691 0.061154794 0.019910391 0.07411312

weight_mu f4 [1, 256]
00000000: 6d84 9c3d 0960 463d 04d2 ec3d 68a4 21be
00000010: 7085 7dbd e1dd 59bd ec09 f13d 573a 863d
00000020: eb09 f63d d58d 963c 2918 5fbd c8c6 933d
00000030: 4ead 9fbd f0b1 4bbe e046 2c3d 1168 cd3b
00000040: 3c9b 65be 9b29 60bd f4f5 d13c df28 283c
00000050: efa1 2bbd 601f 7a3b 42e4 1c3d f139 f4bd
00000060: 91b4 df3d c8c3 303d 6ba5 833e c370 f13d
00000070: 6c4c 423e 64e3 183e 3d37 683e 74c4 833c
00000080: 8296 a3ba 54c5 0a3e 512d 593d a877 05bc
00000090: c23e 9a3e f15c 5c3d f03b da3d 1bdc 6ebd
000000a0: 6408 afbc 1ca1 38bd 6ce7 53bd 76c3 1fbd
000000b0: 0094 82bb eb02 d53d b6a3 753d 718f 76be
000000c0: f2c8 6abd 70f6 763c 1842 003d 3f40 febd
000000d0: 5b4f dd3d 7182 5cbd eeb1 fe3d 1aa2 f0bd
000000e0: 5196 b53d dac1 7abd e0e2 e03d 3d48 993d
000000f0: 560c 17bd f7d6 b0bd 2012 31bc 91dd 5e3d
00000100: 3270 bf3d ed48 9c3d 60a0 6f3b 99a4 8d3e
00000110: 9397 72bd fe41 1abd 4848 62bd fa4b a63d
00000120: 53eb 9fbd c70c 58bd 5676 84bd 8947 f93d
00000130: 15ac ca3d 1c5f 503d 2a90 a93d 3c0b febc
00000140: 8328 653b 60f9 b13d 1724 d7bd 8fb6 d8bd
00000150: 6e4b dbbd 855b 023d 80be 6a3b 052b d83d
00000160: 529f ea3d f12a 1cbe 2010 45bd da51 2a3d
00000170: 59d1 b83d 565c 78bb 140f 1f3d d0a6 c63d
00000180: d0df 353d 381f 2f3c 7d7f c43d 7437 a0bc
00000190: 5a5e ebbc 1c27 693d 25ca e2bd c037 6ebd
000001a0: 08fa bdbc 3b09 e9bd 75f9 b0bd e87d 1bbd
000001b0: 63dd 703d d3b9 7e3d e00b cbbb 4b73 debd
000001c0: 35c6 843d 7f17 3a3d 4d89 9d3d b1cd 113e
000001d0: 363c 603d ff90 883d cad3 3dbe 6953 fd3d
000001e0: c06a 10bc 05a3 bc3d 6cef 033e ac26 4f3d
000001f0: 8e78 283d aa4b 3abe 3cb4 1b3d 1f00 cbbd
00000200: 6bdb 9bbd 9631 20bd 4106 973d 27df a93c
00000210: 148b 703d aa76 063d fd1a c53d c33e 073e
00000220: a07b 4e3d 6285 1c3e 741b ac3d ba13 80bd
00000230: 3dad e5bd 9299 be3c 1884 133e ff2a 84bd
00000240: 0e43 b73d 786b 11be 55f0 5a3e df00 0e3e
00000250: ec2a 31bd a5b8 0cbb c828 cb3d e9c1 8a3d
00000260: dbe4 a13e a602 ce3d 7621 e93d a6ad 123d
00000270: a78a b23d d355 0c3e 9009 3cbe 781d 6a3c
00000280: 2c22 413e 73bd 6a3e f2e4 d6bc de25 88be
00000290: 3452 c73d 8959 623d a7ba 2dbd 0d95 973e
000002a0: 80fc ab3c fa7f 68bc e790 1dbd 6762 dcbd
000002b0: de0d 203d c6e1 7b3d de61 c63d 8a52 993d
000002c0: be43 bc3d feb3 6bbd cab6 703d 7ef2 573d
000002d0: 1edf acbc f53b 833e d1ee ff3d e315 723d
000002e0: 0536 b13d 6935 cabd f996 f9bb 747d fa3c
000002f0: e3d9 fb3c db12 8b3e 9319 43bd 1c65 bfbd
00000300: 1f17 0d3e b0c6 b93d a521 c93d 7a39 9dbe
00000310: 0861 173c 34d8 f6bc 6f32 69bd 071e 963d
00000320: bfd4 b23d 9b09 213e 1434 32bd 13d0 ed3d
00000330: 2e64 d23d a736 e5ba e0e7 e5bd 9ce8 893d
00000340: d4d5 a63d 3880 cbbc 11f6 973d 71c4 053e
00000350: 82a9 bfbd d4f2 fc3d 07cc 68be 1db2 983d
00000360: c187 aebd 6e35 09bd 0a12 f23d f83d 953c
00000370: 680e db3d 5e44 193b bcd4 fc3d f9ba c1bc
00000380: a1ed c3bd 2d14 1a3d e0f8 f1bd 4c00 5d3d
00000390: 8ecf 2bbe 32e8 e33c 502f 9b3c 2f80 3abd
000003a0: 24b0 eabc 7d5a 01bd dc85 1a3d fcfb fd3b
000003b0: 985f 3ebd 0e17 673e 88eb 9a3c b557 0ebe
000003c0: 1db5 71be 0021 c8bd 46a3 a73c afab 163e
000003d0: 56ca 033e e44b ef3d 5a71 dd3d f0f9 083e
000003e0: 6525 e23d dcc7 cb3d 1f79 0d3e 54e1 e5bd
000003f0: 5141 5e3b 3b4a 723d f632 2ebd b5c1 d23d
0.07642446 0.04843143 0.11563495 -0.15785372 -0.061894834 -0.053190116 0.117694706 0.06554096
0.120136105 0.018378178 -0.0544664 0.07215649 -0.07796727 -0.19892097 0.04205978 0.006268509
-0.22422498 -0.054727178 0.025629975 0.010263651 -0.04190248 0.0038165674 0.03830362 -0.11925114
0.10923112 0.04315546 0.2571214 0.11789086 0.18974465 0.14930493 0.22677322 0.016084887
-0.0012480768 0.13551837 0.053021733 -0.008146204 0.30126005 0.053799573 0.106559634 -0.058315378
-0.021366306 -0.04507552 -0.051734373 -0.039004765 -0.003984928 0.10400947 0.05997058 -0.24078156
-0.057320543 0.015073404 0.031313032 -0.12414598 0.108061515 -0.053835336 0.12436281 -0.117496684
0.08866561 -0.061220028 0.10980773 0.074844815 -0.036877 -0.08634751 -0.010807544 0.05441052
0.093475714 0.07631097 0.0036564097 0.2766464 -0.059226584 -0.03766059 -0.055244714 0.0811996
-0.078085564 -0.05274656 -0.06467883 0.121718474 0.09896103 0.050871953 0.0827945 -0.031011216
0.0034966774 0.08690143 -0.105049305 -0.10581695 -0.107077464 0.03182556 0.0035819113 0.1055508
0.11456169 -0.15250756 -0.04811108 0.041581966 0.09024305 -0.0037896833 0.03883274 0.09699786
0.044402897 0.0106885955 0.09594629 -0.019557692 -0.028731514 0.056922063 -0.11073712 -0.058158636
-0.023190513 -0.11378714 -0.0864133 -0.03796187 0.05880488 0.062188935 -0.006196484 -0.10861834
0.064831175 0.045432564 0.07692204 0.14238621 0.05474492 0.06668281 -0.18537822 0.12369425
-0.008814514 0.09210781 0.12884301 0.05057399 0.041130595 -0.18192926 0.03801368 -0.099121325
-0.0761021 -0.03910979 0.0737424 0.02073629 0.058726385 0.03282801 0.09624288 0.13207535
0.050410867 0.15285257 0.08403674 -0.062537625 -0.11214683 0.023266587 0.14405859 -0.06453513
0.089483365 -0.14201152 0.21380742 0.1386752 -0.043253824 -0.0021472361 0.09919888 0.06775267
0.31619915 0.10059099 0.11383335 0.035810135 0.08717852 0.13704614 -0.18363023 0.014289252
0.18860692 0.22923832 -0.026232217 -0.2659139 0.09732476 0.05526117 -0.042414334 0.29605904
0.020994425 -0.014190668 -0.038468268 -0.10760956 0.039075725 0.06149461 0.096866354 0.07486446
0.09192608 -0.0575447 0.05876807 0.052721493 -0.021102484 0.2563168 0.124967225 0.059102904
0.086528815 -0.098734684 -0.0076168743 0.030577399 0.030743545 0.27162823 -0.04763181 -0.09345457
0.13778351 0.090711 0.0982087 -0.30707914 0.009239443 -0.03013239 -0.056932863 0.07329946
0.08731984 0.1572632 -0.043506697 0.11611953 0.10273014 -0.0017487601 -0.11225867 0.0673382
0.08146253 -0.024841413 0.0741998 0.13063218 -0.09358503 0.12351003 -0.2273408 0.074558474
-0.08521987 -0.03349822 0.11819847 0.018218026 0.10696107 0.0023386697 0.12345263 -0.023648726
-0.095668085 0.037616897 -0.11815047 0.05395536 -0.16778395 0.02782068 0.018943459 -0.0455324
-0.028648444 -0.031580437 0.037725314 0.007750986 -0.046477884 0.22567388 0.018911138 -0.13900645
-0.23604245 -0.09771919 0.020463597 0.1471393 0.12870154 0.11684397 0.10812636 0.13376594
0.11042289 0.099502295 0.13815735 -0.112246186 0.0033913443 0.059152823 -0.04252907 0.10290853

weight_sigma f4 [1, 256]
00000000: dfc3 bd3a 0000 003d d571 4e3b ae95 c93c
00000010: 0000 003d 4b2d f53c 09cc 653b 5706 aa3a
00000020: 6d25 033c 6d53 043d 8be3 f93c b0c5 063c
00000030: 4c0b 933c 21fb 9e3c 0000 003d 6630 8d3b
00000040: fd76 2f3c 0000 003d 0000 003d 4372 f93c
00000050: 0000 003d 0000 003d 0000 003d 05ab 853c
00000060: bd87 ed3b d312 5f3c ebef 0d3c d756 053c
00000070: ddcb ef3b fcee 8d3b 2a90 3b3c 03d4 f03c
00000080: 1cc4 8b3b 4b41 d93a 9d9c 033d 0000 003d
00000090: a93f 923b 920c ec3c e710 063c d9b3 913c
000000a0: 0000 003d 0000 003d 16f3 593c 0000 003d
000000b0: 0000 003d 4d01 3c3b 4c89 ec3b 8b98 0c3c
000000c0: 0000 003d 0000 003d 0000 003d 9b45 883c
000000d0: 66c2 1e3c ccd8 003d 945d c53b 7b8d b23c
000000e0: a95d d23b 0000 003d b3b0 a33c 3ba0 323c
000000f0: 0000 003d c9a0 0e3c b369 f63c 9b99 f73c
00000100: c7a9 f13b 54bc bd3b 0000 003d 6fea b239
00000110: b56c 023d 0000 003d dcd5 173c ca00 4a3c
00000120: 33a3 e03b 0584 b63c 5d17 8a3c fcda d43b
00000130: bd2e dd3b 0000 003d b602 6338 0000 003d
00000140: 0000 003d 66ef 9a3b 0cb5 653c 3214 543c
00000150: 5f30 403c 0e38 003d 0000 003d f11d 1c3b
00000160: 6ef6 773a acb0 323c 0000 003d 0000 003d
00000170: e9c8 773c 97f8 cd3c 0000 003d 0485 213c
00000180: 0000 003d 0000 003d cd8b 1b3c 0000 003d
00000190: 735f ff3c 647b bc3b 797f 283c 0000 003d
000001a0: 3d2b 0c3d bf87 a83c 5e3f 793c 0000 003d
000001b0: cbed f03c 0b74 fd3c 0000 003d 83e0 843c
000001c0: abd5 993b c281 ec3c 761a 783c 5320 e63a
000001d0: 0000 003d 01a2 c93b bf4f 933c aae5 3f3b
000001e0: 0000 003d 51d3 043c 3b77 76ba 0000 003d
000001f0: 7b76 f43c 279a 023c 0000 003d 28ea c83b
00000200: 4c72 1d3c 0000 003d f8c3 603c 534e 003d
00000210: 0000 003d 0000 003d 3493 04bb 51c9 393c
00000220: 0000 003d 0267 403c 4202 003c fb1b e83c
00000230: 987f 0a3b 0ad7 ff3b 1a99 913b 3b50 873c
00000240: 5080 493b ba49 2c3c c08e 9e3c 11db b33b
00000250: 0000 003d bc54 033d 2170 413b d1e1 063c
00000260: e5e2 d83b 81ee bfba 641a 3f3b 3bf6 ff3c
00000270: 816b 903b d9aa 6f3b b3c2 333c 0000 003d
00000280: 8c9d 873c 7347 283c 5b8c f43c 8049 523c
00000290: 19d4 af3a f218 843c db72 f23c dc4c 153b
000002a0: 0000 003d c3e2 f93c 30e4 dd3c 003a 573c
000002b0: db41 f63c 0000 003d 5a68 e63a 994d 683b
000002c0: 302d e839 1141 a43c 61e1 273c 0000 003d
000002d0: 35f0 033d 6181 0b3c 99c2 4b3b 3a04 ed3c
000002e0: ec1e e13a 2d0c 083c f0c1 bc3c e284 ec3c
000002f0: cbde ff3c 11a0 2c3c 37a0 883c bad8 713c
00000300: d8ff 4a3b 6640 ce3a 0a64 d93b 7d21 b03c
00000310: 0000 003d 0000 003d 4b11 b13c 8586 553b
00000320: f236 a13b 76b3 c83a 0000 003d d02b 243c
00000330: f4af 5d3b 2fc5 b33c 80a1 3a3c 7a45 383b
00000340: 0095 9b3b 0757 9f3c bd49 1c3c 7710 ca3a
00000350: 6b68 6e3c 6cf3 4d3a 199f b53b 3a64 433c
00000360: 00a2 bc3c 0000 003d 3433 b03b 0000 003d
00000370: 5350 fe3a 7cca ff3c 8a13 a13b 6608 003d
00000380: ca0c 1d3c 4d96 093d f421 9a3c 0000 003d
00000390: 5c42 c93c d738 003d 0000 003d 235b f43c
000003a0: f3af 863c ecfa ff3c 0000 003d f87c 4e3c
000003b0: 14ff 003d b501 e43b 0000 003d 6b6c 453c
000003c0: 31e4 ba3b c48f 993c 8510 023d 76d6 5a3b
000003d0: 08b1 523b a6e3 fd3b 4920 843b 7e7c 6f3b
000003e0: 81cb 633b 5d8b a23a 626d 793a 644f 353c
000003f0: 73d9 f33c d706 003d 93c5 fb3c 2756 ab3c
0.001447793 0.03125 0.0031500955 0.024607506 0.03125 0.029928824 0.0035064241 0.001297186
0.0080045285 0.032306124 0.030504009 0.008225843 0.017949723 0.019406857 0.03125 0.004308748
0.010709521 0.03125 0.03125 0.030449992 0.03125 0.03125 0.03125 0.0163169
0.0072488473 0.013615328 0.008663158 0.00813838 0.0073180036 0.0043314677 0.011447946 0.02939797
0.0042653214 0.0016575245 0.03213178 0.03125 0.0044631553 0.028814588 0.008182741 0.017785953
0.03125 0.03125 0.013302585 0.03125 0.03125 0.0028687299 0.0072185155 0.008581291
0.03125 0.03125 0.03125 0.016634753 0.009689903 0.031456754 0.0060231183 0.021795979
0.0064198566 0.03125 0.019981718 0.01090246 0.03125 0.008705326 0.030079698 0.030224612
0.0073749754 0.0057902727 0.03125 0.00034125472 0.031841952 0.03125 0.009267297 0.01232929
0.0068553924 0.022279749 0.016856844 0.0064958315 0.0067499564 0.03125 5.4123542e-05 0.03125
0.03125 0.0047282455 0.014020216 0.012944268 0.011730283 0.031303458 0.03125 0.0023821557
0.0009459023 0.01090638 0.03125 0.03125 0.015123584 0.025142951 0.03125 0.009858374
0.03125 0.03125 0.00949378 0.03125 0.031173443 0.005752014 0.010284298 0.03125
0.034220923 0.020572541 0.015212862 0.03125 0.029410264 0.030939123 0.03125 0.016220337
0.0046946607 0.028870467 0.0151430275 0.0017557241 0.03125 0.0061533456 0.017982362 0.0029281178
0.03125 0.008107022 -0.0009401922 0.03125 0.029841652 0.007971323 0.03125 0.006131429
0.00960977 0.03125 0.013718598 0.031324696 0.03125 0.03125 -0.0020229341 0.0113395015
0.03125 0.011743309 0.007813038 0.028333655 0.002113318 0.007807617 0.0044433 0.016517749
0.0030746646 0.010515625 0.019355178 0.0054887612 0.03125 0.03206323 0.0029516297 0.00823255
0.006618845 -0.0014643223 0.0029160017 0.031245342 0.0044073467 0.003657034 0.010971713 0.03125
0.016554616 0.010270941 0.029852083 0.012834907 0.001341465 0.016125176 0.029595783 0.0022781407
0.03125 0.030503636 0.027086347 0.013136387 0.0300607 0.03125 0.0017578707 0.0035446642
0.00044284156 0.020050557 0.010246606 0.03125 0.0322115 0.008514733 0.003109133 0.02893268
0.0017175353 0.008303684 0.023041695 0.028871957 0.031234166 0.01053621 0.016677959 0.014761144
0.0030975249 0.0015735745 0.00663424 0.021500343 0.03125 0.03125 0.021614691 0.00325814
0.00491988 0.0015312273 0.03125 0.010020211 0.00338268 0.02194461 0.011391044 0.0028117583
0.004747987 0.019450678 0.009539065 0.0015416284 0.014551262 0.0007856402 0.0055426476 0.011925751
0.023026466 0.03125 0.0053771976 0.03125 0.0019402601 0.031224482 0.0049156593 0.03125801
0.009585569 0.033590604 0.018815018 0.03125 0.024567775 0.031304207 0.03125 0.029828614
0.016441321 0.031247579 0.03125 0.012603037 0.03149326 0.0069582113 0.03125 0.012049775
0.005703472 0.01874531 0.031754036 0.003339199 0.0032148976 0.007748085 0.004032169 0.003654271
0.003475875 0.0012401153 0.00095148955 0.0110662915 0.029766774 0.031256523 0.03073386 0.020915104

weight_epsilon f4 [1, 256]
00000000: 4b1c 3bbf 59b1 993f 9205 f13f f842 72bf
00000010: c973 93be 6b78 56bf 706a 453f a2c5 823f
00000020: 57b2 9abf 76a6 3ebf a123 20bf 44cc 983f
00000030: 167a a33f 1c96 b4bf 8749 5b3f d905 b53f
00000040: 7aee b23f eddd a5bf 4c48 d7bf 970e 60bf
00000050: b5e0 02bf 3982 ed3f 16f0 c83f fa3f 35bf
00000060: 39fc 3abf 9f74 953f 0f26 b03f 16fa afbf
00000070: 21e8 01bf 8f1d cdbf 5d96 7a3f 17a3 8b3f
00000080: 0684 673f ab47 be3f 90c5 de3e 5916 a53f
00000090: c079 663f 9761 a63f 3544 ab3f 59a9 853f
000000a0: a095 a23f e71b a5bf a856 edbf a62c 4e3f
000000b0: ec6c eebf 7517 bc3f cabf 08bf 608b f8bf
000000c0: a7ba a23f e7cb 8bbf 8ebc 3fbf 71ff b53f
000000d0: f023 b83f ac71 bf3f c7ce 9c3f c033 acbf
000000e0: 1d6a 9dbf e99f b6bf 82c8 873f 75a9 d63f
000000f0: cc6a bd3e 03e8 50bf fbef cabf 8e90 6fbf
00000100: f360 ff3e c232 053f 10c3 bd3f 4248 c6bf
00000110: c70a 54bf b718 c73f b281 7bbf 40c0 fdbe
00000120: 59fb 693f ed28 abbf c03c c53f 1a55 563f
00000130: cef4 a83f 7bf3 05c0 4195 a5bf a638 bd3f
00000140: 6063 853f 56b3 2f3f b2d1 de3e 663f 3e3f
00000150: 2529 303f dc3d 32bf 6007 a3bf c3c5 e4bf
00000160: 89bd b83f 4443 7abf a78f fabf 57ee a8bf
00000170: a2d5 95bf fa79 9fbf 727e 8bbf e5f2 e3bf
00000180: 9c38 d73f d472 993f 2612 febf e537 e9bd
00000190: 3dd0 d0bf cf74 d0bf 4c1e d4bf 084a 37bf
000001a0: 535b 4d3f 95d1 abbf 9b62 463f acab 783f
000001b0: 8fcb 9b3f ee49 ddbe 3209 90bf 2743 f53f
000001c0: 371a 87bf fe9f 293f ded5 a7bf 498f 223f
000001d0: 115c b83f c5ce a93f c96c 60bf fdcb 67bf
000001e0: 1fe4 843f 2798 f4bf d2f5 96bf f5f7 303f
000001f0: 774a ae3f ca99 d63f 78d0 de3f f1a6 3abf
00000200: cc59 ce3f a9fc ffbf 1cf7 7abf 2072 763f
00000210: 8cf2 ae3f dca8 14bf 14d1 df3f 5232 b03f
00000220: e9fd 15be 0991 70bf c34b 313f 2484 5bbf
00000230: fb9d e9bf 9d2a c03f c70c d8bf 9cf1 99bf
00000240: 9660 c23f 2ef9 bebe 8c89 953f 77c3 b03f
00000250: 627e bebf 365f 93bf 5717 24bf 6911 7dbf
00000260: 5b71 5fbf ad27 9e3f 01f3 a5bf 42fd 993f
00000270: 2fde a1bf b1c2 bbbf f044 e03f dfd9 83bf
00000280: f0ad a3bf 9dfe 533f 0ada ab3f af8a c3bf
00000290: d896 d4bf 2e14 63bf dad3 adbf c3a7 abbf
000002a0: 4c20 eebf 06dc 6a3f b47f bfbf 4651 a5bf
000002b0: 1381 7cbf ddda ad3f e045 4a3f 3865 a63f
000002c0: eaf4 3a3f 01e5 0bbf 1d9c 86bf d677 88bf
000002d0: b81f de3f 0003 733f 73d5 ad3f 053e aa3f
000002e0: 2fff 8abf bec8 1540 8eea c4bf ee77 e43f
000002f0: fcbd 223f 3717 ffbe cd64 9cbf 6f4d 8fbf
00000300: 63e9 e9bf ba76 d43f 0e7e a6bf 7fea d7bf
00000310: f3e8 a7bf 4aa0 13c0 cd06 c73f 4cdb 3f3f
00000320: 7312 59bf c084 813f a7cf 6cbf 7696 893f
00000330: fdc4 8bbf c2c6 d8bf 0af6 82bf 1f21 9c3f
00000340: 326f 503f 8915 a9bf ed19 753f 0748 6c3f
00000350: b4c9 b33f 0609 93bf 9c37 333f 512d d4bf
00000360: 0aa9 64bf 6ac2 59bf 1a64 d1bf 50ff debf
00000370: b3a8 ce3f f34c 933f ad2b 91bf 3a8a a33f
00000380: e677 f53e bb19 24bf df1d 0bbf 99f7 0b3f
00000390: 32c3 b93f 5583 0b3f dabd 3dbf 5a67 c4bf
000003a0: 3022 b33f a545 f4be 325d 09bf 42e2 86bf
000003b0: 2082 f7bf 4362 b03f c7e9 50bf 69ad 92be
000003c0: c0f8 13bf 68ac 9c3f fc85 543f 2568 0f3f
000003d0: 7690 7f3f 27d2 00bf a1d7 14bf 583b cdbe
000003e0: 9210 5a3f a573 de3f 66af 393f fcff 30bf
000003f0: 4392 0fbf dd92 13bf e1f9 ecbe ac66 d93f
-0.73090047 1.2007247 1.8829825 -0.94633436 -0.28799275 -0.83777493 0.77115536 1.0216563
-1.2085675 -0.7447275 -0.62554365 1.1937337 1.2771633 -1.410831 0.8565907 1.414241
1.3979027 -1.2958351 -1.6818938 -0.8752226 -0.51124126 1.8555366 1.5698268 -0.70800745
-0.7304111 1.1676215 1.3761615 -1.3748195 -0.50744826 -1.6024646 0.97885686 1.0909146
0.90435827 1.4865621 0.43510103 1.2897445 0.90029526 1.2998532 1.338019 1.0442306
1.2701912 -1.289914 -1.854207 0.8053688 -1.862699 1.4694659 -0.53417647 -1.9417534
1.2713212 -1.0921601 -0.74897087 1.421858 1.4385967 1.4956565 1.2250603 -1.3453293
-1.2298008 -1.4267551 1.0608065 1.6770464 0.36995542 -0.8160402 -1.5854486 -0.9357995
0.49878654 0.52030575 1.4825153 -1.5490801 -0.82828945 1.5554417 -0.98244774 -0.49560738
0.9139915 -1.3371865 1.5409164 0.83723605 1.3199708 -2.0929859 -1.2936174 1.4782913
1.0420952 0.6863302 0.4351936 0.7431549 0.6881278 -0.6962564 -1.2736626 -1.7872852
1.4432842 -0.9775889 -1.9575089 -1.3197736 -1.170582 -1.2459099 -1.0897963 -1.78085
1.6814151 1.1988168 -1.9849288 -0.11387614 -1.6313549 -1.6285647 -1.6571746 -0.7159734
0.80217475 -1.3423334 0.7749421 0.9713695 1.2171496 -0.43220466 -1.1252806 1.9161118
-1.0554875 0.66259754 -1.3112142 0.63499886 1.4403096 1.3266226 -0.8766599 -0.90545636
1.0382117 -1.9108933 -1.1793768 0.6912835 1.3616475 1.6765683 1.740737 -0.7291098
1.6121154 -1.9998981 -0.9803331 0.9626789 1.366777 -0.5807016 1.748568 1.3765357
-0.1464764 -0.93971306 0.6925623 -0.85748506 -1.8251337 1.5013005 -1.6878899 -1.2026858
1.5185726 -0.37299484 1.1682601 1.3809651 -1.4882319 -1.1513431 -0.64098114 -0.9885469
-0.8728234 1.2355858 -1.2964784 1.2030413 -1.264593 -1.466879 1.7521038 -1.0300864
-1.2787457 0.82810384 1.3425915 -1.5276698 -1.6608534 -0.88702667 -1.3580277 -1.3410572
-1.8603606 0.9174198 -1.4960847 -1.2915428 -0.9863445 1.3582417 0.7901287 1.299964
0.7302996 -0.5464631 -1.0516392 -1.0661571 1.735343 0.9492645 1.3580765 1.3300177
-1.0859126 2.3403773 -1.538408 1.78491 0.63571143 -0.498224 -1.2218262 -1.1195506
-1.8274349 1.6598732 -1.3007219 -1.6868438 -1.3117965 -2.3066583 1.554895 0.74943995
-0.84793776 1.0118637 -0.9250435 1.0749042 -1.0919491 -1.6935656 -1.0231335 1.2197608
0.8141967 -1.3209697 0.95742685 0.92297405 1.404593 -1.1487129 0.7000673 -1.657633
-0.89320433 -0.8506228 -1.6358674 -1.7421665 1.6145233 1.1507858 -1.1341454 1.2776558
0.47943038 -0.6410176 -0.54342455 0.5467468 1.4512694 0.5449727 -0.74117815 -1.534404
1.3994808 -0.47709385 -0.5365783 -1.0537798 -1.9336586 1.3779987 -0.81606716 -0.28647926
-0.5780144 1.2240114 0.83016944 0.56018287 0.99829805 -0.5032067 -0.58141524 -0.40084338
0.85181534 1.7379042 0.7253326 -0.691406 -0.5608255 -0.5764597 -0.46284392 1.6984458

weight_mu f4 [21, 256]
00000000: a9c3 d4bc 543b 2f3d 5bb9 6abb 5711 143d
00000010: d03d 0a3c 10c1 b73c c06d 9e3d 5a6b 773d
00000020: d601 d03d b7a8 2a3d bc7c 743c 2fac 6abc
00000030: 9d89 5dbd 74b7 003e ba5b 3ebd f435 a3bc
00000040: bbd0 9dbd 444b 4dbd 1886 b73c c751 3f3d
00000050: 1452 463d e8b8 373c 1cf5 6a3d a398 b0bc
00000060: b20d 05bd e660 cb3d d5dd ac3d e41d 813c
00000070: 778c 303e 3e0c da3c 6e10 cb3d 6fd9 28ba
00000080: 6ceb 663d 18f4 f53d c845 413d c427 11bd
00000090: 1bf6 173e 6020 b8bc d6a5 5f3d e7ed 6cbd
000000a0: 80a1 823c 8eb1 473d 3251 80bd 8c74 ffbc
000000b0: 3250 4dbd 98ae 31bc ba17 243a dc38 ccbd
000000c0: a833 aa3c 1c36 bdbc 1c54 2fbd 651c 32bc
000000d0: a31c bd3c 3942 523d 2c0a 8c3d b83a 98bd
000000e0: ccef 4abd 2835 dbbc 7bd4 0fbd 1fbd 363d
000000f0: 28fd 183d 8625 53be 89d8 4d3c df84 213c
00000100: 630b a3bb 7155 4cbd 004e 9ab9 2894 143e
00000110: 5876 b5bc 6c8d d73c 59b6 893e 297a 1a3d
00000120: 1fbe c6bd e244 82bd ca11 45bd de80 023d
00000130: e04f a83d c8dc 04bc 4193 c43c fe57 4d3d
00000140: 804e 913a 07d9 babb 4d72 02be 1d7c b0bd
00000150: 40b4 9bbd 7d48 1dbc dcf5 443d b5a2 a63d
00000160: 562d d9bc 6784 94bd 143c d2bc 62be 583c
00000170: 20d9 a53d e9c4 41bd 3869 c8bc aca6 803d
00000180: 00ab c53c fa75 33bd e54f e43d c83d 88bc
00000190: 48d7 483d df5e 6cbc b9fc efbc 3a2c 3b3d
000001a0: bcc1 0e3d 77a2 1c3d 8501 65bc 8088 06bc
000001b0: ec55 0e3d e5a9 833d 8007 93ba af44 d8bd
000001c0: 9159 023c 9111 4ebb 953e 9d3b ef65 0c3c
000001d0: 5093 6f3d 293a 4e3d b250 bd3c 2132 4b3d
000001e0: 006c d139 ea7c 64bd 1dfb c2bc 70fc e7bc
000001f0: 641b 08bc 511d 43be b608 79bd 7d23 06be
00000200: 0a73 c4bd febe 7cbd c68c c83d 8da5 14bd
00000210: 6896 7c3c 00bf 2f3d 037d 063c a8f5 c33d
00000220: 946a 003d fc15 d43d ad42 6c3d 0511 9d3d
00000230: e756 5cbe 5690 0bbe efdc bb3d d982 31bd
00000240: 09f2 993c f179 77bc bee1 a03d e880 cf3d
00000250: fca7 f6bc d7dd 2abc 4874 933c 4bf7 d73b
00000260: 4c65 a93d 403a 9c3d 0f5c c7bc 0d87 173c
00000270: 7f3d 0fbc 7c77 aabb 0085 f9bd 707d 96bc
00000280: 1c67 e93d 993d 083e 1f10 a93b 77fd 1dbe
00000290: 0377 13bd cbe9 2ebb 380f cebc 55d7 b23d
000002a0: ca48 61bd f150 debc 2969 b5bb 5133 12be
000002b0: d3ec e93c 1031 f93c 3c1c e33c a00b 383d
000002c0: b9b3 d93c 9e26 a3bc 7021 933d d0c0 99bc
000002d0: 68b6 4ebd f6da 8a3d 011e b7bc 787b bdbc
000002e0: c889 8d3d 4c17 bf3c ccfa 17be 1b98 f1bc
000002f0: 8823 353d 9bc6 853d 95f9 6abb 4bea 3f3a
00000300: e049 213d 2440 ed3c 9bda ebbc f0da 033e
00000310: 443d 2d3d 28d2 c43c 9b3b 80bd 1762 f6bc
00000320: c77a 853d af68 683c 1ab5 6bbd 636f c83d
00000330: 2722 773d 70ef 96bc bdd4 2ebe 9980 9d3d
00000340: 1fdb 03bd 0e04 b1bd dca0 e6bd 2bed 7b3d
00000350: ec52 87bc 870d 8fbc 76dc 0dbe fc90 a83d
00000360: ca25 ae3d 0c57 e03c 5d68 5d3d 06b1 14bd
00000370: 3f41 c9bd 4ab3 673d f943 613c 5960 413c
00000380: 9f66 93bd 2539 02bb b10a 983c 2c35 753d
00000390: 10d4 fe3d c064 c3bc 5063 243d 3831 40bd
000003a0: 86f7 d2bc c881 373d 8a8e 563d 6ec1 6bbd
000003b0: 14a9 06bd b925 3a3d c0de 363b 2776 3ebd
000003c0: 9222 75bd d2f4 74bd e638 9a3c 5733 b93d
000003d0: 3eb0 f73d 208d 933d f492 a83d f708 2f3d
000003e0: ec74 393d 9b89 7e3d b8d3 65bc 5883 113d
000003f0: f4f5 81bc 888f bc3c 5509 913c 2ac3 933b
-0.025972204 0.04278119 -0.0035816047 0.03614935 0.008437589 0.022430927 0.07735777 0.060405113
0.101566 0.041664805 0.014922317 -0.014323278 -0.054086316 0.12569982 -0.046474196 -0.019923188
-0.07705828 -0.050120607 0.022402808 0.04670885 0.04841812 0.011213519 0.05736266 -0.021557158
-0.032483764 0.09930591 0.084407486 0.015761323 0.17241083 0.026617166 0.09915243 -0.00064410915
0.05637686 0.12009448 0.04718569 -0.035438314 0.14839976 -0.022476375 0.054601513 -0.05784407
0.01594615 0.048753314 -0.06265487 -0.031183504 -0.05012531 -0.010844849 0.0006259639 -0.099717826
0.020776585 -0.02309709 -0.042804822 -0.010871028 0.023084944 0.051332686 0.06837878 -0.07433075
-0.049545094 -0.026758745 -0.035114747 0.044613954 0.037350804 -0.20619783 0.012563833 0.009858339
-0.0049757226 -0.04988617 -0.00029431283 0.14509642 -0.022151157 0.026312552 0.26896933 0.037714157
-0.097042315 -0.063607946 -0.048112668 0.03186118 0.0821836 -0.008109279 0.023995997 0.050132744
0.0011086017 -0.005702141 -0.12738915 -0.08617423 -0.07602739 -0.009599802 0.048086032 0.08136503
-0.026510876 -0.07251816 -0.025663413 0.013228985 0.08098054 -0.04730693 -0.024464235 0.0628179
0.02412939 -0.043813683 0.11148051 -0.016631022 0.049033433 -0.014426916 -0.029295312 0.045696475
0.03485273 0.038240876 -0.013977413 -0.008211255 0.03474991 0.06428889 -0.0011217445 -0.10559975
0.007955925 -0.0031443576 0.00479872 0.008569225 0.058490098 0.050348435 0.023109768 0.049608354
0.00039944053 -0.05578319 -0.02380138 -0.028318614 -0.008307312 -0.19054152 -0.060799323 -0.13099475
-0.095922545 -0.06170558 0.097924754 -0.036290694 0.015416719 0.04290676 0.008208516 0.095683396
0.03135164 0.10355756 0.057680774 0.07669262 -0.21517526 -0.13629279 0.09172999 -0.043337677
0.01879217 -0.015104757 0.07855557 0.10132009 -0.030109398 -0.010428867 0.017999783 0.006590759
0.08271274 0.07628298 -0.02433589 0.009248507 -0.008742689 -0.005202232 -0.12183571 -0.01837036
0.1139662 0.13304748 0.0051593925 -0.1542872 -0.03600217 -0.0026689644 -0.025153741 0.087324776
-0.055001058 -0.027138205 -0.0055362177 -0.14277388 0.02855531 0.030418903 0.027723424 0.04493296
0.026574956 -0.019915875 0.07184112 -0.018768698 -0.050466925 0.06780045 -0.022353174 -0.023130164
0.06911045 0.023326539 -0.14841765 -0.029491475 0.04422334 0.065320216 -0.003585433 0.0007320984
0.039377093 0.028961249 -0.028790763 0.12876487 0.042294756 0.024025992 -0.06261369 -0.03007607
0.065175585 0.014185115 -0.05754576 0.0978687 0.060335305 -0.01842472 -0.1707334 0.07690544
-0.032191392 -0.086433515 -0.1126115 0.061505478 -0.016519032 -0.017462505 -0.1385363 0.082307786
0.085033014 0.027385257 0.054054607 -0.036301635 -0.09826898 0.056567468 0.013749116 0.011802756
-0.07197308 -0.0019870487 0.018559786 0.05986516 0.124427915 -0.023851752 0.040133774 -0.04692194
-0.025752794 0.044801503 0.05238203 -0.057557516 -0.03287609 0.04544613 0.0027903765 -0.046499398
-0.059847422 -0.05980379 0.01882596 0.090429954 0.120941624 0.07204652 0.08231154 0.04273316
0.04527752 0.06214295 -0.014027528 0.03552565 -0.01586435 0.02301766 0.017704645 0.0045093494
