experiments/diff_kappa_data/kappa1_1_kappa2_2_kappa3_1/dqn_proposed_erf.pth (torch, 306018 bytes, 6 tensors)

weight f4 [256, 4]
000000 50 9c 40 be f8 61 6b be a6 c4 c6 be c4 30 cc be
       -0.18809628 -0.22986591 -0.38821906 -0.39880955
000010 84 e9 9f be 74 bf f6 be dc 60 2c be c4 ac d4 be
       -0.31232846 -0.48192942 -0.16833824 -0.4153806
000020 82 9d be 3d d4 cd d0 be 7c 64 a8 be d6 b5 32 bd
       0.09307386 -0.40782034 -0.32889163 -0.043630444
000030 c6 9f c1 3e 06 96 27 bd 16 3d 85 3c bb 8b 37 3f
       0.3781721 -0.040914558 0.01626448 0.71697587
000040 37 6a 09 3e f8 6d cf 3d 8d 87 1e bf fc 65 a9 3e
       0.13419424 0.10128397 -0.61925584 0.3308562
000050 c5 23 77 be 36 8d 0b be 27 52 a4 ba b2 ee ce 3e
       -0.24134739 -0.13628086 -0.001253669 0.40416485
000060 3d d2 84 ba 84 b1 ae 3e 1d c7 17 be 0d c2 16 bf
       -0.0010133457 0.3411981 -0.1482205 -0.5888985
000070 7f ad c1 be eb 63 ba 3e b1 12 88 be d2 15 c9 be
       -0.3782768 0.36404356 -0.2657676 -0.3927446
000080 70 3c 28 be 3d d3 64 be fd 3e e7 3e a7 c5 f3 3d
       -0.16429305 -0.22346206 0.45165244 0.119029336
000090 80 52 c4 bd c0 d5 2d bd 10 85 c6 bd a4 0e f2 be
       -0.09586048 -0.042440176 -0.096933484 -0.47276795
0000a0 1d c0 e2 3e 1f e6 39 bc 91 8c 97 be b4 ac 15 bf
       0.44287196 -0.011346369 -0.2959943 -0.5846665
0000b0 b8 f0 e6 be a0 f1 1f 3d 50 10 79 3d 40 45 90 3c
       -0.4510553 0.03904879 0.060806572 0.017611146
0000c0 42 cd 73 3e 17 21 ca 3d 80 47 9c bd 01 5c d3 be
       0.23808768 0.09869593 -0.07630825 -0.4128113
0000d0 10 05 d2 bd 00 11 57 be 94 23 26 be e4 be bb be
       -0.10254872 -0.21002579 -0.1622451 -0.36669075
0000e0 75 f9 68 bc e1 41 f2 3e de f6 71 be a8 85 3b 3e
       -0.014219631 0.47315887 -0.23629329 0.18312705
0000f0 8d 78 50 3d 92 6b da 3e f4 1d 29 be 6e 0e 07 3f
       0.050896216 0.42660195 -0.16515332 0.5275639
000100 2f fd 0c 3e 30 d4 5f 3e ec 63 db be c5 35 0c 3f
       0.13768457 0.21858287 -0.42849672 0.54769546
000110 02 de 30 3e f8 81 f9 3d ad e3 9e be a0 9e 90 ba
       0.1727219 0.12182993 -0.31033078 -0.0011033602
000120 d9 64 0a 3e 0b 6f 00 be 6c 7a 7c be 83 91 05 bf
       0.13515033 -0.1254236 -0.24656075 -0.5217516
000130 70 3f 4f bd 34 27 31 be 66 97 a9 be 68 21 96 3d
       -0.050597608 -0.17300111 -0.3312332 0.073305905
000140 98 4b 98 be b2 dd 66 be e7 da 11 3e bf 51 ef 3e
       -0.29745173 -0.22545508 0.14243661 0.46742055
000150 0f 6d d8 bd ec 10 87 3e d5 de b7 be 72 17 f1 3d
       -0.10567676 0.26380098 -0.35912195 0.1177205
000160 1f 21 f2 3e 8b 44 b8 be bd ab 97 be 3d 1d 80 be
       0.47290894 -0.35989794 -0.29623213 -0.25022307
000170 81 e1 16 3e 3b 40 99 3e 95 87 f7 be 8a ce 02 bf
       0.1473446 0.29931816 -0.48345628 -0.51096404
000180 56 53 d5 be 3d ff d5 3e 9a 16 e4 be e5 9e b4 be
       -0.41665143 0.41796294 -0.44548494 -0.35277477
000190 31 51 67 3e 6b e3 78 3d f3 b0 b7 be d3 02 fd 3e
       0.22589566 0.060763758 -0.3587719 0.49416217
0001a0 5d 0a af 3d 2c 57 bf 3e 36 56 14 3d ca 4a a1 3e
       0.085468985 0.37371194 0.03621503 0.31502372
0001b0 e7 24 7c 3e 37 ff 37 be a4 a7 84 be 37 ed e4 be
       0.24623452 -0.1796845 -0.2590915 -0.4471223
0001c0 80 5d cc bc 98 b7 ef be 90 71 0b 3d 7e c1 cc 3e
       -0.024946928 -0.46819758 0.03404385 0.39991373
0001d0 ce d0 18 3e 19 56 bc bd 99 69 c8 3e 67 8e f9 be
       0.14923403 -0.09196109 0.39143065 -0.48741457
0001e0 e0 d4 07 3d e6 8b a6 be bc fd 41 be 32 81 ba be
       0.033161998 -0.3252861 -0.18944448 -0.36426693
0001f0 8c 75 fa be 6c 42 b0 be a8 2c ff be 30 d1 90 bd
       -0.48917806 -0.34425676 -0.49838758 -0.07071149
000200 23 a4 30 3e 9a 90 7f be 55 53 78 be fa d2 01 be
       0.17250113 -0.24957505 -0.24250539 -0.12678137
000210 9b fc 57 bd 11 69 81 3e b7 a4 c6 be 9f ea 90 3e
       -0.052731138 0.25275472 -0.38797542 0.28304002
000220 df f3 ab 3e 11 41 d3 3e db 3a 70 3e f2 22 61 3d
       0.33584496 0.4126058 0.23459952 0.054964967
000230 d0 88 ab bc a1 47 1b 3f 20 8a 06 3d 58 69 bd bc
       -0.02093926 0.6065617 0.03284657 -0.02312152
000240 d3 a9 75 3d 25 e8 e0 3e 82 88 6c be 28 a4 33 3f
       0.05997641 0.43927112 -0.23098949 0.7017236
000250 ec 6f c6 be 80 35 c6 bc f0 1c e7 be 00 55 22 bb
       -0.38757265 -0.024195433 -0.45139265 -0.0024769902
000260 83 5b 5c be 60 95 2e 3f 88 3b 09 3e 83 e8 48 3d
       -0.21519284 0.6819668 0.13401616 0.049049865
000270 c0 6f 62 bd 00 ae d0 bc 00 de 61 bd ca 5f e4 be
       -0.055282354 -0.025473595 -0.055143356 -0.4460433
000280 1e a6 da 3e 0e 2e 10 3f e5 57 98 bd ad a8 f0 be
       0.42704862 0.56320274 -0.074386396 -0.4700369
000290 a6 01 7d 3e 31 b0 9c bd 3c 8d 50 3e 83 fa 6b be
       0.2470766 -0.07650793 0.20366377 -0.23044781
0002a0 4d 85 09 3e 07 cd 60 be 10 a7 b0 be ae 84 d0 be
       0.13429756 -0.21953212 -0.3450246 -0.40726227
0002b0 e8 56 31 be 62 e0 89 be 0e 7d d7 be 28 24 bd 3d
       -0.17318308 -0.26929003 -0.42087597 0.09235412
0002c0 62 71 de be 32 ce b0 bd 7a b5 eb 3e 67 a6 db 3e
       -0.4344588 -0.08633079 0.46036893 0.42900392
0002d0 69 73 e1 3e ce 04 90 bc 4c 23 1a be 09 60 9d 3d
       0.44033363 -0.017580416 -0.15052527 0.07684333
0002e0 42 df c4 3c f7 5f 22 3e 71 0b c7 3d e3 44 63 3e
       0.024032239 0.1585692 0.09718979 0.22194247
0002f0 fb 67 3f 3e 57 a2 d3 bd 61 d2 88 3e a1 f1 f6 3e
       0.18692009 -0.10333698 0.26723006 0.48231223
000300 6a 3b 8a 3e 46 c0 ef be 7c ab fc 3e 66 ef 96 be
       0.26998454 -0.4682638 0.49349582 -0.29479522
000310 61 d1 e2 3e 02 53 eb 3e 2c f1 88 be f0 e7 e7 3d
       0.44300368 0.45961767 -0.267465 0.113235354
000320 6c e7 b9 be 50 3b b0 3e 87 98 7b be 2c 4f 9e be
       -0.36309373 0.34420252 -0.24569903 -0.30919778
000330 ed 53 c2 3e 5d f7 37 be 5b 30 c7 3e 27 ad fe 3e
       0.37954655 -0.17965455 0.3890408 0.4974148
000340 29 a2 a6 3e 22 4c 35 be 63 c2 b9 be a6 85 fd bd
       0.32545593 -0.17704824 -0.36281118 -0.12379007
000350 b4 89 7c be f8 26 1a 3e 62 67 b7 be 48 a5 e1 3d
       -0.24661905 0.15053928 -0.35821062 0.11017853
000360 01 e8 bc 3e 0e 93 01 3f 7a a0 c8 be 34 81 f1 be
       0.36895755 0.5061501 -0.39184934 -0.47168887
000370 56 50 88 bd 91 bf b1 3e a2 58 c0 3d 41 da 2e bf
       -0.06655948 0.34716466 0.09391905 -0.6830178
000380 7f 92 b9 3d 7b fb 8f be 69 f4 56 3e 63 07 e8 bd
       0.09061145 -0.28121552 0.20991673 -0.11329534
000390 2f 10 7d 3d 47 a2 e2 be 37 5c 29 3c 8b b7 12 3f
       0.061783012 -0.44264433 0.010336927 0.57311314
0003a0 a0 47 2b bd 2e 9f 87 be 56 09 cc be aa 3d e0 be
       -0.041816354 -0.26488632 -0.39850873 -0.43797046
0003b0 e8 7d 24 3e 87 01 af 3e 4d 8d f8 3e e1 a9 13 bf
       0.16063654 0.34180853 0.48545304 -0.5768109
0003c0 f6 a8 d5 3e c7 21 53 be e3 ba f8 3e 62 7d 59 bd
       0.4173047 -0.20618354 0.48580083 -0.05309809
0003d0 46 3c f5 3e 54 9e df be 32 34 d5 3e cc d5 af 3d
       0.47897547 -0.43675482 0.41641384 0.085857004
0003e0 ba a2 d2 3e f1 70 bd 3e 82 89 03 bf bd a9 2b 3f
       0.41139776 0.3700023 -0.51381695 0.67055875
0003f0 75 a0 d3 be 8d af a4 3e 85 f3 83 be 92 44 3e 3d
       -0.41333356 0.32165185 -0.25771728 0.046452112

bias f4 [256]
000000 68 08 19 3e be d0 a6 be fb 07 14 3f 7c c5 18 bd
       0.14944613 -0.32581133 0.5782468 -0.03729771
000010 54 5f a2 be c7 8f 5a 3e 8e c4 35 3e 61 9c e7 3e
       -0.31713355 0.21343909 0.17750761 0.45236495
000020 f4 b3 fa be 40 74 cf be 29 b5 b5 be a0 c9 83 bc
       -0.48965418 -0.4051838 -0.35489777 -0.016087353
000030 42 ce a4 3e 8e 5c f6 3e 1b cb 3e 3e c2 82 13 3f
       0.32188612 0.4811749 0.18632166 0.57621396
000040 35 91 ec be 8c 0b 00 bf 96 71 c6 be 20 c1 1a 3e
       -0.46204534 -0.5001762 -0.38758534 0.15112734
000050 3b 76 5c 3c 4d 68 b2 be 97 02 44 be 59 9b cd 3e
       0.013455923 -0.348452 -0.19141613 0.40157583
000060 da 11 a3 be 66 2e b5 bd 4c a4 9f 3e 86 df a6 be
       -0.31849557 -0.088467404 0.31180036 -0.3259241
000070 00 ce 2e bb e2 1c 13 bf 0a 92 85 3e 92 0c bb 3e
       -0.0026673079 -0.57465947 0.2608798 0.36533028
000080 2f b6 d8 3e 30 fa 0e 3f 5e d5 69 be 22 8a a6 3e
       0.42326495 0.55850506 -0.228353 0.32527262
000090 96 2d c3 3c 5a 78 c2 3e 59 91 2b 3f 7a 14 9c be
       0.023825448 0.37982446 0.6701866 -0.30484372
0000a0 b0 2d cd 3d 8b 21 d8 be 26 66 76 3e 78 65 af bd
       0.1001848 -0.4221309 0.24062404 -0.085642755
0000b0 97 3f a8 3e bd 29 8e be e5 03 c1 3e 33 3b b0 3e
       0.32861015 -0.2776622 0.37698284 0.34420165
0000c0 dc 0c 6e be 84 04 cc 3d cc 67 1c be 44 26 a2 3e
       -0.23247093 0.09961799 -0.1527397 0.3166982
0000d0 b5 e4 04 3f 70 01 5a be d9 47 9f be 6f 17 59 3e
       0.5191148 -0.21289611 -0.31109503 0.21200345
0000e0 5f 71 a1 be ca 5c 9e 3e 00 c5 dd 3b c7 7c 9b bd
       -0.31531808 0.30930167 0.006767869 -0.07592159
0000f0 c4 c7 5f be c3 a7 5f 3e d1 7e cd be af 66 cb 3e
       -0.21853548 0.2184134 -0.40135816 0.3972678
000100 58 57 b4 bc bb 9c e2 3c b0 31 a0 be af 6f 21 3e
       -0.022014305 0.027662626 -0.3128791 0.1576526
000110 36 81 b0 3e a3 a7 b2 be 03 04 8c 3e 3e 1b ff be
       0.3447358 -0.34893522 0.2734681 -0.49825472
000120 96 17 c3 be b0 9d 09 3e 6a 0f fe 3d 04 21 f5 3e
       -0.38103932 0.1343906 0.12405284 0.4787675
000130 20 08 97 3e ba 79 ea bd a5 65 0f 3f 34 0a eb be
       0.29498386 -0.11448999 0.5601447 -0.45906222
000140 2f 04 f0 bd e6 26 cc be dc f7 71 3e 29 0d 57 bc
       -0.11719548 -0.39873427 0.23629707 -0.013125696
000150 12 26 0b 3f ec 82 da 3c e2 9a 6a 3e d7 b1 c6 3e
       0.54354966 0.026673757 0.22910646 0.38807556
000160 b8 22 bb 3d 51 32 6d 3e 17 c8 c4 3d fa 87 2c bd
       0.091374815 0.23163725 0.096084766 -0.042121865
000170 c3 ef c1 3d 28 9e f0 be 58 22 b1 be d4 56 13 be
       0.09469559 -0.46995664 -0.34596515 -0.14388591
000180 4e 23 c1 be cf cd e2 3e b0 1d fc 3e 5d 78 10 3f
       -0.37722248 0.44297644 0.492414 0.5643366
000190 4d 0d 2e be 41 a7 96 3e 6a 9f ad bd 4e 9c 05 bf
       -0.16997261 0.2942448 -0.084776714 -0.5219163
0001a0 70 d3 a5 be d8 ad b9 be e5 b0 67 3d 23 9f 9c 3e
       -0.32387877 -0.36265445 0.056565184 0.30590162
0001b0 15 80 cf be 50 42 c5 be b4 3c 29 3d e9 62 02 be
       -0.40527406 -0.38527155 0.041317657 -0.12733044
0001c0 d3 0d 11 bf 80 04 d8 3d ca 9c ba be 1a a6 c5 3d
       -0.5666172 0.10547733 -0.36447746 0.09650822
0001d0 08 47 9a bd 3c e1 01 bf 3e 9e e4 3e b9 1c b8 bd
       -0.075330794 -0.50734305 0.4465198 -0.089898534
0001e0 8d ec be be ca bb c0 bd 51 5f 99 be 8c 43 c6 be
       -0.3728985 -0.09410818 -0.29955533 -0.3872341
0001f0 47 15 48 3e b0 73 28 3d 37 e1 df be ca b6 0e 3f
       0.19539367 0.041125953 -0.43726513 0.55747664
000200 ef 21 a3 3e 87 eb 03 3f 7c dc c8 be ea f3 d1 be
       0.31861827 0.5153126 -0.39230716 -0.41006404
000210 d4 90 18 be 25 0e f4 3e ae 50 82 3e 34 5e a4 be
       -0.14898998 0.4766704 0.2545218 -0.3210312
000220 24 4a 4d be 10 23 ae be 63 22 b9 be 17 d2 04 3f
       -0.20047814 -0.34011126 -0.36159047 0.5188307
000230 98 6c 4e 3e c3 3e 4e be 8c b8 09 be 26 c8 e0 3d
       0.20158613 -0.20141129 -0.13449305 0.10975675
000240 0a 09 81 be 49 e8 88 bd f2 15 80 3e 19 75 b0 3e
       -0.2520221 -0.0668493 0.25016743 0.34464338
000250 30 70 5c be ce 9a 09 3d ba cc ea 3e 06 bf 87 be
       -0.21527171 0.0335949 0.4585932 -0.26512927
000260 f2 f9 c9 be 34 b1 56 be d4 98 4b bd 7d e1 ad 3e
       -0.39448506 -0.20966035 -0.049706295 0.33961096
000270 60 b8 de 3e 8f 15 64 be 51 92 1a bf c0 91 eb 3e
       0.43500042 -0.22273849 -0.6037951 0.46009636
000280 84 37 5a be 9d 63 a5 be 1d 59 f3 3e 59 29 83 be
       -0.2131024 -0.3230256 0.47528926 -0.25617483
000290 02 f6 0b bf 7c 7e 99 be 4d cd 30 be af 9e 15 bd
       -0.54672253 -0.29979312 -0.17265816 -0.036528286
0002a0 01 25 d5 be 10 75 68 be 02 fe bc 3e d9 92 19 be
       -0.41629794 -0.22700906 0.36912543 -0.14997424
0002b0 35 3b 1d be c3 0a 12 3e 89 96 e0 3d 15 4c 09 3f
       -0.15354617 0.14261918 0.10966212 0.53631717
0002c0 48 fa b0 bd 98 9c 9d 3e 16 8c f6 3e 9e 04 ab 3e
       -0.08641487 0.30783534 0.48153752 0.3340196
0002d0 55 ab 96 3e 65 4f 58 3d 1e b0 7a be 2d 72 07 3d
       0.2942759 0.05281009 -0.24481246 0.03306787
0002e0 2a ac 68 be da f2 db 3e 42 45 dc 3e fa ab 8b 3e
       -0.22721925 0.4295872 0.4302159 0.27279645
0002f0 ca eb fd 3e 0a 27 b3 3e 60 1c 9b be 23 67 87 be
       0.49593955 0.34990722 -0.30295086 -0.26445875
000300 8e 3e f6 3e 28 ca e2 3e 04 d6 db 3e 2d a6 8a 3d
       0.480946 0.44294858 0.42936718 0.06769977
000310 d5 28 1c 3f 4c 37 29 3e 73 f5 c1 3c 7f 64 7d 3c
       0.60999805 0.16525 0.02367661 0.015465855
000320 72 52 57 3e b4 c6 08 3c fe c9 8e be a8 1e 93 3e
       0.21027544 0.008348156 -0.27888483 0.28734326
000330 dd 37 2a bf b0 22 58 be 8e b5 0b 3d 72 5d e8 3c
       -0.6649149 -0.21106982 0.03410869 0.02836487
000340 02 63 d9 3e 4e df 10 3f f8 e9 c6 3e bd dd 9c 3e
       0.4245835 0.56590736 0.3885038 0.30637923
000350 80 44 37 be 2e cc 89 3e 56 6a eb bd f1 43 9f 3e
       -0.17897224 0.2691359 -0.11494891 0.31106523
000360 48 c1 4f be 72 6b b0 3d 60 81 a2 bd cd 10 79 be
       -0.20288575 0.086142436 -0.079348326 -0.24322815
000370 e9 39 8f 3e 4a db a0 3e 65 d9 a2 3e 3d 2c 33 3e
       0.2797387 0.31417304 0.31806484 0.17497344
000380 08 d5 f2 3d 40 f0 8e 3e ee 1e c1 bb 18 a5 97 3e
       0.11857039 0.2791767 -0.0058935797 0.29618144
000390 dd 83 86 be d7 19 39 be 36 8a b8 be 36 c1 35 be
       -0.2627248 -0.18076263 -0.36042947 -0.17749485
0003a0 07 9f 60 bd e7 df bf be 39 99 38 3e e8 79 35 bd
       -0.05483916 -0.3747551 0.180272 -0.044305712
0003b0 cf 21 63 3e f7 59 21 3f f2 d4 68 bd 9c f2 da be
       0.22180866 0.630279 -0.056843705 -0.4276322
0003c0 67 e6 e0 3e 05 47 c3 be 31 06 f1 bc 5c 71 bd 3e
       0.43925783 -0.3814012 -0.029421898 0.3700055
0003d0 2e 83 97 3e 8d d5 27 be ab d7 fd 3d 12 e1 17 3f
       0.2959227 -0.16390057 0.12394651 0.59327805
0003e0 70 8f 7b 3e 2e 20 bc 3e 5f 4d c6 be 3c ad 03 3d
       0.24566436 0.367433 -0.38730904 0.03214763
0003f0 9d 74 09 bf 57 f0 fe be 43 a9 09 3f e1 cd ea 3d
       -0.5369356 -0.4979274 0.537739 0.114650495

weight f4 [256, 256]
000000 1a ec 2c bd 80 f7 e4 3c c7 e9 57 3d 5c 74 52 bd
       -0.04221735 0.027950048 0.05271318 -0.0513805
000010 c4 e8 7b 3c 52 a0 11 3b 81 5e 3f 3e 9b 63 0e be
       0.01537532 0.0022220802 0.18688394 -0.13905184
000020 f2 21 b5 3d 4c 66 f9 bc 77 ef 91 bc d8 f3 4e bc
       0.08844365 -0.030444287 -0.017814381 -0.012631379
000030 72 f4 4d 3d b2 a1 2b 3d cf 8d a7 3e ae fe ba 3c
       0.05028195 0.04190225 0.3272538 0.022826519
000040 2f 35 b0 bc 22 f3 b5 bc 6e d8 2c bd c8 d6 0a bd
       -0.021509735 -0.022210661 -0.04219859 -0.033896238
000050 d1 ff 70 bc 16 d8 c2 bd 42 a1 88 3c f8 32 b9 3c
       -0.014709429 -0.09513871 0.016678456 0.022607312
000060 55 bc 66 3a e0 3e 4c bd 00 f0 14 3d a9 81 7c bc
       0.00088018674 -0.04986465 0.036361694 -0.015411773
000070 00 d7 4b ba e9 3e 18 3c 30 16 93 bb b8 af 2e bd
       -0.0007775873 0.009292343 -0.004488729 -0.042648047
000080 3a c0 ba 3c 20 fc 16 be 66 fc 07 3b 67 cf 1d 3d
       0.022796739 -0.14744616 0.0020749806 0.038527872
000090 35 7b 62 bc a4 1c 80 3c 50 6c 07 3d 10 39 da 3b
       -0.01382332 0.015638657 0.03306228 0.0066596344
0000a0 7a de e6 3c 6b 7a 89 3d c4 05 1a bd fe f4 78 3d
       0.028182257 0.067128025 -0.037603155 0.060780518
0000b0 47 99 3a bc 80 0d 3d bd 05 b4 17 3d ca 61 0b bd
       -0.011389083 -0.046155453 0.037036914 -0.034028806
0000c0 01 7b b2 3c 6b 75 8d bc 9e 96 2b bd a9 f7 35 bc
       0.021787168 -0.017267903 -0.041891687 -0.01110641
0000d0 62 fc c5 bc 00 db 4e ba b3 73 54 bd 9a 6c 99 bb
       -0.024168197 -0.000789091 -0.051868152 -0.004682136
0000e0 08 ea 0b bd 7f bb 3f bd 64 23 4c bd ed 47 26 3d
       -0.034158736 -0.04680967 -0.04983844 0.040595938
0000f0 a9 83 32 bd d8 4b 18 bc a2 30 a1 bc 65 74 0d be
       -0.043582592 -0.009295426 -0.01967651 -0.13813932
000100 6b fd 34 3c 5e 6e 9f bb 96 e9 40 3d 24 c4 f3 bc
       0.011046748 -0.0048654517 0.047097765 -0.029756613
000110 ea a9 5d 3d 57 de 7a bd b5 09 76 3d 80 8c 9e 3a
       0.05411712 -0.061247196 0.06006785 0.0012096316
000120 15 0d bd bc c0 d0 a1 3c 27 c5 f7 3c 04 fb 49 bc
       -0.023077527 0.01975286 0.030245377 -0.012327913
000130 38 9e f5 3c 92 dd 02 bd 47 ca 89 bc 02 9a 5b bd
       0.029982671 -0.031949587 -0.016820086 -0.05361367
000140 99 2f 89 3d 56 49 1a 3c 8e 60 48 3d 3a 5e 2d 3d
       0.06698532 0.009416899 0.048920207 0.04232619
000150 c9 a5 54 be 75 7c 4a bd 6f c4 1e bd 39 73 2e bd
       -0.20766367 -0.049435098 -0.038761552 -0.042590354
000160 fa 22 7b 3d 7a 9c a9 bc 90 e8 7d 3b e9 b0 69 3c
       0.061312653 -0.020704497 0.0038743354 0.01426337
000170 1c c6 41 3c 01 51 c0 ba 93 a6 2d 3c 76 a3 04 bd
       0.011827018 -0.0014672579 0.010598796 -0.03238245
000180 8a 90 05 bb c5 bf 7e bd 22 79 e1 3c 84 ea f8 bc
       -0.0020380341 -0.062194604 0.027523581 -0.030385263
000190 b4 1d 31 bd 35 e7 27 bd 83 71 64 3d ea a4 bf 3c
       -0.043241218 -0.04099198 0.055772316 0.023394067
0001a0 dc b6 e7 bc 6f ac 45 3d 25 3a cf bd 4c f5 59 bd
       -0.028285436 0.04826015 -0.10118512 -0.05321245
0001b0 22 35 5d 3d 26 22 c2 3c 99 e0 df bc fb dd 4c 3d
       0.05400575 0.023697924 -0.027328776 0.050016385
0001c0 94 36 85 3d d2 b4 67 3d a2 b8 21 3d b8 29 94 3c
       0.065045506 0.056568928 0.03948272 0.0180863
0001d0 af de 45 bd 06 81 4b 3d 80 66 68 bb 30 7a 0b bd
       -0.04830807 0.049683593 -0.0035461485 -0.034052074
0001e0 34 fe f1 bc 5c 3e 29 3c f2 7d d0 3d 30 41 fe 3b
       -0.029540159 0.010329809 0.10180272 0.007759236
0001f0 10 d3 92 bb b4 b9 26 bd 56 72 eb 3c 91 1e 8a 3c
       -0.004480727 -0.040704444 0.028741043 0.016860278
000200 15 66 9f 3c 64 d5 41 bd f1 f7 be bc 98 59 95 bb
       0.019457856 -0.047322646 -0.023311587 -0.0045577995
000210 39 a0 54 3e f8 3e 63 3d 90 bb 90 bc e8 29 10 3d
       0.20764245 0.055479974 -0.017667562 0.035196215
000220 10 2f b0 bc 9d be 5b 3d 4e b9 65 3d a2 b6 17 bd
       -0.021506816 0.05364858 0.056084923 -0.037039407
000230 52 85 08 bd 99 d3 18 3e 16 38 65 3d 48 a6 23 3d
       -0.03333027 0.14924468 0.05596169 0.0399535
000240 e2 be 89 bc 4a 7b a4 bd 2c 77 39 3d ed 2b 6b bd
       -0.016814653 -0.08031328 0.045279667 -0.057414938
000250 3b 2f 3b bd 40 e2 14 3c 3a ec da be 0c 65 49 3d
       -0.04569934 0.009087145 -0.42758352 0.04916863
000260 e0 e9 34 bb a4 95 49 3d 5a dd 0d 3d 25 66 15 3d
       -0.002760522 0.049214974 0.034634925 0.036474366
000270 b0 48 0e bd e8 a9 83 3d 13 93 27 bd 7f b4 35 bd
       -0.03473729 0.064288914 -0.040911745 -0.044361588
000280 77 5d ee 3d c1 a0 16 3d 20 b5 db bb 0e 45 57 bd
       0.11638921 0.0367744 -0.0067049414 -0.05255609
000290 26 c6 18 3a 68 b6 4f bc 0d 3c de bb 6c 1d 8e 3d
       0.0005827866 -0.012677766 -0.006782061 0.069392055
0002a0 39 f3 1e 3c dc c7 19 bd c8 56 39 3d 01 73 c1 bd
       0.0097015435 -0.037544116 0.045248777 -0.094457634
0002b0 03 3b 63 3d 5b fe e0 3c f4 36 11 3d 11 7b 37 bd
       0.0554762 0.027465036 0.035452798 -0.0447951
0002c0 82 38 6f 3d 29 76 4f bd 3e a6 11 3d 70 46 4e 3d
       0.0584035 -0.050649796 0.03555893 0.050360143
0002d0 4d a3 a7 3c 70 7f 84 3c 3f f6 c8 3c ae 20 17 bd
       0.02046361 0.016174048 0.024531482 -0.0368964
0002e0 62 53 fa 3b 4d 90 83 3d e9 36 85 3c a0 b5 26 3d
       0.0076393345 0.064240076 0.016261535 0.040700555
0002f0 bc 13 01 be 44 41 93 bc 16 80 46 bd 66 72 70 3d
       -0.12605184 -0.017975457 -0.048461996 0.05870285
000300 96 e7 5e 3c ad 32 22 bd 58 50 23 3b aa d9 80 3d
       0.013605019 -0.03959911 0.0024919715 0.06291516
000310 90 fa 40 3e 10 cf 88 bc b6 9e 41 bd 63 b9 6c 3b
       0.18845582 -0.016700298 -0.0472705 0.0036121241
000320 c4 1d 6c 3d e7 4f e5 3c 38 a1 bf 3c 40 cf e8 3c
       0.057645574 0.027992202 0.023392305 0.028419137
000330 f4 82 3c 3e d8 cb 4f 3c 8c 27 de 3c c4 87 62 bc
       0.1840933 0.0126828775 0.027118467 -0.013826314
000340 9b 73 ad 3d ef a4 ad bc d5 42 9d be b0 50 47 bd
       0.084693156 -0.02119681 -0.3071505 -0.048660934
000350 c8 00 2b 3c 26 36 3e 3d da a1 9a bc fb a1 34 3c
       0.010437198 0.04643836 -0.018876005 0.011024947
000360 ea 77 65 3d 20 05 cd bc 80 55 13 3b a3 17 23 3d
       0.056022562 -0.025026858 0.0022481382 0.039817464
000370 ac 15 98 be 2c b8 0a bd 02 69 a2 bd 64 a1 89 3d
       -0.29704034 -0.033867046 -0.07930185 0.06720236
000380 35 9c 9e 3d fa a3 f5 bc 6c 93 ae 3b 9e ef f1 3c
       0.07744638 -0.029985417 0.0053276327 0.029533204
000390 88 e9 34 bd b3 f2 94 3d 28 77 2f bd c5 6f 74 38
       -0.044168025 0.07272854 -0.042838246 5.8278227e-05
0003a0 cb 44 ab bd 64 12 68 3d d2 ca 9c 3d c7 e9 d0 3c
       -0.083627306 0.056658164 0.076558724 0.025502099
0003b0 fa 75 4d bc 17 fd a5 3e fa 52 5a 3d f0 2e 70 3d
       -0.012540335 0.32419655 0.05330179 0.058638513
0003c0 c5 ae e3 3c de 25 40 bd a0 50 c9 bb 80 3e d3 bb
       0.027793298 -0.046911113 -0.0061436445 -0.0064466596
0003d0 3c c9 66 bd 66 04 1a bc 2d b2 ac bd 45 62 aa 3e
       -0.056344256 -0.009400463 -0.08432422 0.332781
0003e0 28 40 96 bd d2 26 37 bd 58 d0 6b bd 78 f1 b2 3c
       -0.073364556 -0.044714756 -0.05757174 0.021843657
0003f0 18 f3 61 3d ed d0 3a 3d c7 f7 c3 3c aa 1d d3 3c
       0.055163473 0.045609403 0.02392186 0.02577098

bias f4 [256]
000000 31 de 6a 3d ba 53 6b bd 5a 39 9a 3d ef b3 5b 3d
       0.057340804 -0.057452895 0.0753047 0.053638395
000010 30 d9 d9 3c 07 d8 7d 3c 91 53 39 bd 4f e3 6f 3d
       0.02659282 0.015493399 -0.04524571 0.058566388
000020 e9 d3 fe bc b7 e9 15 bd 0d 0d 3c 3c 3d f7 e9 bb
       -0.031106906 -0.03659984 0.011477721 -0.007140069
000030 82 3d 49 3d 6e ac 67 3d 3a 96 6d bd 7b 9d 7f bd
       0.049130924 0.056560926 -0.058004595 -0.062406044
000040 5a f4 4f bd 38 80 21 3c 00 9f 91 3c 50 d3 9e bc
       -0.05077014 0.00985723 0.017776012 -0.019387871
000050 b0 7d 00 bc 20 12 61 bc 42 d9 13 bd b6 87 82 3d
       -0.007842466 -0.0137372315 -0.036095865 0.06373541
000060 18 65 09 bd da e3 d4 3c 9e b0 7e 3d e9 c2 0f 3d
       -0.033543676 0.025987554 0.062180154 0.03509799
000070 72 91 80 bd 92 92 8c bd bf 94 2f bd ec 25 52 3d
       -0.062777415 -0.068638936 -0.042866465 0.051305696
000080 f6 81 32 3d 5f 40 48 3d 45 00 b5 bc c2 e9 51 bd
       0.04358097 0.048889514 -0.022094855 -0.05124832
000090 47 a1 41 bd 15 42 60 bb c1 10 d7 bb f2 3d c5 bc
       -0.047272947 -0.0034219075 -0.0065632765 -0.02407739
0000a0 80 36 63 bc ea 10 61 bd ea fe 27 be 2c 2b 6a bd
       -0.013867974 -0.05494777 -0.16405836 -0.05717008
0000b0 7e a5 53 bd 3b 4d d1 3c c2 b0 3a 3d ea e0 1f 3c
       -0.051671498 0.025549522 0.045578726 0.009758214
0000c0 9e 63 66 bd 08 31 88 3c 20 2b d5 bc 20 c4 55 3c
       -0.056247346 0.016624942 -0.02602154 0.013047248
0000d0 33 f8 99 bd ac 0d 4f bc 80 54 14 bd b2 2b 98 bd
       -0.07518043 -0.012637537 -0.036213398 -0.07430209
0000e0 64 53 46 bc 38 bc 42 3d 85 3a 01 bb 1b 3e 6a bd
       -0.012104843 0.04754278 -0.0019718718 -0.057188135
0000f0 08 a6 17 bd 28 0c 8b bd c7 07 8c bb 22 cc 42 3d
       -0.037023574 -0.06789428 -0.004273388 0.047557957
000100 64 09 f1 3d d0 b4 2a bd 94 58 03 3d dc a8 05 3c
       0.11769369 -0.041676342 0.032066897 0.008157935
000110 1c 9f 48 3c 40 f8 eb bb 20 11 1a 3d 30 cd 46 bd
       0.012244966 -0.0072012246 0.037613988 -0.048535526
000120 a9 fb 37 3d 92 2f 1d 3d b1 e5 dd bc 3c e8 cd 3d
       0.044917736 0.038375445 -0.027087064 0.10054061
000130 f0 36 4a 3d d0 0b dd 3b 47 2a 08 3e 58 d7 d3 3c
       0.0493688 0.006745793 0.13297378 0.02585952
000140 4c 32 97 bc 27 6e 60 3d ec e5 5d 3c 45 79 d9 bc
       -0.0184566 0.05479255 0.013543587 -0.026547084
000150 d1 c3 11 bd 99 7f a4 3b aa e2 79 3d 10 a3 35 3d
       -0.035587136 0.0050200936 0.06100718 0.04434496
000160 85 00 c5 3c 61 13 91 3d ac 50 0a 3d b4 06 11 bd
       0.0240481 0.07083774 0.03376834 -0.035406783
000170 0f ca 75 3d 77 ab be b9 16 a0 61 3d bb 5c 89 bc
       0.06000715 -0.00036367375 0.05508431 -0.01676785
000180 68 d4 61 bc 28 98 7f 3c a8 52 42 3d 66 5d 32 bd
       -0.013783552 0.015600242 0.04744211 -0.043546103
000190 30 e2 de bc fc ae 58 bc 58 26 2a bd 27 e6 27 bd
       -0.027207464 -0.013225313 -0.041540474 -0.040990975
0001a0 00 ee 65 bd fe e0 32 3d 71 a8 c5 bc 48 cc 2b bd
       -0.056135178 0.0436716 -0.02412817 -0.041942865
0001b0 d5 91 08 bc f7 40 b7 bc 2c b3 0d bd 3c 0f a6 3d
       -0.00833555 -0.022369845 -0.0345947 0.081083745
0001c0 2b 5b fb 3c 7a 80 41 3d 61 c3 6f bb 92 96 f9 3b
       0.03068312 0.047241665 -0.003658496 0.0076168263
0001d0 69 ff 52 bd c9 8f a0 3d ed 89 9e bc 79 f5 35 bd
       -0.05151311 0.07839925 -0.019352878 -0.044423554
0001e0 f8 da 0b 3d 93 6f 04 bc 9c c7 43 bb 98 bb 52 3d
       0.03414437 -0.008083242 -0.0029873615 0.051448435
0001f0 2f f7 c5 bd 71 78 4d 3d 00 7a 7f ba 55 be 30 3d
       -0.09666287 0.05016369 -0.00097456574 0.043150265
000200 aa 75 54 3d f6 d1 1f bd 91 51 a1 3b c6 bf 03 bd
       0.051870026 -0.039018594 0.0049230536 -0.03216531
000210 de 2e 06 bd 08 98 37 3c 42 d5 d9 bc 70 ad 10 bd
       -0.03275954 0.011205681 -0.026590947 -0.035321653
000220 38 60 9c 3c 74 07 a2 3c cf 26 50 3c 06 a4 6e bd
       0.01908885 0.019778945 0.012704565 -0.058261894
000230 0c 29 23 bc 1b 2f 15 bd 7c 2a da bb 6f fe f9 3c
       -0.009958517 -0.036421876 -0.0066578966 0.030516831
000240 38 5a 7d 3d b8 ad 52 3c b8 30 5d 3c 0c 4d 98 bc
       0.061853617 0.012858801 0.013500385 -0.018591426
000250 54 2e 6b 3d ac 67 6a bc 2c fb ea bd 77 ad db bd
       0.05741723 -0.014306944 -0.114736885 -0.10726445
000260 5f 3e 33 bd 4e 88 c7 3c 46 42 85 bb 9c dc b1 bc
       -0.043760654 0.024356987 -0.0040667383 -0.02171164
000270 1d 09 38 bc 7c 0c 41 3d cc 36 09 bd ea 1a 2a bd
       -0.0112326415 0.047131047 -0.033499524 -0.041529574
000280 53 8b 53 bc 4c 29 3e bd 0f d9 e4 bc 98 99 b0 3d
       -0.012911635 -0.046426103 -0.027935533 0.08623046
000290 f9 71 7f 3d 22 b1 8e bd 88 5c 1a 3d 7f ed 98 3d
       0.062364552 -0.06967379 0.0376859 0.07467174
0002a0 f0 79 ee 3b ea 56 08 bd 3d b9 07 bc d8 1b 3d bd
       0.0072777197 -0.033286013 -0.00828391 -0.046169132
0002b0 a4 f7 4b bc e8 93 e5 bc 42 f2 b2 3c a0 bb 7f bc
       -0.012449179 -0.028024629 0.021844033 -0.015608698
0002c0 c3 8b 1a bd 2b 79 a4 3c 34 0a 00 be c0 d8 a0 bb
       -0.037730943 0.020077309 -0.12503892 -0.004908651
0002d0 d0 90 56 bc ab 2d 6b bd b7 87 b0 3b a4 6f c1 3c
       -0.013096049 -0.0574166 0.005387272 0.023612805
0002e0 92 1d 83 bd 49 12 11 bd 9a 8f 10 bd b9 d4 2e 3b
       -0.064021245 -0.03541783 -0.0352932 0.0026677086
0002f0 67 57 1b bd be aa a6 bb 1b 53 d4 bc 98 1d ae 3c
       -0.03792515 -0.005086272 -0.025918534 0.021254346
000300 fe 41 84 3d 05 04 55 bd 3c 2f 04 3d 03 bb f1 3a
       0.064578995 -0.052005786 0.03227161 0.0018442575
000310 e4 e2 ba 3c 8a 4c 5a bd 69 f2 b3 3d e5 f9 16 bc
       0.022813268 -0.05329565 0.087864704 -0.009214853
000320 1f 08 f3 ba 6a 91 2d bd 4a 60 29 bd 74 f6 03 3b
       -0.0018541849 -0.042375006 -0.041351594 0.0020135911
000330 8f b1 63 bc cc 31 0f bc f3 7a 77 3d 50 cb 82 bc
       -0.013897314 -0.0087399 0.060419988 -0.015966088
000340 70 38 01 bd 6b 4a 21 3d 2e a1 11 bc 3e cc 5f 3c
       -0.031547964 0.03937761 -0.008888526 0.013659535
000350 5b e9 f3 3c 88 7d b4 bc d2 44 b2 3c 96 b0 90 3d
       0.029774358 -0.022032514 0.021761332 0.07064931
000360 cc 7d 63 bd 4a 49 27 3d 56 80 5c 3d 04 2b e5 3c
       -0.05553989 0.04084138 0.05383333 0.027974613
000370 06 93 a8 3c 78 1e 50 3c ee b1 80 bd 1d 4a 8d bc
       0.020577919 0.012702577 -0.062839374 -0.017247254
000380 e4 e9 8f 3c d2 90 21 bc af e0 1e 3d c7 94 ab 3d
       0.017567582 -0.009861188 0.038788494 0.083779864
000390 a4 d6 6f 3d aa 40 34 3d cc 65 2b bd 08 00 33 bd
       0.058554307 0.04400698 -0.041845128 -0.0437012
0003a0 96 38 f5 bc b9 98 68 ba 0a 37 3d bd c7 7b 82 3d
       -0.029934209 -0.0008872855 -0.046195067 0.06371265
0003b0 9d 86 1f 3a 42 49 c6 3d 92 c0 60 3d 33 23 15 b9
       0.00060854276 0.096819416 0.05487115 -0.0001422286
0003c0 2c 10 b2 3d f0 d5 f8 bc 2a 9e 6d 3d 83 46 63 3d
       0.08694491 -0.03037545 0.058012165 0.055487167
0003d0 3a c8 8a bc a2 02 14 bd e3 07 81 3d fc 65 06 3d
       -0.016941179 -0.036135323 0.063003324 0.032812104
0003e0 1a e6 8a 3d 10 66 86 3c 5f ca c5 bc 97 7e 1d bd
       0.0678217 0.016406089 -0.02414435 -0.038450804
0003f0 3c e4 39 3d 84 f5 7c 3d 8b 93 b8 3c 80 6c 32 3d
       0.045383677 0.06175758 0.022531291 0.043560505

weight f4 [33, 256]
000000 ee af 51 3d 04 60 46 3d 88 a0 88 3c b9 0c 8d bc
       0.05119317 0.04843141 0.01667811 -0.01721798
000010 70 85 7d bd f0 77 37 bd e0 bd 9a 3d 0f 29 ce 3c
       -0.061894834 -0.044792116 0.07555747 0.025166063
000020 4f 9b 02 3d dc 1c a1 3c 3c 40 f9 bd a9 c0 12 3d
       0.031886395 0.019667082 -0.12170455 0.035828266
000030 e2 7f 58 bd fe 02 ef bd e0 46 2c 3d 33 eb 0e bc
       -0.052856334 -0.116704926 0.04205978 -0.008723068
000040 0f 07 0d bd 92 29 60 bd f4 f5 d1 3c e8 ed 1b 3c
       -0.03443056 -0.054727145 0.025629975 0.0095171705
000050 e8 a1 2b bd 60 1f 7a 3b 42 e4 1c 3d a8 45 b9 bd
       -0.041902453 0.0038165674 0.03830362 -0.09046489
000060 4f b1 5b 3d 10 b1 15 bc 15 1c b9 be d1 38 c1 3d
       0.05363589 -0.009136453 -0.36154237 0.09434665
000070 2c 54 a3 3c 2f 52 88 3d 93 a3 47 3d 80 a6 92 3c
       0.019937597 0.066563 0.04873998 0.017901659
000080 63 69 6c 3d 87 1b ac 3d ae f0 60 3d a8 77 05 bc
       0.057717692 0.08403688 0.05491703 -0.008146204
000090 2e fe 2b 3d 48 56 66 3d 57 a6 f7 bb 68 92 6c bb
       0.04199045 0.056234628 -0.007557671 -0.0036098007
0000a0 64 08 af bc 1c a1 38 bd 1a d1 cd 3e 76 c3 1f bd
       -0.021366306 -0.04507552 0.40198594 -0.039004765
0000b0 00 94 82 bb 73 c1 d7 3d 9f f0 0d bd 48 9e ec bc
       -0.003984928 0.105349444 -0.034653302 -0.028884068
0000c0 f2 c8 6a bd 70 f6 76 3c 18 42 00 3d 87 72 cc bc
       -0.057320543 0.015073404 0.031313032 -0.024956955
0000d0 94 3e dd 3d 78 b1 64 bd 12 b3 2f 3d 06 c9 1a 3d
       0.108029515 -0.05583331 0.042895384 0.037789367
0000e0 a7 5b 59 3d da c1 7a bd b7 cc c8 3d e3 89 7f 3c
       0.053065922 -0.061220028 0.09804671 0.01559684
0000f0 56 0c 17 bd 13 4b 8d bd 68 41 2c bd 56 a2 5c 3d
       -0.036877 -0.06899085 -0.042054564 0.053865753
000100 40 15 98 3b b2 43 45 3d 60 a0 6f 3b d1 1b 46 3d
       0.004641205 0.048160262 0.0036564097 0.04836637
000110 3f 19 20 be fe 41 1a bd 7c df a7 bc 5e bc 86 3c
       -0.1563463 -0.03766059 -0.020492308 0.016447242
000120 e4 ae 65 bd d6 39 97 bc 20 3c 4c bd fd f9 8a 3e
       -0.05607499 -0.018460196 -0.049862027 0.2714385
000130 4d 18 a0 3d 1c 5f 50 3d 46 4c e1 bd 3c 0b fe bc
       0.07817135 0.050871953 -0.11000876 -0.031011216
000140 80 28 65 3b 87 73 59 3d 0a 5b d8 bd e0 46 6b bc
       0.0034966767 0.05308869 -0.10564239 -0.01436016
000150 ac d7 29 3d ad e7 f1 3c 80 be 6a 3b 1b b1 a1 3d
       0.041465446 0.029529417 0.0035819113 0.07895108
000160 67 b7 20 3d 95 f5 0e be 20 10 45 bd da 51 2a 3d
       0.039237406 -0.1396087 -0.04811108 0.041581966
000170 20 5a 68 3a 07 2a c3 3b 14 0f 1f 3d 9c d2 85 3d
       0.00088635273 0.005955938 0.03883274 0.06534311
000180 d0 df 35 3d 38 1f 2f 3c ef 1b 05 3d 74 37 a0 bc
       0.044402897 0.0106885955 0.032497343 -0.019557692
000190 24 7e ec bc 57 82 bd ba cb a2 0a bd c0 37 6e bd
       -0.028868742 -0.00144584 -0.033846658 -0.058158636
0001a0 5f 7a 2a 3d e4 e1 d1 bc 2e 13 da bc e8 7d 1b bd
       0.04162061 -0.025620408 -0.026620474 -0.03796187
0001b0 0a 64 78 3d 8a dd 7f 3d e0 0b cb bb b6 e7 f0 bd
       0.06064228 0.062467135 -0.006196484 -0.11762945
0001c0 76 f2 7f bd 30 ae 43 3d 03 04 44 bd 40 91 09 3e
       -0.06248709 0.04777354 -0.04785539 0.13434315
0001d0 36 3c 60 3d e4 88 a2 bd ed f9 c0 bb e3 a0 c1 3c
       0.05474492 -0.07936266 -0.0058891685 0.023636287
0001e0 c0 6a 10 bc bd f1 47 3d 5a f6 3d 3d ac 26 4f 3d
       -0.008814514 0.048814524 0.046377517 0.05057399
0001f0 5e 5a 97 3e 99 ea 0f 3d 3c b4 1b 3d 89 e8 2a be
       0.29561132 0.03513584 0.03801368 -0.16690268
000200 04 2d 4c bd 96 31 20 bd 14 39 c5 bc 64 0a a9 3c
       -0.049847618 -0.03910979 -0.024075069 0.020634837
000210 14 8b 70 3d aa 76 06 3d 29 aa 24 3d dd 6c 61 3d
       0.058726385 0.03282801 0.04020134 0.05503546
000220 a0 7b 4e 3d 46 58 cb 3c 87 9f e6 3c 1b 32 c1 bc
       0.050410867 0.024822365 0.02815224 -0.023583462
000230 df 51 23 bd f3 60 8f bd 2e 2d 43 3d a0 a6 1b bd
       -0.039873 -0.070009135 0.04765051 -0.038000703
000240 e1 07 3b 3d 5e 54 68 bd 79 58 bb bc f3 c7 b1 3d
       0.04566181 -0.056721084 -0.022869335 0.086807154
000250 ec 2a 31 bd 71 6a c2 bc 77 a3 c7 3e 21 e9 2c 3e
       -0.043253824 -0.023732396 0.389919 0.16885807
000260 67 a4 03 3d 0f 9e 24 3d e3 eb 47 3d 86 a7 12 3d
       0.03213921 0.0401898 0.048808943 0.035804294
000270 9b 0d 65 3d 48 89 ed 3d 84 09 25 bd 78 1d 6a 3c
       0.05592118 0.1159845 -0.040292278 0.014289252
000280 b0 78 95 3c 50 21 9c 3b 07 e2 b7 bd dd 16 0a 3e
       0.018246025 0.0047647133 -0.08978658 0.13485284
000290 27 ea 8d 3d de 0c 6e 3d 22 03 27 bd 4e c2 31 3e
       0.06929427 0.05811774 -0.040774472 0.17359278
0002a0 80 fc ab 3c 1e 59 62 bc ce 5e 39 bd cc b0 0f 3d
       0.020994425 -0.0138151925 -0.04525643 0.035080716
0002b0 70 ca 16 3d c6 e1 7b 3d f8 a6 96 3d 72 cd 38 3d
       0.036814153 0.06149461 0.073560655 0.045117803
0002c0 f8 89 7b 3d 3c c3 8b bd 73 23 99 3e 7e f2 57 3d
       0.061410874 -0.068243474 0.29909858 0.052721493
0002d0 b8 ba b4 bc 33 5b 9b 3d 38 92 71 3d ca a4 7b 3d
       -0.02206169 0.07585754 0.058977336 0.061436452
0002e0 85 fc 3b 3d 40 82 10 bd 00 cd 88 bc 40 2c e7 3c
       0.04589512 -0.035280466 -0.016699314 0.028219342
0002f0 3c f3 fb 3c 18 3e 78 3d aa 30 da 3b 2e 67 4d bc
       0.030755632 0.060606092 0.0066586332 -0.012536807
000300 7f 26 9d 3e 2a 29 56 3d 47 fe 95 bd 7a 08 18 bd
       0.30693433 0.05228535 -0.0732389 -0.03711746
000310 08 61 17 3c 34 d8 f6 bc 59 35 ab bd da 3b bf bc
       0.009239443 -0.03013239 -0.08359785 -0.02334397
000320 08 b6 62 3d 4a 61 47 bd 14 34 32 bd 08 34 3f bc
       0.05534938 -0.048676766 -0.043506697 -0.01167012
000330 c9 80 ab 3d a3 b8 e4 3c be 1f 78 3a 93 8e 5a bc
       0.08374173 0.027920073 0.0009465179 -0.013339656
000340 01 87 33 bd 91 f8 93 bb ab 48 bb 3c 7c b3 33 3d
       -0.04382992 -0.0045157154 0.0228618 0.04387234
000350 87 b9 a4 bc df 40 16 3d e5 5f 18 3c 83 06 44 bd
       -0.020107998 0.03668296 0.009300207 -0.047857773
000360 d8 6f c8 bc 6e 35 09 bd 54 85 17 3d f8 3d 95 3c
       -0.024467394 -0.03349822 0.036992386 0.018218026
000370 c7 2c c8 3d 4a 1a 19 3c b5 45 d3 3d 7c e6 c0 bc
       0.097741656 0.009344647 0.1031603 -0.023547404
000380 dc c4 82 3d 7c 34 24 3d a1 70 46 bb 5b c7 a2 3d
       0.06385204 0.040089116 -0.0030279534 0.0794818
000390 e9 3d 90 bd a4 81 e4 3c 50 2f 9b 3c 32 a6 3f bd
       -0.070430584 0.027893849 0.018943459 -0.046789356
0003a0 64 06 8e bc 42 d5 08 bd dc 85 1a 3d 27 74 bc 3c
       -0.017337032 -0.033406503 0.037725314 0.023004605
0003b0 bb cb 30 3d 2d d3 89 3d 88 eb 9a 3c fa e5 69 bd
       0.043163043 0.06729732 0.018911138 -0.05710409
0003c0 ef 80 f5 3c cc 9c 9c bd 2c 38 ac 3c 2a e1 46 3d
       0.029968707 -0.07647094 0.021022879 0.048554577
0003d0 38 88 62 bc ec 8d 24 3d 7a 13 07 3d 3e 97 b2 3d
       -0.013826422 0.04017441 0.03297756 0.087202534
0003e0 c1 ff 92 3d 4e 01 13 bd 5a 4b 67 3d 41 60 45 bb
       0.071776874 -0.035889916 0.056468345 -0.0030117186
0003f0 31 d4 f7 bd a2 57 72 3d 79 f0 ee bb 78 49 6a 3d
       -0.12101019 0.059165604 -0.00729185 0.05719897

bias f4 [33]
000000 d9 e9 66 3d 3c 0d 5b bd 9c 3c 9f 3d bf 86 10 3d
       0.05637536 -0.05347942 0.07775232 0.035284754
000010 6b 84 2a bd d8 65 5b 3d a8 b7 4e 3d 8b f1 22 3d
       -0.04163019 0.053563923 0.050468117 0.039781135
000020 01 e1 6c 3d 98 0a a6 bb d6 1d 8e bc d3 d3 b9 3c
       0.057831768 -0.005067181 -0.017348211 0.022684013
000030 64 e0 09 3d a6 72 47 3d 50 fa e1 3c 32 bc 1e 3d
       0.03366126 0.04869332 0.027585179 0.038753696
000040 98 29 67 bd 42 8c 18 3d e7 23 8c 3c 89 bd 2e 3c
       -0.05643615 0.037243135 0.017106963 0.010665306
000050 52 de cc bc b3 01 2f 3d 87 47 34 3d c7 c3 1a 3d
       -0.025008354 0.04272623 0.044013526 0.037784364
000060 9d 14 04 3c 28 ca 36 bd 5b 55 3b 3d fb 33 32 bd
       0.008061555 -0.044626385 0.0457357 -0.043506604
000070 06 c8 7c bc 83 2a b1 3c f7 98 ad 3c 74 53 92 3d
       -0.015428549 0.021626716 0.021191103 0.07144824
000080 d2 9e 95 bc
       -0.018264208
