experiments/diff_context_data/sunny_models/dqn_proposed_origin.pth (torch, 306048 bytes, 6 tensors)

weight f4 [256, 4]
000000 50 9c 40 be f8 61 6b be a6 c4 c6 be c4 30 cc be
       -0.18809628 -0.22986591 -0.38821906 -0.39880955
000010 84 e9 9f be 74 bf f6 be dc 60 2c be c4 ac d4 be
       -0.31232846 -0.48192942 -0.16833824 -0.4153806
000020 d8 95 b8 3d 03 be 05 bf cc bf ac be 70 ca be 3d
       0.090129554 -0.5224306 -0.3374008 0.09315956
000030 a3 a5 c5 3e 82 5d ea 3d a2 c8 9c 3c ea e5 06 3f
       0.38602933 0.114436164 0.019138638 0.5269457
000040 cf f6 eb 3d 42 aa 8a bc a0 6a 02 bf 3f a1 a9 3e
       0.115216844 -0.016926888 -0.50943947 0.33130834
000050 26 f1 1f be 94 48 26 bd 92 38 08 3d 7c e1 1b 3f
       -0.15619335 -0.04059656 0.033257075 0.60890937
000060 38 b0 1e be 99 28 be 3e 66 82 67 bd 46 8a 2a bf
       -0.1549691 0.3714035 -0.056520842 -0.6661724
000070 a2 d6 c9 be 31 75 ec 3e a9 97 23 be ec 96 0e bf
       -0.39421564 0.4618316 -0.15975823 -0.5569904
000080 ca 0b 54 be 43 57 57 be 3d 18 cb 3e 4b 54 02 3e
       -0.20707622 -0.21029381 0.3966693 0.12727468
000090 80 52 c4 bd c0 d5 2d bd 10 85 c6 bd a4 0e f2 be
       -0.09586048 -0.042440176 -0.096933484 -0.47276795
0000a0 5e 52 e0 3e 52 cc ba bd 66 7c a6 be f9 c6 e8 be
       0.4381284 -0.09121002 -0.32516783 -0.45464304
0000b0 b8 f0 e6 be a0 f1 1f 3d 50 10 79 3d 40 45 90 3c
       -0.4510553 0.03904879 0.060806572 0.017611146
0000c0 71 bc 82 3e d0 61 b3 3d 0b 09 e6 bc f9 58 7f be
       0.25534394 0.08758891 -0.028080484 -0.24936284
0000d0 10 05 d2 bd 00 11 57 be 94 23 26 be e4 be bb be
       -0.10254872 -0.21002579 -0.1622451 -0.36669075
0000e0 ff b6 36 b9 08 bc dc 3e 17 e4 8f bd b0 46 80 3e
       -0.00017425044 0.43112206 -0.070259266 0.2505393
0000f0 cf 0d 8a 3d 31 6e ec 3e 42 67 e6 bd cd 09 c4 3e
       0.06740915 0.4617782 -0.112501636 0.38288727
000100 ae bb 07 3e f6 c9 06 3e 02 31 db be 0a 41 f3 3e
       0.13255188 0.1316298 -0.42810827 0.47510558
000110 f3 63 3c 3e 44 0c 04 3e 3c 71 92 be 6e 2b c0 bc
       0.18397503 0.12895304 -0.28602016 -0.023458209
000120 8b ed 1f 3e ab ba 04 be d9 82 75 be 5f 75 c5 be
       0.15617959 -0.12961833 -0.23975696 -0.3856611
000130 70 3f 4f bd 34 27 31 be 66 97 a9 be 68 21 96 3d
       -0.050597608 -0.17300111 -0.3312332 0.073305905
000140 c4 a1 ff bd 9c 1e 65 be 93 bf 31 3e cb 60 d4 3e
       -0.12482026 -0.22374958 0.17358236 0.41480097
000150 f8 d7 c2 bd 25 03 b3 3e 2c 52 7c be 4a 77 22 3d
       -0.09513849 0.34963337 -0.24640721 0.039664544
000160 b8 c5 f9 3e 1d 2f b1 be 1b cb 90 be 82 39 75 be
       0.4878366 -0.34606257 -0.28279957 -0.23947719
000170 3d 3f 1c 3e 70 88 85 3e 95 ed de be a6 9e b8 be
       0.15258498 0.26080656 -0.43540636 -0.3605854
000180 cf 7a b4 be 61 a1 04 3f d7 6a a6 be 77 81 b1 be
       -0.35249946 0.51808745 -0.32503387 -0.34669086
000190 91 e4 6a 3e ff a8 1e bd 68 fc b5 be 88 81 99 3e
       0.22938754 -0.038735386 -0.35544133 0.29981637
0001a0 78 b5 cf 3d b6 c4 c6 3e fb a1 a8 3d 4e c1 92 3e
       0.10142034 0.38821954 0.0823402 0.28663105
0001b0 b3 b8 80 3e 62 cb 8d be 40 6c 7b be 3f 66 a7 be
       0.25140914 -0.2769423 -0.24553013 -0.32695195
0001c0 80 5d cc bc 98 b7 ef be 90 71 0b 3d 7e c1 cc 3e
       -0.024946928 -0.46819758 0.03404385 0.39991373
0001d0 c0 07 1b 3e f4 d0 50 bd f8 40 b3 3e 61 96 d0 be
       0.15139675 -0.050980523 0.35010505 -0.4073973
0001e0 20 eb e8 3c 4e e2 a8 be bc fd 41 be f0 aa bc be
       0.028432429 -0.32985157 -0.18944448 -0.36849165
0001f0 8c 75 fa be 6c 42 b0 be a8 2c ff be 30 d1 90 bd
       -0.48917806 -0.34425676 -0.49838758 -0.07071149
000200 77 3f 3c 3e f8 3d bd be 8a b2 51 be 00 56 08 be
       0.18383585 -0.3696134 -0.20478263 -0.13314056
000210 38 6f a2 be 0c 36 82 3e c1 db 86 be 58 b4 b9 3d
       -0.31725478 0.2543186 -0.26339534 0.09067601
000220 f7 66 b8 3e 1a 55 ea 3e 0c 44 8c 3e 57 97 b0 3d
       0.36016056 0.45768052 0.27395666 0.08622616
000230 c0 85 eb bb c4 3b 1c 3f 8e 79 a8 3d 59 70 7f 3d
       -0.007187575 0.61028695 0.0822631 0.062363002
000240 a8 8b 89 3d 87 0d ee 3e bf 29 4c be 8e d9 f5 3e
       0.067160904 0.46494696 -0.199378 0.48017544
000250 ec 6f c6 be 80 35 c6 bc f0 1c e7 be 00 55 22 bb
       -0.38757265 -0.024195433 -0.45139265 -0.0024769902
000260 f9 03 31 be 71 b2 1c 3f 1c 70 65 3e 7e d8 48 3c
       -0.17286672 0.6120978 0.22406048 0.012258647
000270 c0 6f 62 bd 00 ae d0 bc 00 de 61 bd ca 5f e4 be
       -0.055282354 -0.025473595 -0.055143356 -0.4460433
000280 1f f4 dd 3e 56 9f 00 3f 0f 10 36 bd f4 c1 b1 be
       0.43350312 0.5024313 -0.04444891 -0.34718287
000290 cb 74 7d 3e 18 09 b5 bd f4 1e 2d 3e 82 d0 8b be
       0.24751584 -0.08839625 0.16906339 -0.27307516
0002a0 1d 14 f3 3d d7 f6 aa be ec 58 e5 be 23 fe 83 be
       0.11869071 -0.3339145 -0.44794405 -0.25779828
0002b0 e8 56 31 be 62 e0 89 be 0e 7d d7 be 28 24 bd 3d
       -0.17318308 -0.26929003 -0.42087597 0.09235412
0002c0 d1 b1 e0 be 21 a5 87 bd 6d 84 d8 3e c2 71 f2 3e
       -0.43885663 -0.06623293 0.42288533 0.47352415
0002d0 f9 2d e5 3e d5 b8 a1 3d 55 0c 1a be b2 ed b2 3d
       0.44761637 0.07896582 -0.15043767 0.08736743
0002e0 06 68 10 3d d7 46 54 3e 33 bb f7 3d 1e 9b 26 3e
       0.035255454 0.20730148 0.12096252 0.1627011
0002f0 18 fb 4c 3e 11 c5 de 3c 2d 92 92 3e eb f7 a8 3e
       0.2001766 0.027193578 0.28627148 0.33001646
000300 88 9c 8b 3e 82 53 b0 be 4f 3a fe 3e 9e 0d a8 be
       0.2726786 -0.3443871 0.4965386 -0.3282289
000310 4a f3 e9 3e aa f8 04 3f bb d7 72 be f9 7c 94 3d
       0.45693427 0.5194193 -0.23715107 0.07250399
000320 7f 59 97 be d5 84 e8 3e 77 03 f6 bd cd 98 a4 be
       -0.29560468 0.45413843 -0.120123796 -0.32147828
000330 93 8f c6 3e 8c 5d 8e bd 4b 6b c9 3e 56 71 ca 3e
       0.38781413 -0.069514364 0.3933967 0.39539593
000340 31 0b b0 3e 28 03 51 be a2 06 a0 be 4e a8 32 be
       0.34383538 -0.2041136 -0.3125506 -0.17447016
000350 b4 89 7c be f8 26 1a 3e 62 67 b7 be 48 a5 e1 3d
       -0.24661905 0.15053928 -0.35821062 0.11017853
000360 90 e5 bd 3e fe 02 f3 3e 07 2f be be 5f 28 f0 be
       0.37089205 0.4746322 -0.37145254 -0.469058
000370 0d de 1d bd 21 03 9d 3e ad 07 08 3e 82 04 d6 be
       -0.038541842 0.3066645 0.13284178 -0.41800314
000380 2c 92 ba 3d c7 b6 8f be d2 f2 36 3e c2 23 3a bd
       0.09109911 -0.28069136 0.17866066 -0.045444258
000390 7b 92 75 3d 6f 6c e2 be a0 4c b0 bc 70 03 ce 3e
       0.059954148 -0.44223353 -0.021520913 0.40236998
0003a0 a0 47 2b bd 2e 9f 87 be 56 09 cc be aa 3d e0 be
       -0.041816354 -0.26488632 -0.39850873 -0.43797046
0003b0 cc 88 2d 3e 9e 1a ae 3e 4c c0 03 3f 8c 5f ab be
       0.16946715 0.34004682 0.51465297 -0.33471334
0003c0 c1 33 d9 3e 98 99 c2 bd 25 3a f4 3e 14 c4 66 bd
       0.42422298 -0.09501952 0.4770061 -0.05633934
0003d0 1d aa f7 3e ff fb fd be 86 ef cb 3e 04 a7 f6 3d
       0.48371974 -0.4960632 0.3983118 0.120435745
0003e0 43 83 d3 3e 30 f9 b8 3e c0 74 fc be 9e f9 e4 3e
       0.41311082 0.36127615 -0.49307823 0.44721693
0003f0 f5 18 de be a1 df c8 3e 83 74 21 be 2e 91 eb bd
       -0.43378416 0.39233115 -0.15767102 -0.115023

bias f4 [256]
000000 68 08 19 3e be d0 a6 be e0 61 ed 3e 34 85 1c 3e
       0.14944613 -0.32581133 0.46363735 0.15285188
000010 18 e6 de be 1c 00 d1 3e 11 c0 b1 3d 84 ca ea 3e
       -0.43534923 0.40820396 0.08679212 0.45857632
000020 58 f6 f3 be 40 74 cf be d7 98 de be a0 c9 83 bc
       -0.47648883 -0.4051838 -0.43475983 -0.016087353
000030 c3 8c aa 3e 8e 5c f6 3e be 1a 29 3e fc a2 21 3f
       0.33310518 0.4811749 0.16514108 0.6313932
000040 de 0a 0d bf 24 84 04 bf 2e 97 c8 be 20 c1 1a 3e
       -0.55094707 -0.5176413 -0.3917784 0.15112734
000050 d7 81 78 3c 51 91 a0 be 83 d7 35 be 36 dd c3 3e
       0.015167675 -0.31360868 -0.17757992 0.38254708
000060 66 39 82 be 5a a8 3e be 33 3a b1 3e 8f ab d8 be
       -0.25434417 -0.18618909 0.34614715 -0.4231839
000070 00 ce 2e bb 54 19 0a bf ba 48 83 3e 92 0c bb 3e
       -0.0026673079 -0.539449 0.25641423 0.36533028
000080 9e 40 9b 3e 4c 96 e7 3e 0f 57 2a be 85 93 b1 3e
       0.30322737 0.45231855 -0.16634773 0.3468286
000090 69 ec 8b 3d 5a 78 c2 3e d5 3c 22 3f 7a 14 9c be
       0.06832201 0.37982446 0.6337407 -0.30484372
0000a0 21 be 5d 3d 73 19 e1 be a5 45 01 3e 78 65 af bd
       0.0541364 -0.4396473 0.12624224 -0.085642755
0000b0 5a e1 d0 3e c4 a5 1c be 1c 8a e2 3e 9b 2e 00 3f
       0.4079693 -0.1529761 0.44245994 0.50071114
0000c0 31 68 de bd 67 33 33 3e 27 97 ae bd 76 19 e4 3e
       -0.10859717 0.17500077 -0.08524924 0.44550675
0000d0 a4 ed fb 3e 70 01 5a be 61 17 b3 be a7 4c 55 3e
       0.49204743 -0.21289611 -0.34978774 0.20830022
0000e0 de 2c a1 be a8 92 9e 3e 00 c5 dd 3b aa 98 86 bd
       -0.31479543 0.30971265 0.006767869 -0.06572087
0000f0 4b 5e d4 bd c1 eb 22 3e 43 ee ce be 44 44 c7 3e
       -0.103695475 0.15910245 -0.40416154 0.3891927
000100 5b 14 00 3e df a3 02 3c 53 52 50 be ae 7c 34 3e
       0.12507765 0.00797364 -0.20343904 0.17625687
000110 36 81 b0 3e 44 57 85 be 73 8a b3 3e 3e 1b ff be
       0.3447358 -0.2604314 0.35066566 -0.49825472
000120 06 d7 99 be b0 9d 09 3e ce 24 fb 3d e2 de fc 3e
       -0.30046862 0.1343906 0.12262879 0.49388796
000130 7b c8 c2 3e 4a d7 3e bd 57 ac d8 3e 34 0a eb be
       0.3804358 -0.046592034 0.42318985 -0.45906222
000140 10 1f 61 be 26 11 ca be 83 ca e4 3d 54 81 ea 3d
       -0.21984506 -0.39466208 0.111714385 0.11450449
000150 19 01 1f 3f e9 71 04 3d 78 2a bd 3e ab 51 aa 3e
       0.6211105 0.032335196 0.36946464 0.33265433
000160 34 48 53 3e 81 73 8b 3e e8 47 80 3e d3 f5 f2 3c
       0.20633012 0.2723656 0.2505486 0.029658234
000170 85 ce a1 3d 7d 02 d9 be cd c5 c4 be d4 56 13 be
       0.079007186 -0.4238471 -0.3843216 -0.14388591
000180 bc 34 eb be 08 e9 d6 3e 48 e2 a0 3e 94 bc 18 3f
       -0.4593867 0.41974664 0.3142264 0.5966275
000190 ba 24 37 be 50 33 b3 3e e1 16 66 bd 76 73 f6 be
       -0.17885104 0.35000086 -0.056174163 -0.48134965
0001a0 f5 ba 5a be 58 59 d8 be 5f 20 fb 3c 4e 64 d8 3e
       -0.21360381 -0.42255664 0.030655084 0.42264026
0001b0 fb 0a e2 be 8e 40 e4 be 64 f4 4b 3e 61 17 bc 3d
       -0.44149002 -0.445805 0.19917446 0.09184147
0001c0 50 fc 07 bf 6f fc 66 3e ca 9c ba be 78 af 0f 3e
       -0.53119373 0.22557233 -0.36447746 0.1403178
0001d0 62 00 57 be 83 5c c7 be 3e 9e e4 3e 11 1b a6 3d
       -0.2099624 -0.38937768 0.4465198 0.08110631
0001e0 23 4a 68 be 0f 26 0e be b8 74 15 be 8c 43 c6 be
       -0.22684531 -0.13881706 -0.14595306 -0.3872341
0001f0 68 5f 1a 3e b0 73 28 3d 51 87 c1 be de b7 ee 3e
       0.15075457 0.041125953 -0.3779855 0.46624655
000200 7a 44 a0 3e 6f 90 f2 3e 85 28 a8 be 6a 15 ca be
       0.31302243 0.4737582 -0.32843414 -0.39469463
000210 df 99 39 3d bb ed fa 3e eb ae 66 3e 0c f2 56 be
       0.04531276 0.490095 0.22527663 -0.20990771
000220 24 4a 4d be 9d 73 9f be dc 4a b6 be 36 e4 0b 3f
       -0.20047814 -0.31142893 -0.35603988 0.546451
000230 98 6c 4e 3e f9 1d 04 be 8c b8 09 be f3 dd 87 3c
       0.20158613 -0.12902059 -0.13449305 0.016585326
000240 37 f6 cf bd cc 02 06 be c2 30 6d 3e ec 2f ba 3e
       -0.10154384 -0.13087004 0.23163131 0.36364686
000250 fd ff 4e be 3e 90 71 3d e3 b0 e9 3e 06 bf 87 be
       -0.2021484 0.05897545 0.45642766 -0.26512927
000260 f2 f9 c9 be 34 b1 56 be 38 53 0d be bf ef b0 3e
       -0.39448506 -0.20966035 -0.13801277 0.34557912
000270 99 0d 18 3f bb 41 53 be 55 b3 15 bf cb f2 d8 3e
       0.5939575 -0.20630543 -0.58476764 0.42372736
000280 7c 54 c3 bd e5 8c 27 be ad 6a da 3e 43 77 76 be
       -0.095375985 -0.16362341 0.42659512 -0.24068932
000290 6c 33 f3 be 42 a9 9b be ce 28 3f be 85 fe 12 3e
       -0.4750017 -0.3040257 -0.1866791 0.14354904
0002a0 e5 8a 97 be 10 75 68 be 02 fe bc 3e 3e 51 f1 bd
       -0.29598156 -0.22700906 0.36912543 -0.11783074
0002b0 8c 45 e2 bd 43 f5 1e 3e 7b 82 2b 3e 38 8f 0d 3f
       -0.11048421 0.15523247 0.16748993 0.5529666
0002c0 48 fa b0 bd 7e 67 aa 3e 51 bd f1 3e 70 6a d6 3e
       -0.08641487 0.33282083 0.4721475 0.4187808
0002d0 d5 9c c0 3e d4 6b 06 3c 15 56 01 be 7a 02 bb 3d
       0.37619653 0.008204419 -0.12630494 0.09131332
0002e0 1f 30 4a be bc d0 0b 3f e8 05 e0 3e 2a a4 a1 3e
       -0.19744919 0.5461538 0.43754506 0.3157056
0002f0 cf 4d cf 3e 0a 27 b3 3e 60 1c 9b be 2c 51 b7 be
       0.4048905 0.34990722 -0.30295086 -0.35804117
000300 51 ab 07 3f a7 63 ef 3e 5d ff e1 3e 15 bc 5f 3e
       0.52995783 0.46755716 0.4414014 0.21849091
000310 bd 8c 04 3f ba e5 8c 3d 21 69 61 3d e7 da e1 bb
       0.5177725 0.06879754 0.0550319 -0.0068925503
000320 34 87 bc 3e 3d 42 9f 3d 38 23 92 be a8 1e 93 3e
       0.36821902 0.07776306 -0.28542495 0.28734326
000330 af 37 ed be b0 22 58 be 15 28 8d 3e b6 a1 14 bd
       -0.46331546 -0.21106982 0.27569643 -0.036287032
000340 fa ff ff 3e c9 5a 23 3f d1 60 b4 3e 96 5f a0 3e
       0.49999982 0.638104 0.35230115 0.31322926
000350 80 44 37 be 75 9f ce 3e 6d 91 ac bd 99 f8 98 3e
       -0.17897224 0.4035603 -0.08426175 0.29877165
000360 00 12 51 bd fd be 2c bd 60 81 a2 bd b0 6b 21 be
       -0.051042557 -0.042174328 -0.079348326 -0.15763736
000370 d3 dd ea 3e 68 3d ad 3e 26 3d ac 3e a6 62 41 3e
       0.45872363 0.33835912 0.33640403 0.18885288
000380 18 d8 7b 3e 82 19 94 3e 21 90 c0 3c 81 03 9e 3e
       0.24594152 0.2892571 0.023506226 0.30862048
000390 33 48 99 be 1e 3b 64 bd 36 8a b8 be 4b a3 a8 bd
       -0.29937896 -0.05572044 -0.36042947 -0.08234271
0003a0 8f ef 91 bc c7 c5 b2 be ed ed 75 3e 62 24 59 ba
       -0.017814426 -0.34916517 0.24016543 -0.00082833145
0003b0 1a f5 72 3e 6b c5 1a 3f 83 f0 9f bc 9c f2 da be
       0.23726311 0.60457486 -0.019523865 -0.4276322
0003c0 98 70 d5 3e 51 1d ae be 3d 23 38 3d 5c 71 bd 3e
       0.41687465 -0.34006742 0.04495548 0.3700055
0003d0 2e 83 97 3e a0 e6 b8 bd 7e 5d 0a 3e 8e dd 06 3f
       0.2959227 -0.09028363 0.13512227 0.52681816
0003e0 f1 4d 89 3e 2e 20 bc 3e 1d ab ef be 4d 83 de bc
       0.26817277 0.367433 -0.46810237 -0.027162218
0003f0 58 f3 f2 be c6 1d e8 be 89 d3 04 3f 21 e4 06 3e
       -0.47451282 -0.45335215 0.5188528 0.13172962

weight f4 [256, 256]
000000 1a ec 2c bd 80 f7 e4 3c eb 79 82 bd bd d2 23 bd
       -0.04221735 0.027950048 -0.0637091 -0.039995898
000010 e3 0a b9 bd 87 90 39 3e 7a 79 09 be 51 e1 d9 bd
       -0.090352796 0.18121539 -0.13425246 -0.10638679
000020 5d 5e 3b bd 4c 66 f9 bc 9a 2c d2 bc d8 f3 4e bc
       -0.04574429 -0.030444287 -0.025656033 -0.012631379
000030 63 dd 7a 3d b2 a1 2b 3d 35 33 4d 3e b8 7f ab 3d
       0.061246287 0.04190225 0.20039065 0.0837397
000040 36 a7 49 bc 6b 76 cb bc 4b a5 01 bd c8 d6 0a bd
       -0.012307933 -0.02483674 -0.031651776 -0.033896238
000050 b9 9a e5 bc d4 6a 0e be c5 07 24 3c 74 2b 40 3d
       -0.02802788 -0.13907939 0.010011618 0.04691644
000060 8b 3e 82 bd 6a b2 38 bd c7 09 8a 3d 9b 30 33 bd
       -0.063595854 -0.045092024 0.06740146 -0.043747526
000070 00 d7 4b ba 38 52 99 ba f5 38 d3 bb b8 af 2e bd
       -0.0007775873 -0.0011697477 -0.006445999 -0.042648047
000080 1a ce 65 3c 6b 67 5a bc 69 76 4d 3c 14 7e c8 3d
       0.014026189 -0.013330321 0.012540438 0.097896725
000090 76 f7 60 3d a4 1c 80 3c 75 f3 2e 3e 10 39 da 3b
       0.054923497 0.015638657 0.17085059 0.0066596344
0000a0 89 ef 27 3d d7 4b 7d 3d 64 33 9e bd fe f4 78 3d
       0.040999923 0.061839905 -0.07724646 0.060780518
0000b0 a7 e8 67 3c 67 fc 2b bd 5a 4b 9d 3d 5d 58 8c bc
       0.01415459 -0.041988757 0.07680388 -0.017131979
0000c0 d5 d3 62 3c d4 8f f8 b9 c0 28 ca bd 97 56 90 ba
       0.01384445 -0.00047409406 -0.09871054 -0.0011012134
0000d0 98 ef 8a bc 00 db 4e ba ed 45 36 bd 6b 70 26 3e
       -0.01695995 -0.000789091 -0.04450028 0.16253822
0000e0 16 08 92 bd 4d d5 9f bd 64 23 4c bd 35 bc 49 3d
       -0.071304485 -0.07804356 -0.04983844 0.049251754
0000f0 0c f8 27 bd 4f e7 1c bc 79 5f 0b bc 74 ba b0 bd
       -0.04100804 -0.009576633 -0.008506649 -0.08629313
000100 7e 63 43 3d a9 ce 8d 3a 6b b4 64 3d 08 8a 9d bc
       0.047702305 0.0010819036 0.055836122 -0.019230857
000110 ea a9 5d 3d 54 b2 da bd 42 52 95 3d 80 8c 9e 3a
       0.05411712 -0.10678545 0.0729108 0.0012096316
000120 46 ce 42 bd c0 d0 a1 3c 94 98 44 3d f6 fe 5f 3d
       -0.04756 0.01975286 0.047997072 0.05468651
000130 a1 d1 8b 3b 8e 3d 6e bd 81 be a5 bc 02 9a 5b bd
       0.004266933 -0.058164172 -0.02023244 -0.05361367
000140 10 64 39 3d 43 5d 23 bd ac be 12 3c 95 13 42 3d
       0.045261443 -0.039883863 0.0089565925 0.047381956
000150 e1 d0 46 3e 91 ba a7 bd c2 fa 93 3d b4 fa b8 bd
       0.19415618 -0.081898816 0.07225563 -0.09032193
000160 15 23 6a 3e 2d ec 75 bb d4 ac 13 3c 39 a7 3f 3c
       0.22864945 -0.0037524805 0.009013373 0.011697584
000170 0f 97 0a 3c 17 96 60 3b b9 e4 38 3b 76 a3 04 bd
       0.008458867 0.0034269148 0.0028212501 -0.03238245
000180 e0 27 b8 bc bc 72 5f bd b7 7f b2 bd d8 11 04 3d
       -0.022479951 -0.05455278 -0.08715766 0.03224358
000190 56 59 45 bd 96 0e ed bc 14 d0 86 3d a7 00 b0 3c
       -0.0481809 -0.02893762 0.065826565 0.021484686
0001a0 4e 1a 8b bc 64 38 b4 3c 2a 21 ae bd ce dd 0f bd
       -0.016980316 0.021999545 -0.08502419 -0.03512364
0001b0 a6 d5 67 3c 3f 67 78 3c d3 cc 06 3c d3 70 7e 3d
       0.014150059 0.015161335 0.008227545 0.062119316
0001c0 46 38 e0 3c fa 78 85 3d a2 b8 21 3d 3f aa 04 3d
       0.027370583 0.06517215 0.03948272 0.03238892
0001d0 e8 6c 42 bd 0b a8 62 3d 80 66 68 bb bc 13 a0 bc
       -0.047467142 0.05533604 -0.0035461485 -0.01954066
0001e0 28 2d a2 bc e7 4b d7 bc 2f 62 73 bc 30 41 fe 3b
       -0.019796923 -0.02628131 -0.014854952 0.007759236
0001f0 86 37 04 bb b4 b9 26 bd 01 4b 0a 3d d5 45 c9 3c
       -0.0020174696 -0.040704444 0.033762936 0.024569431
000200 33 92 98 3c 8e 80 23 bd e6 1d 47 bc 5b 0c b9 ba
       0.0186244 -0.03991752 -0.012153124 -0.0014118062
000210 84 e5 c4 bb 76 4a 0c 3e 3b f6 a3 bc f1 54 1b 3d
       -0.0060088057 0.1370028 -0.020014873 0.037922803
000220 10 2f b0 bc 10 02 0f 3d 74 e8 32 3d 97 e5 ae bc
       -0.021506816 0.034914076 0.043678716 -0.021349711
000230 52 85 08 bd 6c 1c aa 3c 16 38 65 3d bd df b7 3c
       -0.03333027 0.020765506 0.05596169 0.022445554
000240 93 c6 8c bc fb 26 01 be cd 40 3d bd ed 97 a7 3b
       -0.017184531 -0.12612526 -0.046204377 0.0051145465
000250 fa 3f 82 bd 11 90 54 bd 9e f4 fe 3d 0c 65 49 3d
       -0.06359859 -0.051895205 0.12449001 0.04916863
000260 e0 e9 34 bb a4 95 49 3d 02 60 2c 3d 27 aa 65 3d
       -0.002760522 0.049214974 0.042083748 0.056070473
000270 23 e6 9c bc d9 f0 b2 3c e0 76 19 bd 2b b5 3c bb
       -0.019152706 0.02184336 -0.037466884 -0.0028794508
000280 9d 52 33 bd e8 6e 39 3d 65 d9 91 bd 23 54 e4 3b
       -0.043779958 0.045271784 -0.07121543 0.0069680377
000290 44 32 cc 3a 5c 99 25 bc e4 bf 4f bd 94 b4 a8 3d
       0.0015578945 -0.0101073645 -0.05072011 0.082375675
0002a0 af 14 97 3c dc c7 19 bd c8 56 39 3d 9e ee d8 bd
       0.01844248 -0.037544116 0.045248777 -0.105923876
0002b0 32 e9 e4 3d dd c5 aa 3b 6d d3 bc 3d 00 7f 00 bd
       0.11177291 0.0052115754 0.09220014 -0.031371117
0002c0 82 38 6f 3d ca e9 15 bd 71 9d 82 3d b4 95 c2 bd
       0.0584035 -0.03659991 0.06377686 -0.0950121
0002d0 67 1b 17 3d f7 0b cd 3c e1 c3 0e 3d 86 fa a1 bd
       0.036891367 0.02503012 0.034854773 -0.07909112
0002e0 73 e4 b0 bc 16 57 a8 3d db 06 27 3d 8f 9f 66 3d
       -0.021593308 0.08219735 0.040778022 0.05630451
0002f0 4c 5e a5 bd 44 41 93 bc 16 80 46 bd 7a ef 54 3d
       -0.08074626 -0.017975457 -0.048461996 0.051986195
000300 1c 72 89 3d 57 05 b7 bc 89 e1 9c 3d 24 c1 d2 3d
       0.06711218 -0.022341413 0.07660205 0.10290745
000310 a9 59 73 3d 59 0a b5 bc 3c 65 c0 bd c5 22 be bc
       0.05941168 -0.02209966 -0.09394309 -0.023209939
000320 f1 77 88 3d 5d 5f 5c 3d 0a 99 19 3a 40 cf e8 3c
       0.06663502 0.053801883 0.00058592914 0.028419137
000330 95 20 3c be d8 cb 4f 3c 04 4b ac 3d 96 e8 05 be
       -0.18371804 0.0126828775 0.084127456 -0.13077006
000340 91 bd 14 3e 69 de bd 3c 1a dd e0 3d ce 8f 5d bd
       0.14525439 0.023177342 0.10979672 -0.05409222
000350 c8 00 2b 3c d0 d5 15 3e f4 7d 92 bc 24 dd 51 3d
       0.010437198 0.14632344 -0.017882325 0.051236287
000360 15 89 d6 3d 8c 9e db bc 80 55 13 3b 05 dd 5c 3d
       0.10475365 -0.026809 0.0022481382 0.05392172
000370 8f 3a f6 3d 25 b8 96 bb c4 06 9a 3c 99 aa a2 3d
       0.12022888 -0.0045995885 0.018802054 0.07942695
000380 63 ce 7c bd 06 7b ba 3d a7 db 1f bd b5 b4 2a bd
       -0.061720263 0.09105496 -0.039027836 -0.041676242
000390 50 59 22 bd 94 d4 99 3d 28 77 2f bd 6d fc 49 3c
       -0.039635956 0.07511249 -0.042838246 0.012328249
0003a0 29 26 0e be 77 99 6f 3d 2a 84 75 3d 48 ce 08 3d
       -0.13881744 0.058495965 0.059940495 0.03339985
0003b0 9c e6 02 3d 78 cc 28 3e 8a 87 32 3d f0 2e 70 3d
       0.031958207 0.16484249 0.04358629 0.058638513
0003c0 76 1e 45 3d e9 67 ca bd be 38 cc 3c 80 3e d3 bb
       0.048124753 -0.098831005 0.0249294 -0.0064466596
0003d0 3c c9 66 bd 27 2d 0c bb cd a4 fe bc b5 5d 48 3e
       -0.056344256 -0.0021389218 -0.031084443 0.19566996
0003e0 2d dc 8a bd d2 26 37 bd dc e2 71 bd 00 74 96 bb
       -0.067802764 -0.044714756 -0.05905424 -0.004591465
0003f0 c7 e2 97 bc e8 9f 1c 3d dd 96 54 3d 8e e5 9e bc
       -0.018540753 0.038238436 0.051901687 -0.01939657

bias f4 [256]
000000 5b e3 08 3e ba 53 6b bd c6 43 13 3d 0d fa e4 3d
       0.13367979 -0.057452895 0.035953306 0.11180506
000010 30 d9 d9 3c c1 87 82 3d 9f 52 a8 3c 3e 59 70 3d
       0.02659282 0.06373549 0.02054721 0.058678858
000020 d8 37 97 3b 7b 0a 17 bd d5 14 a1 3c 09 25 4a bd
       0.0046148114 -0.03687523 0.019663254 -0.049351726
000030 70 f9 82 3d 7e 48 43 ba 3a 96 6d bd b2 85 8f 3d
       0.06395233 -0.0007449462 -0.058004595 0.07007922
000040 e9 6f 51 bd 38 80 21 3c 00 9f 91 3c 50 d3 9e bc
       -0.051132116 0.00985723 0.017776012 -0.019387871
000050 b0 7d 00 bc 20 12 61 bc 42 d9 13 bd cc a3 70 3d
       -0.007842466 -0.0137372315 -0.036095865 0.05874996
000060 70 ef cb bc a0 bf de 3c 0f 87 2a 3c 1f 32 f2 3d
       -0.024894446 0.027190983 0.010408177 0.11825966
000070 94 db 58 bd a2 05 36 bd cb 5d 14 3d 05 a6 4d 3d
       -0.05294378 -0.044438966 0.03622226 0.050207157
000080 da 7d 82 3c 87 46 11 3e 9a 09 ad 3d c2 e9 51 bd
       0.015929151 0.1418706 0.08449097 -0.05124832
000090 5e 49 47 bd b4 a5 8b bb d4 4f 6b bd 04 64 9e 3d
       -0.048653953 -0.0042616967 -0.057449177 0.0773392
0000a0 80 36 63 bc ea 10 61 bd db 6f 24 3d 2c 2b 6a bd
       -0.013867974 -0.05494777 0.040145736 -0.05717008
0000b0 7e a5 53 bd 5e d2 89 3d 8d 13 9b bc 0a 79 27 3c
       -0.051671498 0.067295775 -0.018930221 0.010221729
0000c0 9e 63 66 bd 08 31 88 3c 20 2b d5 bc 68 2a 72 3d
       -0.056247346 0.016624942 -0.02602154 0.059122473
0000d0 a6 e4 04 bc 3d e0 28 bc af 98 13 bd 31 8a ab 3c
       -0.008111155 -0.010307369 -0.036034282 0.020939918
0000e0 60 62 8f 3c 38 bc 42 3d c6 d6 c6 3d 4e 66 25 bd
       0.017502964 0.04754278 0.097089335 -0.04038077
0000f0 08 a6 17 bd 4d 5e c3 bd 4a f9 df bc f2 3a 31 3d
       -0.037023574 -0.09539471 -0.02734055 0.043269105
000100 10 e4 e9 3d ca 81 56 3c 94 58 03 3d 70 8d 89 3d
       0.114204526 0.013092468 0.032066897 0.0671643
000110 b1 ab 2a bd 40 f8 eb bb fb 6c 0f 3d c1 19 3d bd
       -0.041667644 -0.0072012246 0.03501604 -0.04616714
000120 e9 eb 11 bc 4d fe bf 3d 2f 47 47 bd 42 b6 2b 3d
       -0.008906343 0.09374676 -0.04865187 0.04192186
000130 eb f9 e7 3d d0 0b dd 3b 83 83 5f 3d 58 d7 d3 3c
       0.11326965 0.006745793 0.05456878 0.02585952
000140 4c 32 97 bc 98 3a b5 3d 2f 10 45 bc 32 ae 15 3d
       -0.0184566 0.088490665 -0.012027784 0.03654308
000150 b9 90 68 3c 49 f2 a5 3b aa e2 79 3d 6e 68 0d 3e
       0.014194661 0.005064283 0.06100718 0.13809368
000160 a1 41 20 3d 12 4f 42 3d ac 50 0a 3d b4 06 11 bd
       0.03912509 0.04743869 0.03376834 -0.035406783
000170 80 40 1a 3d 96 03 99 3b 16 a0 61 3d ab d3 e1 3d
       0.03765917 0.004669617 0.05508431 0.110267006
000180 68 d4 61 bc 28 98 7f 3c 7c 5a b3 3d 66 5d 32 bd
       -0.013783552 0.015600242 0.08757493 -0.043546103
000190 30 e2 de bc 46 3b 60 bc c4 82 ca 3c 20 f2 1d bd
       -0.027207464 -0.013686007 0.024720557 -0.038560987
0001a0 21 4e 4d bd 1a 10 aa 3d ab c4 21 bd 89 a4 35 bd
       -0.050123338 0.083038524 -0.039494198 -0.044346366
0001b0 df 22 19 bc 54 15 b1 bc 2c b3 0d bd b7 5d 03 3d
       -0.009346693 -0.021616615 -0.0345947 0.032071795
0001c0 45 1d b1 bc 6c 50 2c 3e 41 1c 60 bd fe b9 03 3e
       -0.021620402 0.16827554 -0.054714445 0.12863919
0001d0 b9 c3 4e bd 3b 15 09 3e 71 8e af bc a0 8c 78 bd
       -0.050479624 0.13387005 -0.021430226 -0.060680985
0001e0 f8 da 0b 3d 8f 51 2a bc 95 51 f4 3d 98 bb 52 3d
       0.03414437 -0.010395422 0.11929623 0.051448435
0001f0 a2 b5 92 3d 16 c4 0f 3e 00 7a 7f ba e3 7f f4 bc
       0.0716355 0.14039645 -0.00097456574 -0.029846137
000200 4f 42 9d 3d f6 d1 1f bd a9 87 d5 3b eb b6 08 bd
       0.07678663 -0.039018594 0.006516416 -0.03337757
000210 de 2e 06 bd 08 98 37 3c bb 73 94 bc 63 73 2c bd
       -0.03275954 0.011205681 -0.01812159 -0.04210223
000220 38 60 9c 3c b4 32 c1 3d 94 49 f5 3d d4 c5 76 bd
       0.01908885 0.09433499 0.119769245 -0.060247257
000230 db 93 0a 3d 75 b4 b1 bd 90 bd 10 3d 2a c7 61 3a
       0.033832412 -0.086769976 0.03533703 0.00086127466
000240 12 a2 7e 3d 18 2e 47 3b 86 91 f5 bc 24 92 80 3c
       0.06216628 0.0030392464 -0.029976618 0.015694685
000250 54 2e 6b 3d 3d b6 2a bc 3e e9 85 3d d4 21 34 3c
       0.05741723 -0.010419426 0.06538628 0.010994393
000260 bc bb 1d bd a9 b3 42 3c 89 14 ae 3a 9c dc b1 bc
       -0.038509116 0.011883655 0.0013281266 -0.02171164
000270 71 1c fd bc b0 1e c7 3c 97 ab 13 bd ea 1a 2a bd
       -0.030897351 0.024306625 -0.036052313 -0.041529574
000280 5d f7 ff 3a 5d 1a 3d bd e8 04 a5 bd e4 c1 88 3d
       0.0019528676 -0.04616772 -0.080575764 0.06677607
000290 da 39 0e 3e 3f 90 10 3d 34 64 22 3d 96 4c 23 3d
       0.13889256 0.035293814 0.039646342 0.03986796
0002a0 f0 79 ee 3b 91 fc 07 bd b7 8c 07 bc cd 27 8e bc
       0.0072777197 -0.03319985 -0.008273295 -0.017352963
0002b0 9d d3 2d bc e8 93 e5 bc 74 19 3f 3d 3d fb 1d 3d
       -0.010609535 -0.028024629 0.046655133 0.038569678
0002c0 7a 95 58 ba 64 71 d9 bb 5c 22 99 bc c0 d8 a0 bb
       -0.000826202 -0.0066358317 -0.018693142 -0.004908651
0002d0 6a 0d 1b bd 06 63 ef 3c 4d 9f be bc e4 f1 c9 3c
       -0.03785459 0.029222023 -0.02326932 0.024651475
0002e0 1e ce 84 bd 63 f9 ea 3c d0 c3 ea 3c c0 cf 9f 3b
       -0.06484626 0.02868337 0.028657824 0.0048770607
0002f0 6a 3b 7d 3d 6b f2 de bb 4d 17 09 3d 4e 81 91 3d
       0.06182424 -0.006803801 0.033469487 0.07104741
000300 3c 88 42 3d d0 38 e9 bc c5 f1 0f bc ae 8d 1e bc
       0.047493204 -0.028469473 -0.00878567 -0.009677334
000310 e4 e2 ba 3c 8a 4c 5a bd ba cc e3 3c e1 e7 5f 3c
       0.022813268 -0.05329565 0.027807582 0.013666124
000320 c1 52 bc 3d 69 00 a5 3d 4a 60 29 bd b7 4c 0c 3d
       0.091954716 0.08056719 -0.041351594 0.03425285
000330 3e 17 86 3d 28 76 1d 3d ce 1d e8 3d 04 b9 14 3d
       0.06547402 0.03844276 0.1133381 0.036309257
000340 7f ac 72 bd 42 fc 24 3c 59 37 0f bc 36 65 8d 3c
       -0.059246536 0.010069909 -0.008741223 0.017260175
000350 f3 3b 98 3d 19 f3 21 bd db db be 3d 57 55 d5 3c
       0.074333094 -0.039538477 0.09319278 0.02604167
000360 21 39 a0 bb 4a 49 27 3d 7e 80 56 3d 04 2b e5 3c
       -0.004889623 0.04084138 0.052368633 0.027974613
000370 2b bb 8b 3d e8 00 02 bc b5 0c 59 3d 7f 48 8e 3d
       0.06822809 -0.007934786 0.052990634 0.06947421
000380 25 e4 0f 3e f3 67 1a bc b8 37 fa 3d 52 5b 77 3d
       0.14051874 -0.0094241975 0.12217659 0.060389824
000390 30 02 9c 3d a3 3c 36 3d cc 65 2b bd be 67 28 bd
       0.07617605 0.04449142 -0.041845128 -0.04111456
0003a0 38 bf 82 3d f7 5b 46 bb 0a 37 3d bd 2b b9 e6 3d
       0.06384128 -0.0030267218 -0.046195067 0.11265787
0003b0 60 7d 04 3e 77 e0 7a 3d c1 54 87 3d bc 3b 80 39
       0.12938452 0.061249223 0.066079624 0.00024458568
0003c0 1d c9 12 3e 28 98 bc bd e2 01 63 3d 65 60 de 3d
       0.14334531 -0.09208709 0.055421717 0.108582295
0003d0 cf b6 6f 3d 7f 05 11 bd 60 65 8a 3c a0 d7 40 3d
       0.05852395 -0.035405632 0.016894042 0.047080636
0003e0 88 8d 11 3e cb 7f 84 3c fd 11 da 3d f6 75 c9 bd
       0.14214146 0.016174218 0.10647962 -0.098369524
0003f0 a4 cc 81 bc 1e 16 7b 3d 90 6b 03 3e d3 e2 27 3d
       -0.01584465 0.06130039 0.12834 0.0409878

weight f4 [33, 256]
000000 d5 5c 54 3d 04 60 46 3d 52 a4 40 3d 4b 89 3e bc
       0.051846344 0.04843141 0.047031708 -0.011629413
000010 70 85 7d bd 95 50 25 bd 46 4a 67 3d 42 ec f2 3c
       -0.061894834 -0.040360052 0.056467317 0.029653672
000020 a6 27 6c 3d dc 1c a1 3c 37 52 8c bd 50 8c 91 3c
       0.057655 0.019667082 -0.06851619 0.017767102
000030 1b 72 c1 bc 7b 15 8e bd e0 46 2c 3d 39 43 76 bc
       -0.02361398 -0.06937691 0.04205978 -0.015030676
000040 61 e1 08 bd 92 29 60 bd f4 f5 d1 3c e8 ed 1b 3c
       -0.033418063 -0.054727145 0.025629975 0.0095171705
000050 e8 a1 2b bd 60 1f 7a 3b 42 e4 1c 3d e2 b5 e6 bc
       -0.041902453 0.0038165674 0.03830362 -0.0281629
000060 42 77 80 3d 10 b1 15 bc a1 b6 c8 bc b5 7d d1 3d
       0.062727466 -0.009136453 -0.024501147 0.10229055
000070 bb 45 fc 3c 4e 43 d5 3c c6 e5 dd 3c 80 a6 92 3c
       0.030794969 0.02603307 0.027087104 0.017901659
000080 93 06 6b bc 1d af 9a 3d 6c b6 cd 3d a8 77 05 bc
       -0.014344829 0.075529315 0.1004456 -0.008146204
000090 ed 76 36 3d 48 56 66 3d 18 9e c0 3b 1a 7d b5 bc
       0.04454701 0.056234628 0.0058782212 -0.02215438
0000a0 64 08 af bc 1c a1 38 bd da f7 16 3c 76 c3 1f bd
       -0.021366306 -0.04507552 0.009214366 -0.039004765
0000b0 00 94 82 bb 68 80 d9 3d 92 84 a0 3b 48 9e ec bc
       -0.003984928 0.10620195 0.004898616 -0.028884068
0000c0 f2 c8 6a bd 70 f6 76 3c 18 42 00 3d a4 b2 bd bc
       -0.057320543 0.015073404 0.031313032 -0.023156472
0000d0 c0 97 c6 3c 78 b1 64 bd 12 b3 2f 3d a9 58 1d bc
       0.024242282 -0.05583331 0.042895384 -0.009603658
0000e0 41 30 4d 3d da c1 7a bd 19 2b 61 3c 8b 2d 13 3d
       0.050094847 -0.061220028 0.013743185 0.035932105
0000f0 56 0c 17 bd 21 f0 44 bd a0 1d 1e bc b4 db 0d 3d
       -0.036877 -0.048080567 -0.009650618 0.034633353
000100 3c 85 89 3d 97 de 4a 3d 60 a0 6f 3b c0 a1 71 3d
       0.067148656 0.049528684 0.0036564097 0.058992147
000110 4c 04 75 bd fe 41 1a bd 7c df a7 bc f8 dc a8 bc
       -0.05981855 -0.03766059 -0.020492308 -0.020613179
000120 2b 05 24 bc 33 2d 90 bc ec a1 50 bd 42 8d 16 3d
       -0.010010998 -0.017599678 -0.05093567 0.036755808
000130 1e f9 80 3d 1c 5f 50 3d 00 ea 00 3b 3c 0b fe bc
       0.06297515 0.050871953 0.0019670725 -0.031011216
000140 80 28 65 3b ee 74 49 3d 16 bb 4b bd b5 b3 11 bd
       0.0034966767 0.04918378 -0.049738966 -0.035571773
000150 03 73 4a bd 52 05 13 3d 80 be 6a 3b f0 f5 96 3d
       -0.04942609 0.035893746 0.0035819113 0.073711276
000160 f2 bf 8a bc 2f 34 f1 bc 20 10 45 bd da 51 2a 3d
       -0.01693723 -0.029443828 -0.04811108 0.041581966
000170 bd 5a 6a 3c c0 47 5f 3c 14 0f 1f 3d e1 cf 88 3d
       0.01430386 0.013627946 0.03883274 0.06680275
000180 d0 df 35 3d 38 1f 2f 3c 6a 53 8c 3c 74 37 a0 bc
       0.044402897 0.0106885955 0.017129619 -0.019557692
000190 24 7e ec bc bc 5a 7e 3c 0d ba 0b bd c0 37 6e bd
       -0.028868742 0.015524562 -0.03411298 -0.058158636
0001a0 e0 8c 9b bc fb 57 20 bd cb 94 81 bc e8 7d 1b bd
       -0.018988073 -0.039146405 -0.01581802 -0.03796187
0001b0 0a 64 78 3d 8a dd 7f 3d e0 0b cb bb 95 21 84 bd
       0.06064228 0.062467135 -0.006196484 -0.06451718
0001c0 bd 2d b6 bb 41 89 ea 3d 0c 1f 98 3c 32 e2 d5 3d
       -0.0055596516 0.1145196 0.018569492 0.10443534
0001d0 36 3c 60 3d fc 0c 84 3d de 52 b7 bc 35 5d 2d 3d
       0.05474492 0.06447789 -0.022378381 0.042325217
0001e0 c0 6a 10 bc 92 74 c0 3c f6 21 dc 3d ac 26 4f 3d
       -0.008814514 0.023493085 0.10748665 0.05057399
0001f0 6d bf 8a 3d d9 6a 2e 3b 3c b4 1b 3d bc c4 d5 bc
       0.06774793 0.002661398 0.03801368 -0.026094787
000200 df a1 7b bc 96 31 20 bd 14 39 c5 bc 64 0a a9 3c
       -0.015358417 -0.03910979 -0.024075069 0.020634837
000210 14 8b 70 3d aa 76 06 3d 8c da 3c 3d d7 fd da bb
       0.058726385 0.03282801 0.04610686 -0.006683092
000220 a0 7b 4e 3d 20 81 95 3c 94 d2 6a 3b c2 5c 56 bd
       0.050410867 0.018250048 0.003583108 -0.052334554
000230 ce a6 06 bd bb 34 ee bc 6a 9a bf 3d c7 cc 06 bd
       -0.03287392 -0.029077878 0.09355624 -0.032910135
000240 0c aa a7 3c d3 9b 4e bd 86 6d 0a 3d df fc b5 3d
       0.020466827 -0.050441574 0.033795856 0.08886122
000250 ec 2a 31 bd 5a 95 36 3c 99 f8 98 3d 67 0e 18 3d
       -0.043253824 0.011144007 0.07469291 0.03712311
000260 4d d5 4b 3d 83 c9 30 3d 29 a4 64 3d 86 a7 12 3d
       0.049763966 0.043160927 0.055820618 0.035804294
000270 ca bb 38 3d 36 16 6c 3d 84 09 25 bd 78 1d 6a 3c
       0.045100965 0.05763837 -0.040292278 0.014289252
000280 48 76 57 3c 50 21 9c 3b 23 30 36 bd 03 c4 10 3d
       0.013150759 0.0047647133 -0.0444795 0.03534318
000290 5a fc 4d 3d db 06 12 3d 22 03 27 bd 15 12 a2 3d
       0.05028949 0.03565107 -0.040774472 0.07913605
0002a0 80 fc ab 3c 84 41 61 bc 2b b9 09 bd bb 3f ad 3c
       0.020994425 -0.01374853 -0.033623856 0.021148553
0002b0 70 ca 16 3d c6 e1 7b 3d b2 71 98 3d b8 20 32 3d
       0.036814153 0.06149461 0.07443561 0.043488234
0002c0 61 6f 6d 3d 41 af e5 3c 29 05 49 3c 7e f2 57 3d
       0.057967547 0.02803767 0.012269297 0.052721493
0002d0 02 5f 8a bd 43 49 6f 3d 87 f6 5b 3d ca a4 7b 3d
       -0.067564026 0.058419477 0.053701904 0.061436452
0002e0 9b dd 0c 3d da 52 6b bc eb 2b 02 3d 40 2c e7 3c
       0.034391027 -0.014363015 0.031780165 0.028219342
0002f0 e1 91 90 3d 18 3e 78 3d eb 1d 9a bb dc e3 93 bc
       0.07059074 0.060606092 -0.0047032735 -0.018052988
000300 f7 7b bf 3d b6 a1 61 3d e2 71 c4 3c 0f fd 3a bd
       0.09349816 0.05508586 0.023980085 -0.04565149
000310 08 61 17 3c 34 d8 f6 bc 41 c7 d2 bc 6a 12 58 3d
       0.009239443 -0.03013239 -0.025729777 0.052751936
000320 94 74 08 3d aa 1f 00 3e 14 34 32 bd 60 29 6d 3d
       0.033314303 0.12512079 -0.043506697 0.057900786
000330 bf 2e af 3d ae bf c6 3c 3d f9 f0 bb 52 7d 78 bb
       0.08553838 0.024261322 -0.0073539303 -0.0037916494
000340 1f f5 a4 3b 18 0d 06 3b 7f 7c ba 3c 73 5f d3 3c
       0.0050341035 0.0020454582 0.022764442 0.02580235
000350 ab 26 0e bc 5a 31 4e 3d ec 37 a3 bb cd a7 e6 3a
       -0.008676211 0.050340034 -0.0049810316 0.0017597616
000360 87 8b 10 bd 6e 35 09 bd 54 85 17 3d f8 3d 95 3c
       -0.035289314 -0.03349822 0.036992386 0.018218026
000370 58 b6 a6 3d 00 d6 7a 39 4b 9d 80 3d dc 6e 0e bb
       0.08140248 0.00023921579 0.06280001 -0.0021733558
000380 10 27 b7 bc 7c 34 24 3d f9 40 6d bc 4c 00 5d 3d
       -0.022357494 0.040089116 -0.014480823 0.05395536
000390 ce 00 ce bc a4 81 e4 3c 50 2f 9b 3c 32 a6 3f bd
       -0.025146868 0.027893849 0.018943459 -0.046789356
0003a0 08 5d 97 bc 42 d5 08 bd dc 85 1a 3d 93 cc fa 3c
       -0.018476978 -0.033406503 0.037725314 0.030615127
0003b0 72 c9 19 3d bd 6c 8f 3c fd ce 1b 3c e7 f6 67 bd
       0.03754563 0.017507905 0.009509799 -0.05663195
0003c0 5f ff 88 bc a5 a2 27 bd 2c 38 ac 3c 05 1c ca 3d
       -0.016723333 -0.040926594 0.021022879 0.098686256
0003d0 aa ac b5 3d 04 af 0d 3d ea fb 21 3d 5d 71 ad 3c
       0.08870824 0.034590736 0.039546885 0.02117222
0003e0 44 4e 79 3d 4e 01 13 bd 5d b3 03 3e 2c 70 62 bd
       0.060865656 -0.035889916 0.1286139 -0.055282757
0003f0 28 0a d9 bc 10 bd 66 3d 60 57 91 3c 78 49 6a 3d
       -0.0264941 0.056332648 0.017741859 0.05719897

bias f4 [33]
000000 42 73 8f 3d c2 69 ca bc 93 53 c3 3d 34 26 4e 3d
       0.070044056 -0.024708632 0.09537425 0.050329402
000010 f6 49 0c bc b6 b3 b2 3d e2 ed a5 3d 40 35 95 3d
       -0.008562556 0.087256834 0.08102013 0.07285547
000020 32 de b7 3d 1b 9c 41 3d a6 90 2e 3c 69 a3 4b 3d
       0.08977927 0.047268014 0.010654604 0.049716387
000030 bf b1 ae 3d 35 a5 bc 3d 66 5b 7f 3d 73 9e b9 3d
       0.08529996 0.09211198 0.062343024 0.09063425
000040 6c 0e a9 bc 55 6b a1 3d df 37 5b 3d 1d cd 18 3d
       -0.02063676 0.078818 0.05352008 0.037304986
000050 5b 50 26 3c 5e 3b 87 3d ea a4 c4 3d f3 a9 b2 3d
       0.010150994 0.0660312 0.09601767 0.087238215
000060 a3 ba 39 3d b2 58 13 bc 9f be ad 3d e9 02 7b bc
       0.045344006 -0.008993315 0.08483624 -0.015320518
000070 c2 69 a0 3b 85 b7 0c 3d b4 11 89 3d f0 f3 d0 3d
       0.00489542 0.034354705 0.0669283 0.102027774
000080 01 bc ff 3b
       0.0078043942
