experiments/diff_context_data/sunny_models/dqn_target_proposed_origin.pth (torch, 306182 bytes, 6 tensors)

weight f4 [256, 4]
000000 50 9c 40 be f8 61 6b be a6 c4 c6 be c4 30 cc be
       -0.18809628 -0.22986591 -0.38821906 -0.39880955
000010 84 e9 9f be 74 bf f6 be dc 60 2c be c4 ac d4 be
       -0.31232846 -0.48192942 -0.16833824 -0.4153806
000020 cd 26 d4 3d 70 65 0e bf cc 95 76 be fe b0 8d 3d
       0.10358963 -0.5562353 -0.2408058 0.06918524
000030 e1 af c4 3e 2c 96 09 3e 5f 8b 16 3c 3a b5 f9 3e
       0.38415435 0.13436192 0.009188502 0.48771077
000040 c5 fb 02 3e 1e 86 28 bd ea 1c d7 be 5a 9f 90 3e
       0.12791355 -0.04114353 -0.42014247 0.28246576
000050 cd 50 20 be a2 01 f8 bc 50 e1 3e 3d 1a b8 17 3f
       -0.15655823 -0.030274216 0.046601593 0.5926529
000060 80 9d d7 bd 0f 09 c5 3e a6 cc 0f be 07 90 2d bf
       -0.105280876 0.38483474 -0.14042911 -0.67797893
000070 52 41 bb be 17 48 ee 3e cf e7 80 be ba 37 12 bf
       -0.36573273 0.46539375 -0.25176856 -0.5711628
000080 77 fa 13 be 62 88 34 be a2 7b e2 3e 02 4f 6d 3e
       -0.14451014 -0.17630151 0.4423495 0.2317467
000090 80 52 c4 bd c0 d5 2d bd 10 85 c6 bd a4 0e f2 be
       -0.09586048 -0.042440176 -0.096933484 -0.47276795
0000a0 d1 35 e1 3e 47 8e e8 bd 8a 97 9f be f5 28 e9 be
       0.4398637 -0.11355262 -0.31170303 -0.4553906
0000b0 c3 f0 e6 be a0 f1 1f 3d 50 10 79 3d 40 45 90 3c
       -0.45105562 0.03904879 0.060806572 0.017611146
0000c0 0c 10 83 3e 02 59 d1 3d bc bd de bc e2 f1 8c be
       0.2559818 0.10222055 -0.027190082 -0.27528292
0000d0 10 05 d2 bd 00 11 57 be 94 23 26 be e4 be bb be
       -0.10254872 -0.21002579 -0.1622451 -0.36669075
0000e0 03 59 8c bb 12 50 e7 3e 0c 17 8d bd 20 3c 74 3e
       -0.004283072 0.45178276 -0.068891615 0.23851061
0000f0 66 e7 8b 3d 9d 61 f5 3e 55 bd f5 bd 8d 1a bc 3e
       0.06831245 0.47926036 -0.11999003 0.36739007
000100 4e 86 20 3e d4 9f 3d 3e dc 36 b0 be 06 11 02 3f
       0.15676233 0.18518001 -0.34416854 0.50807226
000110 4b 58 41 3e 23 31 f1 3d 26 6f 88 be 6b 16 58 bc
       0.18881337 0.1177695 -0.266473 -0.013188939
000120 7b 30 23 3e 3b 67 1c be a3 ae 64 be b8 ef c0 be
       0.15936463 -0.15273754 -0.22332244 -0.3768289
000130 70 3f 4f bd 38 27 31 be 66 97 a9 be 68 21 96 3d
       -0.050597608 -0.17300117 -0.3312332 0.073305905
000140 5e 0c 35 be 54 c9 69 be 01 0c 17 3e 38 9f d9 3e
       -0.17680499 -0.22830707 0.14750673 0.42504287
000150 03 02 44 bd 43 2d c0 3e 60 c3 89 be 96 37 12 3e
       -0.04785348 0.37534532 -0.26906872 0.14279017
000160 02 8a f7 3e 21 0c b9 be ad ed 90 be b9 ca 68 be
       0.4834748 -0.36142066 -0.28306332 -0.22733583
000170 c6 b8 12 3e 5d 6a 96 3e 77 e4 f0 be 53 8d b4 be
       0.14328298 0.29378024 -0.47049305 -0.35264072
000180 aa 84 91 be 8a e4 0c 3f 06 48 a0 be a2 3b 61 be
       -0.28421527 0.5503622 -0.3130495 -0.21995404
000190 e0 4a 6a 3e c1 cf 25 bd 49 36 b2 be 3a 47 a0 3e
       0.22880125 -0.040481333 -0.3480704 0.31304342
0001a0 c6 9c d4 3d 3e bc d3 3e 0b 74 aa 3d 1a 4b 91 3e
       0.10381465 0.41354555 0.08322915 0.2837761
0001b0 dd b4 77 3e db aa 96 be e4 09 82 be 4a e4 a3 be
       0.24190088 -0.29427227 -0.2539817 -0.32010108
0001c0 80 5d cc bc a3 b7 ef be 90 71 0b 3d 7e c1 cc 3e
       -0.024946928 -0.4681979 0.03404385 0.39991373
0001d0 02 c5 21 3e 8c 02 7b 3d 15 dc c0 3e 6b 0d c9 be
       0.15797809 0.061281726 0.3766791 -0.3926805
0001e0 e0 d4 07 3d e6 8b a6 be bc fd 41 be 32 81 ba be
       0.033161998 -0.3252861 -0.18944448 -0.36426693
0001f0 8c 75 fa be 6c 42 b0 be ac 2c ff be 30 d1 90 bd
       -0.48917806 -0.34425676 -0.4983877 -0.07071149
000200 56 86 33 3e 1c 81 c8 be ce d3 64 be f4 c0 12 be
       0.17531714 -0.39161003 -0.22346422 -0.14331418
000210 90 23 81 be 14 73 8f 3e f1 d8 b3 be c3 b8 54 3d
       -0.25222445 0.28017485 -0.3512645 0.051934015
000220 36 45 b9 3e 51 3c f2 3e cb fa 88 3e 28 e8 91 3d
       0.36185616 0.47311643 0.2675384 0.071243584
000230 a7 cb ea bb db 1f 1f 3f e4 e7 a0 3d 66 58 3b 3d
       -0.0071653905 0.6215798 0.078567296 0.0457386
000240 53 36 89 3d 90 d2 ee 3e 18 f4 55 be 12 85 ea 3e
       0.06699815 0.4664502 -0.20893896 0.4580465
000250 ec 6f c6 be 80 35 c6 bc f0 1c e7 be 00 55 22 bb
       -0.38757265 -0.024195433 -0.45139265 -0.0024769902
000260 4f 3a 20 be 43 81 26 3f 2c 86 41 3e 58 06 62 3c
       -0.15647243 0.6504099 0.18898839 0.013795458
000270 c0 6f 62 bd 00 ae d0 bc 00 de 61 bd ca 5f e4 be
       -0.055282354 -0.025473595 -0.055143356 -0.4460433
000280 c3 53 de 3e c0 b1 05 3f eb a5 49 bd 94 0d bc be
       0.4342328 0.5222435 -0.049230497 -0.3672911
000290 23 8d 7e 3e 30 5d a4 bd 3d ac 36 3e 74 c5 87 be
       0.24858527 -0.080255866 0.17839141 -0.26517832
0002a0 1b 09 07 3e 58 8a b9 be 1f ab a5 be 4a 2e 99 be
       0.13187067 -0.3623836 -0.32357118 -0.29918128
0002b0 e8 56 31 be 62 e0 89 be 0e 7d d7 be 28 24 bd 3d
       -0.17318308 -0.26929003 -0.42087597 0.09235412
0002c0 7b 82 07 bf 38 1e 4a bd 71 9c bc 3e 4c 71 cb 3e
       -0.5293347 -0.049345225 0.36838105 0.39734876
0002d0 e2 03 e5 3e a2 97 f7 3d ad de 22 be 46 d2 b5 3d
       0.44729525 0.120894685 -0.15905257 0.08877997
0002e0 71 5e 12 3d 5b af 65 3e 10 6c f2 3d 17 23 1b 3e
       0.035734598 0.22430174 0.118370175 0.15150104
0002f0 d1 28 4c 3e ad 8b 69 3d 77 d2 8e 3e 1e 7e 9e 3e
       0.19937445 0.05701797 0.27894947 0.30955595
000300 c9 58 8e 3e 23 15 a0 be bb b4 fd 3e e9 f2 ad be
       0.27802113 -0.31266126 0.4955195 -0.33974388
000310 3e 44 e9 3e fe ee 06 3f c4 c0 7b be d2 14 1d 3d
       0.45559877 0.52708423 -0.24585253 0.038349934
000320 2a e8 81 be 89 73 f5 3e 4b e7 2a be 6b b9 8c be
       -0.2537244 0.4793971 -0.16689794 -0.27485213
000330 6f 45 c7 3e 1f df 33 bd ba 7e c8 3e a4 03 cb 3e
       0.3892016 -0.043913957 0.39159185 0.39651215
000340 60 eb af 3e 7c 45 2d be 8d 79 9b be f2 75 34 be
       0.34359264 -0.16921037 -0.30366173 -0.17623118
000350 b4 89 7c be f8 26 1a 3e 62 67 b7 be 4b a5 e1 3d
       -0.24661905 0.15053928 -0.35821062 0.11017855
000360 4c 7b c1 3e 4f 29 fe 3e 5b 13 bb be ac 9e f2 be
       0.3778938 0.4964089 -0.36538205 -0.47386682
000370 aa b9 20 be 9d 15 8a 3e 4c e9 1b 3d bf 96 0d bf
       -0.15695825 0.26969615 0.038064286 -0.55308145
000380 0a 0d c6 3d 7a d8 83 be ae dc 41 3e ef 50 e2 bb
       0.09670456 -0.25751096 0.18931839 -0.0069066207
000390 b3 5e 66 3d 6a d5 e0 be 01 95 8e bc 9b 00 de 3e
       0.056242656 -0.43912822 -0.017405035 0.43359837
0003a0 a0 47 2b bd 2e 9f 87 be 56 09 cc be aa 3d e0 be
       -0.041816354 -0.26488632 -0.39850873 -0.43797046
0003b0 f7 59 2f 3e 7c 15 b4 3e fa 3f 00 3f 4d be b3 be
       0.17124163 0.3517264 0.5009762 -0.35106125
0003c0 33 af da 3e fd 74 9e bd 8d 3b f9 3e f1 98 88 bd
       0.4271179 -0.077371575 0.48678246 -0.06669796
0003d0 33 98 f5 3e 5a 8b 07 bf 09 4c d1 3e de 31 00 3e
       0.4796768 -0.5294701 0.40878323 0.12519023
0003e0 24 53 d3 3e 7e 89 aa 3e 4f 96 fe be 36 dd d0 3e
       0.4127437 0.33308023 -0.4972405 0.4079377
0003f0 32 f1 d8 be 23 7d c9 3e cd 4d 84 be 45 13 d5 bd
       -0.42371517 0.39353284 -0.25840607 -0.10404066

bias f4 [256]
000000 68 08 19 3e be d0 a6 be ba 12 dc 3e cc 61 18 3e
       0.14944613 -0.32581133 0.42983037 0.14881057
000010 b2 4b eb be 4b 7d df 3e 18 65 e4 3d a0 08 ee 3e
       -0.45956188 0.43650278 0.111520946 0.46490955
000020 48 8e e2 be 41 74 cf be 74 09 ea be a0 c9 83 bc
       -0.44249177 -0.40518382 -0.45710337 -0.016087353
000030 12 61 af 3e 8e 5c f6 3e 26 b4 3c 3e 47 78 25 3f
       0.34253746 0.4811749 0.18428096 0.64636654
000040 33 df 03 bf e8 a3 05 bf 87 6d d4 be 20 c1 1a 3e
       -0.5151245 -0.52203226 -0.41489813 0.15112734
000050 c9 d5 2d 3c d9 4c 84 be 60 91 45 be 64 f0 d6 3e
       0.010610052 -0.2583988 -0.19293737 0.41980278
000060 7c 86 3e be 26 8f 41 be 2b d9 bc 3e ff 8a e1 be
       -0.18605989 -0.18902263 0.36884436 -0.44051358
000070 00 ce 2e bb bf a5 db be 0a 92 85 3e 92 0c bb 3e
       -0.0026673079 -0.42899892 0.2608798 0.36533028
000080 86 fd 8f 3e 28 fd f5 3e a2 1f 1a be d1 48 b7 3e
       0.2812311 0.48044705 -0.1505113 0.35797742
000090 fd 35 8e 3d 5a 78 c2 3e dc 17 2d 3f 7a 14 9c be
       0.06943891 0.37982446 0.6761453 -0.30484372
0000a0 ab b7 8d 3d be fd d9 be a6 3e c8 3d 78 65 af bd
       0.069197975 -0.42576402 0.09777574 -0.085642755
0000b0 f9 27 c2 3e 24 17 ec bd 30 5a ea 3e 65 49 04 3f
       0.37921122 -0.11527851 0.45771933 0.5167449
0000c0 41 6d 9d bd 51 6e 37 3e 41 9f 31 bd 47 ca eb 3e
       -0.07686854 0.17913176 -0.043364767 0.46052763
0000d0 60 e6 06 3f 70 01 5a be c4 a1 9b be 69 d0 b2 3d
       0.52695274 -0.21289611 -0.30396855 0.08731157
0000e0 81 4e 95 be c4 29 a0 3e 00 c5 dd 3b e9 08 48 bd
       -0.29161456 0.31281865 0.006767869 -0.048836622
0000f0 92 42 ab bd 7b b6 00 3e ba 47 e7 be 13 16 c6 3e
       -0.08362307 0.12569611 -0.4517191 0.38688716
000100 7b 0e 02 3e 9e 2f e7 ba 60 e6 43 be 91 f6 42 3e
       0.12700836 -0.0017638092 -0.1913085 0.1903937
000110 36 81 b0 3e c6 bf 89 be a0 de bf 3e 3e 1b ff be
       0.3447358 -0.26904124 0.37474537 -0.49825472
000120 81 d6 82 be b0 9d 09 3e 05 af f0 3d ae 5f 01 3f
       -0.25554278 0.1343906 0.11752132 0.5053662
000130 20 08 97 3e 17 a1 7f bd ef b4 bf 3e 34 0a eb be
       0.29498386 -0.062409487 0.3744273 -0.45906222
000140 5c e9 69 be 74 d6 d3 be 79 6c fe 3d 1e 76 14 3e
       -0.22842926 -0.41374552 0.12423033 0.14498183
000150 8b e6 32 3f ed e1 40 3d 49 88 c6 3e 92 f6 a7 3e
       0.6988303 0.04709046 0.38775852 0.32805306
000160 b8 22 bb 3d d3 99 8b 3e cc e8 7c 3e a9 a6 ba 3d
       0.091374815 0.27265796 0.2469818 0.09113819
000170 a5 33 a3 3d f9 34 d8 be f8 56 c6 be d4 56 13 be
       0.07968835 -0.42227915 -0.38738227 -0.14388591
000180 55 54 f0 be ff f4 f9 3e 0a b5 a3 3e 19 c8 1c 3f
       -0.4693934 0.4881973 0.3197406 0.61242825
000190 a9 39 21 be 79 2b a4 3e c7 7d 32 bd 1b 98 03 bf
       -0.15744652 0.32064417 -0.043576982 -0.5140397
0001a0 84 82 48 be 27 f3 df be 47 0c df 3c f8 98 dd 3e
       -0.19581038 -0.43740198 0.027227534 0.43280768
0001b0 7f b1 e7 be 8e eb ed be e9 37 53 3e a4 16 da 3d
       -0.45252606 -0.46468776 0.20626797 0.106488496
0001c0 3b ee 03 bf e9 51 82 3e ca 9c ba be 4c bd a2 3d
       -0.51535386 0.25453117 -0.36447746 0.07946262
0001d0 5f 61 b2 bd d3 a3 b5 be 3e 9e e4 3e ba e0 d2 3d
       -0.08709978 -0.3547655 0.4465198 0.102967694
0001e0 99 d3 4e be 63 c1 29 be fe 96 b3 bd 8c 43 c6 be
       -0.20197906 -0.16577677 -0.08769034 -0.3872341
0001f0 cc 81 14 3e b0 73 28 3d fa 18 ce be 6a 43 f0 3e
       0.14502639 0.041125953 -0.4025343 0.46926433
000200 f2 69 fd 3e 9d 14 f0 3e d8 ae a6 be 29 1d 02 bf
       0.49494892 0.46890727 -0.3255527 -0.50825745
000210 36 a2 87 3d 31 f5 00 3f 13 e2 af 3e 2b 1e 51 be
       0.06622736 0.5037413 0.34352168 -0.20421664
000220 24 4a 4d be ef 10 a4 be 90 81 b1 be ea 2d eb 3e
       -0.20047814 -0.3204417 -0.3466916 0.45933467
000230 98 6c 4e 3e 1c aa bc bd 8c b8 09 be 96 02 51 3c
       0.20158613 -0.09212133 -0.13449305 0.012756964
000240 b4 e7 2e bd 08 c0 05 be 67 a6 a5 3e b9 71 b2 3e
       -0.042701438 -0.13061535 0.32353517 0.34852389
000250 72 c3 5a be ad 3c b8 3d 21 1b e6 3e 06 bf 87 be
       -0.21363619 0.08995948 0.44942573 -0.26512927
000260 f2 f9 c9 be 34 b1 56 be be 8f 59 be 88 b0 ba 3e
       -0.39448506 -0.20966035 -0.2124624 0.36462808
000270 01 d0 13 3f 2e 57 4f be 1c 34 08 bf e0 5d b4 3e
       0.57739264 -0.202481 -0.5320451 0.3522787
000280 94 fe 27 bd 1d 77 23 be 63 f1 ff 3e d6 a7 70 be
       -0.04101427 -0.15963407 0.4998885 -0.23501524
000290 c0 e7 ff be ee a3 95 be 80 85 3d be 1d 70 19 3e
       -0.499815 -0.2922663 -0.18507957 0.14984174
0002a0 93 d2 87 be 10 75 68 be 02 fe bc 3e f6 60 b5 bd
       -0.26527843 -0.22700906 0.36912543 -0.088563845
0002b0 a9 d5 cc bd 32 3d 0f 3e b0 08 73 3e 18 a0 12 3f
       -0.1000169 0.13988188 0.23733783 0.57275534
0002c0 48 fa b0 bd bb 6e a5 3e f5 15 f5 3e 9e 04 ab 3e
       -0.08641487 0.32311043 0.47868314 0.3340196
0002d0 87 ce bc 3e ce 44 a0 bb 46 f3 db bd 9a 0e 06 3e
       0.36876318 -0.0048910147 -0.1073976 0.13091508
0002e0 fd 65 3a be 93 82 0f 3f c6 07 f5 3e 52 b9 ab 3e
       -0.18202968 0.56058615 0.47857493 0.33539826
0002f0 70 88 d3 3e 0a 27 b3 3e 60 1c 9b be 4e 7b b9 be
       0.4131503 0.34990722 -0.30295086 -0.36226887
000300 bd aa f8 3e c2 05 fa 3e 84 07 b0 3e 2a ef 88 3e
       0.48567763 0.48832518 0.34380734 0.26744968
000310 ef 96 0b 3f eb 88 a1 3d f9 26 a1 3d 30 7d 60 bd
       0.5452718 0.07887443 0.078687616 -0.054806888
000320 2f d8 c1 3e da 02 a9 3d 39 37 97 be a8 1e 93 3e
       0.37860247 0.08252497 -0.2953432 0.28734326
000330 80 a8 e0 be b0 22 58 be f8 a8 89 3e 3d f8 49 3d
       -0.43878555 -0.21106982 0.26886725 0.049309004
000340 c1 32 07 3f 30 0f 20 3f 31 98 b0 3e bd 7f a2 3e
       0.5281182 0.62523174 0.34491113 0.31738082
000350 80 44 37 be 35 cc 89 3e 15 5b 80 bd d3 3d a0 3e
       -0.17897224 0.2691361 -0.062673725 0.31297168
000360 67 ef e5 bc 5c 30 d4 3b 60 81 a2 bd b4 4f 2b be
       -0.028068257 0.0064754914 -0.079348326 -0.16729623
000370 ee df ee 3e 8b c0 a2 3e 8d 30 b8 3e 79 38 23 3e
       0.4665522 0.31787524 0.3597454 0.15939511
000380 aa 8c 94 3e 57 f6 a1 3e 28 35 a5 3d d1 05 a5 3e
       0.29013568 0.31633255 0.080667794 0.32231
000390 51 4e a4 be 70 fa 56 bd 36 8a b8 be 6b 55 9d bd
       -0.32091 -0.05248493 -0.36042947 -0.07682308
0003a0 6a 15 23 3d 41 c6 b2 be 51 9b 85 3e dd 1e 1a 3b
       0.039815344 -0.3491688 0.2609506 0.002351693
0003b0 b6 ad c5 3e a7 01 ff 3e 8a 75 49 3d 9c f2 da be
       0.38609093 0.49805948 0.04918436 -0.4276322
0003c0 b2 51 d9 3e 97 3a 9c be b3 d1 42 3d 5c 71 bd 3e
       0.4244514 -0.3051345 0.047563266 0.3700055
0003d0 2e 83 97 3e 60 cd 88 bd 0a db cb 3d f2 eb 0e 3f
       0.2959227 -0.06679797 0.09953888 0.55828774
0003e0 3e e8 7a 3e 2e 20 bc 3e 96 49 df be f4 8f 9a bc
       0.24502656 0.367433 -0.4361083 -0.01886747
0003f0 46 d5 fb be 8c 20 a2 be ab 9a 2e 3f 25 43 8d 3e
       -0.49186152 -0.31665456 0.68204755 0.2759029

weight f4 [256, 256]
000000 1a ec 2c bd 80 f7 e4 3c 45 0e 2f bd 31 12 2c bd
       -0.04221735 0.027950048 -0.042738218 -0.042009536
000010 49 15 90 bd db 9e 14 3e d4 ca 03 be 17 e2 01 be
       -0.0703531 0.14513724 -0.12870342 -0.12683903
000020 c9 12 b6 bd 4c 66 f9 bc e5 74 cb bc d8 f3 4e bc
       -0.08890302 -0.030444287 -0.024836013 -0.012631379
000030 6a 62 7d 3d b2 a1 2b 3d c2 c1 7a 3e d2 c7 bc 3d
       0.061861433 0.04190225 0.24487975 0.092178
000040 02 a4 fe bb e1 af d0 bc ee da 24 bd c8 d6 0a bd
       -0.007771016 -0.02547449 -0.04024785 -0.033896238
000050 81 67 4d bc 3b b5 16 be c3 9c 1b 3c bc 34 7c 3d
       -0.012536884 -0.14717571 0.009497824 0.06157373
000060 5d 4c 3c bd 1f 63 46 bd 2c 67 8b 3d 74 be 44 bd
       -0.045971263 -0.048434373 0.06806788 -0.048033193
000070 00 d7 4b ba ea c9 f7 b9 30 16 93 bb b8 af 2e bd
       -0.0007775873 -0.0004726195 -0.004488729 -0.042648047
000080 c7 02 14 3c 7d f5 ed bd 15 db 38 3c 3d 85 d9 3d
       0.009033865 -0.11619089 0.011282702 0.10621116
000090 3e c2 89 3d a4 1c 80 3c c8 f1 33 3e 10 39 da 3b
       0.06726502 0.015638657 0.17572701 0.0066596344
0000a0 26 7c 2b 3d 26 83 76 3d 71 75 a8 bd fe f4 78 3d
       0.041866444 0.060183667 -0.08225525 0.060780518
0000b0 4d 0e 19 bc c8 48 2c bd e6 65 9d 3d aa 31 a2 bc
       -0.0093417885 -0.042061597 0.07685451 -0.019799072
0000c0 6a 6b 39 3c 3d cb ea 39 37 0b b9 bd 01 1e 8b bb
       0.011317113 0.00044783382 -0.09035342 -0.00424552
0000d0 9b 43 74 bc 00 db 4e ba 67 42 23 bd d1 13 41 3d
       -0.0149086965 -0.000789091 -0.039858248 0.04713804
0000e0 98 ce 90 bd 37 a7 b7 bd 64 23 4c bd 49 15 42 3d
       -0.07070655 -0.089674406 -0.04983844 0.04738358
0000f0 34 1f 32 bd 13 8c 53 bc 8a 7b 0e bc 4a 53 fa bd
       -0.04348679 -0.012911814 -0.008696446 -0.122229174
000100 0e 17 41 3d c8 84 a8 bd 7a 4b 69 3d f2 b2 35 3c
       0.047141127 -0.08228451 0.056956746 0.011090027
000110 ea a9 5d 3d fb 30 e5 bd 6b 85 92 3d 80 8c 9e 3a
       0.05411712 -0.11190983 0.07154354 0.0012096316
000120 f1 f2 f1 3a c0 d0 a1 3c 5c 2b 53 3d 51 40 65 3d
       0.0018459243 0.01975286 0.051555023 0.05596954
000130 38 9e f5 3c b7 fb 87 bd 24 4a 9e bc 02 9a 5b bd
       0.029982671 -0.06639808 -0.019322462 -0.05361367
000140 02 70 30 3d 27 34 e9 bc d6 c3 a2 bc 74 89 33 3d
       0.04307557 -0.028467251 -0.019868772 0.043832257
000150 74 c9 c0 3e 29 f4 b6 bd c1 e1 c3 3d 23 60 05 be
       0.37653697 -0.089332886 0.095645435 -0.13024954
000160 fa 22 7b 3d 18 0d 3e bb 2b 0a 94 3b 71 53 4a 3c
       0.061312653 -0.0028999504 0.0045178137 0.012348996
000170 f4 6b f3 3b 46 04 10 3d 3e e0 16 3b 76 a3 04 bd
       0.0074286405 0.035160325 0.0023021842 -0.03238245
000180 69 67 ce bc 78 5b 57 bd 1b d0 83 bd 5c b9 0d 3d
       -0.025195794 -0.052577466 -0.06436177 0.0346006
000190 8d a2 d3 bb 09 39 f8 bc bc 45 83 3d 38 73 a6 3c
       -0.0064585865 -0.030300634 0.06409785 0.020318612
0001a0 31 30 8b bc a6 b6 8d 3c 40 3e 04 be 1c 0e 11 bd
       -0.016990753 0.017299008 -0.12914371 -0.035413846
0001b0 55 38 5a 3c 64 de 5e 3c 2c b8 ac 3b 73 8f 6e 3d
       0.013319095 0.013602827 0.0052709784 0.058242273
0001c0 10 eb d2 3c 0a bc 82 3d a2 b8 21 3d 27 ad 0e 3d
       0.025746852 0.06383522 0.03948272 0.0348331
0001d0 cb a9 3c bd bd fa 5d 3d 80 66 68 bb f3 15 b6 bc
       -0.046060365 0.0541942 -0.0035461485 -0.022227263
0001e0 6b 6c b0 bc b2 7f f8 bc d0 5f 27 3b 30 41 fe 3b
       -0.021536073 -0.030334327 0.0025539286 0.007759236
0001f0 b7 94 4b ba b4 b9 26 bd ab 49 04 3d e2 61 d1 3c
       -0.00077659957 -0.040704444 0.032296818 0.02555937
000200 f1 e1 9c 3c 89 09 27 bd b1 8f 1d bc 52 28 26 bb
       0.019150706 -0.040780578 -0.009616778 -0.0025353623
000210 37 fa 31 bc 5e c9 11 3e 2d cb 9c bc 26 e2 1b 3d
       -0.0108628785 0.14236972 -0.01913985 0.03805747
000220 10 2f b0 bc d4 1d 09 3d 8e b6 28 3d 16 28 be bc
       -0.021506816 0.033475712 0.041189723 -0.023212474
000230 52 85 08 bd ae a1 75 3c 23 38 65 3d ed 98 aa 3c
       -0.03333027 0.014992161 0.05596174 0.020824874
000240 37 63 9a bc 58 6d 12 be a9 e9 f6 bb 84 68 b0 3b
       -0.018846137 -0.14299524 -0.0075351787 0.005383553
000250 79 69 84 bd 0e b4 1a bd b0 a4 e6 3d 0c 65 49 3d
       -0.0646543 -0.03776937 0.112618804 0.04916863
000260 e0 e9 34 bb a4 95 49 3d 23 52 28 3d fe cc 71 3d
       -0.002760522 0.049214974 0.041093957 0.059033386
000270 7d 46 ad bc cf bf 2d 3d 33 fe 10 bd 72 51 01 be
       -0.021151775 0.04241925 -0.035398673 -0.12628725
000280 e6 da 6b bb d2 f6 32 3d f4 ae 2e 3c 3d 0b 05 bd
       -0.0035988628 0.043692417 0.010661829 -0.03248142
000290 3f 51 78 3a 34 25 27 bc f6 6b 8a bd 3a e3 9f 3d
       0.0009472556 -0.010201741 -0.06758873 0.07807012
0002a0 f0 de 90 3c dc c7 19 bd c8 56 39 3d 92 f5 13 be
       0.01768443 -0.037544116 0.045248777 -0.14449146
0002b0 3f 00 f9 3d 56 d6 90 3d 38 79 20 3e 9e 8d 00 bd
       0.1215825 0.07072131 0.15671241 -0.031385057
0002c0 82 38 6f 3d be 3c 1d bd cc c1 8d 3d 70 46 4e 3d
       0.0584035 -0.038388006 0.069217294 0.050360143
0002d0 8e 97 13 3d ab e2 f6 3c 47 d5 0a 3d ad 47 bd bd
       0.036033206 0.03013738 0.033894803 -0.09242187
0002e0 aa 00 b0 bc 88 64 a7 3d 09 17 2a 3d 46 b1 63 3d
       -0.021484692 0.08173472 0.041525874 0.055588983
0002f0 bf 2f 03 be 44 41 93 bc 16 80 46 bd bb b8 57 3d
       -0.12811182 -0.017975457 -0.048461996 0.052666407
000300 b2 23 e7 3d 86 c4 a9 bc 58 3b 81 bd c9 4e ce 3d
       0.11286105 -0.020723592 -0.06310147 0.10073621
000310 59 12 f5 3d 52 6c ad bc f1 b8 d4 bd d5 89 b6 bb
       0.1196639 -0.021169815 -0.10386837 -0.00557063
000320 cb 3f 7e 3d e2 35 5d 3d 7f 67 44 bb 40 cf e8 3c
       0.062072556 0.054006465 -0.0029968915 0.028419137
000330 81 3c 28 be d8 cb 4f 3c b3 fb 98 3d 62 02 d5 3d
       -0.1642933 0.0126828775 0.07469883 0.10400845
000340 9b 27 fa 3d e4 bb 57 3d 31 ef 26 3e ca 58 87 bc
       0.122145854 0.05266942 0.16302182 -0.01652183
000350 c8 00 2b 3c 30 36 3e 3d 96 e3 a6 bc dd 38 62 3d
       0.010437198 0.046438396 -0.020372193 0.05523001
000360 db 73 05 3e 7e a5 cf bc 80 55 13 3b 4f b4 58 3d
       0.13032477 -0.025347468 0.0022481382 0.05290633
000370 8a 38 98 3e 60 8e ea 3c 3d cd 41 3d fb e5 a1 3d
       0.29730636 0.028632343 0.04731487 0.079051934
000380 ae dc 2b bd a6 0e d0 3d d2 16 85 bc c1 bb 78 bc
       -0.041958503 0.10159044 -0.016246233 -0.015181483
000390 e2 fd 90 bd e7 b6 9e 3d 2f 77 2f bd 94 fb 4d 3c
       -0.07079674 0.077497296 -0.04283827 0.012572188
0003a0 07 63 09 be 5d f5 6c 3d 1f bb 6d 3d 04 45 06 3d
       -0.13416682 0.057851184 0.05803978 0.032780662
0003b0 44 80 83 3d 26 28 e6 3d 31 ce 2e 3d f0 2e 70 3d
       0.06420949 0.112381265 0.04267711 0.058638513
0003c0 6d 4b 46 3d 2e 6c ce bd 64 24 e8 3c 80 3e d3 bb
       0.048411775 -0.100792274 0.028337665 -0.0064466596
0003d0 3c c9 66 bd 83 0f 5c bb ea 77 32 bd 3a 43 9c 3e
       -0.056344256 -0.0033578582 -0.04357139 0.3052004
0003e0 f6 80 a0 bd d2 26 37 bd 8d 9e f8 bd cf ea bd bb
       -0.07837097 -0.044714756 -0.12139616 -0.0057958136
0003f0 8b fe 05 bd 35 f0 26 3d 9f 4f b7 3d f8 17 11 3d
       -0.032713454 0.040756423 0.089507334 0.03542325

bias f4 [256]
000000 25 55 11 3e ba 53 6b bd e5 df 13 3d 5e 99 f0 3d
       0.14192636 -0.057452895 0.036102194 0.117480025
000010 32 d9 d9 3c c8 99 33 bc fd 34 07 3d 26 cd 3f 3d
       0.026592825 -0.010961957 0.033009518 0.046826504
000020 fe 92 c1 3c ee 6a 17 bd 74 f9 8f 3c d1 92 46 bd
       0.023629662 -0.03696721 0.017575003 -0.04847986
000030 17 ef 99 3d b6 0d 40 bb ac 36 75 bd 5e 43 b2 3d
       0.07516306 -0.0029305047 -0.059866592 0.087042555
000040 fa 67 53 bd 38 80 21 3c 00 9f 91 3c 50 d3 9e bc
       -0.05161283 0.00985723 0.017776012 -0.019387871
000050 b0 7d 00 bc 20 12 61 bc 42 d9 13 bd b8 1f 75 3d
       -0.007842466 -0.0137372315 -0.036095865 0.059844702
000060 72 c5 ae bc bb e8 0c 3e 4a 5d 6d 3c f8 6f cb 3d
       -0.021334384 0.13760655 0.014487574 0.09933466
000070 5c 37 7e bd d8 37 38 3c 76 ff 10 3d 38 0e 4a 3d
       -0.062064514 0.011243783 0.035399877 0.049329966
000080 2a 90 e4 3c 10 cc 18 3e ed 03 d8 3d c2 e9 51 bd
       0.027900774 0.14921594 0.10547624 -0.05124832
000090 3f 3c d9 3c c0 0a de ba 87 36 86 bd f2 f2 a7 3d
       0.026517985 -0.001694046 -0.06553369 0.08200635
0000a0 fc 96 79 bc ea 10 61 bd 56 46 86 3d 2c 2b 6a bd
       -0.015233751 -0.05494777 0.06556384 -0.05717008
0000b0 7e a5 53 bd 4d 40 55 3d a7 17 8b bc 86 21 2d 3c
       -0.051671498 0.052063275 -0.016979052 0.010567075
0000c0 9e 63 66 bd 08 31 88 3c 20 2b d5 bc c9 55 77 3d
       -0.056247346 0.016624942 -0.02602154 0.060384545
0000d0 2c dc e6 3c e1 24 4a bc 1e 94 13 bd 65 92 5b 3c
       0.028181158 -0.012337894 -0.036029927 0.013401602
0000e0 51 8b 32 3d 38 bc 42 3d bb c2 dc 3d 13 f3 69 bd
       0.043589894 0.04754278 0.107793294 -0.05711658
0000f0 08 a6 17 bd 9c fa cb bc 93 57 ec bc 98 dd 42 3d
       -0.037023574 -0.024899773 -0.028850352 0.04757461
000100 a1 a3 ea 3d 9c 6e f3 3b 94 58 03 3d 80 9d 2b 3d
       0.11456991 0.007428957 0.032066897 0.04189825
000110 07 ca 2c bd 43 f8 eb bb 20 11 1a 3d e3 10 60 3d
       -0.042184856 -0.007201226 0.037613988 0.054703604
000120 51 95 64 3b 29 5b d3 3d 6d ec 5e bd 62 e7 81 3d
       0.0034879039 0.10320122 -0.054424692 0.06342961
000130 ce fb 07 3e d0 0b dd 3b d9 b2 5f 3d 58 d7 d3 3c
       0.1327965 0.006745793 0.05461392 0.02585952
000140 4c 32 97 bc 6c a3 be 3d 5b 0a 08 bd 13 87 2d 3d
       -0.0184566 0.09308514 -0.033213 0.042365145
000150 d4 7e 0c 3c e6 2b c5 3d aa e2 79 3d e4 b4 15 3e
       0.00857516 0.096275136 0.06100718 0.14619786
000160 e8 f2 c6 3c b8 fd 95 3d ac 50 0a 3d b4 06 11 bd
       0.024285749 0.07323784 0.03376834 -0.035406783
000170 8c d5 07 3e d0 4c a1 3d 16 a0 61 3d 36 60 e6 3d
       0.13265055 0.07875979 0.05508431 0.112488195
000180 68 d4 61 bc 28 98 7f 3c 9e ab b4 3d 66 5d 32 bd
       -0.013783552 0.015600242 0.08821796 -0.043546103
000190 30 e2 de bc c3 20 02 bd e5 b3 aa 3c af 60 20 bd
       -0.027207464 -0.031769525 0.020837734 -0.039154705
0001a0 9f 2d 2a bd b2 f2 c0 3d ef ab 9a bd 48 cc 2b bd
       -0.041547414 0.094212905 -0.07552325 -0.041942865
0001b0 87 3d 20 bc 54 15 b1 bc 2c b3 0d bd f4 95 eb 3c
       -0.009780294 -0.021616615 -0.0345947 0.028758027
0001c0 f3 0d c8 3c 1f 5a 3e 3d 6b 32 e5 bc 94 be 02 3e
       0.024420714 0.046472665 -0.027978143 0.12768012
0001d0 11 18 4f bd d4 a4 1f 3e a7 90 d7 bc c8 3c b6 bd
       -0.05056006 0.1559022 -0.026314093 -0.08898312
0001e0 f8 da 0b 3d c5 65 b8 3b 55 e5 db 3d 98 bb 52 3d
       0.03414437 0.0056273662 0.10737101 0.051448435
0001f0 98 ce a4 3d 5d a5 20 3e 04 7a 7f ba e4 4e f5 bc
       0.08047217 0.15688081 -0.000974566 -0.029944845
000200 b4 bd c8 3d f6 d1 1f bd fd 38 11 3c 95 0d 09 bd
       0.09801808 -0.039018594 0.008863685 -0.03346022
000210 de 2e 06 bd 08 98 37 3c 35 50 2c 3c 5c 46 20 3d
       -0.03275954 0.011205681 0.01051717 0.0391296
000220 38 60 9c 3c ee 98 cd 3d 34 18 f9 3d 15 2b 82 bd
       0.01908885 0.10038935 0.121628195 -0.063558735
000230 6e ad 39 3d 9c 67 8b bd b2 3c d8 bb 98 39 34 bc
       0.04533141 -0.06806871 -0.0065990323 -0.01100006
000240 25 02 26 3d 0e 46 a3 3c 53 5d ea bc b1 5f 8d bd
       0.04052939 0.019930866 -0.028608954 -0.06903017
000250 54 2e 6b 3d 60 91 a7 3b 37 8c 86 3d 6a 03 4d 3c
       0.05741723 0.0051137656 0.065697126 0.012513021
000260 9e b5 1c bd 22 17 e8 3c 31 da 8d bc 9c dc b1 bc
       -0.03825914 0.028331343 -0.017315956 -0.02171164
000270 4a a4 0e bd a2 22 3a 3e cc 36 09 bd ea 1a 2a bd
       -0.034824647 0.18177274 -0.033499524 -0.041529574
000280 46 b6 98 3c a3 28 fd bc 6c ba 95 bd 7c 3c 1d 3d
       0.018641602 -0.030903166 -0.07310948 0.03838776
000290 26 73 16 3e cf 4c 0f 3d 34 64 22 3d 7f 46 40 3d
       0.14692363 0.03498536 0.039646342 0.04694223
0002a0 34 bb 78 bb a5 3a 08 bd 32 58 68 bd aa 32 ea ba
       -0.0037953379 -0.033259053 -0.056724735 -0.0017867882
0002b0 17 c5 2b bc e8 93 e5 bc 9b 51 4c 3d 89 7a 4d 3d
       -0.010484002 -0.028024629 0.049882513 0.050165687
0002c0 7f 6a 98 3b 27 0e 03 bd f1 d0 2d 3c c0 d8 a0 bb
       0.004651367 -0.03199592 0.010608898 -0.004908651
0002d0 ba b5 5e bc 9c 05 1f 3d 18 2d cf bc d2 d7 27 3e
       -0.013593132 0.03882371 -0.025290057 0.16390923
0002e0 79 3b a0 bd 50 2e 08 bd b7 b2 27 3d c0 cf 9f 3b
       -0.078238435 -0.033247292 0.04094192 0.0048770607
0002f0 b6 33 18 bd a0 f5 8a bb ca 30 2a 3d 80 71 9c 3d
       -0.03715869 -0.0042407066 0.041550435 0.07638836
000300 f0 53 38 bd b5 18 b0 bc 3a 2c 8f 3c d8 d7 b2 3c
       -0.045001924 -0.021496156 0.017477144 0.021831438
000310 e4 e2 ba 3c 8a 4c 5a bd 91 6e cc 3c 0a 2a 71 3c
       0.022813268 -0.05329565 0.024955066 0.014719496
000320 37 74 d6 3d df b7 a9 3d 4a 60 29 bd 9b 92 f4 3a
       0.10471385 0.08287024 -0.041351594 0.0018659414
000330 b1 be 85 3d cd 40 27 3d a6 9c ee 3d 63 c0 fa 3c
       0.06530512 0.040833283 0.11650972 0.030609315
000340 3a f6 6e bd cc 2b b6 3c 0d 1c b7 3d b1 27 c6 3d
       -0.05834029 0.02223768 0.08940897 0.09675539
000350 74 9e 75 3d 7f 24 23 bd 88 47 f0 3d 6c 93 ec 3c
       0.059965566 -0.039829727 0.117323935 0.02887889
000360 61 86 2b ba 4a 49 27 3d 29 ba 5d 3d 04 2b e5 3c
       -0.00065431563 0.04084138 0.054132614 0.027974613
000370 e8 69 9a 3c 6d b6 00 bc ee 0e 44 3d 2d 36 8c bc
       0.018849328 -0.007855994 0.0478658 -0.017115677
000380 52 15 23 3e 38 8f 08 bc 5d fe f5 3d 52 5b 77 3d
       0.15926102 -0.008334927 0.120114066 0.060389824
000390 51 34 a2 3d 52 2f 3d 3d e8 7d 34 bd be 67 28 bd
       0.07920135 0.046187706 -0.044065386 -0.04111456
0003a0 35 a7 87 3d 57 27 25 ba 0a 37 3d bd 6b df ee 3d
       0.06623689 -0.00063001126 -0.046195067 0.11663707
0003b0 5b 39 0c 3e 1b bb fd 3d 92 c0 60 3d 29 06 49 b9
       0.13693754 0.12389203 0.05487115 -0.00019171149
0003c0 0e fb 13 3e 3d 5e bf bd 2a 9e 6d 3d db 54 50 3e
       0.14451239 -0.093441464 0.058012165 0.2034487
0003d0 9d 19 84 bd 46 2f c6 bc 6c 5b 04 3d 1a a1 e3 3b
       -0.06450198 -0.024192464 0.03231375 0.006946695
0003e0 ae 59 18 3e 8c a1 84 3c af 6d 22 bd ce 5b 19 bd
       0.1487796 0.016190313 -0.039655384 -0.037441067
0003f0 b8 30 c2 bc 84 f5 7c 3d 16 77 ee 3d 80 6c 32 3d
       -0.023704872 0.06175758 0.116438076 0.043560505

weight f4 [33, 256]
000000 b9 72 6c 3d 09 60 46 3d 52 a4 40 3d 8b c3 5f bc
       0.057726596 0.04843143 0.047031708 -0.013657461
000010 70 85 7d bd c2 67 74 bd 06 b8 7f 3d bd fe 41 3d
       -0.061894834 -0.059669264 0.062431358 0.047362078
000020 b2 2f db 3c dc 1c a1 3c 91 a5 5f bd 7e 5f 95 3c
       0.026756141 0.019667082 -0.054601256 0.01823401
000030 36 3a b0 bc 67 8a a1 bd e0 46 2c 3d 53 fb 95 bb
       -0.021512132 -0.07887726 0.04205978 -0.0045770793
000040 15 7e 09 bd 9b 29 60 bd f4 f5 d1 3c e8 ed 1b 3c
       -0.033567507 -0.054727178 0.025629975 0.0095171705
000050 ef a1 2b bd 60 1f 7a 3b 42 e4 1c 3d 86 f7 ab bc
       -0.04190248 0.0038165674 0.03830362 -0.020992052
000060 78 55 9d 3d d7 fd a7 3c 58 8d c6 bc 13 db bb 3d
       0.076823175 0.020506782 -0.02423732 0.091726445
000070 2c 54 a3 3c 9a a7 ed 3d de ee 17 3d 80 a6 92 3c
       0.019937597 0.11604233 0.037093036 0.017901659
000080 29 a0 d9 bc 1b 48 86 3d 60 48 cf 3d a8 77 05 bc
       -0.026565628 0.06556722 0.10121226 -0.008146204
000090 d9 80 f5 3d 48 56 66 3d d2 17 bc bb e4 f6 85 bc
       0.11987466 0.056234628 -0.0057401443 -0.016353078
0000a0 64 08 af bc 1c a1 38 bd a3 ca 20 3d 76 c3 1f bd
       -0.021366306 -0.04507552 0.03925575 -0.039004765
0000b0 00 94 82 bb 2d e8 39 3e 50 42 3d bc 48 9e ec bc
       -0.003984928 0.18154974 -0.011551455 -0.028884068
0000c0 f2 c8 6a bd 70 f6 76 3c 18 42 00 3d 41 b1 73 3b
       -0.057320543 0.015073404 0.031313032 0.003718451
0000d0 c5 5b 8a 3d 78 b1 64 bd 12 b3 2f 3d 41 f2 a1 3c
       0.06755785 -0.05583331 0.042895384 0.019768836
0000e0 56 d1 5c 3d da c1 7a bd 15 f7 94 3c 8f 77 a4 3c
       0.053910576 -0.061220028 0.018184224 0.020076541
0000f0 56 0c 17 bd bc 5e 07 3d a0 1d 1e bc 5b 81 61 3d
       -0.036877 0.03304933 -0.009650618 0.055055004
000100 38 7e e0 3d 4e b0 9d 3d 60 a0 6f 3b 77 1c e5 3d
       0.10961574 0.07699643 0.0036564097 0.1118707
000110 94 c6 7f bd fe 41 1a bd 7c df a7 bc 71 6f 53 3c
       -0.06244524 -0.03766059 -0.020492308 0.012904988
000120 85 98 cb bc 8d fe 88 bc ce b2 6c bd ee 79 7a 3d
       -0.024853 -0.016722942 -0.05778771 0.061151437
000130 dd bf 76 3d 1c 5f 50 3d 00 ea 00 3b 3c 0b fe bc
       0.06024157 0.050871953 0.0019670725 -0.031011216
000140 83 28 65 3b cc 3b 55 3d f4 4e 49 bd 6b 29 3e bd
       0.0034966774 0.05205898 -0.04914756 -0.046426218
000150 80 e9 49 bd c0 26 8c 3d 80 be 6a 3b 4b 58 a0 3d
       -0.04929495 0.068433285 0.0035819113 0.078293405
000160 9f 65 21 3d e6 6d 9d ba 20 10 45 bd da 51 2a 3d
       0.039403554 -0.0012010902 -0.04811108 0.041581966
000170 27 b0 50 3d 9e 6d 1c 3d 14 0f 1f 3d 50 25 3e 3d
       0.050949242 0.038190477 0.03883274 0.046422303
000180 d0 df 35 3d 38 1f 2f 3c cc 48 88 3c 74 37 a0 bc
       0.044402897 0.0106885955 0.016636275 -0.019557692
000190 24 7e ec bc 07 15 a0 3c ce ca 9c bc c0 37 6e bd
       -0.028868742 0.019541277 -0.019139674 -0.058158636
0001a0 fc 28 05 3d 2a 5f c6 bc e7 13 e9 3c e8 7d 1b bd
       0.03250979 -0.0242153 0.028451873 -0.03796187
0001b0 02 0b 6c 3d 8a dd 7f 3d e0 0b cb bb fc d4 9a bd
       0.057627685 0.062467135 -0.006196484 -0.07560155
0001c0 6f 32 68 3d 31 ae 43 3d 48 61 de 3c 8b 80 b2 3d
       0.056688722 0.047773544 0.027145997 0.08715924
0001d0 36 3c 60 3d 66 9b 8c 3d 27 34 f8 bc 59 c5 5e 3d
       0.05474492 0.068655774 -0.030298306 0.054387424
0001e0 c0 6a 10 bc c8 f5 9d 3d 17 7c cc 3d ac 26 4f 3d
       -0.008814514 0.07712895 0.09984606 0.05057399
0001f0 85 2a 62 3d db 68 96 3a 3c b4 1b 3d 89 44 d5 bc
       0.05521633 0.0011475341 0.03801368 -0.026033657
000200 5d ba bb bc 96 31 20 bd 14 39 c5 bc 64 0a a9 3c
       -0.022916013 -0.03910979 -0.024075069 0.020634837
000210 14 8b 70 3d aa 76 06 3d 04 80 55 3d 7f f1 46 3d
       0.058726385 0.03282801 0.05212404 0.048570152
000220 a0 7b 4e 3d 5b b9 e1 3c 3e e9 11 3c c2 5c 56 bd
       0.050410867 0.027554205 0.008905707 -0.052334554
000230 58 76 0e bd 8f 2d 02 3d 2e 2d 43 3d 97 59 05 bd
       -0.03478083 0.03178173 0.04765051 -0.032556143
000240 5f b1 97 3c ab 43 2a bd 86 6d 0a 3d 1a 7c 58 3d
       0.018517194 -0.04156844 0.033795856 0.052852727
000250 ec 2a 31 bd fb 6f 95 3c 74 95 b3 3d 14 a1 1b 3d
       -0.043253824 0.018241873 0.0876874 0.037995413
000260 b1 78 4e 3d 4f dd 6a 3d ed 6e 2b 3d 86 a7 12 3d
       0.05040807 0.057339963 0.041853834 0.035804294
000270 e3 a1 e0 3c 0b 9f f4 3d 84 09 25 bd 78 1d 6a 3c
       0.027420944 0.119443975 -0.040292278 0.014289252
000280 f1 67 cc 3b 53 7d 06 3d 55 54 2f bd f2 31 f9 bc
       0.0062379767 0.032834362 -0.042805035 -0.030419324
000290 8a c2 6c 3d 00 c7 29 3d 22 03 27 bd d1 4d 8d 3d
       0.057802714 0.041449547 -0.040774472 0.06899608
0002a0 93 9c 25 3c f2 3e 61 bc a3 dc 8b bd 98 68 08 3d
       0.010108131 -0.0137479175 -0.068291925 0.033302873
0002b0 70 ca 16 3d c6 e1 7b 3d ac 6a 84 3d 8b 04 51 3d
       0.036814153 0.06149461 0.064656585 0.051029723
0002c0 bc 26 a3 3d b3 42 37 ba 14 21 41 3c 7e f2 57 3d
       0.07966372 -0.0006990835 0.011787672 0.052721493
0002d0 b8 ba b4 bc fe 91 7d 3d fc 7f 7a 3d cd dc e5 3d
       -0.02206169 0.061906807 0.06115721 0.11223755
0002e0 ad f2 c8 3c c6 6e 80 bd 9e 9f c6 3c 40 2c e7 3c
       0.02452978 -0.06271128 0.024246033 0.028219342
0002f0 3c f3 fb 3c 18 3e 78 3d 28 ff 9f ba b7 1e 6a 39
       0.030755632 0.060606092 -0.001220678 0.00022327421
000300 99 48 46 3d 7d 77 a9 3d e2 e8 17 3d da 25 7c bc
       0.04840908 0.08274744 0.03708733 -0.015389884
000310 08 61 17 3c 34 d8 f6 bc c2 02 50 bd b4 56 ff 3c
       0.009239443 -0.03013239 -0.05078388 0.031169273
000320 5c de 2c 3d ec a6 df 3d 14 34 32 bd d0 c6 4e bc
       0.042204246 0.1092051 -0.043506697 -0.012620643
000330 43 9a ac 3d 51 8f 02 3d 6b ec 75 bc 4c f2 7e bc
       0.084278606 0.03187496 -0.01500998 -0.015560698
000340 63 a1 81 3d ca 86 b9 bc 35 a4 d9 3d 13 96 b7 3d
       0.0632961 -0.02264728 0.10627023 0.08964171
000350 85 0a 6a bb 5a 31 4e 3d e6 83 ea 3c 5f 2b 20 3c
       -0.0035711837 0.050340034 0.028627347 0.0097759655
000360 3d bc bf bc 6e 35 09 bd 54 85 17 3d f8 3d 95 3c
       -0.023405189 -0.03349822 0.036992386 0.018218026
000370 42 4c a2 3d 00 d6 7a 39 b9 c0 43 3d 9e 62 ae bc
       0.07924701 0.00023921579 0.047791217 -0.021287259
000380 14 bc a5 bc 7c 34 24 3d 23 e0 15 bc 4c 00 5d 3d
       -0.020231284 0.040089116 -0.009147677 0.05395536
000390 f1 f7 e8 3c a4 81 e4 3c 50 2f 9b 3c 32 a6 3f bd
       0.02843854 0.027893849 0.018943459 -0.046789356
0003a0 c1 cc 78 bc 42 d5 08 bd dc 85 1a 3d 42 eb f4 3c
       -0.015185536 -0.033406503 0.037725314 0.029897336
0003b0 1c 7a c5 3b 98 f8 b5 3d 88 eb 9a 3c 42 3c 69 bd
       0.0060265195 0.08885306 0.018911138 -0.056942232
0003c0 70 b1 a2 bc 7d 7c 3d bd 2c 38 ac 3c 85 06 f1 3d
       -0.01986 -0.0462613 0.021022879 0.117688216
0003d0 d0 6f a0 3c a0 79 3b 3d 83 8c 49 3d f0 c7 2d 3d
       0.019584566 0.045770288 0.049206268 0.042427003
0003e0 f1 bc 89 3d 4e 01 13 bd af 87 26 3d 03 98 61 bb
       0.06725491 -0.035889916 0.04065674 -0.0034422881
0003f0 79 35 0d bd a2 57 72 3d 39 ef 9b 3b 78 49 6a 3d
       -0.034474824 0.059165604 0.004758742 0.05719897

bias f4 [33]
000000 37 2b 9c 3d 08 33 a1 bc 5a 1e cd 3d e3 75 87 3d
       0.0762543 -0.019677654 0.10015555 0.06614282
000010 73 4d 6a bb 4a c3 ba 3d 17 cb ac 3d fc 21 9e 3d
       -0.003575173 0.0911928 0.08437174 0.07721326
000020 2d b0 c3 3d 7f 84 5d 3d ab 41 92 3c 0f c2 54 3d
       0.09555087 0.054081436 0.017853579 0.05194288
000030 d6 e1 b4 3d 6a 57 c8 3d 70 a2 8c 3d 9c 88 bf 3d
       0.08832137 0.09782298 0.0686692 0.09352228
000040 d1 9a af bc a6 5a a5 3d de da 60 3d b9 bf 3b 3d
       -0.021436127 0.080739304 0.054896228 0.045837138
000050 87 de 89 3c a7 66 95 3d 62 07 c2 3d 4f 71 c4 3d
       0.016829742 0.0729497 0.094740644 0.095919244
000060 94 88 87 3d bf 31 8a bb f0 fe b5 3d e0 d8 5f bc
       0.06617847 -0.004217356 0.08886516 -0.013662547
000070 0b 1a fe 3b f4 f8 26 3d 32 77 6b 3d 60 fc cc 3d
       0.0077545694 0.040764764 0.05748672 0.10009074
000080 b1 81 3e 3c
       0.0116276005
