experiments/diff_reward_weights_data/kappa1_1_kappa2_1_kappa3_3.5/dqn_proposed_target_erf.pth (torch, 306152 bytes, 6 tensors)

weight f4 [256, 4]
-0.18809628 -0.22986591 -0.38821906 -0.39880955 -0.31232846 -0.48192942 -0.16833824 -0.4153806
0.113612615 -0.47043607 -0.29848358 0.04707173 0.37632456 0.015932744 0.02014653 0.71949404
0.1512044 0.043731514 -0.4201846 0.66175705 -0.15872525 -0.036531188 0.06586163 0.5953807
-0.09238092 0.33041295 -0.029259661 -0.71557367 -0.46018052 0.3684489 -0.21251403 -0.42763755
-0.13389598 -0.21825817 0.46804142 0.18520483 -0.09586048 -0.042440176 -0.096933484 -0.47276795
0.42702866 -0.0392659 -0.3536974 -0.68966013 -0.45105562 0.03904879 0.060806572 0.017611146
0.24179675 0.05771842 -0.06473144 -0.5935713 -0.060306523 -0.083295956 -0.034253426 -0.018126393
-0.00011743863 0.44312555 -0.22906071 0.28979194 0.06755195 0.3853825 -0.116431914 0.649596
0.17068437 0.19979359 -0.3882222 0.60705566 0.18930438 0.1930082 -0.3058857 -0.1213735
0.14742653 -0.04934137 -0.25325298 -0.6855724 -0.050597608 -0.17300117 -0.3312332 0.073305905
-0.26113573 -0.2223816 0.13453814 0.3287905 -0.106846854 0.346654 -0.2243716 0.20054601
0.47406712 -0.33550724 -0.2850386 -0.29444978 0.09087187 0.36700797 -0.56055206 -0.3273819
-0.42820504 0.50086343 -0.30692035 -0.29726753 0.21815428 -0.003259733 -0.39766887 0.45780754
0.10162711 0.2986925 0.0879277 0.452703 0.23186736 -0.22213429 -0.2695718 -0.5079914
-0.024946928 -0.4681979 0.03404385 0.39991373 0.15124945 -0.06839143 0.4054972 -0.5200299
0.09072121 -0.2370719 -0.8438958 -0.5823901 -0.48917806 -0.34425676 -0.4983877 -0.07071149
0.17431143 -0.31834 -0.23330912 -0.22799523 -0.14901933 0.31291854 -0.4377587 0.32507032
0.35437518 0.40055925 0.26955864 0.27565548 -0.010552686 0.5708839 0.07583433 0.09539417
0.055687323 0.38448402 -0.23226565 0.68715376 -0.38757265 -0.024195433 -0.45139265 -0.0024769902
-0.21442686 0.6129936 0.18776774 -0.08387441 -0.055282354 -0.025473595 -0.055143356 -0.4460433
0.42130893 0.5348941 -0.053566694 -0.63303584 0.24887612 -0.0046645277 0.19755286 -0.41585714
0.14478742 -0.30003104 -0.3362788 -0.46704975 -0.17318308 -0.26929003 -0.42087597 0.09235412
-0.4892807 -0.07612678 0.40738267 0.36883608 0.4477106 0.032528248 -0.13174802 0.16692492
0.028106727 0.15411031 0.10705719 0.24715087 0.19081925 -0.05649594 0.27498525 0.5868668
0.27326688 -0.46596575 0.5173426 -0.20720865 0.43003303 0.40504897 -0.2786266 0.14006156
-0.35387915 0.4418389 -0.09858695 -0.22719744 0.38590813 -0.16939445 0.40562525 0.6109052
0.33068055 -0.20744035 -0.3282055 -0.21406518 -0.24661905 0.15053928 -0.35821062 0.11017855
0.37374336 0.47917786 -0.3842103 -0.5872169 -0.050946746 0.32048044 0.13336328 -0.64416665
0.09841602 -0.25099608 0.22281305 0.05244934 0.07231322 -0.3928662 -0.0018785952 0.65322673
-0.041816354 -0.26488632 -0.39850873 -0.43797046 0.16166262 0.33701253 0.50112116 -0.70329475
0.4266569 -0.12959804 0.5079604 0.14016321 0.4734502 -0.47935763 0.44159392 -0.06358785
0.4138716 0.33576238 -0.5061914 0.57678944 -0.44067952 0.29902643 -0.09459349 0.2535596
00000000: 509c 40be f861 6bbe a6c4 c6be c430 ccbe
00000010: 84e9 9fbe 74bf f6be dc60 2cbe c4ac d4be
00000020: bbad e83d ffdc f0be d7d2 98be 49ce 403d
00000030: 9dad c03e 6385 823c 560a a53c c330 383f
00000040: 54d5 1a3e d11f 333d 7022 d7be e968 293f
00000050: df88 22be baa1 15bd 76e2 863d df6a 183f
00000060: 3532 bdbd e32b a93e f5b1 efbc d62f 37bf
00000070: c89c ebbe 56a5 bc3e 479d 59be 4ff3 dabe
00000080: 071c 09be 127f 5fbe 20a3 ef3e 56a6 3d3e
00000090: 8052 c4bd c0d5 2dbd 1085 c6bd a40e f2be
000000a0: 80a3 da3e 48d5 20bd d317 b5be 918d 30bf
000000b0: c3f0 e6be a0f1 1f3d 5010 793d 4045 903c
000000c0: 9199 773e 266a 6c3d eb91 84bd 4af4 17bf
000000d0: f903 77bd 1297 aabd 524d 0cbd cd7d 94bc
000000e0: 6249 f6b8 5ae1 e23e e48e 6abe 9c5f 943e
000000f0: ad58 8a3d db50 c53e db73 eebd ec4b 263f
00000100: e2c7 2e3e b196 4c3e 0fc5 c6be 0068 1b3f
00000110: 02d9 413e f1a3 453e 0d9d 9cbe ab92 f8bd
00000120: fbf6 163e 2d1a 4abd 60aa 81be ac81 2fbf
00000130: 703f 4fbd 3827 31be 6697 a9be 6821 963d
00000140: 95b3 85be 01b8 63be 5ec4 093e 3a57 a83e
00000150: 86d2 dabd a27c b13e abc1 65be ef5b 4d3e
00000160: edb8 f23e 9bc7 abbe 94f0 91be 1fc2 96be
00000170: 081b ba3d 78e8 bb3e 5780 0fbf 9a9e a7be
00000180: b13d dbbe 9638 003f aa24 9dbe 7333 98be
00000190: d663 5f3e 3fa1 55bb 419b cbbe c065 ea3e
000001a0: e021 d03d 39ee 983e 7013 b43d b0c8 e73e
000001b0: a36e 6d3e 2c77 63be 5105 8abe b90b 02bf
000001c0: 805d ccbc a3b7 efbe 9071 0b3d 7ec1 cc3e
000001d0: 23e1 1a3e ce10 8cbd 549d cf3e ae20 05bf
000001e0: 0bcc b93d fac2 72be 8e09 58bf 8517 15bf
000001f0: 8c75 fabe 6c42 b0be ac2c ffbe 30d1 90bd
00000200: b27e 323e 76fd a2be 96e8 6ebe 9577 69be
00000210: 8698 18be dc36 a03e e921 e0be 9e6f a63e
00000220: aa70 b53e 1a16 cd3e 9703 8a3e b722 8d3e
00000230: 2ce5 2cbc 7325 123f 074f 9b3d 055e c33d
00000240: 6418 643d 17db c43e 0cd7 6dbe 4fe9 2f3f
00000250: ec6f c6be 8035 c6bc f01c e7be 0055 22bb
00000260: b792 5bbe 26ed 1c3f 3046 403e 59c6 abbd
00000270: c06f 62bd 00ae d0bc 00de 61bd ca5f e4be
00000280: ceb5 d73e d2ee 083f c068 5bbd a30e 22bf
00000290: 62d9 7e3e e5d8 98bb 4c4b 4a3e 3aeb d4be
000002a0: 2743 143e ab9d 99be bc2c acbe 2521 efbe
000002b0: e856 31be 62e0 89be 0e7d d7be 2824 bd3d
000002c0: 0083 fabe 5be8 9bbd 7694 d03e 15d8 bc3e
000002d0: 533a e53e 573c 053d f4e8 06be 5eee 2a3e
000002e0: 1440 e63c 18cf 1d3e cd40 db3d 1e15 7d3e
000002f0: 1f66 433e 4968 67bd deca 8c3e e73c 163f
00000300: a3e9 8b3e 1093 eebe 9170 043f 812e 54be
00000310: 4a2d dc3e 9462 cf3e 25a8 8ebe 4c6c 0f3e
00000320: a62f b5be b538 e23e f4e7 c9bd 72a6 68be
00000330: c095 c53e bd75 2dbe 1dae cf3e 4864 1c3f
00000340: f64e a93e 3e6b 54be 8d0a a8be e733 5bbe
00000350: b489 7cbe f826 1a3e 6267 b7be 4ba5 e13d
00000360: 4a5b bf3e cd56 f53e 36b7 c4be d953 16bf
00000370: 89ad 50bd 0316 a43e 6290 083e 1be8 24bf
00000380: 578e c93d 8f82 80be 1b29 643e 1ed5 563d
00000390: f418 943d c225 c9be 323b f6ba de39 273f
000003a0: a047 2bbd 2e9f 87be 5609 ccbe aa3d e0be
000003b0: e38a 253e e88c ac3e 7a49 003f 200b 34bf
000003c0: c672 da3e 59b5 04be b109 023f f286 0f3e
000003d0: 1168 f23e 5d6e f5be 9918 e23e 593a 82bd
000003e0: fae6 d33e 0ce9 ab3e c295 01bf 79a8 133f
000003f0: bfa0 e1be fe19 993e 3bba c1bd 90d2 813e

bias f4 [256]
0.14944613 -0.32581133 0.5156375 0.022581032 -0.3746879 0.32108152 0.1406824 0.41248778
-0.48445168 -0.40518382 -0.38281658 -0.016087353 0.2790859 0.6108161 0.16147953 0.53848314
-0.48321873 -0.43246472 -0.31150073 0.15112734 0.01654126 -0.34359473 -0.16702493 0.47602746
-0.33004916 -0.15232934 0.23877214 -0.3683757 -0.0026673079 -0.5524366 0.3490963 0.36533028
0.35450047 0.58414984 -0.23728244 0.2944139 -0.027389346 0.37982446 0.5990884 -0.30484372
0.070867464 -0.35349867 0.1601294 -0.085642755 0.33901057 -0.22848865 0.3764379 0.39319563
-0.23017523 0.045819674 -0.1435183 0.32884666 0.48872042 -0.21289611 -0.34175563 0.1779766
-0.2851004 0.35908052 0.006767869 -0.08193866 -0.1397148 0.17581068 -0.43560427 0.4513074
-0.008883348 0.05750475 -0.28631246 0.121900156 0.3447358 -0.31181708 0.31198195 -0.49825472
-0.31689242 0.1343906 0.092408024 0.47236976 0.4200476 -0.050404593 0.5098294 -0.45906222
-0.1440771 -0.42200103 0.15620968 -0.00037824688 0.6585214 -0.010030427 0.31368023 0.4076643
0.091374815 0.25342068 0.13791803 0.036953304 0.037056804 -0.52119917 -0.33826476 -0.14388591
-0.38437542 0.4495172 0.43089584 0.581339 -0.31340158 0.31531334 -0.16706866 -0.52409434
-0.30523723 -0.37440726 0.06040661 0.3214266 -0.4201012 -0.37936014 0.07398772 -0.017699659
-0.55723387 0.1359286 -0.36447746 0.10386535 -0.08966812 -0.4791193 0.4465198 -0.015483741
-0.317313 -0.015015264 -0.27011323 -0.3872341 0.21653058 0.041125953 -0.38094273 0.5459255
0.29739252 0.5074112 -0.38041008 -0.42294225 -0.10491178 0.41490546 0.25800088 -0.35065055
-0.20047814 -0.34192133 -0.32474235 0.5044934 0.20158613 -0.15041299 -0.13449305 0.07733248
-0.19237846 -0.08019896 0.25470287 0.2643371 -0.1745605 0.03174256 0.4585917 -0.26512927
-0.39448506 -0.20966035 -0.05773855 0.3408783 0.5066079 -0.1157061 -0.5860895 0.48084286
-0.26120538 -0.29802352 0.39825854 -0.31359854 -0.52216077 -0.33721003 -0.25430387 0.041128833
-0.3732531 -0.22700906 0.36912543 -0.0042824945 -0.18986 0.17794798 0.046910655 0.51430523
-0.08641487 0.2818726 0.44841194 0.5321842 0.28975877 -0.0166459 -0.21128835 0.063439816
-0.18478933 0.48633465 0.43835393 0.22674139 0.52267414 0.34990722 -0.30295086 -0.26654583
0.46027404 0.44548672 0.49543178 0.1005681 0.555185 0.14469793 0.101537235 0.06527317
0.24640262 -0.021413254 -0.2739067 0.28734326 -0.6423177 -0.21106982 0.13251336 -0.036470328
0.4046503 0.5339654 0.454865 0.32114068 -0.17897224 0.2691361 -0.10434841 0.2767787
-0.12308106 -0.012252463 -0.079348326 -0.25618276 0.37457797 0.3751928 0.2557933 0.16475073
0.14581506 0.25784004 -0.0031655345 0.31026465 -0.24826254 -0.25188908 -0.36042947 -0.17677398
-0.05608106 -0.42837307 0.11593844 -0.05172832 0.12908755 0.57523197 -0.117038235 -0.4276322
0.41228634 -0.3574653 -0.042176917 0.3700055 0.2959227 -0.16504203 0.12187894 0.5564522
0.31829885 0.367433 -0.4391051 0.0308759 -0.51645297 -0.37382212 0.58214754 0.08873103
00000000: 6808 193e bed0 a6be d200 043f dbfb b83c
00000010: 18d7 bfbe cc64 a43e 0c0f 103e 9931 d33e
00000020: 0d0a f8be 4174 cfbe 8900 c4be a0c9 83bc
00000030: 59e4 8e3e 725e 1c3f e45a 253e 08da 093f
00000040: 7268 f7be 046c ddbe 067d 9fbe 20c1 1a3e
00000050: 8981 873c a6eb afbe 9508 2bbe dfb9 f33e
00000060: 34fc a8be 39fc 1bbe af80 743e bd9b bcbe
00000070: 00ce 2ebb 7c6c 0dbf c0bc b23e 920c bb3e
00000080: 1681 b53e d88a 153f 2bfa 72be 6bbd 963e
00000090: 9f5f e0bc 5a78 c23e db5d 193f 7a14 9cbe
000000a0: f622 913d c7fd b4be f6f8 233e 7865 afbd
000000b0: cb92 ad3e eef8 69be 78bc c03e f050 c93e
000000c0: 0eb3 6bbe 69ad 3b3d 76f6 12be 975e a83e
000000d0: 9039 fa3e 7001 5abe 98fa aebe 7f3f 363e
000000e0: aef8 91be 67d9 b73e 00c5 dd3b 75cf a7bd
000000f0: 6611 0fbe b707 343e 8607 dfbe c311 e73e
00000100: 768b 11bc 1a8a 6b3d 8c97 92be caa6 f93d
00000110: 3681 b03e 7da6 9fbe 19bc 9f3e 3e1b ffbe
00000120: b93f a2be b09d 093e 6b40 bd3d 73da f13e
00000130: 7b10 d73e 0c75 4ebd 2e84 023f 340a ebbe
00000140: f388 13be 8510 d8be 6ef5 1f3e 704f c6b9
00000150: dc94 283f a956 24bc b29a a03e 60b9 d03e
00000160: b822 bb3d 5bc0 813e 623a 0d3e 595c 173d
00000170: e0c8 173d 4f6d 05bf 0a31 adbe d456 13be
00000180: dbcc c4be 1e27 e63e 619e dc3e a2d2 143f
00000190: 2c76 a0be c070 a13e 0c14 2bbe 0c2b 06bf
000001a0: 0e48 9cbe 4fb2 bfbe ec6c 773d 0792 a43e
000001b0: 8117 d7be 7e3b c2be e086 973d e0fe 90bc
000001c0: e1a6 0ebf de30 0b3e ca9c babe 5bb7 d43d
000001d0: eba3 b7bd 204f f5be 3e9e e43e 84af 7dbc
000001e0: d976 a2be 9502 76bc 484c 8abe 8c43 c6be
000001f0: 31ba 5d3e b073 283d ed0a c3be c6c1 0b3f
00000200: d543 983e b3e5 013f 1cc5 c2be e38b d8be
00000210: fddb d6bd 7d6e d43e b118 843e 7888 b3be
00000220: 244a 4dbe 5010 afbe a144 a6be 7b26 013f
00000230: 986c 4e3e dd05 1abe 8cb8 09be 7e60 9e3d
00000240: dcfe 44be 5a3f a4bd 6a68 823e 3157 873e
00000250: fdbf 32be 7d04 023d 88cc ea3e 06bf 87be
00000260: f2f9 c9be 34b1 56be 427f 6cbd 9a87 ae3e
00000270: 0eb1 013f 52f7 ecbd f609 16bf 0931 f63e
00000280: b6bc 85be 8a96 98be 8be8 cb3e fd8f a0be
00000290: 54ac 05bf cba6 acbe 1e34 82be b576 283d
000002a0: 081b bfbe 1075 68be 02fe bc3e 2b54 8cbb
000002b0: a96a 42be ff37 363e 6325 403d 82a9 033f
000002c0: 48fa b0bd 9b51 903e 4096 e53e 393d 083f
000002d0: 435b 943e fc5c 88bc f95b 58be bcec 813d
000002e0: 6a39 3dbe db00 f93e ed6f e03e e52e 683e
000002f0: f9cd 053f 0a27 b33e 601c 9bbe b278 88be
00000300: 0aa9 eb3e d616 e43e 3ca9 fd3e a6f6 cd3d
00000310: 9b20 0e3f b22b 143e c1f2 cf3d f1ad 853d
00000320: f850 7c3e d96a afbc 803d 8cbe a81e 933e
00000330: ef6e 24bf b022 58be 95b1 073e e961 15bd
00000340: 532e cf3e f5b1 083f 11e4 e83e 8d6c a43e
00000350: 8044 37be 35cc 893e 9fb4 d5bd f0b5 8d3e
00000360: ec11 fcbd 8ebe 48bc 6081 a2bd 632a 83be
00000370: afc8 bf3e 4519 c03e 57f7 823e 6ab4 283e
00000380: 8b50 153e 9c03 843e db74 4fbb 02db 9e3e
00000390: 8938 7ebe 9bf7 80be 368a b8be 3d04 35be
000003a0: 41b5 65bd b753 dbbe 2271 ed3d 13e1 53bd
000003b0: 872f 043e 6742 133f beb1 efbd 9cf2 dabe
000003c0: 3217 d33e b105 b7be b4c1 2cbd 5c71 bd3e
000003d0: 2e83 973e c700 29be aa9b f93d a773 0e3f
000003e0: 11f8 a23e 2e20 bc3e 62d2 e0be 75ef fc3c
000003f0: 4336 04bf 9d65 bfbe 9f07 153f 9db8 b53d

weight f4 [256, 256]
-0.04221735 0.027950048 -0.03273096 -0.029314967 -0.022436975 -0.080225766 -0.13880599 -0.066480964
0.039478347 -0.030444287 -0.031205647 -0.012631379 0.05477902 0.112641916 0.3771417 0.06609077
-0.0066710706 -0.043527573 -0.09088237 -0.033896238 0.2012983 -0.17330827 0.0143313045 0.09869484
-0.09133431 -0.056175902 0.06904221 -0.05669704 -0.0007775873 0.023555644 -0.22384329 -0.042648047
-0.0067362217 -0.17507362 0.02154945 0.07321311 0.038862318 0.015638657 0.055695564 0.0066596344
0.037127458 0.0795885 -0.08792263 0.060780518 0.029535541 -0.037200548 0.07490863 -0.0032496739
0.039608598 -0.008158292 -0.12700889 0.014090593 -0.024982998 -0.000789091 -0.06157639 -0.038262896
-0.019628486 0.023477104 -0.04983844 0.060826473 -0.023705592 0.010126969 -0.011316585 0.049596194
0.055600706 0.028448677 0.051006638 -0.042606257 0.05411712 -0.16058548 0.07551846 0.0012096316
-0.04648826 0.01975286 0.026813095 0.022088237 0.063377105 0.011454855 -0.034793723 -0.05361367
0.06554187 -0.04369025 0.09621998 0.068270184 0.21252777 -0.054816946 -0.038122863 0.0037119666
0.061312653 -0.012385205 0.035254866 0.032365553 0.016219467 0.1936458 0.008989465 -0.03238245
0.0012075991 -0.057445925 -0.109490514 -0.0059433654 0.08237081 -0.027408784 0.07723214 0.02749553
-0.01582206 0.017123463 -0.033828836 -0.03542288 0.04331786 0.020342603 0.024986563 0.08722304
0.08372593 0.0719967 0.03948272 0.030150821 -0.042090297 0.0712015 -0.0035461485 0.0021599457
-0.005711519 -0.020060444 0.19162302 0.007759236 -0.010933441 -0.040704444 0.038626567 0.009502183
0.036526296 -0.04400979 -0.029614633 -0.0036445006 0.3175281 0.11780165 -0.0032778939 0.039479163
-0.021506816 0.039282978 0.07196154 -0.04402988 -0.03333027 0.16630208 0.05596174 0.04377471
0.0008927097 -0.09465208 0.07635592 -0.02178531 -0.053563632 -0.07031153 -0.28649157 0.04916863
-0.002760522 0.049214974 0.04056612 0.039282277 -0.012403873 0.12172114 -0.025638245 0.013314775
0.24181661 0.055017564 -0.058985155 0.07513518 0.0049850713 -0.003104556 -0.13659951 0.10406257
0.029773848 -0.037544116 0.045248777 -0.21568654 0.09578594 0.13351639 0.04913834 -0.034351557
0.0584035 -0.03072494 0.028729515 -0.1989717 0.03843923 -0.0017619699 0.04637649 0.01446396
0.05257695 0.08032355 0.040898647 0.05952242 -0.18467925 -0.017975457 -0.048461996 0.028041754
0.074295275 -0.032279674 0.069722205 0.14199065 0.10855658 -0.021065589 0.027299946 -0.0047132797
0.09028922 0.05746504 0.035269752 0.028419137 0.37183973 0.0126828775 0.043425966 0.11974929
0.044973258 -0.01713284 0.2790268 0.06659316 0.010437198 0.046438396 -0.0013544026 0.040851813
0.14320067 -0.042317376 0.0022481382 0.05996945 0.09762176 -0.008008345 -0.08642001 0.07118966
0.17798303 0.03161969 -0.06483632 0.039485015 -0.059588037 0.067049585 -0.04283827 0.011513467
-0.16346313 0.06952254 0.09492623 0.036736917 -0.033759896 -0.1951437 0.070260346 0.058638513
0.044818804 -0.1374115 0.012343137 -0.0064466596 -0.056344256 0.007572559 -0.035606608 0.30113807
0.04601376 -0.044714756 -0.0615842 0.021430727 0.026348071 0.05471042 0.039726228 0.002645164
00000000: 1aec 2cbd 80f7 e43c e610 06bd f125 f0bc
00000010: bfcd b7bc 684d a4bd 2823 0ebe 2c27 88bd
00000020: 0cb4 213d 4c66 f9bc fca2 ffbc d8f3 4ebc
00000030: f75f 603d ceb0 e63d b818 c13e 995a 873d
00000040: ff98 dabb f849 32bd 8920 babd c8d6 0abd
00000050: 2421 4e3e b977 31be d9cd 6a3c 8520 ca3d
00000060: 7c0d bbbd b418 66bd 0166 8d3d 283b 68bd
00000070: 00d7 4bba c4f7 c03c 2d37 65be b8af 2ebd
00000080: 86bb dcbb 8046 33be 7988 b03c c1f0 953d
00000090: 182e 1f3d a41c 803c 0821 643d 1039 da3b
000000a0: f612 183d 4cff a23d c810 b4bd fef4 783d
000000b0: 85f4 f13c 9a5f 18bd b269 993d 7bf8 54bb
000000c0: a03c 223d 5baa 05bc 9e0e 02be 3bdc 663c
000000d0: 25a9 ccbc 00db 4eba 8637 7cbd 8eb9 1cbd
000000e0: ebcb a0bc 0e53 c03c 6423 4cbd 2e25 793d
000000f0: 3b32 c2bc 96eb 253c 3369 39bc 6125 4b3d
00000100: 91bd 633d 330d e93c 56ec 503d e683 2ebd
00000110: eaa9 5d3d 8570 24be 6ca9 9a3d 808c 9e3a
00000120: 796a 3ebd c0d0 a13c 23a7 db3c 64f2 b43c
00000130: dbcb 813d 25ad 3b3c dd83 0ebd 029a 5bbd
00000140: d13a 863d 8cf4 32bd fb0e c53d 3dd1 8b3d
00000150: e1a0 593e bc87 60bd b826 1cbd 7744 733b
00000160: fa22 7b3d 51eb 4abc 6867 103d be91 043d
00000170: b0de 843c 164b 463e 8d48 133c 76a3 04bd
00000180: 4d48 9e3a 6b4c 6bbd 903c e0bd 90c0 c2bb
00000190: 07b2 a83d 6388 e0bc e22b 9e3d 4e3e e13c
000001a0: 449d 81bc 8146 8c3c 1b90 0abd 9517 11bd
000001b0: 126e 313d 88a5 a63c 9fb0 cc3c fea1 b23d
000001c0: 8078 ab3d 0173 933d a2b8 213d dbfe f63c
000001d0: e066 2cbd 18d2 913d 8066 68bb e08d 0d3b
000001e0: b227 bbbb cd55 a4bc d338 443e 3041 fe3b
000001f0: 2d22 33bc b4b9 26bd e436 1e3d 0baf 1b3c
00000200: 999c 153d 9c43 34bd 639a f2bc 93d8 6ebb
00000210: 0b93 a23e fe41 f13d efd1 56bb e7b4 213d
00000220: 102f b0bc 30e7 203d 9260 933d ad58 34bd
00000230: 5285 08bd 184b 2a3e 2338 653d 1c4d 333d
00000240: bc04 6a3a f3d8 c1bd 7e60 9c3d 1b77 b2bc
00000250: 8a65 5bbd 7eff 8fbd 06af 92be 0c65 493d
00000260: e0e9 34bb a495 493d a928 263d 74e6 203d
00000270: 9d39 4bbc ef48 f93d 4c07 d2bc 3726 5a3c
00000280: c69e 773e 195a 613d 6b9a 71bd 79e0 993d
00000290: cf59 a33b ce75 4bbb bee0 0bbe c21e d53d
000002a0: 49e8 f33c dcc7 19bd c856 393d efdc 5cbe
000002b0: 6b2b c43d 85b8 083e 4945 493d 38b4 0cbd
000002c0: 8238 6f3d dfb2 fbbc 295a eb3c 3dbf 4bbe
000002d0: 7472 1d3d e6f1 e6ba 46f5 3d3d 3ffa 6c3c
000002e0: ee5a 573d ac80 a43d 5785 273d c8cd 733d
000002f0: 8f1c 3dbe 4441 93bc 1680 46bd d2b7 e53c
00000300: 1f28 983d b137 04bd 84ca 8e3d ff65 113e
00000310: ea52 de3d be91 acbc 23a4 df3c db71 9abb
00000320: 8ee9 b83d 7660 6b3d 0477 103d 40cf e83c
00000330: c761 be3e d8cb 4f3c 6ddf 313d 1e3f f53d
00000340: e135 383d 2b5a 8cbc 9adc 8e3e ff61 883d
00000350: c800 2b3c 3036 3e3d 3686 b1ba 3b54 273d
00000360: 32a3 123e fc54 2dbd 8055 133b 87a2 753d
00000370: ebed c73d 6f35 03bc f9fc b0bd e2cb 913d
00000380: 2f41 363e a683 013d e8c8 84bd 0abb 213d
00000390: 9612 74bd 4b51 893d 2f77 2fbd fba2 3c3c
000003a0: e162 27be d561 8e3d af68 c23d 7379 163d
000003b0: d147 0abd c0d3 47be a8e4 8f3d f02e 703d
000003c0: ec93 373d 9ab5 0cbe de3a 4a3c 803e d3bb
000003d0: 3cc9 66bd 3b23 f83b 3cd8 11bd c52e 9a3e
000003e0: ed78 3c3d d226 37bd b73f 7cbd 7e8f af3c
000003f0: e9d7 d73c 0918 603d f8b7 223d 7d5a 2d3b

bias f4 [256]
0.08683929 -0.057452895 0.0922863 0.07297163 0.026592825 0.01474384 0.112185515 0.048606254
-0.02424873 -0.028046127 0.0095109865 -0.026335888 0.05235445 0.03879766 -0.058004595 -0.00933381
0.00038952002 0.00985723 0.017776012 -0.019387871 -0.007842466 0.014082812 -0.036095865 0.05607277
-0.030130824 0.059245285 0.023747595 0.047419827 -0.062361047 -0.034289554 -0.020785654 0.05080146
0.028842155 0.07001582 -0.007476372 -0.05124832 -0.0025057443 -0.0033016116 -0.027574547 -0.009687945
-0.013867974 -0.05494777 -0.040591236 -0.05717008 -0.051671498 0.10151045 0.035936058 0.14391258
-0.056247346 0.016624942 -0.02602154 0.011389273 -0.033678174 0.004533879 -0.035970323 -0.036642138
-0.011669437 0.04754278 0.017120482 -0.050402366 -0.037023574 -0.073891595 -0.0036267908 0.04756567
0.05991705 -0.03359163 0.032066897 0.096438095 0.0091876155 -0.007201226 0.036137212 -0.031080913
0.044668585 0.054774553 -0.041367963 -0.03222044 0.055737123 0.006745793 0.09673749 0.02585952
-0.0184566 0.062108994 0.03196706 -0.011619348 -0.0075770817 -0.11661805 0.06100718 0.06653032
0.02687605 0.08050134 0.03376834 -0.035406783 0.095815554 0.030528486 0.05508431 0.0020734104
-0.013783552 0.015600242 0.062211413 -0.043546103 -0.037408356 -0.010116498 -0.03320292 -0.03915694
-0.0568951 0.047489952 -0.039775338 -0.04464653 0.018841464 -0.016526042 -0.0345947 0.08381103
0.010304721 0.07911971 -0.026711661 0.018586751 -0.050765697 0.04196079 -0.031364825 -0.07585508
0.03414437 -0.0023825816 -0.0029871038 0.051448435 -0.00959057 0.055706136 -0.000974566 0.022707505
0.042255007 -0.039018594 0.03619129 0.08729709 -0.03275954 0.010603955 0.0003700607 -0.006485566
0.01908885 0.035294835 0.03917873 -0.049034934 -0.0031030613 -0.033850145 -0.0059094806 0.010396256
0.05711537 -0.008775339 -0.030318864 0.0039634113 0.05741723 -0.026400972 -0.0065136086 -0.060684808
-0.03880378 0.025759865 0.023131188 -0.02171164 0.011754761 0.024509639 0.011868255 -0.041529574
-0.009624756 -0.05287332 -0.053471383 0.026261048 0.06626474 -0.046983764 0.0370812 -0.05544479
0.005453318 -0.03324266 -0.010037339 -0.035085022 -0.014130274 -0.028024629 0.035689525 -0.01833272
-0.026959224 -0.014192161 -0.028509472 -0.004908651 -0.015651358 -0.029898375 -0.011668675 0.06398035
-0.04716225 -0.0064840424 -0.03893038 0.0019950112 -0.038851462 -0.0062903916 -0.00745163 0.040125746
-0.046842217 -0.042212203 0.018232802 0.03859293 0.022813268 -0.05329565 0.06815366 -0.010054224
0.040765412 -0.006571726 -0.041351594 -0.015430774 0.0051817056 -0.012650217 0.062086992 -0.020842992
-0.033296324 0.036966547 -0.008706848 0.038579505 0.04704994 -0.026383357 0.017047329 0.056629322
-0.059030514 0.04084138 0.05247486 0.027974613 0.032781705 0.005549228 -0.037484664 -0.017322803
0.08062608 -0.008836491 0.052099068 0.060470086 0.04907009 0.0437234 -0.041845128 -0.04111456
-0.008256727 -0.0016440072 -0.046195067 0.06648513 0.060777925 0.049284503 0.05487115 -0.00018373122
0.06209741 -0.03899614 0.058012165 0.10469369 -0.015755884 -0.017229361 0.06349909 0.036426786
0.073295355 0.082292445 0.065636165 -0.038130246 0.034373317 0.05857242 0.025188167 0.041810088
00000000: ccd8 b13d ba53 6bbd 9a00 bd3d 2672 953d
00000010: 32d9 d93c 2690 713c 85c1 e53d 5a17 473d
00000020: 46a5 c6bc fec0 e5bc f8d3 1b3c 5cbe d7bc
00000030: 9f71 563d 4cea 1e3d 3a96 6dbd d6ec 18bc
00000040: 7e38 cc39 3880 213c 009f 913c 50d3 9ebc
00000050: b07d 00bc 98bb 663c 42d9 13bd 90ac 653d
00000060: ebd4 f6bc 2fab 723d 518a c23c 4b3b 423d
00000070: 4c6e 7fbd 3473 0cbd ad46 aabc 3115 503d
00000080: 6246 ec3c 7464 8f3d 5bfc f4bb c2e9 51bd
00000090: 6a37 24bb da5f 58bb 04e4 e1bc 30ba 1ebc
000000a0: 8036 63bc ea10 61bd ff42 26bd 2c2b 6abd
000000b0: 7ea5 53bd b6e4 cf3d b031 133d d25d 133e
000000c0: 9e63 66bd 0831 883c 202b d5bc 139a 3a3c
000000d0: 20f2 09bd ef90 943b 9e55 13bd 1116 16bd
000000e0: 2b31 3fbc 38bc 423d 4140 8c3c b672 4ebd
000000f0: 08a6 17bd 7a54 97bd 74af 6dbb 38d4 423d
00000100: 956b 753d 6197 09bd 9458 033d 5681 c53d
00000110: a787 163c 43f8 ebbb 9d04 143d 669d febc
00000120: 68f6 363d 485b 603d 7471 29bd 95f9 03bd
00000130: 9c4c 643d d00b dd3b 4e1e c63d 58d7 d33c
00000140: 4c32 97bc 0066 7e3d e4ef 023d 145f 3ebc
00000150: 2b49 f8bb 72d5 eebd aae2 793d 0c41 883d
00000160: 292b dc3c e3dd a43d ac50 0a3d b406 11bd
00000170: f23a c43d e016 fa3c 16a0 613d 0ee2 073b
00000180: 68d4 61bc 2898 7f3c 65d1 7e3d 665d 32bd
00000190: 8139 19bd abbf 25bc c9ff 07bd 0763 20bd
000001a0: d60a 69bd d384 423d 77eb 22bd 48df 36bd
000001b0: 6a59 9a3c 9f61 87bc 2cb3 0dbd 1ea5 ab3d
000001c0: 22d5 283c 8409 a23d 6ad2 dabc 3e43 983c
000001d0: b1ef 4fbd 14df 2b3d 6778 00bd e859 9bbd
000001e0: f8da 0b3d 1625 1cbb 49c3 43bb 98bb 523d
000001f0: c421 1dbc 1e2c 643d 047a 7fba 1705 ba3c
00000200: 9613 2d3d f6d1 1fbd 513d 143d d1c8 b23d
00000210: de2e 06bd 36bc 2d3c b504 c239 df84 d4bb
00000220: 3860 9c3c 5191 103d e079 203d dbd8 48bd
00000230: bb5c 4bbb 73a6 0abd 51a4 c1bb 0f55 2a3c
00000240: cef1 693d 71c6 0fbc 445f f8bc 81df 813b
00000250: 542e 6b3d da46 d8bc 1c70 d5bb a290 78bd
00000260: b6f0 1ebd 5a06 d33c 9e7d bd3c 9cdc b1bc
00000270: 0b97 403c 70c8 c83c 1273 423c ea1a 2abd
00000280: 27b1 1dbc b291 58bd cf04 5bbd 6921 d73c
00000290: cfb5 873d 0c72 40bd 75e2 173d 131a 63bd
000002a0: bfb1 b23b 7529 08bd a773 24bc 50b5 0fbd
000002b0: aa82 67bc e893 e5bc 2e2f 123d 802e 96bc
000002c0: 97d9 dcbc 3d86 68bc b28c e9bc c0d8 a0bb
000002d0: 4737 80bc 70ed f4bc f82d 3fbc 2108 833d
000002e0: 342d 41bd 1778 d4bb 7675 1fbd bcbe 023b
000002f0: b622 1fbd a11f cebb ce2c f4bb e55a 243d
00000300: a0dd 3fbd b4e6 2cbd f55c 953c 9f13 1e3d
00000310: e4e2 ba3c 8a4c 5abd 2594 8b3d 79ba 24bc
00000320: a2f9 263d a257 d7bb 4a60 29bd 5bd1 7cbc
00000330: 4ccb a93b db42 4fbc ee4e 7e3d ecbe aabc
00000340: ba61 08bd 3c6a 173d 2ba7 0ebc 8b05 1e3d
00000350: 70b7 403d e921 d8bc d7a6 8b3c 26f4 673d
00000360: fbc9 71bd 4a49 273d e1ef 563d 042b e53c
00000370: 1c46 063d 4cd6 b53b 8589 19bd 8de8 8dbc
00000380: 491f a53d eec6 10bc d565 553d 7baf 773d
00000390: b8fd 483d 4f17 333d cc65 2bbd be67 28bd
000003a0: 3947 07bc ba7b d7ba 0a37 3dbd 5b29 883d
000003b0: 46f2 783d 8cde 493d 92c0 603d f9a7 40b9
000003c0: db59 7e3d 6bba 1fbd 2a9e 6d3d a569 d63d
000003d0: 7c12 81bc 9724 8dbc d00b 823d 4134 153d
000003e0: e01b 963d f188 a83d 416c 863d 762e 1cbd
000003f0: 09cb 0c3d a2e9 6f3d 6a57 ce3c 0e41 2b3d

weight f4 [33, 256]
0.05570405 0.04843143 0.07437009 -0.0133104315 -0.061894834 -0.08457315 0.22465932 0.023808403
0.0038567788 0.07659961 -0.07892083 0.07075043 -0.046892192 -0.117065266 0.04205978 -0.008369181
-0.11578778 -0.054727178 0.025629975 0.0095171705 -0.04190248 0.018699942 0.03830362 -0.0928474
0.08783315 -0.020662345 -0.05111729 0.10519944 0.019937597 0.028815044 0.053317282 0.019188803
-0.03111118 0.06470969 0.087308116 -0.008146204 -0.095655315 0.056234628 0.01553544 -0.0124531835
-0.021366306 -0.04507552 0.0031196775 -0.039004765 -0.003984928 0.18407093 0.014940608 0.013446618
-0.057320543 0.015073404 0.031313032 -0.014001373 0.12111601 0.05031287 0.042895384 -0.008348864
0.05633596 -0.061220028 0.053510804 0.03139886 -0.036877 -0.06878252 -0.03103419 0.05501179
0.08093951 0.04595142 0.0036564097 0.1304604 -0.22014111 -0.03766059 -0.020151045 -0.0065669212
-0.09673749 -0.019407071 -0.07711632 -0.002031007 0.067369975 0.050871953 -0.076359704 -0.031011216
0.0034966774 0.06074983 -0.14392817 -0.038173776 0.011159482 0.5500968 0.0035819113 0.08535972
0.08883243 -0.11858761 -0.04811108 0.041581966 -0.11646072 -0.03548753 0.03883274 0.031625047
0.044402897 0.0106885955 0.04358702 -0.019557692 -0.036525633 0.007265579 -0.030125929 -0.058158636
0.013215593 -0.037864696 -0.020896848 -0.037929077 0.09523886 0.05537661 -0.006196484 -0.15993705
-0.049599808 0.077777945 -0.0029761142 0.08751639 0.05474492 0.036271553 -0.036340132 0.04984588
-0.008814514 0.05208222 0.046377517 0.05057399 0.04345246 0.01457981 0.03801368 -0.23606087
-0.026733384 -0.03910979 0.017150838 0.090508275 0.058726385 0.03282801 0.0693166 0.043551803
0.050410867 0.021669459 0.0140191335 -0.10917943 -0.021396013 -0.08994283 0.04765051 -0.040501636
0.06874102 -0.052950222 0.033795856 0.15171348 -0.043253824 -0.027025476 0.08417445 0.013642592
0.05138261 0.062680244 0.005025315 0.035804294 0.043783154 0.05763837 0.074267216 0.014289252
0.017553896 0.054710325 -0.05847843 0.07845732 0.074261345 0.079486825 -0.043558 0.004795902
0.020994425 -0.013802307 -0.04525643 0.030980693 0.04635046 0.06149461 0.07589325 0.051039975
0.07416434 0.015065374 -0.010853797 0.052721493 -0.02206169 0.06035262 0.070634186 0.072606675
0.061063223 -0.08084086 0.09668144 0.018975342 0.030755632 0.05935846 -0.0009779661 0.0010372336
0.04365486 0.070326984 0.050736766 -0.020341557 0.009239443 -0.03013239 -0.032266524 -0.0038878734
0.014587609 0.14111973 -0.043506697 -0.07488673 0.09572564 0.025298886 0.009163486 -0.00090118474
0.044797167 0.006824613 0.097753294 0.082724795 -0.0089893285 0.02748491 -0.039698754 -0.026291087
-0.033939566 -0.03349822 0.037301738 0.018218026 0.09533464 -0.0066672186 0.02925401 -0.021822585
9.506225e-06 0.040089116 -0.00847448 0.047547787 -0.038645927 0.027893849 0.018943459 -0.046789356
-0.019070376 -0.033406503 0.037725314 0.033438385 0.030137472 0.026054407 0.018911138 -0.057328172
-0.06139702 -0.06377756 0.021022879 0.10407194 0.19435592 0.049695842 0.07181702 0.09780459
0.07724961 -0.1396832 0.28093082 -0.0047054654 -0.09686175 0.059165604 -0.060822465 0.05719897
00000000: ee29 643d 0960 463d 594f 983d ff13 5abc
00000010: 7085 7dbd b034 adbd 180d 663e d709 c33c
00000020: 03c2 7c3b 42e0 9c3d 3ea1 a1bd 9ae5 903d
00000030: 0712 40bd eabf efbd e046 2c3d e41e 09bc
00000040: 2522 edbd 9b29 60bd f4f5 d13c e8ed 1b3c
00000050: efa1 2bbd 9f30 993c 42e4 1c3d c726 bebd
00000060: dee1 b33d 1444 a9bc 5d60 51bd ce72 d73d
00000070: 2c54 a33c 870d ec3c 3963 5a3d d631 9d3c
00000080: e0dc febc 8486 843d 99ce b23d a877 05bc
00000090: efe6 c3bd 4856 663d 5c88 7e3c 7008 4cbc
000000a0: 6408 afbc 1ca1 38bd 8173 4c3b 76c3 1fbd
000000b0: 0094 82bb 177d 3c3e 74c9 743c 344f 5c3c
000000c0: f2c8 6abd 70f6 763c 1842 003d 0466 65bc
000000d0: ac0b f83d de14 4e3d 12b3 2f3d acc9 08bc
000000e0: 89c0 663d dac1 7abd 252e 5b3d 179c 003d
000000f0: 560c 17bd dadd 8cbd 6a3b febc 0b54 613d
00000100: 9dc3 a53d 8e37 3c3d 60a0 6f3b 6997 053e
00000110: ac6c 61be fe41 1abd ce13 a5bc 542f d7bb
00000120: 4e1e c6bd 94fb 9ebc 29ef 9dbd a51a 05bb
00000130: 45f9 893d 1c5f 503d 7a62 9cbd 3c0b febc
00000140: 8328 653b d0d4 783d e861 13be 1b5c 1cbd
00000150: 43d6 363c 25d3 0c3f 80be 6a3b 14d1 ae3d
00000160: c7ed b53d 10de f2bd 2010 45bd da51 2a3d
00000170: f582 eebd 5f5b 11bd 140f 1f3d 4489 013d
00000180: d0df 353d 381f 2f3c 4e88 323d 7437 a0bc
00000190: e79b 15bd 1814 ee3b a7ca f6bc c037 6ebd
000001a0: 3786 583c 0318 1bbd de2f abbc 855b 1bbd
000001b0: 970c c33d 96d2 623d e00b cbbb 8ac6 23be
000001c0: 2b29 4bbd 0b4a 9f3d e90a 43bb cb3b b33d
000001d0: 363c 603d 7b91 143d 64d9 14bd 322b 4c3d
000001e0: c06a 10bc 2a54 553d 5af6 3d3d ac26 4f3d
000001f0: 35fb 313d 28e0 6e3c 3cb4 1b3d f1b9 71be
00000200: f8ff dabc 9631 20bd ea7f 8c3c 675c b93d
00000210: 148b 703d aa76 063d ddf5 8d3d 6063 323d
00000220: a07b 4e3d 2684 b13c 82b0 653c 7799 dfbd
00000230: b146 afbc f233 b8bd 2e2d 433d 0be5 25bd
00000240: 18c8 8c3d 55e2 58bd 866d 0a3d c75a 1b3e
00000250: ec2a 31bd 8864 ddbc a763 ac3d 2e85 5f3c
00000260: 9276 523d 805e 803d 66ab a43b 86a7 123d
00000270: f755 333d 3616 6c3d 6919 983d 781d 6a3c
00000280: 30cd 8f3c ef17 603d 1487 6fbd 3bae a03d
00000290: 5516 983d fdc9 a23d e069 32bd f126 9d3b
000002a0: 80fc ab3c 1223 62bc ce5e 39bd 39cb fd3c
000002b0: fbd9 3d3d c6e1 7b3d ec6d 9b3d 4b0f 513d
000002c0: 79e3 973d c2d4 763c 20d4 31bc 7ef2 573d
000002d0: b8ba b4bc 4f34 773d a8a8 903d cfb2 943d
000002e0: 6e1d 7a3d e58f a5bd eb00 c63d 2d72 9b3c
000002f0: 3cf3 fb3c db21 733d 192f 80ba c9f3 873a
00000300: 70cf 323d 9807 903d 5bd1 4f3d 56a3 a6bc
00000310: 0861 173c 34d8 f6bc e729 04bd b1cb 7ebb
00000320: de00 6f3c b181 103e 1434 32bd 375e 99bd
00000330: ce0b c43d 9c3f cf3c 7222 163c 7c3d 6cba
00000340: 3c7d 373d 01a1 df3b e132 c83d 9e6b a93d
00000350: fa47 13bc 0928 e13c 299b 22bd 6860 d7bc
00000360: 3704 0bbd 6e35 09bd b5c9 183d f83d 953c
00000370: cf3e c33d af78 dabb 1ba6 ef3c 47c5 b2bc
00000380: ed7c 1f37 7c34 243d 8cd8 0abc 78c1 423d
00000390: 314b 1ebd a481 e43c 502f 9b3c 32a6 3fbd
000003a0: 7a39 9cbc 42d5 08bd dc85 1a3d b0f6 083d
000003b0: dce2 f63c 0d70 d53c 88eb 9a3c f2d0 6abd
000003c0: 717b 7bbd cf9d 82bd 2c38 ac3c ab23 d53d
000003d0: 3d05 473e de8d 4b3d cd14 933d c64d c83d
000003e0: 0b35 9e3d 1d09 0fbe 2ad6 8f3e 4e30 9abb
000003f0: 745f c6bd a257 723d fa20 79bd 7849 6a3d

bias f4 [33]
0.065577894 -0.06448759 0.07133152 0.053856857 -0.027039876 0.05325422 0.06944622 0.042928223
0.079824254 0.019754117 -0.019323379 0.040927835 0.028621161 0.05510221 0.032461878 0.061476838
-0.05804894 0.03703523 0.02858538 0.009566334 -0.0005561373 0.022877833 0.05678794 0.061250445
0.013834818 -0.03177714 0.060172174 -0.030979948 -0.0017628673 0.005123169 0.029877363 0.06338883
-0.010428162
00000000: b44d 863d 1212 84bd 4316 923d 0299 5c3d
00000010: bb82 ddbc 1921 5a3d d239 8e3d 81d5 2f3d
00000020: e67a a33d 63d3 a13c 104c 9ebc f2a3 273d
00000030: ed76 ea3c dbb2 613d bff6 043d 23cf 7b3d
00000040: bac4 6dbd 41b2 173d e32b ea3c 1dbc 1c3c
00000050: bec9 11ba 4b6a bb3c 799a 683d bfe1 7a3d
00000060: 6fab 623c bf28 02bd 1977 763d a9c9 fdbc
00000070: 0310 e7ba 42e0 a73b 5fc1 f43c 01d2 813d
00000080: e2da 2abc
