experiments/diff_context_data/rain_models/rainbow_dqn_target_tem.pth (torch, 343122 bytes, 13 tensors)

weight f4 [256, 4]
00000000: 509c 40be f861 6bbe a6c4 c6be c430 ccbe
00000010: 84e9 9fbe 74bf f6be dc60 2cbe c4ac d4be
00000020: b87b b13d b770 00bf 28cd 7ebe 8717 573d
00000030: 5e47 c03e 2318 5f3d 50fe 86bb 2c53 f63e
00000040: a9d0 de3d 8adb 25bc f09e cdbe ee53 883e
00000050: 484f 72be 60b8 06be 0027 633b 8a58 d13e
00000060: ab5c 0fbd 3370 ae3e 89a6 bfbc 9b78 d4be
00000070: e143 f5be 722e b33e 5618 3cbe f986 04bf
00000080: a3ef 27be 27c8 56be 8302 d73e 88d4 ff3d
00000090: 8052 c4bd c0d5 2dbd 1085 c6bd a40e f2be
000000a0: fc6a df3e 6e44 67b9 4cad 9fbe e5cc f4be
000000b0: c3f0 e6be a0f1 1f3d 5010 793d 4045 903c
000000c0: 3ba7 703e 9241 063c 8e53 69bd 9d77 83be
000000d0: 1005 d2bd 0011 57be 9423 26be e4be bbbe
000000e0: f301 45bc c90d ae3e 46d0 b2bd dac4 773e
000000f0: b29e 6f3d 22fc c13e 4f1c 0ebe d0f6 c53e
00000100: a847 073e cd99 323e 0d74 c8be f045 db3e
00000110: 0a6d 343e 52af 1e3e d2ad 8fbe dddc 43bd
00000120: 3931 0e3e 96da dcbd 1f6d 6dbe ac6b e3be
00000130: 703f 4fbd 3827 31be 6697 a9be 6821 963d
00000140: 8330 45be ace1 61be 9284 063e a00e bb3e
00000150: 232d f1bd 82fb 8a3e dbe1 aebe 8788 ba3d
00000160: 271c f83e 81c2 8cbe 53d0 8cbe c954 8fbe
00000170: 0916 063e de8f 3d3e da99 f0be 9e00 c3be
00000180: 052b cbbe b01b f23e df6a bebe 5c9e b5be
00000190: f8c0 653e c0a5 d33c e28a b4be c401 893e
000001a0: 03d9 b53d acbc 973e de44 533d 895f 8a3e
000001b0: 0015 773e fdab 61be cea0 70be d38b b8be
000001c0: 805d ccbc a3b7 efbe 9071 0b3d 7ec1 cc3e
000001d0: e13d 183e dab2 1b3d abba b83e 5ed2 cbbe
000001e0: 2f26 b03c 074d acbe bcfd 41be c94b c0be
000001f0: 8c75 fabe 6c42 b0be ac2c ffbe 30d1 90bd
00000200: b35d 1f3e cab1 aabe d383 82be 7098 7dbe
00000210: 14c2 9abe b5a2 3f3e aca1 90be 78db 1f3e
00000220: f4d6 b33e a4bc dc3e 7c34 7c3e 564e b73d
00000230: 2c22 47bc 6874 053f c42a 813d 9a44 893d
00000240: a558 703d 48cc cb3e 47a3 59be 6760 fb3e
00000250: ec6f c6be 8035 c6bc f01c e7be 0055 22bb
00000260: b4d2 2bbe 2450 163f 472a 4d3e fe72 573d
00000270: c06f 62bd 00ae d0bc 00de 61bd ca5f e4be
00000280: 0653 db3e 0bf5 f83e ea2a 72bd 99d9 aabe
00000290: 833e 813e 3f36 b6bc 4840 483e 8223 90be
000002a0: d4b4 0f3e dd04 99be ba60 99be 3d61 8fbe
000002b0: e856 31be 62e0 89be 0e7d d7be 2824 bd3d
000002c0: e0ff f0be 623b bfbd 9d6b d33e 343b c23e
000002d0: b93c dc3e dd93 ee3c 51da 32be e1ae fb3d
000002e0: f22f f03c d9d8 063e e184 cc3d 3f46 273e
000002f0: 6f3d 433e 3370 f0bc 1671 833e 8b2a a83e
00000300: 2230 803e 6576 eebe 7a81 e83e 73de aabe
00000310: f7f0 e23e ad17 e73e 543e 87be fe60 a63d
00000320: 6805 c4be 01aa c03e e6de 3cbe 48ec b6be
00000330: b51d c43e 3283 f7bd b711 c13e 321b c93e
00000340: 89c6 aa3e c44f 8abe 0b96 a3be 0fda 29be
00000350: b489 7cbe f826 1a3e 6267 b7be 4ba5 e13d
00000360: 2022 b83e b8b8 e13e ec26 c4be f0ac fabe
00000370: bd5e 79bd eeb8 8e3e d76a d83d dfcc d6be
00000380: e5eb b63d 076c 46be 3752 3a3e f45b 71bd
00000390: 4db8 633d 06c2 c7be cdcb f0bc f93d b53e
000003a0: a047 2bbd 2e9f 87be 5609 ccbe aa3d e0be
000003b0: 0d91 203e 99c0 923e 58df fe3e cc8b a9be
000003c0: 0591 d83e edee 09be f541 f83e 1516 5dbd
000003d0: 1ada f03e fdf5 d6be a399 d23e c6c9 ce3d
000003e0: ab60 d23e cef0 b53e 64d3 fabe 6536 e43e
000003f0: bab4 00bf 00e2 9e3e 8a61 23be ca86 d8bc
-0.18809628 -0.22986591 -0.38821906 -0.39880955 -0.31232846 -0.48192942 -0.16833824 -0.4153806
0.086661756 -0.5017199 -0.24882948 0.05251267 0.3755445 0.054466378 -0.004119672 0.4811033
0.108796425 -0.010123143 -0.40160322 0.26626533 -0.23663056 -0.13156271 0.0034660697 0.40887862
-0.035000484 0.34069976 -0.02339484 -0.41498265 -0.4790335 0.34996372 -0.18368658 -0.5176845
-0.16400008 -0.2097479 0.41994104 0.12491709 -0.09586048 -0.042440176 -0.096933484 -0.47276795
0.4363631 -0.00022055369 -0.31186903 -0.47812572 -0.45105562 0.03904879 0.060806572 0.017611146
0.23501293 0.008194344 -0.05696445 -0.25677195 -0.10254872 -0.21002579 -0.1622451 -0.36669075
-0.0120243905 0.33994892 -0.08731131 0.24196187 0.058500953 0.37887675 -0.13877986 0.38664865
0.13210928 0.17441483 -0.3915104 0.42826796 0.1761972 0.15496567 -0.28062302 -0.047818054
0.13885964 -0.107838795 -0.23186158 -0.44418085 -0.050597608 -0.17300117 -0.3312332 0.073305905
-0.19256787 -0.22058743 0.13136509 0.36534595 -0.11776187 0.2714501 -0.3415669 0.09108072
0.4845898 -0.27492145 -0.2750269 -0.27994373 0.13094343 0.18511912 -0.4699238 -0.38086408
-0.3968126 0.4728675 -0.3719091 -0.3547238 0.22436893 0.025835872 -0.3526221 0.2675916
0.08879282 0.29636133 0.05157935 0.27026013 0.24129105 -0.22038265 -0.23498842 -0.36044177
-0.024946928 -0.4681979 0.03404385 0.39991373 0.14867355 0.038012363 0.36079916 -0.39808935
0.021502582 -0.33652517 -0.18944448 -0.3755782 -0.48917806 -0.34425676 -0.4983877 -0.07071149
0.15563087 -0.33338767 -0.254912 -0.24765182 -0.30226195 0.18714412 -0.28248346 0.15611064
0.35124934 0.4311267 0.24629396 0.08950488 -0.012154143 0.52130747 0.06306985 0.06702538
0.058678288 0.39804292 -0.21253692 0.49096987 -0.38757265 -0.024195433 -0.45139265 -0.0024769902
-0.16779596 0.58716035 0.20035659 0.0525999 -0.055282354 -0.025473595 -0.055143356 -0.4460433
0.4283678 0.48624453 -0.059122957 -0.3336914 0.25243005 -0.022242663 0.19555771 -0.2815209
0.14033824 -0.29886523 -0.2995661 -0.28003874 -0.17318308 -0.26929003 -0.42087597 0.09235412
-0.47070217 -0.09337498 0.4129304 0.37935793 0.43015078 0.029123241 -0.17466094 0.12289215
0.029319737 0.13168658 0.09986282 0.1633539 0.19066404 -0.029350376 0.25672215 0.32844958
0.25036722 -0.46574703 0.45411283 -0.3337284 0.44324467 0.4513525 -0.2641474 0.081239685
-0.38285375 0.37629703 -0.18444404 -0.35727143 0.38303915 -0.120855704 0.37708828 0.3927856
0.33354595 -0.2701398 -0.3195041 -0.16587089 -0.24661905 0.15053928 -0.35821062 0.11017855
0.35963535 0.44086242 -0.38310945 -0.48960066 -0.060881365 0.27875465 0.10567253 -0.4195318
0.08931712 -0.19377147 0.18195425 -0.058925584 0.055595685 -0.39015216 -0.029394055 0.35398844
-0.041816354 -0.26488632 -0.39850873 -0.43797046 0.15680332 0.28662565 0.49779773 -0.3311447
0.4229814 -0.13470049 0.4848782 -0.053976137 0.47041398 -0.4198455 0.4113284 0.10097079
0.41089377 0.35535282 -0.48989403 0.4457275 -0.50275767 0.310318 -0.15955177 -0.02643146

bias f4 [256]
00000000: 6808 193e bed0 a6be 1bfc f73e 6272 703d
00000010: 0d61 dbbe 4464 5f3e 8e1b 383e fa55 b43e
00000020: bfae f3be 4174 cfbe 1503 b0be a0c9 83bc
00000030: 78c6 6d3e 8e5c f63e df84 583d ab1d 073f
00000040: 68a0 01bf 569e eebe 1470 bdbe 20c1 1a3e
00000050: 4a44 963c 4598 b8be a3fd d9bd d72d 933e
00000060: 77e9 98be 4c3d fcbd dd67 6f3e 46b6 bbbe
00000070: 00ce 2ebb 8aae e2be fba4 7f3e 920c bb3e
00000080: cacc ad3e 7190 d33e 6fc3 56be 6df0 753e
00000090: cd52 90bc 5a78 c23e 2930 133f 7a14 9cbe
000000a0: 778e c13c d87e bcbe 592a 253e 7865 afbd
000000b0: a4be a43e 1927 6abe 68e4 b23e 16df d53e
000000c0: ee79 6bbe b2a6 bb3d 26a3 30be 6853 c03e
000000d0: 771f da3e 7001 5abe cd2c c1be d219 163e
000000e0: 1a58 69be 273d b93e 00c5 dd3b b2ae 04be
000000f0: 3d86 15be 3ff7 703e 6f48 d5be 0d9e 9d3e
00000100: b0ce 9f3c af76 343d 4c7c a0be eceb d83d
00000110: 3681 b03e ac5e 9fbe 4f80 963e 3e1b ffbe
00000120: 10be a4be b09d 093e 8c97 7d3d 7038 d53e
00000130: d590 ce3e 43f4 51bc a23f d93e 340a ebbe
00000140: 7fb5 22be 00d9 debe 21bd 773e c327 763d
00000150: cbf3 093f 4230 e9bd 7f71 913e d361 f03e
00000160: 4e1c ae3d a748 343e adb6 113e be20 933d
00000170: 0f2a b43d eac5 e7be cfdb b2be d456 13be
00000180: 54a9 ccbe 0a1d f83e df91 bd3e 23e6 f23e
00000190: 7e93 63be dd2e a73e bcb4 07be 3851 07bf
000001a0: f9c1 9fbe dd24 c0be 328b 9dbd 4f51 aa3e
000001b0: 3956 d3be 0f7c cabe f4b4 d73d 741f 2eba
000001c0: 6e3c e8be 507a fd3d ca9c babe 0bd1 0f3d
000001d0: f9c9 33be 7d84 e7be 3e9e e43e a82a 0b3c
000001e0: 1a83 a9be 8f9c d6bd 9190 07be 8c43 c6be
000001f0: f45d 123e b073 283d 0f38 bbbe b5b9 ef3e
00000200: 3c75 b73e 8d83 f03e 9b69 e4be 3250 d7be
00000210: fd64 923d 9702 c43e 1c0d 833e 27a1 a0be
00000220: 244a 4dbe d4af 96be a0d8 a5be 0cc0 fb3e
00000230: 986c 4e3e b151 d9bd 8cb8 09be dff4 f33d
00000240: c2a0 3cbe c691 cabd 81fb 833e 660e 8b3e
00000250: cde8 16be 6ca5 9c3c 50ab ab3e 06bf 87be
00000260: f2f9 c9be 34b1 56be 62cd debd d973 873e
00000270: 7e95 033f 6233 c7be 26f5 00bf b4a0 d63e
00000280: 2e2a 11bd 1ee0 85be c3c4 dc3e 65d5 78be
00000290: 206d 01bf 1e17 adbe 52db 75be e966 f23c
000002a0: 9d31 adbe 1075 68be 02fe bc3e c22b 71be
000002b0: 13d0 6ebe 8557 463e 8701 ff3d c627 fb3e
000002c0: 48fa b0bd 30da 863e 2a63 d83e fa60 cc3e
000002d0: 954c a13e 1b55 22bd 2b2c 4cbe 49cd 0dbd
000002e0: b237 ecbd e140 d93e c3b8 b93e b6ff 4e3e
000002f0: 222b 9d3e 0a27 b33e 601c 9bbe ee6b adbe
00000300: 3b2a ec3e ade2 c73e f4b0 de3e 4470 173e
00000310: bb9e d53e b679 313e 45e6 7a3d 4862 3b3d
00000320: d656 883e da8d dfbc 0902 63be a81e 933e
00000330: 5e46 ebbe b022 58be 106c 283e 7ac0 d7bc
00000340: 4d1f c73e 9345 093f 12dd 813e 8ec5 983e
00000350: 8044 37be 35cc 893e ecba 08be 7c47 4c3e
00000360: 32c1 f6bd bcd8 36bd 6081 a2bd 88ca 84be
00000370: ec10 c13e 178d 973e fcd5 7e3e 5007 113e
00000380: b4a7 8d3e 2590 3b3e c722 81bc 1270 903e
00000390: 0175 8ebe 04e4 2fbe 368a b8be 2ab2 38be
000003a0: 4633 b4bd 8a55 ccbe 143d 783e 4db3 e7bd
000003b0: b532 5e3e acb7 b53e 00ee f2bc 9cf2 dabe
000003c0: 9a45 a33e b277 bebe c89e a6bd 5c71 bd3e
000003d0: 2e83 973e 4f76 ecbd c1a9 ab3d 6fa1 b43e
000003e0: 2a8d 6f3e 2e20 bc3e ee9c cebe 3c0e 553d
000003f0: e122 e9be fcc0 d6be e489 0c3f efc2 4f3e
0.14944613 -0.32581133 0.4843453 0.058702834 -0.4284748 0.21815592 0.17979261 0.35221845
-0.47594258 -0.40518382 -0.3437735 -0.016087353 0.23220241 0.4811749 0.05286109 0.52779645
-0.50635386 -0.46605176 -0.3699957 0.15112734 0.01834311 -0.36053672 -0.106440805 0.2874591
-0.2986562 -0.12316379 0.23379464 -0.366625 -0.0026673079 -0.44273788 0.24965279 0.36533028
0.33945304 0.41321138 -0.2097299 0.24017496 -0.017617607 0.37982446 0.5749536 -0.30484372
0.023627503 -0.36815524 0.16129436 -0.085642755 0.32176697 -0.22866477 0.34939885 0.41771764
-0.22995731 0.09162654 -0.17249736 0.37563634 0.4260213 -0.21289611 -0.37729493 0.14658287
-0.22787514 0.36179468 0.006767869 -0.12957266 -0.14601989 0.23531817 -0.41656825 0.30784646
0.019507736 0.044058498 -0.3134483 0.105918735 0.3447358 -0.31126916 0.29394767 -0.49825472
-0.32176256 0.1343906 0.061912104 0.4164462 0.40344873 -0.012814584 0.4243136 -0.45906222
-0.15889548 -0.43524933 0.2419324 0.060096513 0.53887624 -0.113861576 0.28406903 0.46949634
0.085014924 0.1760584 0.14229842 0.071839795 0.087970845 -0.45268184 -0.34933326 -0.14388591
-0.39972937 0.48459655 0.37025353 0.47441205 -0.22224233 0.3265294 -0.13252538 -0.52858305
-0.31202677 -0.37528124 -0.07692565 0.3326516 -0.4127672 -0.39547774 0.10532561 -0.000664226
-0.45358604 0.12376845 -0.36447746 0.03511147 -0.17557515 -0.45218268 0.4465198 0.008494057
-0.33107835 -0.1047908 -0.13238741 -0.3872341 0.14293653 0.041125953 -0.36566207 0.4682137
0.3583163 0.46975365 -0.4461182 -0.42053372 0.07148168 0.38283226 0.2559594 -0.3137295
-0.20047814 -0.2943102 -0.32391834 0.49169958 0.20158613 -0.106112845 -0.13449305 0.1191194
-0.18420699 -0.09891085 0.2577782 0.27159423 -0.14737244 0.019121848 0.3352914 -0.26512927
-0.39448506 -0.20966035 -0.108790174 0.26455572 0.5139998 -0.3890639 -0.50374067 0.41919482
-0.035440616 -0.2614755 0.43118867 -0.24300154 -0.50557137 -0.338067 -0.24009445 0.029590087
-0.33826914 -0.22700906 0.36912543 -0.23551849 -0.23321562 0.19369324 0.12451463 0.49053782
-0.08641487 0.2633834 0.42263156 0.39917737 0.3150374 -0.039631944 -0.19938724 -0.034619603
-0.115340605 0.4243231 0.36273775 0.20214733 0.3069697 0.34990722 -0.30295086 -0.33871406
0.4612597 0.39040127 0.4349438 0.1478892 0.41722664 0.17331585 0.06125476 0.045748025
0.2662875 -0.02728932 -0.22168745 0.28734326 -0.45952123 -0.21106982 0.16447473 -0.026336897
0.38891068 0.53621787 0.25363976 0.29838222 -0.17897224 0.2691361 -0.13352555 0.19949144
-0.12048568 -0.044640288 -0.079348326 -0.2593577 0.37708223 0.2959983 0.24886316 0.14162946
0.2766701 0.18316706 -0.015763653 0.28210503 -0.27823642 -0.17176825 -0.36042947 -0.18036714
-0.08798842 -0.3990901 0.2424205 -0.11313496 0.2169903 0.35491693 -0.029654503 -0.4276322
0.3188904 -0.37200695 -0.08135754 0.3700055 0.2959227 -0.11546003 0.08381987 0.35279414
0.23393694 0.367433 -0.40354103 0.052015528 -0.45534423 -0.4194411 0.54897904 0.20289205

weight f4 [256, 256]
00000000: 1aec 2cbd 80f7 e43c e49a f93c a337 63bd
00000010: d854 3e3c 50de cb3b 3301 64bd da9e 5abd
00000020: 254d 07bd 4c66 f9bc b0ab b9bc d8f3 4ebc
00000030: 5ea5 263d b2a1 2b3d 54f6 0f3d 60f3 cb3c
00000040: 0864 bd3c 2326 e8bb e5a3 043d c8d6 0abd
00000050: f8e4 0f3d fbee 62bd d223 653c c610 9c3c
00000060: 4d21 103d bf83 29bd a226 ea3c 2951 c9bb
00000070: 00d7 4bba 14f8 fdbb 3016 93bb b8af 2ebd
00000080: dfec b13c 34d3 f3bc 9c37 ffbb 9f85 bd3c
00000090: 24f7 0c3c a41c 803c d95a dd3c 1039 da3b
000000a0: 4d37 9d3c 9a7c 673d 5438 05bc fef4 783d
000000b0: 20aa 39bd 29fb 4ebd 9293 e23c b70d 2fbd
000000c0: 7c5c 093c f8a3 b0bc f50a 0bbc 574d a7bc
000000d0: 5289 d2bc 00db 4eba fb84 63bd d52b 1e3d
000000e0: 199f 42bd ddca 0dbd 6423 4cbd b86f c03c
000000f0: a2cc 5fbd 0fe7 a0bc 0b8f 6cbc f96c 4ebd
00000100: 5eef a23a fec2 93bc b6d9 263d e6a0 91bd
00000110: eaa9 5d3d 518b c1bc ca86 643d 808c 9e3a
00000120: 33ab e9bc c0d0 a13c fe4a a73c d396 efbc
00000130: 389e f53c 9ef4 05bd 77a2 aabc 029a 5bbd
00000140: 51fa 543d 0705 383d c04d 4b3d fc98 013d
00000150: 1088 4d3d 7840 32bc 22f6 56bd 281b 39bd
00000160: fa22 7b3d 4de2 0dbd e962 45bb 258b 1e3c
00000170: d163 523c f592 853d 80c5 4f3b 76a3 04bd
00000180: e8ce 33bc 6437 7bbd f357 e13c 65be 8abd
00000190: aef3 2dbb fa79 50bd 960f 2a3d 96ef a63c
000001a0: 9c37 ffbc bf81 3a3d 64c0 79bd 0b51 6ebd
000001b0: 17ce 363d fec9 af3c 4fb1 2abd 15c6 163d
000001c0: fa65 643d 4fc8 3b3d a2b8 213d 4a2a 693b
000001d0: bbea 6abd 3d9e 163d 8066 68bb 2096 34bd
000001e0: de6a 1dbd a10b c9bc 352c 133c 3041 fe3b
000001f0: 9058 3eba b4b9 26bd 5393 fa3c e582 163c
00000200: f44d 043c 3a9a 54bd 5ed5 9ebc 8018 3ebc
00000210: 5079 443d 6d3f 183d 79e1 c5bc f9e0 dc3c
00000220: 102f b0bc 8a4a 6d3d 99dc 573d aec2 18bd
00000230: 5285 08bd b995 db3c 2338 653d 2a01 e73c
00000240: 43d1 e5bc ff8b b1bc 5d26 05bd 452c 8dbd
00000250: 989b 34bd a0e0 4b3d fc84 fcbc 0c65 493d
00000260: e0e9 34bb a495 493d 84c7 093d de26 003d
00000270: 50cc 32bd 6597 1dbc 1005 35bd 258a 81bd
00000280: 84bf 823c d678 a63c f229 58bd dee0 1a3c
00000290: 8416 813b 513a c2bc fa7f e83b 7964 5e3d
000002a0: ab69 80ba dcc7 19bd c856 393d fad4 5ebd
000002b0: 6e38 2e3d 8279 e43c b90f 503c 5a54 5cbd
000002c0: 8238 6f3d b37e 66bd 3a16 ea3c 7046 4e3d
000002d0: b88f 433c 1009 453c eb1e 7a3c b3bf 703a
000002e0: 6daf 163b b866 4e3d 4827 c43b 9b91 f03c
000002f0: f2cb 56bd 4441 93bc 1680 46bd 020f 633d
00000300: 6afc ec3b 8824 39bd 2d4d 04bc 0de3 103d
00000310: 9de1 04bd 31f3 c4bc 8e16 17bd b68b 1abd
00000320: a811 453d 07c0 b63c 5d3d 163c 40cf e83c
00000330: d439 72bd d8cb 4f3c dbe7 6bbb 383a b73c
00000340: 089d 403d b092 b9bc 41e0 d63c bdcb 04bc
00000350: c800 2b3c 3036 3e3d cb82 edbc eb79 6fb9
00000360: a01c 423d ca46 debc 8055 133b 447c 083d
00000370: 8627 13bd b315 ebbc 6a8a e6bc eac7 623d
00000380: a77b abbc 7bc3 e3bc 84f4 75bd 6737 adbc
00000390: 5e1f 1b3c 1596 1e3d 2f77 2fbd f89a bebb
000003a0: 8024 3cbd 065a 2e3d 5952 543d 6a78 693c
000003b0: dfc9 a2bc 079b 383d 5419 063d f02e 703d
000003c0: a45e 823c 5f10 2abc de11 17bc 803e d3bb
000003d0: 3cc9 66bd 2e9d 98bc 1f0e 3abd cd8e 1d3d
000003e0: d0da 3abd d226 37bd 60c2 913b 70d4 c63b
000003f0: 394b 5d3d ed6b 1b3d 5861 c53c bdc2 123c
-0.04221735 0.027950048 0.030469365 -0.05547298 0.011616908 0.00622157 -0.055665206 -0.05337415
-0.033032555 -0.030444287 -0.022664875 -0.012631379 0.04068505 0.04190225 0.035147026 0.024896324
0.023118988 -0.0070846244 0.032382865 -0.033896238 0.03513047 -0.05540369 0.013985591 0.019050967
0.035188008 -0.04138541 0.028582875 -0.0061437082 -0.0007775873 -0.0077505205 -0.004488729 -0.042648047
0.021719394 -0.029763795 -0.0077886116 0.023135005 0.008603845 0.015638657 0.027020859 0.0066596344
0.019191409 0.056515314 -0.008131105 0.060780518 -0.04532826 -0.050532494 0.027658258 -0.04273769
0.008383866 -0.021562561 -0.008486499 -0.02042262 -0.025700245 -0.000789091 -0.055546742 0.03861602
-0.04751501 -0.034617294 -0.04983844 0.023490772 -0.054638512 -0.019641427 -0.014438401 -0.050396893
0.0012430956 -0.018037315 0.04073497 -0.07110767 0.05411712 -0.023626002 0.055792607 0.0012096316
-0.028524017 0.01975286 0.020421501 -0.029246723 0.029982671 -0.03270399 -0.020829422 -0.05361367
0.051996533 0.04492667 0.049634695 0.031640038 0.050178587 -0.010879628 -0.052480824 -0.045191914
0.061312653 -0.034639645 -0.003011877 0.009676729 0.012841181 0.065221705 0.0031703413 -0.03238245
-0.010974623 -0.06133212 0.027507758 -0.06774596 -0.002654295 -0.050897576 0.04151877 0.020377915
-0.031154446 0.04553389 -0.060974494 -0.058182757 0.044630136 0.021458622 -0.041673 0.03681
0.055761315 0.045845326 0.03948272 0.0035578185 -0.057352763 0.036772 -0.0035461485 -0.044088483
-0.038431995 -0.024541678 0.008982708 0.007759236 -0.00072611216 -0.040704444 0.030587828 0.009186481
0.008075226 -0.051904894 -0.01938885 -0.011602521 0.047967255 0.037169863 -0.024155365 0.026962744
-0.021506816 0.057932414 0.052700613 -0.037295036 -0.03333027 0.026804792 0.05596174 0.028198797
-0.028053885 -0.0216732 -0.03250729 -0.06893209 -0.0440937 0.049774766 -0.03082513 0.04916863
-0.002760522 0.049214974 0.03363754 0.031287067 -0.04365188 -0.009618615 -0.04419428 -0.06325177
0.015960462 0.020321291 -0.052774377 0.009453027 0.0039394516 -0.023709448 0.007095334 0.054295037
-0.0009797117 -0.037544116 0.045248777 -0.05440233 0.042534284 0.02788997 0.012699061 -0.05379138
0.0584035 -0.056273174 0.028575052 0.050360143 0.011936121 0.012026086 0.0152661605 0.0009183839
0.0022992746 0.05039093 0.005986128 0.029366305 -0.05244059 -0.017975457 -0.048461996 0.055434234
0.0072322385 -0.045200855 -0.008075041 0.035372782 -0.032441724 -0.024041744 -0.036886744 -0.037730895
0.04811254 0.022308363 0.009169904 0.028419137 -0.05913718 0.0126828775 -0.003599635 0.022366628
0.047024757 -0.022652954 0.02622998 -0.008105216 0.010437198 0.046438396 -0.028993031 -0.00022838234
0.04739058 -0.027133364 0.0022481382 0.033321634 -0.035926364 -0.02869687 -0.028142173 0.055366434
-0.020932985 -0.027803173 -0.06004764 -0.021144582 0.009467928 0.038717348 -0.04283827 -0.0058168136
-0.045933247 0.04256632 0.051836345 0.0142499 -0.01987165 0.04506972 0.032739 0.058638513
0.015914269 -0.01037988 -0.009220568 -0.0064466596 -0.056344256 -0.018629637 -0.045423623 0.038466264
-0.045618832 -0.044714756 0.00444822 0.006067805 0.054026816 0.037944723 0.024094269 0.008957562

bias f4 [256]
00000000: 10e3 423d ba53 6bbd 1071 e73c 70e9 7f3d
00000010: 32d9 d93c 12a5 fb3c 71b7 4fbd 3ee1 283d
00000020: 60aa 1bbd 3a1d 67bd 60fd 773d 8144 a4bd
00000030: 676f 6f3d 93b8 443d 3a96 6dbd 9ad1 8aba
00000040: 3b0e e9bc 3880 213c 009f 913c 50d3 9ebc
00000050: b07d 00bc 249b 7abc 42d9 13bd d7f9 913d
00000060: b0cb 3cbd e15b de3c 751f 2d3d a358 833d
00000070: 4d87 94bd 4a7f 53bd a121 65bd c0dd 4c3d
00000080: 428b e03c ab77 ff3c 47d0 acbc c2e9 51bd
00000090: 6129 43bd e167 43bb be58 13bd 0ce0 943c
000000a0: 8036 63bc ea10 61bd d713 a2bc 2c2b 6abd
000000b0: 7ea5 53bd b405 f6bc c27b d4bb 7636 233c
000000c0: 9e63 66bd 0831 883c 202b d5bc bbb6 393d
000000d0: 8510 02bd 64f6 f0bb 7e9d 13bd 23b1 eebc
000000e0: 3c4d febc 38bc 423d 79b6 c83c 5825 7dbd
000000f0: 08a6 17bd 2364 51bd ba59 fa3b 684f 423d
00000100: 7ec8 293d 39d7 4ebd 9458 033d 9673 aa39
00000110: 77a7 25bd 43f8 ebbb 3cce 0e3d fda7 e1bc
00000120: a428 8b3c 0861 7d3d b807 a6bc c491 fabc
00000130: 9691 253d d00b dd3b 5ae1 703d 58d7 d33c
00000140: 4c32 97bc 2624 2b3d 3ee6 8b3c 5402 873c
00000150: 83bf 1f3d f62a a73b aae2 793d 9633 243d
00000160: 80ef c83c 8928 a53d ac50 0a3d b406 11bd
00000170: 0030 743d b910 033c 16a0 613d b7b7 8bbc
00000180: 68d4 61bc 2898 7f3c 9ee5 913d 665d 32bd
00000190: ac0a f4bc e65d 98bc 4ebf 9ebb bfb3 21bd
000001a0: a138 69bc e032 a33d 9342 87bc 48cc 2bbd
000001b0: 7ef7 1dbc 08f8 b5bc 2cb3 0dbd c37b 9e3d
000001c0: 4d35 da3a 3013 483d a889 293b 6266 ef3b
000001d0: c1f4 44bd f45f 163d 692f caba cb96 90bd
000001e0: f8da 0b3d a4ca 70bb 4aef 5dbb 98bb 523d
000001f0: 0362 6abc 2a95 933d 047a 7fba 234e 11bc
00000200: e1a1 683d f6d1 1fbd a64a 3c3d 95e8 0abd
00000210: de2e 06bd 0898 373c 30b3 bebc 88ca 08bd
00000220: 3860 9c3c 1b7b 7a3c 3cb7 3c3d 7b0b dfbc
00000230: fe14 023c 0803 2dbd d763 8ebc 2247 133d
00000240: 5cad 133d ccd4 db3c 745d f7bc 0f32 21bd
00000250: 542e 6b3d 88f0 b7bc 58d8 62bc 07bd 2abd
00000260: 40b0 7cbd 37e9 233d 5127 41bb 9cdc b1bc
00000270: 89c2 6bbd 31ea d23c 2d81 0cbd ea1a 2abd
00000280: 0da6 16bb 30eb 3dbd 9296 e6bc 59f2 323a
00000290: a8e7 4b3d 98af 0bbd 3464 223d b79b 28bd
000002a0: f079 ee3b 1db7 09bd 95ac ec3c 6964 f1bc
000002b0: d8b0 3ebc e893 e5bc e9f4 8bbc 4ebe 13bd
000002c0: 8943 fbbc e29d 42bc 2a0d 19bd c0d8 a0bb
000002d0: d090 56bc 2637 93bd c620 11bd 861e a13c
000002e0: c634 96bd 67a7 793c ff82 27bd a5bb 183b
000002f0: 5f53 23bd b3d5 e4bb 06cd 9fba 0a77 573d
00000300: 0037 3bbd 865a 97bd 131b 743c be3e 03bb
00000310: e4e2 ba3c 8a4c 5abd 4034 863d a027 3cbd
00000320: 8988 523b 05f1 00bd 4a60 29bd c3d7 b13c
00000330: 972c 21bd 30c4 b7bc cb12 ad3d 8e21 223c
00000340: 3184 99bc 5902 d93c 7f1a 2dbc 5596 9f3b
00000350: a0e0 1e3d 1fc5 28bd c57c 643d 8d2e 693d
00000360: ab0d eabc 4a49 273d 4939 5a3d 042b e53c
00000370: 339e 3dba b257 893c e956 7cbd 6d22 88bc
00000380: 1cf8 9e3d bad7 50bc ddf5 883d 525b 773d
00000390: 8384 8b3d a74b 333d cc65 2bbd c161 22bd
000003a0: da55 42bb 37a3 2dbb 0a37 3dbd c0ef 493d
000003b0: ead2 193d d0fa 143d 92c0 603d 3263 f93c
000003c0: 33b3 bb3d 9aea 26bd 5217 653d 6a32 643d
000003d0: 676e 17bd 4837 39bd 0e26 233d 9778 be3b
000003e0: a90a 873d 1378 713c b058 b2bc 0012 89bd
000003f0: 8423 033c 84f5 7c3d c4b5 7b3d 806c 323d
0.047579825 -0.057452895 0.028252155 0.062478483 0.026592825 0.03071836 -0.050712053 0.041230433
-0.03800428 -0.056424357 0.06054437 -0.080208786 0.05845585 0.048027586 -0.058004595 -0.0010591031
-0.028449168 0.00985723 0.017776012 -0.019387871 -0.007842466 -0.0152957775 -0.036095865 0.07127731
-0.04609269 0.02714342 0.042266328 0.064133905 -0.07252369 -0.051635064 -0.055940274 0.050016165
0.027410153 0.031184992 -0.021095408 -0.05124832 -0.047646884 -0.0029816555 -0.035973303 0.01817324
-0.013867974 -0.05494777 -0.019784851 -0.05717008 -0.051671498 -0.030032016 -0.0064844796 0.009961715
-0.056247346 0.016624942 -0.02602154 0.04534028 -0.031754036 -0.007353591 -0.036038868 -0.0291372
-0.031042688 0.04754278 0.024501072 -0.061803192 -0.037023574 -0.05112089 0.007640091 0.04743901
0.04145097 -0.05049822 0.032066897 0.00032511045 -0.04044291 -0.007201226 0.03486465 -0.027545923
0.016987152 0.061860114 -0.020267352 -0.030587085 0.040422045 0.006745793 0.058808662 0.02585952
-0.0184566 0.04178252 0.017077561 0.016480602 0.039001 0.005101557 0.06100718 0.04008826
0.024528265 0.08064372 0.03376834 -0.035406783 0.05961609 0.007999592 0.05508431 -0.017055376
-0.013783552 0.015600242 0.07123874 -0.043546103 -0.029790245 -0.018599462 -0.0048445826 -0.03947806
-0.014234693 0.07968688 -0.016511237 -0.041942865 -0.009641526 -0.022212997 -0.0345947 0.077384494
0.0016647965 0.048846424 0.0025869403 0.007305906 -0.048084978 0.0367126 -0.0015425506 -0.070600115
0.03414437 -0.0036741877 -0.0033864551 0.051448435 -0.014305594 0.07206185 -0.000974566 -0.008868727
0.056795005 -0.039018594 0.045969628 -0.033913214 -0.03275954 0.011205681 -0.023278803 -0.033396274
0.01908885 0.01528814 0.046073183 -0.027227154 0.007939575 -0.04223922 -0.017381592 0.03595651
0.036054 0.026834868 -0.03019593 -0.03935438 0.05741723 -0.022453561 -0.013845526 -0.041684177
-0.061691523 0.040017333 -0.0029472897 -0.02171164 -0.05755857 0.025746437 -0.03430288 -0.041529574
-0.0022987158 -0.04636687 -0.02814797 0.0006826274 0.04978147 -0.034103006 0.039646342 -0.041164126
0.0072777197 -0.033621896 0.028890887 -0.029466825 -0.0116388425 -0.028024629 -0.017084556 -0.03607016
-0.030671852 -0.0118784625 -0.03736607 -0.004908651 -0.013096049 -0.07188253 -0.035431646 0.019667875
-0.073342845 0.015237666 -0.040896412 0.0023305204 -0.03987443 -0.0069834827 -0.0012191839 0.05260376
-0.04570675 -0.07390313 0.014899033 -0.002002641 0.022813268 -0.05329565 0.06552935 -0.045936227
0.0032124838 -0.031479854 -0.041351594 0.021709329 -0.039349165 -0.022432417 0.0845085 0.009895695
-0.018739792 0.026490377 -0.010565399 0.004870216 0.038788438 -0.041203614 0.055783052 0.05692916
-0.02857097 0.04084138 0.053277288 0.027974613 -0.00072333514 0.01676545 -0.06160632 -0.016617978
0.07762167 -0.012746746 0.0668752 0.060389824 0.06812384 0.04377332 -0.041845128 -0.039644007
-0.0029653222 -0.0026494989 -0.046195067 0.04930091 0.03755466 0.036372006 0.05487115 0.030442808
0.09165039 -0.040751077 0.055930443 0.05571214 -0.036970522 -0.045218736 0.039831214 0.0058127153
0.0659383 0.014738101 -0.021770805 -0.06692886 0.008004073 0.06175758 0.061452642 0.043560505

weight_mu f4 [1, 256]
00000000: dc34 0d3d 0960 463d 923d 603d a449 f3bc
00000010: 7085 7dbd cb58 bfbd 57c4 283d 07c7 a03c
00000020: 2fff 9c3c 810f 9d3d fb1d b3bd bb9e 923d
00000030: 5c10 71bd 6f5a 99bd e046 2c3d 2537 84bd
00000040: 3afe 55bd 9b29 60bd f4f5 d13c e8ed 1b3c
00000050: efa1 2bbd 6550 94bb 42e4 1c3d ba63 9ebd
00000060: d95e 543d f625 acba 4b3b 5cbd a6d6 363e
00000070: 9f4b bc3d d798 7b3c 6e9d 373c a7e6 ae3c
00000080: dcd8 fabc 440c 0a3c 91fc 5d3d a877 05bc
00000090: a745 343d f01e 453d b270 e03c 2f00 0dbd
000000a0: 6408 afbc 1ca1 38bd 29ad 423b 76c3 1fbd
000000b0: 0094 82bb 45f0 163d 95a5 113c 54f7 fabc
000000c0: f2c8 6abd 70f6 763c 1842 003d ed09 5abd
000000d0: e75f b93c 6a5d 61bd 5e49 2d3d 1dcf 9ebc
000000e0: 952f 143d dac1 7abd 872a c6bc 7d83 bc3c
000000f0: 560c 17bd 9cde 04bd 13e9 69bd 814b 5b3d
00000100: dfc7 333d 34a1 0c3d 60a0 6f3b cfbf 323d
00000110: 5a96 6abd fe41 1abd 4591 91bc e1ef 15bd
00000120: ba00 dfbb e825 52bd e949 72bd dc02 f4bb
00000130: 8464 0d3d 1c5f 503d ca74 44bc 3c0b febc
00000140: 8328 653b 2e7d 2e3d 8588 6ebd db4c 92bd
00000150: 9070 83bd d998 db3c 80be 6a3b 62d6 6d3d
00000160: 3d34 173d 1efd 9abd 2010 45bd da51 2a3d
00000170: 047b 97bc e760 d3bc 140f 1f3d daed b3bb
00000180: d0df 353d 381f 2f3c d1b3 0bbd 7437 a0bc
00000190: 897d d8bc d0fb 413c 550c 85bd dada 69bd
000001a0: e155 77bd d9a8 9dbd 2f9f 9ebc e87d 1bbd
000001b0: 6ab8 6f3d 3b6c 7d3d e00b cbbb 4858 57bd
000001c0: 5d4b debc 0705 383d c06c 243d 961d 173d
000001d0: 363c 603d 9f2d ccbc be32 9dbd bdb4 8c3d
000001e0: c06a 10bc 003b 4b3d f760 373d ac26 4f3d
000001f0: fef8 233d 030e 45bd 3cb4 1b3d c9ad 0cbd
00000200: 8994 01bd 9631 20bd e699 4cbd f4f2 8e3c
00000210: 148b 703d aa76 063d 17bb 353d fe44 9a3d
00000220: a07b 4e3d d803 463b bb0c 11bd 6493 a5bd
00000230: 6cc7 97bd b4e5 2dbd 9b62 523d 3445 e3bc
00000240: c1b1 dc3c 461f 91bd 7b9e fe3c 3141 513d
00000250: ec2a 31bd cce0 dfbc 3249 8b3d a267 db3c
00000260: 0b6d 833d 94a5 1e3e 949d 8a3d 86a7 123d
00000270: 5883 143e 2291 6b3d e5b6 1ebd 781d 6a3c
00000280: 2e08 e43b acd0 053b e19a 31bd bf72 d0bd
00000290: 74e9 013d 382d 1fbd 2203 27bd 71e3 503d
000002a0: 80fc ab3c 13c9 70bc 12d5 bfbd 5f9f eabb
000002b0: 257a 0c3d c6e1 7b3d 92ce 493d 64cf 033d
000002c0: e470 723d 51e0 ecbc 1f11 3d3a 7ef2 573d
000002d0: b8ba b4bc 3aef 633d 2be3 6b3d 75ed 913d
000002e0: aa5a 6f3d c8c7 62bd 6365 af3a a146 d43c
000002f0: 3d7b 073d b2f0 6c3d e61b a3bb b4ac 24bd
00000300: e615 243d cf35 303d 0663 203d 0c6a 12bd
00000310: 0861 173c 34d8 f6bc db59 03bd c6ce a63c
00000320: c731 a3bb d295 6b3d 1434 32bd 1ee3 9dbc
00000330: 960a 2f3d 7c48 843b ec57 88bd 7634 8ebd
00000340: de1d 9abd b209 ed3b d75b af3c 870f 303d
00000350: 20c8 cabc d1e1 563d 2437 a8bd a6df 49bd
00000360: 67c2 94bd 6e35 09bd f475 0e3d f83d 953c
00000370: b81a 6e3d c4d1 02bd 781a 723c 4a98 c6bc
00000380: 6973 62bd 66a0 283d 0227 2cbd 4c00 5d3d
00000390: f11a 52bd aa8f e23c 502f 9b3c 6373 63bd
000003a0: c14d 37bd 35e1 12bd dc85 1a3d 09ee d83b
000003b0: 08f9 b7bd 6309 0fbd 88eb 9a3c 14ad 99bd
000003c0: 440c b4bd abee 0bbd 9e9d a03c a022 413d
000003d0: a5ab 3bbd ed39 1b3d 390c 5b3d ee0f 223d
000003e0: 0b57 ee3d 9c4b 04bd 7144 5e3d ae61 183c
000003f0: 4ec9 263b a257 723d 98d1 b1bd 7849 6a3d
0.03447424 0.04843143 0.054746218 -0.0296982 -0.061894834 -0.09343108 0.04120287 0.019626154
0.01916465 0.07668973 -0.08745953 0.07159182 -0.058853492 -0.07487952 0.04205978 -0.064558305
-0.052244402 -0.054727178 0.025629975 0.0095171705 -0.04190248 -0.0045261853 0.03830362 -0.07733865
0.051848266 -0.0013133872 -0.053767484 0.1785532 0.09194111 0.015356264 0.011206968 0.021350218
-0.030620985 0.008425776 0.054195944 -0.008146204 0.04401174 0.048125207 0.027397487 -0.034424003
-0.021366306 -0.04507552 0.0029705262 -0.039004765 -0.003984928 0.036850233 0.0088895755 -0.030635513
-0.057320543 0.015073404 0.031313032 -0.053232122 0.022628738 -0.055020727 0.042306297 -0.019385869
0.03617819 -0.061220028 -0.0241902 0.023011917 -0.036877 -0.03243886 -0.057107043 0.053538803
0.043891784 0.034333423 0.0036564097 0.043639954 -0.057272293 -0.03766059 -0.017769465 -0.03660572
-0.0068055065 -0.05130568 -0.059152517 -0.00744663 0.034519687 0.050871953 -0.011990735 -0.031011216
0.0034966774 0.04259985 -0.058235664 -0.07143565 -0.06417954 0.026806282 0.0035819113 0.05806578
0.036915053 -0.075678095 -0.04811108 0.041581966 -0.018491276 -0.025803043 0.03883274 -0.0054910006
0.044402897 0.0106885955 -0.034107033 -0.019557692 -0.026427047 0.011839822 -0.06496493 -0.05709348
-0.060384635 -0.07698221 -0.019363014 -0.03796187 0.05852548 0.061870795 -0.006196484 -0.052574426
-0.027135545 0.04492667 0.040142775 0.03689345 0.05474492 -0.024924098 -0.07675694 0.068704106
-0.008814514 0.049616814 0.044770207 0.05057399 0.04003238 -0.048109066 0.03801368 -0.034345422
-0.031635795 -0.03910979 -0.049951456 0.017449833 0.058726385 0.03282801 0.044367876 0.075326905
0.050410867 0.0030214693 -0.03541253 -0.08084753 -0.074110836 -0.04245539 0.05136357 -0.02774296
0.026940228 -0.07086043 0.031081429 0.051087562 -0.043253824 -0.027328871 0.0680107 0.026782814
0.06417283 0.1549285 0.06768337 0.035804294 0.14503229 0.057511456 -0.03874864 0.014289252
0.006958983 0.0020418568 -0.043360595 -0.10178136 0.03171678 -0.038861483 -0.040774472 0.050998155
0.020994425 -0.014696377 -0.09366812 -0.007160112 0.034296174 0.06149461 0.049269266 0.032180205
0.059189692 -0.028915556 0.0007212329 0.052721493 -0.02206169 0.055648066 0.05758969 0.071253695
0.058436073 -0.055366307 0.0013381656 0.025912585 0.033076514 0.057846732 -0.004977691 -0.040203765
0.040059946 0.043020066 0.039156936 -0.035745665 0.009239443 -0.03013239 -0.032068115 0.02036227
-0.004980299 0.057515927 -0.043506697 -0.019273337 0.042734705 0.004036961 -0.06657395 -0.069436
-0.07525228 0.007233822 0.021406097 0.042983558 -0.02475363 0.05246145 -0.08213642 -0.049285553
-0.07263642 -0.03349822 0.034780458 0.018218026 0.05813095 -0.03193833 0.014776818 -0.024242539
-0.055285845 0.041168593 -0.04202939 0.05395536 -0.051295225 0.027656395 0.018943459 -0.055529963
-0.044751886 -0.035859305 0.037725314 0.006620173 -0.08983046 -0.03492106 0.018911138 -0.07503715
-0.08791402 -0.03416316 0.019606408 0.04715216 -0.04581799 0.03789704 0.053478453 0.039565973
0.11637696 -0.03229867 0.05426449 0.009300632 0.0025449577 0.059165604 -0.08682555 0.05719897

weight_sigma f4 [1, 256]
00000000: 5b29 f83c 0000 003d aef2 2e3a de56 493a
00000010: 0000 003d f5dd 2db9 a221 ef3c c15c d53c
00000020: 3a8c 39b9 801b b33b 798a 8d37 2045 953b
00000030: 0e04 673a 9193 03b9 0000 003d 97d4 d1b8
00000040: 5048 47ba 0000 003d 0000 003d 0000 003d
00000050: 0000 003d 4bfa f03c 0000 003d 2892 0b3a
00000060: 23ae fb3c 78c4 ce3c cc03 f5b9 25b2 943a
00000070: 6ecb fb39 396a d1ba f2e7 3e3c 92a8 eb3c
00000080: 55f6 0f3d 4b20 f33c 8d7b 023d 0000 003d
00000090: 8361 e83c b51b 033d 2bb6 ff3c 1d68 38ba
000000a0: 0000 003d 0000 003d 8b5a fb3c 0000 003d
000000b0: 0000 003d e07d b73c 3a3b e83c 1309 f73c
000000c0: 0000 003d 0000 003d 0000 003d 0aa3 193a
000000d0: e31d 003d 137f f43c cb2e fb3c a2d6 ee3c
000000e0: 9d45 053d 0000 003d f4ba 92ba 57fe b23c
000000f0: 0000 003d 0d9a 7938 92f4 aab9 253f 013d
00000100: 5bd1 f53c 332d fe3c 0000 003d f4e8 ff3c
00000110: 5ab0 ee3c 0000 003d 75fe 0a3d b98c f739
00000120: 513b df3c 21a9 84b7 55b4 a039 211d dd3c
00000130: 8a5d ee3c 0000 003d 6ea2 ceb8 0000 003d
00000140: 0000 003d bcc2 f93c 6d52 a43a 9a76 8c38
00000150: 0075 4539 e4f3 ff3c 0000 003d d980 df3c
00000160: 7ba3 003d 5194 9739 0000 003d 0000 003d
00000170: 5e85 03ba 14de 393b 0000 003d 8244 913a
00000180: 0000 003d 0000 003d 627e 413a 0000 003d
00000190: bd2a 0a3d aacf e83c 9ee0 5e38 ab80 f13c
000001a0: 3766 db39 ee75 da38 3ebb deb9 0000 003d
000001b0: 154d 0d3d 9b1d fb3c 0000 003d 8405 aa3a
000001c0: 7b40 073a c33a fc3c 5346 613a ba68 ef3c
000001d0: 0000 003d 3d5d 09ba a49a ddba 328c 243b
000001e0: 0000 003d 63d4 fe3c 2343 f83c 0000 003d
000001f0: 45e5 033d 920f d9b9 0000 003d ea5d 3b39
00000200: 82ef cbba 0000 003d c3df 103a ca48 e63c
00000210: 0000 003d 0000 003d 5bb3 fa3c 1a18 1d3b
00000220: 0000 003d cacc e93c 2cd8 2c39 29d5 0cb9
00000230: 6100 a9b8 ea80 2339 81ff b43b 0cf5 c73b
00000240: a1a0 de39 114a f7b8 4d0d 0b3d a54c 053d
00000250: 0000 003d f344 3c3a 5a2c 103c a471 033d
00000260: 3146 96ba e3bd a539 802f 4f3c 0000 003d
00000270: 560c 5039 ad02 063d 4df4 0a3d 0000 003d
00000280: d8d7 693b b2b7 e93c 3123 04ba 7884 3ab9
00000290: 7050 c33c 619a 503a 0000 003d 3b72 fc3c
000002a0: 0000 003d f3eb f23c d55b 01b9 c363 253c
000002b0: ec5f 043d 0000 003d 2092 6aba 513b df3c
000002c0: ff87 af3a 7997 0fba 4d63 163c 0000 003d
000002d0: 0000 003d ef16 253c 2ad1 ee3c 2134 d53c
000002e0: 007b b83c 3c54 c7b9 101c e839 ad6c 053d
000002f0: faf1 ee3c cd4b 0b3d c25c ee3c c419 94b9
00000300: 2b84 ff3c 12cc e33c 6db7 043d ccb7 f33b
00000310: 0000 003d 0000 003d 3343 0f3c 8439 f73c
00000320: a34a fd3c 1b35 f53c 0000 003d e89b 673c
00000330: 669f 243c b1f6 d23c 866e 1cba 3a22 d9b8
00000340: 96ed 6739 c2c0 ee3c 4ba6 fe3c 4f77 233d
00000350: b218 86ba d30d f13c 08fc 203a f529 2d3a
00000360: 48aa 16b9 0000 003d e596 023d 0000 003d
00000370: ccd3 7bb9 92c6 05ba ffd6 a1ba fbb6 fc3c
00000380: 9c71 3aba 0a50 ea3c 8dbe 24ba 0000 003d
00000390: 9cd7 5b3a 73fb fe3c 0000 003d 7b88 893c
000003a0: 8cd6 90b9 c3d6 e23c 0000 003d 52ff e83c
000003b0: 30d1 da38 5037 d3b9 0000 003d c587 eeb9
000003c0: 998c 8839 d2ab e1b9 3d04 063d b389 003d
000003d0: 11c7 543a 61f8 df3c d915 dc3c 647e 043d
000003e0: 5b32 4dba d3e2 f33c 7b32 f73c 20c0 81ba
000003f0: 831b fc3c 0000 003d 1538 0939 0000 003d
0.030293157 0.03125 0.00066737353 0.0007680486 0.03125 -0.00016581251 0.029190842 0.026045205
-0.00017695213 0.0054659247 1.6872991e-05 0.0045553595 0.0008812555 -0.00012548106 0.03125 -0.000100054946
-0.0007602023 0.03125 0.03125 0.03125 0.03125 0.029416224 0.03125 0.0005324208
0.030722683 0.025240168 -0.0004673287 0.0011344595 0.00048026018 -0.0015977091 0.01165198 0.028766904
0.03514703 0.029678484 0.03185611 0.03125 0.02836681 0.032008845 0.031214794 -0.0007034557
0.03125 0.03125 0.030682823 0.03125 0.03125 0.022398889 0.028348554 0.030155694
0.03125 0.03125 0.03125 0.00058607815 0.031278502 0.02984575 0.030661961 0.02915508
0.03253709 0.03125 -0.0011194632 0.021849794 0.03125 5.9509697e-05 -0.00032607146 0.03155436
0.030007055 0.031027412 0.03125 0.03123901 0.029136825 0.03125 0.033934075 0.00047216358
0.027249964 -1.5814383e-05 0.00030651936 0.026991429 0.029097337 0.03125 -9.8531e-05 0.03125
0.03125 0.030488364 0.0012536772 6.6978115e-05 0.0001883097 0.031244226 0.03125 0.027283119
0.031405907 0.0002891147 0.03125 0.03125 -0.00050171267 0.0028361129 0.03125 0.0011083039
0.03125 0.03125 0.0007381198 0.03125 0.033732165 0.028419334 5.3138116e-05 0.029480299
0.0004184709 0.00010417016 -0.00042482646 0.03125 0.03449734 0.030653765 0.03125 0.0012971614
0.00051594496 0.030789739 0.0008593548 0.029224742 0.03125 -0.0005240029 -0.0016907048 0.0025107977
0.03125 0.031107133 0.03030545 0.03125 0.03220107 -0.00041401066 0.03125 0.00017868695
-0.001555905 0.03125 0.0005526507 0.02811088 0.03125 0.03125 0.030603101 0.0023970664
0.03125 0.028540034 0.00016483729 -0.00013430849 -8.0586186e-05 0.00015592916 0.0055236225 0.00610221
0.00042462818 -0.00011791674 0.03394823 0.032543797 0.03125 0.0007181905 0.008799637 0.032090798
-0.001146501 0.0003161273 0.012645602 0.03125 0.00019841021 0.032717396 0.03392439 0.03125
0.0035681631 0.028529976 -0.00050406443 -0.00017787691 0.023842067 0.00079575746 0.03125 0.030816188
0.03125 0.029653525 -0.00012336609 0.010094586 0.03231804 0.03125 -0.0008948166 0.027249964
0.001339197 -0.0005477588 0.009178949 0.03125 0.03125 0.010076269 0.029152472 0.026025834
0.022519588 -0.00038018997 0.00044271396 0.032574344 0.029168118 0.034007836 0.029096965 -0.00028247957
0.031190952 0.02780727 0.03240149 0.007437682 0.03125 0.03125 0.008744049 0.030178793
0.030919379 0.02993255 0.03125 0.014136292 0.010047769 0.025752397 -0.0005967397 -0.000103537415
0.00022118384 0.029144648 0.031085154 0.039908703 -0.0010230748 0.029425537 0.0006141071 0.00066056784
-0.0001436855 0.03125 0.031882185 0.03125 -0.00024016126 -0.00051031366 -0.0012347399 0.03084897
-0.0007112266 0.028602619 -0.0006284498 0.03125 0.00083863153 0.03112576 0.03125 0.016788712
-0.0002762567 0.027690297 0.03125 0.028442059 0.00010434014 -0.00040286267 0.03125 -0.00045496054
0.00026044695 -0.0004304336 0.032718886 0.03138132 0.00081168214 0.027340116 0.026865887 0.032347098
-0.0007827633 0.029771244 0.030175438 -0.0009899177 0.030774837 0.03125 0.0001308623 0.03125

weight_epsilon f4 [1, 256]
00000000: a3df 783e fb55 0b3f 67bf 4b3f b925 b43e
00000010: 9a59 243f 2051 d43e 8e23 0ebf 77c7 133f
00000020: 8ee6 9e3e cd65 c1be 31ff 3d3f 7cbf 323f
00000030: c025 ebbe 8f61 9fbe 4638 ca3e ff52 9c3e
00000040: 9bc6 f63e ba97 e53e c6d9 413e a774 203f
00000050: 7242 c3be d7cf 44bf dfb4 133f ea75 b9be
00000060: 26cc 1fbf f821 f4be 9c88 373f fb89 56be
00000070: cbe8 073f d4fd 123f 78d4 d1be 7cdd 623f
00000080: f99c 1bbf 2e97 013f f75d 39bf f1b8 3a3f
00000090: a179 e93e 86bd 7b3f e3ea e23e 35b8 c5be
000000a0: 4d83 93be de73 64bf 65ce 443f 2556 df3d
000000b0: a47f e2be 2826 223f 5849 9c3e 67a0 05bf
000000c0: 4535 cbbe 1761 38bf 2115 223f de5a 34bf
000000d0: 9e84 5d3f 5db2 3e3f c801 7b3f e142 5f3f
000000e0: c9bb 0ebf 460a ebbe 1fa0 463f 8493 40bf
000000f0: 3b21 23bf 4f48 11bf ad21 9fbe eb76 c7bd
00000100: da6b 29bf 27bc 4abf 4d70 263f 7e3d e83d
00000110: ee02 30bf caf8 c1be b863 723f 0dd0 b03e
00000120: 2333 653f d977 8c3e bbde 353f c0c5 1c3f
00000130: d488 583e dd18 46bf 9300 f43e 616f 7cbe
00000140: 4d94 e63e 83e6 9b3e 1930 4cbe 33fc a7be
00000150: f894 4ebe a8fe 2abf aa02 30bf 60bb 2a3f
00000160: 5e36 503f fc9d 63bf d21f 6c3e 7ce4 253f
00000170: de51 7a3e 6b93 f43e ade1 06bf 4fb9 543f
00000180: 724d 04bf fc9f e1bc 5d8d bc3e 3168 64bf
00000190: 258a 45bf d120 f7be 5aee e5bd 25a6 273f
000001a0: 63cf 48be 7063 e4bd 9893 4ebf c097 ddbe
000001b0: 21ca 023f 82b9 53bf af3e 05bf 12f2 9b3e
000001c0: 74cd 7f3e d302 39bf 7d00 e9be 02e3 80bf
000001d0: 0e70 513f 0ca6 b03e a172 11bf 82c0 2fbf
000001e0: 3002 3a3f 339a 293e c1e3 373f 4aab 1bbf
000001f0: d0fc 103f bed6 e33e a2a2 223f dce5 1dbf
00000200: 0dad e1be d609 7b3f 78df 03bf 2cfe 173f
00000210: 7150 4f3f 0c17 23bf 28a9 243f 767f 54bf
00000220: ef17 083f 5def d9be 1f1d da3e bf9b c73e
00000230: f30a 9f3e 7047 df3e 5f21 083e 3d91 efbe
00000240: 154b 023f 439c aa3e ece9 103f 8f1e eabe
00000250: e9d7 563f bfc7 9fbf 92a9 1abf a96a 67bd
00000260: 0606 063f c8d0 3f3f 135c 7e3e cf72 4f3f
00000270: 6e78 7cbf 44a0 18bf 38a3 13bf 174c e0be
00000280: a938 253f 67d3 103f b533 2cbf c6e9 133f
00000290: e360 053f bded 333f cf4a 03bf 2649 dabe
000002a0: 7e11 4abf a9d2 983e 3b62 843e 9205 3fbf
000002b0: f35a 133f 4651 e7be f7f5 64bf 6f55 fabd
000002c0: afb4 11be 81cb 87bf 7a50 ecbe 0bfc 453f
000002d0: 967e c13e ca4e 06bf ec06 14bf 1af6 403f
000002e0: bdda 633f 1021 b43e 45fc 6cbf 86c9 503f
000002f0: fd92 ed3e 3026 41bf bab9 523f f7d4 41bf
00000300: 0001 51be a366 cdbe 6daf b53e 5868 203f
00000310: a019 0bbf a2e7 b2be 1521 103f 9aed dbbe
00000320: ee88 2e3f a4be 803f 2e46 953e f03f cebe
00000330: 88cb 53bf 100b 013f 4dee 143f c028 233f
00000340: 1b92 eb3e ef5b d43e 2a7d 743f 9bf9 ffbd
00000350: b59a 4ebf ff05 fb3e 724b a53e 453b 3cbf
00000360: f7de 7f3e 3bae 02bf 1aa0 01be 3e86 2e3f
00000370: 75aa 0abf 76fe 453f 1cb0 27bf cb74 4c3f
00000380: 74f6 283f cfa0 3abf 2c55 c4be e2f6 01bf
00000390: 5a8b 45bf 5196 4ebf e5e0 c0be 4dfd 873f
000003a0: e511 1d3f a3fd 3d3f 9abd a43e 37e6 acbe
000003b0: 1adc 27bf faf2 07bf efad acbe 17c1 dabe
000003c0: cf20 13bf c328 46be 26f1 f63e 2faf 30bf
000003d0: 7958 063f 5d94 ecbe a8cf 7c3f 3ba2 733f
000003e0: deda 043f ca73 503e 778a c2be 4005 02bf
000003f0: 98d0 98be 47e9 7fbe 1484 30bf c6df 5cbf
0.2430406 0.5442807 0.7958893 0.3518503 0.6419922 0.41468143 -0.55523 0.57726234
0.31035274 -0.3777298 0.74217516 0.6982343 -0.45927238 -0.3112912 0.39496058 0.3053207
0.481984 0.4484232 0.1893073 0.62678 -0.3813663 -0.7687964 0.5769786 -0.36222774
-0.6242088 -0.47682166 0.71692824 -0.20951073 0.5308959 0.5741856 -0.40982413 0.8861921
-0.60786396 0.50621307 -0.72409004 0.7293845 0.45600608 0.98336065 0.4431983 -0.386171
-0.28811112 -0.892393 0.76877433 0.10905103 -0.44238007 0.6333947 0.30524707 -0.5219788
-0.3968908 -0.7202315 0.6331349 -0.7045115 0.8653048 0.7449091 0.9804959 0.87211424
-0.5575529 -0.45906276 0.77588075 -0.7522509 -0.6372258 -0.5675096 -0.3108038 -0.09739479
-0.66180193 -0.7919335 0.6501511 0.11339854 -0.6875447 -0.37885123 0.9468341 0.3453373
0.89531153 0.27435187 0.71042985 0.6123924 0.21145946 -0.7738169 0.47656688 -0.24651863
0.4503502 0.30449304 -0.19940223 -0.328096 -0.20174015 -0.66794825 -0.68754065 0.6669216
0.8133296 -0.8891294 0.23059013 0.64801764 0.24445292 0.4776872 -0.52688104 0.8309526
-0.5168067 -0.027542107 0.36826602 -0.89221483 -0.77163917 -0.48267224 -0.112271026 0.6548789
-0.19610362 -0.11151779 -0.8069396 -0.4327984 0.51089674 -0.8270494 -0.5204877 0.30458122
0.24980718 -0.72269934 -0.45508185 -1.0069277 0.81811607 0.34501684 -0.56815535 -0.6865312
0.7265959 0.16562729 0.718319 -0.6080824 0.5663576 0.44499773 0.6352941 -0.6167886
-0.4407734 0.98061883 -0.5151286 0.5937221 0.8098212 -0.6370704 0.6432061 -0.8300699
0.5316152 -0.42565432 0.42600343 0.38986012 0.3106304 0.4360919 0.1329398 -0.46790496
0.50895816 0.33322343 0.56606936 -0.4572644 0.839232 -1.2482833 -0.60414994 -0.056498203
0.5235294 0.7492795 0.24839811 0.8103456 -0.9862126 -0.59619546 -0.5767093 -0.43808052
0.6453958 0.56572574 -0.672664 0.57778585 0.5210096 0.70284635 -0.51286024 -0.42633933
-0.7893294 0.2984822 0.25856194 -0.74617875 0.5756065 -0.45179194 -0.8943781 -0.122233264
-0.14229082 -1.060898 -0.4615515 0.7733771 0.3779189 -0.5246397 -0.5782306 0.7537552
0.89005643 0.35181475 -0.9257243 0.815575 0.46401206 -0.75448895 0.82314646 -0.75715584
-0.20410538 -0.40117368 0.35485402 0.62659216 -0.54335976 -0.34942347 0.5630048 -0.42954713
0.6817769 1.0058179 0.29155105 -0.40283155 -0.8273244 0.50407505 0.5817612 0.63734055
0.46009907 0.4147639 0.95503485 -0.1249878 -0.80704814 0.49028012 0.32284123 -0.7352794
0.24987398 -0.51047105 -0.1265873 0.6817359 -0.54166347 0.773414 -0.65503097 0.7986571
0.6600106 -0.72901624 -0.3834623 -0.5076734 -0.7716576 -0.80698115 -0.3767158 1.0624176
0.6135543 0.74215144 0.32175905 -0.3376939 -0.65570223 -0.5310513 -0.3372645 -0.4272544
-0.57471937 -0.19351487 0.48230857 -0.6901731 0.5247875 -0.46206942 0.9875436 0.9516942
0.51896465 0.2035667 -0.37996265 -0.5078926 -0.29846644 -0.24991332 -0.68951535 -0.8627895

weight_mu f4 [21, 256]
00000000: 2a89 e1bc 543b 2f3d dd4f 34bc 1732 8e3c
00000010: d03d 0a3c 209c 853b b6e5 243d 82fc 633d
00000020: fccc 8f3d 8711 88bc a251 373c 488a afbd
00000030: 4acf 59bd ba88 423d ba5b 3ebd 7d03 263d
00000040: 1ca4 eeba 444b 4dbd 1886 b73c 5a86 3f3d
00000050: 1452 463d 5144 513c 1cf5 6a3d 7265 753d
00000060: 6c81 0dbd 17c9 3b3d 8098 dfbc 35fc b3bd
00000070: f0ce 663d 0c28 c4bd 7a8d a53c bde0 0dbb
00000080: 8632 263d 7e0e 163d 2174 423d c427 11bd
00000090: a404 f83c f0f3 47bc a9bb ca3c cb4b d5bc
000000a0: 80a1 823c 8eb1 473d 4f21 a93c 8c74 ffbc
000000b0: 3250 4dbd d642 2fbd dd4d 0d3b 5709 aa3b
000000c0: a833 aa3c 1c36 bdbc 1c54 2fbd b08d c8bc
000000d0: 14b7 f3ba 116b 563d 448b f93c 7ed5 2bbd
000000e0: f050 45bd 2835 dbbc 3099 5bbd 9a18 4b3b
000000f0: 28fd 183d 65aa 2bbd 498e 2f3c 0707 273c
00000100: 1c3f 04bc 8b42 66bd 004e 9ab9 da85 5a3d
00000110: b007 b3bc 6c8d d73c 70ee 4a3d 1591 183d
00000120: ba33 e3bb bbe9 46bd abbb b4bc db52 efbc
00000130: babe 503d c8dc 04bc 35cd f4bb fe57 4d3d
00000140: 804e 913a 35db 13bb 5fdd 42bd 3f80 39bd
00000150: a1c4 5dbd e379 72bc dcf5 443d 7c5b 853d
00000160: 0afa 6fbd e27e 833d 143c d2bc 62be 583c
00000170: 9b51 91ba 9343 07bc 3869 c8bc efc1 013d
00000180: 00ab c53c fa75 33bd 8c13 503d c83d 88bc
00000190: e0d8 453d a98b 52bc 0ee7 2b3c 1fee 363d
000001a0: 0ada a03c 825f 023d 7b84 24bd 8088 06bc
000001b0: 36d7 1c3d bdfc 803d 8007 93ba 1b98 36bd
000001c0: 18ba a8bc 190f c13a 5e1f e3ba a17d 4fbd
000001d0: 5093 6f3d 21cb bb3b 37a4 233c 8a79 6bbd
000001e0: 006c d139 4902 5fbd fcec 73bd 70fc e7bc
000001f0: c682 22bc 2f00 12bd b608 79bd e478 dcbc
00000200: 9cd5 903c febe 7cbd ec9c 793d fcad 0abd
00000210: 6896 7c3c 00bf 2f3d 9a42 80bb f2e6 79ba
00000220: 946a 003d bc05 733d 6583 8cb9 6428 593d
00000230: 88f4 04bd 1501 11bd eecd bd3b 6fd8 91bc
00000240: 449d 6dbd fd3c 673d ba11 583d 650e 863d
00000250: fca7 f6bc 1cc9 d73a cfa7 f7bc 8171 dd3a
00000260: 7c2f 34bd 1791 e83c ba58 61bd 0088 173c
00000270: 7c62 2abd bcac 05bd 1be8 6cbd 707d 96bc
00000280: 767e 3f3d 001f bf3c c821 b03c 9b08 7cbd
00000290: c38f 72bd 7554 9fbc 8041 d1bc 07de 31bc
000002a0: ca48 61bd 314e d3bc f91c 2a3c fc3e b3bc
000002b0: 5c85 0a3d 1031 f93c 7342 08bd a785 213d
000002c0: d8f8 85bc cb65 80bc d330 683d d0c0 99bc
000002d0: 3a89 52bd 9a26 6dbc 779a 23bd b886 51bd
000002e0: dabd 593d 1383 1a3d ace1 89bd 8b61 febc
000002f0: c7b8 323d 6527 863c 382e 4d3c 5adf cc3c
00000300: 9369 693b cd58 8d3c 3e64 28bd 890f 6ebb
00000310: 443d 2d3d 28d2 c43c 3c77 8abd 885c 38bd
00000320: 47c1 223d 174c 3bbd 1ab5 6bbd edbd 593d
00000330: 07bc a63c 1b23 78bb 53c6 2cbb 1130 2c3a
00000340: b235 24bd 00d5 c2bc e8b7 3bbd cdec 053c
00000350: 5734 a9bc 6a61 71bd c915 95bb 0a1f cc3d
00000360: f6e8 ee3b 0c57 e03c cd0c 093d 06b1 14bd
00000370: e347 2fb6 88ab 4a3d 0ede b7bd 87d6 2c3c
00000380: e738 e43c 9d5c 16bd 34d8 323d 2c35 753d
00000390: 9a97 663d 0052 c3bc 5063 243d 6d72 21bd
000003a0: 2f3d 6b3b 680c 493d 8a8e 563d 791a 493c
000003b0: d8ba 13bd 8bd6 6cbd c0de 363b e891 103d
000003c0: 9636 983c f64e 10bd 3679 9b3c 3d64 0f3d
000003d0: 8069 153d a1f4 503d edc2 803d c43d 08bc
000003e0: d10a 4dbc e9f7 5a3c e095 4cbd 1795 1dbd
000003f0: 9c60 8dbc 748e bc3c 13e6 943b 70b4 02bd
-0.027531225 0.04278119 -0.011005369 0.01735787 0.008437589 0.0040774494 0.040258132 0.055660732
0.070215195 -0.01660992 0.011188896 -0.08571297 -0.053176202 0.047493674 -0.046474196 0.04053067
-0.0018206867 -0.050120607 0.022402808 0.046758987 0.04841812 0.012772636 0.05736266 0.0599112
-0.034547254 0.04584607 -0.027294397 -0.08788339 0.056349695 -0.09577951 0.020209063 -0.0021648847
0.040575527 0.036634915 0.04747403 -0.035438314 0.03027565 -0.012204155 0.024747686 -0.026037117
0.01594615 0.048753314 0.020645766 -0.031183504 -0.05012531 -0.04278835 0.0021561303 0.0051891017
0.020776585 -0.02309709 -0.042804822 -0.024481624 -0.001859399 0.0523482 0.030461915 -0.04195165
-0.04817289 -0.026758745 -0.053612888 0.0030990005 0.037350804 -0.041910548 0.010715076 0.010194547
-0.008071687 -0.056215804 -0.00029431283 0.053350307 -0.021854252 0.026312552 0.049543798 0.037247736
-0.0069336565 -0.048562746 -0.022062143 -0.029214313 0.05096314 -0.008109279 -0.0074707516 0.050132744
0.0011086017 -0.0022561077 -0.047574397 -0.04528832 -0.054142598 -0.014799568 0.048086032 0.0651159
-0.058588065 0.06420685 -0.025663413 0.013228985 -0.0011086942 -0.008255857 -0.024464235 0.03167909
0.02412939 -0.043813683 0.05079989 -0.016631022 0.04830253 -0.01285068 0.010492099 0.044660684
0.01963522 0.031829365 -0.040165406 -0.008211255 0.03829118 0.06298206 -0.0011217445 -0.044578653
-0.020596549 0.0014729231 -0.0017328074 -0.05065692 0.058490098 0.005731002 0.009987882 -0.057488956
0.00039944053 -0.05444554 -0.059552178 -0.028318614 -0.009918874 -0.035644706 -0.060799323 -0.026913114
0.017679982 -0.06170558 0.060940668 -0.03385733 0.015416719 0.04290676 -0.0039141895 -0.000953301
0.03135164 0.05933164 -0.00026800777 0.053017035 -0.032459766 -0.035401423 0.005792371 -0.017803399
-0.05801131 0.056454647 0.05275128 0.06545714 -0.030109398 0.0016463134 -0.030231385 0.0016894789
-0.043990597 0.028389497 -0.055016257 0.0092487335 -0.04159783 -0.032635435 -0.05783854 -0.01837036
0.046751462 0.023330212 0.021500483 -0.061531644 -0.059219133 -0.019449452 -0.025543928 -0.010856158
-0.055001058 -0.02579412 0.010382884 -0.02188062 0.033818588 0.030418903 -0.033266496 0.0394341
-0.01635401 -0.015673539 0.056687187 -0.018768698 -0.0514004 -0.014474535 -0.03994223 -0.05115387
0.053159572 0.03772266 -0.067324966 -0.031052371 0.04363325 0.016376207 0.012523226 0.025008846
0.0035615906 0.017254258 -0.041111223 -0.0036325178 0.042294756 0.024025992 -0.067610234 -0.04501012
0.039735105 -0.04572686 -0.05754576 0.053159643 0.02035333 -0.0037862721 -0.0026363328 0.0006568442
-0.04009027 -0.023783207 -0.045829684 0.0081741335 -0.02065484 -0.058930792 -0.004549716 0.09966858
0.0072909547 0.027385257 0.033459473 -0.036301635 -2.6118876e-06 0.04947999 -0.089779004 0.010549194
0.027859164 -0.036709417 0.04366322 0.05986516 0.056296922 -0.023842812 0.040133774 -0.039415766
0.0035894623 0.049084097 0.05238203 0.012274378 -0.03606686 -0.05782179 0.0027903765 0.035295397
0.018580716 -0.035231553 0.018978696 0.035007704 0.036477566 0.051014546 0.06287179 -0.008315507
-0.012514786 0.01336477 -0.04994762 -0.03847226 -0.017257981 0.023017146 0.0045440285 -0.03191036
