experiments/diff_context_data/rain_models/rainbow_dqn_proposed_erf.pth (torch, 380218 bytes, 13 tensors)

weight f4 [256, 4]
0	0xbe409c50	-0.18809628
1	0xbe6b61f8	-0.22986591
2	0xbec6c4a6	-0.38821906
3	0xbecc30c4	-0.39880955
4	0xbe9fe984	-0.31232846
5	0xbef6bf74	-0.48192942
6	0xbe2c60dc	-0.16833824
7	0xbed4acc4	-0.4153806
8	0x3dcd57f3	0.100265406
9	0xbee9ef83	-0.45690545
10	0xbe5c6371	-0.21522309
11	0x3db341a2	0.08752753
12	0x3ebda38d	0.37038842
13	0x3c9adfc4	0.018905528
14	0xbc364124	-0.011123929
15	0x3ef0f8cb	0.47064814
16	0x3da29875	0.07939235
17	0xbc81a48f	-0.015825538
18	0xbeec9e8f	-0.4621472
19	0x3e7ec139	0.24878396
20	0xbe724f48	-0.23663056
21	0xbe06b860	-0.13156271
22	0x3b632700	0.0034660697
23	0x3ed1588a	0.40887862
24	0xbddbc9f3	-0.10731878
25	0x3e8885da	0.2666462
26	0xbdd3d5b1	-0.10343493
27	0xbef5653f	-0.47928807
28	0xbee18231	-0.4404464
29	0x3ea2f169	0.31824806
30	0xbe5c8821	-0.21536304
31	0xbee79e16	-0.45237797
32	0xbe456470	-0.19276595
33	0xbe59a43f	-0.21254061
34	0x3ec88bdd	0.39169207
35	0x3de374d6	0.11106269
36	0xbdc45280	-0.09586048
37	0xbd2dd5c0	-0.042440176
38	0xbdc68510	-0.096933484
39	0xbef20ea4	-0.47276795
40	0x3ede92cc	0.43471372
41	0xbcf8f163	-0.03038854
42	0xbea371d4	-0.3192278
43	0xbef7ddae	-0.48411316
44	0xbee6f0b8	-0.4510553
45	0x3d1ff1a0	0.03904879
46	0x3d791050	0.060806572
47	0x3c904540	0.017611146
48	0x3e7a0665	0.24416502
49	0xbafc84a3	-0.0019265603
50	0xbd37f7ab	-0.04491393
51	0xbe839b61	-0.25704482
52	0xbdd20510	-0.10254872
53	0xbe571100	-0.21002579
54	0xbe262394	-0.1622451
55	0xbebbbee4	-0.36669075
56	0xbd87f74a	-0.066389635
57	0x3e864d80	0.26231003
58	0xbe279321	-0.16364719
59	0x3e4e6c34	0.20158464
60	0x3d6030b2	0.05473394
61	0x3eb5a123	0.354745
62	0xbe112916	-0.1417583
63	0x3ec6d878	0.38837028
64	0x3e1251a2	0.14288953
65	0x3e4880cc	0.19580382
66	0xbebeb619	-0.37248304
67	0x3ee229fe	0.44172662
68	0x3e377565	0.17915876
69	0x3e380810	0.17971826
70	0xbe8f77b1	-0.28021005
71	0xbd3d0ada	-0.046152927
72	0x3dff4d64	0.12465933
73	0xbdc698a4	-0.09697083
74	0xbe79d4d5	-0.24397595
75	0xbee3ad91	-0.44468358
76	0xbd4f3f70	-0.050597608
77	0xbe312734	-0.17300111
78	0xbea99766	-0.3312332
79	0x3d962168	0.073305905
80	0xbe4da64c	-0.20082968
81	0xbe7d1c43	-0.24717812
82	0x3dd3a194	0.10333553
83	0x3eb30b4c	0.34969556
84	0xbe064d87	-0.13115512
85	0x3e73f9a7	0.23825704
86	0xbec4ea5f	-0.3846006
87	0x3dbe5b79	0.09294791
88	0x3ef6b449	0.48184422
89	0xbe9db078	-0.30798697
90	0xbe8cfd7e	-0.2753715
91	0xbe933324	-0.28749955
92	0x3e012088	0.12610066
93	0x3e2680a4	0.1626001
94	0xbeee9481	-0.46597674
95	0xbec2665f	-0.37968728
96	0xbed88385	-0.4228784
97	0x3ed2cb71	0.41170838
98	0xbee746c9	-0.45171192
99	0xbeb7ae28	-0.35875058
100	0x3e6dfca7	0.2324091
101	0x3d85fd34	0.06542435
102	0xbeae39ce	-0.34028476
103	0x3e940d38	0.28916335
104	0x3db782b6	0.08960478
105	0x3e88be96	0.26707906
106	0x3d7811c3	0.060563814
107	0x3e887a8c	0.26655996
108	0x3e72f3dc	0.23725837
109	0xbe4fc41e	-0.20289657
110	0xbe807f3c	-0.25097072
111	0xbebbfdaa	-0.36716968
112	0xbccc5d80	-0.024946928
113	0xbeefb798	-0.46819758
114	0x3d0b7190	0.03404385
115	0x3eccc17e	0.39991373
116	0x3e2196b5	0.15780146
117	0x3d2c9456	0.04213365
118	0x3ebb5e51	0.36595395
119	0xbeda63d7	-0.42654297
120	0x3d8ae734	0.0678238
121	0xbe9828ee	-0.29718727
122	0xbe32ece2	-0.17473176
123	0xbeaa8d83	-0.3331109
124	0xbefa758c	-0.48917806
125	0xbeb0426c	-0.34425676
126	0xbeff2ca8	-0.49838758
127	0xbd90d130	-0.07071149
128	0x3e32a820	0.17446947
129	0xbea33ee9	-0.31883934
130	0xbe605616	-0.21907839
131	0xbe47d98a	-0.19516578
132	0xbe785bc2	-0.24253753
133	0x3df6e25a	0.12054892
134	0xbec8ae99	-0.39195707
135	0x3e7411a5	0.23834856
136	0x3eb140d6	0.34619778
137	0x3ecf2337	0.40456554
138	0x3e7af3e8	0.24507105
139	0x3db1a8f4	0.086748034
140	0xbc612d86	-0.013743764
141	0x3efe692d	0.49689618
142	0x3d729b96	0.05923041
143	0x3d86c9f8	0.06581491
144	0x3d5e966b	0.05434267
145	0x3ec05501	0.37564853
146	0xbe5c4b13	-0.21513014
147	0x3efc4bfb	0.49276718
148	0xbec66fec	-0.38757265
149	0xbcc63580	-0.024195433
150	0xbee71cf0	-0.45139265
151	0xbb225500	-0.0024769902
152	0xbe93c576	-0.28861588
153	0x3ef27830	0.4735732
154	0x3df95e98	0.121762455
155	0xbd1d135f	-0.03834855
156	0xbd626fc0	-0.055282354
157	0xbcd0ae00	-0.025473595
158	0xbd61de00	-0.055143356
159	0xbee45fca	-0.4460433
160	0x3ee3f840	0.44525337
161	0x3efe3b53	0.49654636
162	0xbd0d5dae	-0.034513168
163	0xbe96dd82	-0.29465872
164	0x3e82401d	0.2543954
165	0x3be9370d	0.0071171583
166	0x3e449764	0.19198376
167	0xbe90cdca	-0.28282005
168	0x3e10a82d	0.14126654
169	0xbe8e6b4f	-0.27816245
170	0xbe9c551b	-0.3053368
171	0xbe8a3ff9	-0.27001932
172	0xbe3156e8	-0.17318308
173	0xbe89e062	-0.26929003
174	0xbed77d0e	-0.42087597
175	0x3dbd2428	0.09235412
176	0xbeea86e6	-0.45806044
177	0xbdea9836	-0.11454813
178	0x3ed2b32e	0.41152328
179	0x3ebe5a42	0.37178236
180	0x3ee45cf2	0.44602162
181	0x3d21c514	0.03949459
182	0xbe248566	-0.16066512
183	0x3dd9d7e2	0.106368795
184	0x3cdf823d	0.027283782
185	0x3dda2e61	0.10653377
186	0x3dcb9040	0.09939623
187	0x3e252ee5	0.1613117
188	0x3e38febe	0.18065926
189	0xbd8607b0	-0.06544435
190	0x3e7ab473	0.24482898
191	0x3ea2cb12	0.31795555
192	0x3e868e65	0.26280513
193	0xbed8e9e7	-0.42365953
194	0x3eeffc9e	0.4687242
195	0xbea3123d	-0.31849852
196	0x3ee5aaa8	0.44856763
197	0x3ee0f34c	0.4393562
198	0xbe8352d8	-0.25649142
199	0x3db469e3	0.08809259
200	0xbec094f1	-0.37613633
201	0x3ea98ad3	0.33113727
202	0xbe8479b9	-0.25874117
203	0xbea4df0f	-0.3220143
204	0x3ec07243	0.37587175
205	0xbe1a2cc5	-0.1505614
206	0x3ebefa34	0.37300265
207	0x3ec78f18	0.3897636
208	0x3eaf1a0f	0.3419957
209	0xbe6f2315	-0.23353226
210	0xbe9b5f82	-0.30346304
211	0xbe1d16fa	-0.15340796
212	0xbe7c89b4	-0.24661905
213	0x3e1a26f8	0.15053928
214	0xbeb76762	-0.35821062
215	0x3de1a548	0.11017853
216	0x3ebbe762	0.3669997
217	0x3ee57c25	0.44821277
218	0xbebf8342	-0.3740483
219	0xbeebd0b3	-0.46057662
220	0xbe068ec3	-0.13140397
221	0x3e523818	0.2052921
222	0x3d86c76b	0.06581005
223	0xbeef0aa8	-0.46687818
224	0x3dbf281f	0.09333824
225	0xbe3d0ceb	-0.18461959
226	0x3e40642c	0.18788213
227	0xbd9e8265	-0.077397145
228	0x3d78a83c	0.060707316
229	0xbeb90787	-0.36138555
230	0xbcc2d91a	-0.023785163
231	0x3eb7766e	0.35832542
232	0xbd2b47a0	-0.041816354
233	0xbe879f2e	-0.26488632
234	0xbecc0956	-0.39850873
235	0xbee03daa	-0.43797046
236	0x3e276b96	0.16349635
237	0x3e93eaad	0.2888998
238	0x3efc5b9a	0.49288636
239	0xbea7db1d	-0.32784358
240	0x3ed51633	0.416185
241	0xbe003206	-0.12519082
242	0x3eece3d6	0.46267575
243	0xbd9aab19	-0.075521655
244	0x3efb7668	0.49113774
245	0xbed4b314	-0.41542876
246	0x3eda35bf	0.4261913
247	0x3de132d2	0.10996021
248	0x3ed5aa1b	0.41731343
249	0x3ebaa098	0.36450648
250	0xbef8917e	-0.48548502
251	0x3ef11753	0.47088107
252	0xbefaa4d5	-0.48953882
253	0x3e8755da	0.26432687
254	0xbe46e949	-0.19424929
255	0x3b95028b	0.0045474223

bias f4 [256]
0	0x3e190868	0.14944613
1	0xbea6d0be	-0.32581133
2	0x3f0776eb	0.5291583
3	0x3cb5d6c2	0.022197131
4	0xbede5286	-0.43422335
5	0x3e5f6444	0.21815592
6	0x3db67617	0.089092426
7	0x3ec7c7af	0.39019534
8	0xbef51c87	-0.47873327
9	0xbecf7440	-0.4051838
10	0xbebf7545	-0.37394157
11	0xbc83c9a0	-0.016087353
12	0x3e62aca8	0.22136176
13	0x3ef65c8e	0.4811749
14	0xbcc26595	-0.023730079
15	0x3f00f3ab	0.5037181
16	0xbef7992f	-0.48359057
17	0xbee1d30c	-0.44106328
18	0xbeb7e01b	-0.35913166
19	0x3e1ac120	0.15112734
20	0xbc06d68d	-0.008229864
21	0xbebf73d7	-0.37393066
22	0xbe0eda57	-0.13950478
23	0x3e867842	0.26263624
24	0xbea64209	-0.32472256
25	0xbdaa9da9	-0.083308525
26	0x3e50d2d1	0.2039292
27	0xbeb2c236	-0.34913796
28	0xbb2ece00	-0.0026673079
29	0xbee13c7f	-0.43991467
30	0x3e93f6a2	0.28899103
31	0x3ebb0c92	0.36533028
32	0x3eb53f9b	0.3540009
33	0x3ee80cdb	0.45322308
34	0xbe72cd0f	-0.23711036
35	0x3e5ca06a	0.21545568
36	0xbd2544d8	-0.040348858
37	0x3ec2785a	0.37982446
38	0x3eebc5a3	0.46049222
39	0xbe9c147a	-0.30484372
40	0x3d0bb9f8	0.0341129
41	0xbead75a6	-0.3387882
42	0x3e3a5cee	0.18199512
43	0xbdaf6578	-0.085642755
44	0x3e99e6dd	0.30058947
45	0xbe61d0ed	-0.22052355
46	0x3ea5d37f	0.3238792
47	0x3ec3411e	0.38135618
48	0xbe40600a	-0.18786636
49	0x3da248f2	0.079240695
50	0xbe29c299	-0.1657814
51	0x3eb0bfaa	0.34521228
52	0x3eecddc0	0.46262932
53	0xbe5a0170	-0.21289611
54	0xbebcb7d5	-0.36859003
55	0x3d965160	0.0733974
56	0xbe5ff8f6	-0.21872315
57	0x3ec7f78a	0.39056045
58	0x3bddc500	0.006767869
59	0xbe0345a0	-0.12819529
60	0xbe0d3a1d	-0.137917
61	0x3e757d63	0.23973612
62	0xbed0a7a1	-0.4075289
63	0x3ea4624f	0.32106254
64	0xbb8e7213	-0.004347095
65	0xbd1b5602	-0.03792382
66	0xbe9f75e8	-0.31144643
67	0x3d9c1683	0.07621481
68	0x3eb08136	0.3447358
69	0xbeb871ee	-0.3602442
70	0x3e87bcfc	0.2651137
71	0xbeff1b3e	-0.49825472
72	0xbeb01c48	-0.34396577
73	0x3e099db0	0.1343906
74	0x3d5f6ff3	0.054550122
75	0x3ec021b0	0.37525702
76	0x3ea5b693	0.32365856
77	0xbca4c442	-0.020113114
78	0x3ee487b3	0.4463478
79	0xbeeb0a34	-0.45906222
80	0xbe168ae6	-0.14701423
81	0xbee36e9b	-0.44420323
82	0x3ddb3420	0.107033014
83	0x3d1c8cd8	0.038220257
84	0x3ef0501e	0.46936125
85	0xbd8125b8	-0.063060224
86	0x3e62e60e	0.22158071
87	0x3ea42731	0.3206115
88	0x3e132904	0.14371115
89	0x3e1f13b7	0.15534864
90	0x3e121ab2	0.14267996
91	0x3d873d36	0.06603472
92	0x3deb8494	0.11499897
93	0xbef33044	-0.4749776
94	0xbea74002	-0.32666022
95	0xbe1356d4	-0.14388591
96	0xbec198cb	-0.37811884
97	0x3eef7951	0.46772245
98	0x3ec3cd21	0.38242438
99	0x3ee20ba9	0.4414952
100	0xbe641c82	-0.222765
101	0x3ea44532	0.32084042
102	0xbe39529b	-0.18097918
103	0xbefc386a	-0.4926179
104	0xbe9d89a7	-0.30769083
105	0xbeb6a134	-0.35669863
106	0xbd009a6d	-0.031397272
107	0x3e98ef0a	0.29869872
108	0xbec7e617	-0.39042732
109	0xbebf52b4	-0.37367785
110	0x3db27908	0.08714491
111	0xbd027acc	-0.03185539
112	0xbee73cf0	-0.4516368
113	0x3e21eea5	0.15813692
114	0xbeba9cca	-0.36447746
115	0x3d5a42ff	0.05328655
116	0xbe1afb0f	-0.15134834
117	0xbef1be8a	-0.47215682
118	0x3ee49e3e	0.4465198
119	0xbc8a1c2f	-0.016859142
120	0xbeb3af01	-0.35094455
121	0xbdd5d7ca	-0.10441549
122	0xbdfb09bd	-0.12257717
123	0xbec6438c	-0.3872341
124	0x3e53bfac	0.20678586
125	0x3d2873b0	0.041125953
126	0xbeb12599	-0.34598997
127	0x3f015b97	0.5053038
128	0x3ebc7fb4	0.3681618
129	0x3ef608f8	0.48053718
130	0xbec97024	-0.3934337
131	0xbed0232b	-0.4065183
132	0x3d9a19d7	0.0752446
133	0x3eb0e8f1	0.3455272
134	0x3e981534	0.29703677
135	0xbeafc38b	-0.34328875
136	0xbe4d4a24	-0.20047814
137	0xbe8df407	-0.2772524
138	0xbe97196e	-0.2951159
139	0x3ee5d5ff	0.4488983
140	0x3e4e6c98	0.20158613
141	0xbe152407	-0.14564525
142	0xbe09b88c	-0.13449305
143	0x3de1c354	0.11023584
144	0xbe230e29	-0.1592337
145	0xbdc31659	-0.09525747
146	0x3e8ac432	0.2710281
147	0x3e779af5	0.24180205
148	0xbe0b1ec6	-0.13585958
149	0xbc55a2b3	-0.013039279
150	0x3e75341d	0.23945661
151	0xbe87bf06	-0.26512927
152	0xbec9f9f2	-0.39448506
153	0xbe56b134	-0.20966035
154	0xbde236f2	-0.11045636
155	0x3e8fbc8b	0.28073534
156	0x3efbac36	0.49154824
157	0xbed12978	-0.4085195
158	0xbf048ae3	-0.51774424
159	0x3ea8363c	0.32853878
160	0xbd23f65d	-0.040029872
161	0xbe87c5d9	-0.26518133
162	0x3ee85975	0.4538075
163	0xbe78308c	-0.24237269
164	0xbf018519	-0.50593716
165	0xbeaee796	-0.3416106
166	0xbe6e467f	-0.2326908
167	0x3d0c192f	0.034203704
168	0xbeb3ac5b	-0.35092434
169	0xbe687510	-0.22700906
170	0x3ebcfe02	0.36912543
171	0xbe4edda6	-0.2020174
172	0xbe84f345	-0.2596685
173	0x3e24c40e	0.16090414
174	0x3d0c5619	0.034261797
175	0x3ef2631e	0.47341245
176	0xbdb0fa48	-0.08641487
177	0x3e83b6fe	0.2572555
178	0x3ed2294a	0.41047126
179	0x3eb2c1c7	0.34913465
180	0x3e8dc8b3	0.27692184
181	0xbd81349a	-0.06308861
182	0xbe6481de	-0.22315165
183	0xbbcb7295	-0.0062087276
184	0xbdf571f7	-0.11984628
185	0x3ed9f148	0.42566895
186	0x3eb34078	0.35010123
187	0x3e4b469a	0.19851151
188	0x3ea396c1	0.31950954
189	0x3eb3270a	0.34990722
190	0xbe9b1c60	-0.30295086
191	0xbea27446	-0.31729335
192	0x3edae116	0.42749852
193	0x3ec43272	0.38319737
194	0x3e9de6c1	0.30840114
195	0x3dd86333	0.10565796
196	0x3ecd9448	0.40152192
197	0x3e0de8e4	0.13858372
198	0x3cca8097	0.02471952
199	0xbcde9ecf	-0.027175335
200	0x3e696fed	0.22796603
201	0xbd87c091	-0.06628526
202	0xbe4c4193	-0.1994689
203	0x3e931ea8	0.28734326
204	0xbee7d3f9	-0.4527891
205	0xbe5822b0	-0.21106982
206	0x3dfdd1ff	0.12393569
207	0xbc9c10bd	-0.01905095
208	0x3e9b1c40	0.3029499
209	0x3ef2cafa	0.47420484
210	0x3e3eed0f	0.18645118
211	0x3e8e0f21	0.27745917
212	0xbe374480	-0.17897224
213	0x3e89cc2e	0.2691359
214	0xbdd849b3	-0.10560932
215	0x3e45cc96	0.19316325
216	0xbe35a698	-0.17739332
217	0x3b861817	0.004092227
218	0xbda28160	-0.079348326
219	0xbe95e3e0	-0.29275417
220	0x3e86d5ee	0.2633509
221	0x3e8d1d26	0.275613
222	0x3e882773	0.26592597
223	0x3dfc3da9	0.12316448
224	0x3e8cba5e	0.27485937
225	0x3e06c0df	0.13159512
226	0xbd2419af	-0.040063556
227	0x3e95b54a	0.29239875
228	0xbe6f7f90	-0.23388505
229	0xbe32df2d	-0.17467947
230	0xbeb88a36	-0.36042947
231	0xbe6349d2	-0.22196129
232	0xbddae49a	-0.106881335
233	0xbed8ed0a	-0.42368346
234	0x3e5ca8eb	0.21548812
235	0xbde1cad8	-0.110250175
236	0x3dc2e04c	0.095154375
237	0x3ed2ccaa	0.4117177
238	0xbce4b825	-0.027919838
239	0xbedaf29c	-0.4276322
240	0x3e926468	0.2859223
241	0xbed11be3	-0.40841588
242	0xbdb09fa4	-0.08624199
243	0x3ebd715c	0.3700055
244	0x3e97832e	0.2959227
245	0xbe21b184	-0.15790373
246	0x3dbe9e42	0.09307529
247	0x3ea64c60	0.32480145
248	0x3e8c0494	0.27347243
249	0x3ebc202e	0.367433
250	0xbed14c35	-0.40878454
251	0x3d4644df	0.048405524
252	0xbee44a13	-0.44587764
253	0xbec893ee	-0.3917536
254	0x3f037119	0.5134445
255	0x3e564167	0.20923387

weight f4 [256, 256]
0	0xbd2cec1a	-0.04221735
1	0x3ce4f780	0.027950048
2	0x3c0fbd27	0.008773125
3	0xbd52fa8e	-0.05150848
4	0xbc01f46b	-0.007931809
5	0x3bcbde50	0.00622157
6	0xbd61eaba	-0.055155493
7	0xbd7fdf8b	-0.062469047
8	0xbd57e532	-0.052708812
9	0xbcf9664c	-0.030444287
10	0xbcbc71a5	-0.023003409
11	0xbc4ef3d8	-0.012631379
12	0x3d35bdf6	0.044370614
13	0x3d2ba1b2	0.04190225
14	0x3d25eecf	0.04051095
15	0x3d0a2d6e	0.03373473
16	0x3c0a19df	0.00842902
17	0xbc39f70c	-0.0113504045
18	0x3c95c1fa	0.018280972
19	0xbd0ad6c8	-0.033896238
20	0x3cfb361f	0.030665455
21	0xbda97b4b	-0.082754694
22	0x3c61fb3f	0.013792812
23	0x3c8aceba	0.016944278
24	0x3c1daaa2	0.009623202
25	0xbd36994e	-0.044579796
26	0x3d130533	0.03589363
27	0xbc4a7f42	-0.012359442
28	0xba4bd700	-0.0007775873
29	0xbb1587cd	-0.002281654
30	0xbcacde66	-0.021102142
31	0xbd2eafb8	-0.042648047
32	0x3c9694a4	0.018381424
33	0xbc20d4e1	-0.009816379
34	0xbb1a6f11	-0.0023564736
35	0x3d1083a9	0.03528181
36	0x3c3a3415	0.011364956
37	0x3c801ca4	0.015638657
38	0x3d4702f8	0.048586816
39	0x3bda3910	0.0066596344
40	0x3cc358cf	0.023846058
41	0x3d78b4e1	0.060719375
42	0xbcb30dfb	-0.021857252
43	0x3d78f4fe	0.060780518
44	0xbd9311c1	-0.07181121
45	0xbd458603	-0.048223507
46	0x3d1665a8	0.03671804
47	0xbd152a39	-0.03641722
48	0x3c548c29	0.01297287
49	0xbc925477	-0.017862542
50	0xbd0c1fed	-0.034210134
51	0xbc7553e0	-0.014973611
52	0xbcd1b8f5	-0.02560089
53	0xba4edb00	-0.000789091
54	0xbd5eb061	-0.054367427
55	0x3d109dfb	0.035306912
56	0xbd33e80b	-0.043922465
57	0xbd16fa5d	-0.03685986
58	0xbd4c2364	-0.04983844
59	0x3cfa33ab	0.030542215
60	0xbd4ac4a3	-0.049503934
61	0xbc7582d8	-0.014984809
62	0xbc7bf782	-0.015378835
63	0xbd7746c7	-0.060370233
64	0x3c32c197	0.010910413
65	0xbcf98dd2	-0.030463133
66	0x3d3329af	0.043740924
67	0xbd5470ec	-0.051865503
68	0x3d5da9ea	0.05411712
69	0xbd50c27a	-0.050966717
70	0x3d72104d	0.059097577
71	0x3a9e8c80	0.0012096316
72	0xbd5941d1	-0.053041283
73	0x3ca1d0c0	0.01975286
74	0x3cc98a7d	0.02460217
75	0xbbd61d63	-0.006534265
76	0x3d9dc6e7	0.07703953
77	0xbcfb86e2	-0.030703966
78	0xbcbe0e9e	-0.02320033
79	0xbd5b9a02	-0.05361367
80	0x3d5fb472	0.054615445
81	0x3c83b130	0.0160757
82	0x3d3abf26	0.04559245
83	0x3d17db90	0.037074625
84	0x3da57f4e	0.08080922
85	0xbcf8fbfb	-0.030393591
86	0xbcd1c9c7	-0.02560891
87	0xbd325423	-0.04353727
88	0x3de2ee59	0.110806175
89	0xbcead3c0	-0.028665423
90	0x3aba8783	0.001423106
91	0x3c50063c	0.012696799
92	0x3c3fcd34	0.011706639
93	0x3d25344c	0.040333077
94	0x3ba1d0d3	0.004938224
95	0xbd04a376	-0.03238245
96	0xbc1b6dc9	-0.009486624
97	0xbd755112	-0.059891768
98	0x3bd8c58a	0.0066153454
99	0xbd509ae8	-0.05092898
100	0x3b6d8b6d	0.0036246434
101	0xbd3b37a2	-0.045707352
102	0x3d44cd60	0.048047423
103	0x3cab83a1	0.020936789
104	0xbce81ba7	-0.028333498
105	0x3d27c6b5	0.040960986
106	0xbdae9216	-0.085239574
107	0xbd5c6b1a	-0.053813078
108	0x3d2e910b	0.042618793
109	0x3cafec8e	0.021475103
110	0xbcfa41d9	-0.030548977
111	0x3d35c53a	0.044377543
112	0x3d6fb2e6	0.05852022
113	0x3d50faea	0.05102054
114	0x3d21b8a2	0.03948272
115	0xbc8e8327	-0.017396523
116	0xbd5dbd7c	-0.054135785
117	0x3d2f18a3	0.042748105
118	0xbb686680	-0.0035461485
119	0xbd183ce2	-0.037167437
120	0xbd07d07a	-0.033157803
121	0xbd36b3fc	-0.04460524
122	0x3cc6b61f	0.024256764
123	0x3bfe4130	0.007759236
124	0xbb7294a4	-0.0037014866
125	0xbd26b9b4	-0.040704444
126	0x3d012980	0.031533718
127	0x3c3cbb34	0.011519242
128	0x3c53ffc1	0.012939394
129	0xbd4b3513	-0.049611162
130	0xbcb2e7fd	-0.021839136
131	0xbc0da341	-0.00864488
132	0x3d837389	0.06418521
133	0x3d6c1867	0.05764046
134	0xbcabdf80	-0.020980597
135	0x3cf77f01	0.030211927
136	0xbcb02f10	-0.021506816
137	0x3d5ad185	0.05342247
138	0x3d5ccfcb	0.053909104
139	0xbd1eab2f	-0.038737472
140	0xbd088552	-0.03333027
141	0x3d2a4a94	0.04157503
142	0x3d653816	0.05596169
143	0x3cfd2826	0.030902933
144	0xbcbef6c8	-0.023311034
145	0xbd3ed6e6	-0.046591662
146	0xbc8361f1	-0.016037913
147	0xbd42ac89	-0.047527824
148	0xbd3c89bb	-0.046029788
149	0x3cb8b8dd	0.022549087
150	0xbd2ad7a8	-0.041709572
151	0x3d49650c	0.04916863
152	0xbb34e9e0	-0.002760522
153	0x3d4995a4	0.049214974
154	0x3d0e0123	0.034669053
155	0x3d0f974c	0.035056397
156	0xbd1b8ff3	-0.037979078
157	0xbcbd65cb	-0.023119828
158	0xbd26d761	-0.040732745
159	0xbd844af5	-0.064596094
160	0x3ccebde1	0.025237026
161	0x3cdde7af	0.027088014
162	0xbd2badfe	-0.04191398
163	0x3bb9c16b	0.005668809
164	0x3af20713	0.0018465243
165	0xbc9ffdb0	-0.019530147
166	0xbca2da6d	-0.019879544
167	0x3d7e46e6	0.062079333
168	0x3b967d01	0.0045925383
169	0xbd19c7dc	-0.037544116
170	0x3d3956c8	0.045248777
171	0xbda4de80	-0.08050251
172	0x3d653490	0.05595833
173	0xba4d3836	-0.00078285055
174	0x3c56d9ba	0.0131134335
175	0xbd491270	-0.04908985
176	0x3d6f3882	0.0584035
177	0xbd54cacf	-0.051951226
178	0x3d080f5b	0.03321777
179	0x3d85f6f2	0.06541242
180	0x3c8e22eb	0.017350635
181	0x3c40479c	0.011735823
182	0x3ca7a41a	0.020463992
183	0xbcd6d2b0	-0.02622351
184	0x3bd7c606	0.0065848855
185	0x3d6953c8	0.056964666
186	0x3c53d300	0.012928724
187	0x3d10d42f	0.035358604
188	0xbd77402f	-0.060363945
189	0xbc934144	-0.017975457
190	0xbd468016	-0.048461996
191	0x3d56b83e	0.0524218
192	0x3ce6725c	0.028130703
193	0xbd29c528	-0.04144779
194	0xbc06164b	-0.008184026
195	0x3d646c82	0.055767544
196	0xbccee06e	-0.0252535
197	0xbcb27faa	-0.02178939
198	0xbce96395	-0.028489867
199	0xbd8382f5	-0.064214624
200	0x3d5c1b6a	0.05373708
201	0x3ce842f2	0.028352235
202	0x3c551834	0.013006259
203	0x3ce8cf40	0.028419137
204	0xbd6bf422	-0.05760587
205	0x3c4fcbd8	0.0126828775
206	0x3c943b18	0.018094584
207	0x3c05e238	0.0081716105
208	0x3d5776df	0.0526036
209	0x3b615a53	0.0034386113
210	0x3cc28ebb	0.0237497
211	0xbc430a83	-0.011904362
212	0x3c2b00c8	0.010437198
213	0x3d3e3626	0.04643836
214	0xbcc98e33	-0.024603939
215	0x3c064f7e	0.008197663
216	0x3d94184d	0.072311975
217	0xbcf3af0f	-0.02974656
218	0x3b135580	0.0022481382
219	0x3d1c04ad	0.038090397
220	0xbc9c65c7	-0.0190915
221	0xbd317d52	-0.043332405
222	0xbd4f44e3	-0.050602805
223	0x3d7690b5	0.060196597
224	0xbba041b1	-0.0048906435
225	0xb9ffefa0	-0.00048815925
226	0xbd47d183	-0.04878379
227	0xbd815b18	-0.06316203
228	0xbc0016ad	-0.007817906
229	0x3d3b8e22	0.045789845
230	0xbd2f7728	-0.042838246
231	0xbb001129	-0.0019541478
232	0xbd906777	-0.07050984
233	0x3d436993	0.047708105
234	0x3d725363	0.059161555
235	0x3c9c12eb	0.01905199
236	0xbcdb8682	-0.026797537
237	0x3d8aff27	0.06786948
238	0x3d1e162a	0.038595356
239	0x3d702ef0	0.058638513
240	0x3cb6e2bf	0.022324918
241	0xbd158670	-0.036505163
242	0xbb92c1e8	-0.004478682
243	0xbbd33e80	-0.0064466596
244	0xbd66c93c	-0.056344256
245	0xbc5fc90e	-0.013658775
246	0xbd8761fe	-0.066104874
247	0x3d5bfbed	0.053707052
248	0xbdaa889f	-0.0832684
249	0xbd3726d2	-0.044714756
250	0xbc66ec17	-0.014094374
251	0x3c1de9c9	0.009638258
252	0x3d35ceb3	0.044386577
253	0x3d269237	0.040666785
254	0x3ce4bb97	0.027921481
255	0x3c930007	0.017944349

bias f4 [256]
0	0x3d744707	0.05963805
1	0xbd6b53ba	-0.057452895
2	0x3d10e8b6	0.03537818
3	0x3d624b80	0.055247784
4	0x3cd9d930	0.02659282
5	0xbb2e59d6	-0.002660384
6	0xbd042b8a	-0.032268085
7	0x3d5b6de2	0.05357159
8	0xbcc8edc6	-0.024527442
9	0xbd0cfd4c	-0.03442125
10	0x3c610a05	0.013735299
11	0xbd4d635d	-0.05014359
12	0x3d28b40c	0.04118733
13	0x3c8c832d	0.017152393
14	0xbd6d963a	-0.058004595
15	0xbd0be8e8	-0.034157664
16	0xbd645d1b	-0.055752855
17	0x3c218038	0.00985723
18	0x3c919f00	0.017776012
19	0xbc9ed350	-0.019387871
20	0xbc007db0	-0.007842466
21	0xbc611220	-0.0137372315
22	0xbd13d942	-0.036095865
23	0x3d221133	0.039567184
24	0xbd3e752b	-0.04649846
25	0x3cdf55ed	0.027262652
26	0x3c524922	0.012834819
27	0x3d4b6ed0	0.049666226
28	0xbd4dbc5a	-0.050228454
29	0xbd2354d9	-0.03987584
30	0xbd2aeb93	-0.041728567
31	0x3d517e17	0.05114564
32	0x3d31d69f	0.04341757
33	0x3d051b86	0.03249695
34	0xbcaae817	-0.020862622
35	0xbd51e9c2	-0.05124832
36	0xbd44db2c	-0.04806058
37	0xbb89d3f9	-0.0042061773
38	0xbd0fb47e	-0.03508424
39	0xbb02305d	-0.0019865253
40	0xbc86549f	-0.016397772
41	0xbd6110ea	-0.05494777
42	0xbca907ed	-0.020633662
43	0xbd6a2b2c	-0.05717008
44	0xbd53a57e	-0.051671498
45	0x3c22c005	0.009933476
46	0x3ba9d7fb	0.0051832176
47	0x3ca3fc9d	0.020017916
48	0xbd66639e	-0.056247346
49	0x3c883108	0.016624942
50	0xbcd52b20	-0.02602154
51	0x3c8a4a7d	0.016881222
52	0xbd023fcc	-0.031799123
53	0xbc4b8178	-0.0124210045
54	0xbd12a523	-0.035802018
55	0xbcfff310	-0.03124383
56	0xbcf52a73	-0.029927468
57	0x3d42bc38	0.04754278
58	0x3c48e052	0.012260513
59	0xbd6c0712	-0.05762393
60	0xbd17a608	-0.037023574
61	0xbd808554	-0.0627543
62	0xbcd63e8f	-0.026152877
63	0x3d429136	0.047501765
64	0x3d4212fa	0.04738138
65	0xbd36b221	-0.04460347
66	0x3d035894	0.032066897
67	0x3b325cf5	0.0027216051
68	0xbd29be48	-0.041441232
69	0xbbebf840	-0.0072012246
70	0x3d0fcf1e	0.03510963
71	0xbd2280c1	-0.03967357
72	0x3c7f6b53	0.015589553
73	0x3d022075	0.031769235
74	0xbd3c4deb	-0.045972746
75	0xbc34019d	-0.010986713
76	0x3d74b6e4	0.05974473
77	0x3bdd0bd0	0.006745793
78	0x3d62ecf5	0.05540176
79	0x3cd3d758	0.02585952
80	0xbc97324c	-0.0184566
81	0x3d4901e8	0.049074084
82	0x3988f403	0.00026121744
83	0xbc6aebd9	-0.014338457
84	0x3be87a83	0.0070946827
85	0x3baad4b1	0.005213343
86	0x3d79e2aa	0.06100718
87	0x3d6e8318	0.05823049
88	0x3cc729ff	0.024312017
89	0x3d57d129	0.052689705
90	0x3d0a50ac	0.03376834
91	0xbd1106b4	-0.035406783
92	0x3d5db25d	0.05412518
93	0xbb07d15c	-0.0020724153
94	0x3d61a016	0.05508431
95	0xbc9952f2	-0.01871631
96	0xbc61d468	-0.013783552
97	0x3c7f9828	0.015600242
98	0x3d7c6aaf	0.06162518
99	0xbd325d66	-0.043546103
100	0xbcf2adf9	-0.029623972
101	0xbc7964c2	-0.015221776
102	0xbd1a077a	-0.037604786
103	0xbd203385	-0.039111633
104	0xbd0a9410	-0.03383261
105	0x3d3dd893	0.04634912
106	0xbd195960	-0.03743875
107	0xbd2bcc48	-0.041942865
108	0xbc0a7f9b	-0.008453275
109	0xbcbb16ee	-0.022838082
110	0xbd0db32c	-0.0345947
111	0x3d6bb21f	0.057542916
112	0xbc0562ec	-0.008141261
113	0x3d45562c	0.048177883
114	0xbce8a850	-0.02840057
115	0x3ce6211a	0.028091956
116	0xbd44f4bc	-0.04808496
117	0x3caa7d8d	0.02081182
118	0xbc914a6b	-0.01773568
119	0xbd761c38	-0.060085505
120	0x3d0bdaf8	0.03414437
121	0xbb477aab	-0.0030438106
122	0xbb409496	-0.002938544
123	0x3d52bb98	0.051448435
124	0xbc681dbe	-0.014167247
125	0x3d3c7a64	0.04601516
126	0xba7f7a00	-0.00097456574
127	0xbcf0fde9	-0.029417949
128	0x3d0ff655	0.03514703
129	0xbd1fd1f6	-0.039018594
130	0x3bdf6fcf	0.0068187485
131	0xbc155f63	-0.00911698
132	0xbd062ede	-0.03275954
133	0x3c379808	0.011205681
134	0xbcb7698e	-0.0223892
135	0xbc8ef64c	-0.017451428
136	0x3c9c6038	0.01908885
137	0x3c97e0f5	0.018539885
138	0x3cd54065	0.026031682
139	0xbd66bf29	-0.05633465
140	0xbcef4d9a	-0.029211808
141	0xbd85f2a8	-0.06540424
142	0xbbdc0ee8	-0.006715644
143	0x3c982b2d	0.018575275
144	0x3d61d399	0.055133436
145	0xbbd89cc9	-0.006610487
146	0xbced9b65	-0.029004762
147	0xbd1f2782	-0.038856037
148	0x3d6b2e54	0.05741723
149	0xbcf12957	-0.029438658
150	0xbbdb5313	-0.006693253
151	0xbd20268e	-0.03909927
152	0xbd1dcba3	-0.03852428
153	0x3d00fe0b	0.031492274
154	0x3b425930	0.002965521
155	0xbcb1dc9c	-0.02171164
156	0xbceb0945	-0.028690943
157	0x3ccd91fb	0.025094023
158	0xbd0d6a57	-0.03452524
159	0xbd2a1aea	-0.041529574
160	0xbc8b3ba6	-0.016996216
161	0xbd374fb2	-0.044753738
162	0xbd4dd35a	-0.05025039
163	0xbcd896fa	-0.026439179
164	0x3d9c22f2	0.07623853
165	0xbd5a2861	-0.053261165
166	0x3d1e2a23	0.038614403
167	0xbcd54d58	-0.026037857
168	0x3bee79f0	0.0072777197
169	0xbd07117c	-0.03297566
170	0xbb145c1f	-0.0022637916
171	0xbd2a8b1c	-0.04163657
172	0xbc344c87	-0.011004574
173	0xbce593e8	-0.028024629
174	0x3ca5857c	0.020205252
175	0xbcf2f7c7	-0.029659165
176	0xbcfb9242	-0.03070939
177	0xbcef410d	-0.029205823
178	0xbcb1c23a	-0.02169906
179	0xbba0d8c0	-0.004908651
180	0xbc5690d0	-0.013096049
181	0xbd5ec41e	-0.05438625
182	0xbce8b6a7	-0.028407408
183	0x3cc9076d	0.024539674
184	0xbd750615	-0.059820253
185	0xbbe44bc8	-0.0069670416
186	0xbd87b22d	-0.06625781
187	0x3b86973a	0.004107383
188	0xbd1edcc5	-0.03878476
189	0x3ce3154e	0.02772012
190	0x3b37b303	0.0028030283
191	0x3ceb5c27	0.028730465
192	0xbd386b7a	-0.045024373
193	0xbd4ec16a	-0.050477423
194	0x3c7d832a	0.0154731665
195	0x3bbccba3	0.00576158
196	0x3cbae2e4	0.022813268
197	0xbd5a4c8a	-0.05329565
198	0x3d6eaf97	0.058272924
199	0xbd06e242	-0.03293062
200	0x3b2f6ce0	0.0026767775
201	0xbcfc1fb3	-0.030776834
202	0xbd29604a	-0.041351594
203	0x3c2f8fbf	0.010715424
204	0x3b9be430	0.0047574267
205	0xbca0b13f	-0.019615768
206	0x3d5f5845	0.05452754
207	0xbca6b7ba	-0.02035128
208	0xbd68a71e	-0.0568
209	0x3cd748ef	0.026279895
210	0xbc0e8d08	-0.008700617
211	0x3c1218e4	0.008917067
212	0x3cc899c9	0.024487393
213	0xbd221532	-0.039570995
214	0x3cd276d9	0.025691437
215	0x3d3ff505	0.04686453
216	0xbd711459	-0.058857296
217	0x3d27494a	0.04084138
218	0x3d59fbc1	0.053218607
219	0x3ce52b04	0.027974613
220	0x3cce332e	0.025170889
221	0x3c74c47a	0.014939422
222	0xbd4eb7b7	-0.050468173
223	0xbc88cb34	-0.016698457
224	0x3d559f51	0.05215389
225	0xbc1798db	-0.009252752
226	0x3d40fa84	0.04711391
227	0x3d775b52	0.060389824
228	0x3d2ee451	0.04269821
229	0x3d3d2f52	0.046187706
230	0xbd2b65cc	-0.041845128
231	0xbd2867be	-0.04111456
232	0xbcd03b2c	-0.02541884
233	0x3baeef62	0.0053385952
234	0xbd3d370a	-0.046195067
235	0x3d4bbc4e	0.04974013
236	0x3b7f43e4	0.0038950378
237	0x3ce1c0fc	0.027557842
238	0x3d60c092	0.05487115
239	0x3a1c7117	0.00059677794
240	0x3d3a0e97	0.04542407
241	0xbd817c0a	-0.06322487
242	0x3d634188	0.055482417
243	0x3d648536	0.055791102
244	0xbd2dcfe1	-0.042434577
245	0xbd265160	-0.04060495
246	0x3d6d7bdb	0.057979446
247	0x3ccafbd5	0.024778286
248	0x3d8ec414	0.06970993
249	0x3c05e57d	0.00817239
250	0xbcb54f3c	-0.022132508
251	0xbd15e7fd	-0.036598194
252	0x3c08e855	0.0083561735
253	0x3d7cf584	0.06175758
254	0x3c99c3d1	0.01877013
255	0x3d326c80	0.043560505

weight_mu f4 [1, 256]
0	0x3d4408ad	0.047859836
1	0x3d466004	0.04843141
2	0x3d3b67fc	0.045753464
3	0xbca8bff6	-0.020599347
4	0xbd7d8570	-0.061894834
5	0xbd674223	-0.056459557
6	0x3d96e806	0.07368474
7	0x3cdf7d37	0.027281387
8	0x3c4d7040	0.0125389695
9	0x3ca11cdc	0.019667082
10	0xbd5ff485	-0.05467655
11	0x3c0b8098	0.008514546
12	0xbcf9d14e	-0.030495312
13	0xbd5835d0	-0.052785695
14	0x3d2c46e0	0.04205978
15	0xbcfbaba2	-0.03072149
16	0xbd267634	-0.04064007
17	0xbd602992	-0.054727145
18	0x3cd1f5f4	0.025629975
19	0x3c1bede8	0.0095171705
20	0xbd2ba1e8	-0.041902453
21	0x3b7a1f60	0.0038165674
22	0x3d1ce442	0.03830362
23	0xbd1adf85	-0.03781082
24	0x3d553b9c	0.0520588
25	0xbc1d7a9d	-0.009611753
26	0xbcaaecd3	-0.02086488
27	0x3da80771	0.08204544
28	0x3bda158b	0.0066554
29	0x3cdb48be	0.026768085
30	0x3c6ae2d1	0.014336304
31	0x3c8f64bd	0.01750409
32	0xbcb2b154	-0.021813072
33	0x3c8ee31a	0.017442275
34	0x3d5cc114	0.05389507
35	0xbc0577a8	-0.008146204
36	0x3d2d9d96	0.042386614
37	0x3d5c065c	0.053717002
38	0x3cd4ce51	0.025977286
39	0xbceff5f7	-0.02929209
40	0xbc9e3ea1	-0.019316973
41	0xbd38a11c	-0.04507552
42	0x3adcdd17	0.0016850558
43	0xbd1fc376	-0.039004765
44	0xbb829400	-0.003984928
45	0x3d637ea6	0.055540703
46	0x3cbe81b2	0.023255203
47	0xbd1dd48f	-0.03853279
48	0xbd6ac8f2	-0.057320543
49	0x3c76f670	0.015073404
50	0x3d004218	0.031313032
51	0xbd08d360	-0.033404708
52	0x3cbadcd6	0.02281038
53	0xbd747a7c	-0.059687123
54	0x3d2c048f	0.041996535
55	0xbc99e087	-0.01878382
56	0x3d22ffbc	0.03979467
57	0xbd7ac1da	-0.061220028
58	0xbbf7bab1	-0.007560097
59	0x3c844fb9	0.016151296
60	0xbd170c56	-0.036877
61	0xbc214b19	-0.009844565
62	0xbc14a2ac	-0.009071987
63	0x3d599a21	0.053125504
64	0x3d418e0a	0.0472546
65	0x3d054d2c	0.0325443
66	0x3b6fa060	0.0036564097
67	0x3d273ed7	0.040831413
68	0xbd704c59	-0.05866656
69	0xbd1a41fe	-0.03766059
70	0xbcaf863f	-0.021426318
71	0x3c2c1d13	0.010504979
72	0xbb7b1414	-0.0038311528
73	0xbd017fda	-0.03161607
74	0xbd3933ea	-0.045215525
75	0x3cb26536	0.021776777
76	0x3d65a8ad	0.056069065
77	0x3d505f1c	0.050871953
78	0x3a2febda	0.0006710865
79	0xbcfe0b3c	-0.031011216
80	0x3b652880	0.0034966767
81	0x3d35009e	0.04419004
82	0xbcda431a	-0.026643325
83	0xbd4a0dba	-0.049329497
84	0xbd340c25	-0.043956894
85	0x3ce9cce1	0.028540077
86	0x3b6abe80	0.0035819113
87	0x3d9c6510	0.07636464
88	0x3d1ac201	0.037782673
89	0xbd5d4318	-0.054019064
90	0xbd451020	-0.04811108
91	0x3d2a51da	0.041581966
92	0x3ca3fd2c	0.020018183
93	0xbc01c3c6	-0.007920211
94	0x3d1f0f14	0.03883274
95	0x3ba6f2a4	0.005094843
96	0x3d35dfd0	0.044402897
97	0x3c2f1f38	0.0106885955
98	0x3c8d2af7	0.017232401
99	0xbca03774	-0.019557692
100	0xbcd862da	-0.026414324
101	0x3c600fef	0.013675674
102	0xbd39b5d3	-0.045339417
103	0xbd6be229	-0.05758873
104	0xbc9744f5	-0.018465498
105	0xbd5a2f5f	-0.053267833
106	0xbcba9e94	-0.022780694
107	0xbd1b7de8	-0.03796187
108	0x3d7b231a	0.061312772
109	0x3d7ae023	0.06124891
110	0xbbcb0be0	-0.006196484
111	0xbd052d33	-0.03251381
112	0xba8f6329	-0.0010939586
113	0x3d4d2c4f	0.050091084
114	0xba94d7c0	-0.0011355802
115	0x3d937601	0.07200242
116	0x3d603c36	0.05474492
117	0x3b62bae2	0.0034596254
118	0xbc916e1e	-0.017752703
119	0x3d1ed88f	0.038780745
120	0xbc106ac0	-0.008814514
121	0x3d45606e	0.048187666
122	0x3d38f66a	0.045156874
123	0x3d4f26ac	0.05057399
124	0x3d248e15	0.040174562
125	0xbc9304be	-0.017946597
126	0x3d1bb43c	0.03801368
127	0xbce7a89c	-0.028278641
128	0xbce9df4a	-0.028548855
129	0xbd203196	-0.03910979
130	0xbd313dcd	-0.04327183
131	0x3d5a53af	0.053302463
132	0x3d708b14	0.058726385
133	0x3d0676aa	0.03282801
134	0x3d3a2140	0.045441866
135	0x3d22c80c	0.03974156
136	0x3d4e7ba0	0.050410867
137	0x3bbc13a8	0.005739648
138	0xbc6d13ae	-0.014470024
139	0xbcfa7dcf	-0.030577568
140	0xbd23fc68	-0.040035635
141	0xbc80765c	-0.015681438
142	0x3d262d56	0.04057058
143	0xbc9981e5	-0.018738696
144	0x3d016e6f	0.03159946
145	0xbd4f2cf9	-0.05058
146	0x3d0e8b4e	0.03480082
147	0x3d593314	0.053027228
148	0xbd312aec	-0.043253824
149	0x3bbe5255	0.0058081546
150	0x3d58ed5a	0.05296073
151	0x3cc9a87d	0.024616474
152	0x3d3cfa59	0.046137188
153	0x3d58eab3	0.0529582
154	0x3d6035ae	0.054738693
155	0x3d12a786	0.035804294
156	0x3d5622cb	0.052279275
157	0x3d663b2d	0.05620878
158	0xbd2dc8e1	-0.0424279
159	0x3c6a1d78	0.014289252
160	0x3ba52a04	0.005040409
161	0x3bad8828	0.005295772
162	0xbcd65b0d	-0.026166463
163	0xbd27c92e	-0.040963344
164	0x3d7707b3	0.060310077
165	0xbbb9c1b4	-0.005668843
166	0xbd2cee25	-0.0422193
167	0x3d7e0c61	0.062023524
168	0x3cabfc80	0.020994425
169	0xbc80bfd0	-0.015716463
170	0xbd8e269b	-0.06940957
171	0x3cec5252	0.028847847
172	0x3d101545	0.035176534
173	0x3d7be1c6	0.06149461
174	0x3d8731e2	0.06601311
175	0x3d03421d	0.032045472
176	0x3d563617	0.052297678
177	0xbc574746	-0.0131395515
178	0x3c71bb47	0.014754123
179	0x3d57f27e	0.052721493
180	0xbcb4bab8	-0.02206169
181	0x3d2e7336	0.042590342
182	0x3d71567a	0.05892036
183	0x3d758aed	0.059946943
184	0x3d40a56f	0.04703277
185	0xbd155e20	-0.036466718
186	0xbc6d742d	-0.0144930305
187	0x3cd47595	0.025934974
188	0x3cfc9cbe	0.03083646
189	0x3dd404a9	0.10352451
190	0xbc1650b3	-0.009174514
191	0xbcfe3de2	-0.031035367
192	0x3d2183d3	0.039432358
193	0x3d66318b	0.05619959
194	0x3d1f2894	0.038857058
195	0xbd17fe9c	-0.03710805
196	0x3c176108	0.009239443
197	0xbcf6d834	-0.03013239
198	0xbc2a33b4	-0.010388304
199	0x3d3639c7	0.044488695
200	0x3b83a129	0.0040170145
201	0x3d6131a1	0.05497897
202	0xbd323414	-0.043506697
203	0xbc563542	-0.013074221
204	0x3d810e91	0.063016064
205	0x3be49993	0.0069763153
206	0xbc346ae2	-0.011011811
207	0xbcf4b2d3	-0.029870426
208	0x3bfd3f79	0.007728514
209	0x3bf28b40	0.007401854
210	0x3cac7173	0.02105019
211	0x3d38f27f	0.045153137
212	0xbcc070bb	-0.023491254
213	0x3d494464	0.049137488
214	0xbd24814f	-0.04016238
215	0x3c423eb0	0.011855766
216	0xbd41005f	-0.047119495
217	0xbd09356e	-0.03349822
218	0x3d107fda	0.03527818
219	0x3c953df8	0.018218026
220	0x3d41d790	0.047324717
221	0x3c18b343	0.009320083
222	0x3c87822d	0.016541565
223	0xbcbb038e	-0.022828843
224	0xbd0a6c48	-0.03379467
225	0x3d1f2098	0.038849443
226	0xbce97c96	-0.02850179
227	0x3d5d004c	0.05395536
228	0xbd139321	-0.036028985
229	0x3ce481a4	0.027893849
230	0x3c9b2f50	0.018943459
231	0xbd3fa632	-0.046789356
232	0xbcf75666	-0.030192565
233	0xbd84a80c	-0.06477365
234	0x3d1a85dc	0.037725314
235	0x3b962ef5	0.0045832344
236	0xbd60c536	-0.054875575
237	0x3c4df535	0.012570669
238	0x3c9aeb88	0.018911138
239	0xbd6d8bb8	-0.057994574
240	0xbd9332b0	-0.07187402
241	0xbcb9ac10	-0.022665054
242	0x3c97b4aa	0.018518765
243	0x3d422744	0.047400728
244	0x3d823b7f	0.06359004
245	0x3d1dfe91	0.03857285
246	0x3d887bd4	0.06664243
247	0x3db351b3	0.08755817
248	0x3d8d7131	0.06906355
249	0xbd4bd22b	-0.04976098
250	0x3d5f78ba	0.054558493
251	0x3ca7b67d	0.02047276
252	0x3b263853	0.0025363162
253	0x3d7257a2	0.059165604
254	0xbd49ae2d	-0.049238373
255	0x3d6a4978	0.05719897

weight_sigma f4 [1, 256]
0	0x3afe08a3	0.0019381236
1	0x3d000000	0.03125
2	0x3d002593	0.031285834
3	0x3ce68957	0.02814166
4	0x3d000000	0.03125
5	0x3bb4b6b0	0.005514942
6	0x3c737e85	0.014861708
7	0x3cb659fb	0.022259703
8	0x3ceb6aed	0.02873751
9	0x3d000000	0.03125
10	0x3cc78ade	0.02435821
11	0x3cf679f1	0.030087443
12	0x3ca42509	0.020037191
13	0x3cc3e8e8	0.02391477
14	0x3d000000	0.03125
15	0x3caa137e	0.020761248
16	0x3ce6080b	0.028080007
17	0x3d000000	0.03125
18	0x3d000000	0.03125
19	0x3d000000	0.03125
20	0x3d000000	0.03125
21	0x3d000000	0.03125
22	0x3d000000	0.03125
23	0x3c58b965	0.013227795
24	0x3cf9560e	0.030436542
25	0x3cfb95f4	0.030711152
26	0x3ceda5dd	0.029009754
27	0x3c858ce5	0.016302535
28	0x3c08a9e8	0.00834129
29	0x3bf9d378	0.007624086
30	0x3cfa9c31	0.030592056
31	0x3cfc3c33	0.030790424
32	0x3b166a3b	0.0022951502
33	0x3cfaa63f	0.03059685
34	0x3d01f5bc	0.03172849
35	0x3d000000	0.03125
36	0x3cee0721	0.029056134
37	0x3d0a1585	0.03371193
38	0x3cfd4c9f	0.030920325
39	0x3caaca09	0.020848291
40	0x3cf17e0a	0.029479045
41	0x3d000000	0.03125
42	0x3cf01aa0	0.02930957
43	0x3d000000	0.03125
44	0x3d000000	0.03125
45	0x3bdb14da	0.0066858353
46	0x3c9dad38	0.019247636
47	0x3c2897f6	0.010290137
48	0x3d000000	0.03125
49	0x3d000000	0.03125
50	0x3d000000	0.03125
51	0x3ceed874	0.029155947
52	0x3d0304bf	0.031986948
53	0x3ce3cb5d	0.027806932
54	0x3cfd0458	0.03088586
55	0x3cfcbee0	0.030852735
56	0x3cf25b0c	0.02958443
57	0x3d000000	0.03125
58	0x3c9bf8bd	0.019039506
59	0x3d01ccce	0.031689458
60	0x3d000000	0.03125
61	0x3c5d5834	0.013509799
62	0x3cfb2ec3	0.030661946
63	0x3cfe7084	0.031059511
64	0x3ce31daf	0.027724115
65	0x3d01da08	0.03170207
66	0x3d000000	0.03125
67	0x3cd4a18c	0.025955938
68	0x3cf69a65	0.030102918
69	0x3d000000	0.03125
70	0x3d017186	0.031602405
71	0x3c0934f4	0.008374441
72	0x3ce985c1	0.028506162
73	0x3cdd4cb8	0.027014121
74	0x3c975119	0.018471288
75	0x3cb0a37b	0.021562329
76	0x3b1c7c73	0.0023877888
77	0x3d000000	0.03125
78	0x3d0cc7c1	0.034370188
79	0x3d000000	0.03125
80	0x3d000000	0.03125
81	0x3cdf7c28	0.027280882
82	0x3ca672e1	0.02031845
83	0x3cbe1f53	0.023208296
84	0x3c84e119	0.016220616
85	0x3cfaab6f	0.030599324
86	0x3d000000	0.03125
87	0x3cc299ad	0.023754919
88	0x3cfbc132	0.030731771
89	0x3ccf2679	0.0252869
90	0x3d000000	0.03125
91	0x3d000000	0.03125
92	0x3cd924e4	0.026506849
93	0x3cc72594	0.02430991
94	0x3d000000	0.03125
95	0x3d043145	0.03227355
96	0x3d000000	0.03125
97	0x3d000000	0.03125
98	0x3cb95692	0.022624288
99	0x3d000000	0.03125
100	0x3d08f807	0.033439662
101	0x3ce7c97f	0.028294323
102	0x3caa2bf9	0.02077292
103	0x3cfb0aeb	0.030644855
104	0x3a576174	0.0008216121
105	0x3cc9c93b	0.024632087
106	0x3cb7cb60	0.022435844
107	0x3d000000	0.03125
108	0x3d01891d	0.031624902
109	0x3cf60b2a	0.03003462
110	0x3d000000	0.03125
111	0x3ce9f17c	0.028557532
112	0x3cf9e633	0.030505275
113	0x3cfcd1b3	0.030861711
114	0x3cfe4042	0.0310365
115	0x3c25bea3	0.010116252
116	0x3d000000	0.03125
117	0x3cd15d52	0.025557194
118	0x3cc4fbfe	0.02404594
119	0x3cef70d2	0.029228602
120	0x3d000000	0.03125
121	0x3d009626	0.031393193
122	0x3d00b942	0.031426676
123	0x3d000000	0.03125
124	0x3d02c6d8	0.031927913
125	0x3ce591fa	0.028023709
126	0x3d000000	0.03125
127	0x3cf5b402	0.029993061
128	0x3cf49492	0.029856
129	0x3d000000	0.03125
130	0x3c99ce5e	0.018775161
131	0x3c7b1f03	0.015327218
132	0x3d000000	0.03125
133	0x3d000000	0.03125
134	0x3cf0addc	0.029379778
135	0x3cfa2533	0.030535316
136	0x3d000000	0.03125
137	0x3d024b09	0.03180984
138	0x3d0238ba	0.03179238
139	0x3b69bd58	0.0035665836
140	0x3c07bd00	0.008284807
141	0x3cefcced	0.02927252
142	0x3d11ff47	0.035643842
143	0x3cdb933e	0.026803609
144	0x3ce5ef78	0.02806829
145	0x3cc9516e	0.024574962
146	0x3cf748c3	0.030186063
147	0x3d035dc5	0.032071847
148	0x3d000000	0.03125
149	0x3ce8f5e9	0.028437572
150	0x3cf4aae3	0.029866641
151	0x3ce8538c	0.02836015
152	0x3d0906a5	0.033453602
153	0x3c25acdd	0.010112015
154	0x3cf69306	0.030099403
155	0x3d000000	0.03125
156	0x3ceaec4e	0.028677132
157	0x3cf46b04	0.029836185
158	0x3d07d4f8	0.033162087
159	0x3d000000	0.03125
160	0x3cee0cb8	0.0290588
161	0x3d021648	0.03175953
162	0x3ccd7b7d	0.025083298
163	0x3c325a46	0.010885781
164	0x3c967f56	0.018371265
165	0x3cf016d8	0.029307768
166	0x3ced5ef1	0.028975936
167	0x3c9fdac1	0.01951349
168	0x3d000000	0.03125
169	0x3d00c12d	0.031434227
170	0x3cc28c8d	0.02374866
171	0x3cd51597	0.026011271
172	0x3d009d24	0.03139986
173	0x3d000000	0.03125
174	0x394fecd2	0.00019829281
175	0x3ce34762	0.027743999
176	0x3c8c5da2	0.017134491
177	0x3cecb513	0.028894937
178	0x3c517bd5	0.0127858715
179	0x3d000000	0.03125
180	0x3d000000	0.03125
181	0x3cf8524b	0.030312678
182	0x3cf1e1d6	0.029526632
183	0x3d020a34	0.03174801
184	0x3ce7746d	0.028253758
185	0x3cd73eda	0.026275087
186	0x3cea9fc9	0.028640645
187	0x3ce64cce	0.028112795
188	0x3cfef1ce	0.03112116
189	0x3bb5f0bc	0.0055523794
190	0x3cdb5948	0.026775971
191	0x3ce16cb2	0.02751765
192	0x3cf12643	0.02943719
193	0xb9c8b6bc	-0.0003828312
194	0x3d01db65	0.03170337
195	0x3cf1e021	0.029525818
196	0x3d000000	0.03125
197	0x3d000000	0.03125
198	0x3cf064b0	0.029344887
199	0x3cc46a24	0.023976393
200	0x3d001ded	0.03127854
201	0x3ce59048	0.0280229
202	0x3d000000	0.03125
203	0x3cb2702a	0.021782
204	0x3c4f60e5	0.012657379
205	0x3ce2bfa1	0.027679266
206	0x3c50b054	0.012737352
207	0x3cb91f9c	0.02259808
208	0x3ccafd01	0.024778845
209	0x3cf29a86	0.029614698
210	0x3d0398b0	0.032128036
211	0x3cf5b675	0.029994229
212	0x3cd204ce	0.025637057
213	0x3d04e953	0.032449078
214	0x3d0e3891	0.034721915
215	0x3cdb071c	0.026736788
216	0x3ce647f5	0.028110484
217	0x3d000000	0.03125
218	0x3d005e47	0.03133991
219	0x3d000000	0.03125
220	0xb984f0b2	-0.00025356334
221	0xb9dfb2e6	-0.00042667164
222	0x3b4a82f0	0.0030900799
223	0x3ceaef5f	0.028678594
224	0x3cc5ba7a	0.02413677
225	0x3d06903e	0.032852404
226	0x3cdc787c	0.02691292
227	0x3d000000	0.03125
228	0x3ce7a21d	0.028275544
229	0x3d000000	0.03125
230	0x3d000000	0.03125
231	0x3d000000	0.03125
232	0x3cd97934	0.026547052
233	0x3c275f38	0.010215573
234	0x3d000000	0.03125
235	0x3d016fe5	0.03160085
236	0x3c9ec7df	0.019382415
237	0x3c06eb15	0.008234759
238	0x3d000000	0.03125
239	0x3ce805e7	0.028323127
240	0x3ca3e7dd	0.020008022
241	0x3cf880b7	0.030334814
242	0x3d0a1ab1	0.03371686
243	0x3cf3c875	0.029758671
244	0x3c39a8be	0.011331735
245	0x3cf75439	0.030191528
246	0x3c829acc	0.015942954
247	0x3c4c6051	0.0124741355
248	0x3c59025b	0.0132451905
249	0x3cd3cb76	0.025853854
250	0x3cf95598	0.030436322
251	0x3cdd19c5	0.026989827
252	0x3cf71daa	0.030165512
253	0x3d000000	0.03125
254	0x3d004358	0.031314224
255	0x3d000000	0.03125

weight_epsilon f4 [1, 256]
0	0xbeda4995	-0.42634264
1	0x3f2f3149	0.6843458
2	0x3f2a852a	0.6660944
3	0xbf7dc868	-0.9913392
4	0x3faa7827	1.3317918
5	0x3f0d031c	0.5508287
6	0xbfcb14f6	-1.5865772
7	0xbf00d366	-0.5032257
8	0xbf2b9f45	-0.670399
9	0xbf036d57	-0.51338714
10	0xbf0dfff1	-0.5546866
11	0xbeea85c9	-0.45805195
12	0xbf0d7ac7	-0.5526547
13	0xbf117d95	-0.5683225
14	0x3e67c920	0.22635317
15	0xbf561ce1	-0.83637816
16	0xbef5eadc	-0.48030746
17	0x3f83f076	1.0307758
18	0xbf6eff8f	-0.933587
19	0x3fb1ea8f	1.3899707
20	0x3fa6ecdd	1.3041035
21	0x3e131e9d	0.14367147
22	0xbef9cf81	-0.48791125
23	0xbf4499e0	-0.76797295
24	0x3f27a316	0.65483224
25	0x3eb43c07	0.35202047
26	0xbf41eda2	-0.75753224
27	0x3f80f342	1.0074236
28	0x3f2b499b	0.6690919
29	0xbf11fdef	-0.57028097
30	0xbf5fe757	-0.8746237
31	0xbf924803	-1.1428226
32	0x3f555691	0.83335215
33	0x3e80fb25	0.25191608
34	0xbf1dde71	-0.61667544
35	0xbf755415	-0.95831424
36	0xbfb5ee8d	-1.4213425
37	0x3f717fd9	0.94335705
38	0xbf127b4d	-0.5721939
39	0x3f9883eb	1.1915258
40	0x3f7b9830	0.98279095
41	0x3fc15888	1.5105143
42	0x3ed8d648	0.42350984
43	0xbd99192d	-0.07475505
44	0xbf89d69d	-1.076862
45	0x3f7530bb	0.9577748
46	0xbf89da63	-1.0769771
47	0xbe91dc96	-0.28488606
48	0x3f9f876e	1.2463205
49	0x3f66782c	0.9002712
50	0x3f895922	1.0730326
51	0xbe9c4776	-0.3052327
52	0x3fa352d3	1.2759651
53	0x3f84ff73	1.0390457
54	0xbf88f485	-1.0699621
55	0xbf4f8b9e	-0.81072414
56	0x3f471a37	0.77774376
57	0x3eae41f6	0.340347
58	0x3f54aa65	0.830725
59	0x3eff4be1	0.4986258
60	0xbe84fde9	-0.25974968
61	0x3f6baa90	0.9205713
62	0x3f1979b7	0.5995135
63	0x3f057814	0.5213635
64	0xbf98a094	-1.1924005
65	0xbf66087b	-0.8985669
66	0xbfb098b7	-1.3796605
67	0xbf282268	-0.656775
68	0xbf6970f7	-0.91187996
69	0x3e1b4223	0.15161948
70	0xbe89902c	-0.26867807
71	0x3f2773a2	0.65410817
72	0x3f691e16	0.9106153
73	0xbf3bb0e3	-0.7331678
74	0x3faa9c9c	1.3329043
75	0xbfafe2f6	-1.3741138
76	0x3f0f6aaa	0.5602213
77	0xbeedba30	-0.46431112
78	0x3f8dbca3	1.1073192
79	0x3fa96afc	1.3235774
80	0x3f5fd452	0.8743335
81	0xbf870f78	-1.0551596
82	0xbdae2ada	-0.08504267
83	0xbfa24568	-1.2677431
84	0xbf1fa2d1	-0.62357813
85	0x3f751066	0.9572815
86	0xbf8d729d	-1.1050602
87	0xbf2d8231	-0.6777678
88	0xbfa68d78	-1.3011923
89	0xbf490511	-0.78523356
90	0x3f35ad49	0.7096754
91	0x3f76a5d1	0.96346766
92	0xbf21e45e	-0.63239086
93	0x3ea28cc5	0.31748024
94	0x3f2952a1	0.66141707
95	0x3edf9be3	0.4367362
96	0x3eed2444	0.4631673
97	0x3e8f5c3d	0.2800006
98	0xbf64ce5c	-0.8937738
99	0x3f8be8ab	1.093038
100	0x3fa7ca0d	1.3108536
101	0x3f4caf44	0.79954934
102	0xbf486b4d	-0.7828873
103	0xbf12478b	-0.57140416
104	0xbe972d74	-0.29526865
105	0x3f1d8414	0.6152966
106	0x3fc6e084	1.5537267
107	0xbf8bfd19	-1.0936614
108	0x3f522720	0.8209095
109	0xbe552866	-0.20816192
110	0x3eaca169	0.33716896
111	0xbef2d718	-0.47429729
112	0x3f0f423b	0.55960435
113	0xbf2a0039	-0.6640659
114	0xbf558563	-0.83406657
115	0x3f8afbec	1.085813
116	0xbf314842	-0.6925088
117	0x3f8e1a8d	1.1101853
118	0x3f54f6e9	0.83189255
119	0xbf28cf6b	-0.65941495
120	0x3f9e9557	1.2389325
121	0x3f5b2941	0.85609823
122	0x3f11b557	0.5691733
123	0x3f3e255e	0.7427577
124	0xbe35c314	-0.17750198
125	0xbf06204f	-0.5239305
126	0xbf820f80	-1.016098
127	0xbf0e6826	-0.5562767
128	0x3ee310df	0.4434881
129	0x3f908ad1	1.1292363
130	0xbf946b79	-1.1595298
131	0xbf621830	-0.8831816
132	0xbf9a2db1	-1.2045194
133	0xbf8bcd0c	-1.092195
134	0xbf4abd0b	-0.79194707
135	0x3fb37ec3	1.402306
136	0xbf01cfaa	-0.50707495
137	0xbf84b5d9	-1.0367996
138	0x3f9c4391	1.220812
139	0x3f6023fa	0.87554896
140	0xbf738b99	-0.95134884
141	0x3f5f3d1c	0.8720262
142	0xbf3a4137	-0.7275576
143	0xbf2ab88d	-0.6668785
144	0xbeb0775f	-0.34466073
145	0x3f05dc17	0.52288955
146	0xbf845cc6	-1.0340812
147	0x3fa2ffd0	1.2734318
148	0xbf5f4f1d	-0.8723009
149	0xbf1af367	-0.6052765
150	0x3f2e4a2c	0.6808193
151	0xbf875f9a	-1.057605
152	0xbf621ca3	-0.88324946
153	0xbfa79fbb	-1.3095621
154	0x3effedd2	0.4998613
155	0x3eb401dc	0.3515767
156	0xbedb0568	-0.42777562
157	0xbfa8911f	-1.3169287
158	0xbf14d626	-0.58139265
159	0xbf0c3bc1	-0.5477868
160	0x3f63721a	0.8884598
161	0xbf6e9f89	-0.9321218
162	0xbf239e0c	-0.63913035
163	0x3f860c3f	1.0472487
164	0x3eedc8ae	0.4644217
165	0xbeb91872	-0.36151463
166	0x3f138988	0.5763173
167	0x3f9bf194	1.2183099
168	0x3f81e4aa	1.0147908
169	0xbeafe1c0	-0.3435192
170	0xbf46f8fa	-0.7772366
171	0x3fab50f6	1.3384082
172	0x3fbea7f0	1.4895
173	0xbf29f0ba	-0.66382945
174	0xbfb98cb7	-1.4496068
175	0x3f85fbad	1.046743
176	0xbe8349d0	-0.25642252
177	0x3f57dcb4	0.8432114
178	0xbf22a929	-0.6353937
179	0xbfd749fd	-1.6819454
180	0xbee6bb22	-0.45064646
181	0xbfa8f2f4	-1.3199143
182	0x3f19e9db	0.6012246
183	0xbfbb8a18	-1.4651518
184	0xbf22c3a4	-0.63579774
185	0xbfaf0fab	-1.3676656
186	0xbf2a1f3b	-0.66453904
187	0x3f8b5b58	1.0887251
188	0xbf9bc3a0	-1.2169075
189	0xbf6d4624	-0.9268515
190	0x3f8f6a31	1.1204282
191	0x3f7fd396	0.9993223
192	0x3f61a1f1	0.8813773
193	0xbfac8505	-1.3478094
194	0x3ef9d1db	0.4879292
195	0x3f2eaadc	0.6822946
196	0x3f23b0b4	0.639415
197	0xbf447b7a	-0.7675091
198	0x3f8b84c2	1.089989
199	0xbf83c762	-1.0295222
200	0x3f523b0c	0.8212135
201	0xbfc6b73a	-1.5524666
202	0xbf829407	-1.0201424
203	0xbd13d8ba	-0.03609536
204	0xbf5c56fd	-0.86070234
205	0x3fa6dd69	1.3036319
206	0x3f6ae78b	0.91759557
207	0xbf278708	-0.65440416
208	0xbf9a9d4d	-1.2079254
209	0xbf9ff367	-1.2496156
210	0xbf1ed32a	-0.6204096
211	0xbfa667f4	-1.3000474
212	0x3f5a9ad4	0.853925
213	0xbf93c03e	-1.1543043
214	0x3f947fa9	1.1601459
215	0x3f0b9686	0.54526556
216	0x3f910650	1.1330051
217	0x3f52eb21	0.8239003
218	0xbf9d4d4a	-1.2289212
219	0x3f3ab94e	0.72939
220	0xbebae66c	-0.36503923
221	0x3f873171	1.0561963
222	0x3e8243ee	0.2544245
223	0xbf957fb0	-1.1679592
224	0xbf8f4688	-1.11934
225	0x3fa0a420	1.2550087
226	0x3e6bfbd8	0.2304529
227	0x3f40a288	0.75248003
228	0x3f59fbc6	0.851498
229	0xbf48eecf	-0.78489393
230	0xbf3b7569	-0.7322603
231	0x3f5c08da	0.85951006
232	0xbe6c973a	-0.23104563
233	0x3f846efc	1.034637
234	0xbf4f3d93	-0.8095333
235	0xbf60dade	-0.87833965
236	0xbf6197af	-0.88122076
237	0xbf910942	-1.133095
238	0x3f611b20	0.87932014
239	0x3f751a98	0.95743704
240	0xbf98b556	-1.1930339
241	0xbf05aae5	-0.5221389
242	0xbf815f09	-1.0107127
243	0x3f433b14	0.7626202
244	0x3f21cda9	0.6320444
245	0x3f4793be	0.7795981
246	0x3f62c9f2	0.88589394
247	0x3fd42a90	1.6575489
248	0xbf1e151b	-0.61750954
249	0x3f4fb64b	0.8113753
250	0x3f83a60b	1.0285047
251	0x3fae610d	1.3623368
252	0xbf3def90	-0.7419367
253	0xbeb0781d	-0.3446664
254	0x3f757055	0.9587453
255	0x3f4d1b8d	0.80120164
