experiments/diff_context_data/rain_models/rainbow_dqn_proposed_target_erf.pth (torch, 380358 bytes, 13 tensors)

weight f4 [256, 4]
0	0xbe409c50	-0.18809628
1	0xbe6b61f8	-0.22986591
2	0xbec6c4a6	-0.38821906
3	0xbecc30c4	-0.39880955
4	0xbe9fe984	-0.31232846
5	0xbef6bf74	-0.48192942
6	0xbe2c60dc	-0.16833824
7	0xbed4acc4	-0.4153806
8	0x3dcd47c3	0.10023453
9	0xbee9f2bf	-0.45693013
10	0xbe5c606a	-0.21521154
11	0x3db32290	0.08746827
12	0x3ebd9a10	0.37031603
13	0x3c9a06ab	0.018802008
14	0xbc381f20	-0.0112378895
15	0x3ef0ea57	0.47053787
16	0x3da2692d	0.07930217
17	0xbc825753	-0.01591078
18	0xbeeccc11	-0.4624944
19	0x3e7ea6fd	0.24868388
20	0xbe724f48	-0.23663056
21	0xbe06b860	-0.13156271
22	0x3b632700	0.0034660697
23	0x3ed1588a	0.40887862
24	0xbddbf5d5	-0.10740248
25	0x3e88778b	0.26653704
26	0xbdd3bde3	-0.103389524
27	0xbef573c9	-0.479399
28	0xbee16f2c	-0.4403013
29	0x3ea2f818	0.31829906
30	0xbe5c9438	-0.21540916
31	0xbee787eb	-0.45220885
32	0xbe4571d2	-0.192817
33	0xbe59adf2	-0.21257761
34	0x3ec885c2	0.3916455
35	0x3de3576a	0.11100657
36	0xbdc45280	-0.09586048
37	0xbd2dd5c0	-0.042440176
38	0xbdc68510	-0.096933484
39	0xbef20ea4	-0.47276795
40	0x3ede910b	0.43470034
41	0xbcf8dd5a	-0.030378986
42	0xbea37327	-0.31923792
43	0xbef7dfc0	-0.48412895
44	0xbee6f0c3	-0.45105562
45	0x3d1ff1a0	0.03904879
46	0x3d791050	0.060806572
47	0x3c904540	0.017611146
48	0x3e7a0621	0.244164
49	0xbb011961	-0.0019698965
50	0xbd3806c2	-0.04492832
51	0xbe839dc2	-0.25706297
52	0xbdd20510	-0.10254872
53	0xbe571100	-0.21002579
54	0xbe262394	-0.1622451
55	0xbebbbee4	-0.36669075
56	0xbd88036d	-0.066412784
57	0x3e864521	0.26224616
58	0xbe27c1f0	-0.16382575
59	0x3e4e55a8	0.20149863
60	0x3d6031de	0.054735057
61	0x3eb59bfe	0.35470575
62	0xbe112c85	-0.14177139
63	0x3ec6d63e	0.3883533
64	0x3e124f33	0.14288025
65	0x3e4887c1	0.19583036
66	0xbebeb0e4	-0.37244332
67	0x3ee22afb	0.44173416
68	0x3e376c40	0.17912388
69	0x3e3804a8	0.17970526
70	0xbe8f7dd4	-0.28025687
71	0xbd3d2f51	-0.046187703
72	0x3dff099e	0.12453006
73	0xbdc6d089	-0.09707744
74	0xbe7a0498	-0.24415815
75	0xbee3be18	-0.44480968
76	0xbd4f3f70	-0.050597608
77	0xbe312738	-0.17300117
78	0xbea99766	-0.3312332
79	0x3d962168	0.073305905
80	0xbe4da5c1	-0.20082761
81	0xbe7d1bc4	-0.24717623
82	0x3dd3a1c9	0.103335924
83	0x3eb30b97	0.3496978
84	0xbe0657b8	-0.131194
85	0x3e73ef8e	0.23821852
86	0xbec4ef8b	-0.38464007
87	0x3dbe476e	0.09290968
88	0x3ef6b578	0.48185325
89	0xbe9da9f2	-0.3079372
90	0xbe8cfaf5	-0.27535215
91	0xbe933019	-0.28747633
92	0x3e011dcc	0.12609023
93	0x3e266ecb	0.16253202
94	0xbeee9bcd	-0.46603242
95	0xbec26d41	-0.3797398
96	0xbed88982	-0.4229241
97	0x3ed2c586	0.41166323
98	0xbee74ccd	-0.45175782
99	0xbeb7b413	-0.35879573
100	0x3e6dfcf9	0.23241033
101	0x3d85e7a1	0.0653832
102	0xbeae3dcb	-0.3403152
103	0x3e940aa8	0.2891438
104	0x3db7814e	0.0896021
105	0x3e88c2db	0.26711163
106	0x3d781ff7	0.06057736
107	0x3e887cd3	0.26657733
108	0x3e72e7a4	0.23721176
109	0xbe4fcc52	-0.20292786
110	0xbe8088e8	-0.2510445
111	0xbebc047f	-0.3672218
112	0xbccc5d80	-0.024946928
113	0xbeefb7a3	-0.4681979
114	0x3d0b7190	0.03404385
115	0x3eccc17e	0.39991373
116	0x3e2196dc	0.15780205
117	0x3d2cb394	0.042163447
118	0x3ebb61c2	0.3659802
119	0xbeda5fe7	-0.42651293
120	0x3d8ad7b7	0.067794256
121	0xbe982acc	-0.2972015
122	0xbe32ecea	-0.17473188
123	0xbeaa9121	-0.3331385
124	0xbefa758c	-0.48917806
125	0xbeb0426c	-0.34425676
126	0xbeff2cac	-0.4983877
127	0xbd90d130	-0.07071149
128	0x3e32a68e	0.17446348
129	0xbea33ba8	-0.31881452
130	0xbe605cdf	-0.21910428
131	0xbe47d718	-0.19515646
132	0xbe7861f7	-0.2425612
133	0x3df6db86	0.120535895
134	0xbec8a7d7	-0.39190552
135	0x3e73f9f0	0.23825812
136	0x3eb1418a	0.34620315
137	0x3ecf1e22	0.40452677
138	0x3e7af29d	0.24506612
139	0x3db1a099	0.0867321
140	0xbc61143b	-0.0137377335
141	0x3efe6516	0.49686497
142	0x3d72993d	0.05922817
143	0x3d86c4f8	0.065805376
144	0x3d5e9c74	0.054348424
145	0x3ec04f7f	0.3756065
146	0xbe5c4dbe	-0.21514031
147	0x3efc4947	0.49274656
148	0xbec66fec	-0.38757265
149	0xbcc63580	-0.024195433
150	0xbee71cf0	-0.45139265
151	0xbb225500	-0.0024769902
152	0xbe93d17e	-0.28870767
153	0x3ef266f5	0.47344175
154	0x3df94e09	0.12173087
155	0xbd1d8d14	-0.03846462
156	0xbd626fc0	-0.055282354
157	0xbcd0ae00	-0.025473595
158	0xbd61de00	-0.055143356
159	0xbee45fca	-0.4460433
160	0x3ee3f7d7	0.44525024
161	0x3efe375c	0.4965161
162	0xbd0d6980	-0.03452444
163	0xbe96def3	-0.29466972
164	0x3e82404e	0.25439686
165	0x3beabe24	0.00716378
166	0x3e44a162	0.19202188
167	0xbe90ca7f	-0.28279492
168	0x3e10a4e6	0.14125404
169	0xbe8e6991	-0.27814916
170	0xbe9c52e4	-0.3053199
171	0xbe8a4206	-0.27003497
172	0xbe3156e8	-0.17318308
173	0xbe89e062	-0.26929003
174	0xbed77d0e	-0.42087597
175	0x3dbd2428	0.09235412
176	0xbeea8e93	-0.458119
177	0xbdea9b57	-0.1145541
178	0x3ed2b02a	0.41150028
179	0x3ebe567b	0.37175354
180	0x3ee4543a	0.4459551
181	0x3d218d41	0.03944135
182	0xbe249949	-0.16074099
183	0x3dd9b565	0.106303014
184	0x3cdf86ce	0.02728596
185	0x3dda1efa	0.106504396
186	0x3dcb8f49	0.09939439
187	0x3e252ca3	0.16130309
188	0x3e390358	0.18067682
189	0xbd860755	-0.06544367
190	0x3e7aba1f	0.24485062
191	0x3ea2cdc5	0.31797615
192	0x3e8691b1	0.2628303
193	0xbed8e5b0	-0.42362738
194	0x3ef0000c	0.46875036
195	0xbea30d1b	-0.31845936
196	0x3ee5abf6	0.44857758
197	0x3ee0ef4e	0.43932575
198	0xbe835505	-0.25650802
199	0x3db463fb	0.08808132
200	0xbec09af6	-0.37618226
201	0x3ea984d9	0.33109167
202	0xbe847fbe	-0.2587871
203	0xbea4e50f	-0.32206008
204	0x3ec07399	0.37588194
205	0xbe1a339b	-0.15058748
206	0x3ebef990	0.37299776
207	0x3ec78f18	0.3897636
208	0x3eaf19ec	0.34199464
209	0xbe6f2eb8	-0.23357666
210	0xbe9b6239	-0.30348375
211	0xbe1d1c68	-0.15342867
212	0xbe7c89b4	-0.24661905
213	0x3e1a26f8	0.15053928
214	0xbeb76762	-0.35821062
215	0x3de1a54b	0.11017855
216	0x3ebbe773	0.3670002
217	0x3ee57fe5	0.44824138
218	0xbebf8126	-0.3740322
219	0xbeebcfa9	-0.4605687
220	0xbe06872e	-0.13137504
221	0x3e5231a8	0.20526755
222	0x3d86e165	0.06585959
223	0xbeef103a	-0.46692067
224	0x3dbf276e	0.093336925
225	0xbe3d0eb2	-0.18462637
226	0x3e406768	0.18789446
227	0xbd9e81aa	-0.07739575
228	0x3d78959b	0.06068955
229	0xbeb9057f	-0.36137006
230	0xbcc2e8a8	-0.02379258
231	0x3eb7754e	0.35831684
232	0xbd2b47a0	-0.041816354
233	0xbe879f2e	-0.26488632
234	0xbecc0956	-0.39850873
235	0xbee03daa	-0.43797046
236	0x3e276ddc	0.16350502
237	0x3e93e798	0.2888763
238	0x3efc5c36	0.492891
239	0xbea7dc91	-0.32785466
240	0x3ed51a9f	0.41621873
241	0xbe002083	-0.12512402
242	0x3eece9cc	0.46272123
243	0xbd9a90e7	-0.07547169
244	0x3efb769e	0.49113935
245	0xbed4b8c9	-0.4154723
246	0x3eda3310	0.42617083
247	0x3de12aa5	0.10994462
248	0x3ed5ab48	0.4173224
249	0x3eba9be3	0.36447057
250	0xbef893dd	-0.4855031
251	0x3ef11589	0.47086743
252	0xbefa9026	-0.48938102
253	0x3e875b21	0.26436713
254	0xbe46f523	-0.1942945
255	0x3b9be138	0.004757073

bias f4 [256]
0	0x3e190868	0.14944613
1	0xbea6d0be	-0.32581133
2	0x3f07756f	0.52913564
3	0x3cb4f831	0.022091003
4	0xbede5dbc	-0.4343089
5	0x3e5f6444	0.21815592
6	0x3db640ac	0.08899054
7	0x3ec7dad8	0.39034152
8	0xbef52164	-0.47877038
9	0xbecf7441	-0.40518382
10	0xbebf7411	-0.3739324
11	0xbc83c9a0	-0.016087353
12	0x3e62a143	0.22131829
13	0x3ef65c8e	0.4811749
14	0xbcc2f2a4	-0.02379734
15	0x3f00f111	0.5036784
16	0xbef7959e	-0.48356336
17	0xbee1d4c0	-0.44107628
18	0xbeb7ee24	-0.35923874
19	0x3e1ac120	0.15112734
20	0xbc06d665	-0.008229827
21	0xbebf78f7	-0.37396976
22	0xbe0ecd3b	-0.13945477
23	0x3e866f1f	0.26256654
24	0xbea647fa	-0.3247679
25	0xbdaab356	-0.08334987
26	0x3e50db6f	0.20396207
27	0xbeb2c656	-0.34916943
28	0xbb2ece00	-0.0026673079
29	0xbee13880	-0.4398842
30	0x3e93f4ff	0.28897855
31	0x3ebb0c92	0.36533028
32	0x3eb542f5	0.35402647
33	0x3ee80247	0.45314237
34	0xbe72d737	-0.2371491
35	0x3e5c981b	0.21542399
36	0xbd257244	-0.040392175
37	0x3ec2785a	0.37982446
38	0x3eebb3c6	0.46035594
39	0xbe9c147a	-0.30484372
40	0x3d0b99a1	0.03408206
41	0xbead6f4d	-0.33873978
42	0x3e3a6075	0.18200858
43	0xbdaf6578	-0.085642755
44	0x3e99e619	0.30058363
45	0xbe61deac	-0.22057599
46	0x3ea5cf96	0.32384938
47	0x3ec34115	0.3813559
48	0xbe405796	-0.18783411
49	0x3da2385d	0.07920907
50	0xbe29ce9a	-0.16582718
51	0x3eb0bc3b	0.34518608
52	0x3eecd7fd	0.46258536
53	0xbe5a0170	-0.21289611
54	0xbebcb419	-0.36856154
55	0x3d964063	0.073364995
56	0xbe5ffab8	-0.21872985
57	0x3ec7f9a3	0.39057645
58	0x3bddc500	0.006767869
59	0xbe034c59	-0.12822093
60	0xbe0d2859	-0.13784923
61	0x3e757216	0.23969302
62	0xbed0ac7e	-0.407566
63	0x3ea4770a	0.3212207
64	0xbb9153c6	-0.0044350354
65	0xbd1af70c	-0.03783326
66	0xbe9f808a	-0.31152755
67	0x3d9c261e	0.07624458
68	0x3eb08136	0.3447358
69	0xbeb875bc	-0.36027324
70	0x3e87c653	0.26518497
71	0xbeff1b3e	-0.49825472
72	0xbeb01253	-0.3438898
73	0x3e099db0	0.1343906
74	0x3d5f5288	0.054522067
75	0x3ec0175d	0.37517825
76	0x3ea5a30a	0.3235095
77	0xbca470ff	-0.020073412
78	0x3ee48a54	0.44636786
79	0xbeeb0a34	-0.45906222
80	0xbe16832b	-0.14698474
81	0xbee36a21	-0.44416907
82	0x3ddb0413	0.106941365
83	0x3d1c7eba	0.038206793
84	0x3ef05ae7	0.46944353
85	0xbd80b76b	-0.06284984
86	0x3e62be1e	0.22142836
87	0x3ea421cb	0.32057032
88	0x3e13375d	0.14376588
89	0x3e1f0c14	0.15531951
90	0x3e1220b8	0.14270294
91	0x3d874e8b	0.06606778
92	0x3deb9412	0.115028515
93	0xbef32f09	-0.47496822
94	0xbea73bfa	-0.32662946
95	0xbe1356d4	-0.14388591
96	0xbec19424	-0.37808335
97	0x3eef7e4d	0.46776047
98	0x3ec3cc2f	0.38241717
99	0x3ee205a4	0.44144928
100	0xbe643f07	-0.22289668
101	0x3ea43c7f	0.32077405
102	0xbe393dea	-0.18090025
103	0xbefc3597	-0.49259636
104	0xbe9d8c4b	-0.30771098
105	0xbeb6a12f	-0.35669848
106	0xbd000e94	-0.031263903
107	0x3e98e7f1	0.29864457
108	0xbec7e38c	-0.39040792
109	0xbebf4b2a	-0.37362033
110	0x3db272af	0.087132804
111	0xbd024346	-0.03180244
112	0xbee739d4	-0.45161307
113	0x3e21f110	0.15814614
114	0xbeba9cca	-0.36447746
115	0x3d5a09ab	0.053231876
116	0xbe1b08e3	-0.15140109
117	0xbef1c34a	-0.47219306
118	0x3ee49e3e	0.4465198
119	0xbc8a3cb0	-0.016874641
120	0xbeb3b361	-0.35097793
121	0xbdd596dc	-0.10429165
122	0xbdfb16d7	-0.12260216
123	0xbec6438c	-0.3872341
124	0x3e53b822	0.2067571
125	0x3d2873b0	0.041125953
126	0xbeb12d90	-0.34605074
127	0x3f0158af	0.50525945
128	0x3ebc82b2	0.36818463
129	0x3ef60941	0.48053935
130	0xbec975dd	-0.39347735
131	0xbed01fbc	-0.4064921
132	0x3d9a2f00	0.07528496
133	0x3eb0e06c	0.3454622
134	0x3e980fec	0.29699647
135	0xbeafbcc3	-0.343237
136	0xbe4d4a24	-0.20047814
137	0xbe8df03b	-0.27722344
138	0xbe971516	-0.29508275
139	0x3ee5d9ac	0.44892633
140	0x3e4e6c98	0.20158613
141	0xbe153dbe	-0.14574334
142	0xbe09b88c	-0.13449305
143	0x3de1cd13	0.11025443
144	0xbe231b41	-0.15928365
145	0xbdc32a91	-0.09529603
146	0x3e8ac51d	0.2710351
147	0x3e7776dd	0.24166436
148	0xbe0b15bc	-0.1358251
149	0xbc563f1f	-0.013076573
150	0x3e750332	0.23927
151	0xbe87bf06	-0.26512927
152	0xbec9f9f2	-0.39448506
153	0xbe56b134	-0.20966035
154	0xbde2463d	-0.11048553
155	0x3e8fb7cc	0.28069913
156	0x3efba86a	0.49151927
157	0xbed13017	-0.40857002
158	0xbf04875f	-0.5176906
159	0x3ea84da9	0.3287175
160	0xbd23bff8	-0.039977998
161	0xbe87c855	-0.2652003
162	0x3ee85527	0.45377466
163	0xbe785ab1	-0.24253346
164	0xbf0182ce	-0.5059022
165	0xbeaee2b4	-0.34157336
166	0xbe6e45f8	-0.23268878
167	0x3d0bf5b6	0.034169875
168	0xbeb3a48c	-0.35086477
169	0xbe687510	-0.22700906
170	0x3ebcfe02	0.36912543
171	0xbe4ebd4d	-0.201894
172	0xbe84f83f	-0.25970647
173	0x3e24d563	0.16097026
174	0x3d0c2e2e	0.034223728
175	0x3ef26045	0.47339073
176	0xbdb0fa48	-0.08641487
177	0x3e83af3a	0.25719625
178	0x3ed221e6	0.41041487
179	0x3eb2b8c4	0.3490659
180	0x3e8dc968	0.27692723
181	0xbd814441	-0.063118465
182	0xbe648c7e	-0.22319219
183	0xbbcb64fc	-0.0062071066
184	0xbdf55882	-0.11979772
185	0x3ed9ece1	0.42563537
186	0x3eb33cde	0.35007375
187	0x3e4b35b6	0.19844708
188	0x3ea39c77	0.3195531
189	0x3eb3270a	0.34990722
190	0xbe9b1c60	-0.30295086
191	0xbea26cbf	-0.31723592
192	0x3edac7c7	0.42730543
193	0x3ec42c48	0.38315034
194	0x3e9de77e	0.30840677
195	0x3dd842d7	0.10559624
196	0x3ecd8896	0.4014327
197	0x3e0df455	0.13862737
198	0x3ccac0fd	0.024750227
199	0xbcdde2a0	-0.027085602
200	0x3e69870a	0.2280542
201	0xbd87d5dc	-0.06632587
202	0xbe4c34a6	-0.19941959
203	0x3e931ea8	0.28734326
204	0xbee7f635	-0.4530503
205	0xbe5822b0	-0.21106982
206	0x3dfdd7f5	0.12394706
207	0xbc9a4c86	-0.018835317
208	0x3e9b1328	0.30288053
209	0x3ef2bdba	0.47410375
210	0x3e3eeac9	0.18644251
211	0x3e8e0556	0.27738446
212	0xbe374480	-0.17897224
213	0x3e89cc35	0.2691361
214	0xbdd84e3a	-0.105617955
215	0x3e45c3f9	0.19313039
216	0xbe35a2e6	-0.17737922
217	0x3b84a4fa	0.004047987
218	0xbda28160	-0.079348326
219	0xbe95e770	-0.29278135
220	0x3e86d525	0.2633449
221	0x3e8d2361	0.27566054
222	0x3e88288b	0.26593432
223	0x3dfc2e59	0.123135276
224	0x3e8cb547	0.27482054
225	0x3e069ae3	0.13145022
226	0xbd243e74	-0.040098622
227	0x3e95b992	0.2924314
228	0xbe6f7ec6	-0.23388204
229	0xbe32e536	-0.1747025
230	0xbeb88a36	-0.36042947
231	0xbe6349e4	-0.22196156
232	0xbddaf7cb	-0.10691794
233	0xbed8e798	-0.42364192
234	0x3e5cab5e	0.21549746
235	0xbde1d781	-0.11027432
236	0x3dc31d95	0.09527127
237	0x3ed2c903	0.41168985
238	0xbce48e10	-0.027899772
239	0xbedaf29c	-0.4276322
240	0x3e925dae	0.28587097
241	0xbed1233d	-0.40847197
242	0xbdb0b3c9	-0.08628041
243	0x3ebd715c	0.3700055
244	0x3e97832e	0.2959227
245	0xbe21a5dc	-0.15785927
246	0x3dbea1db	0.09308215
247	0x3ea646d0	0.324759
248	0x3e8c0757	0.2734935
249	0x3ebc202e	0.367433
250	0xbed14e26	-0.40879935
251	0x3d466b9d	0.04844247
252	0xbee44a4a	-0.44587928
253	0xbec88fdf	-0.39172265
254	0x3f0369a6	0.5133308
255	0x3e5653bb	0.20930378

weight f4 [256, 256]
0	0xbd2cec1a	-0.04221735
1	0x3ce4f780	0.027950048
2	0x3c0fce20	0.008777171
3	0xbd530d9d	-0.051526655
4	0xbc04db9d	-0.0081090005
5	0x3bcbde50	0.00622157
6	0xbd61f4d9	-0.055165146
7	0xbd800c4e	-0.06252347
8	0xbd57ea1c	-0.0527135
9	0xbcf9664c	-0.030444287
10	0xbcbc9757	-0.023021383
11	0xbc4ef3d8	-0.012631379
12	0x3d35a8ae	0.04435032
13	0x3d2ba1b2	0.04190225
14	0x3d2612cf	0.04054528
15	0x3d09ffcb	0.03369121
16	0x3c0a18e6	0.008428788
17	0xbc3a5e35	-0.011375
18	0x3c959cbb	0.018263211
19	0xbd0ad6c8	-0.033896238
20	0x3cfb369b	0.030665686
21	0xbda96728	-0.082716286
22	0x3c61b756	0.013776621
23	0x3c8a7748	0.01690258
24	0x3c1e47fe	0.009660719
25	0xbd36b3dd	-0.044605125
26	0x3d12ea8a	0.035868205
27	0xbc4abaf6	-0.0123736765
28	0xba4bd700	-0.0007775873
29	0xbb164f4d	-0.002293545
30	0xbcad1593	-0.021128451
31	0xbd2eafb8	-0.042648047
32	0x3c966a91	0.018361362
33	0xbc230d44	-0.009951893
34	0xbb1baa41	-0.0023752602
35	0x3d105ace	0.035242848
36	0x3c392cd4	0.011302192
37	0x3c801ca4	0.015638657
38	0x3d465d27	0.04842868
39	0x3bda3910	0.0066596344
40	0x3cc32b31	0.023824306
41	0x3d78a629	0.060705338
42	0xbcb30999	-0.021855162
43	0x3d78f4fe	0.060780518
44	0xbd9345b9	-0.07191033
45	0xbd459887	-0.048241165
46	0x3d164a41	0.036691908
47	0xbd153d89	-0.036435638
48	0x3c546324	0.01296309
49	0xbc92852f	-0.017885773
50	0xbd0bf88c	-0.03417258
51	0xbc759b19	-0.014990591
52	0xbcd1e719	-0.025622891
53	0xba4edb00	-0.000789091
54	0xbd5eca11	-0.054391924
55	0x3d1002c4	0.035158888
56	0xbd33ec94	-0.04392679
57	0xbd1704da	-0.03686986
58	0xbd4c2364	-0.04983844
59	0x3cfa0f4f	0.030524878
60	0xbd4ad446	-0.049518846
61	0xbc75c176	-0.014999738
62	0xbc7c5a21	-0.015402348
63	0xbd777818	-0.060417265
64	0x3c325718	0.010885023
65	0xbcf9c432	-0.030489061
66	0x3d33149b	0.043720823
67	0xbd547c43	-0.051876318
68	0x3d5da9ea	0.05411712
69	0xbd509a6f	-0.05092853
70	0x3d71fb87	0.059077766
71	0x3a9e8c80	0.0012096316
72	0xbd598a27	-0.053110268
73	0x3ca1d0c0	0.01975286
74	0x3cc9549b	0.024576476
75	0xbbd64af9	-0.006539699
76	0x3d9d2484	0.076729804
77	0xbcfb86f4	-0.030704
78	0xbcbe4061	-0.023224058
79	0xbd5b9a02	-0.05361367
80	0x3d5fa9cd	0.054605294
81	0x3c843da2	0.01614267
82	0x3d3a85c1	0.045537714
83	0x3d17cc21	0.037059907
84	0x3da5419d	0.08069155
85	0xbcf8ea22	-0.03038508
86	0xbcd21deb	-0.025649032
87	0xbd329d02	-0.043606766
88	0x3de28bee	0.11061846
89	0xbceb021a	-0.028687526
90	0x3ab8d5da	0.0014101819
91	0x3c4fcc30	0.012682959
92	0x3c3f85b8	0.011689596
93	0x3d25e704	0.040503517
94	0x3ba153d3	0.0049233227
95	0xbd04a376	-0.03238245
96	0xbc1b94f0	-0.009495959
97	0xbd756777	-0.059913125
98	0x3bd8cce2	0.006616221
99	0xbd50cc02	-0.050975807
100	0x3b686eba	0.0035466389
101	0xbd3b4cce	-0.045727544
102	0x3d44bb22	0.048030026
103	0x3cab5f82	0.020919565
104	0xbce84679	-0.028353916
105	0x3d27b8be	0.04094767
106	0xbdae7ef2	-0.08520307
107	0xbd5c8244	-0.05383517
108	0x3d2e8ab5	0.04261275
109	0x3cafca52	0.021458779
110	0xbcfa7122	-0.030571524
111	0x3d35b664	0.044363394
112	0x3d6fb210	0.058519423
113	0x3d50e85c	0.051002845
114	0x3d21b8a2	0.03948272
115	0xbc8f3365	-0.017480562
116	0xbd5dcfcd	-0.054153252
117	0x3d2f0837	0.042732444
118	0xbb686680	-0.0035461485
119	0xbd184ec6	-0.0371845
120	0xbd07e31e	-0.03317558
121	0xbd37274f	-0.044715222
122	0x3cc6c47d	0.024263615
123	0x3bfe4130	0.007759236
124	0xbb743692	-0.0037263972
125	0xbd26b9b4	-0.040704444
126	0x3d0115b4	0.03151484
127	0x3c3c59a3	0.01149598
128	0x3c53c3b9	0.012925082
129	0xbd4b4a9f	-0.04963171
130	0xbcb32161	-0.021866502
131	0xbc0df1ed	-0.008663637
132	0x3d8382e9	0.064214535
133	0x3d6be1a2	0.057588227
134	0xbcabff7d	-0.02099585
135	0x3cf75d2f	0.0301958
136	0xbcb02f10	-0.021506816
137	0x3d5ac371	0.053409044
138	0x3d5cc3c2	0.053897627
139	0xbd1ecaf8	-0.038767785
140	0xbd088552	-0.03333027
141	0x3d2a6066	0.04159584
142	0x3d653823	0.05596174
143	0x3cfd0e86	0.030890714
144	0xbcbf12b6	-0.023324352
145	0xbd3ee509	-0.046605144
146	0xbc8348e5	-0.01602597
147	0xbd42c783	-0.04755355
148	0xbd3c9722	-0.04604257
149	0x3cb90aae	0.0225881
150	0xbd2aecea	-0.041729845
151	0x3d49650c	0.04916863
152	0xbb34e9e0	-0.002760522
153	0x3d4995a4	0.049214974
154	0x3d0de9b9	0.034646723
155	0x3d0f7c06	0.035030387
156	0xbd1ba546	-0.037999414
157	0xbcbdcb3c	-0.023168199
158	0xbd26ea36	-0.040750705
159	0xbd84788e	-0.064683065
160	0x3cced08a	0.025245924
161	0x3cddc499	0.027071284
162	0xbd2bba79	-0.04192588
163	0x3bb87d43	0.0056301667
164	0x3aef8181	0.0018272848
165	0xbca022f2	-0.019547913
166	0xbca276a9	-0.019831972
167	0x3d7e38a3	0.06206573
168	0x3b95e7fe	0.0045747748
169	0xbd19c7dc	-0.037544116
170	0x3d3956c8	0.045248777
171	0xbda4cb40	-0.08046579
172	0x3d650698	0.05591449
173	0xba5e9ede	-0.0008492301
174	0x3c554445	0.013016765
175	0xbd492859	-0.049110744
176	0x3d6f3882	0.0584035
177	0xbd54e0c1	-0.051972155
178	0x3d07ef55	0.03318723
179	0x3d85b19a	0.065280154
180	0x3c8df605	0.017329225
181	0x3c3fd9fb	0.011709685
182	0x3ca77df3	0.0204458
183	0xbcd68350	-0.026185662
184	0x3bd7a9ec	0.0065815356
185	0x3d693da3	0.056943547
186	0x3c536c9c	0.012904312
187	0x3d10bed0	0.035338223
188	0xbd778230	-0.06042689
189	0xbc934144	-0.017975457
190	0xbd468016	-0.048461996
191	0x3d56a007	0.052398708
192	0x3ce5014f	0.027954726
193	0xbd29de47	-0.041471746
194	0xbc07643b	-0.008263643
195	0x3d64505d	0.055740703
196	0xbccf989f	-0.02534133
197	0xbcb2a4b5	-0.021807054
198	0xbce9b684	-0.028529413
199	0xbd839f60	-0.06426883
200	0x3d5c0d0f	0.05372339
201	0x3ce80e50	0.028327137
202	0x3c54f7b3	0.012998509
203	0x3ce8cf40	0.028419137
204	0xbd6b7154	-0.057481125
205	0x3c4fcbd8	0.0126828775
206	0x3c9425da	0.018084455
207	0x3c083c3f	0.008315145
208	0x3d56e158	0.052461
209	0x3b5f00bb	0.0034027535
210	0x3cc16780	0.023608923
211	0xbc44131c	-0.011967447
212	0x3c2b00c8	0.010437198
213	0x3d3e3630	0.046438396
214	0xbcc9accf	-0.024618534
215	0x3c05d3b4	0.00816815
216	0x3d9415d2	0.072307244
217	0xbcf3e217	-0.029770894
218	0x3b135580	0.0022481382
219	0x3d1bef56	0.038070045
220	0xbc9c5539	-0.019083606
221	0xbd31fb5c	-0.043452606
222	0xbd4efc37	-0.0505335
223	0x3d7679d0	0.060174763
224	0xbb9f7d17	-0.004867207
225	0xba085b98	-0.0005201637
226	0xbd47f652	-0.048818894
227	0xbd816901	-0.06318856
228	0xbbffd6ef	-0.0078076045
229	0x3d3b7dd2	0.04577429
230	0xbd2f772f	-0.04283827
231	0xbb01603b	-0.0019741196
232	0xbd90529a	-0.07047005
233	0x3d4358ad	0.04769199
234	0x3d724c57	0.059154835
235	0x3c9bec2d	0.019033516
236	0xbcdc303e	-0.026878472
237	0x3d8acecd	0.06777725
238	0x3d1e0c02	0.03858567
239	0x3d702ef0	0.058638513
240	0x3cb6b323	0.022302216
241	0xbd155e8f	-0.03646713
242	0xbb93bab5	-0.004508341
243	0xbbd33e80	-0.0064466596
244	0xbd66c93c	-0.056344256
245	0xbc6011e7	-0.013676143
246	0xbd8763d8	-0.066108406
247	0x3d5bbd16	0.053647123
248	0xbdaa9ff2	-0.083312884
249	0xbd3726d2	-0.044714756
250	0xbc6988cd	-0.014253807
251	0x3c1dc7f2	0.00963019
252	0x3d35ca86	0.044382595
253	0x3d268452	0.040653534
254	0x3ce33847	0.027736796
255	0x3c92f405	0.017938623

bias f4 [256]
0	0x3d741a03	0.05959512
1	0xbd6b53ba	-0.057452895
2	0x3d10e94d	0.035378743
3	0x3d624bb2	0.05524797
4	0x3cd9d932	0.026592825
5	0xbb2f5892	-0.0026755673
6	0xbd045593	-0.032308172
7	0x3d5b24b8	0.053501815
8	0xbcc8ed29	-0.02452715
9	0xbd0cfd4c	-0.03442125
10	0x3c61692e	0.013757987
11	0xbd4d6359	-0.050143573
12	0x3d282888	0.04105428
13	0x3c8cb436	0.017175775
14	0xbd6d963a	-0.058004595
15	0xbd0c1aef	-0.034205373
16	0xbd6466f6	-0.055762254
17	0x3c218038	0.00985723
18	0x3c919f00	0.017776012
19	0xbc9ed350	-0.019387871
20	0xbc007db0	-0.007842466
21	0xbc611220	-0.0137372315
22	0xbd13d942	-0.036095865
23	0x3d222dfd	0.03959464
24	0xbd3e74b0	-0.046498
25	0x3cdf56a9	0.027263002
26	0x3c51d319	0.012806677
27	0x3d4b387a	0.049614407
28	0xbd4d478f	-0.05011707
29	0xbd23621c	-0.039888486
30	0xbd2aeb1f	-0.041728135
31	0x3d517ee9	0.05114642
32	0x3d31daa7	0.043421414
33	0x3d051b6d	0.03249686
34	0xbcaae7ff	-0.020862577
35	0xbd51e9c2	-0.05124832
36	0xbd44daf9	-0.04806039
37	0xbb89d33d	-0.00420609
38	0xbd0fb3ed	-0.0350837
39	0xbb022fc5	-0.0019864899
40	0xbc8653ed	-0.01639744
41	0xbd6110ea	-0.05494777
42	0xbca90787	-0.020633472
43	0xbd6a2b2c	-0.05717008
44	0xbd53a57e	-0.051671498
45	0x3c20212e	0.009773536
46	0x3baa0d6c	0.0051895883
47	0x3ca32b62	0.019918147
48	0xbd66639e	-0.056247346
49	0x3c883108	0.016624942
50	0xbcd52b20	-0.02602154
51	0x3c8a3587	0.016871227
52	0xbd023f65	-0.03179874
53	0xbc4b8151	-0.012420968
54	0xbd12a50e	-0.03580194
55	0xbcfff31c	-0.031243853
56	0xbcf52a2c	-0.029927336
57	0x3d42bc38	0.04754278
58	0x3c489569	0.012242653
59	0xbd6c071b	-0.057623964
60	0xbd17a608	-0.037023574
61	0xbd80876d	-0.062758304
62	0xbcd63e8a	-0.026152868
63	0x3d4291d0	0.04750234
64	0x3d421340	0.04738164
65	0xbd36b1f8	-0.044603318
66	0x3d035894	0.032066897
67	0x3b325d5f	0.0027216298
68	0xbd29bd8f	-0.041440543
69	0xbbebf843	-0.007201226
70	0x3d0fcf44	0.035109773
71	0xbd227d2a	-0.039670147
72	0x3c7f6bf3	0.015589702
73	0x3d021682	0.031759746
74	0xbd3c4de8	-0.045972735
75	0xbc33f184	-0.010982875
76	0x3d74853d	0.05969738
77	0x3bdd0bd0	0.006745793
78	0x3d62e262	0.055391677
79	0x3cd3d758	0.02585952
80	0xbc97324c	-0.0184566
81	0x3d490240	0.04907441
82	0x39804533	0.0002446562
83	0xbc69ba99	-0.01426568
84	0x3be87b4a	0.0070947753
85	0x3baad53e	0.0052134087
86	0x3d79e2aa	0.06100718
87	0x3d6e590c	0.05819039
88	0x3cc72a60	0.024312198
89	0x3d57d43c	0.052692637
90	0x3d0a50ac	0.03376834
91	0xbd1106b4	-0.035406783
92	0x3d5d94fc	0.05409716
93	0xbb0a1ea8	-0.0021075401
94	0x3d61a016	0.05508431
95	0xbc99526e	-0.018716063
96	0xbc61d468	-0.013783552
97	0x3c7f9828	0.015600242
98	0x3d7c6c54	0.061626747
99	0xbd325d66	-0.043546103
100	0xbcf2ad74	-0.029623725
101	0xbc796434	-0.015221644
102	0xbd1a06e6	-0.037604235
103	0xbd20335f	-0.03911149
104	0xbd0a7482	-0.033802517
105	0x3d3dd196	0.046342455
106	0xbd1958ae	-0.037438087
107	0xbd2bcc48	-0.041942865
108	0xbc0a7f1d	-0.008453158
109	0xbcbb16f8	-0.0228381
110	0xbd0db32c	-0.0345947
111	0x3d6b9664	0.05751647
112	0xbc077499	-0.008267545
113	0x3d455668	0.048178107
114	0xbce8a7d3	-0.028400337
115	0x3ce5cb13	0.028050935
116	0xbd44f4c1	-0.048084978
117	0x3cab6de0	0.020926416
118	0xbc90527f	-0.017617462
119	0xbd761b94	-0.060084894
120	0x3d0bdaf8	0.03414437
121	0xbb477a11	-0.0030437747
122	0xbb409471	-0.0029385353
123	0x3d52bb98	0.051448435
124	0xbc681d8b	-0.0141672
125	0x3d3c244e	0.04593306
126	0xba7f7a04	-0.000974566
127	0xbcf0fd6c	-0.029417716
128	0x3d0ff71c	0.03514777
129	0xbd1fd1f6	-0.039018594
130	0x3be06f28	0.0068491884
131	0xbc161d03	-0.00916219
132	0xbd062ede	-0.03275954
133	0x3c379808	0.011205681
134	0xbcb76990	-0.022389203
135	0xbc8ef615	-0.017451325
136	0x3c9c6038	0.01908885
137	0x3c97e1ad	0.018540228
138	0x3cd6aea0	0.026206315
139	0xbd66a4e1	-0.056309585
140	0xbcef4d63	-0.029211706
141	0xbd863989	-0.06553943
142	0xbbdc0ed2	-0.006715634
143	0x3c97cfcc	0.018531702
144	0x3d61d42a	0.055133976
145	0xbbd9776a	-0.0066365497
146	0xbced9b03	-0.02900458
147	0xbd1f2766	-0.038855933
148	0x3d6b2e54	0.05741723
149	0xbcf0dfd8	-0.029403612
150	0xbbdb528a	-0.006693189
151	0xbd1ffc7e	-0.039059155
152	0xbd1dcaf6	-0.038523637
153	0x3d00c6da	0.03143964
154	0x3b425990	0.0029655434
155	0xbcb1dc9c	-0.02171164
156	0xbceb0933	-0.02869091
157	0x3ccd9238	0.025094137
158	0xbd0d69fd	-0.034524906
159	0xbd2a1aea	-0.041529574
160	0xbc8acf2d	-0.016944492
161	0xbd374f00	-0.044753075
162	0xbd4dd311	-0.050250117
163	0xbcd874e8	-0.026422933
164	0x3d9c1059	0.076203056
165	0xbd5a281a	-0.0532609
166	0x3d1e54ae	0.038654976
167	0xbcd5631c	-0.026048236
168	0x3bee79f0	0.0072777197
169	0xbd0710fd	-0.032975186
170	0xbb192be9	-0.002337212
171	0xbd2ac50e	-0.041691832
172	0xbc344be8	-0.011004426
173	0xbce593e8	-0.028024629
174	0x3ca53445	0.020166526
175	0xbcf2f7ac	-0.029659115
176	0xbcfc3073	-0.030784821
177	0xbcef40e3	-0.029205745
178	0xbcb1da12	-0.02171043
179	0xbba0d8c0	-0.004908651
180	0xbc5690d0	-0.013096049
181	0xbd5ec3ca	-0.054385938
182	0xbce8b6ab	-0.028407415
183	0x3cc907b8	0.024539813
184	0xbd750574	-0.059819654
185	0xbbe44b6b	-0.0069669983
186	0xbd87b12f	-0.06625592
187	0x3b8697e4	0.0041074622
188	0xbd1edc66	-0.038784407
189	0x3ce2d440	0.0276891
190	0x3b3850ae	0.002812426
191	0x3ceb366e	0.028712478
192	0xbd386b60	-0.045024276
193	0xbd4ee55e	-0.05051171
194	0x3c7d83ab	0.015473287
195	0x3bbc49f4	0.0057461206
196	0x3cbae2e4	0.022813268
197	0xbd5a4c8a	-0.05329565
198	0x3d6eb05a	0.05827365
199	0xbd0712ec	-0.03297703
200	0x3b2f6d06	0.0026767864
201	0xbcfc1f6c	-0.030776702
202	0xbd29604a	-0.041351594
203	0x3c2ffcc7	0.010741419
204	0x3b9a7a4a	0.004714285
205	0xbca0b127	-0.019615723
206	0x3d5f4802	0.05451203
207	0xbca6e4ff	-0.020372866
208	0xbd686f60	-0.05674684
209	0x3cd749b9	0.02628027
210	0xbc0e8c9d	-0.008700517
211	0x3c121935	0.008917143
212	0x3cc8e870	0.024524897
213	0xbd22149f	-0.039570447
214	0x3cd27759	0.025691675
215	0x3d3feede	0.04685866
216	0xbd711414	-0.05885704
217	0x3d27494a	0.04084138
218	0x3d59fc59	0.053219173
219	0x3ce52b04	0.027974613
220	0x3ccdb5fc	0.025111191
221	0x3c7484be	0.014924226
222	0xbd4ebbdf	-0.050472137
223	0xbc88cb2d	-0.016698444
224	0x3d559ff1	0.052154485
225	0xbc17983e	-0.009252606
226	0x3d40fac8	0.047114164
227	0x3d775b52	0.060389824
228	0x3d2ee516	0.042698942
229	0x3d3d2f52	0.046187706
230	0xbd2b65cc	-0.041845128
231	0xbd2867be	-0.04111456
232	0xbcd10745	-0.025516162
233	0x3bae29fd	0.005315064
234	0xbd3d370a	-0.046195067
235	0x3d4c159c	0.049825296
236	0x3b797a81	0.0038067403
237	0x3ce164d0	0.027513891
238	0x3d60c092	0.05487115
239	0x3a1c71a5	0.0005967862
240	0x3d3a83b2	0.04553575
241	0xbd817b4d	-0.06322346
242	0x3d6341ca	0.055482663
243	0x3d648602	0.055791862
244	0xbd2de3d8	-0.042453617
245	0xbd2650ff	-0.040604588
246	0x3d6d7668	0.05797425
247	0x3ccaac07	0.024740232
248	0x3d8eb752	0.06968559
249	0x3c072bc3	0.00825018
250	0xbcb54e80	-0.022132158
251	0xbd1636da	-0.036673404
252	0x3c08e8dc	0.008356299
253	0x3d7cf584	0.06175758
254	0x3c99c47d	0.01877045
255	0x3d326c80	0.043560505

weight_mu f4 [1, 256]
0	0x3d43df13	0.047820162
1	0x3d466009	0.04843143
2	0x3d3b6770	0.045752943
3	0xbca8bfa7	-0.0205992
4	0xbd7d8570	-0.061894834
5	0xbd677051	-0.056503598
6	0x3d96aeb1	0.073575385
7	0x3cdf4252	0.027253304
8	0x3c4d70a0	0.012539059
9	0x3ca11cdc	0.019667082
10	0xbd5fa08c	-0.05459647
11	0x3c0b80ec	0.008514624
12	0xbcfd0228	-0.030884817
13	0xbd58344f	-0.05278426
14	0x3d2c46e0	0.04205978
15	0xbcfc06ce	-0.030764963
16	0xbd26115a	-0.04054389
17	0xbd60299b	-0.054727178
18	0x3cd1f5f4	0.025629975
19	0x3c1bede8	0.0095171705
20	0xbd2ba1ef	-0.04190248
21	0x3b7a1f60	0.0038165674
22	0x3d1ce442	0.03830362
23	0xbd1b0313	-0.03784473
24	0x3d553bf1	0.052059118
25	0xbc1d7a7e	-0.009611724
26	0xbcaae08b	-0.020859024
27	0x3da7a2a6	0.081853196
28	0x3bd9891b	0.0066386587
29	0x3cda7835	0.026668647
30	0x3c6ae2ea	0.014336327
31	0x3c8f6504	0.017504223
32	0xbcb2efe5	-0.021842906
33	0x3c8ee28d	0.017442012
34	0x3d5cc1b9	0.053895686
35	0xbc0577a8	-0.008146204
36	0x3d2d9dbe	0.042386763
37	0x3d5c0701	0.053717617
38	0x3cd4ce91	0.025977405
39	0xbceff622	-0.02929217
40	0xbc9e3f5d	-0.019317323
41	0xbd38a11c	-0.04507552
42	0x3adcddd9	0.0016850784
43	0xbd1fc376	-0.039004765
44	0xbb829400	-0.003984928
45	0x3d6330e9	0.055466566
46	0x3cbd2ca7	0.023092581
47	0xbd1dc0c1	-0.038513903
48	0xbd6ac8f2	-0.057320543
49	0x3c76f670	0.015073404
50	0x3d004218	0.031313032
51	0xbd08d45c	-0.033405647
52	0x3cbadd27	0.022810532
53	0xbd747b2b	-0.059687775
54	0x3d2c0526	0.041997097
55	0xbc99dfd6	-0.018783491
56	0x3d23008e	0.03979545
57	0xbd7ac1da	-0.061220028
58	0xbbf85a2b	-0.0075791082
59	0x3c84504c	0.01615157
60	0xbd170c56	-0.036877
61	0xbc218d62	-0.009860368
62	0xbc14a335	-0.009072115
63	0x3d599ab1	0.05312604
64	0x3d418e70	0.04725498
65	0x3d054d6c	0.03254454
66	0x3b6fa060	0.0036564097
67	0x3d273f46	0.040831827
68	0xbd704cdb	-0.058667045
69	0xbd1a41fe	-0.03766059
70	0xbcaf8607	-0.021426214
71	0x3c2b6edf	0.010463445
72	0xbb7b143b	-0.003831162
73	0xbd01818e	-0.031617694
74	0xbd393427	-0.045215752
75	0x3cafdc55	0.021467367
76	0x3d65662c	0.05600564
77	0x3d505f1c	0.050871953
78	0x3a334597	0.0006838678
79	0xbcfe0b3c	-0.031011216
80	0x3b652883	0.0034966774
81	0x3d350127	0.044190552
82	0xbcdb8338	-0.026795968
83	0xbd4a061b	-0.04932223
84	0xbd340c9f	-0.04395735
85	0x3ce9cccb	0.028540036
86	0x3b6abe80	0.0035819113
87	0x3d9bbd65	0.076044835
88	0x3d1ac265	0.037783045
89	0xbd5d4369	-0.054019365
90	0xbd451020	-0.04811108
91	0x3d2a51da	0.041581966
92	0x3ca04f68	0.019569114
93	0xbc026852	-0.007959442
94	0x3d1f0f14	0.03883274
95	0x3ba6f2b6	0.0050948514
96	0x3d35dfd0	0.044402897
97	0x3c2f1f38	0.0106885955
98	0x3c8bd68a	0.017070074
99	0xbca03774	-0.019557692
100	0xbcd862f9	-0.026414381
101	0x3c60109a	0.013675833
102	0xbd39b69f	-0.045340177
103	0xbd6be262	-0.057588942
104	0xbc97c4c0	-0.018526435
105	0xbd5a1d95	-0.053250868
106	0xbcba9ea7	-0.02278073
107	0xbd1b7de8	-0.03796187
108	0x3d7b2314	0.06131275
109	0x3d7ae0ab	0.061249416
110	0xbbcb0be0	-0.006196484
111	0xbd04f7b2	-0.032462783
112	0xba8e969a	-0.0010878623
113	0x3d4d2be1	0.050090674
114	0xba94d78e	-0.0011355744
115	0x3d93000b	0.071777426
116	0x3d603c36	0.05474492
117	0x3b64186f	0.0034804603
118	0xbc9166bf	-0.017749188
119	0x3d1ed945	0.038781423
120	0xbc106ac0	-0.008814514
121	0x3d456090	0.048187792
122	0x3d38f737	0.045157637
123	0x3d4f26ac	0.05057399
124	0x3d248e36	0.040174685
125	0xbc928084	-0.017883547
126	0x3d1bb43c	0.03801368
127	0xbce7a85b	-0.02827852
128	0xbce9dec3	-0.028548604
129	0xbd203196	-0.03910979
130	0xbd310bd2	-0.043224163
131	0x3d599064	0.053116217
132	0x3d708b14	0.058726385
133	0x3d0676aa	0.03282801
134	0x3d3a21a7	0.04544225
135	0x3d22c84e	0.039741807
136	0x3d4e7ba0	0.050410867
137	0x3bbc1417	0.0057396996
138	0xbc6e437a	-0.014542455
139	0xbcfaa95f	-0.03059834
140	0xbd23fc1f	-0.040035363
141	0xbc80a15a	-0.015701938
142	0x3d262d0f	0.040570315
143	0xbc99dae5	-0.018781135
144	0x3d016ecc	0.031599805
145	0xbd4f317f	-0.050584313
146	0x3d0e8b0d	0.034800578
147	0x3d5932ca	0.05302695
148	0xbd312aec	-0.043253824
149	0x3bb9c1ce	0.0056688553
150	0x3d58ee09	0.052961383
151	0x3cca2762	0.024676982
152	0x3d3cfa8f	0.04613739
153	0x3d588386	0.052859806
154	0x3d60361a	0.054739095
155	0x3d12a786	0.035804294
156	0x3d562331	0.052279655
157	0x3d663b82	0.056209095
158	0xbd2dc97e	-0.042428486
159	0x3c6a1d78	0.014289252
160	0x3ba44c4e	0.005013979
161	0x3bad87df	0.005295738
162	0xbcd65b71	-0.02616665
163	0xbd2887a7	-0.041144993
164	0x3d7609f5	0.06006809
165	0xbbb9c257	-0.005668919
166	0xbd2cdae7	-0.04220095
167	0x3d7dcf84	0.06196548
168	0x3cabfc80	0.020994425
169	0xbc80bfcd	-0.015716458
170	0xbd8e1543	-0.06937649
171	0x3ceb6279	0.028733479
172	0x3d101595	0.035176832
173	0x3d7be1c6	0.06149461
174	0x3d871c74	0.06597224
175	0x3d0342c4	0.032046095
176	0x3d55e292	0.052218027
177	0xbc57469a	-0.013139391
178	0x3c6ff861	0.0146466205
179	0x3d57f27e	0.052721493
180	0xbcb4bab8	-0.02206169
181	0x3d2e73ce	0.04259091
182	0x3d715743	0.05892111
183	0x3d758b0b	0.059947055
184	0x3d40a5a0	0.047032952
185	0xbd155eb5	-0.036467273
186	0xbc6ccb00	-0.014452696
187	0x3cd47649	0.025935309
188	0x3cfc9c6c	0.030836307
189	0x3dd3d05e	0.10342477
190	0xbc156bc8	-0.009119935
191	0xbcfe2532	-0.031023595
192	0x3d218416	0.039432608
193	0x3d66078f	0.056159552
194	0x3d1f28f5	0.03885742
195	0xbd17f886	-0.037102245
196	0x3c176108	0.009239443
197	0xbcf6d834	-0.03013239
198	0xbc2a344e	-0.010388447
199	0x3d34ece2	0.04417122
200	0x3b83a085	0.004016938
201	0x3d613272	0.05497975
202	0xbd323414	-0.043506697
203	0xbc56a496	-0.013100764
204	0x3d80d2a7	0.06290179
205	0x3be49a52	0.006976404
206	0xbc3563d2	-0.011071162
207	0xbcf4df57	-0.029891653
208	0x3bffa16a	0.0078012245
209	0x3bf28bdb	0.007401926
210	0x3cac71be	0.02105033
211	0x3d38f34f	0.045153912
212	0xbcc0622d	-0.023484314
213	0x3d4944a8	0.04913774
214	0xbd2481b6	-0.040162764
215	0x3c406a1c	0.011744048
216	0xbd410108	-0.047120124
217	0xbd09356e	-0.03349822
218	0x3d10809d	0.035278905
219	0x3c953df8	0.018218026
220	0x3d41aedc	0.0472859
221	0x3c17f00d	0.009273541
222	0x3c87020b	0.016480466
223	0xbcbb0437	-0.022829158
224	0xbd0a6c5c	-0.033794746
225	0x3d1f2125	0.03884997
226	0xbce97d1a	-0.028502036
227	0x3d5d004c	0.05395536
228	0xbd13928e	-0.036028437
229	0x3ce481a4	0.027893849
230	0x3c9b2f50	0.018943459
231	0xbd3fa632	-0.046789356
232	0xbcf71df8	-0.030165657
233	0xbd849bee	-0.06475054
234	0x3d1a85dc	0.037725314
235	0x3b964a81	0.0045865183
236	0xbd60b282	-0.05485774
237	0x3c4b0477	0.012391201
238	0x3c9aeb88	0.018911138
239	0xbd6d8c2a	-0.057995
240	0xbd9320e1	-0.071840055
241	0xbcb9ac77	-0.022665245
242	0x3c97b525	0.018518994
243	0x3d422790	0.04740101
244	0x3d81e79c	0.06343004
245	0x3d1dff4d	0.038573552
246	0x3d88413b	0.06653067
247	0x3db2fcc0	0.087396145
248	0x3d8ceed8	0.06881493
249	0xbd4bb6a8	-0.04973474
250	0x3d5f7909	0.054558787
251	0x3ca5c35c	0.020234756
252	0x3b2638c6	0.002536343
253	0x3d7257a2	0.059165604
254	0xbd49aee8	-0.04923907
255	0x3d6a4978	0.05719897

weight_sigma f4 [1, 256]
0	0x3b0d0ead	0.002152364
1	0x3d000000	0.03125
2	0x3d002616	0.03128632
3	0x3ce688db	0.02814143
4	0x3d000000	0.03125
5	0x3bb391f9	0.005480048
6	0x3c75de2f	0.015006586
7	0x3cb6e8ca	0.0223278
8	0x3ceb6ba2	0.028737847
9	0x3d000000	0.03125
10	0x3cc851c1	0.024453046
11	0x3cf67a1b	0.030087521
12	0x3ca3c3e4	0.019990869
13	0x3cc39bd8	0.023878023
14	0x3d000000	0.03125
15	0x3cab31a7	0.0208977
16	0x3ce5eb6a	0.028066356
17	0x3d000000	0.03125
18	0x3d000000	0.03125
19	0x3d000000	0.03125
20	0x3d000000	0.03125
21	0x3d000000	0.03125
22	0x3d000000	0.03125
23	0x3c58c7b5	0.013231208
24	0x3cf95623	0.030436581
25	0x3cfb96b3	0.030711507
26	0x3cedb8ef	0.029018847
27	0x3c852176	0.016251307
28	0x3c0ae12b	0.008476536
29	0x3bfce788	0.0077180304
30	0x3cfa9bec	0.030591927
31	0x3cfc3c53	0.030790484
32	0x3b1e03a5	0.002411106
33	0x3cfaa6db	0.030597141
34	0x3d01f52d	0.03172796
35	0x3d000000	0.03125
36	0x3cee079a	0.02905636
37	0x3d0a14dd	0.033711303
38	0x3cfd4c34	0.030920126
39	0x3caaca4e	0.02084842
40	0x3cf17e53	0.029479181
41	0x3d000000	0.03125
42	0x3cf01adb	0.02930968
43	0x3d000000	0.03125
44	0x3d000000	0.03125
45	0x3be04dda	0.006845218
46	0x3c9ed1a1	0.019387068
47	0x3c263c65	0.010146235
48	0x3d000000	0.03125
49	0x3d000000	0.03125
50	0x3d000000	0.03125
51	0x3ceed7b9	0.029155599
52	0x3d030445	0.031986494
53	0x3ce3cc12	0.02780727
54	0x3cfd051b	0.030886224
55	0x3cfcbf93	0.030853068
56	0x3cf25b6b	0.029584607
57	0x3d000000	0.03125
58	0x3c9c1289	0.019051807
59	0x3d01cd54	0.031689957
60	0x3d000000	0.03125
61	0x3c5d4f61	0.013507695
62	0x3cfb2f93	0.030662334
63	0x3cfe712b	0.031059822
64	0x3ce31d13	0.027723825
65	0x3d01da9c	0.031702623
66	0x3d000000	0.03125
67	0x3cd4a209	0.02595617
68	0x3cf69aeb	0.030103168
69	0x3d000000	0.03125
70	0x3d017125	0.031602044
71	0x3c0be314	0.008538026
72	0x3ce9867a	0.028506506
73	0x3cdd4e30	0.027014822
74	0x3c975125	0.01847131
75	0x3cb2f508	0.021845356
76	0x3b2471d2	0.0025092256
77	0x3d000000	0.03125
78	0x3d0cdbe2	0.034389384
79	0x3d000000	0.03125
80	0x3d000000	0.03125
81	0x3cdf7c2a	0.027280886
82	0x3ca6a75f	0.02034348
83	0x3cbe38a3	0.023220366
84	0x3c84e0d5	0.01622049
85	0x3cfaab8b	0.030599376
86	0x3d000000	0.03125
87	0x3cc3b61e	0.023890551
88	0x3cfbc1ab	0.030731997
89	0x3ccf2621	0.025286736
90	0x3d000000	0.03125
91	0x3d000000	0.03125
92	0x3cd9be52	0.02658001
93	0x3cc6b66d	0.02425691
94	0x3d000000	0.03125
95	0x3d0431d4	0.032274082
96	0x3d000000	0.03125
97	0x3d000000	0.03125
98	0x3cbaba2d	0.022793854
99	0x3d000000	0.03125
100	0x3d08f7b5	0.033439357
101	0x3ce7c9f2	0.028294537
102	0x3caa2c7e	0.020773169
103	0x3cfb0ba3	0.030645197
104	0x3a6e7ffe	0.0009098052
105	0x3cc9e3f3	0.024644827
106	0x3cb7cbff	0.02243614
107	0x3d000000	0.03125
108	0x3d018895	0.031624395
109	0x3cf60bf3	0.030034995
110	0x3d000000	0.03125
111	0x3ce9c072	0.028534148
112	0x3cf9c3dd	0.030488903
113	0x3cfcd253	0.03086201
114	0x3cfe3ff4	0.031036355
115	0x3c280d4c	0.0102570765
116	0x3d000000	0.03125
117	0x3cd17326	0.025567602
118	0x3cc59417	0.024118466
119	0x3cef7152	0.02922884
120	0x3d000000	0.03125
121	0x3d009632	0.031393237
122	0x3d00b8c5	0.03142621
123	0x3d000000	0.03125
124	0x3d02c754	0.031928375
125	0x3ce5b3d4	0.02803985
126	0x3d000000	0.03125
127	0x3cf5b473	0.029993271
128	0x3cf494f3	0.02985618
129	0x3d000000	0.03125
130	0x3c9b5bd0	0.018964678
131	0x3c7be99e	0.015375523
132	0x3d000000	0.03125
133	0x3d000000	0.03125
134	0x3cf0ae83	0.029380089
135	0x3cfa25f3	0.030535674
136	0x3d000000	0.03125
137	0x3d024b1c	0.03180991
138	0x3d02cd98	0.03193435
139	0x3b7036f6	0.0036653853
140	0x3c07bda4	0.00828496
141	0x3cf05415	0.029336968
142	0x3d11ff6d	0.035643984
143	0x3cdbb7d4	0.026821055
144	0x3ce5efba	0.028068412
145	0x3cc953d4	0.024576105
146	0x3cf74923	0.030186241
147	0x3d035e1c	0.03207217
148	0x3d000000	0.03125
149	0x3ce97043	0.028495913
150	0x3cf4ab9b	0.029866984
151	0x3ce96aa4	0.028493233
152	0x3d09068d	0.033453513
153	0x3c29404c	0.010330271
154	0x3cf6931b	0.030099442
155	0x3d000000	0.03125
156	0x3ceaed12	0.028677497
157	0x3cf46b8b	0.029836437
158	0x3d07d514	0.03316219
159	0x3d000000	0.03125
160	0x3cee8961	0.029118242
161	0x3d0215fd	0.03175925
162	0x3ccd7b90	0.025083333
163	0x3c331100	0.010929346
164	0x3c98a558	0.01863353
165	0x3cf016ac	0.029307686
166	0x3ced060e	0.028933551
167	0x3ca01b99	0.01954441
168	0x3d000000	0.03125
169	0x3d00c095	0.03143366
170	0x3cc3ab33	0.023885345
171	0x3cd4681b	0.025928548
172	0x3d009cd7	0.031399574
173	0x3d000000	0.03125
174	0x394b7295	0.00019402274
175	0x3ce3480a	0.027744312
176	0x3c8dae6b	0.017295083
177	0x3cecb552	0.028895054
178	0x3c532a47	0.012888498
179	0x3d000000	0.03125
180	0x3d000000	0.03125
181	0x3cf852c3	0.030312901
182	0x3cf1e253	0.029526865
183	0x3d02097d	0.03174733
184	0x3ce774ca	0.028253932
185	0x3cd73eca	0.026275057
186	0x3ceb4dd9	0.028723644
187	0x3ce64d7a	0.028113116
188	0x3cfef213	0.03112129
189	0x3bbadebd	0.005702822
190	0x3cdb71b2	0.026787613
191	0x3ce1a527	0.027544571
192	0x3cf126d3	0.029437458
193	0xb97d7415	-0.00024171204
194	0x3d01dc2c	0.031704113
195	0x3cf24cea	0.029577691
196	0x3d000000	0.03125
197	0x3d000000	0.03125
198	0x3cf06462	0.029344741
199	0x3cc4ec19	0.024038361
200	0x3d001e46	0.03127887
201	0x3ce58fa3	0.028022593
202	0x3d000000	0.03125
203	0x3cb2b8dd	0.021816665
204	0x3c5023e5	0.01270387
205	0x3ce2c01a	0.027679492
206	0x3c53174b	0.012883971
207	0x3cb8dd83	0.022566563
208	0x3ccb3c7c	0.024809115
209	0x3cf29ab3	0.029614782
210	0x3d0398b5	0.032128055
211	0x3cf5b604	0.029994018
212	0x3cd21480	0.02564454
213	0x3d04e8a5	0.03244843
214	0x3d0e3904	0.034722343
215	0x3cdb084f	0.02673736
216	0x3ce648ca	0.02811088
217	0x3d000000	0.03125
218	0x3d005df3	0.031339597
219	0x3d000000	0.03125
220	0xb919d6eb	-0.0001467128
221	0xb98d6cc1	-0.00026974644
222	0x3b5351f4	0.0032244893
223	0x3ceaf032	0.028678987
224	0x3cc5bb30	0.02413711
225	0x3d0690dc	0.032852992
226	0x3cdc7911	0.026913198
227	0x3d000000	0.03125
228	0x3ce7a21b	0.02827554
229	0x3d000000	0.03125
230	0x3d000000	0.03125
231	0x3d000000	0.03125
232	0x3cd976bf	0.02654588
233	0x3c29e7fd	0.010370252
234	0x3d000000	0.03125
235	0x3d017bad	0.031612087
236	0x3c9edfc1	0.019393804
237	0x3c071d9e	0.008246807
238	0x3d000000	0.03125
239	0x3ce8061a	0.028323222
240	0x3ca575fc	0.02019786
241	0x3cf880db	0.03033488
242	0x3d0a1a55	0.03371652
243	0x3cf3c90b	0.02975895
244	0x3c3db3ec	0.011578541
245	0x3cf754db	0.03019183
246	0x3c856860	0.016285121
247	0x3c4e63e4	0.012597058
248	0x3c5c7195	0.013454814
249	0x3cd3ff1c	0.025878482
250	0x3cf95623	0.030436581
251	0x3cdca5c1	0.026934506
252	0x3cf71e2b	0.030165752
253	0x3d000000	0.03125
254	0x3d0043c6	0.031314634
255	0x3d000000	0.03125

weight_epsilon f4 [1, 256]
0	0xbf8a6958	-1.0813398
1	0xbfbab8bc	-1.4587626
2	0xbff2799a	-1.894336
3	0x400b73fb	2.178954
4	0xc00049ac	-2.0044966
5	0x3fe3088e	1.7736986
6	0x3fa23a84	1.2674108
7	0x3f9761cc	1.182672
8	0xc02781f9	-2.617308
9	0x3fe911eb	1.8208593
10	0xbf30c7b2	-0.6905471
11	0x3f92e06c	1.1474738
12	0xbfad8613	-1.3556541
13	0xbe7e4361	-0.2483039
14	0x400f8712	2.242619
15	0x401ae8da	2.4204621
16	0x3fa4cd38	1.2875128
17	0xbf7a7ac3	-0.9784357
18	0xbf609914	-0.8773358
19	0x3e499ca1	0.19688655
20	0xbf802f07	-1.0014352
21	0x4000641b	2.00611
22	0x3f765317	0.96220535
23	0xbffc907c	-1.9731593
24	0x3fb9fbd5	1.4529978
25	0xbfb1f0ab	-1.3901571
26	0xbfdcfc30	-1.7264462
27	0xbfb66836	-1.4250553
28	0xbfe903ba	-1.8204262
29	0x3f9089ec	1.129209
30	0x3ffa0729	1.9533435
31	0x3fb96717	1.4484586
32	0x3fe3e10c	1.7803054
33	0xbf2cf30e	-0.6755837
34	0xc01bdd48	-2.435381
35	0x401d2346	2.455278
36	0xbf125447	-0.5715985
37	0x400d1a0c	2.2047148
38	0xbf0faebd	-0.56126004
39	0x3f7be2a4	0.983927
40	0x3ff53919	1.915805
41	0x3f05af07	0.52220196
42	0xbee1d3a1	-0.44106773
43	0x3f11eb6d	0.56999856
44	0x3fec998d	1.848436
45	0xbfc48a95	-1.5354792
46	0xbff13e23	-1.8847088
47	0xbf9975f1	-1.1989118
48	0x3fc0adc6	1.5053031
49	0xbf54efb5	-0.83178264
50	0x3fbcef5e	1.4760549
51	0xbff5b7f1	-1.919676
52	0xc0093f71	-2.1444972
53	0xbfba4e4d	-1.4555146
54	0xbfd232dd	-1.6421772
55	0xc0018874	-2.0239534
56	0x3f5879b0	0.8456068
57	0x3fc41bf9	1.5321037
58	0xbf8b0046	-1.0859458
59	0xbf5bfb75	-0.8593057
60	0xc004e885	-2.0766919
61	0xbe8e8baf	-0.27840945
62	0xc003f8c6	-2.062059
63	0xc00d07e1	-2.203606
64	0xc002e1df	-2.045036
65	0xbf95f392	-1.1714957
66	0xbf8adfe7	-1.084958
67	0xbf5b495c	-0.8565881
68	0x3f55a1c0	0.83449936
69	0x3ee218bc	0.44159496
70	0x3f4fd253	0.81180304
71	0x4008a81c	2.1352606
72	0xbfee687e	-1.8625638
73	0xc00017ee	-2.0014606
74	0x3fe01b11	1.750826
75	0xbfee76ca	-1.8630002
76	0x3f987b67	1.191266
77	0x3fd428aa	1.657491
78	0xbfbcd3b9	-1.4752113
79	0x3fbb1035	1.4614321
80	0xbf6459e0	-0.8919964
81	0xbfc37dd0	-1.527277
82	0xbf771c2f	-0.9652738
83	0x3fb71d90	1.4305897
84	0x3fcee5e3	1.6163906
85	0x3f9f9f3e	1.2470472
86	0xbf594399	-0.8486877
87	0xc01a670d	-2.4125397
88	0xbfdf0c1d	-1.7425572
89	0xbf953a12	-1.1658347
90	0x4001c1ae	2.0274463
91	0x3faea3d4	1.3643746
92	0x3f9ec920	1.2405128
93	0xc00d7ce2	-2.2107472
94	0x3ffbd184	1.9673314
95	0x3f397304	0.72441125
96	0xbfc2e204	-1.5225224
97	0xbff48db0	-1.910574
98	0xbf761388	-0.9612355
99	0x3f97926f	1.1841563
100	0x3fc11d7c	1.5087123
101	0xbffca8da	-1.973903
102	0xc01236e4	-2.2846003
103	0xbf4b7fd9	-0.79491955
104	0xbf012a4b	-0.5045516
105	0xc02333f0	-2.550045
106	0xbf94abca	-1.1614926
107	0xbe4b979a	-0.1988205
108	0x3f54ea2e	0.8316983
109	0xbfa5598c	-1.2917953
110	0xbfaea46f	-1.3643931
111	0xbf95c73f	-1.170143
112	0xbe85ea1a	-0.26155168
113	0x3ff34f23	1.9008526
114	0xbff881a2	-1.9414561
115	0x3fb7b1cb	1.4351133
116	0xbfccbee8	-1.599576
117	0x3fd86829	1.6906787
118	0x3f964040	1.1738358
119	0x3f946a2f	1.1594905
120	0xbfeb14a7	-1.8365678
121	0x3fc78a92	1.5589163
122	0x3e21b04b	0.15789907
123	0x3feccd26	1.8500106
124	0x3fb43478	1.4078512
125	0x3f92da99	1.1472961
126	0x3ea53b41	0.3227177
127	0xbfac14bc	-1.3443828
128	0xbfae9735	-1.3639895
129	0xbf3687e4	-0.713011
130	0x400f47d9	2.2387602
131	0x3fd6f037	1.6792058
132	0x40009105	2.0088513
133	0xc018854c	-2.3831358
134	0xbede603b	-0.43432793
135	0x3eda14d2	0.4259401
136	0xbfcb3fcb	-1.5878843
137	0x3faeb3a3	1.3648571
138	0xbf9fe841	-1.2492753
139	0x3f672572	0.9029151
140	0x3fe8869b	1.8166078
141	0xbf92c6cc	-1.1466918
142	0x3fac6bdf	1.347042
143	0x3f2e4f74	0.68089986
144	0xbfcd4fc7	-1.6039971
145	0x3f8975e5	1.0739104
146	0xbff11032	-1.8833067
147	0x3f720769	0.94542557
148	0x3f2f8ad1	0.6857119
149	0xc021f0ec	-2.5303297
150	0x3fa982ab	1.3243002
151	0x3f872e02	1.0560915
152	0xbfeae053	-1.8349708
153	0xbfc494e1	-1.5357934
154	0x3f94110b	1.1567701
155	0x3fc24da9	1.517995
156	0xbfee18bc	-1.8601298
157	0x3f8999da	1.0750077
158	0x4012a017	2.291021
159	0x3fbefd11	1.492098
160	0x3feb1e08	1.836854
161	0x3f8f5900	1.1199036
162	0x3ed54ee3	0.41661748
163	0xbf9d5fba	-1.2294838
164	0xbfcce3fe	-1.6007078
165	0x3f55d768	0.8353181
166	0xbf62a770	-0.8853674
167	0xbf019256	-0.50613916
168	0x3efb893e	0.49128145
169	0xbf43ee22	-0.76535237
170	0x3f50bca8	0.81537867
171	0x400d4a34	2.207654
172	0x3e8dcfa4	0.2769748
173	0xbf85d447	-1.0455407
174	0x3ff12d3f	1.8841933
175	0x3fda879c	1.7072635
176	0xc0286143	-2.6309364
177	0xbf80f6d3	-1.0075325
178	0x3f9564d1	1.1671392
179	0x3f99f66c	1.2028327
180	0x3f8a82b0	1.0821133
181	0xbfadd87b	-1.358169
182	0xbf3f709a	-0.7478119
183	0xc011803d	-2.273452
184	0xbff35b31	-1.9012204
185	0xc00430ab	-2.0654705
186	0x3fbe244e	1.4854829
187	0xbfd1a437	-1.6378239
188	0xbfc63baa	-1.5486958
189	0x3f9cfc98	1.2264585
190	0x40206c6b	2.5066173
191	0x3f823740	1.0173111
192	0x3feb278f	1.8371447
193	0x3fcb2f78	1.5873861
194	0xbfc2655a	-1.518718
195	0x3fa27f13	1.269503
196	0x3ea5b2a2	0.3236285
197	0x3f86abb2	1.0521147
198	0x3fd5825a	1.6680405
199	0xbf91a286	-1.1377723
200	0x3f382903	0.7193758
201	0x3fb83788	1.4391947
202	0x3eb29b2a	0.34884006
203	0x3f0aa8e2	0.54163945
204	0x3f4c0289	0.7969137
205	0x3fd55122	1.6665385
206	0x3ef4c3ad	0.4780554
207	0x3f1fa5a0	0.623621
208	0xbfcd8ad9	-1.6057998
209	0x3fe1df51	1.7646276
210	0xbfe81b2e	-1.8133295
211	0x3f94d343	1.1626972
212	0x4013f18b	2.3116176
213	0xbf92720d	-1.1441056
214	0x3ed9af3d	0.4251651
215	0x3fec25a7	1.844899
216	0xbf4137ad	-0.7547558
217	0x40134012	2.3007855
218	0xbf495796	-0.7864927
219	0xbf766377	-0.9624552
220	0xbfc9c066	-1.576184
221	0x3f838a3a	1.0276558
222	0xbfdda1dd	-1.7315022
223	0xbfc19673	-1.5124038
224	0x4017da9a	2.3727174
225	0xbf2b0cbe	-0.6681632
226	0x3f799f17	0.97508377
227	0xbfecfab8	-1.8514013
228	0x400028ca	2.0024896
229	0xbfbf6c04	-1.4954839
230	0xc002f2fe	-2.046081
231	0xbfdb1949	-1.7117091
232	0xbf360554	-0.7110188
233	0x3f8ed183	1.1157688
234	0xbf070880	-0.52747345
235	0x3f0b42df	0.5439891
236	0x3e6d8c40	0.23198032
237	0x3fe4d0b6	1.7876194
238	0x3f81e33a	1.0147469
239	0xbfab5253	-1.3384498
240	0xbfb64134	-1.4238648
241	0x4034f0f2	2.8272061
242	0xc013db62	-2.310265
243	0xbf810a12	-1.0081198
244	0x401a1307	2.4074113
245	0x3f931a07	1.1492318
246	0xbf4d8885	-0.8028644
247	0x3f6fa274	0.9360726
248	0xbf622161	-0.8833218
249	0x3fbf4b8f	1.4944934
250	0x4031cfe0	2.7783127
251	0x3f8b2278	1.0869894
252	0x3f83fae9	1.0310947
253	0xbfc057eb	-1.502683
254	0xc012e415	-2.295171
255	0x3fbcece9	1.4759799
