experiments/diff_context_data/rain_models/rainbow_dqn_proposed_erf.pth (torch, 380218 bytes, 13 tensors)

weight f4 [256, 4]
0	0xbe409c50	-0.18809628
1	0xbe6b61f8	-0.22986591
2	0xbec6c4a6	-0.38821906
3	0xbecc30c4	-0.39880955
4	0xbe9fe984	-0.31232846
5	0xbef6bf74	-0.48192942
6	0xbe2c60dc	-0.16833824
7	0xbed4acc4	-0.4153806
8	0x3dd5397a	0.104113534
9	0xbef62686	-0.48076266
10	0xbe8ce382	-0.27517325
11	0x3cae7db3	0.021300172
12	0x3ec1baea	0.37837917
13	0xbd07a0cb	-0.03311233
14	0xbd27bfcb	-0.040954392
15	0x3eef7f69	0.46776894
16	0x3da75870	0.08171165
17	0xbc4d47c0	-0.012529314
18	0xbedebb82	-0.43502432
19	0x3e805320	0.2506342
20	0xbe724f48	-0.23663056
21	0xbe06b860	-0.13156271
22	0x3b632700	0.0034660697
23	0x3ed1588a	0.40887862
24	0xbe06c14f	-0.13159679
25	0x3e9f46fc	0.31108844
26	0xbd316d0c	-0.043316886
27	0xbec5bfd5	-0.3862292
28	0xbe9df5d4	-0.30851614
29	0x3ed51eeb	0.4162515
30	0xbdeb11ae	-0.114779815
31	0xbe7705eb	-0.24123351
32	0xbe6665da	-0.22499791
33	0xbe3b3e1e	-0.18285415
34	0x3ee9f8f9	0.45697764
35	0x3e745cd4	0.23863536
36	0xbdc45280	-0.09586048
37	0xbd2dd5c0	-0.042440176
38	0xbdc68510	-0.096933484
39	0xbef20ea4	-0.47276795
40	0x3eea9bb9	0.45821932
41	0xbd2de9ee	-0.04245942
42	0xbea62eb4	-0.32457507
43	0xbef77ac2	-0.48335844
44	0xbee6f0b8	-0.4510553
45	0x3d1ff1a0	0.03904879
46	0x3d791050	0.060806572
47	0x3c904540	0.017611146
48	0x3e78c4db	0.24293844
49	0xbc1fdb68	-0.0097569
50	0xbd1b548e	-0.037922435
51	0xbeba3b07	-0.3637316
52	0xbdd20510	-0.10254872
53	0xbe571100	-0.21002579
54	0xbe262394	-0.1622451
55	0xbebbbee4	-0.36669075
56	0xbbcdbee1	-0.006278858
57	0x3eb993a9	0.36245468
58	0xbdf4e779	-0.119582124
59	0x3e64d8dc	0.2234835
60	0x3d67fc01	0.056636814
61	0x3ed91b37	0.42403576
62	0xbe04e6c2	-0.12978652
63	0x3ea6e415	0.32595888
64	0x3e45ca98	0.19315565
65	0x3e615cdd	0.22008081
66	0xbec0cfcf	-0.37658545
67	0x3ee09dd4	0.43870413
68	0x3e631291	0.22175051
69	0x3e28d159	0.1648611
70	0xbea019db	-0.31269726
71	0xbdaaa49d	-0.08332179
72	0x3e3912db	0.18073599
73	0xbd8040de	-0.062623724
74	0xbe87005b	-0.2636746
75	0xbec331ee	-0.3812403
76	0xbd4f3f70	-0.050597608
77	0xbe312734	-0.17300111
78	0xbea99766	-0.3312332
79	0x3d962168	0.073305905
80	0xbe5780e9	-0.21045269
81	0xbe3b6566	-0.18300399
82	0x3e4f2ec8	0.2023269
83	0x3ee5821d	0.4482583
84	0xbd89fe20	-0.067379236
85	0x3e9aa356	0.3020274
86	0xbea44316	-0.32082433
87	0x3e208fd0	0.1567986
88	0x3f074a25	0.5284751
89	0xbe9380f6	-0.28809327
90	0xbe8104a6	-0.2519886
91	0xbe81c8e2	-0.25348574
92	0x3e0aa68d	0.13540097
93	0x3e3e2131	0.18567349
94	0xbf0159f0	-0.5052786
95	0xbefaf2e7	-0.49013445
96	0xbea4f4f3	-0.3221813
97	0x3f032cfd	0.5124052
98	0xbeb3b837	-0.35101482
99	0xbe841da4	-0.25803864
100	0x3e8c76e6	0.27434462
101	0x3de1b265	0.11020354
102	0xbea0715a	-0.3133648
103	0x3ebabdb7	0.36472866
104	0x3db0eb87	0.08638673
105	0x3ea5c84b	0.32379374
106	0x3dbc24aa	0.091866806
107	0x3e939cec	0.2883066
108	0x3e7e8fbc	0.24859518
109	0xbe734323	-0.2375608
110	0xbeaa202f	-0.3322768
111	0xbec05bfb	-0.37570176
112	0xbccc5d80	-0.024946928
113	0xbeefb798	-0.46819758
114	0x3d0b7190	0.03404385
115	0x3eccc17e	0.39991373
116	0x3e25fd0a	0.16209808
117	0xbc7e38ed	-0.015516502
118	0x3eb775cb	0.35832056
119	0xbea3e464	-0.32010186
120	0x3d07d4e0	0.033161998
121	0xbea68be6	-0.3252861
122	0xbe41fdbc	-0.18944448
123	0xbeba8132	-0.36426693
124	0xbefa758c	-0.48917806
125	0xbeb0426c	-0.34425676
126	0xbeff2ca8	-0.49838758
127	0xbd90d130	-0.07071149
128	0x3e598066	0.21240386
129	0xbe8ca984	-0.2747308
130	0xbe4dc980	-0.20096397
131	0xbdf11c6e	-0.11773001
132	0xbe4a648b	-0.19764917
133	0x3e70c116	0.23511156
134	0xbe868234	-0.26271212
135	0x3e91c088	0.28467202
136	0x3eb506f8	0.3535688
137	0x3edf5364	0.4361831
138	0x3e871057	0.26379654
139	0x3dad726c	0.0846909
140	0xbc9f4c31	-0.01944551
141	0x3f0c4b9b	0.54802865
142	0x3da7792b	0.08177408
143	0x3ba9254f	0.0051619182
144	0x3d7c4222	0.061586507
145	0x3eee7b8b	0.4657863
146	0xbe4faf45	-0.20281704
147	0x3ef9226f	0.48659083
148	0xbec66fec	-0.38757265
149	0xbcc63580	-0.024195433
150	0xbee71cf0	-0.45139265
151	0xbb225500	-0.0024769902
152	0xbe91df86	-0.28490847
153	0x3f0a4e0c	0.5402534
154	0x3e330b95	0.17484887
155	0x3e0e88a6	0.13919315
156	0xbd626fc0	-0.055282354
157	0xbcd0ae00	-0.025473595
158	0xbd61de00	-0.055143356
159	0xbee45fca	-0.4460433
160	0x3ed4b29a	0.41542512
161	0x3ee1fb85	0.44137207
162	0xbd6ee113	-0.058320116
163	0xbe978117	-0.29590675
164	0x3e73ea98	0.23819959
165	0x3bd8be23	0.006614463
166	0x3e5bfd11	0.21483256
167	0xbe9fe73e	-0.3123111
168	0x3e3b132d	0.18269034
169	0xbe7cbe60	-0.24681997
170	0xbea4b4c1	-0.32169154
171	0xbe6eb8a4	-0.23312622
172	0xbe3156e8	-0.17318308
173	0xbe89e062	-0.26929003
174	0xbed77d0e	-0.42087597
175	0x3dbd2428	0.09235412
176	0xbf071112	-0.5276042
177	0x3b69bcb5	0.0035665457
178	0x3edb1fc0	0.4279766
179	0x3ee1c630	0.44096518
180	0x3ee17769	0.44036415
181	0xbd12bb4a	-0.035823144
182	0xbe77773a	-0.24166575
183	0x3b83f574	0.004027063
184	0x3cc6a755	0.024249712
185	0x3e05921d	0.13044019
186	0x3df94107	0.12170606
187	0x3e1afb58	0.15134943
188	0x3e428d31	0.18999173
189	0xbd7f6315	-0.06235035
190	0x3e891ac3	0.2677823
191	0x3ecd672f	0.40117785
192	0x3e890059	0.26758078
193	0xbef8d261	-0.48598006
194	0x3ef22cac	0.47299707
195	0xbe7beabc	-0.24601263
196	0x3ee4a888	0.4465983
197	0x3ed11b1f	0.40841004
198	0xbe9856e0	-0.2975378
199	0x3c7cb41b	0.0154238
200	0xbe96d0c5	-0.29456154
201	0x3ed34eb8	0.41270995
202	0xbe356b04	-0.17716604
203	0xbe7631bc	-0.2404241
204	0x3ec37b60	0.38180065
205	0xbe40fddf	-0.18846844
206	0x3ec6c6c5	0.38823524
207	0x3ee65dcc	0.44993436
208	0x3eb1b4f5	0.34708372
209	0xbe82c820	-0.25543308
210	0xbeb178ad	-0.3466238
211	0xbe68df7d	-0.22741504
212	0xbe7c89b4	-0.24661905
213	0x3e1a26f8	0.15053928
214	0xbeb76762	-0.35821062
215	0x3de1a548	0.11017853
216	0x3ec2a9ae	0.3802008
217	0x3ee04ba3	0.43807706
218	0xbed04596	-0.4067809
219	0xbef97b96	-0.487271
220	0xbdbf0c55	-0.09328524
221	0x3e8c1f77	0.27367756
222	0x3e1103fd	0.14161678
223	0xbf062bd4	-0.52410626
224	0x3dc7eca1	0.0976193
225	0xbe83ead8	-0.2576511
226	0x3e2da0b0	0.16955829
227	0xbaf742d7	-0.0018864524
228	0x3d95c77c	0.07313439
229	0xbecd7e84	-0.40135586
230	0xbcf89cdb	-0.030348232
231	0x3ee28bba	0.44247228
232	0xbd2b47a0	-0.041816354
233	0xbe879f2e	-0.26488632
234	0xbecc0956	-0.39850873
235	0xbee03daa	-0.43797046
236	0x3e23b7d4	0.15988094
237	0x3e931c98	0.28732753
238	0x3f057a1d	0.52139455
239	0xbe9bf641	-0.30461314
240	0x3ed3d652	0.4137445
241	0xbddcf4e1	-0.107888944
242	0x3ef79524	0.48355973
243	0xbdc19c14	-0.09453598
244	0x3ef2f98f	0.47456023
245	0xbed0dd18	-0.4079368
246	0x3ed145f6	0.40873688
247	0xbc9b9e92	-0.01899651
248	0x3ee13ddc	0.43992507
249	0x3ec3b9ec	0.38227785
250	0xbefeba25	-0.49751392
251	0x3ee142a0	0.43996143
252	0xbeb402d8	-0.3515842
253	0x3eb47d23	0.35251722
254	0xbdbec933	-0.093157195
255	0x3e602e18	0.21892583

bias f4 [256]
0	0x3e190868	0.14944613
1	0xbea6d0be	-0.32581133
2	0x3f015b80	0.5053024
3	0xbcf5c2d6	-0.030000132
4	0xbedca4d0	-0.43094492
5	0x3e5f6444	0.21815592
6	0x3e05bba6	0.13059863
7	0x3f0fb8bc	0.5614126
8	0xbee5e998	-0.4490478
9	0xbecf7440	-0.4051838
10	0xbec5a33a	-0.38601094
11	0xbc83c9a0	-0.016087353
12	0x3e58ddcb	0.21178357
13	0x3ef65c8e	0.4811749
14	0x3d9ceaee	0.07661997
15	0x3f12fa04	0.57412744
16	0xbeeb44c3	-0.459509
17	0xbeea842f	-0.45803973
18	0xbea64a2f	-0.32478473
19	0x3e1ac120	0.15112734
20	0x3d650878	0.05591628
21	0xbe9ecc8e	-0.31015438
22	0xbdf4f7eb	-0.11961349
23	0x3e9321d0	0.28736734
24	0xbe65668b	-0.22402398
25	0xbd1cb4ab	-0.038258236
26	0x3e861d18	0.26194072
27	0xbec481da	-0.3838032
28	0xbb2ece00	-0.0026673079
29	0xbeff0aac	-0.4981283
30	0x3e85920a	0.2608798
31	0x3ebb0c92	0.36533028
32	0x3ecbd4f5	0.3981091
33	0x3f038f8d	0.51390916
34	0xbe50ad5e	-0.20378634
35	0x3e88fbc9	0.26754597
36	0x3d59851e	0.053105466
37	0x3ec2785a	0.37982446
38	0x3f069a97	0.52579635
39	0xbe9c147a	-0.30484372
40	0xbcb9f213	-0.022698438
41	0xbeadcf79	-0.33947352
42	0x3e5a74f8	0.21333683
43	0xbdaf6578	-0.085642755
44	0x3ed76e24	0.42076218
45	0xbe98322c	-0.29725778
46	0x3eb253cb	0.34829554
47	0x3ec5026f	0.3847842
48	0xbe801849	-0.25018528
49	0x3d3f7805	0.04674532
50	0xbdac74ff	-0.08420753
51	0x3e9c52f3	0.30532035
52	0x3ee1a71b	0.44072804
53	0xbe5a0170	-0.21289611
54	0xbec29282	-0.38002402
55	0x3e0e568f	0.13900207
56	0xbe9560da	-0.29175454
57	0x3eb38088	0.35059
58	0x3bddc500	0.006767869
59	0xbe037cab	-0.12840526
60	0xbdf96ba7	-0.12178736
61	0x3e7d288a	0.24722496
62	0xbec79c86	-0.38986605
63	0x3efa0b60	0.48836803
64	0x3cc7e208	0.024399772
65	0x3d4bf134	0.049790576
66	0xbea40063	-0.32031545
67	0x3df94cb3	0.12172832
68	0x3eb08136	0.3447358
69	0xbea71bbf	-0.32638356
70	0x3e5a40b7	0.21313749
71	0xbeff1b3e	-0.49825472
72	0xbea28ef4	-0.3174969
73	0x3e099db0	0.1343906
74	0x3de2c3f3	0.110725306
75	0x3ed4c0e3	0.4155341
76	0x3e970820	0.29498386
77	0xbd7fb20c	-0.062425658
78	0x3f0249d8	0.50893927
79	0xbeeb0a34	-0.45906222
80	0xbe43cc32	-0.19120863
81	0xbe9fef1c	-0.31237113
82	0x3e63446f	0.22194074
83	0x3cd0594b	0.025433203
84	0x3f1baa43	0.60806674
85	0x3d80031d	0.06250594
86	0x3e85deca	0.26146537
87	0x3ee2f3fe	0.44326776
88	0x3dbb22b8	0.091374815
89	0x3e4d2683	0.20034222
90	0x3e029852	0.12753418
91	0xbb2bce14	-0.0026215361
92	0x3de0441b	0.1095049
93	0xbeccafa4	-0.39977753
94	0xbeca863a	-0.39555532
95	0xbe1356d4	-0.14388591
96	0xbef7311c	-0.48279655
97	0x3f04121a	0.5159012
98	0x3eaf8f90	0.34289217
99	0x3f062844	0.5240519
100	0xbd84c802	-0.06483461
101	0x3ea4d04a	0.32190162
102	0xbe2f6cb9	-0.17131318
103	0xbf0014ac	-0.5003154
104	0xbe99021a	-0.29884416
105	0xbecf5c71	-0.40500215
106	0x3db6ae73	0.08919992
107	0x3e91aeaf	0.28453586
108	0xbed0848a	-0.4072612
109	0xbec58c4b	-0.38583598
110	0x3de14fa2	0.11001517
111	0xbc858d84	-0.016302831
112	0xbf022c27	-0.5084862
113	0x3e087f78	0.13329875
114	0xbeba9cca	-0.36447746
115	0x3d8f2a1a	0.06990452
116	0xbe2b2819	-0.16714515
117	0xbee62799	-0.44952086
118	0x3ee49e3e	0.4465198
119	0xbcb41529	-0.021982746
120	0xbeb0901d	-0.3448495
121	0xbd26dabc	-0.040735945
122	0xbe1ed76e	-0.15511867
123	0xbec6438c	-0.3872341
124	0x3e90b11d	0.28260127
125	0x3d2873b0	0.041125953
126	0xbeb45da0	-0.3522768
127	0x3f023a20	0.5086994
128	0x3ecb814d	0.39747086
129	0x3edaede8	0.42759633
130	0xbea7e4a7	-0.32791635
131	0xbee87263	-0.4539977
132	0x3d0a0eaf	0.03370541
133	0x3ece9cdb	0.40354046
134	0x3e4b14d2	0.19832161
135	0xbeacb8f2	-0.33734852
136	0xbe4d4a24	-0.20047814
137	0xbe9b827b	-0.30372986
138	0xbec231e6	-0.37928694
139	0x3f05ed61	0.52315336
140	0x3e4e6c98	0.20158613
141	0xbdb801b4	-0.089847
142	0xbe09b88c	-0.13449305
143	0xb9c18e8c	-0.00036918034
144	0xbe474f4d	-0.19463845
145	0xbe06772c	-0.13131398
146	0x3e859283	0.26088342
147	0x3e85dc1a	0.26144487
148	0xbe05475f	-0.13015507
149	0x3d9931ce	0.074802026
150	0x3eb1f447	0.3475668
151	0xbe87bf06	-0.26512927
152	0xbec9f9f2	-0.39448506
153	0xbe56b134	-0.20966035
154	0xbe2160db	-0.15759604
155	0x3e9fbb80	0.3119774
156	0x3f00de44	0.5033915
157	0xbea0f149	-0.31434086
158	0xbf0f464c	-0.5596664
159	0x3ee08702	0.43853003
160	0xbda1fc23	-0.079094194
161	0xbe9b6b8d	-0.30355492
162	0x3f00ac85	0.50263244
163	0xbdd1c4b3	-0.102425955
164	0xbf071edf	-0.5278148
165	0xbed1f2cf	-0.4100556
166	0xbe61f80f	-0.22067283
167	0x3cf6d89e	0.030132588
168	0xbea067a4	-0.31329072
169	0xbe687510	-0.22700906
170	0x3ebcfe02	0.36912543
171	0xbdc769ca	-0.097369745
172	0xbe565fb5	-0.20934947
173	0x3e3d5076	0.18487725
174	0x3d84f14b	0.064913355
175	0x3ef205bb	0.47269997
176	0xbdb0fa48	-0.08641487
177	0x3e27ad08	0.163746
178	0x3ee37fa4	0.4443332
179	0x3eab049e	0.3340196
180	0x3e9afb9a	0.30270082
181	0xbd8b19fa	-0.06792064
182	0xbe748710	-0.23879647
183	0x3dbda478	0.092598855
184	0xbe422ee3	-0.18963198
185	0x3ece7679	0.40324762
186	0x3eac52be	0.33656877
187	0x3e6db4fe	0.23213574
188	0x3ef3d29b	0.47621617
189	0x3eb3270a	0.34990722
190	0xbe9b1c60	-0.30295086
191	0xbe85c50c	-0.26126897
192	0x3f15e02e	0.58545196
193	0x3eccd0b8	0.4000299
194	0x3ee268b9	0.44220522
195	0x3e1c832f	0.15284418
196	0x3ebbcb33	0.36678466
197	0x3d9c58a0	0.076340914
198	0x3e334443	0.17506509
199	0xbcaa9fa8	-0.020828083
200	0x3e4b1392	0.19831684
201	0xbd3cb311	-0.04606921
202	0xbe6578fb	-0.22409432
203	0x3e931ea8	0.28734326
204	0xbefadb3b	-0.48995385
205	0xbe5822b0	-0.21106982
206	0x3e05ad8c	0.13054484
207	0xbc6e9b82	-0.014563443
208	0x3ec40a78	0.38289237
209	0x3f105209	0.56375176
210	0x3e90e8cd	0.28302613
211	0x3ed366a0	0.41289234
212	0xbe374480	-0.17897224
213	0x3e89cc2e	0.2691359
214	0xbdf66ae2	-0.12032105
215	0x3e63e472	0.22255114
216	0xbdfe13e6	-0.12406139
217	0x3d61e44c	0.05514936
218	0xbda28160	-0.079348326
219	0xbe99e130	-0.30054617
220	0x3ec75b94	0.38937056
221	0x3ea207f3	0.3164669
222	0x3eadd9ba	0.33955175
223	0x3d7ec883	0.06220294
224	0x3e84d42b	0.2594312
225	0x3e2f2518	0.17103994
226	0xbd896291	-0.06708253
227	0x3eb733f0	0.35781813
228	0xbe46df95	-0.19421227
229	0xbe2cf348	-0.1688968
230	0xbeb88a36	-0.36042947
231	0xbe78cb02	-0.24296191
232	0x3bcee86f	0.0063143293
233	0xbeeef799	-0.46673277
234	0x3e331173	0.17487125
235	0xbe222f76	-0.15838417
236	0x3e961930	0.29316092
237	0x3f079aaa	0.52970374
238	0xbdb28e4e	-0.08718549
239	0xbedaf29c	-0.4276322
240	0x3eae1ff2	0.34008747
241	0xbe9ea5bc	-0.3098582
242	0xbd90a2f2	-0.07062329
243	0x3ebd715c	0.3700055
244	0x3e97832e	0.2959227
245	0xbe477991	-0.19479968
246	0x3e060568	0.13088
247	0x3eea5059	0.45764425
248	0x3eaebfab	0.34130606
249	0x3ebc202e	0.367433
250	0xbedd5f4a	-0.43236762
251	0x3b094cf2	0.0020950404
252	0xbefb1624	-0.4904033
253	0xbef09c27	-0.46994135
254	0x3f1b9d39	0.6078678
255	0x3e470c81	0.19438364

weight f4 [256, 256]
0	0xbd2cec1a	-0.04221735
1	0x3ce4f780	0.027950048
2	0x3ce62c54	0.02809731
3	0xbd670b44	-0.056407228
4	0x3c3e54d8	0.011616908
5	0x3bcbde50	0.00622157
6	0xbd496bb0	-0.049174964
7	0xbd49f280	-0.04930353
8	0xbd12e0b9	-0.035858843
9	0xbcf9664c	-0.030444287
10	0xbcc5992e	-0.024120893
11	0xbc4ef3d8	-0.012631379
12	0x3d229378	0.03969142
13	0x3d2ba1b2	0.04190225
14	0x3d270ac0	0.040781736
15	0x3cc5830f	0.024110345
16	0x3c9afe90	0.018920213
17	0xbc1cca69	-0.009569743
18	0x3cd9aa17	0.026570363
19	0xbd0ad6c8	-0.033896238
20	0x3d08cbd4	0.03339751
21	0xbd506546	-0.050877832
22	0x3c4e08f2	0.012575375
23	0x3c6ed36d	0.014576775
24	0x3d209599	0.039205167
25	0xbd31fad2	-0.04345209
26	0x3ce67fea	0.028137166
27	0xbc0b1fc7	-0.008491463
28	0xba4bd700	-0.0007775873
29	0xbc068bff	-0.008212089
30	0xbb931630	-0.004488729
31	0xbd2eafb8	-0.042648047
32	0x3ca24b44	0.01981128
33	0xbcd2c036	-0.025726419
34	0xbc0a6bd5	-0.008448561
35	0x3cbdf0ab	0.023186048
36	0x3be56acc	0.0070012566
37	0x3c801ca4	0.015638657
38	0x3cf87e14	0.030333556
39	0x3bda3910	0.0066596344
40	0x3c962087	0.018326057
41	0x3d644431	0.055729095
42	0xbc51b051	-0.012798385
43	0x3d78f4fe	0.060780518
44	0xbd48f44f	-0.049061116
45	0xbd53c1c0	-0.051698446
46	0x3ce0cf41	0.027442576
47	0xbd312962	-0.043252356
48	0x3c001211	0.007816807
49	0xbcb9476d	-0.022617066
50	0xbb91a305	-0.0044444823
51	0xbcac6868	-0.021045879
52	0xbcddecdf	-0.027090488
53	0xba4edb00	-0.000789091
54	0xbd69245d	-0.056919444
55	0x3d2a4a6e	0.041574888
56	0xbd4548c4	-0.048165098
57	0xbd138a8a	-0.036020793
58	0xbd4c2364	-0.04983844
59	0x3cbe2b4e	0.023214009
60	0xbd6254d8	-0.055256695
61	0xbca68efc	-0.020331852
62	0xbc834eb2	-0.016028736
63	0xbd3dc265	-0.046327967
64	0x3aa82002	0.0012826922
65	0xbc53f105	-0.0129358815
66	0x3d227296	0.03966006
67	0xbd8aa7d8	-0.06770295
68	0x3d5da9ea	0.05411712
69	0xbc9ed71e	-0.019389685
70	0x3d604236	0.054750644
71	0x3a9e8c80	0.0012096316
72	0xbce757fd	-0.028240198
73	0x3ca1d0c0	0.01975286
74	0x3c9ef4bb	0.019403806
75	0xbcd26b4f	-0.025685934
76	0x3cf59e38	0.029982671
77	0xbd09d8b3	-0.033653926
78	0xbcb8a668	-0.022540286
79	0xbd5b9a02	-0.05361367
80	0x3d50ff17	0.051024523
81	0x3d48c925	0.04901995
82	0x3d6411eb	0.05568115
83	0x3cfe830d	0.03106835
84	0x3d5ffd61	0.054685
85	0xbbdcf909	-0.0067435545
86	0xbd4a6f07	-0.04942229
87	0xbd1ed8cc	-0.038780972
88	0x3d7b22fa	0.061312653
89	0xbd108893	-0.035286497
90	0xbb75c8dd	-0.0037503757
91	0x3c0f2d01	0.008738757
92	0x3c39c777	0.01133906
93	0x3d632b1c	0.055461034
94	0x3b031c55	0.00200059
95	0xbd04a376	-0.03238245
96	0xbc45d770	-0.01207529
97	0xbd806a8d	-0.06270323
98	0x3cb4950f	0.022043733
99	0xbd888743	-0.06666424
100	0xbc5e5722	-0.013570579
101	0xbd537593	-0.0516258
102	0x3d286ede	0.041121356
103	0x3c9c4adb	0.019078663
104	0xbd042ad3	-0.032267403
105	0x3d328f3b	0.043593626
106	0xbd68c9b5	-0.056832988
107	0xbd723445	-0.05913188
108	0x3d30fd80	0.043210506
109	0x3ca3ecd8	0.020010397
110	0xbd285857	-0.041099872
111	0x3d165908	0.036706
112	0x3d61592b	0.055016678
113	0x3d391052	0.04518158
114	0x3d21b8a2	0.03948272
115	0x3b6349ef	0.003468152
116	0xbd6f11ca	-0.058366574
117	0x3d14c5c3	0.036321413
118	0xbb686680	-0.0035461485
119	0xbd35ee7d	-0.044416893
120	0xbd2030fe	-0.039109223
121	0xbcc2024d	-0.023682738
122	0x3c4d5d3e	0.012534438
123	0x3bfe4130	0.007759236
124	0xbb29f06d	-0.0025930658
125	0xbd26b9b4	-0.040704444
126	0x3cef58a4	0.029217072
127	0x3c034a07	0.008013255
128	0x3bf370e3	0.0074292286
129	0xbd599d4a	-0.05312852
130	0xbcaddfbb	-0.021224847
131	0xbc4f52ad	-0.012653989
132	0x3d56a4fd	0.05240344
133	0x3d2030fe	0.039109223
134	0xbccdc6f5	-0.025119284
135	0x3cd4d5c4	0.025980838
136	0xbcb02f10	-0.021506816
137	0x3d650688	0.05591443
138	0x3d531ad7	0.05153927
139	0xbd1ff4ae	-0.039051704
140	0xbd088552	-0.03333027
141	0x3cfe9fc1	0.031082036
142	0x3d653816	0.05596169
143	0x3cdf1135	0.027229885
144	0xbceafbfb	-0.028684607
145	0xbccc85ba	-0.02496611
146	0xbcebf367	-0.028802587
147	0xbd865865	-0.06559829
148	0xbd3b1c02	-0.045681007
149	0x3d5d8998	0.054086298
150	0xbcdaf75a	-0.026729275
151	0x3d49650c	0.04916863
152	0xbb34e9e0	-0.002760522
153	0x3d4995a4	0.049214974
154	0x3d04355f	0.03227746
155	0x3cf7b469	0.030237393
156	0xbd357ed5	-0.04431041
157	0xbc5058ce	-0.012716485
158	0xbd392458	-0.045200676
159	0xbd669ebb	-0.05630372
160	0x3c8cd85f	0.017193018
161	0x3ca3fa76	0.02001689
162	0xbd532c8f	-0.051556166
163	0xba344570	-0.0006876802
164	0x3b16d184	0.0023013065
165	0xbcc90f30	-0.024543375
166	0x3c3ed876	0.011648288
167	0x3d5eacd7	0.05436405
168	0xbacdbfd7	-0.0015697432
169	0xbd19c7dc	-0.037544116
170	0x3d3956c8	0.045248777
171	0xbd4cd5e9	-0.050008688
172	0x3d2dc539	0.042424414
173	0x3cdd9379	0.02704786
174	0x3c9aca17	0.018895192
175	0xbd5fd7ff	-0.05464935
176	0x3d6f3882	0.0584035
177	0xbd6a551c	-0.057210073
178	0x3ce18b06	0.027532112
179	0x3d4e4670	0.050360143
180	0x3c372566	0.01117835
181	0x3c2b706b	0.010463814
182	0x3c6e7720	0.014554769
183	0x3ba17d4c	0.0049282666
184	0x3ae6c90b	0.0017607523
185	0x3d4c569d	0.04988729
186	0x3bb2591a	0.0054427506
187	0x3cebb45e	0.02877253
188	0xbd462c66	-0.048382185
189	0xbc934144	-0.017975457
190	0xbd468016	-0.048461996
191	0x3d5b14c6	0.053486608
192	0x3a9be072	0.0011892451
193	0xbd3d6430	-0.046238124
194	0xbacde2d3	-0.0015707858
195	0x3d1d078f	0.038337287
196	0xbd103c4d	-0.035213757
197	0xbccee842	-0.025257234
198	0xbd47cd46	-0.04877975
199	0xbd1cf7a5	-0.03832211
200	0x3d42d852	0.04756958
201	0x3cb0df65	0.021590898
202	0x3c0acac7	0.008471197
203	0x3ce8cf40	0.028419137
204	0xbd814eab	-0.06313833
205	0x3c4fcbd8	0.0126828775
206	0x39f3df3d	0.00046514897
207	0x3cb01c07	0.02149774
208	0x3d510354	0.051028565
209	0xbc973bfa	-0.018461216
210	0x3cbfb9d1	0.023404034
211	0xbca4d3d5	-0.02012054
212	0x3c2b00c8	0.010437198
213	0x3d3e3626	0.04643836
214	0xbcf365af	-0.029711572
215	0xba098e42	-0.00052473333
216	0x3d526207	0.051363017
217	0xbced30d4	-0.028953947
218	0x3b135580	0.0022481382
219	0x3d05115a	0.03248725
220	0xbcf84bd1	-0.03030959
221	0xbcda547a	-0.02665161
222	0xbd0bc867	-0.034126665
223	0x3d5f31f6	0.054491006
224	0xbc8d2d6a	-0.01723357
225	0xbcc8e40c	-0.024522804
226	0xbd669229	-0.056291733
227	0xbcee864a	-0.029116768
228	0x3b9d59d9	0.0048019704
229	0x3d1eaa85	0.03873684
230	0xbd2f7728	-0.042838246
231	0xbbde63ca	-0.006786798
232	0xbd29fdb8	-0.04150173
233	0x3d2bb8bb	0.04192422
234	0x3d54cad4	0.051951244
235	0x3c5d1780	0.013494372
236	0xbc93f52c	-0.018061243
237	0x3d31166f	0.043234285
238	0x3d04f5ce	0.03246098
239	0x3d702ef0	0.058638513
240	0x3c7b6e14	0.015346069
241	0xbbc70d9a	-0.0060746195
242	0xbc2810a2	-0.010257872
243	0xbbd33e80	-0.0064466596
244	0xbd66c93c	-0.056344256
245	0xbc9e8ddd	-0.019354755
246	0xbd414b1c	-0.04719077
247	0x3d2e45dc	0.04254709
248	0xbd59f6eb	-0.053213995
249	0xbd3726d2	-0.044714756
250	0x3b91c260	0.00444822
251	0x3bad30bd	0.005285351
252	0x3d4fb2f2	0.050707765
253	0x3d175e9b	0.036955457
254	0x3cc97350	0.024591118
255	0x3c1d9d58	0.009620033

bias f4 [256]
0	0x3d424c79	0.04743621
1	0xbd6b53ba	-0.057452895
2	0x3d0c55d9	0.03426156
3	0xbb15fbd1	-0.002288569
4	0x3cd9d930	0.02659282
5	0xbcb7abdb	-0.022420814
6	0xbd4cf650	-0.05003959
7	0x3cbd5e64	0.023116298
8	0x3c9f5baf	0.019452898
9	0xbced3967	-0.028958036
10	0x3a733a2b	0.0009278382
11	0x3d307c6b	0.043087404
12	0x3d0acf1c	0.03388892
13	0xbccc4da5	-0.024939368
14	0xbd6d963a	-0.058004595
15	0xbd8504d9	-0.06495065
16	0xbce7971b	-0.028270295
17	0x3c218038	0.00985723
18	0x3c919f00	0.017776012
19	0xbcbdbe79	-0.023162114
20	0xbc007db0	-0.007842466
21	0xbc6fffe7	-0.014648414
22	0xbd13d942	-0.036095865
23	0x3d11209c	0.03543149
24	0xbd3e4986	-0.046456836
25	0x3cdb054a	0.02673592
26	0xbd2351c8	-0.039872915
27	0x3d065416	0.032795034
28	0x3d1c53c7	0.038165834
29	0xbdd9435b	-0.1060855
30	0xbcf172db	-0.029473713
31	0x3d4c26d6	0.049841724
32	0x3c231ad7	0.00995513
33	0x3d2f18f1	0.042748395
34	0xbcace235	-0.021103958
35	0xbd51e9c2	-0.05124832
36	0xbd3c1ad2	-0.045924015
37	0xbade0ac0	-0.001694046
38	0xbd12fce3	-0.035885703
39	0xbd7b7871	-0.06139416
40	0xbc633680	-0.013867974
41	0xbd6110ea	-0.05494777
42	0xbca4566b	-0.020060739
43	0xbd6a2b2c	-0.05717008
44	0xbd53a57e	-0.051671498
45	0x3d494468	0.049137503
46	0x3aabbd98	0.0013102768
47	0x3c16e04f	0.009208753
48	0xbd7e5d71	-0.06210083
49	0x3c883108	0.016624942
50	0xbcd52b20	-0.02602154
51	0x3c896226	0.016770434
52	0xbd0309aa	-0.03199164
53	0xbc4c4be0	-0.012469262
54	0xbd13995e	-0.036034934
55	0xbdce0466	-0.10059433
56	0x3be6df22	0.0070456425
57	0x3d42bc38	0.04754278
58	0x3ce95e31	0.028487297
59	0xbd703ccc	-0.05865173
60	0xbd17a608	-0.037023574
61	0xbded8e9f	-0.115994684
62	0xbcd6a346	-0.026200902
63	0x3d429fd0	0.04751569
64	0x3d40f4eb	0.047108572
65	0xbd39e85b	-0.045387607
66	0x3d035894	0.032066897
67	0x3ae53d53	0.001748959
68	0xbd293367	-0.041308787
69	0xbbebf840	-0.0072012246
70	0x3d111218	0.035417646
71	0xbd97ae42	-0.07406284
72	0x3c7d151a	0.015446926
73	0xbc97ef14	-0.018546619
74	0xbd1a55c2	-0.03767944
75	0xbd24231e	-0.040072553
76	0x3dbc7d35	0.09203569
77	0x3bdd0bd0	0.006745793
78	0x3dbc36c7	0.091901354
79	0x3cd3d758	0.02585952
80	0xbc97324c	-0.0184566
81	0x3d40e811	0.047096316
82	0xbcb39c9a	-0.02192526
83	0x3c225dce	0.00991006
84	0xbcd1bd4d	-0.025602961
85	0x3b9fc514	0.0048757885
86	0x3d79e2aa	0.06100718
87	0x3dd3f48c	0.10349378
88	0x3ccb01a6	0.02478106
89	0x3d0864eb	0.033299368
90	0x3d0a50ac	0.03376834
91	0xbd1106b4	-0.035406783
92	0x3d2786af	0.04089993
93	0xbbdb2f7d	-0.0066890107
94	0x3d61a016	0.05508431
95	0xbcaaf6fe	-0.020869728
96	0xbc61d468	-0.013783552
97	0x3c7f9828	0.015600242
98	0x3df03eb1	0.117307074
99	0xbd325d66	-0.043546103
100	0xbcdee230	-0.027207464
101	0x3bb33378	0.005468782
102	0xbd92abf7	-0.07161706
103	0xbd248f28	-0.040175587
104	0xbd0cec8e	-0.034405284
105	0x3d8eaa47	0.069660716
106	0xbced185b	-0.028942278
107	0xbd2bcc48	-0.041942865
108	0xbc2a92ae	-0.010410948
109	0xbcb11554	-0.021616615
110	0xbd0db32c	-0.0345947
111	0x3d3c42e6	0.045962237
112	0xbd5a41e5	-0.0532855
113	0x3d41dcf7	0.04732987
114	0xbce47b2f	-0.02789077
115	0x3c05fb56	0.008177599
116	0xba052f03	-0.00050805527
117	0x3cb867cd	0.022510434
118	0xbbdad6c9	-0.0066784364
119	0xbd778234	-0.060426906
120	0x3d0bdaf8	0.03414437
121	0xbb578b8c	-0.0032889573
122	0xbb43cb52	-0.0029875827
123	0x3d4acc63	0.049511325
124	0x3d756249	0.059908185
125	0x3c86d9d7	0.016461296
126	0xbb292f18	-0.0025815424
127	0xbd901c2f	-0.070366256
128	0x3baeeb9f	0.005338147
129	0xbd1fd1f6	-0.039018594
130	0x3ca98275	0.02069209
131	0xbd04aa34	-0.03238888
132	0xbd062ede	-0.03275954
133	0x3c379808	0.011205681
134	0xbcb683c4	-0.022279628
135	0xbc8ebad8	-0.017423078
136	0x3c9c6038	0.01908885
137	0x3d3dd829	0.046348725
138	0xbc6a65e0	-0.014306515
139	0xbd9ab43c	-0.07553908
140	0xbd64c330	-0.055850208
141	0xbd82317f	-0.06357097
142	0xbc65d8fd	-0.014028785
143	0xbc8c3b6a	-0.017118175
144	0x3d826bcd	0.063682176
145	0xbd58446d	-0.05279963
146	0xbce99492	-0.028513227
147	0x3d53bf00	0.051695824
148	0x3d6b2e54	0.05741723
149	0xbdc527b6	-0.09626715
150	0xbbd69070	-0.00654798
151	0xbda5c279	-0.08093733
152	0xbd1cd134	-0.03828545
153	0x3b539c5f	0.003228925
154	0x3a0e6078	0.0005431245
155	0xbcb1dc9c	-0.02171164
156	0xbcf45c85	-0.029829273
157	0x3cc2b93e	0.023769971
158	0xbd0936cc	-0.033499524
159	0xbd2a1aea	-0.041529574
160	0x3d5ba2f6	0.05362221
161	0xbdca0815	-0.09864823
162	0xbdcbe845	-0.09956411
163	0xbce90f16	-0.028449576
164	0x3dd2f33e	0.10300301
165	0xbdfb99c7	-0.1228519
166	0x3d172dc8	0.036908895
167	0xbc94770e	-0.018123176
168	0x3bee79f0	0.0072777197
169	0xbd08d8c4	-0.03340985
170	0xbc338644	-0.010957304
171	0xbd0d9956	-0.03457006
172	0xbc34482a	-0.011003533
173	0xbce593e8	-0.028024629
174	0x3d22ab67	0.039714243
175	0xbca33ae3	-0.01992554
176	0xbd35b91a	-0.04436598
177	0xbdd838fe	-0.105577454
178	0xbda7321f	-0.08163857
179	0xbba0d8c0	-0.004908651
180	0xbc5690d0	-0.013096049
181	0xbd4fa5cb	-0.050695222
182	0xbce44f56	-0.027869862
183	0x3cb9c576	0.022677165
184	0xbd927d66	-0.07152824
185	0x3ab8f785	0.0014111853
186	0x3c8b9195	0.017037192
187	0x3b18fbf1	0.0023343528
188	0xbd1833b4	-0.037158683
189	0xbb8af5a0	-0.0042407066
190	0xbda2b211	-0.0794412
191	0x3d61f536	0.055165492
192	0xbd392adf	-0.0452069
193	0xbd0136ab	-0.031546276
194	0x3c7c0a26	0.015383279
195	0xbd3ead9a	-0.046552278
196	0x3cbae2e4	0.022813268
197	0xbd5a4c8a	-0.05329565
198	0x3d4bba22	0.049738057
199	0xbd883c1a	-0.066520885
200	0x3b2d6908	0.0026460309
201	0xbccb5dbc	-0.02482497
202	0xbd29604a	-0.041351594
203	0x3c95b486	0.018274557
204	0xbc61bca4	-0.013777886
205	0xbce900a6	-0.028442692
206	0xbcbdac14	-0.023153342
207	0xbd7bde52	-0.061491318
208	0xbd64686a	-0.05576364
209	0x3cd54176	0.02603219
210	0xbc2d3a8d	-0.010573042
211	0xbc9372b2	-0.017999027
212	0xbcc8391c	-0.024441294
213	0xbd21f7b7	-0.03954288
214	0x3c0df77a	0.00866496
215	0x3d1c960a	0.038229026
216	0xbcf3a837	-0.029743297
217	0x3d27494a	0.04084138
218	0x3d596baf	0.05308121
219	0x3ce52b04	0.027974613
220	0x3d4e614e	0.050385766
221	0xbbdd2344	-0.0067485888
222	0xbd09fb95	-0.033687193
223	0xbd994bda	-0.07485171
224	0x3c650ff2	0.013980852
225	0xbc19498a	-0.009355912
226	0x3d84819a	0.06470032
227	0x3d775b52	0.060389824
228	0x3c816d09	0.015799062
229	0x3d34206d	0.043976236
230	0xbd2b65cc	-0.041845128
231	0xbd32f67b	-0.043692093
232	0xbc1db3cb	-0.0096253855
233	0x3d0233ae	0.031787567
234	0xbd482031	-0.048858825
235	0x3c876959	0.016529726
236	0x3a1819be	0.0005802176
237	0x3d1573e8	0.03648749
238	0x3d60c092	0.05487115
239	0xbca99632	-0.020701502
240	0x3d2b36ec	0.041800424
241	0xbd12bb0e	-0.03582292
242	0x3d6d9e2a	0.058012165
243	0x3d62fe78	0.05541846
244	0xbc8894c7	-0.016672505
245	0xbd279ed4	-0.040922955
246	0x3d319cda	0.043362476
247	0x3bccbdec	0.0062482264
248	0x3dcac4d4	0.09900823
249	0xbd28bc8c	-0.041195437
250	0xbcc7330b	-0.024316331
251	0xbd64f7fa	-0.05590055
252	0xbcfb9e04	-0.030714996
253	0x3d7cf584	0.06175758
254	0xbc68757b	-0.014188166
255	0x3d35edc5	0.044416208

weight_mu f4 [1, 256]
0	0x3d07ae0e	0.033124976
1	0x3d466004	0.04843141
2	0x3d1e93a5	0.038715024
3	0xbd18140b	-0.03712849
4	0xbd7d8570	-0.061894834
5	0xbd945ed0	-0.072446465
6	0x3d2c1e5c	0.04202114
7	0x3d0abbd1	0.033870522
8	0x3d09114b	0.033463757
9	0x3b1897b2	0.0023283777
10	0xbdb25e8b	-0.08709439
11	0x3dc5068e	0.09620391
12	0xbd2edf4a	-0.042693414
13	0xbd857fc8	-0.06518513
14	0x3d2c46e0	0.04205978
15	0xbd70b715	-0.05876835
16	0xbd742c56	-0.059612595
17	0xbd602992	-0.054727145
18	0x3cd1f5f4	0.025629975
19	0x3c3bdf3f	0.0114668
20	0xbd2ba1e8	-0.041902453
21	0x3bbeebc7	0.0058264467
22	0x3d1ce442	0.03830362
23	0xbd6ffbbf	-0.058589693
24	0x3d52da31	0.051477615
25	0xbc140f3f	-0.009036838
26	0xbda15849	-0.07878167
27	0x3d44f848	0.048088342
28	0x3e035686	0.12825975
29	0xbb1eba9b	-0.0024220112
30	0x3c9bf08f	0.019035606
31	0x3c94b16b	0.018151006
32	0xbd7d1ec1	-0.061796907
33	0x3b397f03	0.0028304465
34	0x3d5c8d37	0.05384561
35	0xbc0577a8	-0.008146204
36	0x3d2edd54	0.042691544
37	0x3d665648	0.056234628
38	0x3cc9bf4c	0.02462735
39	0xbd6962d2	-0.056979008
40	0xbcaf0864	-0.021366306
41	0xbd38a11c	-0.04507552
42	0xbac0e2ef	-0.0014716069
43	0xbd1fc376	-0.039004765
44	0xbb829400	-0.003984928
45	0x3e083445	0.13301189
46	0x3caed47f	0.02134156
47	0xbcf2e230	-0.02964887
48	0xbdb7cb0d	-0.08974276
49	0x3c76f670	0.015073404
50	0x3d004218	0.031313032
51	0xbd56e4ee	-0.052464418
52	0x3cb7ede9	0.022452312
53	0xbd678b92	-0.05652959
54	0x3d2d636c	0.042331144
55	0xbd83f542	-0.064432636
56	0x3de9c86e	0.11415182
57	0xbd7ac1da	-0.061220028
58	0xbce6ba7e	-0.028165098
59	0x3c94be3f	0.018157123
60	0xbd170c56	-0.036877
61	0xbc9ebf6e	-0.01937839
62	0xbc43a8af	-0.011942073
63	0x3d596982	0.053079136
64	0x3d39d96a	0.045373358
65	0x3d00743e	0.031360857
66	0x3b6fa060	0.0036564097
67	0x3d2828f8	0.041054696
68	0xbd7220b2	-0.059113212
69	0xbd1a41fe	-0.03766059
70	0xbcab61d1	-0.020920666
71	0xbd0c552f	-0.034260925
72	0xbcaacb24	-0.020848818
73	0xbd9822c9	-0.0742851
74	0xbd59d577	-0.05318209
75	0xbd194663	-0.03742064
76	0x3dcbbad8	0.09947747
77	0x3d505f1c	0.050871953
78	0x3a9dd042	0.0012040215
79	0xbcfe0b3c	-0.031011216
80	0x3b652880	0.0034966767
81	0x3d398084	0.045288578
82	0xbd55b886	-0.05217793
83	0xbd748595	-0.059697706
84	0xbd9040a9	-0.07043583
85	0x3cd6df7f	0.026229618
86	0x3b6abe80	0.0035819113
87	0x3d7ef349	0.062243734
88	0x3d13e528	0.036107212
89	0xbd82f1ef	-0.063938014
90	0xbd451020	-0.04811108
91	0x3d2a51da	0.041581966
92	0xbbbe932f	-0.0058158855
93	0xbc8b452f	-0.017000763
94	0x3d1f0f14	0.03883274
95	0x3bb39899	0.0054808375
96	0x3d35dfd0	0.044402897
97	0x3c2f1f38	0.0106885955
98	0x3dcddb40	0.10051584
99	0xbca03774	-0.019557692
100	0xbcec7e24	-0.028868742
101	0x3c1cfd63	0.0095818965
102	0xbd865c05	-0.0656052
103	0xbd5ce1fc	-0.053926453
104	0xbceb0614	-0.028689422
105	0xbd569099	-0.052383993
106	0xbcc3a484	-0.023882158
107	0xbd1b7de8	-0.03796187
108	0x3d6cf718	0.057852834
109	0x3d7fdd8a	0.062467135
110	0xbbcb0be0	-0.006196484
111	0xbd6bff9b	-0.05761681
112	0xbc77e7f7	-0.015130988
113	0x3d49bcd9	0.049252365
114	0xbb80e06e	-0.003933004
115	0x3d379cdb	0.044827323
116	0x3e3cdcad	0.18443556
117	0x3bcabcde	0.0061870655
118	0xbd418e70	-0.04725498
119	0x3d1f43b4	0.038882926
120	0xbc106ac0	-0.008814514
121	0x3d48bfa2	0.04901088
122	0x3d3b86d8	0.045782894
123	0x3d474245	0.048647184
124	0x3db2c3ce	0.08728753
125	0xbdbfe475	-0.093697466
126	0x3d2b73ac	0.04185836
127	0xbd6072fe	-0.054797165
128	0xbd95f786	-0.07322602
129	0xbd203196	-0.03910979
130	0xbdc27299	-0.09494514
131	0x3c9d05be	0.019167777
132	0x3d708b14	0.058726385
133	0x3d0676aa	0.03282801
134	0x3d3873c1	0.045032267
135	0x3d22faa3	0.039789807
136	0x3d4e7ba0	0.050410867
137	0x3c0181ec	0.007904511
138	0xbd07d94d	-0.03316622
139	0xbd919f29	-0.071104355
140	0xbd844d27	-0.06460028
141	0xbd37ac0e	-0.04484182
142	0x3ccd8863	0.025089448
143	0xbd50dfe0	-0.050994754
144	0x3d028288	0.031862766
145	0xbd8466bb	-0.06464907
146	0x3d079c60	0.033108115
147	0x3e3b8c6a	0.18315282
148	0xbd312aec	-0.043253824
149	0xbcfa8806	-0.03058244
150	0x3d642f2c	0.05570905
151	0x3cc00a83	0.023442512
152	0x3d48850f	0.04895502
153	0x3cfbe682	0.030749563
154	0x3d50c4c6	0.050968908
155	0x3d12a786	0.035804294
156	0x3d4f9567	0.05067959
157	0x3d620e12	0.0551892
158	0xbd250984	-0.040292278
159	0x3c6a1d78	0.014289252
160	0xbd383e8b	-0.04498152
161	0xbcac6c91	-0.021047862
162	0xbd340435	-0.043949325
163	0xbda4053d	-0.080088116
164	0x3da72634	0.081615835
165	0xbca53eae	-0.02017149
166	0xbd220ceb	-0.0395631
167	0x3d2edf0c	0.042693183
168	0x3cabfc80	0.020994425
169	0xbc95a70e	-0.018268134
170	0xbd825f95	-0.06365887
171	0x3c34e96d	0.011041981
172	0x3d116e2a	0.03550545
173	0x3d7be1c6	0.06149461
174	0x3da5e833	0.08100929
175	0x3ce3be71	0.02780077
176	0x3d3bacbe	0.045819037
177	0xbd2f1568	-0.042745024
178	0xbcc989d3	-0.024601853
179	0x3d57f27e	0.052721493
180	0xbcb4bab8	-0.02206169
181	0x3d176d64	0.036969557
182	0x3d6d5a96	0.057947718
183	0x3d758489	0.05994085
184	0x3c704b66	0.014666414
185	0xbd421558	-0.047383636
186	0x3d64d5fe	0.05586814
187	0x3cf17176	0.029473048
188	0x3cfbf33c	0.030755632
189	0x3d783e18	0.060606092
190	0xbce18374	-0.027528502
191	0xbcd8a738	-0.026446924
192	0x3d27e407	0.04098895
193	0x3d4fa412	0.05069358
194	0x3d200a59	0.03907237
195	0xbd5f5801	-0.054527286
196	0x3c176108	0.009239443
197	0xbcf6d834	-0.03013239
198	0xbcad769e	-0.021174725
199	0x3cb84d56	0.022497814
200	0x3b0600e7	0.0020447315
201	0x3d9e14d1	0.07718814
202	0xbd323414	-0.043506697
203	0xbcd050ee	-0.025429215
204	0x3d23b1b3	0.03996439
205	0xbc89f03b	-0.016838184
206	0xbd65a7ae	-0.056068115
207	0xbd618952	-0.0550626
208	0x3bb87f63	0.00563042
209	0x3b78abcb	0.0037944193
210	0x3ca3d690	0.019999772
211	0x3ca2e398	0.019883916
212	0xbd2d7cb7	-0.042355265
213	0x3d495492	0.04915292
214	0xbd75be33	-0.05999584
215	0xbc318c7d	-0.010836718
216	0xbd659b27	-0.056056168
217	0xbd09356e	-0.03349822
218	0x3d110623	0.035406243
219	0x3c953df8	0.018218026
220	0x3cc3c453	0.023897326
221	0xbc15b8e6	-0.0091383215
222	0xbdc168ab	-0.09443792
223	0xbd9fe19e	-0.07806705
224	0xbd624ae7	-0.055247214
225	0x3d26b55a	0.040700294
226	0xbcd219db	-0.025647094
227	0x3d5d004c	0.05395536
228	0xbd6eda87	-0.058313873
229	0x3cd64fdd	0.026161129
230	0x3c9b2f50	0.018943459
231	0xbd3acabf	-0.04560351
232	0xbccc94a1	-0.024973216
233	0xbbf20b62	-0.007386611
234	0x3d1a36f6	0.03765007
235	0xbc24d088	-0.010059483
236	0xbd9b8ff3	-0.075958155
237	0xb952c470	-0.0002010034
238	0x3c9aeb88	0.018911138
239	0xbd9da6ae	-0.07697807
240	0xbd93e774	-0.072218806
241	0xbd834416	-0.06409471
242	0x3cac382c	0.021022879
243	0x3d3d9b6b	0.046290796
244	0x3cca675c	0.024707489
245	0x3d194046	0.03741481
246	0x3d5578ef	0.052117284
247	0x3d1f99c7	0.038965013
248	0x3e151236	0.14557728
249	0xbd87c04f	-0.06628477
250	0x3d5fe361	0.054660205
251	0xbb71de73	-0.0036906272
252	0xbcfb99dd	-0.030713016
253	0x3d7257a2	0.059165604
254	0xbd6533bb	-0.055957537
255	0x3d61edd1	0.05515844

weight_sigma f4 [1, 256]
0	0x3d036355	0.032077152
1	0x3d000000	0.03125
2	0x3ce4eb5f	0.027944265
3	0x38d1ff3a	0.00010013436
4	0x3d000000	0.03125
5	0xb9b5ab7f	-0.00034650785
6	0x3cf74390	0.030183583
7	0x3845d98f	4.7171077e-05
8	0xba02f48d	-0.00049955474
9	0x3caacd1b	0.020849755
10	0x3a0baf88	0.00053285854
11	0x39d24d93	0.0004011212
12	0xb989388f	-0.00026172816
13	0x37fd3a02	3.0186962e-05
14	0x3d000000	0.03125
15	0xba70fc2a	-0.0009192849
16	0xb8818edf	-6.177811e-05
17	0x3d000000	0.03125
18	0x3d000000	0.03125
19	0x3d02a26f	0.03189319
20	0x3d000000	0.03125
21	0x3cd2f829	0.025753098
22	0x3d000000	0.03125
23	0x3a42a3d9	0.0007424928
24	0x3d005acb	0.031336587
25	0x3d031af7	0.032008138
26	0x398f0cc2	0.0002728459
27	0x3d02ddcf	0.031949814
28	0xba288e72	-0.00064299174
29	0xb91fd6db	-0.00015243462
30	0x37f95f71	2.9727556e-05
31	0x3d003a9e	0.0313059
32	0x3b01b81c	0.0019793576
33	0xb946b947	-0.00018951773
34	0x3d02fab7	0.03197738
35	0x3d000000	0.03125
36	0x3cf1ae73	0.02950213
37	0x3d000000	0.03125
38	0x3d00b1d9	0.03141961
39	0x3a0f27ea	0.0005460965
40	0x3d000000	0.03125
41	0x3d000000	0.03125
42	0x3cf869c8	0.030323878
43	0x3d000000	0.03125
44	0x3d000000	0.03125
45	0x3a35600a	0.0006918913
46	0x391c27f4	0.00014892203
47	0x3cec4ba9	0.028844671
48	0x3cc91be0	0.024549425
49	0x3d000000	0.03125
50	0x3d000000	0.03125
51	0xb9b9ef9c	-0.00035464473
52	0x3cfd4494	0.03091649
53	0x3ced11c7	0.028939141
54	0x3d022b83	0.031779777
55	0x39940be8	0.0002823763
56	0xb977f794	-0.00023647986
57	0x3d000000	0.03125
58	0xb9b16081	-0.00033831972
59	0x3cfa5fa8	0.03056319
60	0x3d000000	0.03125
61	0xb99672dd	-0.0002869581
62	0x3d031fe9	0.032012854
63	0x3cff99b0	0.031201214
64	0x3cfe24f1	0.031023474
65	0x3cfa83a4	0.03058035
66	0x3d000000	0.03125
67	0x3d0071ec	0.031358644
68	0x3d02a242	0.031893022
69	0x3d000000	0.03125
70	0x3cfbac40	0.030721784
71	0x3b6111c2	0.003434286
72	0x3b38c3da	0.0028192909
73	0x38b43fb2	8.594933e-05
74	0x3ab4df19	0.0013799398
75	0x3a8da42f	0.0010806377
76	0x3a62344f	0.00086290104
77	0x3d000000	0.03125
78	0x39b5086e	0.0003452929
79	0x3d000000	0.03125
80	0x3d000000	0.03125
81	0x3cf7a07b	0.03022789
82	0xb94d3859	-0.00019571315
83	0xba30c89c	-0.00067437603
84	0x39a98f61	0.00032341018
85	0x3cff1a5a	0.031140495
86	0x3d000000	0.03125
87	0x39335deb	0.00017105757
88	0x3d01cece	0.031691365
89	0x3a1e8dcb	0.00060483505
90	0x3d000000	0.03125
91	0x3d000000	0.03125
92	0x3cea827a	0.02862667
93	0x39430bf0	0.00018601096
94	0x3d000000	0.03125
95	0x3cfa464e	0.030551102
96	0x3d000000	0.03125
97	0x3d000000	0.03125
98	0x3a169ae4	0.00057451264
99	0x3d000000	0.03125
100	0x3d000000	0.03125
101	0x394f3560	0.00019760942
102	0xba1aac98	-0.0005900352
103	0x3cfc332a	0.030786116
104	0xba824463	-0.0009938594
105	0xb995110e	-0.000284322
106	0x399105e6	0.0002766095
107	0x3d000000	0.03125
108	0x3d0bf562	0.034169562
109	0x3d000000	0.03125
110	0x3d000000	0.03125
111	0xb94b7416	-0.00019402834
112	0x39d83bec	0.00041243376
113	0x3cde3a0f	0.027127294
114	0x3d00979b	0.031394582
115	0x3cd27e67	0.025695039
116	0x39d34ddf	0.00040303075
117	0x398360c8	0.00025058375
118	0xb983f469	-0.00025168367
119	0x3d00b64a	0.031423844
120	0x3d000000	0.03125
121	0x3d031dd0	0.032010853
122	0x3cfb31db	0.030663421
123	0x3cf0391d	0.029324109
124	0xb778196b	-1.478787e-05
125	0xbad0a46b	-0.0015918141
126	0x3ce0bc18	0.02743344
127	0xba351334	-0.00069074635
128	0x3a10260a	0.00054988323
129	0x3d000000	0.03125
130	0xba66672c	-0.00087891775
131	0x3cf4c046	0.02987684
132	0x3d000000	0.03125
133	0x3d000000	0.03125
134	0x3d028960	0.031869292
135	0x3cfa472a	0.030551512
136	0x3d000000	0.03125
137	0xb8c08af6	-9.181157e-05
138	0x390f9cdb	0.00013695976
139	0xb9b0c226	-0.00033713988
140	0xbac08c46	-0.0014690242
141	0xb92380f0	-0.00015592924
142	0x3936ec5c	0.00017444923
143	0x38ee9f5e	0.00011378409
144	0x38f76317	0.00011796335
145	0x39c3a60b	0.0003731701
146	0x3d02ec41	0.03196359
147	0x3a4848f7	0.0007640267
148	0x3d000000	0.03125
149	0xb9e0fc12	-0.00042912416
150	0x3d0296f7	0.031882253
151	0xb897e83b	-7.2434974e-05
152	0x3d02d7a0	0.031943917
153	0x389f2bed	7.5898926e-05
154	0x3d013384	0.03154327
155	0x3d000000	0.03125
156	0x3d00b529	0.031422768
157	0x3d09fcad	0.033688236
158	0x3d000000	0.03125
159	0x3d000000	0.03125
160	0x39c89c39	0.00038263368
161	0xb9251263	-0.00015742476
162	0xb9b76646	-0.0003498068
163	0x39a2f58b	0.00031081992
164	0x3931bcd8	0.00016950385
165	0xb9ddc8d6	-0.0004230204
166	0x3cfa0f44	0.030524857
167	0xb92fda6a	-0.00016770666
168	0x3d000000	0.03125
169	0x3d04f1b7	0.03245708
170	0x39d65b0c	0.00040885096
171	0x39183bbc	0.00014518102
172	0x3cfaa453	0.030595934
173	0x3d000000	0.03125
174	0xba2ce87e	-0.00065959233
175	0x39772987	0.00023571226
176	0x3cf64675	0.030062893
177	0xb9af4c1d	-0.0003343531
178	0x39f9f2ba	0.00047673826
179	0x3d000000	0.03125
180	0x3d000000	0.03125
181	0xb9cce231	-0.00039078438
182	0x3d0373e8	0.03209296
183	0x3cf73992	0.030178819
184	0xba96f7dc	-0.001151796
185	0x3a94a648	0.001134106
186	0x3a142da5	0.00056525535
187	0x3cf69a3c	0.030102842
188	0x3d000000	0.03125
189	0x3d000000	0.03125
190	0x39dd68f8	0.00042230613
191	0x3a087931	0.0005206047
192	0x3d0101dc	0.031495914
193	0x37499a9f	1.2016534e-05
194	0x3d03386e	0.032036237
195	0x3a35a80a	0.0006929642
196	0x3d000000	0.03125
197	0x3d000000	0.03125
198	0xba4a3703	-0.0007713886
199	0xb9a25467	-0.00030961932
200	0x3cf7c7b5	0.030246595
201	0x37fbc19f	3.0011694e-05
202	0x3d000000	0.03125
203	0x39ed04d6	0.00045207766
204	0x3d01eeec	0.031721994
205	0xb8b47dec	-8.6065236e-05
206	0xb966a7ba	-0.00021996992
207	0x3a9aac23	0.0011800568
208	0x3d03c455	0.03216966
209	0x3cfb27e7	0.030658675
210	0x3d05ac5b	0.032635074
211	0x38d8f1e0	0.00010344735
212	0x39b304b5	0.00034145048
213	0x3cf6576c	0.030070983
214	0x393de427	0.00018109438
215	0x39edc4a3	0.00045350668
216	0x38fe6201	0.000121299185
217	0x3d000000	0.03125
218	0x3cf8e053	0.030380404
219	0x3d000000	0.03125
220	0x386e37bb	5.6795525e-05
221	0xb99eb62d	-0.0003027184
222	0x383f6f0f	4.564138e-05
223	0x3b185e36	0.0023249513
224	0xb9e2f7a1	-0.00043290577
225	0x3cf63d44	0.03005851
226	0xba016c8a	-0.0004937133
227	0x3d000000	0.03125
228	0xb911fa8f	-0.00013921618
229	0x3d075648	0.03304127
230	0x3d000000	0.03125
231	0x3cf61e99	0.030043887
232	0x3a6666ea	0.0008789139
233	0x3b0a1949	0.00210722
234	0x3cff6bbd	0.031179303
235	0xb9de53eb	-0.00042405663
236	0xba06031a	-0.00051121565
237	0xb9f2768a	-0.00046246155
238	0x3d000000	0.03125
239	0xba5e2416	-0.0008474005
240	0x3a360ace	0.0006944359
241	0xba4d95d1	-0.0007842454
242	0x3d000000	0.03125
243	0x3d0161c0	0.031587362
244	0x38e8f0a8	0.00011107448
245	0x3cfb91a8	0.030709103
246	0x3d05ccfe	0.0326662
247	0x3cffdcfb	0.031233301
248	0x3a7079c1	0.0009173416
249	0x39b8118e	0.00035108294
250	0x3cf4efc9	0.029899495
251	0xb940b547	-0.00018378078
252	0x3ac83872	0.0015275611
253	0x3d000000	0.03125
254	0x39d0d5b0	0.0003983206
255	0x3d0284ce	0.031864934

weight_epsilon f4 [1, 256]
0	0xbf1a4bde	-0.60272014
1	0x3ef5b7c5	0.47991768
2	0x3f93a250	1.1533909
3	0xbf40806a	-0.75195944
4	0x3fa4b519	1.2867767
5	0x3f617d17	0.88081497
6	0xbf4967e5	-0.78674155
7	0x3f3d3f8d	0.73925096
8	0xbfd97a6a	-1.6990483
9	0xbee804d2	-0.45316178
10	0xbedd90f9	-0.43274668
11	0xbf26f7a2	-0.6522161
12	0xbfbc2a10	-1.4700336
13	0x3f066a6e	0.5250615
14	0x3f9138c3	1.1345447
15	0xbf660d95	-0.89864475
16	0xbef4b5b9	-0.47794893
17	0xbf322d56	-0.6960043
18	0xbf8428ea	-1.0324986
19	0x3f16e0ca	0.5893675
20	0xbeb80eab	-0.3594869
21	0x3fc4afd1	1.5366155
22	0x3f7d3a5c	0.98917174
23	0x3f063f9d	0.52440816
24	0x3f436943	0.7633249
25	0xbfb6be07	-1.4276742
26	0xbf3d91dd	-0.74050695
27	0x3f6f6f16	0.9352888
28	0x3f40afaf	0.7526807
29	0x3f39042d	0.72271997
30	0xbf255305	-0.645798
31	0x3f1900f0	0.59767056
32	0x3f6f82d4	0.93559
33	0x3e7de797	0.24795376
34	0x3f847465	1.0348021
35	0xbf03785b	-0.5135552
36	0xbec97377	-0.39345905
37	0x3f462f6e	0.7741612
38	0xbf35f00c	-0.7106941
39	0x3ecdfac9	0.40230396
40	0x3f495e57	0.78659576
41	0xbf72487a	-0.9464184
42	0xbf1d2067	-0.6137757
43	0x3f6f5523	0.93489283
44	0xbfb59ad8	-1.418788
45	0x3fac2cf1	1.3451215
46	0x3efc95d7	0.4933307
47	0xbf9be54f	-1.2179354
48	0xbf89fa1d	-1.0779454
49	0xbf211a2d	-0.62930566
50	0x3ee4a464	0.4465667
51	0x3f8317a4	1.024159
52	0xbf07ff9f	-0.5312442
53	0x3f8f1e7d	1.1181179
54	0xbf7f3761	-0.99693877
55	0xbf465335	-0.77470714
56	0x3f14788d	0.57996446
57	0x3f2542a2	0.645548
58	0xbe0e2d6c	-0.13884515
59	0xbf87b89c	-1.0603213
60	0xbe84d3a5	-0.25942722
61	0xbf50fb61	-0.81633574
62	0x3f32b8c4	0.6981318
63	0x3f119af0	0.5687704
64	0x3e3bf1a8	0.18353903
65	0x3f49a07c	0.78760505
66	0x3e2d49ce	0.16922686
67	0xbf4171b5	-0.7556413
68	0x3f1d3a62	0.6141721
69	0x3f95625e	1.1670644
70	0x3ec645fb	0.38725266
71	0x3f81bb83	1.0135349
72	0xbed3fb02	-0.4140244
73	0x3f67fc6d	0.90619546
74	0xbeb86a80	-0.36018753
75	0xbf198d17	-0.5998091
76	0xbf506520	-0.81404305
77	0x3f395f58	0.7241111
78	0x3e1d110c	0.15338534
79	0x3fb00554	1.3751626
80	0x3f9e607b	1.2373194
81	0x3f30319d	0.68825704
82	0x3faf81e8	1.3711519
83	0xbe779c9f	-0.2418084
84	0xbf820c27	-1.0159959
85	0xbf7ada1a	-0.97989047
86	0xbea0838d	-0.31350365
87	0xbf427eac	-0.75974536
88	0x3f761aa9	0.9613443
89	0xbe099620	-0.13436174
90	0xbf18a8bf	-0.59632486
91	0xbf29a19d	-0.6626223
92	0xbf17013a	-0.58986247
93	0xbd1bb1bb	-0.038011294
94	0x3f929992	1.1453116
95	0xbf234643	-0.63779086
96	0xbf93c3bd	-1.154411
97	0xbf8330c7	-1.0249261
98	0xbfb402b8	-1.406333
99	0xbf9e79b0	-1.2380886
100	0x3f567c55	0.83783466
101	0xbf91f83b	-1.1403879
102	0x3f81b11c	1.0132174
103	0x3f711899	0.9417816
104	0x3f890cd0	1.0707035
105	0xbf123297	-0.57108444
106	0xbf2f4da8	-0.6847787
107	0x3f0defb1	0.55443865
108	0x3f46149f	0.77375215
109	0xbfafcf5d	-1.3735157
110	0xbfa246c2	-1.2677844
111	0x3f98ba4e	1.1931856
112	0xbe808a61	-0.25105575
113	0x3ef6c0f5	0.4819409
114	0xbeb10d5c	-0.34580505
115	0xbf9b2e48	-1.2123499
116	0x3f83c758	1.029521
117	0xbf289956	-0.6585897
118	0x3f015434	0.5051911
119	0x3f949e64	1.1610837
120	0x3f876779	1.0578452
121	0x3f4cc735	0.79991466
122	0xbf9af936	-1.2107303
123	0xbf7c9882	-0.9867021
124	0x3f3938d3	0.7235233
125	0x3f33ac66	0.70184934
126	0x3f769550	0.9632158
127	0xbf535213	-0.8254711
128	0xbdbea703	-0.09309199
129	0x3f8493dd	1.0357624
130	0xbe73954e	-0.23787424
131	0x3ec9ddf8	0.3942716
132	0xbfbd2e6d	-1.4779793
133	0xbf7cd4dc	-0.987623
134	0xbf927ca7	-1.1444291
135	0xbf27f585	-0.6560901
136	0x3f91a531	1.1378537
137	0xbfb1df84	-1.3896337
138	0xbf69d5e1	-0.9134198
139	0x3f31a0f6	0.6938623
140	0x3ee01cff	0.43772122
141	0xbfad11d8	-1.352107
142	0x3f988fc5	1.1918875
143	0x3fa238e5	1.2673613
144	0xbfb1933c	-1.3873057
145	0xbf302bde	-0.68816936
146	0x3f73dc61	0.95258147
147	0xbf9eb2d3	-1.2398323
148	0xbf21b82a	-0.6317164
149	0xbfaa8d6c	-1.3324409
150	0xbedf87bd	-0.43658248
151	0xbf8f323f	-1.1187209
152	0x3f70f6a3	0.9412634
153	0x3f42547b	0.75910157
154	0xbdfab4ca	-0.12241514
155	0x3f96516a	1.1743596
156	0xbf9b60df	-1.2138938
157	0x3fb54b4c	1.4163604
158	0xbf837119	-1.026889
159	0x3f75faef	0.9608602
160	0x3faaea99	1.3352844
161	0x3e8c2102	0.27368933
162	0xbf4932b3	-0.78592986
163	0x3f94598f	1.1589831
164	0x3f71b215	0.94412357
165	0x3f89a8de	1.0754659
166	0x3f4defda	0.8044411
167	0x3f556014	0.8334973
168	0xbed74529	-0.42044953
169	0x3e7acf1a	0.24493065
170	0x3e9a0add	0.30086413
171	0x3f81331e	1.0093725
172	0x3f439d66	0.76412046
173	0x3f0509c2	0.51968014
174	0x3f909465	1.1295286
175	0x3f13cd00	0.5773468
176	0x3f8be1f8	1.0928335
177	0x3fd6f33a	1.6792977
178	0xbe921429	-0.28531006
179	0x3fbd3b87	1.4783791
180	0x3f5ba221	0.85794264
181	0xbf2fbf2d	-0.68651086
182	0xbf652c3e	-0.89520633
183	0xbfa2f651	-1.273142
184	0x3f8761b0	1.0576687
185	0x3f8054d4	1.0025887
186	0xbf27f4d7	-0.6560797
187	0x3f1ce5d0	0.61288166
188	0xbfe0dc35	-1.7567202
189	0x3e9b9b3d	0.30391875
190	0x3e822e8c	0.25426137
191	0x3db29075	0.08718959
192	0x3fdab259	1.7085677
193	0x3f668304	0.90043664
194	0xbf9dfce5	-1.2342802
195	0xbf3e5299	-0.74344784
196	0xbf0224d5	-0.5083745
197	0x3f5ab2e9	0.85429245
198	0x3f94fedc	1.1640277
199	0xbeeb5972	-0.4596668
200	0x3f82a946	1.0207908
201	0xbee3ddb7	-0.44505093
202	0xbfb49890	-1.4109058
203	0xbeaa8155	-0.33301798
204	0xbf8b02eb	-1.0860265
205	0x3ea67826	0.3251354
206	0x3f35eee5	0.7106765
207	0x3f721d43	0.945759
208	0x3f83b8ae	1.0290735
209	0x3ecc718e	0.39930385
210	0xbe99f6c6	-0.30071086
211	0x3f8d2ec3	1.1029896
212	0x3f5a0770	0.851676
213	0x3e284a82	0.16434672
214	0xbfc53145	-1.5405661
215	0xbf54ab08	-0.8307347
216	0xbf700f6e	-0.93773544
217	0xbf9375a5	-1.1520277
218	0xbfc13928	-1.5095568
219	0xbf8c343d	-1.0953442
220	0xbf71ee31	-0.94504076
221	0xbf45060b	-0.76962346
222	0xbeb83b4c	-0.3598274
223	0xbf8d970f	-1.1061724
224	0xbf14ca4f	-0.581212
225	0x3f5001cb	0.81252736
226	0x3f8cae2d	1.0990654
227	0x3e96c8e9	0.29450157
228	0xbf757e6d	-0.95896035
229	0x3f616e9d	0.8805941
230	0x3e467421	0.19380237
231	0xbef28f7d	-0.47375098
232	0xbefc5cf3	-0.49289665
233	0x3ef0ff21	0.47069648
234	0xbf21dcde	-0.6322764
235	0xbfa784df	-1.3087424
236	0xbf16d8a1	-0.589243
237	0xbf6f2829	-0.93420655
238	0x3f7b6cd8	0.9821296
239	0x3ee9aeba	0.45641118
240	0x3ed4460b	0.4145969
241	0xbed03287	-0.4066355
242	0x3ee177f2	0.44036824
243	0x3f1d9f1b	0.615709
244	0xbf7e5f95	-0.99364597
245	0x3e96d265	0.29457393
246	0x3f3017e2	0.6878644
247	0x3f8f68e5	1.1203886
248	0xbf3b053a	-0.7305485
249	0xbf6fc625	-0.9366172
250	0x3f111378	0.5667033
251	0xbea4134a	-0.32045966
252	0x3f26fe19	0.6523147
253	0xbf207fb8	-0.62694883
254	0x3f19c558	0.6006675
255	0x3e95d093	0.29260692
