experiments/diff_reward_weights_data/kappa1_4_kappa2_1_kappa3_1/dqn_proposed_target_erf.pth (torch, 306152 bytes, 6 tensors)

weight f4 [256, 4]
00000000: 509c 40be f861 6bbe a6c4 c6be c430 ccbe
00000010: 84e9 9fbe 74bf f6be dc60 2cbe c4ac d4be
00000020: 7162 d23d 2b1a efbe 60b5 9abe 3854 ce3d
00000030: 567b c73e 7118 a43d 9785 b93c 4028 6a3f
00000040: 8274 df3d 0584 883c 7081 1cbf 4cc8 a03e
00000050: 4deb 68be f2e4 d9bd 1109 0c3d b321 e83e
00000060: a305 eb38 a1a4 003f 9bf9 74be 8f81 4ebe
00000070: edbe ecbe c877 dc3e 4c2b 86be 7f7f 1dbf
00000080: 72d5 1abe 4f06 88be e17e e43e 1a96 913e
00000090: 8052 c4bd c0d5 2dbd 1085 c6bd a40e f2be
000000a0: bee1 dd3e 14b9 54bd b80a 9fbe 28d1 42bf
000000b0: c3f0 e6be a0f1 1f3d 5010 793d 4045 903c
000000c0: bc92 823e 7bd2 383d d598 1bbd 20f0 5a3d
000000d0: 1005 d2bd 0011 57be 9423 26be e4be bbbe
000000e0: be2c 0b3b 079e c43e 7370 babd f82b 323f
000000f0: d5df 983d 30be da3e b889 e3bd 9407 523f
00000100: 1ffe 103e 4fc9 673e d27a 01bf 9eea d63e
00000110: f07b 433e 2dab 4e3e ff87 a0be d030 cdbe
00000120: beb0 1b3e 5a86 f7bd 8ca3 86be ddcf 38bf
00000130: 703f 4fbd 3827 31be 6697 a9be 6821 963d
00000140: 7850 33be b590 53be d7e7 353e 66f3 d83e
00000150: 546d 993a bfc2 c73e ac04 abbe 382b 6e3e
00000160: 0533 f53e 156e 90be f771 a3be f466 e5be
00000170: e9bd 013e 6fc3 8d3e 7cce 13bf acb8 cbbe
00000180: c56c a0be 7370 053f 0e30 afbe 460e 7fbe
00000190: 4def 653e 00e1 3d3d c4c8 d0be 0d16 3ebd
000001a0: b2d5 e13d 7abf a73e 24fb d33d f842 343f
000001b0: f74a 823e fbe2 62be 7e94 68be 3c62 32bf
000001c0: 805d ccbc a3b7 efbe 9071 0b3d 7ec1 cc3e
000001d0: 1ef9 1a3e 0de4 c5bc 3bed cb3e 7d2c 3fbf
000001e0: a1c8 cd3d 03e5 88be 6f32 00be 6ab5 2fbf
000001f0: 8c75 fabe 6c42 b0be ac2c ffbe 30d1 90bd
00000200: f490 373e 7890 93be 16db 63be d4f6 0abf
00000210: f93d 39be 9303 893e 87fd 3dbe 9be4 b53e
00000220: c90c b83e b506 d03e a5d1 863e 3f70 f83e
00000230: 3c3f ccbb dc4c 143f 8703 993d ac38 033f
00000240: d1bf 913d 67a5 db3e 8a89 52be 8e20 783f
00000250: ec6f c6be 8035 c6bc f01c e7be 0055 22bb
00000260: c832 40be 500c 253f d15e 1c3e a4a6 863e
00000270: c06f 62bd 00ae d0bc 00de 61bd ca5f e4be
00000280: 79ee db3e 589c 163f 5ec2 d2bd de41 8fbe
00000290: 061a 7e3e 5f9b 80bb 8516 503e 20d1 18bf
000002a0: a53e 1e3e 4ea6 a4be 343a 98be aa51 1dbf
000002b0: e856 31be 62e0 89be 0e7d d7be 2824 bd3d
000002c0: 5a26 e8be 8be0 bfbd e7c5 dd3e 5365 2b3f
000002d0: c16f e43e 2218 a63d 15be 4bbe 5cf7 803e
000002e0: 3f71 1f3d 9edb 273e 23f9 013e 1be3 1e3f
000002f0: 52cb 4f3e 4ba9 15bd 0ecd 9b3e 8626 393f
00000300: c90e 8f3e d958 f9be f10a 093f 13aa 933c
00000310: 6edf e83e f3d8 e83e ed9f 81be ba57 ca3e
00000320: 345b 8cbe 0226 eb3e c07f 20be d3ea 82be
00000330: 1a3f c93e ae12 ecbd 51a6 ca3e 53f0 473f
00000340: f400 ad3e bb1d 74be 24d0 abbe ae82 e4be
00000350: b489 7cbe f826 1a3e 6267 b7be 4ba5 e13d
00000360: 4d15 c03e 57ac 0d3f 8423 cebe 8fa7 3cbf
00000370: 702b 48bd e71e 9d3e b56d dc3d 9292 79bf
00000380: 71d0 c73d 21e9 78be 000d 5a3e 0487 3a3e
00000390: 0247 6e3d b0b2 c4be 77e7 8ebb f11e 353f
000003a0: a047 2bbd 2e9f 87be 5609 ccbe aa3d e0be
000003b0: 7507 2f3e 9448 9e3e 18cf 073f b54f 68be
000003c0: 3ef0 d93e 00ad 62be 4501 063f da34 4fbe
000003d0: f177 fc3e 8a7f 05bf e859 f13e 3b99 c93d
000003e0: feeb d23e 512c a33e d176 03bf b59f 183f
000003f0: 7695 d5be 7942 be3e 814f bbbd 2ce9 013e
-0.18809628 -0.22986591 -0.38821906 -0.39880955 -0.31232846 -0.48192942 -0.16833824 -0.4153806
0.102726825 -0.46699652 -0.30216503 0.10074657 0.38961285 0.08012474 0.022646708 0.91467667
0.10910894 0.016664514 -0.61135006 0.31402814 -0.2274601 -0.10639371 0.034188334 0.4533821
0.00011206723 0.50251204 -0.23923342 -0.2016661 -0.46239415 0.43060136 -0.26204908 -0.6152267
-0.15120485 -0.26567313 0.4462805 0.2843483 -0.09586048 -0.042440176 -0.096933484 -0.47276795
0.4333629 -0.051934317 -0.31062865 -0.761004 -0.45105562 0.03904879 0.060806572 0.017611146
0.25502574 0.045122605 -0.03798755 0.053451657 -0.10254872 -0.21002579 -0.1622451 -0.36669075
0.0021236385 0.38401815 -0.09103479 0.6959834 0.074645676 0.42723227 -0.11110252 0.82042813
0.1415944 0.22635387 -0.50578034 0.41975874 0.19090247 0.20182486 -0.31353757 -0.40076303
0.1520414 -0.120861724 -0.2629665 -0.72192174 -0.050597608 -0.17300117 -0.3312332 0.073305905
-0.17511165 -0.2066067 0.17764221 0.42373198 0.0011705556 0.39015767 -0.33402002 0.23258674
0.47890487 -0.28208986 -0.31922886 -0.4480511 0.12670101 0.27688166 -0.57736945 -0.3978933
-0.31332985 0.5212471 -0.3421635 -0.24907789 0.22454567 0.046357155 -0.40778172 -0.046407748
0.11027087 0.32763273 0.10350636 0.70414686 0.2544782 -0.22156899 -0.22712895 -0.69681144
-0.024946928 -0.4681979 0.03404385 0.39991373 0.15134093 -0.024156595 0.3982943 -0.7467726
0.100480326 -0.26737222 -0.12519239 -0.6863619 -0.48917806 -0.34425676 -0.4983877 -0.07071149
0.17926389 -0.28821158 -0.22251543 -0.5428288 -0.18090047 0.2676054 -0.18553744 0.35525975
0.35947254 0.40630117 0.2633182 0.48523137 -0.006233124 0.5792978 0.07471376 0.5125835
0.07116664 0.4289963 -0.2056028 0.96924675 -0.38757265 -0.024195433 -0.45139265 -0.0024769902
-0.18769372 0.6447191 0.15270545 0.26299012 -0.055282354 -0.025473595 -0.055143356 -0.4460433
0.42955378 0.5883231 -0.10290979 -0.2797994 0.24814615 -0.0039247717 0.2032109 -0.596941
0.15453584 -0.3215813 -0.29731905 -0.61452734 -0.17318308 -0.26929003 -0.42087597 0.09235412
-0.4534176 -0.09369 0.4331505 0.66951483 0.4461651 0.08110072 -0.1989673 0.2518872
0.03892636 0.16392371 0.12692694 0.62065285 0.20292404 -0.036538403 0.30429882 0.7232441
0.27940968 -0.48700598 0.5353232 0.018025434 0.45482963 0.4547802 -0.25317326 0.39520055
-0.27413332 0.45927435 -0.15673733 -0.25569782 0.39305955 -0.11527 0.39580014 0.7810108
0.3378979 -0.23839466 -0.33557236 -0.4463095 -0.24661905 0.15053928 -0.35821062 0.11017855
0.3751625 0.55341095 -0.4026147 -0.73693174 -0.04886955 0.3068764 0.107631125 -0.97489274
0.09756554 -0.24307682 0.21294022 0.18215567 0.058173187 -0.38417578 -0.004361089 0.7075034
-0.041816354 -0.26488632 -0.39850873 -0.43797046 0.17092688 0.30914748 0.53050375 -0.22686656
0.42566103 -0.22136307 0.5234569 -0.20235005 0.49310258 -0.52147734 0.47138906 0.098436795
0.41195673 0.31869748 -0.51353174 0.59618694 -0.41715592 0.3716009 -0.091460235 0.12686604

bias f4 [256]
00000000: 6808 193e bed0 a6be d5e1 043f a167 bf3d
00000010: 5fb2 cdbe 7128 793e 320f b73e 048b bc3e
00000020: 4b28 08bf 4174 cfbe d57c cabe a0c9 83bc
00000030: 8e65 8d3e 8e5c f63e 4d67 dd3d ab3e 163f
00000040: 59b0 e6be 2df7 dcbe a71b c4be 20c1 1a3e
00000050: 2e54 043d cdc5 5dbe 56ab e8bd a4bc c53e
00000060: a056 5cbe 6b73 d1bd 42e5 8c3e e851 bcbe
00000070: 00ce 2ebb f554 03bf 0139 a33e 920c bb3e
00000080: 14ee c43e b6ba 0c3f e6a3 66be 5f20 9e3e
00000090: f7e0 c13c 5a78 c23e b082 283f 7a14 9cbe
000000a0: 0c15 043e 5a36 b5be 21e7 0d3e 7865 afbd
000000b0: 1095 a43e 41bb 2fbe eb03 c83e 4e1a d73e
000000c0: 259f 80be 2413 da3d 629d 82bd a58a c73e
000000d0: 7560 ea3e 7001 5abe 99c9 8abe a4e0 2a3e
000000e0: 90ea 8dbe 784c bc3e 00c5 dd3b 2577 bcbd
000000f0: 43bf 6ebe 65e4 083e 4739 e4be 2450 d63e
00000100: b5ea 2e3d 727f 8bbd 9beb 75be 3e5c c13d
00000110: 3681 b03e 76a0 84be 69b3 a63e 3e1b ffbe
00000120: 257d 8ebe b09d 093e 1212 283e b075 e13e
00000130: 2008 973e c770 cbbc 905a ed3e 340a ebbe
00000140: 486d 44be 9de2 c0be c0c3 a63d 48b3 803d
00000150: a754 243f 9d9b 513b fa6b ca3e d94e 183f
00000160: b822 bb3d 3373 2d3e fda9 2d3e ef0d a63d
00000170: 3fb6 0b3e 788e e2be 4f8f b5be d456 13be
00000180: 0695 c6be 45d1 fb3e cf31 db3e 70ee 0f3f
00000190: 1a2f 48be d4d3 9a3e ffba 31be 4ae7 09bf
000001a0: 4868 68be d44d c6be 7a98 4f3d 3710 bb3e
000001b0: 9b55 ddbe 75ef cebe 46c4 e63d daf6 b43c
000001c0: 3016 0dbf 20b5 433e ca9c babe cb38 f13d
000001d0: c951 b3bd 89cd eebe 3e9e e43e 8bf3 523c
000001e0: 00b8 b3be 048b 81bd 9376 44be 8c43 c6be
000001f0: 8960 823e b073 283d 88cd aebe 6ad2 103f
00000200: 82cb ae3e b811 e83e 6d58 b2be 5879 bebe
00000210: ac30 563d d241 ed3e ff2e 953e 3543 b0be
00000220: 244a 4dbe 3218 a0be 7e1a aabe 524e 0a3f
00000230: 986c 4e3e 0fa4 85be 8cb8 09be 2411 833d
00000240: fc2c 89be 07ae 82bd c96d 493e ac2f 7f3e
00000250: ef7c 1fbe 88a3 a13d 825c b43e 06bf 87be
00000260: f2f9 c9be 34b1 56be ff87 f1bd 9a2f c63e
00000270: 9df5 163f 43f5 a1be 7ffe 02bf 0bd2 f13e
00000280: f8f8 d1bb 3125 75be 9881 c93e 9bea 5bbe
00000290: 21a4 f4be 810d c8be c3b8 53be c459 703d
000002a0: d2ef 9bbe 1075 68be 02fe bc3e 6b80 21bd
000002b0: f78b 2bbe 8d34 5a3e 3ab1 473e 7d69 013f
000002c0: 48fa b0bd ab98 9f3e 75ca ff3e a2cb f53e
000002d0: 48f2 ac3e 0195 94b9 74d8 50be dd24 a53d
000002e0: 12b2 23be b268 043f 52bc de3e 4cec 6d3e
000002f0: fdad b33e 0a27 b33e 73bc 8fbe 5d3c 97be
00000300: e304 003f 3e2b ac3e 17ff 153f 2ced 7a3e
00000310: 1018 333f 874e f43d ff81 4d3d e00c b33c
00000320: 4bfa a23e 5e19 2f3d 994d 8cbe a81e 933e
00000330: ed1c 41bf b022 58be bf32 0f3e 1476 1b3d
00000340: d9f2 cf3e baf8 033f 3014 e83e 3129 b73e
00000350: 8044 37be 35cc 893e b77b 97bd 3d05 843e
00000360: 0aa6 31be c3aa a33d 6081 a2bd 7178 5abe
00000370: 2a9d db3e d023 9c3e b926 b63e 16d8 3c3e
00000380: 81bf 8f3e 2801 a93e 57c4 fbbc e803 c93e
00000390: 4a7e 9abe 64d5 38be 368a b8be 3e8d 00be
000003a0: f44f 713c a416 e4be 1c84 d73d 6ddd d1bd
000003b0: 667a 6a3e 30b9 f13e 216e 51bc 9cf2 dabe
000003c0: 60ca be3e 14fd a0be 3222 14bd 5c71 bd3e
000003d0: 2e83 973e 3902 d4bd 78ac 873d 97f8 273f
000003e0: 340a 853e 2e20 bc3e f9fa d6be a9b7 7f3c
000003f0: 56a6 ecbe 3d91 ecbe ed87 1a3f a6cd 313e
0.14944613 -0.32581133 0.5190709 0.093459375 -0.4017515 0.24331833 0.3575378 0.3682481
-0.5318648 -0.40518382 -0.39548364 -0.016087353 0.27616543 0.4811749 0.10810719 0.58689374
-0.45056418 -0.4315733 -0.38302347 0.15112734 0.032306843 -0.21657486 -0.11360805 0.38620484
-0.2151742 -0.10227092 0.2751866 -0.3678124 -0.0026673079 -0.5130151 0.31879428 0.36533028
0.3846289 0.549724 -0.2252346 0.30884072 0.023666842 0.37982446 0.65824413 -0.30484372
0.12898654 -0.3539303 0.138577 -0.085642755 0.32144976 -0.17161275 0.3906549 0.42012256
-0.25121418 0.10648182 -0.06377675 0.38972965 0.45776716 -0.21289611 -0.27106932 0.16687256
-0.2771802 0.3677709 0.006767869 -0.092024125 -0.23315148 0.13368376 -0.4457495 0.41858017
0.042704303 -0.06811418 -0.24015658 0.09441422 0.3447358 -0.25903672 0.32558754 -0.49825472
-0.27829853 0.1343906 0.16413143 0.440351 0.29498386 -0.02483405 0.46358156 -0.45906222
-0.19182312 -0.37672892 0.08142805 0.06284195 0.6419167 0.0031983622 0.39535505 0.5949531
0.091374815 0.16938476 0.16959377 0.08108126 0.1364374 -0.4424932 -0.35460898 -0.14388591
-0.3878557 0.49183097 0.42811438 0.562232 -0.19549218 0.30239737 -0.1735649 -0.53868544
-0.2269603 -0.38731253 0.050682522 0.36535808 -0.43229374 -0.40417066 0.11267905 0.022090364
-0.5511198 0.19112062 -0.36447746 0.117784105 -0.08755834 -0.46641186 0.4465198 0.012875448
-0.35101318 -0.06325343 -0.19185857 -0.3872341 0.25464275 0.041125953 -0.34141183 0.56571066
0.3413964 0.45326018 -0.3483309 -0.37201953 0.05229251 0.4633928 0.29137418 -0.34426275
-0.20047814 -0.3126846 -0.33223337 0.5402576 0.20158613 -0.2610173 -0.13449305 0.06399754
-0.26792133 -0.06380849 0.19670786 0.24920529 -0.15575002 0.07892519 0.35226828 -0.26512927
-0.39448506 -0.20966035 -0.11793517 0.38708192 0.58968526 -0.31632432 -0.5116958 0.47230563
-0.006407853 -0.23939969 0.39356685 -0.21476214 -0.4778147 -0.39072803 -0.2067595 0.058679357
-0.30456406 -0.22700906 0.36912543 -0.03942911 -0.16752611 0.21309109 0.195012 0.5055159
-0.08641487 0.31171164 0.4995915 0.48006922 0.33778596 -0.00028339776 -0.2039507 0.08063672
-0.15985897 0.5172225 0.43503052 0.23234671 0.3509368 0.34990722 -0.28073463 -0.2953824
0.50007457 0.3362674 0.5859236 0.24504536 0.6995859 0.119290404 0.050172802 0.021856725
0.31831583 0.0427488 -0.27402952 0.28734326 -0.7543476 -0.21106982 0.13984202 0.037954405
0.40614966 0.515514 0.45327902 0.35773614 -0.17897224 0.2691361 -0.073966436 0.25785246
-0.17348495 0.079915546 -0.079348326 -0.21335007 0.42893344 0.30496073 0.35576418 0.18441805
0.28075793 0.33008695 -0.03073327 0.39260793 -0.30174476 -0.18050152 -0.36042947 -0.1255388
0.014728535 -0.44548523 0.10523245 -0.10247312 0.22898254 0.472116 -0.012782604 -0.4276322
0.37263775 -0.31443083 -0.036165424 0.3700055 0.2959227 -0.103519864 0.06624693 0.65613693
0.25984347 0.367433 -0.41988352 0.015607753 -0.46220654 -0.46204558 0.60363656 0.17363605

weight f4 [256, 256]
00000000: 1aec 2cbd 80f7 e43c 8edc 0b3c 3f80 98bc
00000010: 6d41 6ebe 4c3a bd3d 4c49 ba3e 37f0 34be
00000020: 3eec 2d3e 4c66 f9bc 075b 13bd d8f3 4ebc
00000030: b616 663d b2a1 2b3d 1118 573e afac d13d
00000040: 3bdf 8e3d 4e7f 5bbd c2cf e0bd c8d6 0abd
00000050: 26dc 023e df18 8cbe a3fa 373c 700b 763d
00000060: 699c c4bd 63da 25bd 21b3 b03d 3c04 6dbd
00000070: 00d7 4bba cdf1 6ebc bff0 34be b8af 2ebd
00000080: 180a 8cbb aaa8 8b3b 83c0 aa3c 39c7 d93d
00000090: 03b6 033e a41c 803c 391c c33d 1039 da3b
000000a0: 948a 063d a2eb 6f3d fa9b c4bd fef4 783d
000000b0: 13a2 0f3d 1325 0cbd ed88 d13d 8aa9 213b
000000c0: cabc ca3c 9722 5e3a f546 10be 4874 7a3c
000000d0: 12de d4bc 00db 4eba 9929 8abd 5a49 39be
000000e0: 2c19 fbbc e1c9 9d3d 6423 4cbd 3cea 393d
000000f0: 0cd2 0fbd fb66 213b 1130 113c ae7d 39bd
00000100: 4191 9b3d 12a1 06be 2abf 523d 439a f6bd
00000110: eaa9 5d3d 6126 5bbe 389a af3d 808c 9e3a
00000120: 86f7 e73c c0d0 a13c 79e5 d53c b2b4 bf3d
00000130: 389e f53c 5641 203d 043b e4bc 029a 5bbd
00000140: 1882 de3c 31f7 9abd ddfc 8ebc 1616 833d
00000150: e93c bd3e 1b34 0ebe 5f99 5cbd 9ef0 ad3d
00000160: fa22 7b3d bbf5 a9bc 8f30 3a3d ea67 123d
00000170: 305e 143d d4fc 9a3d c783 fdbb 76a3 04bd
00000180: fa70 88bc 48cc 17bd f67e 13be a158 9a3c
00000190: 785d a73d 2368 03bd 142a 943d 8e26 f73c
000001a0: ef42 a3bb 1bbe 3ebb f1b4 51bd f426 d0bc
000001b0: 1285 333c f94b 0b3c bba4 323d 00f1 bb3d
000001c0: eb8f 6c3d 6004 7d3d a2b8 213d 29c5 2a3d
000001d0: c7b3 49bd 7d14 7f3d 8066 68bb 1222 2c3c
000001e0: 5c97 6cbb ba63 dc3b 5573 5a3d 3041 fe3b
000001f0: d9b6 a33c b4b9 26bd 7f10 2d3d 9393 923b
00000200: c766 d43c eaa0 36bd 6e1e 533b 05fd 88bc
00000210: 33b9 0e3e bc38 2a3e e4ef 6bbb b8d1 dd3c
00000220: 102f b0bc 6fdf 3e3d 858e a23d 0191 9bbc
00000230: 5285 08bd cb97 593e 2338 653d f0f8 8e3c
00000240: fcac 56bc 0459 25be bcb6 8dbd 3be7 3b3d
00000250: 3651 8bbd 3b43 bfbd 9913 8bbe 0c65 493d
00000260: e0e9 34bb a495 493d 5311 5c3d 2657 2d3d
00000270: bc6d 2fbc 5304 68be 8cb9 c5bc 1bec 62bd
00000280: e2c8 9c3d 1af3 103d aff9 8cbe 3a3d 1e3d
00000290: 6443 413c b5c9 98bc 10e9 c0bd c3ba d63d
000002a0: da8c d23c dcc7 19bd c856 393d bcf0 d8be
000002b0: 58e1 1e3e 09d2 0b3e 84fa 683e 7456 22bd
000002c0: 8238 6f3d 4282 9ebc 2b7b cc3c b0e5 3bbe
000002d0: e056 2b3d 9832 13bc 106a 3d3d 272a 16be
000002e0: d681 763d 06dd 953d cec9 443d bcfa 723d
000002f0: 9376 12be 4441 93bc a7f0 68be 67d5 c73c
00000300: 2c4d 7d3d 9e90 e5bc 36db ce3d 735e de3d
00000310: e56e 5f3e fbf7 27bd b59d 883d 1cdb 753d
00000320: 41ff c93d 5a6a 9d3d ae5d 513a 40cf e83c
00000330: c2e9 d43e d8cb 4f3c 76fc 343e 86c9 5b3d
00000340: b7b2 133e df9d ab3c ea81 8f3e dcf3 803d
00000350: c800 2b3c 3036 3e3d 9bb4 22ba d2d6 8e3d
00000360: db18 8a3d d728 02bd 8055 133b 032b 8a3d
00000370: e227 7c3e 34bd 1f3d c2f7 d33c 2943 763d
00000380: 8799 ea3c 1514 d9bc 4f96 943c 4230 0abe
00000390: 8a7d 63bd fc37 973d 2f77 2fbd cb42 803c
000003a0: 2f48 3dbe b272 623d 5066 a03d 3aaa f23c
000003b0: 7d9d 5abc 8819 39be b136 083d f02e 703d
000003c0: 892a 2c3d 469d 1cbe c038 1c3d 803e d3bb
000003d0: 3cc9 66bd 10b4 483b 3376 49bd 2c50 a23e
000003e0: 19a8 7c3c d226 37bd 5810 62be 07c2 ffbc
000003f0: 7db2 16bb 5d36 363d 4dec 993c ff35 1ebd
-0.04221735 0.027950048 0.008536471 -0.01861584 -0.23267145 0.09239635 0.36384046 -0.1766976
0.1698465 -0.030444287 -0.035975482 -0.012631379 0.056174003 0.04190225 0.21005274 0.10238015
0.069761716 -0.053588204 -0.10977127 -0.033896238 0.12779292 -0.27362725 0.01122919 0.0600695
-0.09600145 -0.040491473 0.08627916 -0.057865366 -0.0007775873 -0.014584017 -0.17669962 -0.042648047
-0.004273664 0.0042620497 0.02084375 0.10633702 0.128624 0.015638657 0.095268674 0.0066596344
0.032847002 0.058574326 -0.09600063 0.060780518 0.035066675 -0.034215044 0.10231195 0.0024667704
0.024748225 0.0008473782 -0.14089568 0.015286513 -0.025984798 -0.000789091 -0.067462154 -0.18094388
-0.030651651 0.07704521 -0.04983844 0.0453894 -0.035112426 0.0024628032 0.008861558 -0.045285873
0.07596064 -0.13147381 0.05145184 -0.12041142 0.05411712 -0.21401359 0.08574337 0.0012096316
0.02831627 0.01975286 0.026110398 0.09360637 0.029982671 0.03912481 -0.027860172 -0.05361367
0.027161643 -0.07566679 -0.017454559 0.06400697 0.36960533 -0.13887064 -0.053857204 0.0849316
0.061312653 -0.020747056 0.045456465 0.03574363 0.036222637 0.075677544 -0.0077366563 -0.03238245
-0.016655434 -0.037060052 -0.144039 0.01884109 0.081721246 -0.032081734 0.07234588 0.030169751
-0.0049823443 -0.002910501 -0.05119795 -0.0254092 0.010957019 0.008502 0.04361413 0.091768265
0.05775444 0.06177175 0.03948272 0.041691933 -0.049243715 0.0622754 -0.0035461485 0.01050617
-0.003610096 0.0067257555 0.053332645 0.007759236 0.01998465 -0.040704444 0.04225206 0.0044731586
0.025927914 -0.044587053 0.0032214182 -0.016722212 0.13937835 0.16623205 -0.003600114 0.02707754
-0.021506816 0.0465998 0.0793734 -0.018990042 -0.03333027 0.2124931 0.05596174 0.017452687
-0.013102766 -0.16147238 -0.069196194 0.045874815 -0.06802599 -0.09338995 -0.2716339 0.04916863
-0.002760522 0.049214974 0.05372746 0.04231944 -0.010707315 -0.226579 -0.024136327 -0.05540095
0.07655503 0.03538809 -0.27534243 0.03863261 0.011795852 -0.018650869 -0.09419453 0.10484841
0.025701929 -0.037544116 0.045248777 -0.42371166 0.1551565 0.13654341 0.22751814 -0.03963323
0.0584035 -0.019349221 0.024961075 -0.18349338 0.041830897 -0.00898423 0.046243727 -0.14664517
0.060182415 0.073175475 0.04804402 0.05932115 -0.14303045 -0.017975457 -0.22748052 0.02439375
0.061841175 -0.02802306 0.10100405 0.108578585 0.21819647 -0.041007977 0.06670705 0.060023412
0.09863139 0.076863006 0.00079866766 0.028419137 0.41584593 0.0126828775 0.17674431 0.053658985
0.14423643 0.020949302 0.28028804 0.062965125 0.010437198 0.046438396 -0.0006206722 0.069745675
0.06743022 -0.03177723 0.0022481382 0.06746485 0.24624589 0.038998798 0.025874976 0.060122643
0.02863766 -0.026498834 0.018138079 -0.13494971 -0.055539645 0.07383725 -0.04283827 0.01565685
-0.18484567 0.055285163 0.078320146 0.029622186 -0.013343212 -0.18076146 0.033255283 0.058638513
0.042032752 -0.1529437 0.03814006 -0.0064466596 -0.056344256 0.0030624904 -0.04918499 0.3170179
0.015420937 -0.044714756 -0.22076547 -0.03122045 -0.002299457 0.04448544 0.018789435 -0.038625713

bias f4 [256]
00000000: 4095 c73d ba53 6bbd 1320 543d 85f8 d03d
00000010: 32d9 d93c 2a2c 373b 5119 c93c 4559 633d
00000020: cdb3 2bbc 4615 15bd f27f 383d 1dfd bcbc
00000030: fd50 d83c 2327 083d 3a96 6dbd 4d2b d33b
00000040: 826e 51bd 3880 213c 009f 913c 50d3 9ebc
00000050: b07d 00bc 2012 61bc 42d9 13bd 6c87 2b3c
00000060: 7cce 36bd 21a0 dc3c 1219 3e3e 9787 063e
00000070: 4cac 7dbd b1e4 833b fb62 873b 7935 513d
00000080: ca36 e93c 2b04 9e3d 0698 d93c c2e9 51bd
00000090: 33ad 70bc 64ac 74bb f9e3 76bc 0826 8e3b
000000a0: ed81 8fbc ea10 61bd 9ce4 a7bc 2c2b 6abd
000000b0: 7ea5 53bd 21ec 09bc cc3d 9bbb f531 823d
000000c0: 9e63 66bd 0831 883c 202b d5bc 100e dcbc
000000d0: 23af 12bd fe48 d13c c691 13bd ef31 3cbd
000000e0: 896b e8bc 38bc 423d 640f 443d a390 69bd
000000f0: 08a6 17bd 8fab 04bd 705c a73c 0026 423d
00000100: 07c8 3d3d 8036 23bd 9458 033d 828a ce3c
00000110: ff8e fbbc 43f8 ebbb 8d3a 113d c954 fe3c
00000120: 30f0 373d ee9c 283d 3b7d 26bb 9d57 02bd
00000130: 459f 723d d00b dd3b 7bff 9d3d 58d7 d33c
00000140: 4c32 97bc 8f82 913c b224 a4bc f433 893c
00000150: 2470 15bb 1889 b8bb aae2 793d 6200 c23d
00000160: b8ac 973c e002 493d ac50 0a3d b406 11bd
00000170: 8c53 2b3b d824 38ba 16a0 613d 80e7 403d
00000180: 68d4 61bc 2898 7f3c b5fc cb3d 665d 32bd
00000190: 30e2 debc da97 193c 14ac 173c 20f2 1dbd
000001a0: d807 483b 8888 ad3d 481f 71bd 48cc 2bbd
000001b0: 58ca 613d b255 5e3d 2cb3 0dbd d3f1 cc3d
000001c0: 9280 33bc 68ae 473d 165b 293c 40e4 733d
000001d0: d181 4dbd 7a2b d13c b889 7ebb 8b8e 1ebd
000001e0: f8da 0b3d 6f5c 28bb 3eca 97bb 8861 4c3d
000001f0: d344 6cbc 4765 833d 047a 7fba 8c3f f3bc
00000200: 33fd 493d f6d1 1fbd 7714 9c3d 989e a13c
00000210: de2e 06bd 0898 373c d037 86bc cd0d 8dbc
00000220: 3860 9c3c 2a72 623d 58d3 b33d c702 edbc
00000230: e642 cf3c cb64 4fbd efd1 7e3d 738c 543d
00000240: 01d3 8a3d a3a2 0fbd b432 fbbc 8f8a c7bb
00000250: 542e 6b3d 64d4 3fbc bb7f 193c 6fa0 25bd
00000260: be74 1fbd 32ad 0f3d 62b3 fc3b 9cdc b1bc
00000270: 37ac 1dbd b61a 9b3d 1674 13bd ea1a 2abd
00000280: bde1 a73c fc43 9fbb 759c 6dbd a273 78bc
00000290: 36a8 c03d 5eb8 28bd 3464 223d 3df2 183c
000002a0: f079 ee3b 8563 09bd bd5a 02bc e994 a2bd
000002b0: 290c 48bc e893 e5bc d468 173d 2a49 c3bb
000002c0: d390 8ebd 4f40 98bc bcc9 dd3c c0d8 a0bb
000002d0: d090 56bc f255 59bd b494 ac3d afdd b93c
000002e0: 7f37 0abd b0bb 90bb e44d 71bd c0cf 9f3b
000002f0: cecd 1fbd a0f5 8abb b046 35bb 1aa9 0d3c
00000300: 7d83 c23c fa7f aabd 9919 1b3d cbb5 f13a
00000310: e4e2 ba3c 8a4c 5abd 62a1 da3d 0994 09bd
00000320: d486 603d c00c 8a3c 4a60 29bd 2527 9e3a
00000330: 41a0 34bc 27c8 40bc c46c b53d 988b 113d
00000340: 43a3 c33d e401 713d e1a2 b73b 13e0 f33b
00000350: e2e3 013d e835 15bd 12ba e63c ae0d 693d
00000360: f270 80bd 4a49 273d 94fa 873e 042b e53c
00000370: c385 17be dc87 0a3c e4b4 4abd 413d 5dbc
00000380: 79ad 563d 0b7f a8bb 0538 523d 525b 773d
00000390: 969d 283d 3fb8 333d cc65 2bbd 6838 31bd
000003a0: 7877 65bc 9de3 8cba 0a37 3dbd 6785 823d
000003b0: cc44 bebc a0f9 a33c 92c0 603d 7aea d0b9
000003c0: 39ad a13d b89f 0abd 0d6f c73d 76c3 093e
000003d0: b53b 86bd 59cc 57ba 841d 743d c9c0 d23b
000003e0: 0b0e d73d ceab 7f3c d60c 4e3d 5b53 9a3b
000003f0: 68cf b83c 84f5 7c3d 881c 5c3d 9e04 2d3d
0.09745264 -0.057452895 0.0517884 0.10203651 0.026592825 0.0027949908 0.024548205 0.055505056
-0.01047988 -0.03639724 0.045043893 -0.023069913 0.026405806 0.03324045 -0.058004595 0.006444371
-0.05113078 0.00985723 0.017776012 -0.019387871 -0.007842466 -0.0137372315 -0.036095865 0.010469299
-0.044630513 0.026931824 0.18564251 0.13137661 -0.061931893 0.004025065 0.0041316724 0.051076386
0.028468508 0.07715639 0.026561748 -0.05124832 -0.014689731 -0.0037334198 -0.015069001 0.00433803
-0.017518008 -0.05494777 -0.020494752 -0.05717008 -0.051671498 -0.008418114 -0.0047375914 0.06357185
-0.056247346 0.016624942 -0.02602154 -0.026862174 -0.035811555 0.0255475 -0.036027692 -0.045946058
-0.02837159 0.04754278 0.04786624 -0.057022702 -0.037023574 -0.032390174 0.02042982 0.04739952
0.04633334 -0.039846897 0.032066897 0.02521253 -0.030707834 -0.007201226 0.03545623 0.031046288
0.044906795 0.041165285 -0.0025404233 -0.031821836 0.059233923 0.006745793 0.07714745 0.02585952
-0.0184566 0.01776245 -0.020037029 0.016748406 -0.0022802437 -0.005631577 0.06100718 0.09472729
0.018514976 0.049075007 0.03376834 -0.035406783 0.0026142327 -0.0007024533 0.05508431 0.047095776
-0.013783552 0.015600242 0.099603094 -0.043546103 -0.027207464 0.009374583 0.009257335 -0.038560987
0.0030522253 0.08473307 -0.058867723 -0.041942865 0.05512461 0.054280944 -0.0345947 0.10007062
-0.0109559465 0.04875031 0.010336658 0.059543848 -0.05017263 0.025533427 -0.003883941 -0.03871016
0.03414437 -0.002568986 -0.0046322634 0.0498977 -0.014420706 0.064158015 -0.000974566 -0.029693387
0.049313735 -0.039018594 0.07621091 0.019728944 -0.03275954 0.011205681 -0.016384035 -0.017218495
0.01908885 0.055284657 0.08780545 -0.028931988 0.025300454 -0.050633233 0.062211927 0.051891755
0.06778527 -0.03506721 -0.030663826 -0.0060895155 0.05741723 -0.011708353 0.009368832 -0.040436205
-0.038929693 0.03507728 0.007711814 -0.02171164 -0.038494315 0.07573454 -0.03599938 -0.041529574
0.020493383 -0.0048603993 -0.058010537 -0.015164288 0.09407084 -0.04119145 0.039646342 0.009335098
0.0072777197 -0.033542175 -0.007956204 -0.079385586 -0.01220993 -0.028024629 0.036965206 -0.0059596496
-0.06961217 -0.018585352 0.027073734 -0.004908651 -0.013096049 -0.05306048 0.084268 0.022688715
-0.03374433 -0.0044169053 -0.058912173 0.0048770607 -0.03901463 -0.0042407066 -0.0027660541 0.008646274
0.02374434 -0.08325191 0.03786621 0.0018441019 0.022813268 -0.05329565 0.106753126 -0.033588443
0.054816082 0.016851783 -0.041351594 0.0012066109 -0.011024536 -0.01176647 0.08858636 0.035533518
0.09552624 0.058839694 0.0056041335 0.007442483 0.031711467 -0.036428362 0.028164897 0.05689781
-0.062715426 0.04084138 0.26558363 0.027974613 -0.1479712 0.008455243 -0.049488917 -0.013503374
0.05241153 -0.005142098 0.051322956 0.060389824 0.04116591 0.043876883 -0.041845128 -0.043266684
-0.014005534 -0.0010748986 -0.046195067 0.06373101 -0.023226164 0.020016491 0.05487115 -0.0003984755
0.07894368 -0.033843726 0.09737978 0.13453469 -0.06554357 -0.00082320493 0.05959846 0.006431673
0.10500725 0.015604926 0.05030521 0.004709644 0.022559837 0.06175758 0.053738147 0.04224073

weight f4 [33, 256]
00000000: 8fd7 4d3d 0960 463d 2be0 1a3e b0e7 e73b
00000010: 7085 7dbd b2ec 193d 6605 ce3d cfee 043d
00000020: 4fd4 263d dc1c a13c de5a b3bd 4b2c 893d
00000030: f448 6abd 30a3 cabd e046 2c3d 67dd b9bc
00000040: 241b 07bd 9b29 60bd f4f5 d13c e8ed 1b3c
00000050: efa1 2bbd 601f 7a3b 42e4 1c3d 871c 1cbd
00000060: 4f59 0a3e 10b1 15bc de3d d53d a04d 093e
00000070: 2c54 a33c a7d3 ee3c 4620 773d 80a6 923c
00000080: e0dc febc 0f76 6a3d e0d5 db3d a877 05bc
00000090: eeea 923d 4856 663d f708 8c3d b1f1 57bc
000000a0: d57a 95bc 1ca1 38bd 1017 3dbc 76c3 1fbd
000000b0: 0094 82bb 8138 4a3d 7bad f5bc 9394 863d
000000c0: f2c8 6abd 70f6 763c 1842 003d b069 033c
000000d0: b70b 083d b126 0b3c 12b3 2f3d ebce bcbb
000000e0: 0231 883d dac1 7abd 6f56 e93c 073e a23c
000000f0: 560c 17bd 8489 103b a4b1 e1bc db6e 623d
00000100: 0a72 5c3d 4ea7 6f3d 60a0 6f3b 2299 cf3c
00000110: c4e2 9ebd fe41 1abd 1f11 adbc f947 523d
00000120: 06b0 0ebd c673 be3b 43e8 d1bc 3d10 1dbb
00000130: 36b4 e33d 1c5f 503d 6942 adbd 3c0b febc
00000140: 8328 653b 7796 603d 4eda 57bd 312f b4bc
00000150: 2a76 5cbd 24d8 ae3d 80be 6a3b 8156 a93d
00000160: 43a6 80bc a438 9dbd 2010 45bd da51 2a3d
00000170: 3663 4f3c 3fd6 02be 140f 1f3d 1ee6 853d
00000180: d0df 353d 381f 2f3c 7898 613d 7437 a0bc
00000190: 247e ecbc 3879 88bd 0ede 0dbd c037 6ebd
000001a0: 801c 5b3d bb35 5abd 7bc3 6bbc e87d 1bbd
000001b0: 8fa5 ab3d 066f 65bd e00b cbbb 0241 393c
000001c0: 11f7 473b 31ae 433d 940f e2bd 8546 d63d
000001d0: 363c 603d cbc0 acbd 89ce d6bb d65f 4e3d
000001e0: c06a 10bc aab3 5c3d 5af6 3d3d ac26 4f3d
000001f0: c651 263d 82da 793b 3cb4 1b3d 7ac1 dbbc
00000200: 609c 933c 9631 20bd 0c45 113c 06bc ee3d
00000210: 148b 703d aa76 063d 7b91 4fbb d02f 313d
00000220: a07b 4e3d a9f4 d13c 428f c93c af49 373c
00000230: dab6 0cbb 1a18 a83c 395a 9b3d 755f abbd
00000240: cc6b 3dbd 7d4c 3fbd 866d 0a3d e177 1f3e
00000250: ec2a 31bd 403c 76bb 733d 8f3d fcd6 ff3c
00000260: 7aea 503d 4d80 bc3d 8a26 ff3d 86a7 123d
00000270: ee36 333d 236c 9d3d 8409 25bd 781d 6a3c
00000280: 41ff 193d 855d a23c ca44 a9bd 6527 6d3d
00000290: b4a1 ca3d 6eb5 333d 2203 27bd 2641 b33d
000002a0: 80fc ab3c 3937 58bc ce5e 39bd e1a0 a43d
000002b0: 70ca 163d c6e1 7b3d 4ab6 9a3d f3d3 4c3d
000002c0: 2f70 c23d 27f0 3ebc 1e97 b73b 7ef2 573d
000002d0: b8ba b4bc 216f 473d bcee da3d caa4 7b3d
000002e0: e0ec 1e3d 8f37 14bc a5a9 1bba 402c e73c
000002f0: 3cf3 fb3c 183e 783d 1c48 0fbb 4442 5cbc
00000300: e0c8 163e 3e52 ac3d 3c20 a6bb 7a08 18bd
00000310: 0861 173c 34d8 f6bc 700e 78bc 5441 ff3d
00000320: ed55 803d c61e 063e 1434 32bd 8679 2fbc
00000330: 027d ac3d 2225 a93c b5a2 c13b 26df 143c
00000340: d3b6 ea3d 9c05 3b3c 6d5d 063e 12ad 3e3d
00000350: ba52 bf3c 6323 f03d 3ea7 21bd c032 bdbd
00000360: 13d3 a8bc 6e35 09bd 3c31 483e f83d 953c
00000370: 042a 263e 2dea f33d b4a0 d53d 0c59 20ba
00000380: fcd3 0cbd e388 893d 60c9 393c 4c00 5d3d
00000390: 683b b5bc a481 e43c 502f 9b3c 32a6 3fbd
000003a0: 141a 70bc 42d5 08bd dc85 1a3d b6c3 8c3d
000003b0: 7cd4 0ebd a4bf 093d 88eb 9a3c 42fe 6abd
000003c0: 3515 6238 d77d a4bd 4adf ff3d 8e0f c23d
000003d0: 9f92 a63c 755a a13d fa05 0c3d f0c7 2d3d
000003e0: 0526 a93d 4e01 13bd ec84 343e 32ff aebd
000003f0: 8dca 213d a257 723d b82c 0abd 7849 6a3d
0.0502544 0.04843143 0.15124576 0.00707718 -0.061894834 0.037579246 0.100596234 0.032454308
0.040729817 0.019667082 -0.08757566 0.06697901 -0.05719848 -0.09894407 0.04205978 -0.02268858
-0.032984868 -0.054727178 0.025629975 0.0095171705 -0.04190248 0.0038165674 0.03830362 -0.038113143
0.13510631 -0.009136453 0.10412191 0.13408518 0.019937597 0.029153658 0.060333513 0.017901659
-0.03111118 0.057241496 0.10734153 -0.008146204 0.071737155 0.056234628 0.068376474 -0.013180182
-0.018247047 -0.04507552 -0.011541143 -0.039004765 -0.003984928 0.049370293 -0.029989948 0.06571307
-0.057320543 0.015073404 0.031313032 0.008020803 0.033214297 0.0084931115 0.042895384 -0.005761971
0.066499725 -0.061220028 0.028483598 0.019804968 -0.036877 0.0022054622 -0.027550526 0.0552815
0.053819694 0.058509164 0.0036564097 0.025341574 -0.07758096 -0.03766059 -0.021126328 0.05133817
-0.034835838 0.005812141 -0.025623446 -0.0023965978 0.11118357 0.050871953 -0.08459932 -0.031011216
0.0034966774 0.054830994 -0.052698426 -0.021995159 -0.053823628 0.08537319 0.0035819113 0.082684524
-0.01570428 -0.07676819 -0.04811108 0.041581966 0.012657931 -0.12777041 0.03883274 0.06538032
0.044402897 0.0106885955 0.055077046 -0.019557692 -0.028868742 -0.06663746 -0.034635596 -0.058158636
0.053493977 -0.053273898 -0.014389868 -0.03796187 0.08381187 -0.056014083 -0.006196484 0.011307003
0.0030512253 0.047773544 -0.110381275 0.10462669 0.05474492 -0.0843521 -0.0065553826 0.050384365
-0.008814514 0.05388228 0.046377517 0.05057399 0.04060533 0.0038124626 0.03801368 -0.026825655
0.018018901 -0.03910979 0.00886656 0.116569564 0.058726385 0.03282801 -0.0031672406 0.04325849
0.050410867 0.025629358 0.024604443 0.011187001 -0.0021471293 0.020519305 0.07585568 -0.08367816
-0.04624538 -0.046703804 0.033795856 0.15573074 -0.043253824 -0.0037572533 0.069941424 0.031230442
0.051004864 0.09204159 0.124585226 0.035804294 0.043753557 0.07686641 -0.040292278 0.014289252
0.037596945 0.019819984 -0.082650736 0.057898898 0.09894124 0.043874197 -0.040774472 0.087526605
0.020994425 -0.01319676 -0.04525643 0.08038498 0.036814153 0.06149461 0.075543 0.050006818
0.094940536 -0.0116539365 0.0056027314 0.052721493 -0.02206169 0.048689965 0.10690066 0.061436452
0.03880012 -0.009046449 -0.000593806 0.028219342 0.030755632 0.060606092 -0.002186305 -0.013443533
0.14725065 0.08414124 -0.0050697606 -0.03711746 0.009239443 -0.03013239 -0.015140161 0.12463632
0.06266389 0.13097677 -0.043506697 -0.010710126 0.08422281 0.02064759 0.005909289 0.009086406
0.11460652 0.011414912 0.13121577 0.04655177 0.023354877 0.117254995 -0.039466135 -0.092381954
-0.02060846 -0.03349822 0.19550031 0.018218026 0.16226965 0.119099 0.10431042 -0.00061167846
-0.03438185 0.06715562 0.011339515 0.05395536 -0.022123054 0.027893849 0.018943459 -0.046789356
-0.014654655 -0.033406503 0.037725314 0.068732664 -0.03487061 0.03363003 0.018911138 -0.057371385
5.390235e-05 -0.080318145 0.12493761 0.09475623 0.020333586 0.078785814 0.034185387 0.042427003
0.08259205 -0.035889916 0.1762883 -0.085447684 0.039499808 0.059165604 -0.033734053 0.05719897

bias f4 [33]
00000000: d043 653d 7fe1 02bd 19a2 e73d 1e71 3e3d
00000010: 8411 12bd d49a 843d 02df a63d 2d25 303d
00000020: 1c45 753d da48 543c 0656 263b 758e 933d
00000030: b36c 083d 0c76 3b3d beaf 493d a6e0 983d
00000040: a353 5fbd 4506 233d 4070 4ebc 9b81 4a3b
00000050: 6410 60bb 9fd6 573d 0285 683d c0fc 833d
00000060: c084 f43c 9219 62bb 546d 283d 3d36 81bc
00000070: 93ac cfbb d0f3 0b3d 95c9 313d c621 be3d
00000080: 4b9d f13b
0.055972874 -0.03195333 0.113102145 0.046494596 -0.035661235 0.064748436 0.08148004 0.043004204
0.05988036 0.012956822 0.0025380864 0.07204906 0.03330679 0.045766875 0.049239866 0.07464723
-0.05452312 0.0398009 -0.012600005 0.0030900005 -0.0034189457 0.052694913 0.05676747 0.064446926
0.029848456 -0.0034500104 0.04111989 -0.015772933 -0.006337711 0.034168065 0.043405134 0.092837855
0.007373487
