experiments/diff_kappa_data/kappa1_1_kappa2_1_kappa3_4/rainbow_dqn_proposed_origin.pth (torch, 380278 bytes, 13 tensors)

weight f4 [256, 4]
-0.18809628 -0.22986591 -0.38821906 -0.39880955 -0.31232846 -0.48192942 -0.16833824 -0.4153806
0.085560404 -0.34429073 -0.37335917 0.1863889 0.37846035 0.12996908 -0.05497684 0.85090435
0.098491654 0.0038849637 -0.5154334 0.28725463 -0.23911723 -0.13405824 0.00095994544 0.40641305
-0.10135298 0.3514729 0.022670975 -0.6456102 -0.25383794 0.45973736 -0.08717296 -0.3432918
-0.017584492 -0.45875365 0.541677 0.1985967 -0.09586048 -0.042440176 -0.096933484 -0.47276795
0.44177243 0.032198112 -0.34116057 -0.58778137 -0.4510553 0.03904879 0.060806572 0.017611146
0.24772607 0.09985628 -0.10070275 0.06747748 0.01237586 -0.08535945 -0.53494346 -0.39728147
-4.4847216e-05 0.48061854 -0.25399068 0.34193423 0.048976317 0.4908908 -0.23931885 0.74821115
0.12470999 0.3336014 -0.53699714 0.5330255 0.1666581 0.3578572 -0.38773027 0.23444892
0.12507856 0.007997323 -0.38349524 -0.40307817 -0.050597608 -0.17300111 -0.3312332 0.073305905
-0.16794424 -0.22425035 0.15174817 0.4592404 -0.092097804 0.31549028 -0.2954295 0.15996349
0.48923495 -0.22707035 -0.34812683 -0.40430653 0.10544638 0.41067857 -0.6015621 -0.15359265
-0.33221444 0.519913 -0.33518812 -0.25817636 0.21885277 0.18557537 -0.4720095 0.5643042
0.080673665 0.42369995 -0.032979924 0.6578064 0.26264074 -0.14007878 -0.27157655 -0.58342606
-0.024946928 -0.46819758 0.03404385 0.39991373 0.199965 -0.025024543 0.46185663 -0.66116846
0.08007877 -0.27031717 -0.4270025 -0.5454024 -0.48917806 -0.34425676 -0.49838758 -0.07071149
0.17513373 -0.16574124 -0.34121853 0.005693509 -0.20307331 0.26486665 -0.15286905 0.37603372
0.3607597 0.51057994 0.24208386 0.45628202 -0.02030538 0.6318741 -0.026778229 0.43254966
0.056231152 0.5315625 -0.31529063 0.8930771 -0.38757265 -0.024195433 -0.45139265 -0.0024769902
-0.14700465 0.63307583 0.22329965 0.3262188 -0.055282354 -0.025473595 -0.055143356 -0.4460433
0.42660713 0.61847305 -0.13841297 0.04250067 0.29029405 -0.056449432 0.29492763 -0.5079923
0.13157597 -0.12811437 -0.45901865 -0.13689566 -0.17318308 -0.26929003 -0.42087597 0.09235412
-0.52909106 -0.14066999 0.43597725 0.34990385 0.44862202 0.14366147 -0.20778221 0.43678018
0.016129404 0.2420358 0.005025359 0.51882637 0.19365004 0.012502014 0.24830197 0.67866045
0.3033678 -0.481892 0.5659829 -0.50818306 0.44041952 0.54916435 -0.3541072 0.37776342
-0.31366917 0.42323047 -0.17470503 -0.2726085 0.4077991 -0.15161273 0.42492563 0.56540084
0.31711632 -0.14208405 -0.47137395 0.04629863 -0.24661905 0.15053928 -0.35821062 0.11017853
0.37485594 0.61301947 -0.46891105 -0.15947177 -0.07808404 0.32414752 0.120650366 -0.16394216
0.1292623 -0.289953 0.29188952 -0.3521044 0.07502912 -0.50614846 0.07573796 0.08402583
-0.041816354 -0.26488632 -0.39850873 -0.43797046 0.20001386 0.23524217 0.5965954 -0.49962458
0.4610989 -0.1542269 0.5866083 -0.16215606 0.5122332 -0.50998473 0.5342426 -0.121082634
0.40159586 0.44954836 -0.6023257 0.7083157 -0.30679807 0.39650387 -0.08940848 0.18780835
00000000: 509c 40be f861 6bbe a6c4 c6be c430 ccbe
00000010: 84e9 9fbe 74bf f6be dc60 2cbe c4ac d4be
00000020: 4b3a af3d e046 b0be ef28 bfbe bbdc 3e3e
00000030: 8ec5 c13e 9d16 053e 652f 61bd ded4 593f
00000040: feb5 c93d e09a 7e3b 71f3 03bf 0a13 933e
00000050: 26db 74be 9046 09be d9a4 7b3a 5f15 d03e
00000060: 2792 cfbd 42f4 b33e 7bb8 b93c b646 25bf
00000070: 0cf7 81be b262 eb3e bd87 b2bd f1c3 afbe
00000080: 5a0d 90bc c2e1 eabe 58ab 0a3f ef5c 4b3e
00000090: 8052 c4bd c0d5 2dbd 1085 c6bd a40e f2be
000000a0: ff2f e23e 2be2 033d 99ac aebe d778 16bf
000000b0: b8f0 e6be a0f1 1f3d 5010 793d 4045 903c
000000c0: e7ab 7d3e 7381 cc3d 3e3d cebd a231 8a3d
000000d0: 1ec4 4a3c efd0 aebd 0ef2 08bf 7a68 cbbe
000000e0: 551a 3cb8 a213 f63e 110b 82be 0112 af3e
000000f0: 649b 483d 0a56 fb3e 0010 75be c48a 3f3f
00000100: f467 ff3d cdcd aa3e a578 09bf 5c74 083f
00000110: 6ca8 2a3e 0f39 b73e 9584 c6be 6113 703e
00000120: 9814 003e 3407 033c 7d59 c4be 4360 cebe
00000130: 703f 4fbd 3427 31be 6697 a9be 6821 963d
00000140: 93f9 2bbe e2a1 65be df63 1b3e 8f21 eb3e
00000150: c69d bcbd f187 a13e 8942 97be 78cd 233e
00000160: 017d fa3e 2185 68be ae3d b2be 4401 cfbe
00000170: 46f4 d73d 7644 d23e f9ff 19bf 6447 1dbe
00000180: 0318 aabe 0519 053f c79d abbe b12f 84be
00000190: f11a 603e 7807 3e3e 3bab f1be 3d76 103f
000001a0: 3c38 a53d 33ef d83e f515 07bd 0066 283f
000001b0: d978 863e d070 0fbe 150c 8bbe 695b 15bf
000001c0: 805d ccbc 98b7 efbe 9071 0b3d 7ec1 cc3e
000001d0: a0c3 4c3e 4500 cdbc 7978 ec3e 5642 29bf
000001e0: 5700 a43d 0367 8abe 12a0 dabe 7e9f 0bbf
000001f0: 8c75 fabe 6c42 b0be a82c ffbe 30d1 90bd
00000200: 4256 333e 12b8 29be 32b4 aebe 9d90 ba3b
00000210: 73f2 4fbe 9a9c 873e b489 1cbe 7e87 c03e
00000220: 7fb5 b83e 5eb5 023f d5e4 773e cc9d e93e
00000230: 7857 a6bc 80c2 213f 045e dbbc 2677 dd3e
00000240: a352 663d 7b14 083f c66d a1be b3a0 643f
00000250: ec6f c6be 8035 c6bc f01c e7be 0055 22bb
00000260: 6388 16be 4211 223f aaa8 643e 2706 a73e
00000270: c06f 62bd 00ae d0bc 00de 61bd ca5f e4be
00000280: 406c da3e 4054 1e3f 21bc 0dbe 2f15 2e3d
00000290: 6ca1 943e 8537 67bd c100 973e c90b 02bf
000002a0: dabb 063e 6a30 03be 7e04 ebbe 602e 0cbe
000002b0: e856 31be 62e0 89be 0e7d d7be 2824 bd3d
000002c0: 8372 07bf cb0b 10be 6938 df3e 9926 b33e
000002d0: c9b1 e53e fe1b 133e dcc4 54be a7a1 df3e
000002e0: d021 843c 3cd8 773e c4ab a43b ced1 043f
000002f0: 324c 463e 3fd5 4c3c df42 7e3e b1bc 2d3f
00000300: 0653 9b3e 8cba f6be 41e4 103f 4918 02bf
00000310: ab7e e13e 0996 0c3f 8a4d b5be 356a c13e
00000320: 3f99 a0be aab1 d83e e0e5 32be 5793 8bbe
00000330: 0bcb d03e 5e40 1bbe da8f d93e 1cbe 103f
00000340: 125d a23e 7b7e 11be ed57 f1be a2a3 3d3d
00000350: b489 7cbe f826 1a3e 6267 b7be 48a5 e13d
00000360: 1eed bf3e d8ee 1c3f 1c15 f0be 914c 23be
00000370: 86ea 9fbd aaf6 a53e 8a17 f73d 74e0 27be
00000380: 565d 043e b874 94be 8b72 953e 0747 b4be
00000390: dea8 993d f292 01bf 811c 9b3d bc15 ac3d
000003a0: a047 2bbd 2e9f 87be 5609 ccbe aa3d e0be
000003b0: 6fd0 4c3e 53e3 703e 7aba 183f cbce ffbe
000003c0: 2815 ec3e a8ed 1dbe f62b 163f 3d0c 26be
000003d0: b721 033f 5c8e 02bf 1fc4 083f 2cfa f7bd
000003e0: f99d cd3e 342b e63e 0432 1abf 2d54 353f
000003f0: a314 9dbe 8e02 cb3e cb1b b7bd d550 403e

bias f4 [256]
0.14944613 -0.32581133 0.6417758 0.13623226 -0.41453195 0.21566924 0.14387384 0.5667662
-0.7249462 -0.4051838 -0.30997524 -0.016087353 0.32461804 0.60584927 0.19337201 0.6417568
-0.34682822 -0.26689458 -0.25416264 0.15112734 0.0146702975 -0.32233813 -0.05858825 0.51111156
-0.23405774 0.033980872 0.36368346 -0.28632197 -0.0026673079 -0.5074179 0.31585488 0.36533028
0.50709724 0.56646127 -0.12775409 0.352749 0.117601775 0.37982446 0.6193431 -0.30484372
0.15770665 -0.4020345 0.33204493 -0.085642755 0.27446923 -0.11410466 0.46167535 0.46324506
-0.24610242 0.19099447 -0.103312805 0.34851533 0.5540751 -0.21289611 -0.20463811 0.20365743
-0.32405692 0.24579598 0.006767869 -0.17940536 -0.1654067 0.14518392 -0.32370535 0.50841904
0.15478307 0.10603746 -0.18061455 0.011949937 0.3447358 -0.29221362 0.3832625 -0.49825472
-0.326803 0.1343906 0.18695387 0.46772128 0.37215048 -0.08455506 0.56218684 -0.45906222
-0.18591732 -0.4087627 0.2558994 -0.020816166 0.56209934 -0.034403127 0.32358977 0.45188165
0.091374815 0.28855413 0.11818154 -0.008694082 0.22321126 -0.33836627 -0.32798827 -0.14388591
-0.43130153 0.56167763 0.4936115 0.6096923 -0.13189907 0.42160514 -0.19466235 -0.3518661
-0.18679518 -0.35508898 0.11303192 0.43259084 -0.4685011 -0.3420091 0.17996179 -0.074106306
-0.55509436 0.11240081 -0.36447746 0.022613846 -0.009829304 -0.5091851 0.4465198 -0.05936932
-0.2572209 0.02166298 -0.18457262 -0.3872341 0.3369486 0.041125953 -0.24576874 0.59879947
0.29772153 0.5712525 -0.28056106 -0.34609467 -0.008423058 0.49178728 0.27278706 -0.3168869
-0.20047814 -0.1959652 -0.38418376 0.59721386 0.20158613 -0.41694397 -0.13449305 0.039359372
-0.246816 -0.10868704 0.23056059 0.30905813 -0.111822054 0.05230354 0.27611634 -0.26512927
-0.39448506 -0.20966035 -0.016554637 0.43023136 0.576059 -0.10267983 -0.34026942 0.48428828
-0.1552466 -0.3585478 0.30830687 -0.13756987 -0.38078836 -0.25260356 -0.20669745 -0.07615126
-0.39536396 -0.22700906 0.36912543 -0.17954361 -0.097607724 0.17980348 0.10080704 0.60420036
-0.08641487 0.38614106 0.53690886 0.4039092 0.3928951 0.06251725 -0.12941645 0.024656815
-0.21200591 0.56567395 0.4663127 0.36126465 0.52494717 0.34990722 -0.30295086 -0.16019924
0.41654572 0.52388024 0.4855408 0.21825968 0.5301918 0.2312627 0.15651494 -0.000115171024
0.24058327 0.06754545 -0.25302783 0.28734326 -0.68290955 -0.21106982 0.21127062 0.031881735
0.45301643 0.5614192 0.44831452 0.39706722 -0.17897224 0.2691359 -0.24526961 0.31152454
-0.06178475 0.11495424 -0.079348326 -0.17572497 0.31154317 0.30250338 0.28068078 0.2758948
0.2297766 0.21950057 0.026273364 0.052463073 -0.14294527 -0.31612843 -0.36042947 -0.07986953
-0.01478484 -0.4261069 0.13415137 -0.042528585 0.2365567 0.3771002 -0.1013466 -0.4276322
0.39649487 -0.3445383 0.050684605 0.3700055 0.2959227 -0.08636163 0.10769325 0.34810796
0.33489716 0.367433 -0.39637223 -0.02181523 -0.4418424 -0.41938806 0.5733662 0.10276093
00000000: 6808 193e bed0 a6be 6b4b 243f 7880 0b3e
00000010: 883d d4be 66d8 5c3e aa53 133e 9717 113f
00000020: 1396 39bf 4074 cfbe 13b5 9ebe a0c9 83bc
00000030: 5634 a63e f018 1b3f 5003 463e 2c4a 243f
00000040: 7893 b1be 68a6 88be 9b21 82be 20c1 1a3e
00000050: b05b 703c 8109 a5be 3cfa 6fbd 35d8 023f
00000060: d5ac 6fbe 872f 0b3d b834 ba3e cb98 92be
00000070: 00ce 2ebb 24e6 01bf bbb7 a13e 920c bb3e
00000080: 20d1 013f 9b03 113f f8d1 02be 849b b43e
00000090: 33d9 f03d 5a78 c23e 458d 1e3f 7a14 9cbe
000000a0: da7d 213e 77d7 cdbe cb01 aa3e 7865 afbd
000000b0: 3b87 8c3e b4af e9bd b660 ec3e 752e ed3e
000000c0: 4602 7cbe 0e94 433e aa95 d3bd 9a70 b23e
000000d0: ded7 0d3f 7001 5abe a78c 51be 938b 503e
000000e0: caea a5be f1b1 7b3e 00c5 dd3b 0ab6 37be
000000f0: 6060 29be 18ab 143e b5bc a5be c027 023f
00000100: 747f 1e3e 2b2a d93d 05f3 38be abc9 433c
00000110: 3681 b03e 069d 95be fb3a c43e 3e1b ffbe
00000120: b952 a7be b09d 093e d670 3f3e 2a79 ef3e
00000130: 828a be3e 342b adbd 7aeb 0f3f 340a ebbe
00000140: 1c61 3ebe 5849 d1be 3f05 833e aa86 aabc
00000150: bee5 0f3f 4bea 0cbd 8fad a53e 085d e73e
00000160: b822 bb3d 5ebd 933e 2a09 f23d 9f71 0ebc
00000170: 7e91 643e 583e adbe 14ee a7be d456 13be
00000180: 8ed3 dcbe 1bca 0f3f a6ba fc3e cb14 1c3f
00000190: 8d10 07be a1dc d73e 9155 47be cb27 b4be
000001a0: 3c47 3fbe 39ce b5be 477d e73d 8c7c dd3e
000001b0: 60df efbe d11b afbe e747 383e 0cc5 97bd
000001c0: aa1a 0ebf 6532 e63d ca9c babe ac40 b93c
000001d0: 170b 21bc f459 02bf 3e9e e43e 3e2d 73bd
000001e0: 75b2 83be 9076 b13c 9b00 3dbe 8c43 c6be
000001f0: 8784 ac3e b073 283d cdaa 7bbe ec4a 193f
00000200: f56e 983e 9b3d 123f b3a5 8fbe 5233 b1be
00000210: de00 0abc 8bcb fb3e bfaa 8b3e 003f a2be
00000220: 244a 4dbe 1aab 48be bcb3 c4be 02e3 183f
00000230: 986c 4e3e ae79 d5be 8cb8 09be 4b37 213d
00000240: 55bd 7cbe 5097 debd 1318 6c3e de3c 9e3e
00000250: f602 e5bd 3d3c 563d 1f5f 8d3e 06bf 87be
00000260: f2f9 c9be 34b1 56be 979d 87bc 4947 dc3e
00000270: 9a78 133f cd49 d2bd cb37 aebe a2f4 f73e
00000280: f7f8 1ebe 9493 b7be 66da 9d3e 1edf 0cbe
00000290: b1f6 c2be 4155 81be 7fa8 53be 31f5 9bbd
000002a0: 256d cabe 1075 68be 02fe bc3e 48da 37be
000002b0: 8fe6 c7bd 671e 383e ec73 ce3d e0ac 1a3f
000002c0: 48fa b0bd 48b4 c53e dc72 093f 30cd ce3e
000002d0: 8c29 c93e 0b09 803d bf85 04be 17fd c93c
000002e0: 1418 59be 02d0 103f 8ac0 ee3e aef7 b83e
000002f0: f062 063f 0a27 b33e 601c 9bbe 450b 24be
00000300: 7b45 d53e 041d 063f ce98 f83e 777f 5f3e
00000310: a6ba 073f 21d0 6c3e 7445 203e f987 f1b8
00000320: 765b 763e 4555 8a3d dd8c 81be a81e 933e
00000330: 29d3 2ebf b022 58be 5357 583e 6c96 023d
00000340: c5f1 e73e 2bb9 0f3f 7b89 e53e 654c cb3e
00000350: 8044 37be 2ecc 893e f527 7bbe 2580 9f3e
00000360: 0212 7dbd 216d eb3d 6081 a2bd 3ff1 33be
00000370: 9682 9f3e b9e1 9a3e 64b5 8f3e 1542 8d3e
00000380: 8f4a 6b3e c2c4 603e 3d3b d73c 85e3 563d
00000390: 3f60 12be 96db a1be 368a b8be a392 a3bd
000003a0: 1d3c 72bc af2a dabe fa5e 093e 7432 2ebd
000003b0: eb3b 723e 4713 c13e ce8e cfbd 9cf2 dabe
000003c0: 6001 cb3e 5367 b0be a99a 4f3d 5c71 bd3e
000003d0: 2e83 973e 5ede b0bd 478e dc3d 353b b23e
000003e0: a477 ab3e 2e20 bc3e 4df1 cabe dab5 b2bc
000003f0: 2b39 e2be 08ba d6be 21c8 123f 5374 d23d

weight f4 [256, 256]
-0.04221735 0.027950048 -0.07762641 -0.035960924 0.15652576 0.00622157 -0.18799685 -0.084696166
-0.22751015 -0.030444287 -0.01803139 -0.012631379 0.050277382 0.08970846 -0.04281085 0.006958213
-0.06775497 -0.03446686 -0.05962749 -0.033896238 -0.038777407 -0.026416775 0.028124228 -0.07881616
0.061893594 -0.07055025 0.023158528 0.012591767 -0.0007775873 0.044813167 0.08234386 -0.042648047
0.0018770123 0.019750085 0.019212194 0.0056999465 0.0045392285 0.015638657 -0.025159402 0.0066596344
0.023130285 0.097929716 -0.07603974 0.060780518 -0.117471784 -0.03472484 0.027510758 -0.011055269
0.063886106 -0.031035226 0.018298304 0.015215821 -0.039865673 -0.000789091 -0.07506037 0.010407752
0.008098185 -0.009238492 -0.04983844 0.065945044 -0.011431178 0.02368818 -0.035671797 -0.07133014
0.009281653 -0.096963495 0.045410793 0.010597765 0.05411712 -0.06387475 0.060557634 0.0012096316
-0.07624317 0.01975286 0.003204641 -0.05458033 0.029982671 0.026322294 -0.043691043 -0.05361367
0.09275899 0.00035010392 -0.0042703496 0.075796254 0.12145612 0.015751673 -0.08318637 -0.099754244
0.061312653 -0.022092426 0.040201884 0.037964433 0.021115176 0.003130287 0.029135639 -0.03238245
0.032798577 -0.07110218 -0.08890981 -0.06290223 -0.044014625 -0.03308789 0.07942244 0.034819636
-0.030238483 0.06123913 -0.12255829 -0.057492368 0.089743525 0.030793585 -0.007585778 0.09053148
0.113793455 0.07790038 0.03948272 -0.036148336 -0.033922076 0.08257497 -0.0035461485 -0.0051830136
-0.008017364 0.04665179 0.100706615 0.007759236 -0.030517375 -0.040704444 0.032670986 -0.0061270543
0.05236027 -0.054009315 -0.0504712 -0.0027627798 0.14419822 0.027111525 0.0045988066 0.052927963
-0.021506816 0.07157489 0.0908315 -0.06873141 -0.03333027 -0.17735846 0.05596169 0.06885443
0.02073581 0.049427994 0.05353019 -0.09568511 -0.028605426 0.07794187 0.103792585 0.04916863
-0.002760522 0.049214974 0.019703148 0.010186556 -0.025423715 -0.10336379 -0.026454842 -0.13645534
0.08757577 0.06671689 0.0005650364 -0.038905226 0.0025883 0.0033038699 -0.033202656 0.11419298
0.029695246 -0.037544116 0.045248777 -0.025867008 0.050588313 -0.020652533 -0.0446035 -0.04243754
0.0584035 -0.04975366 -0.0023089556 0.14928593 0.020817315 -0.018155845 0.042938467 0.028438957
0.059128422 0.07257657 0.0053507844 0.050232064 -0.02470364 -0.017975457 -0.048461996 0.025966492
-0.13052171 -0.056916013 -0.06621845 0.029127771 -0.18815538 -0.016809724 -0.02342911 -0.08968464
0.094472505 0.01759439 0.06324422 0.028419137 -0.28878057 0.0126828775 -0.008999507 -0.10184667
0.03571519 -0.060453553 -0.13967346 -0.0594596 0.010437198 0.04643836 0.012402608 -0.016277198
0.019073064 -0.055120878 0.0022481382 0.04537358 0.0759998 -0.10289485 -0.16563281 0.06270929
0.07511406 -0.06302621 -0.00904282 -0.2753125 -0.065716125 0.08879095 -0.042838246 0.004937071
-0.017994074 0.08013255 0.11392595 0.040269695 0.05386618 0.1564611 0.089239925 0.058638513
0.023059482 0.016929293 -0.030313285 -0.0064466596 -0.056344256 0.012611761 -0.121470034 0.17144635
-0.09376947 -0.044714756 0.1207325 0.05538067 0.11487333 0.075102836 0.05794358 0.068609916
00000000: 1aec 2cbd 80f7 e43c 98fa 9ebd c34b 13bd
00000010: 4a48 203e 50de cb3b 3f82 40be 2f75 adbd
00000020: 6cf8 68be 4c66 f9bc 91b6 93bc d8f3 4ebc
00000030: a8ef 4d3d 12b9 b73d 6e5a 2fbd b901 e43b
00000040: 1ec3 8abd 1f2d 0dbd f43b 74bd c8d6 0abd
00000050: 0fd5 1ebd fe67 d8bc c864 e63c 5e6a a1bd
00000060: 2384 7d3d a67c 90bd f4b6 bd3c b34d 4e3c
00000070: 00d7 4bba 038e 373d e6a3 a83d b8af 2ebd
00000080: 1506 f63a eeca a13c e462 9d3c 9ec6 ba3b
00000090: cfbd 943b a41c 803c 171b cebc 1039 da3b
000000a0: b97b bd3c 608f c83d b9ba 9bbd fef4 783d
000000b0: 0c95 f0bd a23b 0ebd 3e5e e13c 2921 35bc
000000c0: b8d6 823d 963d febc 53e6 953c c74b 793c
000000d0: 304a 23bd 00db 4eba 40b9 99bd 4785 2a3c
000000e0: 40ae 043c 0b5d 17bc 6423 4cbd 320e 873d
000000f0: d649 3bbc b70d c23c 971c 12bd 8915 92bd
00000100: 1312 183c cc94 c6bd ab00 3a3d 40a2 2d3c
00000110: eaa9 5d3d c4d0 82bd 480b 783d 808c 9e3a
00000120: 6125 9cbd c0d0 a13c f404 523b a08f 5fbd
00000130: 389e f53c daa1 d73c 61f5 32bd 029a 5bbd
00000140: 6df8 bd3d 278e b739 4aee 8bbb 113b 9b3d
00000150: fcbd f83d a709 813c 9e5d aabd f44b ccbd
00000160: fa22 7b3d 2dfb b4bc bbaa 243d 9880 1b3d
00000170: bcf9 ac3c 8025 4d3b ddad ee3c 76a3 04bd
00000180: cd57 063d 059e 91bd 5916 b6bd e2d2 80bd
00000190: ae48 34bd 2b87 07bd 3ba8 a23d 099f 0e3d
000001a0: b2b6 f7bc e2d5 7a3d d7ff fabd 1e7d 6bbd
000001b0: 74cb b73d d442 fc3c 1e92 f8bb 9268 b93d
000001c0: 8b0c e93d 3c8a 9f3d a2b8 213d 4710 14bd
000001d0: e0f1 0abd 111d a93d 8066 68bb 45d6 a9bb
000001e0: 435b 03bc f315 3f3d 453f ce3d 3041 fe3b
000001f0: 93ff f9bc b4b9 26bd 03d2 053d 75c5 c8bb
00000200: b977 563d df38 5dbd e4ba 4ebd c10f 35bb
00000210: b3a8 133e fd18 de3c 96b1 963b feca 583d
00000220: 102f b0bc db95 923d de05 ba3d 0ec3 8cbd
00000230: 5285 08bd 759d 35be 1638 653d 8d03 8d3d
00000240: 25de a93c 0275 4a3d 7942 5b3d 8ef6 c3bd
00000250: ed55 eabc fd9f 9f3d 3591 d43d 0c65 493d
00000260: e0e9 34bb a495 493d 7f68 a13c 83e5 263c
00000270: 6545 d0bc 65b0 d3bd d3b7 d8bc f3ba 0bbe
00000280: ed5a b33d dda2 883d f31e 143a 165b 1fbd
00000290: 78a0 293b bd85 583b 82ff 07bd 02de e93d
000002a0: 7243 f33c dcc7 19bd c856 393d 0ce7 d3bc
000002b0: b135 4f3d 802f a9bc 29b2 36bd fcd2 2dbd
000002c0: 8238 6f3d 7eca 4bbd d951 17bb 69de 183e
000002d0: 1389 aa3c 91bb 94bc 3fe0 2f3d d1f8 e83c
000002e0: a530 723d 06a3 943d a255 af3b 23c0 4d3d
000002f0: 4a5f cabc 4441 93bc 1680 46bd aeb7 d43c
00000300: 7ca7 05be c420 69bd 8a9d 87bd 5d9d ee3c
00000310: ceab 40be 8cb4 89bc 68ee bfbc 95ac b7bd
00000320: cd7a c13d 1c22 903c 3086 813d 40cf e83c
00000330: 0cdb 93be d8cb 4f3c ab72 13bc fd94 d0bd
00000340: 174a 123d 259e 77bd 8f06 0fbe e98b 73bd
00000350: c800 2b3c 2636 3e3d 4f34 4b3c c257 85bc
00000360: 1d3f 9c3c 6ec6 61bd 8055 133b a6d9 393d
00000370: c8a5 9b3d 89ba d2bd a69b 29be ba6d 803d
00000380: 66d5 993d e313 81bd 5628 14bc c3f5 8cbe
00000390: 2d96 86bd 08d8 b53d 2877 2fbd 27c7 a13b
000003a0: 4f68 93bc 891c a43d 0252 e93d d6f1 243d
000003b0: c9a2 5c3d 5737 203e 6cc3 b63d f02e 703d
000003c0: 3de7 bc3c 4daf 8a3c 9153 f8bc 803e d3bb
000003d0: 3cc9 66bd 8fa1 4e3c 48c5 f8bd a28f 2f3e
000003e0: 350a c0bd d226 37bd 9a42 f73d d7d6 623d
000003f0: b542 eb3d 84cf 993d 3f56 6d3d 5b83 8c3d

bias f4 [256]
0.013393931 -0.057452895 0.07259183 0.1304792 0.02659282 0.058142494 -0.05077765 0.054507475
-0.04818371 -0.03673794 0.062929936 -0.029729603 0.08915304 0.06914471 -0.058004595 0.0073087146
0.057652004 0.00985723 0.017776012 -0.022850756 -0.007842466 -0.015581909 -0.036095865 0.03418893
0.008753812 0.05513025 0.12521116 0.081032306 -0.06258839 0.02958977 0.08418436 0.121482216
0.08909059 0.030358072 -0.02172734 -0.05124832 -0.055303983 0.029128771 -0.036401846 0.013450109
-0.013867974 -0.05494777 -0.002982566 -0.059472922 -0.051671498 0.016818784 0.11022467 0.009087801
-0.056247346 0.016624942 -0.02602154 0.109520465 -0.032017406 -0.010289882 -0.03573433 0.06723658
0.022543678 0.04754278 0.0771565 -0.05662055 -0.037023574 -0.032889105 0.04448978 0.04761425
0.030836996 -0.04520789 0.032066897 0.0011615987 0.051178303 -0.0072012246 0.037382893 0.067908674
-0.0023949859 0.10308046 0.0053947745 0.077066906 0.10171147 0.006745793 0.16818434 0.02585952
-0.0184566 0.082794175 0.006716816 0.05197659 0.05458567 0.0048332075 0.06100718 0.078383334
0.10543538 0.10115129 0.03376834 -0.035406783 0.107320614 0.056514833 0.05508431 -0.06791533
-0.013783552 0.015600242 0.11450708 -0.043546103 -0.028803445 0.055535186 -0.005761139 -0.037798017
-0.050071828 0.0952442 -0.0031250117 -0.04513696 0.04746935 -0.022209078 -0.0345947 0.11781818
0.10171295 0.14612356 0.08533329 0.0556068 0.047293693 0.09516913 0.05028886 -0.060833514
0.03414437 -0.003105392 -0.0029828006 0.1492436 0.08599825 0.16237862 -0.00097456574 0.01092495
0.14749628 -0.039018594 0.0056026406 -0.03292796 -0.03275954 0.011205681 -0.02184375 -0.017447181
0.01908885 0.022956654 0.088522516 -0.011962651 0.01908161 0.038140837 -0.16351713 0.10561461
0.16662201 -0.0010025649 -0.02933942 0.011936684 0.05741723 0.003391184 -0.03104204 -0.040398475
-0.038933422 0.11996367 0.069098614 -0.02171164 -0.02979318 0.024049608 -0.033499524 -0.041529574
-0.022795497 -0.16596009 -0.015144366 0.03473084 0.09845448 0.046990655 0.023812156 -0.0628936
0.0072777197 -0.033037987 -0.008813495 0.06839909 -0.011021641 -0.028024629 0.039973594 -0.049679343
0.03130232 0.0070294035 0.06337492 -0.004908651 -0.017216766 0.04579821 -0.027985437 0.06305311
-0.05959944 0.11021944 -0.0030540759 0.0039876206 -0.037158683 -0.0064763054 0.10318872 0.0939653
0.0070250737 -0.058768563 0.057423882 0.0035339652 0.022813268 -0.05329565 0.1408494 -0.0695198
0.0027259223 0.014065084 -0.041351594 0.04901389 -0.003439213 0.0880745 0.11369966 0.03665283
-0.0072094277 0.027294192 -0.009153937 0.13446344 0.06253346 0.026692722 0.09122564 0.15952572
-0.002036106 0.04084138 0.07849867 0.027974613 -0.03879463 0.062687226 -0.03368477 0.078089565
0.079664946 -0.009947705 0.10706731 0.060389824 0.11241553 0.046187706 -0.041845128 -0.042850967
0.043396108 -0.0024694398 -0.04762301 0.08387748 -0.006430043 0.13114512 0.05487115 0.0449566
0.111925006 0.021603514 0.054570787 0.052792042 -0.025275195 -0.041391905 0.04278877 0.029872734
0.08640837 0.015931437 0.024694921 0.03717281 0.007873669 0.06175758 0.0731516 0.040172953
00000000: 3872 5b3c ba53 6bbd 06ab 943d 579c 053e
00000010: 30d9 d93c d326 6e3d 3afc 4fbd 3b43 5f3d
00000020: 485c 45bd 867a 16bd 69e1 803d 7f8b f3bc
00000030: de95 b63d be9b 8d3d 3a96 6dbd f17d ef3b
00000040: 8224 6c3d 3880 213c 009f 913c 8231 bbbc
00000050: b07d 00bc 434b 7fbc 42d9 13bd b109 0c3d
00000060: 266c 0f3c 42d0 613d 5b37 003e 44f4 a53d
00000070: 582e 80bd 3f66 f23c da68 ac3d abcb f83d
00000080: 2175 b63d 7eb1 f83c 89fd b1bc c2e9 51bd
00000090: 6e86 62bd 769f ee3c 1a1a 15bd d95d 5c3c
000000a0: 8036 63bc ea10 61bd 2777 43bb e199 73bd
000000b0: 7ea5 53bd 8cc7 893c 79bd e13d 00e5 143c
000000c0: 9e63 66bd 0831 883c 202b d5bc 444c e03d
000000d0: af24 03bd e596 28bc 295e 12bd 55b3 893d
000000e0: 85ad b83c 38bc 423d 3a04 9e3d f3ea 67bd
000000f0: 08a6 17bd bab6 06bd ea3a 363d 2907 433d
00000100: de9d fc3c e92b 39bd 9458 033d c940 983a
00000110: 57a0 513d 40f8 ebbb ce1e 193d b413 8b3d
00000120: 32f5 1cbb d91b d33d a6c6 b03b 41d5 9d3d
00000130: 1a4e d03d d00b dd3b 8438 2c3e 58d7 d33c
00000140: 4c32 97bc fe8f a93d bd18 dc3b 68e5 543d
00000150: 3995 5f3d e25f 9e3b aae2 793d 7187 a03d
00000160: 81ee d73d 6828 cf3d ac50 0a3d b406 11bd
00000170: e9ca db3d 197c 673d 16a0 613d 3117 8bbd
00000180: 68d4 61bc 2898 7f3c b082 ea3d 665d 32bd
00000190: 34f5 ebbc dd78 633d f0c7 bcbb 18d2 1abd
000001a0: 1e18 4dbd 640f c33d ffcc 4cbb 88e1 38bd
000001b0: 396f 423d d0ef b5bc 2cb3 0dbd a84a f13d
000001c0: e14e d03d 6aa1 153e 38c3 ae3d f5c3 633d
000001d0: 08b7 413d 08e8 c23d b1fb 4d3d 902c 79bd
000001e0: f8da 0b3d d583 4bbb 177b 43bb 50d3 183e
000001f0: da1f b03d 9546 263e 007a 7fba 90fe 323c
00000200: 4409 173e f6d1 1fbd 5b96 b73b 78df 06bd
00000210: de2e 06bd 0898 373c aaf1 b2bc 64ed 8ebc
00000220: 3860 9c3c 980f bc3c 4b4b b53d fffe 43bc
00000230: 0951 9c3c 9139 1c3d 0971 27be 794c d83d
00000240: f69e 2a3e 7f68 83ba 3959 f0bc 1592 433c
00000250: 542e 6b3d a03e 5e3b e04b febc df78 25bd
00000260: a778 1fbd 83af f53d 9383 8d3d 9cdc b1bc
00000270: d410 f4bc af03 c53c cc36 09bd ea1a 2abd
00000280: 9fbd babc 71f1 29be 1320 78bc ed41 0e3d
00000290: 81a2 c93d 4679 403d b611 c33c 5cce 80bd
000002a0: f079 ee3b d752 07bd 7a66 10bc d214 8c3d
000002b0: 1d94 34bc e893 e5bc 5abb 233d 917c 4bbd
000002c0: dd36 003d e956 e63b b6ca 813d c0d8 a0bb
000002d0: 2d0a 8dbc e796 3b3d b741 e5bc fd21 813d
000002e0: 8b1e 74bd bbba e13d e426 48bb 96aa 823b
000002f0: b433 18bd 3037 d4bb 9c54 d33d e170 c03d
00000300: 9732 e63b 4eb7 70bd 4e35 6b3d 199a 673b
00000310: e4e2 ba3c 8a4c 5abd d33a 103e 6660 8ebd
00000320: 63a5 323b 3d71 663c 4a60 29bd cac2 483d
00000330: 6b64 61bb 6760 b43d 5edb e83d 4721 163d
00000340: 103d ecbb 1298 df3c 65fa 15bc c9b0 093e
00000350: 8b11 803d b2aa da3c 82d4 ba3d b65a 233e
00000360: 3170 05bb 4a49 273d e9c3 a03d 042b e53c
00000370: 1ee7 1ebd 2962 803d 0bf9 09bd 6ced 9f3d
00000380: 6027 a33d b3fb 22bc 1b46 db3d 525b 773d
00000390: 1d3a e63d 522f 3d3d cc65 2bbd 7f84 2fbd
000003a0: 1ec0 313d 53d6 21bb 5810 43bd f5c7 ab3d
000003b0: 1cb3 d2bb e84a 063e 92c0 603d 6924 383d
000003c0: f038 e53d daf9 b03c 9e85 5f3d 783c 583d
000003d0: ed0d cfbc 8f8a 29bd 4743 2f3d aab7 f43c
000003e0: dff6 b03d a582 823c 014d ca3c 8442 183d
000003f0: 9000 013c 84f5 7c3d 82d0 953d 658c 243d

weight_mu f4 [1, 256]
0.093552336 0.04843141 0.004672695 -0.072207674 -0.061894834 -0.115073845 0.041569658 0.07127488
0.087240614 0.02122121 -0.08084303 0.10607716 0.010526622 -0.020635383 0.04205978 0.008220722
-0.19578317 -0.054727145 0.025629975 0.01021187 -0.041902453 0.0062642014 0.03830362 -0.02079236
0.018823639 -0.059172228 -0.19207919 0.35096243 0.017209971 -0.14642864 -0.18698461 0.09457414
-0.10159722 0.009327629 0.053096917 -0.008146204 0.054839183 0.14569195 0.025026051 -0.005592146
-0.021366306 -0.04507552 0.07497998 -0.038012404 -0.003984928 0.045050047 -0.10927362 -0.027294781
-0.057320543 0.015073404 0.031313032 -0.035750087 0.02253102 -0.058285203 0.042642623 -0.13219781
0.049905103 -0.061220028 0.027851693 0.017888645 -0.036877 0.04629585 0.041674353 0.053250574
0.11766435 0.03133629 0.0036564097 0.04390565 -0.19238542 -0.03766059 -0.024004325 -0.17574966
0.029103654 -0.11291684 -0.073351145 -0.22953449 -0.0043736235 0.050871953 0.03700054 -0.031011216
0.0034966767 0.095051095 -0.015679922 -0.13382497 0.00397861 0.026115187 0.0035819113 0.20832314
0.18145254 -0.054321997 -0.04811108 0.041581966 0.020956615 0.027805896 0.03883274 0.012904957
0.044402897 0.0106885955 -0.064773105 -0.019557692 -0.026840836 0.09306656 -0.078126006 -0.11305548
-0.023183983 -0.07761026 0.0092363665 -0.04116244 0.16173074 0.061875015 -0.006196484 -0.097626716
-0.18133825 0.2611858 0.05862649 0.25398016 0.21663125 0.04961591 -0.07934584 0.038247008
-0.008814514 0.049142297 0.045789767 0.2341665 0.26747286 -0.17879783 0.03801368 0.024873858
-0.18417384 -0.03910979 -0.019196922 0.022277597 0.058726385 0.03282801 0.045314472 0.039736684
0.050410867 0.009919314 0.037138183 -0.098667316 0.026281947 0.032383118 -0.1544438 0.052408084
0.2069928 -0.008673446 0.031987317 0.24360888 -0.043253824 0.043495037 0.0941825 0.070405506
0.04834479 0.09054189 0.13201591 0.035804294 0.050714638 0.055153593 -0.040292278 0.014289252
-0.12194565 -0.29378602 0.0022005972 -0.18218738 0.015530023 -0.13649537 -0.15958212 -0.07346543
0.020994425 -0.01845704 -0.043147646 -0.15853395 0.03729584 0.06149461 0.09633013 0.07789007
0.16072829 0.019293671 -0.07631297 0.052721493 -0.108451515 0.29059672 0.05784836 0.14949173
0.04555178 -0.2028638 0.043680437 0.028190939 0.030755632 0.058374077 -0.12595902 0.03413065
0.215958 0.096692815 0.11287239 -0.034695953 0.009239443 -0.03013239 0.04982512 -0.054625675
0.0021764454 0.2217517 -0.043506697 -0.04887549 -0.0070153084 0.08432764 -0.070959724 -0.099404685
0.10292355 -0.019606747 0.021372603 -0.19231328 0.028875753 0.13394377 -0.114606254 -0.14415906
-0.097013265 -0.03349822 0.15507227 0.018218026 0.07703958 0.0437467 -0.059731774 -0.1527134
0.0279402 0.03860982 -0.084169306 0.05395536 0.033573985 0.027893849 0.018943459 -0.045335338
0.01772086 -0.028965421 0.037357796 0.0031306439 -0.04628264 -0.17958905 0.018911138 -0.092636175
-0.105586715 0.057896446 -0.11272341 0.046548035 0.07116814 0.037251685 0.051806528 0.14887726
0.04847229 -0.034644164 0.23357773 -0.099245146 0.0042963778 0.059165604 0.014676744 0.053826075
00000000: 5e98 bf3d 0460 463d 681d 993b 9ee1 93bd
00000010: 7085 7dbd d6ab ebbd f244 2a3d 90f8 913d
00000020: 35ab b23d 1ad8 ad3c 0891 a5bd fb3e d93d
00000030: da77 2c3c 890b a9bc e046 2c3d 35b0 063c
00000040: 627b 48be 9229 60bd f4f5 d13c b04f 273c
00000050: e8a1 2bbd ee43 cd3b 42e4 1c3d bd54 aabc
00000060: 0834 9a3c 945e 72bd 68b0 44be 59b1 b33e
00000070: edfb 8c3c 64f1 15be e578 3fbe 16b0 c13d
00000080: 3412 d0bd e9d2 183c 277c 593d a877 05bc
00000090: 0d9f 603d 4530 153e 6f03 cd3c 523e b7bb
000000a0: 6408 afbc 1ca1 38bd 1b8f 993d e5b2 1bbd
000000b0: 0094 82bb 6686 383d d9ca dfbd 4e99 dfbc
000000c0: f2c8 6abd 70f6 763c 1842 003d af6e 12bd
000000d0: f992 b83c 77bc 6ebd 08aa 2e3d dd5e 07be
000000e0: 4b69 4c3d dac1 7abd 3c29 e43c 358b 923c
000000f0: 560c 17bd b8a0 3d3d bab2 2a3d 461d 5a3d
00000100: 02fa f03d 7b5a 003d 60a0 6f3b 69d6 333d
00000110: af00 45be fe41 1abd b8a4 c4bc b8f7 33be
00000120: c96a ee3c f240 e7bd 2039 96bd 170b 6bbe
00000130: 9d50 8fbb 1c5f 503d e18d 173d 3c0b febc
00000140: 8028 653b 26aa c23d 2e73 80bc 6a09 09be
00000150: 005f 823b 84ef d53c 80be 6a3b a952 553e
00000160: b2ce 393e be80 5ebd 2010 45bd da51 2a3d
00000170: 35ad ab3c 31c9 e33c 140f 1f3d 506f 533c
00000180: d0df 353d 381f 2f3c c3a7 84bd 7437 a0bc
00000190: 50e1 dbbc ae99 be3d 8700 a0bd a289 e7bd
000001a0: 56ec bdbc 21f2 9ebd 2154 173c f299 28bd
000001b0: be9c 253e a870 7d3d e00b cbbb 84f0 c7bd
000001c0: bcb0 39be 25ba 853e 5522 703d b009 823e
000001d0: 95d4 5d3e 0d3a 4b3d 1280 a2bd e5a8 1c3d
000001e0: c06a 10bc 6f49 493d 0d8e 3b3d 58c9 6f3e
000001f0: 34f2 883e c716 37be 3cb4 1b3d 43c4 cb3c
00000200: 1198 3cbe 9631 20bd dd42 9dbc 827f b63c
00000210: 148b 703d aa76 063d ab9b 393d efc2 223d
00000220: a07b 4e3d 9e84 223c 351e 183d 1712 cabd
00000230: 3d4d d73c 29a4 043d 8426 1ebe dca9 563d
00000240: ecf5 533e 121b 0ebc 2205 033d 9b74 793e
00000250: ec2a 31bd da27 323d c1e2 c03d c330 903d
00000260: 3005 463d 076e b93d 2e2f 073e 86a7 123d
00000270: 27ba 4f3d bce8 613d 8409 25bd 781d 6a3c
00000280: a4be f9bd 1f6b 96be e537 103b 548f 3abe
00000290: a371 7e3c 71c5 0bbe 7f69 23be 0b75 96bd
000002a0: 80fc ab3c 3833 97bc 96bb 30bd b956 22be
000002b0: 86c3 183d c6e1 7b3d bb48 c53d d484 9f3d
000002c0: f595 243e c30d 9e3c f949 9cbd 7ef2 573d
000002d0: d41b debd 18c9 943e 67f2 6c3d 5c14 193e
000002e0: 8194 3a3d 87bb 4fbe 42ea 323d aff0 e63c
000002f0: 3cf3 fb3c a819 6f3d 67fb 00be 95cc 0b3d
00000300: 1824 5d3e e206 c63d a429 e73d 581d 0ebd
00000310: 0861 173c 34d8 f6bc 6d15 4c3d 2cbf 5fbd
00000320: b2a2 0e3b e112 633e 1434 32bd aa31 48bd
00000330: ace0 e5bb f8b3 ac3d 5553 91bd af94 cbbd
00000340: 95c9 d23d 549e a0bc 9915 af3c c6ed 44be
00000350: d88c ec3c 8e28 093e afb6 eabd 6f9e 13be
00000360: e4ae c6bd 6e35 09bd 44cb 1e3e f83d 953c
00000370: edc6 9d3d bd2f 333d 4ea9 74bd e760 1cbe
00000380: d9e2 e43c 5525 1e3d f560 acbd 4c00 5d3d
00000390: e084 093d a481 e43c 502f 9b3c 8cb1 39bd
000003a0: 562b 913c e448 edbc 7d04 193d 7d2b 4d3b
000003b0: de92 3dbd 31e6 37be 88eb 9a3c 09b8 bdbd
000003c0: d93d d8bd d324 6d3d 88db e6bd 27a9 3e3d
000003d0: 9ac0 913d 3995 183d 1533 543d 4873 183e
000003e0: e18a 463d 0ae7 0dbd 002f 6f3e 0a41 cbbd
000003f0: a1c8 8c3b a257 723d ba76 703c bb78 5c3d

weight_sigma f4 [1, 256]
0.00020051916 0.03125 0.001179796 0.0040619047 0.03125 0.01974579 0.030316329 -0.0005316567
0.0006294035 0.03231925 0.019450568 0.0076898406 0.004773164 0.005976486 0.03125 0.006834511
0.0008962056 0.03125 0.03125 0.02676736 0.03125 0.028799672 0.03125 0.010584595
0.00096461596 0.0028711914 0.0026578608 0.023969037 0.029914554 0.005319974 0.00067176315 0.0011154821
0.006721291 0.03175473 0.032991044 0.03125 0.034426715 0.0154825905 0.03149875 0.0011414406
0.03125 0.03125 -0.0009480872 0.030802466 0.03125 0.013660781 0.0019921742 0.029227262
0.03125 0.03125 0.03125 0.0048202355 0.030803304 0.03260094 0.030466253 0.003098079
0.010590185 0.03125 -0.00026414363 0.030519627 0.03125 0.008673383 0.0022166441 0.031226808
-0.0008545847 0.030562846 0.03125 0.03142732 0.003606767 0.03125 0.030406823 0.0022533515
0.0006548875 0.004515916 0.01057951 0.000106600186 0.004105008 0.03125 -0.00052014395 0.03125
0.03125 0.0015859624 0.009189306 0.005247299 0.006553278 0.03126398 0.03125 0.023238337
0.0009034589 0.009063123 0.03125 0.03125 0.0039573554 0.003066479 0.03125 0.001131674
0.03125 0.03125 0.00015283801 0.03125 0.034010775 -3.7466478e-05 0.012113184 0.0076112943
0.030033791 0.014777834 0.0058527524 0.034202427 0.0035608448 0.030658236 0.03125 0.006402395
0.0006113022 0.00014291599 -0.0005261493 0.013961097 -0.00093696674 0.0025665204 0.006522999 0.031595357
0.03125 0.031938396 0.030681645 0.0030713377 -0.00021048982 -0.00095092616 0.03125 0.012207258
0.0006392209 0.03125 0.030550266 0.032550488 0.03125 0.03125 0.03185971 0.030566553
0.03125 0.0013890954 0.0051141707 0.015886856 0.002083788 0.003818314 0.0007401665 0.003258273
0.002565468 0.012650924 0.03337254 0.013707538 0.03125 2.7195536e-05 0.0025962638 0.0010443414
0.03190361 -0.00024315187 0.010555753 0.03125 0.03142357 0.033738174 0.03125 0.03125
0.004172802 -0.0011428901 0.005709489 0.0037725081 0.014198103 0.0028236106 0.006910803 0.0054435586
0.03125 0.03230719 0.027449585 0.0013396833 0.029852254 0.03125 -0.000293102 0.0014551644
0.0005511911 0.0039120433 0.0006298672 0.03125 0.020374501 0.0034178519 0.0317919 0.0039774207
0.03210276 -0.00032206884 0.00020707707 0.031240566 0.03125 0.029021492 0.0009414202 0.0051371804
0.017114697 0.00022304413 -0.0013335972 0.033244558 0.03125 0.03125 0.0023027286 0.005750974
0.030233061 0.017314103 0.03125 0.008362662 0.012293953 0.00010956495 0.0067734118 0.0046681394
0.0083814 0.00277766 0.03081646 0.001648092 0.0063693826 0.00062357774 0.0040619783 0.000724897
0.005577213 0.03125 0.0004273612 0.03125 -0.0011501113 0.000478789 0.0020991613 0.0018178567
0.004367368 0.02993051 0.0070814616 0.03125 0.006274261 0.03125 0.03125 0.032802906
0.004614672 0.03185949 0.033662565 0.0034711694 0.03462325 0.00062549306 0.03125 0.010437658
0.0067659556 -0.00051221927 0.0023848864 0.031531315 0.015975567 0.030746698 0.032659724 0.004852945
0.0012912062 0.03255679 0.0113812685 0.004016597 0.030352129 0.03125 0.0041847304 0.03352494
00000000: 7442 5239 0000 003d 62a3 9a3a ba19 853b
00000010: 0000 003d ecc1 a13c f359 f83c e15e 0bba
00000020: 8efe 243a 3161 043d cc56 9f3c 0ffb fb3b
00000030: 3468 9c3b 66d6 c33b 0000 003d 09f4 df3b
00000040: 57ef 6a3a 0000 003d 0000 003d 3947 db3c
00000050: 0000 003d 4aed eb3c 0000 003d 026b 2d3c
00000060: 48de 7c3a 992a 3c3b 812f 2e3b b75a c43c
00000070: 5e0f f53c 2d53 ae3b 4319 303a 5e35 923a
00000080: 473e dc3b 3f11 023d 9e21 073d 0000 003d
00000090: 0703 0d3d b1aa 7d3c d504 013d 649c 953a
000000a0: 0000 003d 0000 003d 0e89 78ba 7455 fc3c
000000b0: 0000 003d 78d1 5f3c 238f 023b 036e ef3c
000000c0: 0000 003d 0000 003d 0000 003d 11f3 9d3b
000000d0: 3657 fc3c 9088 053d 5d94 f93c 2409 4b3b
000000e0: 7582 2d3c 0000 003d c27c 8ab9 4c04 fa3c
000000f0: 0000 003d ce1a 0e3c 1e45 113b 5dcf ff3c
00000100: 3506 60ba ef5e fa3c 0000 003d efb9 003d
00000110: 825f 6c3b 0000 003d bb17 f93c f7ac 133b
00000120: c2ac 2b3a 40fa 933b ae55 2d3c 8a8e df38
00000130: 4e83 863b 0000 003d 455a 08ba 0000 003d
00000140: 0000 003d 11e0 cf3a be8e 163c 89f1 ab3b
00000150: e1bc d63b a90e 003d 0000 003d 535e be3c
00000160: 1ad6 6c3a 7e7d 143c 0000 003d 0000 003d
00000170: b4ac 813b fbf6 483b 0000 003d ae54 943a
00000180: 0000 003d 0000 003d 2443 2039 0000 003d
00000190: e24e 0b3d 5325 1db8 6076 463c 2a68 f93b
000001a0: 6d09 f63c ba1e 723c 72c8 bf3b d817 0c3d
000001b0: 105d 693b fb26 fb3c 0000 003d 2fcb d13b
000001c0: cc3f 203a b8db 1539 48ed 09ba 16bd 643c
000001d0: c69e 75ba 1133 283b e2be d53b 226a 013d
000001e0: 0000 003d d6d1 023d 1358 fb3c 7f48 493b
000001f0: eeb6 5cb9 9347 79ba 0000 003d f300 483c
00000200: 6391 273a 0000 003d 8d44 fa3c a953 053d
00000210: 0000 003d 0000 003d 547f 023d b566 fa3c
00000220: 0000 003d 4f12 b63a c694 a73b 2725 823c
00000230: 2990 083b ae3c 7a3b bc07 423a c088 553b
00000240: 6921 283b d245 4f3c a5b1 083d 9595 603c
00000250: 0000 003d f821 e437 1426 2a3b 48e2 883a
00000260: 5cad 023d 95f6 7eb9 09f2 2c3c 0000 003d
00000270: 00b6 003d 0a31 0a3d 0000 003d 0000 003d
00000280: 00bc 883b 07cd 95ba aa16 bb3b 2f3c 773b
00000290: 299f 683c 530c 393b 0474 e23b e15f b23b
000002a0: 0000 003d 8b54 043d f4dd e03c 5098 af3a
000002b0: b78c f43c 0000 003d 7cab 99b9 37bb be3a
000002c0: cf7d 103a 9930 803b ac1d 253a 0000 003d
000002d0: 6de8 a63c 0afe 5f3b 3938 023d 0655 823b
000002e0: 2f7e 033d 59db a8b9 d422 5939 37ec ff3c
000002f0: 0000 003d 7bbe ed3c a4c9 763a cb55 a83b
00000300: 1f34 8c3c f4e0 6939 19cc aeba 722b 083d
00000310: 0000 003d 0000 003d 60e9 163b ab72 bc3b
00000320: 53ab f73c 4ed6 8d3c 0000 003d 8c03 093c
00000330: 946c 493c 3cc6 e538 7ff3 dd3b 31f7 983b
00000340: 2452 093c 6709 363b cd72 fc3c ca04 d83a
00000350: 41b6 d03b 9877 233a 581a 853b 0407 3e3a
00000360: 0ec1 b63b 0000 003d 730f e039 0000 003d
00000370: 55bf 96ba f905 fb39 1592 093b 2645 ee3a
00000380: 231c 8f3b d430 f53c 9b0b e83b 0000 003d
00000390: 5198 cd3b 0000 003d 0000 003d 575c 063d
000003a0: ad36 973b 197f 023d c2e1 093d 8f7c 633b
000003b0: 1cd1 0d3d 21f8 233a 0000 003d b602 2b3c
000003c0: f3b4 dd3b 7446 06ba c14b 1c3b fb26 013d
000003d0: 31df 823c 80e0 fb3c 34c6 053d 7405 9f3b
000003e0: b13d a93a 455a 053d 8078 3a3c a89d 833b
000003f0: 07a5 f83c 0000 003d 1020 893b 7351 093d

weight_epsilon f4 [1, 256]
1.0018371 1.3746147 -0.5953777 0.09798172 1.6961857 -0.6511347 -1.0837643 -0.72232705
-0.9263967 0.86772263 -0.68158114 0.85498375 0.40087822 0.5807581 -0.84607136 -0.84796375
0.50853974 1.1639769 -0.7925973 1.0953017 0.18150803 0.72847676 -0.31970188 -0.7205232
1.0986081 -1.1198242 -0.78487754 -0.75213844 -0.72159 0.71938866 -0.13499987 0.71621394
-0.4738433 0.7617858 0.4199276 -0.5175005 1.2579565 0.7891074 -0.91272783 -0.82488483
0.22543481 0.6391541 0.7095768 0.33620498 0.44440648 0.9880834 -1.4016552 -1.0809944
-0.5617455 -0.40651616 -0.49775815 -0.3828713 0.5879476 -1.1734897 -0.59208274 1.0095494
0.40177524 -0.77975917 -0.4106709 -0.77853906 0.711454 -0.39538902 0.8744584 -1.1989323
-0.42464614 0.21673968 -0.7950142 -0.6355863 -0.5417875 -0.5282084 -0.96840346 0.9633119
-0.7243054 -1.3414183 -0.4159542 -0.74102646 1.061755 -0.1884714 0.60005313 0.58720934
-0.6094745 1.1690114 0.5068389 -0.37855154 -0.47561327 0.99520487 1.020856 -1.2152159
-1.2343327 0.7265513 0.4830437 -0.67577887 1.0511932 0.8618087 0.91510713 -0.6285973
-0.15119535 0.81024265 1.0294795 -0.43230549 0.91498333 0.7251159 0.88750666 0.55597377
0.23430969 0.9448689 -0.47053632 -0.40914288 -0.9085117 0.33202413 -0.80695254 -0.6929039
1.2181126 -0.6735765 -0.4959442 -1.1030626 -1.2192922 0.69091225 -0.3710732 1.3206922
-0.9815195 -0.3892871 -0.84608173 -0.6860374 0.453277 0.29713097 1.0608746 -0.80682373
0.23256363 -0.30059162 -1.0221667 -0.6779741 -0.912411 -1.1546901 0.5500166 0.74024576
-0.54963547 -0.7575317 0.44535127 -0.2287322 -1.258657 1.2819736 1.093927 -0.9286424
-1.0884937 -0.49076706 -0.4929695 -0.22077656 0.6668978 -0.5631771 -0.6731385 -1.3286201
-0.80006707 -0.29320833 -0.6905737 -0.8572968 -0.43427974 1.189079 1.0095423 -0.34985098
-0.67965025 -0.11991247 0.560571 -0.97168577 0.5691917 0.4077528 -0.5200127 0.33557078
0.9247374 0.75930554 -0.5990927 0.87239873 1.187527 0.59632903 -0.52440774 1.0421935
0.9056274 -0.55562586 -0.23729484 -1.5035791 -0.79226786 -1.0232632 -0.61173093 -0.8153268
-0.98151666 0.6125184 0.8143873 -0.71507365 0.98144656 0.21707316 -0.5840214 -0.8314377
-1.3182949 -0.8819149 -0.67610586 -0.40415782 0.36935782 0.9021532 -0.79446524 0.91290605
-0.2829265 0.8199064 -0.42392266 -0.5156317 1.2578478 0.23451708 0.8010034 0.7869806
0.50615567 -0.57662183 0.634088 0.3939231 0.3916787 -1.0061378 -0.61453867 0.44978997
0.7157804 0.7467005 0.7317755 1.0151417 0.8742622 -0.4007682 0.29878947 0.86128545
0.8745 -1.3134408 0.55161715 -0.74879354 0.97393113 -1.0072048 -1.2820916 -0.36772498
0.902029 -0.6308589 0.87324965 -1.1448776 -0.8804344 0.74422884 -0.41349775 -0.58547646
0.42926443 -0.67397976 1.0406059 0.8590198 0.77964735 0.9100285 -0.42939916 -0.57637614
0.68183976 -0.14511777 -0.48801473 0.5544137 -0.25444046 -0.61160445 0.46426404 0.6198812
00000000: 333c 803f 60f3 af3f ac6a 18bf a4aa c83d
00000010: 9d1c d93f c4b0 26bf cab8 8abf 6dea 38bf
00000020: 5628 6dbf 1223 5e3f 1a7c 2ebf 37e0 5a3f
00000030: e93f cd3e 90ac 143f 2298 58bf 2714 59bf
00000040: a92f 023f 32fd 943f a8e7 4abf d932 8c3f
00000050: 3edd 393e 747d 3a3f f7af a3be 3574 38bf
00000060: 319f 8c3f 6656 8fbf bced 48bf 258c 40bf
00000070: 1fba 38bf db29 383f 683d 0abe cc59 373f
00000080: 979b f2be 6504 433f c000 d73e ea7a 04bf
00000090: b804 a13f f102 4a3f 88a8 69bf a72b 53bf
000000a0: 62d8 663e 9a9f 233f d3a6 353f 0f23 ac3e
000000b0: 3f89 e33e 09f3 7c3f 7069 b3bf 065e 8abf
000000c0: 8ece 0fbf e322 d0be 28da febe b507 c4be
000000d0: bc83 163f e934 96bf bc92 17bf ea38 813f
000000e0: 7cb5 cd3e 4c9e 47bf 7543 d2be 564e 47bf
000000f0: d921 363f 6e70 cabe 81dc 5f3f 9d76 99bf
00000100: 386b d9be 02f1 5d3e 0d86 4bbf c9b5 22bf
00000110: 96b2 0abf aa38 07bf 4ae9 77bf 9c9b 763f
00000120: 146c 39bf 98b3 abbf f3f7 d4be e9b3 3dbf
00000130: 96e7 873f a6fe 40be 159d 193f 5a53 163f
00000140: 8506 1cbf 2aa2 953f 32c0 013f 82d1 c1be
00000150: 9583 f3be bfc5 7e3f 69ab 823f 328c 9bbf
00000160: 9dfe 9dbf 44ff 393f 8151 f73e d8ff 2cbf
00000170: 808d 863f 7f9f 5c3f 7644 6a3f c1eb 20bf
00000180: f4d2 1abe 106c 4f3f fcc5 833f 2557 ddbe
00000190: 593c 6a3f 32a1 393f a333 633f 4c54 0e3f
000001a0: e1ee 6f3e eee2 713f 23ea f0be 2d7b d1be
000001b0: 3994 68bf 11ff a93e 7194 4ebf 2662 31bf
000001c0: 1deb 9b3f 826f 2cbf 66ec fdbe 2831 8dbf
000001d0: c411 9cbf a0df 303f 4efd bdbe 710c a93f
000001e0: dd44 7bbf a450 c7be d098 58bf 26a0 2fbf
000001f0: ec13 e83e 8d21 983e bdca 873f 008c 4ebf
00000200: 2925 6e3e 25e7 99be 5cd6 82bf b68f 2dbf
00000210: c493 69bf e3cc 93bf e3cd 0c3f bf80 3d3f
00000220: e9b4 0cbf 99ed 41bf 1505 e43e c638 6abe
00000230: ac1b a1bf b617 a43f cd05 8c3f 82bb 6dbf
00000240: c353 8bbf d245 fbbe 8066 fcbe 4013 62be
00000250: d0b9 2a3f 602c 10bf ce52 2cbf 3910 aabf
00000260: 32d1 4cbf 671f 96be 70c9 30bf ce77 5bbf
00000270: ea59 debe be33 983f af38 813f ab1f b3be
00000280: 8ffd 2dbf ab94 f5bd 9581 0f3f 66c0 78bf
00000290: 8cb6 113f fac4 d03e 8d1f 05bf efcf ab3e
000002a0: 97bb 6c3f d961 423f 245e 19bf 8655 5f3f
000002b0: e200 983f 05a9 183f 963f 06bf 9966 853f
000002c0: 33d7 673f 7f3d 0ebf 6bfd 72be 4875 c0bf
000002d0: 11d2 4abf 4afa 82bf 669a 1cbf 42b9 50bf
000002e0: ad44 7bbf 02ce 1c3f b07b 503f 110f 37bf
000002f0: 1540 7b3f 6d48 5e3e 6d82 15bf 1ad9 54bf
00000300: e3bd a8bf 2dc5 61bf 4615 2dbf c6ed cebe
00000310: 781c bd3e 83f3 663f 1362 4bbf 36b4 693f
00000320: bedb 90be 63e5 513f 640c d9be 7000 04bf
00000330: 2801 a13f 3f25 703e 8f0e 4d3f 9077 493f
00000340: 6b93 013f 7d9d 13bf 9753 223f 4ab0 c93e
00000350: 1c8a c83e 20c9 80bf 6852 1dbf df4a e63e
00000360: 623d 373f c427 3f3f a455 3b3f 2af0 813f
00000370: a6cf 5f3f 7d31 cdbe effa 983e 347d 5c3f
00000380: 3bdf 5f3f d41e a8bf c836 0d3f efb0 3fbf
00000390: 8d53 793f 16ec 80bf 941b a4bf 7346 bcbe
000003a0: 5feb 663f f87f 21bf 4a8d 5f3f 598b 92bf
000003b0: 2664 61bf c885 3e3f fab5 d3be c9e1 15bf
000003c0: 8cc8 db3e f089 2cbf 9332 853f b9e8 5b3f
000003d0: f896 473f a1f7 683f 35da dbbe 638d 13bf
000003e0: 0d8d 2e3f c199 14be 11dd f9be 0eee 0d3f
000003f0: 0546 82be 1c92 1cbf 04b4 ed3e 89b0 1e3f

weight_mu f4 [33, 256]
-0.08674017 0.04278119 0.04221951 0.058602564 0.008437589 0.06469589 0.038836148 0.0031278206
-0.024188394 0.040213488 0.033276252 -0.11924431 -0.10399654 0.011893528 -0.046474196 -0.010584285
0.15202966 -0.050120607 0.022402808 0.045547318 0.04841812 0.009042467 0.05736266 0.026456114
-0.0015494872 0.10238913 0.14215425 -0.32386902 0.00084752386 0.12981911 0.21960966 -0.07545475
0.11384239 0.036630094 0.049140524 -0.035438314 0.016522838 -0.10920939 0.026696034 -0.05909457
0.01594615 0.048753314 -0.057164583 -0.0312348 -0.05012531 -0.048157476 0.12161794 0.0018484531
0.020776585 -0.02309709 -0.042804822 -0.029034128 -0.0017947129 0.05562437 0.030287547 0.06433282
-0.0631112 -0.026758745 -0.07343726 0.025260339 0.037350804 -0.115456566 -0.040218104 0.010487714
-0.08260129 -0.05458906 -0.00029431283 0.053062454 0.11100589 0.026312552 0.055168483 0.20427102
-0.041909665 0.026219321 0.0038467203 0.19695896 0.097487226 -0.008109279 -0.044359863 0.050132744
0.0011086017 -0.059905052 -0.07151363 0.037777808 -0.10871939 -0.014089434 0.048086032 -0.08436947
-0.20315914 0.0613277 -0.025663413 0.013228975 0.013327836 -0.0583684 -0.024464235 0.03979902
0.02412939 -0.043813683 0.12899283 -0.016631022 0.047197595 -0.09538995 0.03976844 0.100170195
0.04937609 0.05214226 -0.04925051 -0.0052195657 -0.06444379 0.06296988 -0.0011217445 0.01179194
0.15023191 -0.21408617 -0.068412215 -0.26646525 -0.102668606 -0.015336795 0.009284814 0.018252565
0.00039944053 -0.0560251 -0.05691926 -0.21171367 -0.23725869 0.10062579 -0.060799323 -0.094319545
0.16979992 -0.06170558 0.055269964 -0.036654767 0.015416719 0.04290676 -0.0048673805 0.04237061
0.03135164 0.052646264 -0.047474634 0.09698968 -0.10736464 -0.092309386 0.24738291 -0.118469
-0.18317915 0.0144044515 0.052017253 -0.12743786 -0.030109398 -0.061634015 -0.016317954 -0.045767
-0.023716656 0.001553103 -0.108648226 0.0092487335 -0.009486358 -0.031170607 -0.056261256 -0.01837036
0.15828824 0.31924158 -0.021967044 0.06715048 -0.039715536 0.10861543 0.0931878 0.11324323
-0.055001058 -0.023970615 0.013931041 0.122145414 0.030355027 0.030418903 -0.021196833 -0.008515325
-0.10435445 -0.06155239 0.13560525 -0.018768698 0.034755345 -0.24460132 -0.048712432 -0.10878952
0.060860228 0.19644694 -0.08537477 -0.031846505 0.044222802 0.015805544 0.1300746 -0.04284173
-0.17231318 -0.037164997 -0.11550228 -0.0014085596 0.042294756 0.024025992 -0.112962164 0.03137543
0.03162151 -0.21002087 -0.05754576 0.08291594 0.07567295 -0.088119626 0.023709927 0.07583477
-0.13979255 0.00019759726 -0.045804087 0.26180354 -0.070336595 -0.142346 0.0283269 0.19505753
0.053376567 0.027385257 -0.08681083 -0.036301635 -0.10452781 0.015153577 0.017687557 0.13889876
-0.03642109 0.0008814077 0.09008602 0.05986516 -0.011140219 -0.023855194 0.040133774 -0.049780954
-0.04956281 0.04229356 0.053263925 0.013749954 -0.033221245 0.12115103 0.0027903765 0.067398466
0.06610636 -0.121965334 0.15221271 0.035611432 0.0014809956 0.047931835 0.06327489 -0.11579868
0.0041050715 0.01567703 -0.22923762 0.13531405 -0.01891714 0.023017146 -0.03950379 -0.028962307
00000000: d5a4 b1bd 543b 2f3d 5dee 2c3d 3e09 703d
00000010: d03d 0a3c 477f 843d a712 1f3d 1ffc 4c3b
00000020: bd26 c6bc e6b6 243d ae4c 083d 5c36 f4bd
00000030: 23fc d4bd 12dd 423c ba5b 3ebd b569 2dbc
00000040: aaad 1b3e 444b 4dbd 1886 b73c d38f 3a3d
00000050: 1452 463d db26 143c 1cf5 6a3d 7eba d83c
00000060: 2a18 cbba 64b1 d13d e290 113e 29d2 a5be
00000070: 5d2c 5e3a 4def 043e 5be1 603e 0588 9abd
00000080: 3326 e93d 7009 163d 9347 493d c427 11bd
00000090: e75a 873c 2ca9 dfbd a4b1 da3c 260d 72bd
000000a0: 80a1 823c 8eb1 473d 6925 6abd 20e0 ffbc
000000b0: 3250 4dbd c640 45bd d412 f93d cb47 f23a
000000c0: a833 aa3c 1c36 bdbc 1c54 2fbd fbd8 edbc
000000d0: 923c ebba 61d6 633d 971d f83c edc0 833d
000000e0: 7240 81bd 2835 dbbc 4666 96bd c5ee ce3c
000000f0: 28fd 183d 7e74 ecbd bdbb 24bd a9d4 2b3c
00000100: dd2a a9bd c798 5fbd 004e 9ab9 0458 593d
00000110: 0e57 e33d 6c8d d73c 59f8 613d 6c2c 513e
00000120: 78a9 2bbd e7c9 d63c 4219 7c3b 9caf 493e
00000130: 62a7 c73d c8dc 04bc b0b2 35bd fe57 4d3d
00000140: 804e 913a 005f 75bd bd75 92bd e7bc 1a3d
00000150: 46a8 debd 5fd7 66bc dcf5 443d e7c9 acbd
00000160: f308 50be c132 7b3d 143c d2bc 58be 583c
00000170: ff5c 5a3c b413 6fbd 3869 c8bc 4c04 233d
00000180: 00ab c53c fa75 33bd b216 043e c83d 88bc
00000190: 4452 413d ce5b c3bd 3be4 223d 0826 cd3d
000001a0: 953e 4a3d 1f93 553d e7ba 49bd e408 abbb
000001b0: 1bfb 83bd 5af6 803d 8007 93ba fb32 413c
000001c0: 65d6 193e 6839 5bbe b41b 8cbd 226e 88be
000001d0: eb43 d2bd 2e47 7bbc 551f 183c 6786 953c
000001e0: 006c d139 937a 65bd 2c24 69bd 78cb 58be
000001f0: f1f3 72be e514 ce3d b608 79bd 9b2a c1bd
00000200: 08e0 2d3e febe 7cbd c262 623d 4f23 16bd
00000210: 6896 7c3c 00bf 2f3d 8c7e 9fbb ce8c 2d3d
00000220: 946a 003d 9ca3 573d c374 42bd 86a2 c63d
00000230: fee1 dbbd b40c bdbd f251 7d3e e09f f2bd
00000240: 5193 3bbe a600 6c3c 0b10 553d 127f 02be
00000250: fca7 f6bc f373 7cbd 3bad 85bc 2e76 3bbd
00000260: 6f49 c2bc 7d91 cb3a f682 debd 0088 173c
00000270: ab6c 1bbc 8059 ffbc 3472 66bd 707d 96bc
00000280: 5016 223e a273 a33e 3bf4 b3bc 3186 893d
00000290: c2ac 22bd c471 de3d 3fd9 be3d 11ec e73d
000002a0: ca48 61bd 065e c4bc 053f 643c 6027 fa3d
000002b0: 1bab f83c 1031 f93c fba4 adbc dd83 0bbc
000002c0: c9b7 d5bd 5c1e 7cbd 1adc 0a3e d0c0 99bc
000002d0: 9f5b 0e3d c578 7abe b086 47bd 0acd debd
000002e0: 9348 793d 6329 493e f8d8 aebd 7b71 02bd
000002f0: f822 353d a17a 813c 4732 053e cf7a 2fbd
00000300: de72 30be 533a 18bd 768c ecbd 6b9f b8ba
00000310: 443d 2d3d 28d2 c43c b558 e7bd 8683 003d
00000320: 8e85 013d b60f 57be 1ab5 6bbd d5cf a93d
00000330: 6bfa 9a3d 1078 b4bd 523b c23c 434f 9b3d
00000340: c725 0fbe 1c32 4f39 119d 3bbd 1d0b 863e
00000350: a20c 90bd 26c3 11be d10d e83c 29bd 473e
00000360: 63a1 5a3d 0c57 e03c e0c9 b1bd 06b1 14bd
00000370: ad12 d6bd b546 783c 7fe5 903c 7a3b 0e3e
00000380: 482e 15bd 450e 673a 057f b83d 2c35 753d
00000390: 7785 36bc f86b c3bc 5063 243d 1de7 4bbd
000003a0: 6002 4bbd 033c 2d3d 462b 5a3d 7d47 613c
000003b0: 0013 08bd 081e f83d c0de 363b 3508 8a3d
000003c0: c562 873d f6c8 f9bd a6dd 1b3e 4bdd 113d
000003d0: f71d c23a 2c54 443d 4496 813d dc27 edbd
000003e0: d683 863b 1d6d 803c 44bd 6abe c48f 0a3e
000003f0: 1ef8 9abc 748e bc3c bace 21bd 5c42 edbc
