experiments/diff_kappa_data/kappa1_1_kappa2_1_kappa3_0.5/rainbow_dqn_target_sse.pth (torch, 352338 bytes, 13 tensors)

weight f4 [256, 4]
000000 50 9c 40 be f8 61 6b be a6 c4 c6 be c4 30 cc be
       -0.18809628 -0.22986591 -0.38821906 -0.39880955
000010 84 e9 9f be 74 bf f6 be dc 60 2c be c4 ac d4 be
       -0.31232846 -0.48192942 -0.16833824 -0.4153806
000020 fd f3 31 3f 78 0e c6 3e f9 05 2a 3f ec 85 74 3f
       0.6951292 0.38682914 0.66415364 0.9551685
000030 20 a0 74 3f 53 66 5c 3f 46 ea 56 3f 0c f3 a9 3f
       0.9555683 0.86093634 0.8395122 1.3277297
000040 5b e2 38 3f 02 61 62 3f 68 22 09 3f 56 fe 97 3f
       0.7222039 0.8842927 0.53568125 1.1874492
000050 48 4f 72 be 60 b8 06 be 00 27 63 3b 8a 58 d1 3e
       -0.23663056 -0.13156271 0.0034660697 0.40887862
000060 e6 9e 07 3f 95 f1 92 3f 90 46 54 3f a5 d3 d9 3e
       0.52976835 1.1479975 0.8292017 0.42544284
000070 42 69 bc 3e ab bb a5 3f c7 f5 47 3f 44 d9 16 3f
       0.36799055 1.2947897 0.781094 0.5892527
000080 cc f8 f5 3e 77 a8 34 3f 6e 81 a5 3f 96 d7 82 3f
       0.4804138 0.70569557 1.2930124 1.0222042
000090 80 52 c4 bd c0 d5 2d bd 10 85 c6 bd a4 0e f2 be
       -0.09586048 -0.042440176 -0.096933484 -0.47276795
0000a0 5c 11 84 3f 54 01 54 3f 5f 6b 0b 3f 8f 5d c6 3e
       1.0317798 0.82814527 0.5446071 0.38743255
0000b0 c3 f0 e6 be a0 f1 1f 3d 50 10 79 3d 40 45 90 3c
       -0.45105562 0.03904879 0.060806572 0.017611146
0000c0 2e c7 58 3f f8 69 58 3f 26 b1 51 3f 85 dc 1b 3f
       0.84678924 0.84536695 0.8191093 0.6088336
0000d0 10 05 d2 bd 00 11 57 be 94 23 26 be e4 be bb be
       -0.10254872 -0.21002579 -0.1622451 -0.36669075
0000e0 76 b0 0f 3f c6 fb 90 3f d6 6c 40 3f 72 5d 8a 3f
       0.56128633 1.1326835 0.7516607 1.0809767
0000f0 e5 4a 2a 3f 4c 04 9b 3f 88 bd 3a 3f 1c f0 a0 3f
       0.6652053 1.2110686 0.7294545 1.2573276
000100 17 b6 3e 3f ed 2b 88 3f e6 90 02 3f bf 2b aa 3f
       0.744966 1.0638405 0.5100235 1.32946
000110 c0 e1 4c 3f dd 06 88 3f cb 75 1b 3f b2 8b 59 3f
       0.8003197 1.0627095 0.6072661 0.84978783
000120 9f eb 3b 3f 15 e5 46 3f fe 00 24 3f b2 e7 e8 3e
       0.73406404 0.776933 0.64064014 0.4548927
000130 70 3f 4f bd 38 27 31 be 66 97 a9 be 68 21 96 3d
       -0.050597608 -0.17300117 -0.3312332 0.073305905
000140 57 18 fe 3e b0 f2 2f 3f f3 92 83 3f 72 65 a4 3f
       0.49627945 0.68729687 1.027922 1.2843459
000150 7e 04 0c 3f 75 c4 8e 3f 75 33 ed 3e 5e ee 7d 3f
       0.54694355 1.1153704 0.4632832 0.99191844
000160 a8 16 89 3f 13 6b 0b 3f 1b 4d 12 3f de 2b 14 3f
       1.0710039 0.5446026 0.57148904 0.57879436
000170 89 72 3b 3f d7 4e 81 3f 40 1e cc 3e 8b d8 fe 3e
       0.7322164 1.0102185 0.3986683 0.49774584
000180 3d ff 66 3e dc e3 9b 3f b0 63 9d 3e 66 1d f8 3e
       0.22558303 1.2178912 0.30740118 0.4845993
000190 4e 41 57 3f 99 3c 6c 3f 5a 11 07 3f 42 de 94 3f
       0.8408402 0.92279965 0.5276085 1.1630328
0001a0 0e 2e 32 3f 02 ab 91 3f dd 06 6e 3f d9 87 93 3f
       0.69601524 1.1380312 0.9297922 1.1525832
0001b0 e0 39 59 3f 0c d4 2a 3f e5 df 21 3f 4d 56 05 3f
       0.84853935 0.6672981 0.6323226 0.5208481
0001c0 80 5d cc bc a3 b7 ef be 90 71 0b 3d 7e c1 cc 3e
       -0.024946928 -0.4681979 0.03404385 0.39991373
0001d0 fa 71 44 3f 1a 53 67 3f 1e be 9d 3f e1 1a e6 3e
       0.76736414 0.9036118 1.2323644 0.44942382
0001e0 52 b9 26 3f b9 26 0d 3f 1b cb 34 3f 0a 27 0a 3f
       0.65126526 0.5513721 0.70622414 0.5396582
0001f0 8c 75 fa be 6c 42 b0 be ac 2c ff be 30 d1 90 bd
       -0.48917806 -0.34425676 -0.4983877 -0.07071149
000200 0f d8 48 3f 3b c1 0e 3f 0d 55 28 3f e5 36 32 3f
       0.7845468 0.55763596 0.6575478 0.6961501
000210 c8 9b f7 3e 6a 78 8d 3f 8e fa 1b 3f 9d ad 98 3f
       0.4836104 1.1052372 0.6092919 1.1927983
000220 e7 34 6e 3f 59 35 9e 3f f5 e4 8b 3f b9 77 6f 3f
       0.9304947 1.236003 1.0929247 0.9354206
000230 45 68 15 3f 2c e1 ab 3f 69 a3 6b 3f e9 ec 6c 3f
       0.5836223 1.3428092 0.9204622 0.92548996
000240 ce 67 29 3f 90 32 9d 3f 29 81 26 3f e6 5e ae 3f
       0.6617402 1.2281055 0.6504083 1.3622711
000250 ec 6f c6 be 80 35 c6 bc f0 1c e7 be 00 55 22 bb
       -0.38757265 -0.024195433 -0.45139265 -0.0024769902
000260 19 99 c6 3e ea cb b0 3f 34 ca 84 3f 97 2e 5f 3f
       0.3878868 1.381223 1.0374207 0.87180465
000270 c0 6f 62 bd 00 ae d0 bc 00 de 61 bd ca 5f e4 be
       -0.055282354 -0.025473595 -0.055143356 -0.4460433
000280 85 fa 84 3f c2 80 ab 3f 22 3b 52 3f 80 4c 10 3f
       1.0388952 1.3398669 0.8212148 0.5636673
000290 c1 c7 5e 3f ac 61 61 3f f5 f2 88 3f 75 7e 1a 3f
       0.8702355 0.8803966 1.0699145 0.6034921
0002a0 b2 2c 3e 3f ae 72 16 3f 10 a8 14 3f b5 fb 1d 3f
       0.7428695 0.5876874 0.58068943 0.617122
0002b0 e8 56 31 be 62 e0 89 be 0e 7d d7 be 28 24 bd 3d
       -0.17318308 -0.26929003 -0.42087597 0.09235412
0002c0 0c d9 8d 3e 07 c2 5b 3f ab 2b ae 3f 3e a1 aa 3f
       0.27704656 0.8584294 1.3607076 1.3330457
0002d0 fa 54 85 3f a2 de 62 3f 2f 32 31 3f 0e 2a 77 3f
       1.0416558 0.8862096 0.692172 0.96548545
0002e0 5c 91 20 3f 40 e8 74 3f b3 e2 75 3f 2c 6c 83 3f
       0.627218 0.95666885 0.9604904 1.0267386
0002f0 e8 6b 47 3f 95 93 49 3f 2c b9 8e 3f 79 cd 97 3f
       0.77899027 0.7874082 1.115026 1.185958
000300 19 43 5c 3f 19 45 d8 3e 75 6e a9 3f c0 99 0a 3f
       0.8603988 0.42240217 1.3236834 0.54140854
000310 ec 1e 86 3f 9f b5 a4 3f 8a 60 1a 3f 05 3b 73 3f
       1.0478187 1.2867926 0.60303557 0.9501193
000320 ff 8a 85 3e 89 65 91 3f 86 f5 0b 3f 65 78 05 3f
       0.26082608 1.1359111 0.54671514 0.5213683
000330 ee 35 77 3f 39 cb 2f 3f a1 d3 9c 3f 0d 56 9f 3f
       0.96566665 0.6866947 1.2252084 1.2448136
000340 99 fd 72 3f f5 db 1d 3f e0 af 0f 3f 55 fc 36 3f
       0.9491821 0.6166375 0.5612774 0.7147878
000350 b4 89 7c be f8 26 1a 3e 62 67 b7 be 4b a5 e1 3d
       -0.24661905 0.15053928 -0.35821062 0.11017855
000360 80 6f 7b 3f cb 43 a9 3f a8 6a 01 3f 66 7c da 3e
       0.9821701 1.3223814 0.5055337 0.42673033
000370 fb 7a 01 3f ed 5f 89 3f 86 6c 72 3f 1f ab cf 3e
       0.5057828 1.0732399 0.94696844 0.40560243
000380 d6 6b 31 3f b6 2f 2a 3f db 56 85 3f 7d e4 48 3f
       0.6930517 0.6647905 1.0417131 0.78473645
000390 2b eb 27 3f 49 ea fb 3e d6 29 55 3f a8 bf 9c 3f
       0.6559321 0.49202183 0.8326696 1.2245989
0003a0 a0 47 2b bd 2e 9f 87 be 56 09 cc be aa 3d e0 be
       -0.041816354 -0.26488632 -0.39850873 -0.43797046
0003b0 1b 05 44 3f ef ec 91 3f 6e a8 ad 3f 3c 7b 0a 3f
       0.7657029 1.1400431 1.3567026 0.5409429
0003c0 17 28 85 3f 04 73 42 3f 97 63 ad 3f e9 05 52 3f
       1.040286 0.7595675 1.3546017 0.8204027
0003d0 22 73 8b 3f a7 d0 dc 3e fc a0 a4 3f 47 4d 79 3f
       1.0894511 0.4312794 1.2861629 0.9738354
0003e0 4f 61 81 3f 25 51 99 3f 5b b0 ba 3e ff df a8 3f
       1.0107821 1.1977888 0.36462674 1.3193358
0003f0 e4 13 a8 3e d1 f2 9c 3f 20 41 4b 3f d6 49 87 3f
       0.32827675 1.2261602 0.7939625 1.0569408

bias f4 [256]
000000 68 08 19 3e be d0 a6 be 65 b3 af 3f 36 6b 5d 3f
       0.14944613 -0.32581133 1.3726622 0.86491716
000010 8f 77 ee 3e 44 64 5f 3e 27 60 79 3f 1f 0b b5 3f
       0.4657559 0.21815592 0.9741234 1.4144019
000020 be ef e0 3e 41 74 cf be a9 0f f8 3e a0 c9 83 bc
       0.4393291 -0.40518382 0.48449448 -0.016087353
000030 96 c7 88 3f 8e 5c f6 3e aa 23 58 3f 96 09 ae 3f
       1.0685909 0.4811749 0.8442942 1.3596675
000040 c8 cb c4 3e 0f 8f e2 3e 5d bb 03 3f 20 c1 1a 3e
       0.38436723 0.4424977 0.5145777 0.15112734
000050 be 14 6d 3f 4d 70 07 3f 9c 7d 36 3f de 62 8e 3f
       0.92609775 0.5290573 0.71285415 1.1123922
000060 93 44 06 3f ae 26 46 3f 58 9e 89 3f 4d 55 05 3f
       0.52448386 0.7740277 1.0751448 0.52083284
000070 00 ce 2e bb 27 e1 d7 3e 2e 93 91 3f 92 0c bb 3e
       -0.0026673079 0.42163965 1.1373041 0.36533028
000080 c4 78 9d 3f 0f 2e b5 3f 01 37 18 3f 21 d3 87 3f
       1.230248 1.4154681 0.5945893 1.0611306
000090 15 d4 4f 3f 5a 78 c2 3e 8a fa ae 3f 7a 14 9c be
       0.81182986 0.37982446 1.3670208 -0.30484372
0000a0 40 93 60 3f 1e 01 09 3f 5a 18 86 3f 78 65 af bd
       0.87724686 0.5351733 1.0476182 -0.085642755
0000b0 88 13 a3 3f 0b 4c 20 3f 59 44 96 3f fa fe 9d 3f
       1.2740335 0.6261603 1.1739608 1.2343438
0000c0 24 70 28 3f 02 27 6d 3f bc 3b 2e 3f e2 66 97 3f
       0.65796113 0.92637646 0.680599 1.1828272
0000d0 c4 03 a8 3f 70 01 5a be 15 7c 01 3f 44 66 70 3f
       1.3126149 -0.21289611 0.5057996 0.93906045
0000e0 c8 66 21 3f 23 33 9f 3f 00 c5 dd 3b 44 1e 39 3f
       0.63047457 1.2437481 0.006767869 0.72311807
0000f0 1b 5d 3f 3f 86 09 8b 3f 8e ea d9 3e 4a 7a ac 3f
       0.7475144 1.0862281 0.42561764 1.347482
000100 5b b7 5b 3f e3 a5 7b 3f 1a a9 0a 3f fa 81 76 3f
       0.85826653 0.983 0.5416428 0.9629208
000110 36 81 b0 3e 45 02 15 3f df 55 91 3f 3e 1b ff be
       0.3447358 0.5820659 1.1354331 -0.49825472
000120 0b 86 1f 3f b0 9d 09 3e 0b 3a 69 3f 47 c2 9e 3f
       0.6231391 0.1343906 0.9110419 1.2403039
000130 a9 6f 9b 3f 3a f7 56 3f bd 1a aa 3f 34 0a eb be
       1.2143451 0.8397099 1.328941 -0.45906222
000140 03 5b 3b 3f 39 a5 01 3f ee ea 8e 3f 4e 76 66 3f
       0.7318575 0.50642735 1.1165445 0.9002427
000150 10 66 b1 3f b2 d1 6b 3f 6f b9 8b 3f f5 10 a8 3f
       1.3859272 0.92116845 1.0915965 1.3130175
000160 b8 22 bb 3d 0e 80 81 3f 2e a5 81 3f 33 87 6d 3f
       0.091374815 1.0117204 1.0128534 0.9278442
000170 bd 15 7a 3f d0 f9 06 3f 8f ea 05 3f d4 56 13 be
       0.9768942 0.52724934 0.52311033 -0.14388591
000180 ca b4 fa 3e 2f b5 aa 3f 24 f8 9d 3f 96 65 a7 3f
       0.48966056 1.3336543 1.2341352 1.3077877
000190 ec 1b 3e 3f 1c 52 96 3f 89 36 2e 3f 76 5d b9 3e
       0.74261355 1.1743808 0.68051964 0.36204118
0001a0 c5 91 0d 3f 32 15 00 3f e6 c3 73 3f b3 90 93 3f
       0.5530055 0.5003234 0.9522079 1.1528534
0001b0 8f ce f1 3e 64 a3 fc 3e f2 ed 6d 3f c8 ab 54 3f
       0.47227904 0.49343407 0.929412 0.8307462
0001c0 2e 02 d6 3e 44 b7 81 3f ca 9c ba be 4f 07 7f 3f
       0.41798538 1.0134053 -0.36447746 0.9962053
0001d0 fb 92 34 3f 86 e1 c1 3e 3e 9e e4 3e 5d 6c 53 3f
       0.70536774 0.37867373 0.4465198 0.82587224
0001e0 2f c4 fc 3e 04 92 5a 3f d2 8b 3e 3f 8c 43 c6 be
       0.49368426 0.8537905 0.744321 -0.3872341
0001f0 8f 68 88 3f b0 73 28 3d 0f 02 07 3f e8 f0 ac 3f
       1.0656909 0.041125953 0.52737516 1.3511019
000200 08 e6 9f 3f b8 d6 ab 3f cd c2 e9 3e 41 ad ec 3e
       1.2492075 1.3424902 0.45656434 0.46225932
000210 95 3b 70 3f 08 11 9a 3f bb 2a 93 3f b7 15 06 3f
       0.93840915 1.2036448 1.1497415 0.52376884
000220 24 4a 4d be ab 5d 14 3f a6 71 11 3f 1f 34 a8 3f
       -0.20047814 0.57955426 0.5681404 1.3140906
000230 98 6c 4e 3e d1 85 42 3f 8c b8 09 be ec 26 7e 3f
       0.20158613 0.7598544 -0.13449305 0.9927814
000240 85 82 34 3f ca a2 40 3f 28 4c 94 3f cb b1 8d 3f
       0.70511657 0.75248396 1.1585741 1.1069883
000250 46 e8 39 3f 0d f7 5a 3f 11 f7 8e 3f 06 bf 87 be
       0.72620046 0.8553322 1.1169149 -0.26512927
000260 f2 f9 c9 be 34 b1 56 be 27 d4 3b 3f 25 3c 91 3f
       -0.39448506 -0.20966035 0.73370594 1.134648
000270 06 da a9 3f 58 f3 f7 3e 4a 4f b8 3e a3 31 ab 3f
       1.326966 0.48427844 0.35997993 1.3374523
000280 b2 69 59 3f 09 76 15 3f 05 4e a8 3f 40 d7 3c 3f
       0.84926903 0.5838323 1.314881 0.73765945
000290 40 36 b5 3e ee af 02 3f 51 65 37 3f b2 09 63 3f
       0.35392952 0.510497 0.7163897 0.8868667
0002a0 f6 5b 00 3f 10 75 68 be 02 fe bc 3e 7a 98 3c 3f
       0.5014032 -0.22700906 0.36912543 0.7367016
0002b0 b7 2a 17 3f f1 a5 8e 3f e4 18 73 3f 8c fb aa 3f
       0.5904955 1.1144391 0.94959855 1.3358016
0002c0 48 fa b0 bd 4b aa 8d 3f 6f cf a0 3f a9 fe 9d 3f
       -0.08641487 1.1067594 1.2563304 1.2343341
0002d0 41 e0 8e 3f cf 80 46 3f cc d5 1c 3f 19 0e 74 3f
       1.1162187 0.77540296 0.6126373 0.9533401
0002e0 7e 27 3c 3f b7 89 a2 3f f6 95 97 3f 5d 2a 89 3f
       0.7349776 1.2698277 1.184264 1.0716053
0002f0 38 93 b1 3f 0a 27 b3 3e 60 1c 9b be 11 be 0d 3f
       1.3873053 0.34990722 -0.30295086 0.55368143
000300 9c 66 b2 3f 08 5c 9e 3f d2 59 ab 3f 67 3c 7c 3f
       1.3937564 1.2371836 1.3386786 0.98529667
000310 bd 58 9e 3f 01 4a 7e 3f 83 1b 84 3f c5 54 6b 3f
       1.2370831 0.9933167 1.0320896 0.91926223
000320 1b ef 8b 3f 4d 4e 47 3f b1 45 2c 3f a8 1e 93 3e
       1.0932344 0.7785385 0.6729384 0.28734326
000330 72 f6 d4 3e b0 22 58 be 13 d3 7a 3f 8c 2b 5e 3f
       0.41594273 -0.21106982 0.97978324 0.867852
000340 60 ac a2 3f 4f 1d b2 3f 86 b2 86 3f 27 64 a5 3f
       1.2708855 1.3915194 1.0523231 1.2921189
000350 80 44 37 be 35 cc 89 3e 43 b9 3f 3f a0 7e 83 3f
       -0.17897224 0.2691361 0.7489206 1.0273018
000360 9d 34 34 3f 66 ad 58 3f 60 81 a2 bd a0 05 09 3f
       0.7039278 0.84639585 -0.079348326 0.5352421
000370 52 d0 92 3f 20 f6 9d 3f 6b f0 a1 3f 31 9d 7b 3f
       1.1469824 1.2340736 1.2651495 0.9828673
000380 24 78 94 3f 54 05 80 3f 22 84 5e 3f 29 4c 95 3f
       1.1599164 1.0001626 0.8692037 1.1663867
000390 28 4d 24 3f 40 2c 2c 3f 36 8a b8 be c6 81 1f 3f
       0.6418023 0.6725502 -0.36042947 0.62307394
0003a0 fc 8a 41 3f a5 eb dc 3e 22 1a 8a 3f ce ba 3b 3f
       0.756027 0.43148533 1.0789225 0.73331916
0003b0 8e e1 8b 3f f3 00 a2 3f f6 ec 54 3f 9c f2 da be
       1.0928209 1.265654 0.83174074 -0.4276322
0003c0 c0 61 91 3f 40 29 e3 3e ea 30 42 3f 5c 71 bd 3e
       1.1357956 0.4436741 0.75855887 0.3700055
0003d0 2e 83 97 3e ce 8d 2e 3f ba 57 82 3f 9f dc 9a 3f
       0.2959227 0.68185127 1.0183022 1.2098578
0003e0 ff 71 9d 3f 2e 20 bc 3e 5f e7 f4 3e 28 f0 69 3f
       1.2300414 0.367433 0.47832772 0.91382074
0003f0 c9 1d d8 3e a2 b1 ed 3e 97 fb b9 3f a0 5a 89 3f
       0.42210224 0.46424586 1.4529904 1.0730782

weight f4 [256, 256]
000000 1a ec 2c bd 80 f7 e4 3c a0 f9 cb 3c fb 7e 64 bd
       -0.04221735 0.027950048 0.024899304 -0.05578516
000010 c4 18 0a 3c 50 de cb 3b d2 fa 56 bd 8a a3 5a bd
       0.008428756 0.00622157 -0.052485295 -0.05337862
000020 66 d5 1b bd 4c 66 f9 bc 58 9e bf bc d8 f3 4e bc
       -0.03804531 -0.030444287 -0.023390934 -0.012631379
000030 ee 7a 25 3d b2 a1 2b 3d 75 1c 1f 3d c8 4e cc 3c
       0.040400438 0.04190225 0.038845498 0.02493991
000040 d5 a2 9f 3c fd 88 0c bc 72 e1 e1 3c c8 d6 0a bd
       0.019486824 -0.008577582 0.027573321 -0.033896238
000050 36 74 00 3d 8b b8 63 bd 29 87 59 3c ab f3 7b 3c
       0.031360827 -0.055595916 0.013276854 0.015377919
000060 bc d4 0f 3d a7 50 2e bd ea 2d eb 3c fc 06 f8 bb
       0.03511499 -0.042557385 0.028708417 -0.007569192
000070 00 d7 4b ba eb 3d 00 bc a5 26 03 bc b8 af 2e bd
       -0.0007775873 -0.007827262 -0.008004819 -0.042648047
000080 f6 9b a9 3c cc 0d f4 bc e5 38 01 bc 60 c5 c2 3c
       0.02070425 -0.029791735 -0.0078871 0.023775756
000090 b3 38 fa 3b a4 1c 80 3c 4b 0d f2 3c 10 39 da 3b
       0.0076361536 0.015638657 0.029547354 0.0066596344
0000a0 a5 a9 9b 3c 82 86 66 3d 91 42 4a bc fe f4 78 3d
       0.019001791 0.05628062 -0.012344972 0.060780518
0000b0 f1 06 49 bd b2 02 51 bd 22 d4 e4 3c 2f 2c 2f bd
       -0.049078885 -0.05102796 0.027933184 -0.042766746
0000c0 ec b7 06 3c a8 64 b3 bc bd 50 0c bc 0f 21 a8 bc
       0.008222561 -0.021898583 -0.008564171 -0.020523576
0000d0 92 bc d7 bc 00 db 4e ba 13 0b 66 bd 15 b4 19 3d
       -0.026335035 -0.000789091 -0.056162905 0.037525255
0000e0 31 2b 44 bd 16 35 11 bd 64 23 4c bd c8 77 c1 3c
       -0.047892753 -0.035451017 -0.04983844 0.023616686
0000f0 0b 41 60 bd a7 34 a2 bc 14 d8 7a bc 21 2c 4e bd
       -0.05474953 -0.019800497 -0.015310306 -0.050335053
000100 a9 6e db 3a 2d 3c 8b bc f6 4f 25 3d 75 11 8c bd
       0.0016741353 -0.016996467 0.04035946 -0.06839267
000110 ea a9 5d 3d 91 85 c3 bc 82 e9 62 3d 80 8c 9e 3a
       0.05411712 -0.0238674 0.05539847 0.0012096316
000120 d4 df e7 bc c0 d0 a1 3c 0e 4c a5 3c 1a 3b db bc
       -0.028304972 0.01975286 0.020177867 -0.02676158
000130 38 9e f5 3c 5d aa 08 bd 80 e3 b1 bc 02 9a 5b bd
       0.029982671 -0.033365596 -0.021714926 -0.05361367
000140 69 66 53 3d 67 fb 36 3d 49 ae 53 3d 2c 2d 01 3d
       0.051611338 0.04467335 0.051679883 0.03153722
000150 a8 8a 4e 3d f8 84 31 bc 51 0b 4e bd 5f 56 2f bd
       0.0504252 -0.010834925 -0.05030376 -0.04280698
000160 fa 22 7b 3d ed f1 0d bd 82 1e 56 bb 35 40 18 3c
       0.061312653 -0.034654547 -0.0032671993 0.009292652
000170 10 22 45 3c 40 41 4b 3d 56 29 2d 3b 76 a3 04 bd
       0.012032047 0.049622774 0.0026422343 -0.03238245
000180 e0 5f 3c bc ac ce 7d bd 00 5e c1 3c 1d a4 88 bd
       -0.011497468 -0.061964676 0.023604393 -0.06671927
000190 e7 dd a4 bc 5a e7 50 bd 8e 53 2a 3d 66 98 a1 3c
       -0.020125343 -0.051001884 0.04158359 0.01972599
0001a0 2d 5f 01 bd 1f 0d 36 3d 6c 18 79 bd 8b 70 6f bd
       -0.031584907 0.044446107 -0.060814306 -0.05845694
0001b0 7f 73 33 3d 5e ac a9 3c 17 0f 28 bd 4d 5b 17 3d
       0.043811318 0.020712074 -0.041030016 0.036952306
0001c0 aa 8f 62 3d af 6d 3b 3d a2 b8 21 3d a1 0a 5e 3b
       0.05531279 0.0457589 0.03948272 0.0033880847
0001d0 5b 58 6c bd fd 97 16 3d 80 66 68 bb e0 5d 34 bd
       -0.05770145 0.03676604 -0.0035461485 -0.04403484
0001e0 8e ec 1d bd d0 58 bf bc b8 7d 46 3c 30 41 fe 3b
       -0.038555674 -0.023357779 0.012114935 0.007759236
0001f0 03 ea e4 ba b4 b9 26 bd 93 ef f4 3c bc bb 0f 3c
       -0.001746476 -0.040704444 0.029899394 0.008772787
000200 34 2e 02 3c 82 b4 56 bd 77 1e a7 bc 31 76 44 bc
       0.007945586 -0.05241824 -0.020400269 -0.01199107
000210 21 fb 51 3d d6 51 20 3d 29 d4 c8 bc 69 23 da 3c
       0.051264886 0.039140545 -0.024515228 0.026628213
000220 10 2f b0 bc 62 77 68 3d 79 81 55 3d 8e 8e 1c bd
       -0.021506816 0.056754477 0.052125428 -0.03822189
000230 52 85 08 bd 6a 1b ec 3c 23 38 65 3d 12 e5 e3 3c
       -0.03333027 0.028821666 0.05596174 0.02781919
000240 9b cd e6 bc 02 b4 d4 bc 04 e1 f2 bc 05 ae 87 bd
       -0.028174212 -0.02596474 -0.029648311 -0.066249885
000250 48 3d 38 bd 10 30 4b 3d 83 91 e0 bc 0c 65 49 3d
       -0.044980317 0.049606383 -0.027413135 0.04916863
000260 e0 e9 34 bb a4 95 49 3d 5c 1a 07 3d 3b e9 fd 3c
       -0.002760522 0.049214974 0.032984123 0.030995002
000270 88 16 33 bd e2 03 5c bc 08 a7 36 bd fc 20 7c bd
       -0.04372266 -0.01342866 -0.044592887 -0.061554894
000280 cc e1 8b 3c 5e 6d a7 3c 12 0d 55 bd 90 d5 be bb
       0.017075442 0.020437893 -0.052014418 -0.0058237985
000290 00 5f 45 3b 51 15 c4 bc f2 38 e2 3b e1 3c 5f 3d
       0.003011644 -0.023935946 0.006903761 0.054501418
0002a0 45 ae 88 ba dc c7 19 bd c8 56 39 3d 7a 13 5f bd
       -0.0010427913 -0.037544116 0.045248777 -0.054461934
0002b0 97 04 30 3d b1 43 db 3c e9 c5 5a 3c 72 18 5d bd
       0.042973127 0.026765676 0.0133528495 -0.05397839
0002c0 82 38 6f 3d d3 ad 67 bd 32 34 e8 3c 50 59 41 3d
       0.0584035 -0.056562256 0.028345201 0.047204316
0002d0 08 7e 41 3c c7 49 38 3c 33 a2 77 3c 35 07 95 3a
       0.011809833 0.011248059 0.015114355 0.0011369946
0002e0 f3 12 f9 3a 68 9d 4e 3d 78 e1 c5 3b bb 7b f0 3c
       0.001900284 0.050443083 0.006038841 0.029355874
0002f0 f2 99 56 bd 44 41 93 bc 16 80 46 bd e9 ad 5e 3d
       -0.052392907 -0.017975457 -0.048461996 0.054365072
000300 ad c3 1c 38 68 66 3a bd 58 fa b8 bb ad 14 1c 3d
       3.7375536e-05 -0.04550782 -0.0056450777 0.038105655
000310 45 8a 0e bd 79 33 c9 bc e9 05 48 bd 5e 8a 1e bd
       -0.034799833 -0.024560677 -0.04883376 -0.038706176
000320 70 95 44 3d df d4 b5 3c cd bd 11 3c 40 cf e8 3c
       0.047994077 0.022196231 0.00889535 0.028419137
000330 1d b6 85 bd d8 cb 4f 3c c3 28 66 ba 3e a4 ae 3c
       -0.06528876 0.0126828775 -0.00087798777 0.021318551
000340 f8 5f 4c 3d 47 8f a2 bc a7 a4 b9 3c 7f 05 a4 bc
       0.04989621 -0.01984371 0.02266152 -0.020022152
000350 c8 00 2b 3c 30 36 3e 3d a3 08 ef bc 07 ad b5 38
       0.010437198 0.046438396 -0.029178923 8.6629814e-05
000360 80 ea 4d 3d c3 28 e6 bc 80 55 13 3b 2c 9f 07 3d
       0.050272465 -0.028095609 0.0022481382 0.033110783
000370 2d 60 05 bd 5a e3 d9 bc 46 17 1d bd ba ee 61 3d
       -0.032562423 -0.026597667 -0.038352273 0.055159308
000380 0e 5a 92 bc c9 d2 cf bc 43 94 6b bd fd a8 0f bd
       -0.017865207 -0.025369065 -0.05751444 -0.03507327
000390 df 88 b1 3b 9d 71 1f 3d 2f 77 2f bd 01 98 c8 bb
       0.0054179276 0.03892671 -0.04283827 -0.006121636
0003a0 f0 92 3a bd b6 e1 2d 3d 21 b7 54 3d 62 19 67 3c
       -0.045550287 0.042451583 0.051932458 0.014105173
0003b0 8e 75 9c bc 5e 75 2e 3d 6c fc 05 3d f0 2e 70 3d
       -0.019099023 0.0425924 0.03271143 0.058638513
0003c0 84 8d 82 3c 5f d8 2a bc c6 10 1c bc 80 3e d3 bb
       0.01593662 -0.010427563 -0.0095254835 -0.0064466596
0003d0 3c c9 66 bd 26 db 99 bc 69 1a 4f bd 6e ae 2b 3d
       -0.056344256 -0.018781256 -0.050562296 0.041914396
0003e0 4a fa 57 bd d2 26 37 bd 0c 2c 89 3a 87 76 bc 3b
       -0.05272893 -0.044714756 0.0010465397 0.0057514342
0003f0 99 77 53 3d 65 c8 19 3d 88 93 cc 3c 2d dc 1a 3c
       0.05162773 0.037544627 0.024972692 0.009451908

bias f4 [256]
000000 08 7f 45 3d ba 53 6b bd 25 e6 13 3d b0 b5 15 3f
       0.04821685 -0.057452895 0.036108155 0.5848036
000010 32 d9 d9 3c 6f 2d 02 3f 1a 00 50 bd 50 5b 49 3d
       0.026592825 0.50850576 -0.050781347 0.049159348
000020 17 04 1c 3f e6 f8 13 bd f9 77 08 3f 69 2a 44 bd
       0.6094374 -0.03612604 0.53308064 -0.047892008
000030 c0 8a 0a 3f 2a 0b 00 3f 3a 96 6d bd 2c c7 ed 3e
       0.54117966 0.50017035 -0.058004595 0.4644102
000040 93 87 ec 3e 38 80 21 3c 00 9f 91 3c 50 b7 28 3f
       0.46197185 0.00985723 0.017776012 0.6590471
000050 0c 4b 09 3f 20 12 61 bc 42 d9 13 bd 0b 0a 06 3f
       0.5363014 -0.0137372315 -0.036095865 0.52359074
000060 78 43 3e bd 99 66 da 3c 08 b3 11 3f ec 59 05 3d
       -0.046451062 0.02666025 0.56913805 0.03255646
000070 c4 73 7f bd 73 1a 65 bd 30 9b 0f 3f e1 2c 51 3d
       -0.062366262 -0.055933427 0.5609617 0.05106819
000080 0a fa 0a 3f 2a c4 29 3f df 61 ab bc c2 e9 51 bd
       0.5428778 0.6631495 -0.020920692 -0.05124832
000090 c9 77 41 bd 57 de 2c bb fe 01 16 bd 84 b8 00 3f
       -0.047233377 -0.0026377642 -0.036622994 0.5028155
0000a0 80 36 63 bc ea 10 61 bd c2 4c 10 3f 2c 2b 6a bd
       -0.013867974 -0.05494777 0.56367123 -0.05717008
0000b0 7e a5 53 bd c8 f9 3c bb 38 fe 12 3f 85 c2 09 3f
       -0.051671498 -0.0028835405 0.5741916 0.5381244
0000c0 9e 63 66 bd 08 31 88 3c 20 2b d5 bc 0c 79 12 3f
       -0.056247346 0.016624942 -0.02602154 0.5721595
0000d0 65 1a 04 bd 75 ff 02 3f a6 49 12 bd f4 b0 09 3f
       -0.032251734 0.51171046 -0.035714768 0.53785634
0000e0 9b 07 ee bc 38 bc 42 3d aa 13 0f 3f 7b 8c 68 bd
       -0.029056361 0.04754278 0.5588938 -0.056774598
0000f0 08 a6 17 bd bf b5 f9 3e 52 7f dc bc 87 fa 3f 3d
       -0.037023574 0.48771474 -0.02691618 0.04686978
000100 60 f7 42 3d 98 06 38 bd 94 58 03 3d c1 24 56 39
       0.047599196 -0.044928163 0.032066897 0.00020422322
000110 17 37 e1 3e 5c 88 37 3f 85 92 16 3d 53 11 00 3f
       0.43987343 0.7169244 0.036760826 0.50026435
000120 25 71 21 3f f4 1b 0f 3f 5d d5 f6 3e 8b ca 0c 3f
       0.6306327 0.5590203 0.48209658 0.54996556
000130 37 be 35 3d d0 0b dd 3b 7d 2b 27 3f 58 d7 d3 3c
       0.044370856 0.006745793 0.6530073 0.02585952
000140 26 08 9f bc 48 cb 4a 3d 37 d9 0a 3f 99 c4 ff 3e
       -0.019413065 0.04951027 0.54237694 0.4995468
000150 5c 33 04 3f 46 82 a0 3b aa e2 79 3d 0f 06 39 3d
       0.5164087 0.0048983423 0.06100718 0.045171794
000160 68 06 ca 3c 24 9c 0d 3f ac 50 0a 3d b4 06 11 bd
       0.024661258 0.55316377 0.03376834 -0.035406783
000170 17 8f 1e 3f 8f 34 00 3f 16 a0 61 3d 4e 24 9c bc
       0.6193709 0.500802 0.05508431 -0.01906028
000180 ed 97 83 bc 28 98 7f 3c 49 12 54 3d 66 5d 32 bd
       -0.016063655 0.015600242 0.05177525 -0.043546103
000190 8b fd e4 bc 3f e0 12 3f d8 17 f4 3e b0 14 f4 3e
       -0.02795293 0.5737342 0.4767444 0.47672033
0001a0 f4 b5 05 3f b9 a7 0e 3f dc 7f 02 3f 43 35 2a 3f
       0.52230763 0.55724674 0.5097635 0.6648752
0001b0 ed 48 0c bc e0 ce b6 bc 2c b3 0d bd fb ff 14 3f
       -0.008562309 -0.022315443 -0.0345947 0.58203095
0001c0 f0 1d 17 3f 20 3c 43 3d 56 74 11 3f 9d 24 17 3c
       0.59030056 0.04766476 0.5681814 0.009225038
0001d0 21 af 4d bd 79 53 17 3f bc a4 0c 3f 24 f8 77 bd
       -0.050215844 0.59111744 0.54938865 -0.06053938
0001e0 f8 da 0b 3d ca a8 56 bb 59 86 43 bb 50 a6 49 3d
       0.03414437 -0.0032754415 -0.0029834716 0.049230874
0001f0 30 4b 6f 3e 25 20 18 3f 04 7a 7f ba 61 e7 fa 3e
       0.23368526 0.5942405 -0.000974566 0.49004653
000200 06 9f 15 3f f6 d1 1f bd fc b0 13 3f 67 6c 00 bd
       0.58445776 -0.039018594 0.5769193 -0.03135338
000210 25 2f 0c bd 08 98 37 3c e0 95 b3 bc f6 9b 90 bc
       -0.034224648 0.011205681 -0.021922052 -0.017652493
000220 38 60 9c 3c d5 a8 9e 3c 47 6e 1f 3f 72 8b e0 3e
       0.01908885 0.019367615 0.62277645 0.43856388
000230 75 a9 ec 3e b9 38 09 3f 9a ea dd bb 16 e6 19 3f
       0.46223035 0.53602177 -0.0067723515 0.6011671
000240 a2 06 67 3d be 95 00 3f 2b 34 eb bc 57 4c 23 bd
       0.05640281 0.5022849 -0.028711399 -0.039867725
000250 54 2e 6b 3d 2b 01 fb 3e da 98 db bb 72 9e 0c 3f
       0.05741723 0.4902433 -0.006701571 0.5492927
000260 06 e6 1f bd b5 57 92 3c 89 8e 51 3b 9c dc b1 bc
       -0.039037727 0.017864088 0.0031975827 -0.02171164
000270 4c 33 f4 bc fc 80 d9 3c f7 f3 ed 3e ea 1a 2a bd
       -0.029809617 0.026550762 0.46475193 -0.041529574
000280 ba 87 14 3f 6b 71 17 3f b2 06 02 3f 47 6a e9 3e
       0.580196 0.5915744 0.50791466 0.45588896
000290 32 67 6c 3d 3f 49 08 3f 34 64 22 3d 5f 27 22 bd
       0.057715602 0.53236765 0.039646342 -0.03958833
0002a0 de dd a7 3b 64 13 13 3f 5e 64 0d 3f 77 3e 02 3f
       0.005122884 0.5745146 0.55231273 0.50876564
0002b0 30 aa 33 bc e8 93 e5 bc 5f 02 bd 3b 64 81 f7 bc
       -0.010965869 -0.028024629 0.005768105 -0.030213065
0002c0 9e ae 19 bd 2a 1a 04 3f b6 b4 09 3f c0 d8 a0 bb
       -0.037520044 0.51602423 0.5379137 -0.004908651
0002d0 d0 90 56 bc 13 d8 61 bd 1b 5d e6 bc c0 58 c5 3c
       -0.013096049 -0.055137705 -0.028120568 0.02409017
0002e0 34 d3 73 bd d6 c4 03 3f 53 f3 6a bd c0 cf 9f 3b
       -0.05952759 0.5147222 -0.05736096 0.0048770607
0002f0 b6 33 18 bd f2 ef d0 bb 36 1c 09 3f 96 02 18 3f
       -0.03715869 -0.00637626 0.5355867 0.59378946
000300 f0 02 39 bd d5 33 8c bd 5b 69 7e 3c 58 7d 08 3f
       -0.045168817 -0.06845824 0.015528048 0.5331626
000310 e4 e2 ba 3c 8a 4c 5a bd 18 c1 17 3f 6e 91 32 bd
       0.022813268 -0.05329565 0.5927901 -0.043595724
000320 b7 09 38 3b bc 40 fe bc 4a 60 29 bd 7c 5b 10 3f
       0.0028081962 -0.031036727 -0.041351594 0.56389594
000330 a7 11 2c bc c9 8b 14 3f 2c a1 16 3f 52 d7 ee 3e
       -0.0105022555 0.58025795 0.5883968 0.4664865
000340 93 9b 69 bd a3 6d 1a 3f 86 33 11 bc c5 58 10 3c
       -0.057033133 0.6032354 -0.008862382 0.008810227
000350 6f ae 12 3f 67 0f 23 bd df 08 07 3f 2f 69 21 3f
       0.57297415 -0.03980961 0.5274791 0.6305112
000360 2b 4d f6 3e 4a 49 27 3d 01 19 59 3d 04 2b e5 3c
       0.4810575 0.04084138 0.05300236 0.027974613
000370 56 78 22 3f 58 bb 10 3f 8d e5 81 bd 05 95 fe 3e
       0.6346487 0.56535864 -0.063426115 0.49723068
000380 4d b1 0e 3f ae 52 1a bc 45 ae 15 3f 52 5b 77 3d
       0.5573929 -0.009419126 0.5846904 0.060389824
000390 d0 49 19 3f 52 2f 3d 3d cc 65 2b bd 9f d9 2f bd
       0.59878254 0.046187706 -0.041845128 -0.04293215
0003a0 fd 79 f8 3e 42 44 13 3f 0a 37 3d bd 64 00 1c 3f
       0.4853057 0.5752603 -0.046195067 0.60938096
0003b0 08 f7 01 3f 33 9b 1b 3f 92 c0 60 3d 89 b2 fb 3e
       0.50767565 0.6078369 0.05487115 0.4915965
0003c0 44 d6 0f 3f 0a 9d 01 3f 2a 9e 6d 3d 42 15 63 3d
       0.5618632 0.5063025 0.058012165 0.055440195
0003d0 84 8c 7e bd af 62 28 bd 66 e0 2e 3d b2 bc e4 3b
       -0.062145725 -0.041109737 0.04269447 0.006980502
0003e0 22 89 64 3d 8d 2c 0d 3f d0 d9 b6 bc d9 94 06 3f
       0.055794843 0.55146104 -0.022320658 0.52570873
0003f0 b0 33 15 3f 84 f5 7c 3d af 81 10 3f 96 fc 28 3d
       0.58281994 0.06175758 0.5644788 0.04125651

weight_mu f4 [1, 256]
000000 54 5e 07 3d 09 60 46 3d 5f 95 31 3d 14 cd 49 bf
       0.033048943 0.04843143 0.043355342 -0.7882855
000010 70 85 7d bd e5 c7 58 bf 5e de 29 3d 54 8b 8c 3c
       -0.061894834 -0.84680015 0.04147183 0.01715628
000020 5c f1 4f bf cb 0f 7c 3c f3 83 57 bf 0a bf 64 3c
       -0.8122766 0.015384625 -0.84185714 0.013961563
000030 9c c1 4c bf 60 57 50 bf e0 46 2c 3d 64 45 53 bf
       -0.79982924 -0.81383324 0.04205978 -0.82527757
000040 cd b2 51 bf 9b 29 60 bd f4 f5 d1 3c e4 96 4f bf
       -0.81913453 -0.054727178 0.025629975 -0.81089616
000050 ed ae 1a bf 60 1f 7a 3b 42 e4 1c 3d ea ee 51 bf
       -0.60423166 0.0038165674 0.03830362 -0.8200518
000060 49 ae 53 3d cf bd 2a bc c7 8e 50 bf 08 3a 44 3d
       0.051679883 -0.01042123 -0.8146786 0.047906905
000070 74 7f 82 3c 6f 3f b1 3c 33 9e 53 bf cc 12 88 3c
       0.015929915 0.021636693 -0.8266327 0.016610526
000080 06 32 52 bf 96 4a 4c bf 70 31 5d 3d a8 77 05 bc
       -0.8210758 -0.7980131 0.054002225 -0.008146204
000090 66 3c 28 3d 62 b4 62 3d 60 a9 cf 3c 19 b3 47 bf
       0.041073225 0.055347808 0.025349319 -0.78007656
0000a0 64 08 af bc 1c a1 38 bd 90 20 4f bf 76 c3 1f bd
       -0.021366306 -0.04507552 -0.8090906 -0.039004765
0000b0 00 94 82 bb a5 19 1a 3d 7b 17 44 bf c6 65 51 bf
       -0.003984928 0.037622113 -0.7659833 -0.8179592
0000c0 f2 c8 6a bd 70 f6 76 3c 18 42 00 3d 4f 84 4c bf
       -0.057320543 0.015073404 0.031313032 -0.79889387
0000d0 df 6a b6 3c 8f 5c 57 bf 7d ac 1d 3d 3e 6d 4e bf
       0.022267757 -0.8412561 0.038494576 -0.8063544
0000e0 e6 40 21 3d da c1 7a bd 99 0a 4f bf 7c 86 82 3c
       0.039368533 -0.061220028 -0.80875546 0.015933268
0000f0 56 0c 17 bd 31 67 4a bf c0 41 34 bc 3a ee 5f 3d
       -0.036877 -0.7906371 -0.011002004 0.05467055
000100 ef d7 3b 3d c3 08 fc 3c 60 a0 6f 3b bf a4 30 3d
       0.045860227 0.030765897 0.0036564097 0.043125864
000110 31 87 57 bf b3 48 51 bf 8f 5a ad bc 94 88 4c bf
       -0.8419066 -0.81751555 -0.021161346 -0.798959
000120 09 87 59 bf 1e 45 4d bf b3 96 4e bf c6 d2 50 bf
       -0.8497167 -0.8018359 -0.806987 -0.81571615
000130 35 e3 1a 3d 1c 5f 50 3d 9c 92 50 bf 3c 0b fe bc
       0.037814338 0.050871953 -0.8147371 -0.031011216
000140 b1 76 5f 3b 6d 00 16 3d 4a 0a 50 bf cf af 52 bf
       0.0034097845 0.0366215 -0.812657 -0.8229951
000150 38 6f 52 bf 79 37 d9 3c 80 be 6a 3b e2 4a 65 3d
       -0.82200956 0.02651571 0.0035819113 0.055979617
000160 6d 9b 11 3d a9 ca 53 bf 20 10 45 bd da 51 2a 3d
       0.035548616 -0.8273111 -0.04811108 0.041581966
000170 77 11 52 bf 99 09 4d bf 14 0f 1f 3d 79 fd d1 3b
       -0.820579 -0.8009277 0.03883274 0.00640839
000180 77 4d 34 3d 38 1f 2f 3c 42 aa 5f ba 74 37 a0 bc
       0.04401919 0.0106885955 -0.00085321453 -0.019557692
000190 fb ac ed bc d7 76 4b bf ee 1e 4f bf d1 7a 58 bf
       -0.029013148 -0.7947821 -0.8090657 -0.845624
0001a0 6c 78 4f bf a0 67 51 bf 28 fa 4e bf 19 75 4a bf
       -0.81043124 -0.81798744 -0.8085046 -0.79084927
0001b0 fb 5c 72 3d a3 ff 7c 3d e0 0b cb bb 0a 32 51 bf
       0.059170704 0.06176723 -0.006196484 -0.8171698
0001c0 8c c9 54 bf f8 5c 40 3d 1c 0f 55 bf fe cc 22 3d
       -0.83120036 0.046963662 -0.8322618 0.039746277
0001d0 19 fc 58 3d 20 90 4d bf fe 30 4c bf ed 5f 1d 3d
       0.052974794 -0.8029804 -0.79762256 0.03842156
0001e0 c0 6a 10 bc 60 82 49 3d cf 89 3b 3d 68 45 4c 3d
       -0.008814514 0.0491966 0.04578572 0.04987088
0001f0 b0 4f 95 be 53 4e 4f bf 3c b4 1b 3d 84 6b 50 bf
       -0.2916236 -0.8097889 0.03801368 -0.81414056
000200 a8 e9 50 bf 96 31 20 bd a3 09 51 bf f6 36 a5 3c
       -0.8160653 -0.03910979 -0.8165533 0.020167809
000210 ea 66 6e 3d aa 76 06 3d 6f dd 38 3d de 58 20 3d
       0.058203615 0.03282801 0.04513305 0.03914725
000220 a0 7b 4e 3d c4 f2 87 39 73 9c 52 bf 0c f4 55 bf
       0.050410867 0.0002593008 -0.8226997 -0.8357551
000230 c6 be 52 bf 69 3d 52 bf d7 f9 36 3d 76 b2 4d bf
       -0.8232235 -0.82124954 0.04467186 -0.80350435
000240 f0 4f c1 3c ae 2e 4e bf ae 95 ac 3c 61 e4 5a 3d
       0.023597687 -0.8053998 0.021067467 0.053440455
000250 ec 2a 31 bd 75 7c 4a bf 6a 06 63 3d 0f 46 4f bf
       -0.043253824 -0.79096156 0.05542604 -0.80966276
000260 88 c3 44 3d e5 19 1b 3d 2a 8f 60 3d 86 a7 12 3d
       0.048038036 0.03786649 0.054824032 0.035804294
000270 c0 22 4e 3d 36 16 6c 3d fa 1e 54 bf 78 1d 6a 3c
       0.05032611 0.05763837 -0.82859766 0.014289252
000280 3a d4 51 bf 0f 75 4f bf b5 51 4b bf 40 2f 58 bf
       -0.8196446 -0.8103799 -0.7942155 -0.844471
000290 b4 a6 09 3d 07 65 4f bf 22 03 27 bd 28 e2 4e 3d
       0.033606246 -0.8101353 -0.040774472 0.05050865
0002a0 35 40 98 3c 64 64 4e bf ac b3 55 bf c4 a8 4a bf
       0.018585304 -0.80621934 -0.8347728 -0.79163766
0002b0 7c 9c 0f 3d c6 e1 7b 3d 59 54 5c 3d 52 7c e9 3c
       0.035061345 0.06149461 0.053791378 0.028501663
0002c0 96 22 2b 3d 81 8f 4c bf a7 1b 4a bf 7e f2 57 3d
       0.04178103 -0.7990647 -0.78948444 0.052721493
0002d0 b8 ba b4 bc 7f 34 31 3d 82 d2 6a 3d 3b 51 75 3d
       -0.02206169 0.043262955 0.057329662 0.05989192
0002e0 1f 46 39 3d 9f 6c 4f bf a1 10 c4 bb 40 2c e7 3c
       0.04523289 -0.8102512 -0.0059834276 0.028219342
0002f0 3c f3 fb 3c d3 a9 70 3d ba a2 49 bf ea a0 4d bf
       0.030755632 0.058755707 -0.78763926 -0.8032366
000300 56 08 26 3d 56 2e 28 3d 7e 36 20 3d a4 39 53 bf
       0.040535294 0.041059814 0.039114468 -0.8250983
000310 08 61 17 3c 34 d8 f6 bc 38 cf 4a bf 4c 5c 82 3c
       0.009239443 -0.03013239 -0.7922244 0.015913151
000320 cc 51 0a 3b 82 55 6a 3d 14 34 32 bd 12 72 4d bf
       0.0021105884 0.057210453 -0.043506697 -0.8025218
000330 45 ba 1f 3d ca 09 53 bf 57 0d 4e bf 88 81 51 bf
       0.038996 -0.8243681 -0.80489105 -0.81838274
000340 8d f9 9f 3b 8d e3 53 bf f6 af ae 3c 9f e7 35 3d
       0.0048820437 -0.8276909 0.02132414 0.044410344
000350 b5 54 4a bf 30 70 45 3d 4c f5 52 bf aa ae 4c bf
       -0.790355 0.048202693 -0.82405543 -0.79954016
000360 f1 aa 52 bf 6e 35 09 bd 3c 06 0e 3d f8 3d 95 3c
       -0.82292086 -0.03349822 0.034673914 0.018218026
000370 c5 ed 4a bf fe b4 4a bf 40 84 c4 3a 8f 6c 4f bf
       -0.7926906 -0.7918242 0.0014993027 -0.8102502
000380 6d 78 51 bf 16 71 20 3d 6d 46 50 bf 4c 00 5d 3d
       -0.8182438 0.039170347 -0.8135746 0.05395536
000390 07 11 4e bf a4 81 e4 3c 50 2f 9b 3c 51 53 42 bd
       -0.8049473 0.027893849 0.018943459 -0.047442738
0003a0 26 4d 48 bf dd c1 54 bf dc 85 1a 3d e2 a2 49 bf
       -0.7824272 -0.8310831 0.037725314 -0.78764164
0003b0 f8 6c 55 bf 21 16 50 bf 88 eb 9a 3c d2 23 57 bf
       -0.833694 -0.81283766 0.018911138 -0.8403903
0003c0 72 e5 56 bf 92 53 4d bf 2c 38 ac 3c f7 6e 3d 3d
       -0.83943856 -0.80205643 0.021022879 0.046248402
0003d0 94 12 84 3c 35 aa 17 3d 89 50 53 3d 76 b4 27 3d
       0.01612214 0.037027556 0.051590476 0.040943585
0003e0 ad f4 18 3d ee d4 52 bf 09 66 5e 3d 2c af 4c bf
       0.037342716 -0.82356155 0.054296527 -0.7995479
0003f0 ad 08 4e bf a2 57 72 3d 63 f0 54 bf 6a 46 69 3d
       -0.8048199 0.059165604 -0.831793 0.056951918

weight_sigma f4 [1, 256]
000000 ab af fe 3c 00 00 00 3d 9d 5d 01 3d c1 51 22 3d
       0.031089624 0.03125 0.031583417 0.039628748
000010 00 00 00 3d c1 8d c5 3c f3 32 fc 3c f3 20 ff 3c
       0.03125 0.024115445 0.030786013 0.031143641
000020 77 67 fc 3c f5 ea 07 3d a7 04 e6 3c ad f5 03 3d
       0.030811055 0.033183057 0.02807839 0.032216717
000030 f7 26 4c 3d 8b 8e 14 3d 00 00 00 3d cf 44 1f 3d
       0.049841847 0.036268752 0.03125 0.03888398
000040 87 62 0b 3d 00 00 00 3d 00 00 00 3d a1 9f f4 3c
       0.03402951 0.03125 0.03125 0.029861273
000050 5e 45 de 3c 00 00 00 3d 00 00 00 3d 02 b3 9f 3c
       0.027132686 0.03125 0.03125 0.019494537
000060 c3 46 fa 3c e3 eb f8 3c 70 32 c6 3c 6f 73 00 3d
       0.03055132 0.030385917 0.024193972 0.031360086
000070 0d a7 01 3d 15 cd 00 3d b7 6b e1 3c 53 74 fb 3c
       0.031653453 0.03144558 0.027517183 0.030695116
000080 0c 5a 14 3d 8d f5 7f 3c 23 c7 fb 3c 00 00 00 3d
       0.036218688 0.015622509 0.030734604 0.03125
000090 43 41 fd 3c a5 3f 03 3d fd 28 03 3d 9b 97 e0 3c
       0.030914908 0.032043118 0.03202151 0.027416041
0000a0 00 00 00 3d 00 00 00 3d 4d 54 0c 3d 00 00 00 3d
       0.03125 0.03125 0.034260083 0.03125
0000b0 00 00 00 3d 03 ac ff 3c 24 c0 da 3c 38 8c 86 3c
       0.03125 0.031209951 0.026702948 0.016424283
0000c0 00 00 00 3d 00 00 00 3d 00 00 00 3d 7b 2c e6 3c
       0.03125 0.03125 0.03125 0.028097382
0000d0 15 f9 01 3d 35 d3 29 3d e5 c2 03 3d 32 84 f1 3c
       0.031731684 0.04146119 0.032168288 0.029481981
0000e0 33 33 fd 3c 00 00 00 3d 44 00 24 3d 15 7c 01 3d
       0.030908203 0.03125 0.040039316 0.031612474
0000f0 00 00 00 3d f5 07 b3 3c 83 e1 f4 3c cb 72 f8 3c
       0.03125 0.02185438 0.029892689 0.030328175
000100 53 74 fb 3c fb af f9 3c 00 00 00 3d 25 7e 03 3d
       0.030695116 0.030479422 0.03125 0.032102723
000110 d3 0b f9 3c 32 99 d6 3c 0b cb fb 3c b1 3b 01 3d
       0.030401146 0.026196096 0.030736467 0.031551067
000120 22 7c c0 3c cf a3 0a 3d 2c 72 04 3d 98 a3 3d 3d
       0.023496691 0.033847626 0.032335445 0.046298593
000130 1b e5 f9 3c 00 00 00 3d 03 90 d1 3c 00 00 00 3d
       0.030504754 0.03125 0.025581365 0.03125
000140 bb ef fe 3c 8b 2c f2 3c 8b e7 ea 3c 0a 6f df 3c
       0.031120172 0.029562255 0.028674861 0.027274627
000150 40 19 e2 3c 03 f0 fc 3c 00 00 00 3d 45 4f 03 3d
       0.02759993 0.030876165 0.03125 0.03205802
000160 13 36 fc 3c 4f b0 02 3d 00 00 00 3d 00 00 00 3d
       0.030787503 0.031906422 0.03125 0.03125
000170 8e 95 f9 3c 6d d9 cc 3c 00 00 00 3d 05 2a 04 3d
       0.030466821 0.02500602 0.03125 0.032266635
000180 83 91 00 3d 00 00 00 3d 5d a8 00 3d 00 00 00 3d
       0.03138877 0.03125 0.031410564 0.03125
000190 3b fc fe 3c 33 90 fe 3c 88 ea 77 3c 8c 92 0b 3d
       0.031126132 0.031074619 0.0151316 0.034075305
0001a0 99 cf ea 3c 11 dc d7 3c b4 7b b7 3c 2a 78 b4 3c
       0.028663443 0.026350053 0.022397853 0.022029955
0001b0 4b 8d fe 3c 95 50 02 3d 00 00 00 3d a0 ce 24 3d
       0.031073233 0.03181513 0.03125 0.040236115
0001c0 ef fd 1e 3d a3 0b fb 3c 49 cc 06 3d cb 84 f5 3c
       0.03881639 0.030645197 0.032909665 0.029970547
0001d0 fb ff f4 3c ee 26 28 3d 3b e4 03 3d 85 9a 04 3d
       0.029907217 0.04105275 0.03220008 0.032373924
0001e0 00 00 00 3d 5d 96 03 3d b5 6c 02 3d 25 26 01 3d
       0.03125 0.03212582 0.031841952 0.031530518
0001f0 fd 86 b4 3c 29 ac 09 3d 00 00 00 3d 69 51 93 3c
       0.022037024 0.03361145 0.03125 0.017983155
000200 fa a0 9c 3c 00 00 00 3d dd 2f e4 3c f3 32 fc 3c
       0.019119728 0.03125 0.027854854 0.030786013
000210 45 10 01 3d 00 00 00 3d 23 56 f9 3c 9d 51 03 3d
       0.031509656 0.03125 0.030436581 0.032060254
000220 00 00 00 3d e3 24 fc 3c d0 34 22 3d 92 f8 c6 3c
       0.03125 0.030779308 0.039601147 0.02428845
000230 0d f2 30 3d 31 41 18 3c b5 85 02 3d 26 3f 84 3c
       0.043199588 0.009292887 0.031865794 0.016143393
000240 1d 7d 02 3d 5a b7 d7 3c 94 84 0a 3d 7b 8a f9 3c
       0.0318576 0.026332546 0.033817843 0.03046154
000250 00 00 00 3d 57 df ed 3c 95 0b 01 3d d9 f2 10 3d
       0.03125 0.02903716 0.031505186 0.035387848
000260 33 64 f9 3c 4a 97 00 3d 35 b1 01 3d 00 00 00 3d
       0.030443287 0.03139428 0.03166314 0.03125
000270 2b e8 ff 3c 00 00 00 3d a8 3d 1f 3d 00 00 00 3d
       0.031238636 0.03125 0.03887716 0.03125
000280 1c 98 1e 3d ea 50 d9 3c d7 d8 e5 3c 50 6b 23 3d
       0.03871928 0.02652784 0.028057499 0.039897263
000290 7b 3f f9 3c e2 c4 e3 3c 00 00 00 3d eb 1d f6 3c
       0.030425778 0.027803842 0.03125 0.030043563
0002a0 85 c7 09 3d 0d bc 12 3d bc de be 3c 55 de c3 3c
       0.033637542 0.03582387 0.023299567 0.023909727
0002b0 eb c6 f7 3c 00 00 00 3d 13 d3 ff 3c 83 dd fd 3c
       0.030246219 0.03125 0.031228578 0.030989414
0002c0 6d 40 03 3d 3e 39 f5 3c d3 8b 0e 3d 00 00 00 3d
       0.032043863 0.029934522 0.034801316 0.03125
0002d0 00 00 00 3d 3d de 03 3d 5d 7d 03 3d fb 9d fc 3c
       0.03125 0.032194365 0.032101978 0.03083705
0002e0 db 93 00 3d b0 5d 1d 3d 95 e6 02 3d 00 00 00 3d
       0.031391006 0.038419425 0.03195818 0.03125
0002f0 00 00 00 3d f3 55 f2 3c 0e 06 af 3c 8f e9 20 3d
       0.03125 0.029582 0.021365192 0.03928524
000300 13 8d fa 3c eb d9 f8 3c c3 47 fe 3c fe 1d cc 3c
       0.030584848 0.030377349 0.031040078 0.024916645
000310 00 00 00 3d 00 00 00 3d 5a e8 24 3d 75 21 01 3d
       0.03125 0.03125 0.04026065 0.031526048
000320 6d 0e 03 3d 1b 18 fe 3c 00 00 00 3d 4f 35 25 3d
       0.03199618 0.031017354 0.03125 0.040334042
000330 2f 6d 00 3d 3c db 08 3d a9 e6 f9 3c 3a 20 b6 3c
       0.031354126 0.033412203 0.030505495 0.022232164
000340 33 27 ff 3c 95 80 2e 3d 3b 65 fa 3c 43 7f fb 3c
       0.031146621 0.042603094 0.030565849 0.030700332
000350 6d aa d0 3c c3 ab fe 3c 44 bb 20 3d 0f 14 e1 3c
       0.02547189 0.031087762 0.03924109 0.027475385
000360 2a 5a fb 3c 00 00 00 3d 15 bb 03 3d 00 00 00 3d
       0.030682642 0.03125 0.032160837 0.03125
000370 20 f8 f5 3c 96 da 08 3d 73 e1 fa 3c 17 e7 04 3d
       0.030025542 0.033411585 0.03062508 0.032446947
000380 5a d8 1d 3d 35 a5 03 3d 6e 4f 02 3d 00 00 00 3d
       0.038536407 0.032139976 0.03181403 0.03125
000390 44 cb e2 3c 00 00 00 3d 00 00 00 3d 43 0f fd 3c
       0.027684815 0.03125 0.03125 0.030891066
0003a0 f2 14 e3 3c 2f 18 24 3d 00 00 00 3d 3b 99 c3 3c
       0.027719948 0.040062126 0.03125 0.023876777
0003b0 02 6d 05 3d 91 64 d7 3c 00 00 00 3d fb 71 f3 3c
       0.03257466 0.026293071 0.03125 0.029717436
0003c0 14 2f cd 3c 52 13 ba 3c 00 00 00 3d 1b a8 ff 3c
       0.025046863 0.02271429 0.03125 0.031208089
0003d0 c4 3c 04 3d a3 f3 fe 3c f3 9d ff 3c f5 e2 00 3d
       0.032284513 0.031122034 0.031203246 0.031466443
0003e0 ed 46 04 3d c4 72 cd 3c 5d 0c 01 3d fc d5 08 3d
       0.032294203 0.025079139 0.03150593 0.033407196
0003f0 27 f8 26 3d 00 00 00 3d eb d3 c3 3c cf 4a 00 3d
       0.040764 0.03125 0.023904761 0.031321343

weight_epsilon f4 [1, 256]
000000 57 50 a7 3e 85 b4 8d be 42 05 e9 3e 49 5f 13 bf
       0.32678482 -0.27676788 0.45511824 -0.5756727
000010 88 9a 42 3e bf 5f 07 3f c5 19 17 3f 04 17 f7 3e
       0.19004261 0.5288047 0.59023696 0.48259747
000020 20 09 88 be a9 5f 01 3f 8c 17 0c 3f 85 74 62 bf
       -0.26569462 0.5053659 0.5472343 -0.88459045
000030 7b 5e 42 bf 72 61 00 be ce b8 66 bf da cd 1d bf
       -0.75925416 -0.12537172 -0.9012574 -0.6164223
000040 a5 6c f9 3e 7a d4 f0 bd c8 6b 44 3f 26 ad 34 3f
       0.48715702 -0.11759277 0.7672696 0.70576704
000050 ef 41 77 be 40 c4 72 bf 30 4b 10 3f c5 30 52 bf
       -0.24146245 -0.94830704 0.5636473 -0.82105666
000060 c7 ef 0c bf 2c 78 d4 be e8 ce 8c be dc 69 73 bf
       -0.5505337 -0.41497934 -0.27501607 -0.95083404
000070 57 d4 29 bf 0c 81 4a 3f 40 e7 5e bf f4 fc 01 3f
       -0.6633963 0.7910316 -0.8707161 0.507766
000080 8b c9 20 bf 25 1f b7 be 61 24 39 3f 40 7d 92 3f
       -0.6280753 -0.3576595 0.72321135 1.1444473
000090 df 99 28 3f 1a 2f 94 be 3a 13 22 3e ba df a2 3e
       0.6585979 -0.28942186 0.15827647 0.31811315
0000a0 5a 03 7d 3f 7a 13 23 3f a8 e9 1b bf 90 4a d5 be
       0.9883324 0.63701594 -0.60903406 -0.4165845
0000b0 c9 1f 59 bf 50 b8 05 3f a9 06 e3 be 75 fb 20 3f
       -0.84814125 0.52234364 -0.4434102 0.6288369
0000c0 4e 5d 71 3f 0d 92 81 3f 03 5c 28 bf b3 64 f2 3e
       0.94282997 1.0122696 -0.657654 0.47342452
0000d0 14 ad 66 3e 51 50 5b 3f 78 84 e1 be 7f 6a 4f bf
       0.22526962 0.8566943 -0.44046378 -0.81021875
0000e0 30 11 ec 3e 62 87 0d bf ac 0f fc be eb 88 5d be
       0.46106863 -0.552847 -0.49230707 -0.21634261
0000f0 bf 7e 15 bf 93 be 06 3f 84 43 8e be 91 16 29 3f
       -0.58396524 0.52634543 -0.27785885 0.6605006
000100 c9 81 01 bf 9b 9f 06 bf da e4 05 bd 05 99 66 bf
       -0.5058866 -0.5258729 -0.032688953 -0.9007724
000110 05 94 55 bf 99 84 35 3f 59 b4 23 bf 55 04 63 3f
       -0.83428985 0.7090545 -0.63947064 0.88678485
000120 71 e6 28 be f9 0a 80 bf 09 c1 18 bf 9a 0d 3b 3f
       -0.16494156 -1.0003349 -0.5966955 0.7306763
000130 6c 9d 25 3f 31 eb f5 3d 5a 13 32 bf 62 fb 22 3f
       0.6469333 0.1200775 -0.6956078 0.6366483
000140 56 c9 25 bf 31 49 28 bf 81 39 7a 3f 6d 17 d3 be
       -0.6476034 -0.6573668 0.97743994 -0.4122881
000150 f6 28 f0 be 7f 23 51 bf db 4e 73 3e 40 20 1a bf
       -0.4690625 -0.8169479 0.2376055 -0.6020546
000160 d4 b4 08 bf de 35 4d bf 84 8f 22 3e 54 5e 80 3f
       -0.5340092 -0.8016032 0.1587506 1.0028787
000170 10 9f 15 bf c0 8f 5c 3e 75 a3 3e bd 3b f2 63 be
       -0.58445835 0.21539211 -0.046542604 -0.22260372
000180 86 71 f3 3e 5d 9a 40 bf 35 2d 25 bf 16 3e 43 3f
       0.4754755 -0.7523554 -0.64522105 0.7626661
000190 c7 dc 66 3f 95 b2 e2 3e 23 6c 11 3f f7 aa cb be
       0.9018063 0.44276872 0.5680563 -0.39778873
0001a0 4a ce 1a bf 55 72 81 be 60 f4 5d 3e c8 d5 47 3f
       -0.6047102 -0.2528254 0.21675253 0.7806058
0001b0 ff 82 64 3d ab ae 27 bf 46 02 f6 3e 8c b4 56 bd
       0.05578899 -0.655009 0.4804861 -0.052418277
0001c0 d2 19 0b 3f 40 22 df 3e 2a 55 36 3f 45 de bd be
       0.54336274 0.43580818 0.712237 -0.3708364
0001d0 57 b9 54 3f 7e a6 5f be 1d 39 7d 3e b2 48 17 3e
       0.83095306 -0.21840855 0.24728818 0.14773825
0001e0 49 04 1f bf 9b 08 07 3f 67 d5 7a bf ef d3 f9 be
       -0.62115914 0.52747506 -0.97981876 -0.48794505
0001f0 49 c0 57 be 0d 1e a0 3e 4c bf 7e bf 37 cb 96 3f
       -0.21069445 0.31272927 -0.99510646 1.1780766
000200 bd 6e ed 3e 09 42 ca bd 14 69 42 3e 18 88 7f bf
       0.4637355 -0.098758765 0.18985397 -0.9981704
000210 ef 6c 66 3f 46 95 9d bf 44 b2 b4 be 1a 11 aa 3e
       0.9000997 -1.231118 -0.35292256 0.33216172
000220 41 18 57 3f 1a 87 00 3e 99 12 08 bf 60 0c 2b 3f
       0.84021384 0.12551537 -0.5315338 0.6681576
000230 a7 8f 34 3f c5 97 d2 3e 15 d6 26 bf 89 06 62 bf
       0.70531696 0.41131416 -0.65170413 -0.8829122
000240 9f 55 b3 be 41 90 4d be 3c 53 ff 3e 08 1f ee be
       -0.3502626 -0.2007456 0.4986819 -0.4650805
000250 f8 03 fa be 7a e0 4c bf 2f 12 67 3f 2c 1a 52 3f
       -0.48831153 -0.80030024 0.9026212 0.82071185
000260 7b d9 21 bf 57 a4 f4 be d0 dc 41 3f 44 1b 34 bf
       -0.63222474 -0.4778163 0.7572756 -0.70354104
000270 3e 57 c1 3e d3 f0 ce 3e 34 fa 06 bf 51 26 77 bf
       0.37761873 0.4041811 -0.5272553 -0.9654284
000280 2e c9 34 3f a3 3f 43 bf 3c 39 97 3e 20 1f 16 3f
       0.70619476 -0.76268977 0.29535854 0.58641243
000290 3b d0 2e 3f 7e d4 1e 3f f0 45 b1 3d cf 20 05 bf
       0.68286484 0.6204299 0.08655918 -0.52003187
0002a0 89 0b 05 bf 83 02 d6 be cd 89 f2 3e 5e df 1f bf
       -0.51970726 -0.4179879 0.4737076 -0.62450206
0002b0 74 fb 0f 3f fe 39 0d 3f e0 1b 51 bf 7e 93 2c bf
       0.5624306 0.55166614 -0.8168316 -0.67412555
0002c0 bf 66 30 3e 74 c3 71 bf 2b 1a c5 3e 6f 16 f0 3e
       0.17226695 -0.9443886 0.38496527 0.46892115
0002d0 b2 cf 60 bd 61 ab 36 3f 79 ac 42 bf b5 a9 f9 be
       -0.054885574 0.71355253 -0.7604442 -0.4876229
0002e0 84 f2 65 be 4c 92 51 bf 69 fe 86 3f 67 f8 d2 be
       -0.22455794 -0.81863856 1.054639 -0.4120514
0002f0 dc d0 29 bf a9 b4 bc be 80 a1 90 be 42 ab 23 bf
       -0.6633432 -0.36856583 -0.28248215 -0.63933194
000300 6d 87 18 3f a9 cc 50 bf ad 80 31 bf f6 c7 c0 3e
       0.59581643 -0.81562287 -0.6933697 0.37652558
000310 b6 cc 76 bf 23 ad 5f bf 9c d8 ad be 42 8f 4e bf
       -0.96406114 -0.8737356 -0.33954322 -0.80687344
000320 10 a2 e4 3e e5 82 33 3e ef 15 0d bf 7b cd 1e 3f
       0.44654894 0.17530401 -0.55111593 0.6203229
000330 f4 83 0e 3f e0 a9 e1 3e 1e 82 16 3f 1a c0 a7 be
       0.55670094 0.44074917 0.58792293 -0.3276375
000340 21 61 85 be ea 33 ad be f3 0c 83 bf 72 e9 36 bf
       -0.26050666 -0.3382867 -1.0238327 -0.7144996
000350 59 76 da be 84 3f e1 be 34 f9 29 3f 2b fb 0b bf
       -0.42668417 -0.4399377 0.6639588 -0.54680127
000360 5f 23 d5 be 32 21 7c 3f 1a 59 18 3e 9e d7 2d bf
       -0.41628549 0.9848815 0.1487774 -0.6790713
000370 ee 91 6d bf ac bd d4 be 62 5c 40 3f 23 6a 68 bf
       -0.92800796 -0.41550958 0.75140965 -0.9078695
000380 88 cb 47 3f 29 b7 aa be 55 20 01 3f 78 29 3c 3f
       0.7804494 -0.33342865 0.5043996 0.73500776
000390 4e 8c 11 bf 35 46 2b 3f b2 cc 3a 3f 33 9b 44 3f
       -0.5685471 0.66904 0.7296859 0.76799315
0003a0 73 79 41 be 64 4e 27 bf c6 d0 f9 be 27 34 d2 3e
       -0.18893985 -0.6535399 -0.48792094 0.41055414
0003b0 8e aa 6f bf 76 f1 1c bf 7d 10 80 be f9 1d fe be
       -0.9361962 -0.6130594 -0.2501258 -0.49632242
0003c0 ae a7 1f bf 70 b4 32 bf 06 e3 43 bf 30 82 b1 3e
       -0.62365234 -0.69806576 -0.76518285 0.34669638
0003d0 f1 e7 3c 3f ee 25 9d 3e 0f 78 0a bf 3d e1 f5 3e
       0.73791414 0.30693 -0.54089445 0.48023406
0003e0 b3 9e e2 be 9d f9 59 be 6c d3 32 bf f9 19 68 3f
       -0.44261703 -0.21286626 -0.69853854 0.9066463
0003f0 c7 d5 60 3f 43 c9 c7 3e 0d 19 4b be 00 4d 47 3f
       0.878262 0.39020738 -0.19833775 0.7785187
