experiments/diff_reward_weights_data/kappa1_2.5_kappa2_1_kappa3_1/dqn_proposed_erf.pth (torch, 306018 bytes, 6 tensors)

weight f4 [256, 4]
-0.18809628 -0.22986591 -0.38821906 -0.39880955 -0.31232846 -0.48192942 -0.16833824 -0.4153806
0.13020028 -0.5129539 -0.31410468 -0.10927863 0.39536285 0.03763327 0.07667143 0.75581676
0.13112833 0.10975037 -0.7842992 0.38060653 -0.16134131 -0.058264647 0.06978204 0.5926513
-0.088307604 0.384912 -0.050250616 -0.2817824 -0.45299563 0.4455914 -0.21900174 -0.5428688
-0.11947106 -0.23671225 0.5169229 0.16647445 -0.09586048 -0.042440176 -0.096933484 -0.47276795
0.42702955 -0.06489262 -0.35044408 -0.695643 -0.4510553 0.03904879 0.060806572 0.017611146
0.24959193 0.006341131 0.008465315 -0.5506394 -0.03314832 0.011956773 -0.057227947 -0.13924973
-0.0062114284 0.42139104 -0.0757153 0.5659818 0.07624727 0.47296777 -0.11656062 0.6780945
0.1457666 0.30211842 -0.472234 0.5491503 0.19356602 0.17705248 -0.2993331 -0.17944866
0.15243407 -0.09410311 -0.23618715 -0.72244954 -0.050597608 -0.17300111 -0.3312332 0.073305905
-0.26782927 -0.22566174 0.13714913 0.3146326 -0.17623179 0.3761331 -0.13835391 0.14490175
0.47801527 -0.3691191 -0.29659912 -0.31944236 0.17883871 0.36650944 -0.4783264 -0.64288485
-0.472434 0.5521089 -0.20257463 -0.30209002 0.22275227 0.063189715 -0.4417546 0.48962215
0.110366486 0.36391643 0.09975587 0.52549744 0.2416221 -0.25160918 -0.24439174 -0.5517997
-0.024946928 -0.46819758 0.03404385 0.39991373 0.154134 -0.16078395 0.442016 -0.61602235
0.08733382 -0.2083658 -0.9419815 -0.6663722 -0.48917806 -0.34425676 -0.49838758 -0.07071149
0.17718339 -0.3985354 -0.23410597 -0.27917156 -0.14399448 0.33764988 -0.4216519 0.2331982
0.3721685 0.509978 0.28096744 0.2743364 -0.0064775143 0.66275406 0.05163629 0.17973107
0.06421931 0.46725458 -0.247518 0.75526804 -0.38757265 -0.024195433 -0.45139265 -0.0024769902
-0.16378358 0.7477173 0.18036735 -0.041635126 -0.055282354 -0.025473595 -0.055143356 -0.4460433
0.42155164 0.61694086 -0.06658616 -0.9649747 0.25177717 -0.16228403 0.2452005 -0.33432543
0.1520286 -0.26610345 -0.3277629 -0.6539484 -0.17318308 -0.26929003 -0.42087597 0.09235412
-0.3732254 -0.105422206 0.4874106 0.57591975 0.45603776 -0.030552397 -0.11688515 0.26671544
0.04478741 0.20357601 0.14668247 0.36560416 0.2045768 -0.004056415 0.30514255 0.60048646
0.28650764 -0.47735637 0.5561616 -0.19878975 0.4490462 0.5177034 -0.27060723 0.18759525
-0.4539989 0.46513218 -0.00035702536 -0.2904603 0.40278977 -0.16052577 0.44235277 0.6694243
0.32427776 -0.14207415 -0.3724745 -0.3753416 -0.24661905 0.15053928 -0.35821062 0.11017853
0.38092104 0.5237327 -0.39469138 -0.66172314 -0.055913717 0.3193239 0.10215114 -0.9033596
0.07754166 -0.40003613 0.29023957 0.07500486 0.075783506 -0.3817707 0.01421457 0.7160858
-0.041816354 -0.26488632 -0.39850873 -0.43797046 0.15976189 0.26565102 0.54959416 -0.81085646
0.43728754 -0.2506449 0.5548672 0.14749427 0.4990174 -0.5200191 0.49916178 0.019580856
0.42105985 0.40555596 -0.51627344 0.65720445 -0.29907098 0.3352637 -0.07250791 0.45707393
00000000: 509c 40be f861 6bbe a6c4 c6be c430 ccbe
00000010: 84e9 9fbe 74bf f6be dc60 2cbe c4ac d4be
00000020: 3953 053e f250 03bf 54d2 a0be 79cd dfbd
00000030: 006d ca3e 5825 1a3d e905 9d3d 357d 413f
00000040: 8146 063e cdc4 e03d d5c7 48bf dcde c23e
00000050: a836 25be e9a6 6ebd e3e9 8e3d ffb7 173f
00000060: 9eda b4bd 3013 c53e 97d3 4dbd c845 90be
00000070: 0bef e7be 8e24 e43e fe41 60be 73f9 0abf
00000080: 3ead f4bd b264 72be 0f55 043f 4778 2a3e
00000090: 8052 c4bd c0d5 2dbd 1085 c6bd a40e f2be
000000a0: 9ea3 da3e 6ce6 84bd 686d b3be a915 32bf
000000b0: b8f0 e6be a0f1 1f3d 5010 793d 4045 903c
000000c0: 0795 7f3e 43c9 cf3b 1bb2 0a3c b4f6 0cbf
000000d0: 88c6 07bd 57e6 433c da67 6abd 7b97 0ebe
000000e0: 3d89 cbbb 91c0 d73e a010 9bbd 2fe4 103f
000000f0: 8727 9c3d d528 f23e 56b7 eebd 9a97 2d3f
00000100: d743 153e 44af 9a3e a8c8 f1be 1d95 0c3f
00000110: 2c36 463e 3f4d 353e 3042 99be 64c1 37be
00000120: ad17 1c3e 22b9 c0bd 0bdb 71be 74f2 38bf
00000130: 703f 4fbd 3427 31be 6697 a9be 6821 963d
00000140: eb20 89be df13 67be d270 0c3e 8617 a13e
00000150: 1b76 34be 8594 c03e a6ac 0dbe 2061 143e
00000160: 6bbe f43e 2efd bcbe d7db 97be f38d a3be
00000170: 7f21 373e 20a7 bb3e 33e7 f4be 1a94 24bf
00000180: dfe2 f1be 0257 0d3f b96f 4fbe 8bab 9abe
00000190: 2c19 643e 9c69 813d a92d e2be c1af fa3e
000001a0: d307 e23d 4153 ba3e ce4c cc3d 0087 063f
000001b0: c96b 773e ebd2 80be d441 7abe bf42 0dbf
000001c0: 805d ccbc 98b7 efbe 9071 0b3d 7ec1 cc3e
000001d0: 4ed5 1d3e 8ca4 24be ec4f e23e a4b3 1dbf
000001e0: 13dc b23d d85d 55be b325 71bf 5e97 2abf
000001f0: 8c75 fabe 6c42 b0be a82c ffbe 30d1 90bd
00000200: 906f 353e d50c ccbe 7ab9 6fbe 93ef 8ebe
00000210: 4a73 13be 72e0 ac3e c2e2 d7be 82cb 6e3e
00000220: df8c be3e eb8d 023f f7da 8f3e d275 8c3e
00000230: 5441 d4bb 40aa 293f 9380 533d 6c0b 383e
00000240: 6a85 833d fe3b ef3e 5c75 7dbe 3f59 413f
00000250: ec6f c6be 8035 c6bc f01c e7be 0055 22bb
00000260: e2b6 27be 676a 3f3f 38b2 383e 9889 2abd
00000270: c06f 62bd 00ae d0bc 00de 61bd ca5f e4be
00000280: 9ed5 d73e d6ef 1d3f 535e 88bd 9508 77bf
00000290: f0e8 803e c92d 26be d715 7b3e b42c abbe
000002a0: 63ad 1b3e b63e 88be 8ad0 a7be 2a69 27bf
000002b0: e856 31be 62e0 89be 0e7d d7be 2824 bd3d
000002c0: 6617 bfbe 99e7 d7bd e28d f93e 7a6f 133f
000002d0: c87d e93e 0549 fabc 7b61 efbd ed8e 883e
000002e0: 0173 373d 3b76 503e ee33 163e 7830 bb3e
000002f0: 957c 513e adeb 84bb a53b 9c3e 7bb9 193f
00000300: 21b1 923e 0e68 f4be 9b60 0e3f 8a8f 4bbe
00000310: 62e9 e53e 3688 043f 088d 8abe f818 403e
00000320: 8b72 e8be ce25 ee3e 222f bbb9 36b7 94be
00000330: 763a ce3e de60 24be 107c e23e 645f 2b3f
00000340: bc07 a63e e37b 11be fab4 bebe c62c c0be
00000350: b489 7cbe f826 1a3e 6267 b7be 48a5 e13d
00000360: 1508 c33e 5913 063f fd14 cabe b066 29bf
00000370: c805 65bd 6c7e a33e 9e34 d13d 9342 67bf
00000380: 29ce 9e3d 89d1 ccbe 489a 943e 269c 993d
00000390: 6234 9b3d 7377 c3be 3ae4 683c 6651 373f
000003a0: a047 2bbd 2e9f 87be 5609 ccbe aa3d e0be
000003b0: 9f98 233e 6903 883e 34b2 0c3f 4a94 4fbf
000003c0: 27e4 df3e 8754 80be c70b 0e3f bd08 173e
000003d0: 357f ff3e f91f 05bf 2292 ff3e 0868 a03c
000003e0: 2895 d73e 08a5 cf3e 7f2a 04bf 8d3e 283f
000003f0: d51f 99be afa7 ab3e 077f 94bd 9805 ea3e

bias f4 [256]
0.14944613 -0.32581133 0.47311762 0.048425693 -0.3086651 0.34949416 0.20601997 0.3309503
-0.50290287 -0.4051838 -0.4084423 -0.016087353 0.22811982 0.73353404 0.14760843 0.6365592
-0.37358877 -0.45704898 -0.356267 0.15112734 0.01325732 -0.41900674 -0.20063482 0.46949685
-0.37427816 -0.08433483 0.31468567 -0.39785096 -0.0026673079 -0.643407 0.37780315 0.36533028
0.27430472 0.52377176 -0.120866954 0.39847678 0.06586385 0.37982446 0.7453158 -0.30484372
0.15813012 -0.50774527 0.19405481 -0.085642755 0.3534628 -0.29147705 0.434753 0.45435774
-0.24156286 0.16634068 -0.24364245 0.3424175 0.5540826 -0.21289611 -0.30287537 0.17109637
-0.43414035 0.37017515 0.006767869 -0.16315287 -0.2641055 0.13515076 -0.3535952 0.5844485
0.04928741 0.113124415 -0.1938931 0.15055788 0.3447358 -0.2975837 0.36133462 -0.49825472
-0.22576386 0.1343906 0.15912186 0.5813613 0.37780765 -0.043632537 0.4912375 -0.45906222
-0.1843975 -0.4275195 0.21285844 -0.03834437 0.5948676 -0.052123845 0.32994765 0.6753854
0.091374815 0.3023274 0.15159388 0.009452095 0.11455182 -0.5246308 -0.3294375 -0.14388591
-0.43676773 0.45672166 0.43526435 0.68440026 -0.31830645 0.38781178 -0.11629217 -0.43432572
-0.21667795 -0.36909163 -0.08444083 0.3602641 -0.4533966 -0.4216913 0.11596294 0.03311968
-0.6942939 0.16541724 -0.36447746 0.13980804 -0.07648145 -0.3856756 0.4465198 -0.022975985
-0.28788024 0.010628967 -0.3305333 -0.3872341 0.11068253 0.041125953 -0.34782147 0.55131257
0.28955695 0.48850086 -0.26539537 -0.4508756 -0.16644204 0.46650973 0.25396737 -0.3318277
-0.20047814 -0.38623095 -0.3597326 0.6170927 0.20158613 -0.2782498 -0.13449305 0.037260357
-0.2293755 -0.06093138 0.10209856 0.30144766 -0.22558816 -0.036699045 0.48474357 -0.26512927
-0.39448506 -0.20966035 0.04986847 0.49373308 0.58541435 0.0043792273 -0.46161413 0.56317216
-0.28478044 -0.32641777 0.34649095 -0.29308674 -0.51994616 -0.2638055 -0.30420607 -0.007584513
-0.32378718 -0.22700906 0.36912543 -0.28618395 -0.11347952 0.20719998 0.115706466 0.46464288
-0.08641487 0.39692953 0.53900737 0.5366257 0.42869395 0.028551482 -0.20304982 0.08612668
-0.20985371 0.55128556 0.54134387 0.31301984 0.3391359 0.34990722 -0.30295086 -0.263862
0.58039314 0.5030326 0.6496975 0.105803005 0.64454836 0.11267353 0.08376912 0.032318313
0.27900395 0.03734855 -0.32061306 0.28734326 -0.69421005 -0.21106982 0.0533098 -0.038826924
0.42038262 0.6002796 0.54371923 0.3344211 -0.17897224 0.2691359 -0.09856579 0.3351402
-0.13160186 -0.032605033 -0.079348326 -0.19664 0.48385236 0.50538653 0.30002126 0.19526312
0.093241155 0.4556495 -0.0071402634 0.39770326 -0.29848143 -0.09518596 -0.36042947 -0.09321416
-0.14921802 -0.4343158 0.039174743 0.050519876 0.34796122 0.59579337 -0.24623255 -0.4276322
0.42242038 -0.43018413 0.06517608 0.3700055 0.2959227 -0.12949914 0.16932905 0.46915168
0.3042942 0.367433 -0.34802306 -0.02880527 -0.59775513 -0.47282377 0.5808617 -0.001851372
00000000: 6808 193e bed0 a6be 793c f23e 055a 463d
00000010: 5a09 9ebe e6f0 b23e e6f6 523e 5172 a93e
00000020: 3ebe 00bf 4074 cfbe 591f d1be a0c9 83bc
00000030: 3e98 693e e3c8 3b3f aa26 173e 8bf5 223f
00000040: 0747 bfbe 5302 eabe a168 b6be 20c1 1a3e
00000050: 3b35 593c 0d88 d6be 3773 4dbe e461 f03e
00000060: 63a1 bfbe bdb7 acbd 7b1e a13e 1fb3 cbbe
00000070: 00ce 2ebb 52b6 24bf 6a6f c13e 920c bb3e
00000080: ab71 8c3e e815 063f 1889 f7bd 2605 cc3e
00000090: a0e3 863d 5a78 c23e 04cd 3e3f 7a14 9cbe
000000a0: ddec 213e 98fb 01bf 4eb6 463e 7865 afbd
000000b0: 13f9 b43e 7b3c 95be f297 de3e 94a1 e83e
000000c0: 415c 77be 3655 2a3e 687d 79be 5951 af3e
000000d0: 5bd8 0d3f 7001 5abe 7b12 9bbe e333 2f3e
000000e0: a547 debe 9987 bd3e 00c5 dd3b 8c11 27be
000000f0: d638 87be f664 0a3e 6e0a b5be 6b9e 153f
00000100: 98e1 493d c6ad e73d ea8b 46be d82b 1a3e
00000110: 3681 b03e e45c 98be da00 b93e 3e1b ffbe
00000120: a42e 67be b09d 093e d7f0 223e 18d4 143f
00000130: 0170 c13e 08b8 32bd 7b83 fb3e 340a ebbe
00000140: b3d2 3cbe d6e3 dabe 90f7 593e fc0e 1dbd
00000150: 3e49 183f d07f 55bd e6ee a83e 0fe6 2c3f
00000160: b822 bb3d a8ca 9a3e 6d3b 1b3e f6dc 1a3c
00000170: 259a ea3d 344e 06bf 08ac a8be d456 13be
00000180: 05a0 dfbe 6cd7 e93e f8da de3e db34 2f3f
00000190: 10f9 a2be 448f c63e 972a eebd f15f debe
000001a0: d3e0 5dbe 94f9 bcbe 50ef acbd 8974 b83e
000001b0: 9923 e8be ece7 d7be fa7d ed3d 80a8 073d
000001c0: 3fbd 31bf 2363 293e ca9c babe d729 0f3e
000001d0: 4ea2 9cbd 4677 c5be 3e9e e43e 2238 bcbc
000001e0: 0a65 93be 1e25 2e3c a93b a9be 8c43 c6be
000001f0: 86ad e23d b073 283d a815 b2be d222 0d3f
00000200: cf40 943e c91c fa3e e7e1 87be 2bd9 e6be
00000210: c86f 2abe 5dda ee3e 0308 823e 52e5 a9be
00000220: 244a 4dbe 10c0 c5be df2e b8be caf9 1d3f
00000230: 986c 4e3e c276 8ebe 8cb8 09be 519e 183d
00000240: 69e1 6abe 2f93 79bd 0d19 d13d 5957 9a3e
00000250: 9500 67be bd51 16bd 4f30 f83e 06bf 87be
00000260: f2f9 c9be 34b1 56be e142 4c3d 95ca fc3e
00000270: b7dd 153f 9f7f 8f3b b058 ecbe 0d2c 103f
00000280: bece 91be 3b20 a7be 4367 b13e 770f 96be
00000290: 311b 05bf 8411 87be e6c0 9bbe 8287 f8bb
000002a0: 6fc7 a5be 1075 68be 02fe bc3e b486 92be
000002b0: f367 e8bd 3b2c 543e 83f7 ec3d ace5 ed3e
000002c0: 48fa b0bd 593a cb3e 63fc 093f 4d60 093f
000002d0: c67d db3e cce4 e93c 4bec 4fbe 2f63 b03d
000002e0: e4e3 56be 0d21 0d3f 8395 0a3f 2344 a03e
000002f0: 38a3 ad3e 0a27 b33e 601c 9bbe ec18 87be
00000300: a594 143f bfc6 003f 9352 263f 3faf d83d
00000310: 1f01 253f 61c1 e63d 258f ab3d 3560 043d
00000320: 9bd9 8e3e cbfa 183d 6527 a4be a81e 933e
00000330: c0b7 31bf b022 58be 605b 5a3d fb08 1fbd
00000340: 643c d73e edab 193f 2f31 0b3f 3e39 ab3e
00000350: 8044 37be 2ecc 893e dcdc c9bd 7f97 ab3e
00000360: a3c2 06be db8c 05bd 6081 a2bd ff5b 49be
00000370: 7fbb f73e 0361 013f 639c 993e 0ef3 473e
00000380: 38f5 be3d e44a e93e dff8 e9bb c39f cb3e
00000390: 8fd2 98be dbf0 c2bd 368a b8be 11e7 bebd
000003a0: 9ccc 18be a45e debe b275 203d eeed 4e3d
000003b0: f927 b23e ea85 183f 6324 7cbe 9cf2 dabe
000003c0: 7c47 d83e 1841 dcbe 097b 853d 5c71 bd3e
000003d0: 2e83 973e 6c9b 04be 9864 2d3e a634 f03e
000003e0: 73cc 9b3e 2e20 bc3e 1430 b2be 08f9 ebbc
000003f0: 7b06 19bf f515 f2be 5ab3 143f bca9 f2ba

weight f4 [256, 256]
-0.04221735 0.027950048 -0.026043281 -0.012767232 -0.13994691 0.023839343 -0.034989778 -0.12696393
0.22123925 -0.030444287 -0.03288622 -0.012631379 0.06709831 0.23913601 0.27050236 0.10299738
-0.0012705544 -0.05094849 -0.10531419 -0.033896238 0.21887727 -0.27436537 0.013222247 0.009391991
-0.18475993 -0.061247375 0.09613065 -0.07971828 -0.0007775873 0.034003396 -0.2443825 -0.042648047
-0.02343381 -0.18897839 0.038512804 0.11192705 0.080081396 0.015638657 0.055238113 0.0066596344
0.050968837 0.08734639 -0.100066476 0.060780518 0.018997695 -0.029545 0.10941606 0.0183372
0.04995417 0.0047508283 -0.21554339 0.03182403 -0.022852328 -0.000789091 -0.05910146 -0.06916109
-0.023449775 0.04166652 -0.04983844 0.07907236 -0.010235901 0.022743637 -0.004482623 0.08718087
0.08589037 0.024270128 0.060460757 -0.028466722 0.05411712 -0.29118034 0.09004171 0.0012096316
0.0130692255 0.01975286 0.036985666 0.062049743 0.005534162 0.028777597 -0.033613756 -0.05361367
0.06854656 -0.15186384 0.08757945 0.08425225 -0.14667532 -0.11861713 -0.06417032 0.10994731
0.061312653 0.0043196366 0.05231865 0.041389167 0.020968607 0.19078025 0.010389709 -0.03238245
0.0024893503 -0.054156855 -0.0897887 0.025075082 0.08947226 -0.012591351 0.095638074 0.030907108
-0.0050303014 0.0004562115 -0.11311706 -0.018874092 0.03478879 0.014558849 0.05607241 0.10964072
0.08101936 0.086080074 0.03948272 0.042522836 -0.03293179 0.08683362 -0.0035461485 0.025386304
0.011470054 -0.006692187 0.2772981 0.007759236 -0.018534964 -0.040704444 0.043054394 0.015161588
0.04930317 -0.03756838 -0.025357284 0.00036798752 0.45774323 0.17252879 0.0072296793 0.047367398
-0.021506816 0.025431572 0.07769603 -0.03542923 -0.03333027 0.32968783 0.05596169 0.04747447
0.012966152 -0.1263601 0.19303367 0.065356374 -0.05120161 -0.17049906 -0.30853987 0.04916863
-0.002760522 0.049214974 0.04879402 0.05110148 0.0057431995 0.21203879 -0.016804514 -0.015134848
0.016715342 0.070251994 -0.09270936 0.018741464 0.0071832878 0.009137603 -0.2492153 0.12504409
0.045804083 -0.037544116 0.045248777 -0.24978416 0.13866855 0.053397667 0.10803816 -0.020987332
0.0584035 -0.013802185 0.041167095 -0.21195745 0.056353226 -0.00013842885 0.06266393 -0.1252908
0.06675837 0.0983417 0.06342556 0.077848 -0.16803482 -0.017975457 -0.048461996 0.024065081
0.06364866 -0.019687766 0.17164001 0.18217584 0.1880034 -0.018863272 0.05481821 0.042303935
0.11024597 0.081879325 0.04067008 0.028419137 0.5269717 0.0126828775 0.18480034 0.17076066
0.05965501 0.03110735 0.40549058 0.027174426 0.010437198 0.04643836 0.011352485 0.072304025
0.18382283 -0.04871941 0.0022481382 0.07731365 0.24639854 -0.06402255 -0.027300274 0.082794115
0.26695964 0.081157155 -0.060371082 -0.032550566 -0.08303672 0.09076262 -0.042838246 0.025725376
-0.2638853 0.082817025 0.102420636 0.0507909 0.066593535 -0.2262906 0.07769016 0.058638513
0.06336439 -0.23191924 0.03556906 -0.0064466596 -0.056344256 0.02139749 0.0053460877 -0.23794094
-0.029117882 -0.044714756 -0.09224563 0.022835862 -0.011232039 0.063352235 0.0011779194 -0.012863389
00000000: 1aec 2cbd 80f7 e43c b858 d5bc a72d 51bc
00000010: 3e4e 0fbe ba4a c33c 7151 0fbd d502 02be
00000020: 8b8c 623e 4c66 f9bc b3b3 06bd d8f3 4ebc
00000030: d76a 893d 12e0 743e 497f 8a3e 4af0 d23d
00000040: bb88 a6ba 5daf 50bd f7ae d7bd c8d6 0abd
00000050: 5d21 603e 9e79 8cbe 20a2 583c dee0 193c
00000060: b531 3dbe 87de 7abd 25e0 c43d 5643 a3bd
00000070: 00d7 4bba 2547 0b3d 683f 7abe b8af 2ebd
00000080: 43f8 bfbc 8d83 41be 9abf 1d3d 023a e53d
00000090: b701 a43d a41c 803c 5c41 623d 1039 da3b
000000a0: b3c4 503d aae2 b23d a7ef ccbd fef4 783d
000000b0: 0ea1 9b3c 5b08 f2bc 8715 e03d e537 963c
000000c0: be9c 4c3d d6ac 9b3b 68b7 5cbe ea59 023d
000000d0: ce34 bbbc 00db 4eba 5f14 72bd 54a4 8dbd
000000e0: be19 c0bc 83aa 2a3d 6423 4cbd b1f0 a13d
000000f0: 7bb4 27bc dd50 ba3c f8e2 92bb e28b b23d
00000100: 4ae7 af3d 26d2 c63c b3a5 773d 0b33 e9bc
00000110: eaa9 5d3d 9715 95be ca67 b83d 808c 9e3a
00000120: 4e20 563c c0d0 a13c 487e 173d df27 7e3d
00000130: ea57 b53b ffbe eb3c 94ae 09bd 029a 5bbd
00000140: 2462 8c3d 3282 1bbe db5c b33d 728c ac3d
00000150: 0e32 16be 8aed f2bd bb6b 83bd 0e2c e13d
00000160: fa22 7b3d bd8b 8d3b 154c 563d b087 293d
00000170: 5bc6 ab3c e65b 433e 9939 2a3c 76a3 04bd
00000180: 5e24 233b 94d3 5dbd 23e3 b7bd 426a cd3c
00000190: 3b3d b73d f44b 4ebc e5dd c33d e730 fd3c
000001a0: 3ad5 a4bb ac2f ef39 eba9 e7bd d79d 9abc
000001b0: b17e 0e3d 3d88 6e3c 2fac 653d 508b e03d
000001c0: 7aed a53d c04a b03d a2b8 213d 6d2c 2e3d
000001d0: 7ce3 06bd d3d5 b13d 8066 68bb f0f6 cf3c
000001e0: e5ec 3b3c 224a dbbb 04fa 8d3e 3041 fe3b
000001f0: a3d6 97bc b4b9 26bd ce59 303d 4f68 783c
00000200: 1ff2 493d 4de1 19bd 14ba cfbc 73ee c039
00000210: 525d ea3e 63ab 303e f2e6 ec3b 5104 423d
00000220: 102f b0bc df55 d03c 191f 9f3d 3e1e 11bd
00000230: 5285 08bd d8cc a83e 1638 653d 9774 423d
00000240: fc6f 543c 8b64 01be 9eaa 453e 90d9 853d
00000250: c8b8 51bd 4e97 2ebe f0f8 9dbe 0c65 493d
00000260: e0e9 34bb a495 493d 3ddc 473d c94f 513d
00000270: 7331 bc3b b220 593e 9fa9 89bc 27f8 77bc
00000280: 9dee 883c 47e0 8f3d 68de bdbd b387 993c
00000290: c961 eb3b e3b5 153c 4c32 7fbe 8f0b 003e
000002a0: 109d 3b3d dcc7 19bd c856 393d 6bc7 7fbe
000002b0: 21ff 0d3e 83b7 5a3d 1c43 dd3d a0ed abbc
000002c0: 8238 6f3d 8f22 62bc d49e 283d 600b 59be
000002d0: a4d2 663d 3627 11b9 f255 803d 3b4c 00be
000002e0: 9db8 883d 6067 c93d 43e5 813d c66e 9f3d
000002f0: 5211 2cbe 4441 93bc 1680 46bd 2224 c53c
00000300: 3b5a 823d 3d48 a1bc 66c2 2f3e 4e8c 3a3e
00000310: f783 403e 2687 9abc 0f89 603d e446 2d3d
00000320: a4c8 e13d 59b0 a73d ab95 263d 40cf e83c
00000330: 9ee7 063f d8cb 4f3c 4d3c 3d3e e2db 2e3e
00000340: d058 743d d7d4 fe3c 769c cf3e e79c de3c
00000350: c800 2b3c 2636 3e3d c6ff 393c 2214 943d
00000360: 0d3c 3c3e 018e 47bd 8055 133b 9e56 9e3d
00000370: e64f 7c3e 411e 83bd d3a4 dfbc f68f a93d
00000380: efae 883e b935 a63d ab47 77bd be53 05bd
00000390: 280f aabd c1e1 b93d 2877 2fbd 06be d23c
000003a0: f91b 87be f99b a93d e9c1 d13d 1e0a 503d
000003b0: 3162 883d b9b8 67be 051c 9f3d f02e 703d
000003c0: 30c5 813d 3d7c 6dbe ddb0 113d 803e d3bb
000003d0: 3cc9 66bd ca49 af3c 3c2e af3b caa6 73be
000003e0: a088 eebc d226 37bd 47eb bcbd 4612 bb3c
000003f0: 9606 38bc d1be 813d 6b64 9a3a f7c0 52bc

bias f4 [256]
0.1291388 -0.057452895 0.041222423 0.08835697 0.02659282 0.004659525 0.017563954 0.072051086
0.03050769 -0.0080305915 0.012840806 -0.017690137 0.043225624 0.019972535 -0.058004595 0.02976281
-0.06976643 0.00985723 0.017776012 -0.00036191364 -0.007842466 -0.0137372315 -0.036095865 0.048379425
0.007887688 -0.09480175 -0.0010504759 0.081487305 -0.062383834 -0.025691954 0.014107282 0.05079929
0.028151195 0.085624 0.03058543 -0.05124832 0.041493952 -0.0032890772 -0.0075356932 0.017011285
-0.016338678 -0.05494777 -0.011656789 -0.05717008 -0.051671498 0.1869596 0.04609097 0.21400167
-0.056247346 0.016624942 -0.02602154 0.0217578 -0.18087481 0.21095167 -0.036792796 -0.015761675
0.014752487 0.04754278 0.04672012 -0.04473897 -0.037023574 -0.058518343 -0.026363736 0.047557104
0.09536508 -0.008415812 0.032066897 0.19638442 -0.033888534 -0.0072012246 0.035831638 -0.05383359
0.03725469 0.07862253 -0.043345965 -0.0030656816 0.0954749 0.006745793 0.054322615 0.02585952
-0.0184566 0.08059222 -0.03905058 -0.01037396 -0.003592775 0.035545185 0.06100718 0.10730961
0.16214204 0.08434141 0.03376834 -0.035406783 0.07643314 0.061700046 0.05508431 0.005139925
-0.013783552 0.015600242 0.091608755 -0.043546103 -0.027433805 -0.014093165 -0.028485235 -0.039157428
-0.010136807 0.06570883 0.006280048 0.00032826047 0.02857888 -0.00013192097 -0.036680903 0.051035587
0.007008636 0.115049444 -0.02563248 0.08987651 -0.050843418 0.051322732 -0.024808524 -0.0026534367
0.03414437 0.04923196 -0.03394326 0.051448435 0.13250712 0.080516785 -0.00097456574 0.032066055
0.07025239 -0.039018594 0.056084715 0.004249096 -0.03275954 0.011205681 0.018116672 -0.086172596
0.01908885 0.057725087 0.07454935 -0.01721341 0.017963517 -0.023024598 -0.008764034 0.014433276
0.08655031 -0.0008423389 -0.028155979 0.027299652 0.05741723 -0.025063308 0.020695796 -0.06352558
-0.03890394 0.061728746 0.0032701173 -0.02171164 0.028099412 0.093721166 0.057031576 -0.041529574
-0.0027414279 -0.054660548 -0.06928774 0.0364616 0.10496396 -0.18836132 0.27225274 0.021467628
0.0056602787 -0.03323169 0.03778886 -0.0040254556 -0.01464436 -0.028024629 0.06785684 0.011007495
0.00027080602 -0.0034576757 -0.029810252 -0.004908651 0.009989846 0.010167279 0.0042664455 0.01847599
-0.03641815 -0.028307633 -0.009487718 0.0048770607 -0.0384901 -0.0073473263 0.0035739695 0.043766875
0.027419923 0.059989497 0.039577816 0.012380388 0.022813268 -0.05329565 0.07780614 -0.0016993881
0.039157145 0.043125566 -0.041351594 -0.036127005 0.037031163 0.024575856 0.08307585 0.012553836
-0.03446943 0.03278249 -0.16105196 0.061040804 0.051056657 -0.01779472 0.09992861 0.05557804
-0.031574715 0.04084138 0.047012817 0.027974613 0.0086816205 -0.008178083 -0.004243315 -0.01732783
0.086705185 -0.0088552255 0.07713971 0.060389824 0.060592607 0.04557879 -0.041845128 -0.043893795
0.0038037428 -0.003548932 -0.046195067 0.10665706 0.07518646 0.15564412 0.05487115 -0.00015478281
0.096708834 -0.03501417 0.058012165 0.1491892 0.002519564 0.004363021 0.081987746 0.09124519
0.113820165 0.013776837 -0.023321165 -0.03799042 0.06588942 0.05928779 0.0882835 0.041340947
00000000: f63c 043e ba53 6bbd d8d8 283d 80f4 b43d
00000010: 30d9 d93c eeae 983b 48e2 8f3c 858f 933d
00000020: 43eb f93c be92 03bc 3e62 523c e8ea 90bc
00000030: 5a0d 313d 719d a33c 3a96 6dbd 23d1 f33c
00000040: b4e1 8ebd 3880 213c 009f 913c 3abf bdb9
00000050: b07d 00bc 2012 61bc 42d9 13bd 8129 463d
00000060: 5d3b 013c 6b27 c2bd 1fb0 89ba d1e2 a63d
00000070: 3186 7fbd ef77 d2bc 3b22 673c eb12 503d
00000080: 569d e63c a35b af3d 4c8e fa3c c2e9 51bd
00000090: 90f5 293d 8f8d 57bb faed f6bb 405b 8b3c
000000a0: b1d8 85bc ea10 61bd 1efc 3ebc 2c2b 6abd
000000b0: 7ea5 53bd 5672 3f3e e3c9 3c3d 4123 5b3e
000000c0: 9e63 66bd 0831 883c 202b d5bc 6a3d b23c
000000d0: 3f37 39be b703 583e 0bb4 16bd a11e 81bc
000000e0: 6ab4 713c 38bc 423d 995d 3f3d 3640 37bd
000000f0: 08a6 17bd eeb0 6fbd c3f8 d7bc 3dcb 423d
00000100: c44e c33d 79e2 09bc 9458 033d ff18 493e
00000110: b4ce 0abd 40f8 ebbb 32c4 123d 9c80 5cbd
00000120: 6098 183d d904 a13d 8a8b 31bd 9ae9 48bb
00000130: 5888 c33d d00b dd3b 6481 5e3d 58d7 d33c
00000140: 4c32 97bc 890d a53d 80f3 1fbd 8bf7 29bc
00000150: c374 6bbb d497 113d aae2 793d 24c5 db3d
00000160: 9008 263e 30bb ac3d ac50 0a3d b406 11bd
00000170: fa88 9c3d 30b9 7c3d 16a0 613d d16c a83b
00000180: 68d4 61bc 2898 7f3c 5f9d bb3d 665d 32bd
00000190: dcbc e0bc 05e7 66bc de59 e9bc 8a63 20bd
000001a0: da14 26bc 5a92 863d dcc8 cd3b 601a ac39
000001b0: 411e ea3c 4454 0ab9 b73e 16bd b10a 513d
000001c0: b3a8 e53b 0b9f eb3d 35fb d1bc 2d11 b83d
000001d0: 3041 50bd c937 523d 3f3b cbbc 48e5 2dbb
000001e0: f8da 0b3d 74a7 493d 1608 0bbd 98bb 523d
000001f0: f2af 073e fce5 a43d 007a 7fba b257 033d
00000200: 7ce0 8f3d f6d1 1fbd 16b9 653d 003c 8b3b
00000210: de2e 06bd 0898 373c 6a69 943c 427b b0bd
00000220: 3860 9c3c 2471 6c3d 54ad 983d 2303 8dbc
00000230: 3a28 933c 159e bcbc 0697 0fbc 8c79 6c3c
00000240: 4a41 b13d 68d0 5cba 5ea7 e6bc 85a3 df3c
00000250: 542e 6b3d 9151 cdbc 3b8a a93c b319 82bd
00000260: bd59 1fbd 48d7 7c3d 774f 563b 9cdc b1bc
00000270: bd30 e63c e2f0 bf3d f199 693d ea1a 2abd
00000280: 87a9 33bb bde3 5fbd bbe6 8dbd c258 153d
00000290: 58f7 d63d cae1 40be b664 8b3e e1dc af3c
000002a0: dc79 b93b f41d 08bd 7ec8 1a3d f8e7 83bb
000002b0: e6ee 6fbc e893 e5bc 87f8 8a3d c858 343c
000002c0: f8fa 8d39 2c9a 62bb a134 f4bc c0d8 a0bb
000002d0: 73ac 233c a994 263c 8acd 8b3b f65a 973c
000002e0: 332b 15bd 69e5 e7bc 6072 1bbc c0cf 9f3b
000002f0: cca7 1dbd d7c1 f0bb 4239 6a3b e544 333d
00000300: bf9f e03c 8cb7 753d 591c 223d 1cd7 4a3c
00000310: e4e2 ba3c 8a4c 5abd d358 9f3d 01be deba
00000320: 3e63 203d 6fa4 303d 4a60 29bd e9f9 13bd
00000330: fdad 173d 4e53 c93c ac23 aa3d 9bae 4d3c
00000340: d12f 0dbd ef46 063d ceea 24be ec05 7a3d
00000350: c920 513d 3cc6 91bc 5fa7 cc3d cda5 633d
00000360: 7d54 01bd 4a49 273d 8390 403d 042b e53c
00000370: 5b3d 0e3c 5efd 05bc 820b 8bbb 18f3 8dbc
00000380: 7d92 b13d 8215 11bc 6dfb 9d3d 525b 773d
00000390: f42f 783d d3b0 3a3d cc65 2bbd fbc9 33bd
000003a0: 3748 793b 3395 68bb 0a37 3dbd 046f da3d
000003b0: 5cfb 993d 2c61 1f3e 92c0 603d 324d 22b9
000003c0: 480f c63d 056b 0fbd 2a9e 6d3d 0ec5 183e
000003d0: 451f 253b acf7 8e3b 31e9 a73d c2de ba3d
000003e0: 8c1a e93d 3eb8 613c 070c bfbc d89b 1bbd
000003f0: 08f1 863d c1d7 723d fbcd b43d 2055 293d

weight f4 [33, 256]
0.061979048 0.04843141 -0.100186884 -0.0023805648 -0.061894834 -0.0089348825 0.105804645 0.037467245
0.064047135 -0.010465889 0.052530464 0.0880735 -0.051117092 -0.15176685 0.04205978 0.00989575
-0.0904929 -0.054727145 0.025629975 -0.014504062 -0.041902453 0.0038165674 0.03830362 -0.097558044
0.09976261 0.2747834 -0.04684543 0.17376849 0.019937597 0.072698936 0.054173212 0.019192489
-0.027664013 0.115410425 0.07884281 -0.008146204 -0.10990613 0.056234628 0.07474832 -0.019948103
-0.021366306 -0.04507552 -0.012056995 -0.039004765 -0.003984928 0.24136044 -0.09313084 0.10853352
-0.057320543 0.015073404 0.031313032 -0.0168864 0.38006076 0.16395068 0.043742225 -0.020675203
0.05318096 -0.061220028 0.034808766 -0.008079396 -0.036877 -0.008648598 -0.009650618 0.055320002
0.08026718 0.052854855 0.0036564097 0.17721558 -0.18920927 -0.03766059 -0.021845186 -0.010985573
-0.23923185 -0.0045267246 -0.059902634 0.033694375 0.10016416 0.050871953 0.0037768385 -0.031011216
0.0034966767 0.060744364 -0.07197222 -0.04417641 -0.057667784 0.0677868 0.0035819113 0.08930351
0.25032085 -0.18174416 -0.04811108 0.041581966 0.042666867 0.13415132 0.03883274 0.063274704
0.044402897 0.0106885955 0.06743971 -0.019557692 -0.029595623 0.017793203 -0.050068714 -0.058158636
0.05002579 -0.021760589 -0.13522643 -0.21466869 0.07009145 -0.0031493236 -0.006196484 -0.27017522
0.033718146 0.09480803 0.012193565 0.12396776 0.05474492 0.050676763 -0.028295059 0.10482352
-0.008814514 0.07096998 0.113116935 0.05057399 0.10507605 0.015065631 0.03801368 -0.17758243
-0.0098407855 -0.03910979 0.052633557 0.06964584 0.058726385 0.03282801 0.06820024 0.18999697
0.050410867 0.025684785 0.004100713 -0.03649833 -0.006850598 -0.06918603 0.049393438 -0.056502912
0.08097945 -0.043021943 0.033795856 0.1748032 -0.043253824 -0.005540727 0.065243945 -0.04878336
0.051281072 0.1105749 0.059167832 0.035804294 -0.0045625498 0.15706782 0.13077745 0.014289252
0.0121263275 0.021918103 -0.07874356 0.0884688 0.062310338 0.2958759 0.1733158 0.11816017
0.020994425 -0.013724152 -0.01632225 0.06775679 0.036814153 0.06149461 0.08232052 0.05336524
0.088984154 -0.07967284 0.013256334 0.052721493 -0.014787701 0.06736589 0.07604656 0.13403015
-0.025398074 -0.097926065 0.099315755 0.028219342 0.030755632 0.057944525 -0.017533563 -0.008603522
0.17402233 0.19956304 0.057195276 -0.013368241 0.009239443 -0.03013239 -0.08076212 0.01870354
0.064297736 0.14866807 -0.043506697 -0.0661699 0.12464573 0.028308826 0.011514208 0.005405259
0.03919973 -0.040512037 0.34617245 0.15622689 -0.015017357 0.042477205 -0.08405798 -0.014190528
-0.010560117 -0.03349822 0.036992386 0.018218026 0.05160158 0.00023921579 0.06914429 -0.021405831
-0.0093753 0.040089116 -0.0065193446 0.05395536 -0.003507323 0.030581951 0.018943459 -0.046789356
-0.017690293 -0.033406503 0.037725314 0.05227566 0.07355378 0.12842396 0.018911138 -0.05697834
-0.006277035 -0.112478666 0.021022879 0.24124582 0.12558231 0.0521177 0.06206681 0.15392782
0.08621471 -0.035889916 0.056468345 -0.001800132 -0.25160214 0.056446314 0.19540024 0.05719897
00000000: bedd 7d3d 0460 463d c82e cdbd 4003 1cbb
00000010: 7085 7dbd 9d63 12bc 1bb0 d83d 4177 193d
00000020: 252b 833d 1f79 2bbc 2f2a 573d e15f b43d
00000030: 2860 51bd c568 1bbe e046 2c3d c921 223c
00000040: 5754 b9bd 9229 60bd f4f5 d13c 72a2 6dbc
00000050: e8a1 2bbd 601f 7a3b 42e4 1c3d 83cc c7bd
00000060: 5750 cc3d 69b0 8c3e fee0 3fbd 5ef0 313e
00000070: 2c54 a33c 2ee3 943d bbe4 5d3d 9139 9d3c
00000080: a49f e2bc 4d5c ec3d 5778 a13d a877 05bc
00000090: 7716 e1bd 4856 663d a615 993d 346a a3bc
000000a0: 6408 afbc 1ca1 38bd b48a 45bc 76c3 1fbd
000000b0: 0094 82bb 3127 773e 62bb bebd d246 de3d
000000c0: f2c8 6abd 70f6 763c 1842 003d 5955 8abc
000000d0: 5397 c23e b0e2 273e 0c2b 333d 0b5f a9bc
000000e0: 47d4 593d dac1 7abd a393 0e3d 715f 04bc
000000f0: 560c 17bd d9b2 0dbc a01d 1ebc 3a97 623d
00000100: 1f63 a43d 557e 583d 60a0 6f3b 0078 353e
00000110: 13c0 41be fe41 1abd adf4 b2bc d5fc 33bc
00000120: 32f9 74be eb54 94bb 775c 75bd 1d03 0a3d
00000130: de22 cd3d 1c5f 503d d684 773b 3c0b febc
00000140: 8028 653b 15cf 783d 2c66 93bd 53f2 34bd
00000150: 0e35 6cbd ced3 8a3d 80be 6a3b c2e4 b63d
00000160: 0e2a 803e 241b 3abe 2010 45bd da51 2a3d
00000170: 74c3 2e3d f75e 093e 140f 1f3d 2b96 813d
00000180: d0df 353d 381f 2f3c d51d 8a3d 7437 a0bc
00000190: 8572 f2bc 0dc3 913c da14 4dbd c037 6ebd
000001a0: d8e7 4c3d 4343 b2bc cc78 0abe 1cd2 5bbe
000001b0: 1b8c 8f3d e264 4ebb e00b cbbb 6854 8abe
000001c0: 0a1c 0a3d b62a c23d 85c7 473c cfe2 fd3d
000001d0: 363c 603d 7092 4f3d 0acb e7bc b7ad d63d
000001e0: c06a 10bc b558 913d daa9 e73d ac26 4f3d
000001f0: 1d32 d73d d6d5 763c 3cb4 1b3d 2bd8 35be
00000200: 3f3b 21bc 9631 20bd 4996 573d 7aa2 8e3d
00000210: 148b 703d aa76 063d 91ac 8b3d 918e 423e
00000220: a07b 4e3d e668 d23c 465f 863b 467f 15bd
00000230: fb7a e0bb 68b1 8dbd c650 4a3d 996f 67bd
00000240: 8ed8 a53d c737 30bd 866d 0a3d 9cff 323e
00000250: ec2a 31bd fd8e b5bb 9e9e 853d 0fd1 47bd
00000260: 1a0c 523d 1875 e23d f859 723d 86a7 123d
00000270: 7181 95bb 63d6 203e 86ea 053e 781d 6a3c
00000280: 81ad 463c 988d b33c 4e44 a1bd 212f b53d
00000290: 2039 7f3d 0c7d 973e b279 313e f6fd f13d
000002a0: 80fc ab3c 44db 60bc 3db6 85bc 12c4 8a3d
000002b0: 70ca 163d c6e1 7b3d a997 a83d 8395 5a3d
000002c0: 533d b63d 842b a3bd 1831 593c 7ef2 573d
000002d0: 1d48 72bc 21f7 893d 4dbe 9b3d 333f 093e
000002e0: 9f0f d0bc 768d c8bd 0f66 cb3d 402c e73c
000002f0: 3cf3 fb3c 3d57 6d3d 8ca2 8fbc c9f5 0cbc
00000300: e932 323e 415a 4c3e 9845 6a3d 7706 5bbc
00000310: 0861 173c 34d8 f6bc 9c66 a5bd 2b38 993c
00000320: 88ae 833d 713c 183e 1434 32bd 1684 87bd
00000330: 4346 ff3d e9e7 e73c 17a6 3c3c 991e b13b
00000340: e58f 203d f3ef 25bd 843d b13e f1f9 1f3e
00000350: 5c0b 76bc 94fc 2d3d 9726 acbd 637f 68bc
00000360: 5704 2dbc 6e35 09bd 5485 173d f83d 953c
00000370: 2e5c 533d 00d6 7a39 869b 8d3d 485b afbc
00000380: dc9a 19bc 7c34 243d 3aa0 d5bb 4c00 5d3d
00000390: 1edb 65bb 0087 fa3c 502f 9b3c 32a6 3fbd
000003a0: 3ceb 90bc 42d5 08bd dc85 1a3d 011f 563d
000003b0: 5da3 963d 9281 033e 88eb 9a3c 1f62 69bd
000003c0: 96af cdbb 375b e6bd 2c38 ac3c 2509 773e
000003d0: a698 003e 5f79 553d c439 7e3d 419f 1d3e
000003e0: 5691 b03d 4e01 13bd 5a4b 673d 68f2 ebba
000003f0: ffd1 80be 4034 673d 0017 483e 7849 6a3d

bias f4 [33]
0.1099757 -0.029634692 0.087572075 0.053026386 -0.012640624 0.06735397 0.08130062 0.060687024
0.07839354 0.030480571 -0.013190825 0.047511473 0.03372316 0.06370811 0.0381849 0.06574278
-0.05590827 0.042115044 0.030956736 0.013897213 0.010500795 0.03329467 0.06271523 0.07479361
0.016462509 -0.034924857 0.06905215 -0.01903994 0.017216474 0.01792917 0.037993 0.0752695
0.0016851008
00000000: f13a e13d 74c4 f2bc fd58 b33d 3232 593d
00000010: 9f1a 4fbc e1f0 893d f180 a63d f592 783d
00000020: cb8c a03d 64b2 f93c 541e 58bc 649b 423d
00000030: 4c21 0a3d 6679 823d c567 1c3d 27a4 863d
00000040: 1200 65bd d380 2c3d fb98 fd3c 23b1 633c
00000050: 870b 2c3c fe5f 083d d870 803d 642d 993d
00000060: 62dc 863c 5e0d 0fbd 376b 8d3d a6f9 9bbc
00000070: 9009 8d3c 32e0 923c 8c9e 1b3d e526 9a3d
00000080: 9ade dc3a
