experiments/diff_reward_weights_data/kappa1_2.5_kappa2_1_kappa3_1/rainbow_dqn_proposed_origin.pth (torch, 380278 bytes, 13 tensors)

weight f4 [256, 4]
0	0xbe409c50	-0.18809628
1	0xbe6b61f8	-0.22986591
2	0xbec6c4a6	-0.38821906
3	0xbecc30c4	-0.39880955
4	0xbe9fe984	-0.31232846
5	0xbef6bf74	-0.48192942
6	0xbe2c60dc	-0.16833824
7	0xbed4acc4	-0.4153806
8	0x3d9b9e61	0.07598568
9	0xbea9ace8	-0.3313973
10	0xbebbe54e	-0.36698383
11	0x3e48695f	0.19571446
12	0x3ebe8703	0.3721238
13	0x3de04e1a	0.10952397
14	0xbd99f7a9	-0.075179406
15	0x3f067131	0.52516466
16	0x3db73e78	0.08947462
17	0x3b94478b	0.00452513
18	0xbefa669c	-0.4890641
19	0x3eb9e862	0.36310107
20	0xbe550b67	-0.20805131
21	0xbdcf220f	-0.10113918
22	0x3cc66f09	0.024222868
23	0x3ef206b4	0.4727074
24	0xbdedd59f	-0.116130106
25	0x3ec2db1c	0.38057792
26	0xbd731f35	-0.059355933
27	0xbefaa3a1	-0.48952964
28	0xbe82b309	-0.25527218
29	0x3eeff229	0.4686444
30	0xbdc83e2e	-0.09777485
31	0xbe875dbe	-0.26438707
32	0xbd14d34b	-0.036334317
33	0xbea296bc	-0.31755626
34	0x3f03bf38	0.5146365
35	0x3cd1f1cd	0.025627995
36	0xbdc45280	-0.09586048
37	0xbd2dd5c0	-0.042440176
38	0xbdc68510	-0.096933484
39	0xbef20ea4	-0.47276795
40	0x3ee263a1	0.44216636
41	0x3d1d08b6	0.038338386
42	0xbeab0193	-0.3339964
43	0xbef04d73	-0.4693409
44	0xbee6f0b8	-0.4510553
45	0x3d1ff1a0	0.03904879
46	0x3d791050	0.060806572
47	0x3c904540	0.017611146
48	0x3e79c2ca	0.24390712
49	0x3dc1d84d	0.09465084
50	0xbdcf411b	-0.1011984
51	0xbe4942b0	-0.19654346
52	0xbd89c956	-0.06727855
53	0xbe02de34	-0.12780076
54	0xbdd3c33d	-0.10339973
55	0xbe96455c	-0.29349792
56	0xbb971250	-0.0046103373
57	0x3ed4082c	0.41412485
58	0xbe9169f9	-0.28401163
59	0x3e981633	0.29704437
60	0x3d3d02fb	0.04614542
61	0x3ef62b6b	0.4808
62	0xbe7aa29d	-0.24476095
63	0x3f08816c	0.5332248
64	0x3e0d6736	0.13808903
65	0x3ec975c1	0.39347652
66	0xbefb8884	-0.4912759
67	0x3f1c330c	0.6101539
68	0x3e283957	0.16428123
69	0x3eb568c5	0.35431495
70	0xbec72563	-0.3889571
71	0x3df5441c	0.119758815
72	0x3df7c027	0.12097197
73	0x3c1504b4	0.00909536
74	0xbeba3d40	-0.36374855
75	0xbed74ec6	-0.42052287
76	0xbd4f3f70	-0.050597608
77	0xbe312734	-0.17300111
78	0xbea99766	-0.3312332
79	0x3d962168	0.073305905
80	0xbe4e39d8	-0.20139253
81	0xbe6d716d	-0.231878
82	0x3df33bdf	0.11876654
83	0x3ec2e52f	0.38065478
84	0xbdeaa526	-0.11457281
85	0x3ea0ee86	0.3143198
86	0xbe976944	-0.295725
87	0x3e214e44	0.15752512
88	0x3ef833c2	0.48476988
89	0xbe794eda	-0.24346486
90	0xbea61750	-0.3243966
91	0xbe8627fe	-0.26202387
92	0x3defa8f9	0.11702151
93	0x3ec1fba7	0.37887308
94	0xbf123dc9	-0.57125527
95	0xbe4bf84d	-0.19918938
96	0xbea5ab9c	-0.3235749
97	0x3f042ae2	0.51627934
98	0xbeb074b1	-0.34464028
99	0xbe837d99	-0.2568176
100	0x3e5fac70	0.21843123
101	0x3e3d0e60	0.18462515
102	0xbeebb675	-0.4603764
103	0x3ece885c	0.4033841
104	0x3da0ad58	0.07845563
105	0x3ecc437c	0.39895236
106	0xbd12f65d	-0.03587948
107	0x3ed119af	0.40839908
108	0x3e87c302	0.26515967
109	0xbe444522	-0.19166997
110	0xbe87e95c	-0.26545227
111	0xbed294d7	-0.4112918
112	0xbccc5d80	-0.024946928
113	0xbeefb798	-0.46819758
114	0x3d0b7190	0.03404385
115	0x3eccc17e	0.39991373
116	0x3e4e491e	0.2014508
117	0xbd2342b9	-0.039858554
118	0x3eec4ef4	0.46153986
119	0xbef4a51e	-0.47782224
120	0x3c8bff9b	0.017089656
121	0xbea3f951	-0.3202615
122	0xbe921e09	-0.2853854
123	0xbee61be3	-0.4494315
124	0xbefa758c	-0.48917806
125	0xbeb0426c	-0.34425676
126	0xbeff2ca8	-0.49838758
127	0xbd90d130	-0.07071149
128	0x3e31f9d1	0.17380454
129	0xbe286521	-0.16444828
130	0xbea1c1a4	-0.3159305
131	0xbd9aa945	-0.07551817
132	0xbe4ba703	-0.19887929
133	0x3e8ea460	0.27859783
134	0xbe32feea	-0.17480054
135	0x3eb0c5c2	0.34525877
136	0x3eb35ad0	0.35030222
137	0x3eec9820	0.46209812
138	0x3e891c4c	0.267794
139	0x3e1980a3	0.14990477
140	0xbcc8376f	-0.024440495
141	0x3f1ea53b	0.6197087
142	0xbcdf1848	-0.027233258
143	0x3e567e60	0.20946646
144	0x3d591eca	0.05300788
145	0x3f041cfb	0.5160672
146	0xbea41443	-0.32046708
147	0x3f32144e	0.6956223
148	0xbec66fec	-0.38757265
149	0xbcc63580	-0.024195433
150	0xbee71cf0	-0.45139265
151	0xbb225500	-0.0024769902
152	0xbe18baba	-0.1491498
153	0x3f1f6936	0.62269914
154	0x3e67308b	0.22577111
155	0x3e0b647d	0.13612552
156	0xbd626fc0	-0.055282354
157	0xbcd0ae00	-0.025473595
158	0xbd61de00	-0.055143356
159	0xbee45fca	-0.4460433
160	0x3ed88f87	0.42297003
161	0x3f1886d1	0.59580714
162	0xbe0d07f6	-0.13772568
163	0xbe4637ec	-0.1935727
164	0x3e954a2d	0.29158154
165	0xbd777a0c	-0.060419127
166	0x3e92f132	0.28699642
167	0xbea38a95	-0.31941667
168	0x3e0b7b9f	0.13621376
169	0xbe069148	-0.13141358
170	0xbedeaaa8	-0.43489575
171	0xbe31c461	-0.17360069
172	0xbe3156e8	-0.17318308
173	0xbe89e062	-0.26929003
174	0xbed77d0e	-0.42087597
175	0x3dbd2428	0.09235412
176	0xbf0148cc	-0.50501704
177	0xbe0a4c0c	-0.13505572
178	0x3edd6299	0.43239287
179	0x3eacada6	0.33726233
180	0x3ee4f944	0.44721425
181	0x3df593b1	0.119910605
182	0xbe51e306	-0.20496759
183	0x3e30c213	0.17261533
184	0x3c6604eb	0.0140392585
185	0x3e62c567	0.22145616
186	0x3b33ad82	0.002741665
187	0x3e928be4	0.28622353
188	0x3e43be21	0.19115497
189	0xbb1b0b66	-0.0023657917
190	0x3e5fb806	0.21847543
191	0x3ec05c54	0.3757044
192	0x3e9ab974	0.30219615
193	0xbefd9345	-0.4952642
194	0x3f0d4c8b	0.5519492
195	0xbeb68710	-0.3564992
196	0x3ee1312d	0.4398283
197	0x3f0d9569	0.55306107
198	0xbeb43c36	-0.35202187
199	0x3e35c74d	0.17751808
200	0xbea4970a	-0.32146484
201	0x3ed81105	0.42200485
202	0xbe2e3ce1	-0.17015411
203	0xbe896974	-0.26838267
204	0x3ec9e79b	0.39434513
205	0xbe1b45cc	-0.15163344
206	0x3ecdfecc	0.40233457
207	0x3ee74a4b	0.4517387
208	0x3ea4bb4c	0.32174146
209	0xbdefffe6	-0.11718731
210	0xbed9290a	-0.42414123
211	0xbd66bb39	-0.056330893
212	0xbe7c89b4	-0.24661905
213	0x3e1a26f8	0.15053928
214	0xbeb76762	-0.35821062
215	0x3de1a548	0.11017853
216	0x3ebe7ec8	0.372061
217	0x3f18656a	0.59529746
218	0xbee7a950	-0.45246363
219	0xbeb65b11	-0.35616353
220	0xbd745801	-0.05965424
221	0x3eb1035c	0.34572875
222	0x3daa5215	0.08316437
223	0xbe9a6204	-0.30152905
224	0x3e04a1c2	0.1295233
225	0xbe93ff1e	-0.28905576
226	0x3e8dacc4	0.27670872
227	0xbe2f2e94	-0.17107612
228	0x3d8cd891	0.06877244
229	0xbef4f36e	-0.47841972
230	0x3cf13d30	0.029448122
231	0x3e789877	0.2427691
232	0xbd2b47a0	-0.041816354
233	0xbe879f2e	-0.26488632
234	0xbecc0956	-0.39850873
235	0xbee03daa	-0.43797046
236	0x3e4cb1a6	0.19989643
237	0x3e6161b8	0.22009933
238	0x3f132b41	0.57487875
239	0xbec0dafe	-0.37667078
240	0x3eeb73b0	0.459867
241	0xbe34e62f	-0.17665933
242	0x3f0f26bb	0.55918473
243	0xbdf2a919	-0.11848659
244	0x3f02d5e5	0.5110763
245	0xbf098161	-0.5371304
246	0x3f073772	0.5281898
247	0x3b19dbdd	0.0023476996
248	0x3ecf4739	0.40484026
249	0x3eedf2bd	0.46474257
250	0xbf146c31	-0.57977587
251	0x3f0c04ca	0.5469481
252	0xbe985398	-0.29751277
253	0x3ed118d7	0.40839264
254	0xbdeb8cc3	-0.115014575
255	0x3e7471c2	0.2387152

bias f4 [256]
0	0x3e190868	0.14944613
1	0xbea6d0be	-0.32581133
2	0x3f2798b2	0.6546737
3	0x3decab95	0.11556164
4	0xbed3e977	-0.41389057
5	0x3e7e693b	0.2484483
6	0x3e2bc9f0	0.16776252
7	0x3f132f6f	0.5749425
8	0xbf15706e	-0.5837468
9	0xbecf7440	-0.4051838
10	0xbe9b296b	-0.30305037
11	0xbc83c9a0	-0.016087353
12	0x3ea3fc82	0.32028586
13	0x3f103a92	0.5633937
14	0x3e02c0a0	0.12768793
15	0x3f21a19d	0.6313723
16	0xbe91cf22	-0.28478342
17	0xbe879107	-0.26477835
18	0xbe8191c2	-0.25306517
19	0x3e1ac120	0.15112734
20	0x3be7cb02	0.007073761
21	0xbea776b9	-0.32707766
22	0xbd999035	-0.074982084
23	0x3ef6d9a6	0.48212928
24	0xbe66d4f9	-0.2254218
25	0x3d1ccafa	0.03827951
26	0x3ead4d21	0.33847907
27	0xbead02b0	-0.33791113
28	0xbb2ece00	-0.0026673079
29	0xbf05cadd	-0.5226267
30	0x3e88241d	0.26590052
31	0x3ebb0c92	0.36533028
32	0x3f0225dd	0.50839025
33	0x3f1320af	0.57471746
34	0xbe362234	-0.17786485
35	0x3eae0452	0.3398767
36	0x3dd0a839	0.10188336
37	0x3ec2785a	0.37982446
38	0x3f1baebc	0.608135
39	0xbe9c147a	-0.30484372
40	0x3e0a02b4	0.13477594
41	0xbecff103	-0.40613565
42	0x3ea85108	0.32874322
43	0xbdaf6578	-0.085642755
44	0x3e8f6728	0.2800839
45	0xbe0dbf29	-0.13842453
46	0x3ee1d253	0.44105777
47	0x3ee4ed12	0.4471212
48	0xbe84d99d	-0.25947276
49	0x3e46fe3e	0.19432923
50	0xbdca4cc5	-0.09877924
51	0x3eb20a63	0.3477355
52	0x3f1437aa	0.57897437
53	0xbe5a0170	-0.21289611
54	0xbe60e221	-0.21961261
55	0x3e5d15c1	0.2159033
56	0xbea57523	-0.3231593
57	0x3e8c0b9f	0.27352616
58	0x3bddc500	0.006767869
59	0xbe4b9a1e	-0.1988301
60	0xbe42a1e8	-0.19007075
61	0x3df1ba81	0.11803151
62	0xbe9c6cb3	-0.3055168
63	0x3f01f2e6	0.5076126
64	0x3e0101ff	0.12598418
65	0x3dfc433d	0.12317512
66	0xbe3a7798	-0.18209684
67	0x3e2d9f57	0.16955315
68	0x3eb08136	0.3447358
69	0xbea529e5	-0.32258525
70	0x3ecb6cd5	0.3973147
71	0xbeff1b3e	-0.49825472
72	0xbe987602	-0.29777533
73	0x3e099db0	0.1343906
74	0x3e39ffc8	0.18163979
75	0x3ee8e0e8	0.4548409
76	0x3eb9c378	0.36281943
77	0xbdb68138	-0.08911365
78	0x3f18f578	0.59749556
79	0xbeeb0a34	-0.45906222
80	0xbe421e8e	-0.18956968
81	0xbecf1003	-0.40441903
82	0x3e77d878	0.2420367
83	0xbd0878f1	-0.033318464
84	0x3f0dc824	0.55383515
85	0xbc844a15	-0.016148606
86	0x3ea3fdf3	0.32029685
87	0x3ee720fb	0.4514235
88	0x3dbb22b8	0.091374815
89	0x3e8baba2	0.27279383
90	0x3df24713	0.118299626
91	0x3d471585	0.048604507
92	0x3e7269cd	0.23673172
93	0xbeba5d4d	-0.36399308
94	0xbeb04fc4	-0.34435856
95	0xbe1356d4	-0.14388591
96	0xbedfa2c6	-0.43678874
97	0x3f15f387	0.5857472
98	0x3ef8f0a3	0.4862109
99	0x3f168c8f	0.58808225
100	0xbdf9d9c8	-0.121997416
101	0x3ec94108	0.39307427
102	0xbe2d67b1	-0.16934086
103	0xbec18586	-0.37797183
104	0xbe3e4611	-0.18581416
105	0xbebce68f	-0.36894652
106	0x3dd68df8	0.10476297
107	0x3edc4ecc	0.43028867
108	0xbef2549a	-0.4733017
109	0xbe99329b	-0.2992142
110	0x3e2517f7	0.16122423
111	0xbdca1cf5	-0.09868804
112	0xbf0d4361	-0.5518094
113	0x3da2b4ae	0.07944618
114	0xbeba9cca	-0.36447746
115	0x3d15d9dd	0.036584724
116	0xbd57c652	-0.052679367
117	0xbf0729e8	-0.5279832
118	0x3ee49e3e	0.4465198
119	0xbd204cad	-0.039135624
120	0xbe98227c	-0.2971381
121	0x3ad97d4f	0.0016593131
122	0xbe3fb1de	-0.18720195
123	0xbec6438c	-0.3872341
124	0x3eadae24	0.3392192
125	0x3d2873b0	0.041125953
126	0xbe8bec86	-0.2732889
127	0x3f1b956c	0.60774875
128	0x3e92dd98	0.28684688
129	0x3f12dbe0	0.5736675
130	0xbe88ee0d	-0.26744118
131	0xbed2b893	-0.41156444
132	0xbdf576ba	-0.11985536
133	0x3ef5151f	0.47867677
134	0x3e605d74	0.2191065
135	0xbea4ea28	-0.32209897
136	0xbe4d4a24	-0.20047814
137	0xbe811c32	-0.25216824
138	0xbeb51d54	-0.35373938
139	0x3f194d94	0.59884
140	0x3e4e6c98	0.20158613
141	0xbe892a27	-0.26789972
142	0xbe09b88c	-0.13449305
143	0x3cfa1117	0.030525727
144	0xbe85238d	-0.26003686
145	0xbdd56778	-0.10420126
146	0x3e6a8497	0.22902142
147	0x3e9e0a4f	0.3086724
148	0xbe2630d5	-0.16229565
149	0x3d6c1681	0.05763865
150	0x3e8f1886	0.27948397
151	0xbe87bf06	-0.26512927
152	0xbec9f9f2	-0.39448506
153	0xbe56b134	-0.20966035
154	0xbb75c0de	-0.003749899
155	0x3ed316a5	0.41228214
156	0x3f1039e1	0.56338316
157	0xbe1a36f7	-0.1506003
158	0xbec4057b	-0.3828543
159	0x3ef39b8b	0.47579607
160	0xbe0e6947	-0.13907348
161	0xbec12c9c	-0.37729347
162	0x3e9f950f	0.3116841
163	0xbe35b205	-0.1774369
164	0xbeb9cc1e	-0.36288542
165	0xbea2cd43	-0.31797227
166	0xbe110307	-0.14161311
167	0xbdbb8dc0	-0.09157896
168	0xbec353ba	-0.38149816
169	0xbe687510	-0.22700906
170	0x3ebcfe02	0.36912543
171	0xbddf679b	-0.10908433
172	0xbdf5a986	-0.11995225
173	0x3e52f618	0.2060169
174	0x3dd94153	0.10608163
175	0x3f17edd2	0.5934726
176	0xbdb0fa48	-0.08641487
177	0x3ec1cb27	0.37850305
178	0x3f09345d	0.53595525
179	0x3eb0d5fe	0.34538263
180	0x3ebe1bdd	0.37130633
181	0x3d8715cd	0.06595955
182	0xbe0707a8	-0.13186514
183	0x3d2ada64	0.04171218
184	0xbe4c0caa	-0.19926706
185	0x3f07e5b4	0.53084874
186	0x3eeb71ae	0.45985168
187	0x3eabed68	0.33579564
188	0x3f099663	0.53745097
189	0x3eb3270a	0.34990722
190	0xbe9b1c60	-0.30295086
191	0xbe20c6be	-0.15700814
192	0x3ed32c27	0.41244623
193	0x3f01d7de	0.5072001
194	0x3eebe478	0.46072745
195	0x3e3d36f2	0.18477991
196	0x3f0baa33	0.5455658
197	0x3e74b745	0.23898037
198	0x3e2763c5	0.16346653
199	0x3c002e53	0.007823545
200	0x3e600bd9	0.2187952
201	0x3d763ea6	0.06011834
202	0xbe8ed8be	-0.27899736
203	0x3e931ea8	0.28734326
204	0xbf10e6d1	-0.566022
205	0xbe5822b0	-0.21106982
206	0x3e609b2d	0.21934195
207	0x3d0b28c9	0.033974443
208	0x3eeae6cf	0.45879218
209	0x3f1ba045	0.60791427
210	0x3ecfa1ec	0.40553224
211	0x3ec899c7	0.39179823
212	0xbe374480	-0.17897224
213	0x3e89cc2e	0.2691359
214	0xbe6ae14a	-0.22937503
215	0x3e997779	0.29973963
216	0xbdaf5c13	-0.08562484
217	0x3e068950	0.13138318
218	0xbda28160	-0.079348326
219	0xbe4e0ece	-0.20122835
220	0x3e9e0a0c	0.3086704
221	0x3eac891b	0.33698353
222	0x3eac246f	0.33621547
223	0x3e7ed254	0.24884921
224	0x3e6179fc	0.2201919
225	0x3e6410ee	0.22272083
226	0xbc7dad8f	-0.015483274
227	0x3e19267a	0.14956084
228	0xbe04754d	-0.12935372
229	0xbe9b1c75	-0.30295148
230	0xbeb88a36	-0.36042947
231	0xbdcbb09e	-0.099457964
232	0xbc3344d3	-0.010941702
233	0xbeed1a69	-0.46309212
234	0x3e00aabd	0.12565131
235	0xbddca190	-0.10773003
236	0x3e5ea432	0.21742323
237	0x3f1237bb	0.5711629
238	0xbde8a2af	-0.113591544
239	0xbedaf29c	-0.4276322
240	0x3ec7e3c0	0.39040947
241	0xbeb3dbcb	-0.35128626
242	0x3d282698	0.04105243
243	0x3ebd715c	0.3700055
244	0x3e97832e	0.2959227
245	0xbdc542b0	-0.0963186
246	0x3e25025c	0.16114181
247	0x3e9aafe2	0.30212313
248	0x3eacbf1d	0.33739558
249	0x3ebc202e	0.367433
250	0xbecaba1f	-0.39595124
251	0xbcc6d63d	-0.024272079
252	0xbee4bdad	-0.4467596
253	0xbed57754	-0.41692603
254	0x3f123fb6	0.57128465
255	0x3de2a9c8	0.110675395

weight f4 [256, 256]
0	0xbd2cec1a	-0.04221735
1	0x3ce4f780	0.027950048
2	0xbd4c6c75	-0.04990812
3	0xbd3d9b28	-0.046290547
4	0x3e88ae86	0.2669565
5	0x3d4d7ae4	0.050166026
6	0xbe787f7d	-0.24267383
7	0xbe7daa67	-0.24772035
8	0xbe742b85	-0.23844726
9	0xbcf9664c	-0.030444287
10	0xbc604628	-0.013688602
11	0xbc4ef3d8	-0.012631379
12	0x3d23012a	0.039796032
13	0x3d2ba1b2	0.04190225
14	0xbe1f7713	-0.15572767
15	0xbc9e44be	-0.019319888
16	0xbbdc58fb	-0.0067244745
17	0xbcdc33bc	-0.026880138
18	0xbbd1eb56	-0.006406228
19	0xbd0ad6c8	-0.033896238
20	0x3dda4f07	0.106596045
21	0xbd1790ba	-0.037003256
22	0x3d0118cd	0.031517792
23	0xbda38e31	-0.07986105
24	0x3d5ec6eb	0.05438892
25	0xbd8d35b9	-0.068950124
26	0x3a639561	0.0008681622
27	0x3d191c5b	0.037380558
28	0xba4bd700	-0.0007775873
29	0x3d1338c7	0.03594282
30	0x3de91acf	0.113820665
31	0xbd2eafb8	-0.042648047
32	0x3bfbee44	0.0076883156
33	0x3c4663fb	0.012108798
34	0x3bac2916	0.0052539213
35	0xbcf029a4	-0.02931673
36	0xbc58457e	-0.013200162
37	0x3c801ca4	0.015638657
38	0xbd78a494	-0.06070383
39	0x3bda3910	0.0066596344
40	0x3c5126f0	0.012765631
41	0x3dbadd09	0.0912419
42	0xbd4f1226	-0.050554417
43	0x3d78f4fe	0.060780518
44	0xbd1d6088	-0.038422137
45	0xbd27edb8	-0.04099819
46	0xbb28fd16	-0.0025785617
47	0xbce496e9	-0.02790399
48	0x3d630116	0.055420958
49	0xbd20f713	-0.03929813
50	0x3c30aba7	0.010783113
51	0x3b2338ce	0.0024905684
52	0xbd20e279	-0.03927848
53	0xba4edb00	-0.000789091
54	0xbda141d7	-0.07873886
55	0xbd5f71c5	-0.05455186
56	0x3b82fd44	0.003997477
57	0xbbd138d8	-0.00638495
58	0xbd4c2364	-0.04983844
59	0x3d55a09a	0.052155115
60	0xbcb1c8cc	-0.021702193
61	0x3c6ff085	0.014644747
62	0xbd15e34f	-0.03659373
63	0xbe51461b	-0.204369
64	0xbca6731c	-0.02031856
65	0xbe32f8b9	-0.17477693
66	0x3d21d7d6	0.039512478
67	0xbdfd102d	-0.12356601
68	0x3d5da9ea	0.05411712
69	0xbcc79a0c	-0.024365447
70	0x3d5605d2	0.052251644
71	0x3a9e8c80	0.0012096316
72	0xbd694046	-0.05694606
73	0x3ca1d0c0	0.01975286
74	0xbc08a345	-0.008339708
75	0xbdada04a	-0.08477838
76	0x3cf59e38	0.029982671
77	0x3cb0dafa	0.021588791
78	0xbd1f69ef	-0.038919386
79	0xbd5b9a02	-0.05361367
80	0x3db94096	0.09045522
81	0x3d06c35e	0.03290116
82	0xbda05f33	-0.07830658
83	0x3d832b28	0.06404716
84	0x3dc511cc	0.09622535
85	0x3c0718c5	0.008245652
86	0xbdec948a	-0.11551769
87	0xbe6e1aa1	-0.23252346
88	0x3d7b22fa	0.061312653
89	0xbd19e58f	-0.03757244
90	0x3cf2866f	0.029605119
91	0x3d15c52b	0.036564987
92	0x3cb347a4	0.021884747
93	0x3d7d526a	0.061846174
94	0x3ce941c9	0.028473752
95	0xbd04a376	-0.03238245
96	0x3d036cd5	0.032086212
97	0xbd98385f	-0.07432627
98	0xbbdd835e	-0.006760045
99	0xbe011030	-0.12603831
100	0x3d64388e	0.055717997
101	0xbd395c50	-0.04525405
102	0x3d843e13	0.06457152
103	0x3d038988	0.032113582
104	0xbd1631f1	-0.03666872
105	0x3daa1fb2	0.08306827
106	0x3da62a6a	0.081135586
107	0xbd8c1556	-0.06840007
108	0x3dc5090a	0.09620865
109	0x3d137836	0.036003314
110	0xbd2d346b	-0.042286318
111	0x3d985302	0.074377075
112	0x3de15c18	0.110038936
113	0x3d8b3f19	0.06799144
114	0x3d21b8a2	0.03948272
115	0x3bf648a0	0.007515982
116	0xbd2c1668	-0.042013556
117	0x3d8e066d	0.06934819
118	0xbb686680	-0.0035461485
119	0xbcb52ce7	-0.022116138
120	0xbca865e3	-0.020556396
121	0x3ddf2dca	0.108974054
122	0x3db92187	0.09039598
123	0x3bfe4130	0.007759236
124	0xbcdb0153	-0.02673403
125	0xbd26b9b4	-0.040704444
126	0x3ce8ba42	0.028409127
127	0xbc2d79da	-0.010588134
128	0x3d33e3b7	0.043918338
129	0xbd6ee204	-0.058321014
130	0xbd4dc081	-0.050232414
131	0xbbda32d8	-0.006658893
132	0xbe26d458	-0.1629194
133	0xbc26ceb4	-0.010181118
134	0x3a324727	0.00068007637
135	0x3d45b8ab	0.048271816
136	0xbcb02f10	-0.021506816
137	0x3db40263	0.08789518
138	0x3db92830	0.09040868
139	0xbd9405f4	-0.07227698
140	0xbd088552	-0.03333027
141	0xbe3cc0f4	-0.18432981
142	0x3d653816	0.05596169
143	0x3d86e9e8	0.06587583
144	0x3c501ab2	0.012701677
145	0xbe0f2261	-0.13977958
146	0x3d4b4fb7	0.04963657
147	0xbdfa81f3	-0.12231817
148	0xbc9c595c	-0.019085579
149	0x3d8eeb06	0.06978421
150	0x3e3280ab	0.17431895
151	0x3d49650c	0.04916863
152	0xbb34e9e0	-0.002760522
153	0x3d4995a4	0.049214974
154	0x3c8cdece	0.017196085
155	0x3a88e259	0.0010443433
156	0xbd1e5d37	-0.038663115
157	0xbe23199a	-0.15927735
158	0xbd1a8530	-0.037724674
159	0xbe3a0226	-0.18164882
160	0x3d9e270c	0.07722291
161	0x3d5a3c0d	0.053279925
162	0xbb64892f	-0.0034871807
163	0xbd0f18fa	-0.03493593
164	0x3b719e4d	0.0036868036
165	0xbc003be5	-0.00782678
166	0x3e0e34ae	0.13887283
167	0x3dca6f5f	0.098845236
168	0x3c9c23ec	0.019060098
169	0xbd19c7dc	-0.037544116
170	0x3d3956c8	0.045248777
171	0x3e62ed58	0.22160852
172	0x3ba19ffc	0.0049324017
173	0x3cb08634	0.021548368
174	0xbd924649	-0.07142312
175	0xbd58fdf9	-0.052976582
176	0x3d6f3882	0.0584035
177	0xbd77d907	-0.060509708
178	0xbc746627	-0.014916933
179	0x3e435adb	0.19077627
180	0x3c05d586	0.008168584
181	0xbc94b989	-0.018154876
182	0x3cee770b	0.029109498
183	0x3ca8fae0	0.020627439
184	0x3d5b4730	0.053534687
185	0x3d651264	0.05592574
186	0xbc43e4fd	-0.0119564505
187	0x3d0df720	0.034659505
188	0xbe33e066	-0.1756607
189	0xbc934144	-0.017975457
190	0xbd468016	-0.048461996
191	0x3d021a06	0.0317631
192	0xbdafd241	-0.085850246
193	0xbd868bd4	-0.06569639
194	0xbdedfe09	-0.11620719
195	0x39f8e5fc	0.00047473598
196	0xbe5da43f	-0.21644686
197	0xbc925cb1	-0.017866464
198	0x3d551f0a	0.052031554
199	0xbd7664de	-0.06015479
200	0x3da6421a	0.081180766
201	0x39a47f46	0.00031375344
202	0x3d693d73	0.05694337
203	0x3ce8cf40	0.028419137
204	0xbe9f3a7f	-0.31099316
205	0x3c4fcbd8	0.0126828775
206	0xbd76e98d	-0.060281325
207	0x3cd43d98	0.025908276
208	0x3b9a212c	0.0047036614
209	0xbdc166ab	-0.094434105
210	0xbe4b176a	-0.1983315
211	0xbc4c2518	-0.012460016
212	0x3c2b00c8	0.010437198
213	0x3d3e3626	0.04643836
214	0x3bebff6f	0.007202081
215	0xbd35f711	-0.044425074
216	0xbbf6f592	-0.0075365985
217	0xbd48e549	-0.04904679
218	0x3b135580	0.0022481382
219	0x3d09084d	0.033455182
220	0xbc844674	-0.016146876
221	0xbdac7b0c	-0.08421907
222	0xbe2985af	-0.16554902
223	0x3d492c9d	0.049114812
224	0x3d881e7d	0.0664644
225	0xbdbd0381	-0.09229184
226	0x3b2e02e7	0.0026552023
227	0xbe91a966	-0.28449553
228	0xbc82c74f	-0.015964178
229	0x3dad66d6	0.0846688
230	0xbd2f7728	-0.042838246
231	0xbb875c86	-0.0041309027
232	0xbcd35957	-0.025799436
233	0x3d8e8c81	0.06960393
234	0x3dd23cfb	0.10265537
235	0x3cf650cf	0.03006783
236	0x3ddaaa5b	0.10677024
237	0xbe287c8b	-0.1645376
238	0x3da34324	0.079717904
239	0x3d702ef0	0.058638513
240	0x3bf2760d	0.0073993267
241	0x3c0d2df2	0.008616911
242	0xbd410a43	-0.047128927
243	0xbbd33e80	-0.0064466596
244	0xbd66c93c	-0.056344256
245	0x3a9445d1	0.0011312311
246	0x3d43e84d	0.04782896
247	0x3e422fd1	0.18963553
248	0xbd9e3d08	-0.077264845
249	0xbd3726d2	-0.044714756
250	0x3e5cdd02	0.21568683
251	0x3d54c9a7	0.051950123
252	0x3e0228ba	0.12710848
253	0x3d9151f7	0.07095712
254	0x3de2d37c	0.11075494
255	0x3d692745	0.056922216

bias f4 [256]
0	0xbc2baf01	-0.010478736
1	0xbd6b53ba	-0.057452895
2	0x3e0823b7	0.13294874
3	0x3e10b936	0.14133152
4	0x3cd9d930	0.02659282
5	0x3d768ef9	0.060194943
6	0xbd4f8a2a	-0.050668873
7	0x3bf2b8ad	0.007407269
8	0xbdaa8d6f	-0.083277576
9	0xbd165bbe	-0.036708586
10	0x3d960fb9	0.073272176
11	0xbcd6e160	-0.026230514
12	0x3dbd3ee9	0.09240515
13	0x3da5f71a	0.081037715
14	0xbd6d963a	-0.058004595
15	0x3c69813b	0.014252002
16	0x3c6409d0	0.013918355
17	0x3c218038	0.00985723
18	0x3c919f00	0.017776012
19	0xbcae38fc	-0.021267407
20	0xbc007db0	-0.007842466
21	0xbc824927	-0.015904022
22	0xbd13d942	-0.036095865
23	0x3dbfea59	0.0937087
24	0xbd3d4816	-0.046211325
25	0x3e2274a1	0.15864803
26	0x3d9fee51	0.07809127
27	0x3d035341	0.03206182
28	0xbd7f04e5	-0.062260527
29	0x3d764b94	0.06013067
30	0x3dc61993	0.09672847
31	0x3d4b3a84	0.04961635
32	0x3d96c1c3	0.07361176
33	0x3e2e8076	0.17041191
34	0x3d647de4	0.05578412
35	0xbd51e9c2	-0.05124832
36	0xbc9124c1	-0.017717721
37	0xbabb268f	-0.0014278459
38	0xbd150e44	-0.036390558
39	0x3cfc4441	0.030794265
40	0xbc633680	-0.013867974
41	0xbd6110ea	-0.05494777
42	0x3dc9fa46	0.09862189
43	0xbd7228c5	-0.059120912
44	0xbd53a57e	-0.051671498
45	0x3bd90c5f	0.006623789
46	0x3df71b57	0.120657615
47	0x3c1a5509	0.009419688
48	0xbd66639e	-0.056247346
49	0x3c883108	0.016624942
50	0xbcd52b20	-0.02602154
51	0x3da53a90	0.080678105
52	0xbd0523e7	-0.032504942
53	0xbc372335	-0.011177828
54	0xbd1390c7	-0.036026742
55	0x3dcf562f	0.1012386
56	0xbcedcf17	-0.029029412
57	0x3d42bc38	0.04754278
58	0x3dac4ef9	0.084135
59	0xbd67efcd	-0.056625176
60	0xbd17a608	-0.037023574
61	0x3c89aa9c	0.016804986
62	0xbce1abc8	-0.027547732
63	0x3d4309db	0.04761682
64	0xbbdf9249	-0.0068228585
65	0xbd3928b4	-0.045204833
66	0x3d035894	0.032066897
67	0x3d3d58a2	0.046227105
68	0x3c5decc2	0.013545217
69	0xbbebf840	-0.0072012246
70	0x3d112ff5	0.035446126
71	0x3d730f2b	0.059340637
72	0xbd1285b8	-0.035772055
73	0x3dc472c3	0.095922016
74	0x3cfac2e5	0.030610511
75	0x3cf5c4d4	0.030001082
76	0x3d9f9995	0.07792965
77	0x3bdd0bd0	0.006745793
78	0x3e0e227e	0.13880345
79	0x3cd3d758	0.02585952
80	0xbc97324c	-0.0184566
81	0x3d2f83d3	0.042850327
82	0x3d9dc25f	0.07703089
83	0x3d5446b6	0.051825248
84	0x3d6fda3d	0.058557738
85	0x3b9e73e5	0.004835593
86	0x3d79e2aa	0.06100718
87	0x3d8307f4	0.06398001
88	0xbcc80829	-0.024417954
89	0x3ddddfc7	0.10833698
90	0x3d0a50ac	0.03376834
91	0xbd1106b4	-0.035406783
92	0x3dafff5d	0.085936286
93	0x3daa3e66	0.08312683
94	0x3d61a016	0.05508431
95	0x3d6c4832	0.05768604
96	0xbc61d468	-0.013783552
97	0x3c7f9828	0.015600242
98	0x3dcc07b3	0.09962406
99	0xbd325d66	-0.043546103
100	0xbceae484	-0.028673418
101	0x3d6158b1	0.055016223
102	0x3ba90fdd	0.0051593618
103	0xbd22a6c4	-0.03970982
104	0xbd4bed49	-0.04978684
105	0x3dde9758	0.1086871
106	0x3d84e37e	0.06488703
107	0xbc9d9285	-0.019234905
108	0xbcd28c78	-0.025701746
109	0xbcb5efd0	-0.022209078
110	0xbd0db32c	-0.0345947
111	0x3dd946fb	0.106092416
112	0x3dd5c852	0.10438599
113	0x3dc0fd02	0.094232574
114	0x3d9cd3a5	0.076575555
115	0x3d774cc6	0.06037595
116	0xbd4d7b24	-0.050166264
117	0x3e0e8be6	0.13920555
118	0x3d3b4bac	0.045726463
119	0xbd795a6d	-0.060877252
120	0x3d0bdaf8	0.03414437
121	0xbb4bc7cf	-0.0031094437
122	0xbb438392	-0.002983306
123	0x3e026279	0.12732877
124	0x3b4f16e4	0.0031599337
125	0x3e38a75c	0.18032593
126	0xba7f7a00	-0.00097456574
127	0x3c7258a4	0.014791641
128	0x3e11a7b5	0.14224131
129	0xbd1fd1f6	-0.039018594
130	0x3d0fb2fd	0.035082806
131	0xbd08b3c5	-0.033374567
132	0xbd062ede	-0.03275954
133	0x3c379808	0.011205681
134	0xbcb30a05	-0.021855364
135	0xbc8f0333	-0.01745758
136	0x3c9c6038	0.01908885
137	0x3bee1907	0.007266167
138	0x3dd0cf3f	0.10195779
139	0xbb80a008	-0.003925327
140	0x3c8c498e	0.017124917
141	0x3b9e4392	0.0048298324
142	0x3ca97d21	0.020689549
143	0x3dbdc143	0.09265377
144	0x3da8254a	0.08210237
145	0x3d4f2c6c	0.050579473
146	0xbcf3767f	-0.02971959
147	0xbc35b397	-0.011090181
148	0x3d6b2e54	0.05741723
149	0x3d6c706a	0.057724394
150	0xbaa4c7eb	-0.0012571787
151	0xbd81c041	-0.06335498
152	0xbd1f6c8d	-0.03892188
153	0x3e1bb6ef	0.15206502
154	0xbbb49bdd	-0.0055117444
155	0xbcb1dc9c	-0.02171164
156	0xbcf3fbfc	-0.029783241
157	0x3cbd07a6	0.023074936
158	0xbd0936cc	-0.033499524
159	0xbd2a1aea	-0.041529574
160	0x3a9988a9	0.0011713702
161	0xbe10d8f9	-0.14145268
162	0x3ccb247e	0.024797674
163	0x3cc35d0c	0.02384808
164	0x3dac415d	0.084109046
165	0x3d7dff30	0.062010944
166	0x3d1cc32c	0.038272068
167	0xbcf52b78	-0.029927954
168	0x3bee79f0	0.0072777197
169	0xbd0779be	-0.033075087
170	0x3d8f5025	0.06997708
171	0x3da635e2	0.08115746
172	0xbc3417f6	-0.010992041
173	0xbce593e8	-0.028024629
174	0x3cb16bc4	0.021657832
175	0xbd8d0f87	-0.06887727
176	0x3c23ed55	0.010005315
177	0x3cd26b71	0.025685998
178	0x3db00a25	0.08595685
179	0xbba0d8c0	-0.004908651
180	0x3c4102b7	0.011780432
181	0xbd140e66	-0.036146544
182	0xbce28085	-0.027649174
183	0x3dc457b0	0.095870376
184	0xbd7460e8	-0.05966273
185	0x3d8290fb	0.06375309
186	0xbc3f3faf	-0.011672898
187	0x3b4b28a0	0.0030999556
188	0xbd1833b4	-0.037158683
189	0xbbf65d6d	-0.0075184614
190	0x3dd9fec1	0.106442936
191	0x3ddeee16	0.10885255
192	0x3bd9d632	0.0066478485
193	0xbdd940e0	-0.10608077
194	0x3c800f6e	0.015632357
195	0x3da43dd5	0.08019606
196	0x3cbae2e4	0.022813268
197	0xbd5a4c8a	-0.05329565
198	0x3e156124	0.14587837
199	0xbd352df8	-0.044233292
200	0x3b331c25	0.0027330008
201	0xbc0e7aa5	-0.008696233
202	0xbd29604a	-0.041351594
203	0x3d6f75d4	0.05846198
204	0x3b60d3ec	0.0034306003
205	0x3da3e734	0.08003083
206	0x3e086c3f	0.13322543
207	0x3d909070	0.07058799
208	0xbca7f082	-0.020500425
209	0x3ca8f735	0.02062569
210	0x3d0d13c9	0.034442697
211	0x3e1511a2	0.14557508
212	0x3d8febd4	0.070274025
213	0xbd1f7f65	-0.038939852
214	0x3da6348f	0.081154935
215	0x3e3fa84f	0.18716548
216	0x3cbaf84e	0.022823479
217	0x3d27494a	0.04084138
218	0x3d5a0519	0.053227518
219	0x3ce52b04	0.027974613
220	0xbd3b1e91	-0.045683447
221	0x3df6d0eb	0.12051567
222	0x3c80fd8a	0.015745897
223	0x3da7e546	0.08198027
224	0x3dba952e	0.09110485
225	0xbc2b3abc	-0.010451015
226	0x3df1f565	0.118143834
227	0x3d775b52	0.060389824
228	0x3db63c18	0.08898181
229	0x3d34867a	0.04407356
230	0xbd2b65cc	-0.041845128
231	0xbd2e61ac	-0.042573616
232	0x3d6f7861	0.05846441
233	0xbb278ab2	-0.0025564847
234	0xbd413807	-0.047172572
235	0x3e38ed92	0.18059376
236	0x3d774fca	0.060378827
237	0x3e1a9950	0.15097547
238	0x3d60c092	0.05487115
239	0x3d464193	0.04840238
240	0x3e01e6c2	0.12685683
241	0x3c5b57b0	0.013387606
242	0x3d6d9e2a	0.058012165
243	0x3d625711	0.055258814
244	0xbce30c94	-0.027715959
245	0xbd298267	-0.041384127
246	0x3d2f5b50	0.04281169
247	0x3bb8857f	0.0056311483
248	0x3dae0f9e	0.084990725
249	0x3df98af0	0.12184703
250	0x3c88facb	0.01672115
251	0x3d2f7bb7	0.042842593
252	0xbd814d48	-0.06313568
253	0x3d7cf584	0.06175758
254	0x3dca87a7	0.09889155
255	0x3de8e078	0.11370939

weight_mu f4 [1, 256]
0	0x3dc7934f	0.09744894
1	0x3d466004	0.04843141
2	0xbe2cf828	-0.16891539
3	0xbda5ccbf	-0.08095693
4	0xbd7d8570	-0.061894834
5	0xbdd7ac6f	-0.10530936
6	0x3d2a56c9	0.04158667
7	0x3d4842f4	0.048891976
8	0x3d939b45	0.0720735
9	0x3c96f05f	0.018425165
10	0xbdd45f87	-0.10369783
11	0x3d8d9102	0.06912424
12	0xbd90c942	-0.07069637
13	0xbda7cf37	-0.0819382
14	0x3d2c46e0	0.04205978
15	0xbdaac759	-0.08338804
16	0xbda4d386	-0.080481574
17	0xbd602992	-0.054727145
18	0x3cd1f5f4	0.025629975
19	0x3c3f8324	0.011688981
20	0xbd2ba1e8	-0.041902453
21	0x3b160203	0.0022889383
22	0x3d1ce442	0.03830362
23	0xbdb32e12	-0.087490216
24	0x3d5380c5	0.051636476
25	0xbe5f2bbc	-0.21794027
26	0xbdb291ed	-0.087192394
27	0x3d433bb6	0.047664367
28	0x3c957c1c	0.018247657
29	0xbe314b23	-0.17313819
30	0xbe2abd6e	-0.16673824
31	0x3cbc73a6	0.023004364
32	0xbd949ff7	-0.072570734
33	0xbe482d4d	-0.19548531
34	0x3e122ec5	0.14275654
35	0xbc0577a8	-0.008146204
36	0x3dea0ae5	0.11427859
37	0x3e2d239f	0.1690812
38	0x3ccce224	0.025010176
39	0xbd07f93a	-0.033196665
40	0xbcaf0864	-0.021366306
41	0xbd38a11c	-0.04507552
42	0xbe38d1b1	-0.18048741
43	0xbd1f1f6c	-0.038848326
44	0xbb829400	-0.003984928
45	0x3c095b38	0.008383565
46	0xbdc12d88	-0.094325125
47	0xbce57729	-0.028010922
48	0xbd6ac8f2	-0.057320543
49	0x3c76f670	0.015073404
50	0x3d004218	0.031313032
51	0xbd872dc3	-0.06600525
52	0x3cb7cdf9	0.022437083
53	0xbd63f99f	-0.05565798
54	0x3d2d81cd	0.042360116
55	0xbde59084	-0.11209205
56	0x3d22c5ea	0.039739527
57	0xbd7ac1da	-0.061220028
58	0xbd217727	-0.039420273
59	0x3c92b048	0.017906323
60	0xbd170c56	-0.036877
61	0xb99adbde	-0.00029536983
62	0xbbdaef27	-0.006681341
63	0x3d5a300a	0.05326847
64	0x3dd925f1	0.1060294
65	0x3d0051d0	0.031328022
66	0x3b6fa060	0.0036564097
67	0x3d874a7c	0.06606004
68	0xbde3036f	-0.11084639
69	0xbd1a41fe	-0.03766059
70	0xbc96168c	-0.018321298
71	0xbe2577d3	-0.1615899
72	0x3d64892d	0.055794884
73	0xbd8aa6ac	-0.067700714
74	0xbd90c7c1	-0.0706935
75	0xbe693dbc	-0.22777456
76	0x39d03bc6	0.00039717386
77	0x3d505f1c	0.050871953
78	0xbc87f8ff	-0.016598223
79	0xbcfe0b3c	-0.031011216
80	0x3b652880	0.0034966767
81	0x3d0da86a	0.03458444
82	0xbd8f2fed	-0.06991563
83	0xbdc6eb68	-0.09712869
84	0xbdb89e54	-0.09014574
85	0x3cd5c462	0.02609462
86	0x3b6abe80	0.0035819113
87	0x3e08c7ca	0.13357463
88	0x3de5b68f	0.11216461
89	0xbda0c5fe	-0.07850264
90	0xbd451020	-0.04811108
91	0x3d2a51da	0.041581966
92	0xbd2ad872	-0.041710325
93	0xbd880c79	-0.06643004
94	0x3d1f0f14	0.03883274
95	0x3db5f500	0.08884621
96	0x3d35dfd0	0.044402897
97	0x3c2f1f38	0.0106885955
98	0x3c8a8646	0.01690973
99	0xbca03774	-0.019557692
100	0xbcea4519	-0.028597401
101	0x3ca5564e	0.020182755
102	0xbd99a2d4	-0.0750176
103	0xbd61c314	-0.05511768
104	0xbcafe2d8	-0.021470472
105	0xbdcdacf7	-0.10042756
106	0xbd95dc15	-0.07317368
107	0xbdfdb9b3	-0.12388935
108	0x3da87b13	0.082265995
109	0x3d7d70ac	0.06187503
110	0xbbcb0be0	-0.006196484
111	0xbdab5364	-0.08365515
112	0xbe2994e0	-0.16560698
113	0x3dc519e5	0.096240796
114	0xbd25d25e	-0.040483825
115	0x3e070cee	0.13188526
116	0x3d6fc4df	0.05853736
117	0xbdb6503d	-0.08902023
118	0xbd55ac36	-0.052166186
119	0x3d1e39fa	0.03862951
120	0xbc106ac0	-0.008814514
121	0x3d494604	0.049139038
122	0x3d3b8c6f	0.045788225
123	0x3e086155	0.13318379
124	0x3e124da2	0.14287427
125	0xbe2026c9	-0.15639795
126	0x3d1bb43c	0.03801368
127	0xbd65a6e4	-0.056067362
128	0xbe2a0a9d	-0.16605611
129	0xbd203196	-0.03910979
130	0xbdfc8045	-0.12329153
131	0x3ca26c9f	0.019827185
132	0x3d708b14	0.058726385
133	0x3d0676aa	0.03282801
134	0x3d39968d	0.045309592
135	0x3d22db92	0.03976018
136	0x3d4e7ba0	0.050410867
137	0x3c5222f7	0.012825719
138	0xbd0f4833	-0.034980964
139	0xbdbf136c	-0.09329876
140	0xbdab9ec6	-0.08379893
141	0xbd5b49c8	-0.05353716
142	0xbd872c16	-0.066002056
143	0xbd5f1ec6	-0.054472707
144	0x3d5a0cd3	0.053234886
145	0xbd94dc1c	-0.07268545
146	0x3cfcee96	0.030875485
147	0x3e35a60f	0.17739128
148	0xbd312aec	-0.043253824
149	0xbd91976e	-0.07108961
150	0x3d9052d7	0.070470504
151	0x3d4f7425	0.050647873
152	0x3d4604eb	0.048344534
153	0xbd25bc1d	-0.040462602
154	0x3e2ab20b	0.1666948
155	0x3d12a786	0.035804294
156	0x3d4fbcba	0.050717093
157	0x3d5d3aec	0.05401127
158	0xbd250984	-0.040292278
159	0x3c6a1d78	0.014289252
160	0xbca61d4f	-0.020277647
161	0xbe52a45a	-0.20570508
162	0xbd34d2a2	-0.044146188
163	0xbdf5d040	-0.12002611
164	0x3d1664d7	0.036717262
165	0xbe092b66	-0.13395461
166	0xbd25c968	-0.04047528
167	0x3e11e080	0.14245796
168	0x3cabfc80	0.020994425
169	0xbc96d44b	-0.018411776
170	0xbdc689b1	-0.09694231
171	0xbe0a38c9	-0.13498224
172	0x3d116b59	0.035502765
173	0x3d7be1c6	0.06149461
174	0x3cd3461c	0.025790267
175	0x3d8ede2b	0.06975969
176	0x3dded407	0.10880285
177	0xbd27a30f	-0.04092699
178	0xbdcd05c7	-0.100108676
179	0x3d57f27e	0.052721493
180	0xbdfeaabb	-0.12434908
181	0x3dbe0ea1	0.09280134
182	0x3d6cf01b	0.05784617
183	0x3e45e77f	0.1932659
184	0x3d3a9ce4	0.04555978
185	0xbdba1908	-0.090868056
186	0x3c27dd7a	0.010245675
187	0x3ced9ff3	0.029006934
188	0x3cfbf33c	0.030755632
189	0x3d6e4744	0.058173433
190	0xbdd637e9	-0.10459883
191	0xbd678a9e	-0.05652868
192	0xbb8186b0	-0.0039528236
193	0x3daf5cce	0.08562623
194	0x3d211d3e	0.03933453
195	0xbdad723b	-0.08469053
196	0x3c176108	0.009239443
197	0xbcf6d834	-0.03013239
198	0xbda66a41	-0.08125735
199	0x3ca11afc	0.019666187
200	0x3b108ad4	0.0022055404
201	0x3e4da1c0	0.20081234
202	0xbd323414	-0.043506697
203	0xbd3746c1	-0.04474521
204	0x3cdf83d1	0.027284535
205	0xbd944cc5	-0.07241205
206	0xbdb3fcdc	-0.087884635
207	0xbdf3dbc6	-0.11907153
208	0xbcc2e21e	-0.023789462
209	0xbc3a35f7	-0.011365405
210	0xbc878791	-0.016544135
211	0xbe2f6444	-0.17128092
212	0xbd33e2e4	-0.04391755
213	0x3d4bc650	0.049749672
214	0xbd9dc06a	-0.07702716
215	0xbe057fcd	-0.13037033
216	0xbdc29340	-0.09500742
217	0xbd09356e	-0.03349822
218	0x3d1139d4	0.03545554
219	0x3c953df8	0.018218026
220	0x3db13951	0.0865351
221	0xbe070893	-0.13186865
222	0xbdb60255	-0.088871635
223	0xbe07fda0	-0.13280344
224	0xbd852706	-0.06501584
225	0x3d1ad742	0.037802942
226	0xbd7da97c	-0.06192921
227	0x3d5d004c	0.05395536
228	0xbd8ba9e7	-0.06819516
229	0x3cf24551	0.029574068
230	0x3c9b2f50	0.018943459
231	0xbd308eac	-0.043104813
232	0xbd5adc1f	-0.05343258
233	0xbd03a19f	-0.032136556
234	0x3d1aa666	0.037756346
235	0xbdbb93b5	-0.09159032
236	0xbde1caa9	-0.110249825
237	0xbe1c34a8	-0.15254462
238	0x3c9aeb88	0.018911138
239	0xbdbdd5ed	-0.09269319
240	0xbdd69836	-0.10478251
241	0xbd7a2c35	-0.061077315
242	0x3cac382c	0.021022879
243	0x3d3dcd2b	0.04633824
244	0x3dbb9e0d	0.09161005
245	0x3d189ec4	0.037260786
246	0x3d544751	0.051825825
247	0x3d266bff	0.040630337
248	0x3ca69e6b	0.020339211
249	0xbe4309e6	-0.19046745
250	0x3d564f41	0.052321676
251	0xbd9571da	-0.07297106
252	0xbda52618	-0.080639064
253	0x3d7257a2	0.059165604
254	0xbda6ba70	-0.08141029
255	0x3e38cb67	0.18046342

weight_sigma f4 [1, 256]
0	0x3a838962	0.001003545
1	0x3d000000	0.03125
2	0x3b34dc23	0.0027597032
3	0x3afad98a	0.0019138318
4	0x3d000000	0.03125
5	0x3afa3188	0.0019088248
6	0x3cf850ed	0.030312026
7	0xbacdf4f7	-0.0015713264
8	0x394396a1	0.00018652763
9	0x3ceec91d	0.029148633
10	0x3b646b6a	0.0034854063
11	0x3b77d077	0.0037813464
12	0x3b2117a1	0.0024580734
13	0x3b4be88e	0.0031113955
14	0x3d000000	0.03125
15	0x3ba69f91	0.0050849398
16	0x3bd9956b	0.0066401265
17	0x3d000000	0.03125
18	0x3d000000	0.03125
19	0x3cfc24f3	0.030779338
20	0x3d000000	0.03125
21	0x3cfb496e	0.030674662
22	0x3d000000	0.03125
23	0x3b2a790b	0.0026012089
24	0x3d000e11	0.031263415
25	0x3a8ea88c	0.0010883971
26	0x3bafd7a1	0.005366281
27	0x3d029378	0.03187892
28	0x3cf1b7f9	0.02950667
29	0x3b3da1f0	0.0028935634
30	0x35aa4abb	1.2687736e-06
31	0x3cf10822	0.029422823
32	0x3bf10f50	0.0073565617
33	0x39a4a38e	0.00031402375
34	0x3b74b4c4	0.003733919
35	0x3d000000	0.03125
36	0x3b9d2aef	0.004796378
37	0x3c25c372	0.010117399
38	0x3d01008a	0.031494655
39	0x3a7bf11f	0.000961082
40	0x3d000000	0.03125
41	0x3d000000	0.03125
42	0xb9d035a6	-0.00039712823
43	0x3cffbfcd	0.031219387
44	0x3d000000	0.03125
45	0x3c9b0c6c	0.018926822
46	0x3b04806b	0.0020218145
47	0x3cff992b	0.031200966
48	0x3d000000	0.03125
49	0x3d000000	0.03125
50	0x3d000000	0.03125
51	0x3b9d4b44	0.004800232
52	0x3cfc6c9a	0.030813504
53	0x3cf38b1b	0.029729417
54	0x3d01f7cc	0.03173046
55	0x3b3b2719	0.002855724
56	0x3cfee540	0.031115174
57	0x3d000000	0.03125
58	0xb8b51083	-8.633828e-05
59	0x3cf9f3c3	0.030511742
60	0x3d000000	0.03125
61	0x3c2595aa	0.0101064835
62	0x3d0cee72	0.034407087
63	0x3cffa9ac	0.031208836
64	0x3a2437a7	0.00062643964
65	0x3cfa608b	0.030563613
66	0x3d000000	0.03125
67	0x3ba90907	0.005158547
68	0x3bd54518	0.0065084808
69	0x3d000000	0.03125
70	0x3d08deb7	0.033415522
71	0x3b39218c	0.0028248755
72	0x3af27260	0.0018497221
73	0x3b2b4af3	0.0026137203
74	0x3af07f4f	0.0018348488
75	0x3ba5e1e8	0.0050623305
76	0x3b6d50e4	0.0036211545
77	0x3d000000	0.03125
78	0xb9123dcf	-0.0001394667
79	0x3d000000	0.03125
80	0x3d000000	0.03125
81	0x3c034f4a	0.008014509
82	0x3a7932b8	0.0009506154
83	0x3b552d74	0.0032528313
84	0x3b5c5461	0.003361963
85	0x3cffc4da	0.031221796
86	0x3d000000	0.03125
87	0x3ccb05dd	0.02478307
88	0x3ae8742b	0.0017734816
89	0x3af76607	0.0018875011
90	0x3d000000	0.03125
91	0x3d000000	0.03125
92	0x3bc22a27	0.005925435
93	0x3b27cae3	0.0025603108
94	0x3d000000	0.03125
95	0x3a8ad200	0.0010591149
96	0x3d000000	0.03125
97	0x3d000000	0.03125
98	0x3ca41998	0.020031735
99	0x3d000000	0.03125
100	0x3cff44ff	0.03116083
101	0x3b95b893	0.004569122
102	0x3a9ca6e5	0.0011951594
103	0x3d0d87a7	0.034553196
104	0x3cf90c48	0.030401364
105	0x3b01293e	0.001970842
106	0x3bb20313	0.0054324954
107	0x3c94327e	0.018090483
108	0x3b9b4a13	0.004739055
109	0x3cfb2717	0.030658288
110	0x3d000000	0.03125
111	0x3c2c5c09	0.01051999
112	0x3a01c38c	0.0004950098
113	0x3c12b706	0.008954769
114	0x3b1fa513	0.0024359867
115	0x3c0436d8	0.008069716
116	0x3d0068e8	0.031350046
117	0x3b0411d8	0.0020152237
118	0x3bfb9213	0.0076773255
119	0x3d011063	0.03150977
120	0x3d000000	0.03125
121	0x3d02d6bd	0.03194307
122	0x3cfb4826	0.030674051
123	0x3be07cad	0.0068508
124	0x38970a68	7.2021794e-05
125	0xba8ecdff	-0.0010895132
126	0x3d000000	0.03125
127	0x3c2be571	0.010491715
128	0x3a695bbc	0.0008901914
129	0x3d000000	0.03125
130	0x3c8ff615	0.017573396
131	0x3cfa2047	0.03053297
132	0x3d000000	0.03125
133	0x3d000000	0.03125
134	0x3d0282cf	0.03186303
135	0x3cfa56c9	0.03055896
136	0x3d000000	0.03125
137	0x3b8e533e	0.0043434193
138	0x3b1ee9bd	0.0024248206
139	0x3b9f4465	0.004860448
140	0xbaa35821	-0.0012462178
141	0x3ba690df	0.005083188
142	0x3b62ac2d	0.0034587488
143	0x3a1e5f5a	0.000604143
144	0xb9c5d2d2	-0.0003773184
145	0x3b967da0	0.0045926124
146	0x3d03ff70	0.032226026
147	0x3c339fe2	0.010963412
148	0x3d000000	0.03125
149	0x3b25550c	0.0025227694
150	0x3a40507a	0.00073362107
151	0x3af9254b	0.0019008307
152	0x3d02ada0	0.031903863
153	0x3977c24a	0.00023628134
154	0xba65e551	-0.00087698275
155	0x3d000000	0.03125
156	0x3d00ba65	0.03142776
157	0x3d0ddf77	0.03463694
158	0x3d000000	0.03125
159	0x3d000000	0.03125
160	0x3c6961ee	0.01424454
161	0xba32c0ad	-0.0006818872
162	0x3ac52d48	0.0015043402
163	0x3bc93c2f	0.0061412076
164	0x3c3d95fb	0.011571403
165	0x3ab938ea	0.0014131342
166	0x3cfd5683	0.030925041
167	0x3c9b2822	0.018940035
168	0x3d000000	0.03125
169	0x3d047ada	0.032343723
170	0x3bacba17	0.005271207
171	0x39b7226d	0.0003493013
172	0x3cfaca68	0.030614093
173	0x3d000000	0.03125
174	0x3be2986f	0.006915144
175	0x3b86c3d1	0.0041126986
176	0x3b7701b7	0.003769023
177	0x3a927a0a	0.0011175286
178	0x38abca20	8.191564e-05
179	0x3d000000	0.03125
180	0x3cae4138	0.021271333
181	0xba3d888f	-0.00072301266
182	0x3d0232c9	0.031786714
183	0xba3fbb08	-0.00073139416
184	0x3d037d90	0.032102168
185	0x38b5a58d	8.661589e-05
186	0x3ad04d13	0.001589211
187	0x3cfce23e	0.0308696
188	0x3d000000	0.03125
189	0x3cea739f	0.028619586
190	0x3b641ecd	0.0034808398
191	0x3aed4e81	0.0018105061
192	0x3be2852b	0.0069128475
193	0x3b1d6a41	0.002401963
194	0x3d03199c	0.032006845
195	0x3b5d1f2e	0.0033740508
196	0x3d000000	0.03125
197	0x3d000000	0.03125
198	0x3b0ec6a7	0.0021785886
199	0x3cfcb255	0.030846754
200	0x3cf7a248	0.030228749
201	0x3c8077b4	0.015682079
202	0x3d000000	0.03125
203	0x3b399944	0.0028320113
204	0x3c2f897f	0.010713934
205	0x3b613d5e	0.0034368853
206	0x3b1074c5	0.0022042256
207	0x38dba83e	0.00010474071
208	0x3b486bb2	0.003058177
209	0x3a65ea1f	0.00087705435
210	0xbaebb873	-0.0017984047
211	0x3afa0e08	0.0019077668
212	0x3b49bb64	0.003078186
213	0x3cfb2c9f	0.030660925
214	0x3ba1140f	0.0049157212
215	0x3b00e193	0.0019665703
216	0x3b530e06	0.0032204404
217	0x3d000000	0.03125
218	0x3cf9c6b3	0.030490255
219	0x3d000000	0.03125
220	0xba04993d	-0.00050582347
221	0xbab95eae	-0.0014142597
222	0x3a93d3d7	0.0011278343
223	0x3b2b8cdd	0.002617649
224	0xbaa43999	-0.0012529372
225	0x3ce6407e	0.028106924
226	0x3bd1c8d0	0.0064021125
227	0x3d000000	0.03125
228	0x3b56a83f	0.003275409
229	0x3cf5ad13	0.029989755
230	0x3d000000	0.03125
231	0x3d01fcd0	0.03173524
232	0x3a9797d0	0.0011565629
233	0x3d04af45	0.032393713
234	0x3cf0493c	0.029331796
235	0x3a6b2081	0.0008969382
236	0x3a04cebd	0.0005066207
237	0xb9f1b3ed	-0.00046101157
238	0x3d000000	0.03125
239	0x3b4b351d	0.0031007
240	0x3a628a28	0.00086418027
241	0x392e42b5	0.00016618783
242	0x3d000000	0.03125
243	0x3d029577	0.031880822
244	0x3c4c5b94	0.012473006
245	0x3cfbdc0d	0.030744577
246	0x3d05c6c5	0.032660265
247	0x3d03130d	0.03200059
248	0x3b18559a	0.0023244382
249	0xbaa889d8	-0.0012858463
250	0x3be0ec4f	0.0068641077
251	0x3b7ab5c9	0.0038255325
252	0x3b50fb95	0.0031888236
253	0x3d000000	0.03125
254	0xb983707d	-0.00025070077
255	0x3b0bf52b	0.0021355848

weight_epsilon f4 [1, 256]
0	0x3f803c33	1.0018371
1	0x3faff360	1.3746147
2	0xbf186aac	-0.5953777
3	0x3dc8aaa4	0.09798172
4	0x3fd91c9d	1.6961857
5	0xbf26b0c4	-0.6511347
6	0xbf8ab8ca	-1.0837643
7	0xbf38ea6d	-0.72232705
8	0xbf6d2856	-0.9263967
9	0x3f5e2312	0.86772263
10	0xbf2e7c1a	-0.68158114
11	0x3f5ae037	0.85498375
12	0x3ecd3fe9	0.40087822
13	0x3f14ac90	0.5807581
14	0xbf589822	-0.84607136
15	0xbf591427	-0.84796375
16	0x3f022fa9	0.50853974
17	0x3f94fd32	1.1639769
18	0xbf4ae7a8	-0.7925973
19	0x3f8c32d9	1.0953017
20	0x3e39dd3e	0.18150803
21	0x3f3a7d74	0.72847676
22	0xbea3aff7	-0.31970188
23	0xbf387435	-0.7205232
24	0x3f8c9f31	1.0986081
25	0xbf8f5666	-1.1198242
26	0xbf48edbc	-0.78487754
27	0xbf408c25	-0.75213844
28	0xbf38ba1f	-0.72159
29	0x3f3829db	0.71938866
30	0xbe0a3d68	-0.13499987
31	0x3f3759cc	0.71621394
32	0xbef29b97	-0.4738433
33	0x3f430465	0.7617858
34	0x3ed700c0	0.4199276
35	0xbf047aea	-0.5175005
36	0x3fa104b8	1.2579565
37	0x3f4a02f1	0.7891074
38	0xbf69a888	-0.91272783
39	0xbf532ba7	-0.82488483
40	0x3e66d862	0.22543481
41	0x3f239f9a	0.6391541
42	0x3f35a6d3	0.7095768
43	0x3eac230f	0.33620498
44	0x3ee3893f	0.44440648
45	0x3f7cf309	0.9880834
46	0xbfb36970	-1.4016552
47	0xbf8a5e06	-1.0809944
48	0xbf0fce8e	-0.5617455
49	0xbed022e3	-0.40651616
50	0xbefeda28	-0.49775815
51	0xbec407b5	-0.3828713
52	0x3f1683bc	0.5879476
53	0xbf9634e9	-1.1734897
54	0xbf1792bc	-0.59208274
55	0x3f8138ea	1.0095494
56	0x3ecdb57c	0.40177524
57	0xbf479e4c	-0.77975917
58	0xbed24375	-0.4106709
59	0xbf474e56	-0.77853906
60	0x3f3621d9	0.711454
61	0xbeca706e	-0.39538902
62	0x3f5fdc81	0.8744584
63	0xbf99769d	-1.1989323
64	0xbed96b38	-0.42464614
65	0x3e5df102	0.21673968
66	0xbf4b860d	-0.7950142
67	0xbf22b5c9	-0.6355863
68	0xbf0ab296	-0.5417875
69	0xbf0738aa	-0.5282084
70	0xbf77e94a	-0.96840346
71	0x3f769b9c	0.9633119
72	0xbf396c14	-0.7243054
73	0xbfabb398	-1.3414183
74	0xbed4f7f3	-0.4159542
75	0xbf3db3e9	-0.74102646
76	0x3f87e796	1.061755
77	0xbe40fea6	-0.1884714
78	0x3f199d15	0.60005313
79	0x3f16535a	0.58720934
80	0xbf1c0685	-0.6094745
81	0x3f95a22a	1.1690114
82	0x3f01c032	0.5068389
83	0xbec1d182	-0.37855154
84	0xbef38395	-0.47561327
85	0x3f7ec5bf	0.99520487
86	0x3f82ab69	1.020856
87	0xbf9b8c32	-1.2152159
88	0xbf9dfe9d	-1.2343327
89	0x3f39ff44	0.7265513
90	0x3ef75181	0.4830437
91	0xbf2cffd8	-0.67577887
92	0x3f868d80	1.0511932
93	0x3f5c9f7f	0.8618087
94	0x3f6a4476	0.91510713
95	0xbf20ebc1	-0.6285973
96	0xbe1ad2f4	-0.15119535
97	0x3f4f6c10	0.81024265
98	0x3f83c5fc	1.0294795
99	0xbedd5725	-0.43230549
100	0x3f6a3c59	0.91498333
101	0x3f39a132	0.7251159
102	0x3f6333a3	0.88750666
103	0x3f0e544c	0.55597377
104	0x3e6feee1	0.23430969
105	0x3f71e2ee	0.9448689
106	0xbef0ea23	-0.47053632
107	0xbed17b2d	-0.40914288
108	0xbf689439	-0.9085117
109	0x3ea9ff11	0.33202413
110	0xbf4e9471	-0.80695254
111	0xbf316226	-0.6929039
112	0x3f9beb1d	1.2181126
113	0xbf2c6f82	-0.6735765
114	0xbefdec66	-0.4959442
115	0xbf8d3128	-1.1030626
116	0xbf9c11c4	-1.2192922
117	0x3f30dfa0	0.69091225
118	0xbebdfd4e	-0.3710732
119	0x3fa90c71	1.3206922
120	0xbf7b44dd	-0.9815195
121	0xbec750a4	-0.3892871
122	0xbf5898d0	-0.84608173
123	0xbf2fa026	-0.6860374
124	0x3ee813ec	0.453277
125	0x3e98218d	0.29713097
126	0x3f87cabd	1.0608746
127	0xbf4e8c00	-0.80682373
128	0x3e6e2529	0.23256363
129	0xbe99e725	-0.30059162
130	0xbf82d65c	-1.0221667
131	0xbf2d8fb6	-0.6779741
132	0xbf6993c4	-0.912411
133	0xbf93cce3	-1.1546901
134	0x3f0ccde3	0.5500166
135	0x3f3d80bf	0.74024576
136	0xbf0cb4e9	-0.54963547
137	0xbf41ed99	-0.7575317
138	0x3ee40515	0.44535127
139	0xbe6a38c6	-0.2287322
140	0xbfa11bac	-1.258657
141	0x3fa417b6	1.2819736
142	0x3f8c05cd	1.093927
143	0xbf6dbb82	-0.9286424
144	0xbf8b53c3	-1.0884937
145	0xbefb45d2	-0.49076706
146	0xbefc6680	-0.4929695
147	0xbe621340	-0.22077656
148	0x3f2ab9d0	0.6668978
149	0xbf102c60	-0.5631771
150	0xbf2c52ce	-0.6731385
151	0xbfaa1039	-1.3286201
152	0xbf4cd132	-0.80006707
153	0xbe961f67	-0.29320833
154	0xbf30c970	-0.6905737
155	0xbf5b77ce	-0.8572968
156	0xbede59ea	-0.43427974
157	0x3f9833be	1.189079
158	0x3f8138af	1.0095423
159	0xbeb31fab	-0.34985098
160	0xbf2dfd8f	-0.67965025
161	0xbdf594ab	-0.11991247
162	0x3f0f8195	0.560571
163	0xbf78c066	-0.97168577
164	0x3f11b68c	0.5691917
165	0x3ed0c4fa	0.4077528
166	0xbf051f8d	-0.5200127
167	0x3eabcfef	0.33557078
168	0x3f6cbb97	0.9247374
169	0x3f4261d9	0.75930554
170	0xbf195e24	-0.5990927
171	0x3f5f5586	0.87239873
172	0x3f9800e2	1.187527
173	0x3f18a905	0.59632903
174	0xbf063f96	-0.52440774
175	0x3f856699	1.0421935
176	0x3f67d733	0.9056274
177	0xbf0e3d7f	-0.55562586
178	0xbe72fd6b	-0.23729484
179	0xbfc07548	-1.5035791
180	0xbf4ad211	-0.79226786
181	0xbf82fa4a	-1.0232632
182	0xbf1c9a66	-0.61173093
183	0xbf50b942	-0.8153268
184	0xbf7b44ad	-0.98151666
185	0x3f1cce02	0.6125184
186	0x3f507bb0	0.8143873
187	0xbf370f11	-0.71507365
188	0x3f7b4015	0.98144656
189	0x3e5e486d	0.21707316
190	0xbf15826d	-0.5840214
191	0xbf54d91a	-0.8314377
192	0xbfa8bde3	-1.3182949
193	0xbf61c52d	-0.8819149
194	0xbf2d1546	-0.67610586
195	0xbeceedc6	-0.40415782
196	0x3ebd1c78	0.36935782
197	0x3f66f383	0.9021532
198	0xbf4b6213	-0.79446524
199	0x3f69b436	0.91290605
200	0xbe90dbbe	-0.2829265
201	0x3f51e563	0.8199064
202	0xbed90c64	-0.42392266
203	0xbf040070	-0.5156317
204	0x3fa10128	1.2578478
205	0x3e70253f	0.23451708
206	0x3f4d0e8f	0.8010034
207	0x3f497790	0.7869806
208	0x3f01936b	0.50615567
209	0xbf139d7d	-0.57662183
210	0x3f225397	0.634088
211	0x3ec9b04a	0.3939231
212	0x3ec88a1c	0.3916787
213	0xbf80c920	-1.0061378
214	0xbf1d5268	-0.61453867
215	0x3ee64adf	0.44978997
216	0x3f373d62	0.7157804
217	0x3f3f27c4	0.7467005
218	0x3f3b55a4	0.7317755
219	0x3f81f02a	1.0151417
220	0x3f5fcfa6	0.8742622
221	0xbecd317d	-0.4007682
222	0x3e98faef	0.29878947
223	0x3f5c7d34	0.86128545
224	0x3f5fdf3b	0.8745
225	0xbfa81ed4	-1.3134408
226	0x3f0d36c8	0.55161715
227	0xbf3fb0ef	-0.74879354
228	0x3f79538d	0.97393113
229	0xbf80ec16	-1.0072048
230	0xbfa41b94	-1.2820916
231	0xbebc4673	-0.36772498
232	0x3f66eb5f	0.902029
233	0xbf217ff8	-0.6308589
234	0x3f5f8d4a	0.87324965
235	0xbf928b59	-1.1448776
236	0xbf616426	-0.8804344
237	0x3f3e85c8	0.74422884
238	0xbed3b5fa	-0.41349775
239	0xbf15e1c9	-0.58547646
240	0x3edbc88c	0.42926443
241	0xbf2c89f0	-0.67397976
242	0x3f853293	1.0406059
243	0x3f5be8b9	0.8590198
244	0x3f4796f8	0.77964735
245	0x3f68f7a1	0.9100285
246	0xbedbda35	-0.42939916
247	0xbf138d63	-0.57637614
248	0x3f2e8d0d	0.68183976
249	0xbe1499c1	-0.14511777
250	0xbef9dd11	-0.48801473
251	0x3f0dee0e	0.5544137
252	0xbe824605	-0.25444046
253	0xbf1c921c	-0.61160445
254	0x3eedb404	0.46426404
255	0x3f1eb089	0.6198812
