experiments/diff_kappa_data/kappa1_2_kappa2_1_kappa3_1/rainbow_dqn_tem.pth (torch, 342918 bytes, 13 tensors)

weight f4 [256, 4]
-0.18809628 -0.22986591 -0.38821906 -0.39880955 -0.31232846 -0.48192942 -0.16833824 -0.4153806
0.0679149 -0.47107562 -0.3369328 0.07960389 0.38091028 0.040162884 0.01092271 0.60994947
0.096993014 0.03830812 -0.49839216 0.3174411 -0.2391063 -0.13402891 0.0010116665 0.40638074
-0.115365215 0.2791058 -0.098858535 -0.44639394 -0.3790391 0.3413523 -0.24385199 -0.3784442
-0.13642311 -0.21920662 0.4413121 0.26182225 -0.09586048 -0.042440176 -0.096933484 -0.47276795
0.43809038 -0.048577484 -0.316804 -0.61675954 -0.4510553 0.03904879 0.060806572 0.017611146
0.25018585 0.026935518 -0.029871877 -0.13700089 0.0028545172 -0.088870704 -0.3692555 -0.41612434
-0.00641771 0.3450494 -0.08150188 0.3809044 0.060941126 0.38802552 -0.13239719 0.53996664
0.14211838 0.2598247 -0.36859092 0.58723444 0.17335029 0.14739233 -0.29329762 -0.18113142
0.14951555 -0.077050865 -0.22088884 -0.5383019 -0.050597608 -0.17300111 -0.3312332 0.073305905
-0.15070996 -0.23020265 0.14884265 0.42529488 -0.13415283 0.2352426 -0.38759893 0.090138465
0.4790824 -0.3094686 -0.28152716 -0.3602925 0.110140234 0.23701179 -0.53612304 -0.30111143
-0.41967037 0.41490155 -0.44850388 -0.35535765 0.21958256 0.087636344 -0.3616273 0.32833856
0.10170693 0.31351253 0.078603 0.43424132 0.23724759 -0.21545461 -0.24877001 -0.47272998
-0.024946928 -0.46819758 0.03404385 0.39991373 0.15494561 -0.039434433 0.37654313 -0.5300863
0.057696037 -0.27385032 -0.2723843 -0.31796154 -0.48917806 -0.34425676 -0.49838758 -0.07071149
0.17630741 -0.32146257 -0.22470053 -0.3237766 -0.29642713 0.15284073 -0.39899063 0.116953455
0.358123 0.45260784 0.26672396 0.24816795 -0.009330833 0.53511155 0.07112667 0.20788795
0.067807816 0.41966304 -0.2030376 0.6491857 -0.38757265 -0.024195433 -0.45139265 -0.0024769902
-0.15175155 0.6236697 0.20988137 0.20260413 -0.055282354 -0.025473595 -0.055143356 -0.4460433
0.4367951 0.50551766 -0.044183306 -0.18584676 0.24747944 -0.030559719 0.1810135 -0.4367639
0.14632045 -0.27757844 -0.29966846 -0.36881062 -0.17318308 -0.26929003 -0.42087597 0.09235412
-0.5191481 -0.11079712 0.3719009 0.2350766 0.44615322 0.018296927 -0.15798877 0.19532873
0.027649857 0.11759248 0.10853364 0.2776313 0.18984951 -0.020508641 0.26900184 0.42471123
0.26929453 -0.44281995 0.50656027 -0.19229181 0.45021692 0.45977724 -0.24226658 0.15968888
-0.3846074 0.32264805 -0.26721224 -0.33026743 0.3858975 -0.11329355 0.38860387 0.5171549
0.3389158 -0.18863389 -0.31610113 -0.19628093 -0.24661905 0.15053928 -0.35821062 0.11017853
0.37161797 0.5625854 -0.38433024 -0.4951197 -0.047466036 0.4183205 0.109877974 -0.37888265
0.09585543 -0.3004374 0.22720264 -0.058264844 0.058383055 -0.36901706 -0.010063236 0.4952171
-0.041816354 -0.26488632 -0.39850873 -0.43797046 0.16350324 0.24582058 0.54868764 -0.23250242
0.41644102 -0.2104949 0.5204056 -0.14747043 0.48273644 -0.4985627 0.4277376 0.23647037
0.42030022 0.39275688 -0.4869086 0.614674 -0.43094802 0.28258544 -0.21188931 0.09518382
00000000: 509c 40be f861 6bbe a6c4 c6be c430 ccbe
00000010: 84e9 9fbe 74bf f6be dc60 2cbe c4ac d4be
00000020: f816 8b3d d330 f1be 7582 acbe 5d07 a33d
00000030: ac06 c33e d681 243d 2bf5 323c a625 1c3f
00000040: 46a4 c63d fae8 1c3d 422d ffbe a487 a23e
00000050: 48d8 74be e03e 09be e599 843a 2311 d03e
00000060: 9944 ecbd f5e6 8e3e 5876 cabd bf8d e4be
00000070: 6a11 c2be bbc5 ae3e 56b4 79be 70c3 c1be
00000080: 80b2 0bbe b377 60be a9f3 e13e 910d 863e
00000090: 8052 c4bd c0d5 2dbd 1085 c6bd a40e f2be
000000a0: 624d e03e 2ff9 46bd 2234 a2be f4e3 1dbf
000000b0: b8f0 e6be a0f1 1f3d 5010 793d 4045 903c
000000c0: 5c18 803e e0a7 dc3c deb5 f4bc f649 0cbe
000000d0: da12 3b3b d801 b6bd 0f0f bdbe 400e d5be
000000e0: a74b d2bb 51aa b03e 75ea a6bd e705 c33e
000000f0: 679d 793d 48ab c63e 2193 07be 413b 0a3f
00000100: 7b87 113e be07 853e f3b7 bcbe ff54 163f
00000110: bd82 313e 04ee 163e 1b2b 96be 847a 39be
00000120: 9b1a 193e d8cc 9dbd af30 62be 27ce 09bf
00000130: 703f 4fbd 3427 31be 6697 a9be 6821 963d
00000140: b653 1abe 3eba 6bbe 356a 183e 40c0 d93e
00000150: 5c5f 09be 70e3 703e 5e73 c6be 849a b83d
00000160: 4a4a f53e ab72 9ebe 5424 90be 4278 b8be
00000170: 3491 e13d 38b3 723e 5c3f 09bf 472b 9abe
00000180: 09df d6be fa6d d43e 4da2 e5be 70f1 b5be
00000190: 40da 603e af7a b33d 3727 b9be fe1b a83e
000001a0: b94b d03d b784 a03e 9cfa a03d e154 de3e
000001b0: 08f1 723e 22a0 5cbe 91bd 7ebe aa09 f2be
000001c0: 805d ccbc 98b7 efbe 9071 0b3d 7ec1 cc3e
000001d0: 10aa 1e3e 0086 21bd 43ca c03e bcb3 07bf
000001e0: ae52 6c3d 1c36 8cbe f475 8bbe dbcb a2be
000001f0: 8c75 fabe 6c42 b0be a82c ffbe 30d1 90bd
00000200: ee89 343e be96 a4be e517 66be 0cc6 a5be
00000210: 4cc5 97be 4882 1c3e 8048 ccbe 4b85 ef3d
00000220: e65b b73e 37bc e73e 0b90 883e bd1f 7e3e
00000230: 5ae0 18bc 12fd 083f dcaa 913d 94e0 543e
00000240: d3de 8a3d 13de d63e 17e9 4fbe 0931 263f
00000250: ec6f c6be 8035 c6bc f01c e7be 0055 22bb
00000260: c264 1bbe d1a8 1f3f 24eb 563e 7577 4f3e
00000270: c06f 62bd 00ae d0bc 00de 61bd ca5f e4be
00000280: 9ba3 df3e 9b69 013f 8ef9 34bd 9d4e 3ebe
00000290: 406b 7d3e 6058 fabc 9a5b 393e 859f dfbe
000002a0: 07d5 153e c31e 8ebe 256e 99be bfd4 bcbe
000002b0: e856 31be 62e0 89be 0e7d d7be 2824 bd3d
000002c0: e4e6 04bf 9ae9 e2bd cb69 be3e ecb7 703e
000002d0: 326e e43e 70e3 953c cfc7 21be 4104 483e
000002e0: f481 e23c 53d4 f03d e346 de3d b125 8e3e
000002f0: e967 423e bd01 a8bc 9cba 893e c073 d93e
00000300: f9e0 893e 4cb9 e2be efad 013f 25e8 44be
00000310: d582 e63e ec67 eb3e bb14 78be 7b85 233e
00000320: 43eb c4be 2032 a53e 0bd0 88be d018 a9be
00000330: 5b94 c53e 7306 e8bd 16f7 c63e 4364 043f
00000340: 5f86 ad3e 3e29 41be 02d8 a1be defd 48be
00000350: b489 7cbe f826 1a3e 6267 b7be 48a5 e13d
00000360: b644 be3e 9905 103f efc6 c4be 5480 fdbe
00000370: bf6b 42bd 1b2e d63e b407 e13d e8fc c1be
00000380: da4f c43d eed2 99be cfa7 683e 1ea7 6ebd
00000390: 1223 6f3d ceef bcbe 45e0 24bc 198d fd3e
000003a0: a047 2bbd 2e9f 87be 5609 ccbe aa3d e0be
000003b0: 656d 273e 64b8 7b3e cb76 0c3f 1d15 6ebe
000003c0: c237 d53e fa8b 57be 4d39 053f 7d02 17be
000003d0: 3b29 f73e 9c43 ffbe 6c00 db3e 4a25 723e
000003e0: 9731 d73e 6e17 c93e 164c f9be 465b 1d3f
000003f0: 38a5 dcbe 0aaf 903e 83f9 58be bcef c23d

bias f4 [256]
0.14944613 -0.32581133 0.5149912 0.043981228 -0.38010696 0.21568018 0.104439005 0.44099408
-0.48540425 -0.4051838 -0.39212593 -0.016087353 0.24994312 0.6023578 0.057479523 0.53654236
-0.41932935 -0.47285283 -0.33921197 0.15112734 0.008716606 -0.376929 -0.140986 0.33909345
-0.32151452 -0.06125741 0.25039873 -0.36169702 -0.0026673079 -0.52187514 0.3123101 0.36533028
0.35137752 0.41891363 -0.18889603 0.25323802 0.0031839572 0.37982446 0.6105743 -0.30484372
0.04246619 -0.37623197 0.18257709 -0.085642755 0.3043429 -0.24204753 0.33468875 0.426077
-0.20703036 0.09904267 -0.17425363 0.38244075 0.50752497 -0.21289611 -0.2533987 0.286193
-0.33454078 0.38292888 0.006767869 -0.17157017 -0.22290295 0.15660155 -0.3793701 0.37965333
0.015583847 -0.060623903 -0.3015876 0.10152307 0.3447358 -0.3225577 0.30904818 -0.49825472
-0.3400959 0.1343906 0.11263574 0.42296854 0.39290258 -0.061189137 0.51635146 -0.45906222
-0.16327995 -0.41900638 0.08538938 -0.0376589 0.50522584 -0.030963175 0.30586517 0.37604415
0.091374815 0.20472376 0.118281 0.07166489 0.12304792 -0.453625 -0.32723802 -0.14388591
-0.39586633 0.47305897 0.39657512 0.4933105 -0.24991643 0.3435853 -0.1390757 -0.47756833
-0.27131662 -0.38375688 -0.019674607 0.35043597 -0.40255108 -0.39264718 0.08985691 0.004173366
-0.4796391 0.13401763 -0.36447746 0.03599842 -0.09407434 -0.5307833 0.4465198 -0.016838085
-0.3371532 -0.039118797 -0.180871 -0.3872341 0.24522705 0.041125953 -0.44010082 0.5600795
0.24301192 0.47682583 -0.35580942 -0.46495715 0.009176891 0.39079517 0.32595402 -0.31500718
-0.20047814 -0.3030539 -0.30979252 0.56718016 0.20158613 -0.12473941 -0.13449305 0.064042464
-0.14225408 -0.06503146 0.2456881 0.271721 -0.15747653 -0.0032760173 0.32684374 -0.26512927
-0.39448506 -0.20966035 -0.06848084 0.32778236 0.5246903 -0.3378498 -0.4831254 0.47484016
-0.13113911 -0.27005213 0.38744467 -0.23713101 -0.4472444 -0.35531488 -0.20876458 0.03258861
-0.34327793 -0.22700906 0.36912543 -0.20670265 -0.22220564 0.18629627 0.06715182 0.5423091
-0.08641487 0.2848622 0.50106114 0.43840477 0.29302573 0.026515646 -0.16841078 -0.030271899
-0.22199194 0.45755854 0.40506056 0.2285714 0.43405712 0.34990722 -0.30295086 -0.26139125
0.43940714 0.4293506 0.33905667 0.16019507 0.4413939 0.1287742 0.032054458 0.0316705
0.26892525 -0.027900437 -0.24359179 0.28734326 -0.5048273 -0.21106982 0.111157574 -0.023022637
0.39460382 0.58241487 0.2970915 0.3199639 -0.17897224 0.2691359 -0.102635175 0.20872292
-0.13591081 0.07326229 -0.079348326 -0.26015303 0.28027564 0.3563916 0.26137766 0.19104764
0.14663461 0.21899332 -0.023132693 0.39025518 -0.2409882 -0.19454347 -0.36042947 -0.16552079
-0.09077641 -0.4637785 0.14227659 -0.0857542 0.22692658 0.498214 -0.07717609 -0.4276322
0.30466172 -0.3953003 -0.05462767 0.3700055 0.2959227 -0.16245578 0.05125026 0.37413603
0.30219433 0.367433 -0.3874095 0.026319364 -0.43806517 -0.4667714 0.58135676 0.13880005
00000000: 6808 193e bed0 a6be 77d6 033f a925 343d
00000010: 619d c2be 44db 5c3e 1ee4 d53d fac9 e13e
00000020: e886 f8be 4074 cfbe bbc4 c8be a0c9 83bc
00000030: 17f1 7f3e 1f34 1a3f a66f 6b3d d75a 093f
00000040: 56b2 d6be c419 f2be 31ad adbe 20c1 1a3e
00000050: 18d0 0e3c d6fc c0be a25e 10be a89d ad3e
00000060: 8d9d a4be 0de9 7abd 4334 803e 5a30 b9be
00000070: 00ce 2ebb 9c99 05bf 1ce7 9f3e 920c bb3e
00000080: c1e7 b33e d97b d63e f66d 41be 6aa8 813e
00000090: f0a9 503b 5a78 c23e 994e 1c3f 7a14 9cbe
000000a0: 07f1 2d3d 7aa1 c0be 7df5 3a3e 7865 afbd
000000b0: d5d2 9b3e 4fdb 77be 535c ab3e c426 da3e
000000c0: c4ff 53be e2d6 ca3d 8b6f 32be 46cf c33e
000000d0: 28ed 013f 7001 5abe 79bd 81be e487 923e
000000e0: ee48 abbe 410f c43e 00c5 dd3b 17b0 2fbe
000000f0: ac40 64be 285c 203e cc3c c2be ec61 c23e
00000100: 6453 7f3c c550 78bd b169 9abe 54eb cf3d
00000110: 3681 b03e 4826 a5be 903b 9e3e 3e1b ffbe
00000120: 0d21 aebe b09d 093e 91ad e63d 558f d83e
00000130: 872a c93e 76a1 7abd 9c2f 043f 340a ebbe
00000140: dc32 27be 0188 d6be a1e0 ae3d 3840 1abd
00000150: 7b56 013f 7ca6 fdbc 5c9a 9c3e dc88 c03e
00000160: b822 bb3d 1ba3 513e 4f3d f23d 0bc5 923d
00000170: 8c00 fc3d 8941 e8be be8b a7be d456 13be
00000180: feae cabe c934 f23e e50b cb3e 3293 fc3e
00000190: 18ea 7fbe 6aea af3e dc69 0ebe d683 f4be
000001a0: 03ea 8abe c87b c4be a42c a1bc 586c b33e
000001b0: 2d1b cebe 0d09 c9be e606 b83d bbc0 883b
000001c0: 4293 f5be eb3b 093e ca9c babe 1473 133d
000001d0: 0caa c0bd 6ae1 07bf 3e9e e43e 06f0 89bc
000001e0: 589f acbe 083b 20bd 3f36 39be 8c43 c6be
000001f0: cd1c 7b3e b073 283d e554 e1be 5f61 0f3f
00000200: 1ed8 783e 8422 f43e a72c b6be dd0e eebe
00000210: ac5a 163c 4e16 c83e 72e3 a63e 9f48 a1be
00000220: 244a 4dbe e129 9bbe 209d 9ebe b832 113f
00000230: 986c 4e3e 6077 ffbd 8cb8 09be b228 833d
00000240: 0eab 11be 372f 85bd a995 7b3e 041f 8b3e
00000250: 8741 21be 73b2 56bb 1058 a73e 06bf 87be
00000260: f2f9 c9be 34b1 56be af3f 8cbd 17d3 a73e
00000270: 1a52 063f a6fa acbe 365c f7be 401e f33e
00000280: 5549 06be 4644 8abe 265f c63e 79d2 72be
00000290: 38fd e4be d5eb b5be 62c6 55be a27b 053d
000002a0: 20c2 afbe 1075 68be 02fe bc3e dca9 53be
000002b0: e089 63be 73c4 3e3e e586 893d c5d4 0a3f
000002c0: 48fa b0bd 75d9 913e 8b45 003f 9776 e03e
000002d0: 7807 963e 5737 d93c e073 2cbe c6fc f7bc
000002e0: db51 63be 1d45 ea3e 1964 cf3e 9f0e 6a3e
000002f0: bc3c de3e 0a27 b33e 601c 9bbe 13d5 85be
00000300: f9f9 e03e d8d3 db3e d698 ad3e 2d0a 243e
00000310: 62fe e13e 62dd 033e 894b 033d edb8 013d
00000320: 92b0 893e 758f e4bc 2070 79be a81e 933e
00000330: 5d3c 01bf b022 58be 95a6 e33d f899 bcbc
00000340: 8309 ca3e 2419 153f 611c 983e 4fd2 a33e
00000350: 8044 37be 2ecc 893e 6432 d2bd 76bb 553e
00000360: 342c 0bbe 8a0a 963d 6081 a2bd c732 85be
00000370: 4a80 8f3e f678 b63e 4bd3 853e fea1 433e
00000380: 6227 163e c93f 603e c680 bdbc 87cf c73e
00000390: 9cc5 76be 6736 47be 368a b8be 487e 29be
000003a0: fce8 b9bd 6074 edbe f4b0 113e e69f afbd
000003b0: 715f 683e e815 ff3e 7f0e 9ebd 9cf2 dabe
000003c0: 9ffc 9b3e cd64 cabe 44c1 5fbd 5c71 bd3e
000003d0: 2e83 973e cf5a 26be cbeb 513d c28e bf3e
000003e0: 37b9 9a3e 2e20 bc3e 8a5a c6be b59b d73c
000003f0: 144a e0be a9fc eebe ccd3 143f 9a21 0e3e

weight f4 [256, 256]
-0.04221735 0.027950048 -0.08754275 -0.04081249 -0.10585691 0.008576893 -0.053907532 -0.05135703
0.106170475 -0.030444287 -0.027029768 -0.012631379 0.04496401 0.08088387 0.11602529 0.045749694
0.050597392 -0.017678833 -0.030111352 -0.033896238 0.09125844 -0.04261591 0.014844728 0.06791592
0.054252923 -0.03382392 0.04695217 -0.02623518 -0.0007775873 -0.0019397453 -0.124401376 -0.042648047
0.0086259525 0.012808642 0.004434813 0.040708054 0.04297242 0.015638657 0.039291088 0.0066596344
0.024698384 0.062251724 -0.053453755 0.060780518 -0.071739554 -0.042163204 0.048904385 -0.025441274
0.019094853 -0.0143274 0.010374953 -0.0050484533 -0.025877733 -0.000789091 -0.061044786 0.005911299
-0.033164766 0.012630221 -0.04983844 0.034537375 -0.042894583 -0.006739619 -0.004529585 -0.052264523
0.025007578 -0.0057301954 0.044480916 -0.07662779 0.05411712 -0.031017246 0.06729077 0.0012096316
-0.00027524287 0.01975286 0.018159911 0.03406486 0.09475025 0.0047172927 -0.026974168 -0.05361367
0.048414975 0.063591294 0.059871428 0.0475992 -0.040394377 0.013547417 -0.038236286 -0.04524538
0.061312653 -0.03196778 0.018280277 0.02334894 0.022146028 0.113968864 0.0027540685 -0.03238245
-0.006379825 -0.053558175 -0.03578292 -0.053508442 0.050497595 -0.04374203 0.054695662 0.028317997
-0.020364381 0.02967938 -0.03893485 -0.04729724 0.043459225 0.021270916 -0.011550687 0.058941655
0.069592595 0.053882927 0.03948272 0.0226131 -0.053038776 0.048361264 -0.0035461485 -0.022305708
-0.023606936 0.008921255 0.11543686 0.007759236 0.005097767 -0.040704444 0.04045197 0.005243759
0.018689176 -0.048011545 -0.014717956 -0.01037658 0.21069841 0.08293634 -0.013233215 0.030445958
-0.021506816 0.055369176 0.06800179 -0.035281748 -0.03333027 0.14296634 0.05596169 0.032462552
-0.017371524 -0.07306251 -0.01607554 -0.007032458 -0.04693235 0.06832065 -0.22478351 0.04916863
-0.002760522 0.049214974 0.04137159 0.03379003 -0.03096795 -0.13603893 -0.030618882 -0.047473963
0.03796654 0.028933601 -0.09054434 0.050873414 0.011069188 -0.016128046 -0.06533931 0.073661625
0.010602947 -0.037544116 0.045248777 -0.040225755 0.07275859 0.05732213 0.040805176 -0.04888181
0.0584035 -0.041876506 0.024438046 -0.12851915 0.02271169 0.0019974562 0.02829113 0.01951792
0.033655375 0.057473186 0.01951091 0.040101573 -0.057662975 -0.017975457 -0.048461996 0.04254358
-0.03342368 -0.04063511 0.016145483 0.090500966 0.089061566 -0.025073765 -0.02890076 -0.026013069
0.06919262 0.04011769 0.01524067 0.028419137 0.1775551 0.0126828775 0.086896814 0.095647745
0.091640756 0.008343829 0.15729241 -0.043035146 0.010437198 0.04643836 -0.0171102 0.017587248
0.10978493 -0.029452726 0.0022481382 0.046869352 -0.20769885 -0.0018366445 -0.023839768 0.058403265
0.02129385 0.018364608 -0.007180654 -0.089447014 -0.01933323 0.037988145 -0.042838246 0.0014340848
-0.030491026 0.04950854 0.06667562 0.021030102 0.02469984 0.17623867 0.038732782 0.058638513
0.02404009 0.0053295917 0.0031341473 -0.0064466596 -0.056344256 -0.008871341 0.022131287 -0.17277533
-0.06627083 -0.044714756 -0.106497556 0.0034567355 0.046829484 0.04442393 0.02918716 -0.016048215
00000000: 1aec 2cbd 80f7 e43c 9d49 b3bd ff2a 27bd
00000010: 82cb d8bd 1986 0c3c 25ce 5cbd c05b 52bd
00000020: e86f d93d 4c66 f9bc 886d ddbc d8f3 4ebc
00000030: 2f2c 383d 71a6 a53d ab9e ed3d 0864 3b3d
00000040: 363f 4f3d 33d3 90bc 15ac f6bc c8d6 0abd
00000050: b4e5 ba3d 058e 2ebd 4d37 733c 8017 8b3d
00000060: 5038 5e3d f38a 0abd eb50 403d 29eb d6bc
00000070: 00d7 4bba 0d3f feba 26c6 febd b8af 2ebd
00000080: de53 0d3c 57db 513c e851 913b 7dbd 263d
00000090: d903 303d a41c 803c b1ef 203d 1039 da3b
000000a0: 4454 ca3c aafb 7e3d 53f2 5abd fef4 783d
000000b0: 30ec 92bd 53b3 2cbd f74f 483d 386a d0bc
000000c0: cf6c 9c3c 79bd 6abc b5fb 293c 7f6d a5bb
000000d0: 8afd d3bc 00db 4eba 190a 7abd 92b3 c13b
000000e0: c7d7 07bd fdee 4e3c 6423 4cbd 1077 0d3d
000000f0: 3bb2 2fbd 06d8 dcbb ea6c 94bb 5313 56bd
00000100: b1dc cc3c 5dc4 bbbb 9f31 363d 08ef 9cbd
00000110: eaa9 5d3d e117 febc becf 893d 808c 9e3a
00000120: 794e 90b9 c0d0 a13c 18c4 943c 9887 0b3d
00000130: 6b0c c23d 8593 9a3b eef8 dcbc 029a 5bbd
00000140: c84e 463d 273c 823d be3b 753d 61f7 423d
00000150: 9374 25bd fcf5 5d3c a79d 1cbd 3853 39bd
00000160: fa22 7b3d a6f0 02bd 85c0 953c 4746 bf3c
00000170: 966b b53c 8268 e93d 9a7d 343b 76a3 04bd
00000180: da0d d1bb d15f 5bbd 1c91 12bd ab2b 5bbd
00000190: 91d6 4e3d d82a 33bd 8f08 603d 25fb e73c
000001a0: 34d3 a6bc 2c22 f33c 267a 1fbd c0ba 41bd
000001b0: 4d02 323d 5840 ae3c 183f 3dbc ce6c 713d
000001c0: 9086 8e3d 58b4 5c3d a2b8 213d 1c3f b93c
000001d0: 303f 59bd 7616 463d 8066 68bb 76ba b6bc
000001e0: 5563 c1bc 752a 123c 296a ec3d 3041 fe3b
000001f0: 2b0b a73b b4b9 26bd f7b0 253d d7d3 ab3b
00000200: 0b1a 993c c1a7 44bd 9523 71bc 8802 2abc
00000210: 53c1 573e 87da a93d 20d0 58bc cd69 f93c
00000220: 102f b0bc caca 623d 8644 8b3d 9883 10bd
00000230: 5285 08bd c565 123e 1638 653d 74f7 043d
00000240: ba4e 8ebc cca1 95bd dab0 83bc 8970 e6bb
00000250: 233c 40bd b2eb 8b3d a62d 66be 0c65 493d
00000260: e0e9 34bb a495 493d 4275 293d 6a67 0a3d
00000270: 80b0 fdbc ca4d 0bbe 73d4 fabc 0f74 42bd
00000280: cd82 1b3d 2906 ed3c 506f b9bd a460 503d
00000290: 8a5b 353c f71e 84bc 9ed0 85bd e8db 963d
000002a0: fcb7 2d3c dcc7 19bd c856 393d c3c3 24bd
000002b0: 7502 953d 9cca 6a3d 5423 273d 4b38 48bd
000002c0: 8238 6f3d b386 2bbd 4c32 c83c 869a 03be
000002d0: de0d ba3c c1e7 023b cdc2 e73c 0ce4 9f3c
000002e0: 38da 093d 0169 6b3d 58d5 9f3c 8c41 243d
000002f0: 0330 6cbd 4441 93bc 1680 46bd 2d42 2e3d
00000300: 45e7 08bd 0071 26bd 8843 843c 9258 b93d
00000310: e965 b63d 7f67 cdbc 49c1 ecbc 5c19 d5bc
00000320: dcb4 8d3d 7252 243d 01b4 793c 40cf e83c
00000330: 01d1 353e d8cb 4f3c f5f6 b13d f7e2 c33d
00000340: 26ae bb3d 8eb4 083c 4311 213e 9f45 30bd
00000350: c800 2b3c 2636 3e3d b12a 8cbc 2213 903c
00000360: ecd6 e03d d846 f1bc 8055 133b 14fa 3f3d
00000370: 02af 54be 90bb f0ba 9e4b c3bc 4338 6f3d
00000380: 7170 ae3c 6071 963c b14b ebbb ff2f b7bd
00000390: b960 9ebc 7599 1b3d 2877 2fbd e7f7 bb3a
000003a0: 51c8 f9bc 78c9 4a3d 3a8d 883d 5247 ac3c
000003b0: 5257 ca3c e977 343e 44a6 1e3d f02e 703d
000003c0: b9ef c43c dba3 ae3b 4466 4d3b 803e d3bb
000003d0: 3cc9 66bd 1a59 11bc ac4c b53c 04ec 30be
000003e0: 00b9 87bd d226 37bd 641b dabd 668a 623b
000003f0: 46d0 3f3d def5 353d e919 ef3c 8c77 83bc

bias f4 [256]
0.0548257 -0.057452895 0.033904552 0.06206664 0.02659282 0.000854936 -0.02076892 0.08127275
-0.007058177 -0.036793593 0.036798768 -0.044715196 0.006873367 0.034617722 -0.058004595 -0.006446742
-0.049045213 0.00985723 0.017776012 -0.019387871 -0.007842466 -0.0137372315 -0.036095865 0.050261624
-0.046368618 0.02631376 0.012163662 0.06384761 -0.09553652 -0.035803296 0.02900702 0.050217744
-0.002443568 0.065927945 -0.009770553 -0.05124832 0.036316033 -0.0041259285 -0.0049181683 -0.005989347
-0.013867974 -0.05494777 -0.019644205 -0.05717008 -0.051671498 0.028857682 0.022660242 0.03501086
-0.056247346 0.016624942 -0.02602154 0.017115563 -0.08502166 -0.011026606 -0.035319854 -0.031040946
-0.0139400875 0.04754278 0.0025433614 -0.03656318 -0.037023574 -0.07644218 -0.026370693 0.04775572
0.06352657 -0.010154926 0.032066897 0.04519342 -0.04048102 -0.0072012246 0.035963304 -0.05023818
0.0056199892 0.034926526 -0.054944787 0.004070271 0.07946645 0.006745793 0.03605246 0.02585952
-0.0184566 0.08231686 -0.019690188 -0.016949631 0.004232849 0.025720099 0.06100718 0.08087988
0.049444403 0.048864383 0.03376834 -0.035406783 0.097539864 -0.022294436 0.05508431 -0.043649632
-0.013783552 0.015600242 0.08093507 -0.043546103 -0.028755063 0.02140603 -0.03259798 -0.038560987
-0.022211667 0.040216338 -0.035771232 -0.044439588 -0.009410879 -0.02220904 -0.0345947 0.048572924
0.01304738 0.046601158 0.020757167 0.057518717 -0.04808496 0.039562277 -0.010156734 -0.02961937
0.03414437 0.005068231 -0.0029835182 0.051448435 -0.01610488 0.07656761 -0.00097456574 -0.034606148
0.006289439 -0.039018594 0.006028698 -0.03278773 -0.03275954 0.011205681 0.0030156046 -0.017941043
0.01908885 0.04522585 0.027153604 -0.062008362 -0.041100655 -0.064946644 0.04177635 0.009909353
0.09019505 -0.011892097 -0.029943021 -0.0055536414 0.05741723 -0.037903517 -0.027275221 -0.03551725
-0.003683172 0.060559306 -0.015696026 -0.02397196 -0.013156125 0.025736652 -0.0033452155 -0.041529574
0.0393387 -0.10261657 -0.035317868 -0.031055078 0.080138065 -0.039112292 0.039376587 0.039721135
0.0072777197 -0.032594148 0.009534861 -0.024056133 -0.010833453 -0.028024629 0.044724677 -0.0039379294
-0.006505379 -0.06550838 -0.014358231 -0.004908651 -0.014984306 -0.031268295 0.04672628 0.023481075
-0.023030642 -0.008234011 -0.059156936 0.002549401 -0.038058005 0.002064523 -0.024744049 0.024436144
-0.046035297 -0.036164332 0.029412635 0.003854881 0.022813268 -0.05329565 0.05136706 -0.0263064
0.0417935 0.011946709 -0.041351594 0.050965462 0.032818403 -0.03678838 0.049866788 -0.014702178
-0.0073788394 0.026822537 -0.009013689 0.009105688 0.019131176 -0.040752288 0.06118753 0.078797966
-0.059565846 0.04084138 0.10283996 0.027974613 -0.033708777 0.03554363 -0.06664132 -0.016932368
0.052243914 -0.008334927 0.04450729 0.0797745 0.051187523 0.046187706 -0.041845128 -0.042183302
-0.0330665 -0.0008064831 -0.046195067 0.046851613 0.0094485395 0.046125926 0.05487115 -6.763693e-05
0.06706904 -0.055122767 0.056284674 0.087068975 -0.022163223 -0.002248725 0.08771348 0.049774665
0.08242674 0.032598812 -0.022002643 -0.021922514 0.007907633 0.06175758 0.019902227 0.043271895
00000000: ea90 603d ba53 6bbd 80df 0a3d 9739 7e3d
00000010: 30d9 d93c c91d 603a 9523 aabc 5472 a63d
00000020: 4848 e7bb e1b4 16bd 4eba 163d 4827 37bd
00000030: fb39 e13b 50cb 0d3d 3a96 6dbd 313f d3bb
00000040: a2e3 48bd 3880 213c 009f 913c 50d3 9ebc
00000050: b07d 00bc 2012 61bc 42d9 13bd 22df 4d3d
00000060: 05ed 3dbd f48f d73c 194a 473c 89c2 823d
00000070: a7a8 c3bd 7aa6 12bd 21a0 ed3c 1fb1 4d3d
00000080: 4524 20bb 3b05 873d ab14 20bc c2e9 51bd
00000090: 1fc0 143d cc32 87bb 9628 a1bb 4942 c4bb
000000a0: 8036 63bc ea10 61bd e2ec a0bc 2c2b 6abd
000000b0: 7ea5 53bd f266 ec3c f9a1 b93c 8c67 0f3d
000000c0: 9e63 66bd 0831 883c 202b d5bc f035 8c3c
000000d0: d61f aebd f0a8 34bc 8dab 10bd 9549 febc
000000e0: f764 64bc 38bc 423d 86ae 263b 46c3 15bd
000000f0: 08a6 17bd b88d 9cbd 5a07 d8bc 809b 433d
00000100: 381a 823d d960 26bc 9458 033d bc1c 393d
00000110: 6dcf 25bd 40f8 ebbb 424e 133d 8dc6 4dbd
00000120: e327 b83b 1e0f 0f3d c90d 61bd e85f 853b
00000130: 4ebf a23d d00b dd3b bfab 133d 58d7 d33c
00000140: 4c32 97bc be95 a83d 514d a1bc f4d9 8abc
00000150: b6b3 8a3b f5b2 d23c aae2 793d 5aa4 a53d
00000160: 3786 4a3d 0526 483d ac50 0a3d b406 11bd
00000170: fbc2 c73d d2a2 b6bc 16a0 613d f5c9 32bd
00000180: 68d4 61bc 2898 7f3c 49c1 a53d 665d 32bd
00000190: bd8f ebbc b35b af3c 7685 05bd 20f2 1dbd
000001a0: 3ef5 b5bc e3b9 243d db84 12bd 4906 36bd
000001b0: 1630 1abc bcef b5bc 2cb3 0dbd 67f4 463d
000001c0: aec4 553c dbe0 3e3d ef0a aa3c bf98 6b3d
000001d0: bcf4 44bd 0e0c 223d 6e68 26bc 52a4 f2bc
000001e0: f8da 0b3d 6713 a63b 2187 43bb 98bb 523d
000001f0: 62ee 83bc 7bcf 9c3d 007a 7fba 2dbf 0dbd
00000200: a317 ce3b f6d1 1fbd 628c c53b 6d4c 06bd
00000210: de2e 06bd 0898 373c 73a1 453b 18f9 92bc
00000220: 3860 9c3c be3e 393d 3c71 de3c 7bfc 7dbd
00000230: 2959 28bd bf02 85bd ae1d 2b3d d75a 223c
00000240: 2fb8 b83d 12d7 42bc 114b f5bc 52fb b5bb
00000250: 542e 6b3d b840 1bbd 4970 dfbc 897a 11bd
00000260: 5f61 71bb 090d 783d f494 80bc d860 c4bc
00000270: ca8c 57bc acd5 d23c 673b 5bbb ea1a 2abd
00000280: 9e21 213d a328 d2bd 78a9 10bd 3867 febc
00000290: 6d1f a43d 3634 20bd 5849 213d a1b2 223d
000002a0: f079 ee3b 7181 05bd 1b38 1c3c 5e11 c5bc
000002b0: cc7e 31bc e893 e5bc 3931 373d bf09 81bb
000002c0: 132b d5bb 4229 86bd c93e 6bbc c0d8 a0bb
000002d0: bc80 75bc 2f13 00bd 0e64 3f3d 625b c03c
000002e0: c2aa bcbc f2e7 06bc 8b4e 72bd da13 273b
000002f0: b6e2 1bbd f34c 073b 08b4 cabc 4f2e c83c
00000300: 828f 3cbd 0d21 14bd c4f2 f03c 2ca2 7c3b
00000310: e4e2 ba3c 8a4c 5abd 4466 523d 8580 d7bc
00000320: a92f 2b3d 21bc 433c 4a60 29bd 29c1 503d
00000330: 976c 063d 6aaf 16bd 1e41 4c3d 67e1 70bc
00000340: 31ca f1bb f0ba db3c 27ae 13bc 0630 153c
00000350: fcb8 9c3c dfeb 26bd c79f 7a3d d460 a13d
00000360: 51fb 73bd 4a49 273d c29d d23d 042b e53c
00000370: 3712 0abd 3396 113d 3f7b 88bd c0b5 8abc
00000380: b7fd 553d 388f 08bc 474d 363d d060 a33d
00000390: 02aa 513d 522f 3d3d cc65 2bbd 66c8 2cbd
000003a0: bd70 07bd 2a6a 53ba 0a37 3dbd 7ae7 3f3d
000003b0: 0cce 1a3c 8aee 3c3d 92c0 603d 4dd8 8db8
000003c0: 7e5b 893d 69c8 61bd c28a 663d 3851 b23d
000003d0: a68f b5bc 585f 13bb 20a3 b33d 85e0 4b3d
000003e0: 5acf a83d 5586 053d e33e b4bc d896 b3bc
000003f0: 048f 013c 84f5 7c3d ff09 a33c df3d 313d

weight_mu f4 [1, 256]
0.07117457 0.04843141 0.125325 -0.061128087 -0.061894834 -0.036848612 0.10123474 0.06338113
0.08181567 0.01738768 -0.08870474 0.06445197 -0.028106304 -0.011253523 0.04205978 -0.024528017
-0.11614967 -0.054727145 0.025629975 0.0095171705 -0.041902453 0.0038165674 0.03830362 -0.10979931
0.05210051 -0.01203991 -0.014554395 0.115990646 0.11845548 0.052441634 0.19839135 0.016061647
0.04789297 0.10681793 0.12828231 -0.008146204 0.26798165 0.053820577 0.0895018 -0.0705487
-0.021366306 -0.04507552 0.0015480804 -0.039004765 -0.003984928 0.09303045 0.04819127 -0.15945064
-0.057320543 0.015073404 0.031313032 -0.12406038 0.20728604 -0.054165367 0.042799108 -0.073106185
0.07597201 -0.061220028 -0.013449726 0.065221906 -0.036877 -0.09759369 -0.010044747 0.053562757
0.08924387 0.06320392 0.0036564097 0.121515624 -0.13569194 -0.03766059 -0.017963454 0.08629971
-0.077315666 -0.09385385 -0.077026464 0.09727333 0.09554465 0.050871953 -0.0076465183 -0.031011216
0.0034966767 0.08275784 -0.107709154 -0.10279297 -0.105024315 0.09062009 0.0035819113 0.101456426
0.09428522 -0.05544518 -0.04811108 0.041581966 0.19618176 -0.0071217143 0.03883274 0.08831949
0.044402897 0.0106885955 0.10065141 -0.019557692 -0.028721083 0.039675016 -0.11068446 -0.058158636
0.09879711 -0.050964903 -0.08797227 -0.036029182 0.058802113 0.061875273 -0.006196484 -0.10155389
-0.19639921 0.04568381 0.0075690844 0.12894872 0.05474492 0.061018355 -0.19072393 0.106596395
-0.008814514 0.072967276 0.04579123 0.05057399 0.04822258 -0.23071738 0.03801368 -0.09608745
-0.015697958 -0.03910979 -0.023654843 0.019027285 0.058726385 0.03282801 0.09345894 0.039862834
0.050410867 0.06285455 0.07177138 0.004193444 -0.086919546 -0.0018883477 0.1307241 -0.051515814
0.08383461 -0.049892936 0.03146819 0.11975748 -0.043253824 -0.002411318 0.14559984 0.024121394
0.1169525 0.0936763 0.1490969 0.035096373 0.08174027 0.056944333 -0.2534822 0.014289252
0.1900115 0.20434195 -0.22013263 -0.11211122 0.08341932 0.071656466 -0.044008244 0.25720292
0.020994425 -0.017131912 -0.16417553 -0.1728034 0.03836917 0.06149461 0.09293519 0.071312085
0.08771742 0.048641954 0.055549163 0.052721493 -0.02194888 0.18296231 0.21667133 0.0591208
0.080609046 -0.09330924 -0.003556061 0.025928143 0.03051059 0.12169346 0.017769579 -0.030787814
0.046586122 0.0861935 0.08803563 -0.033877548 0.009239443 -0.03013239 -0.050408386 0.062339924
0.0840158 0.13226554 -0.043506697 0.11249117 0.09362945 0.05225223 -0.098555 0.055778913
0.08182539 0.008117807 0.023397937 0.04653999 -0.012752466 0.044610474 -0.22616604 0.06176294
-0.068363 -0.03349822 0.10659733 0.018218026 -0.001407433 0.09182581 0.026547113 -0.02395496
-0.033617508 0.040089116 -0.032102544 0.1859213 -0.016699435 0.027893849 0.018943459 -0.046658844
-0.08572968 -0.032075122 0.037725314 0.08612106 -0.091752246 -0.2075418 0.018911138 -0.12983224
-0.09683252 -0.14499682 0.021859547 0.09264181 0.099717855 0.10186945 0.103068635 0.115741484
0.09485504 -0.21018858 0.058243014 -0.086426295 0.002973171 0.059165604 -0.043706987 0.056141753
00000000: f9c3 913d 0460 463d 3255 003e 7261 7abd
00000010: 7085 7dbd 92ee 16bd 2954 cf3d f7cd 813d
00000020: f98e a73d 9c70 8e3c d5aa b5bd 65ff 833d
00000030: 313f e6bc b260 38bc e046 2c3d fbee c8bc
00000040: e1df edbd 9229 60bd f4f5 d13c e8ed 1b3c
00000050: e8a1 2bbd 601f 7a3b 42e4 1c3d 76de e0bd
00000060: 5867 553d 0b43 45bc 8f75 6ebc 818c ed3d
00000070: c998 f23d 0acd 563d 1a27 4b3e b793 833c
00000080: 6b2b 443d 5cc3 da3d 705c 033e a877 05bc
00000090: e434 893e f772 5c3d b84c b73d d67b 90bd
000000a0: 6408 afbc 1ca1 38bd f5e8 ca3a 76c3 1fbd
000000b0: 0094 82bb c086 be3d 3664 453d 0747 23be
000000c0: f2c8 6abd 70f6 763c 1842 003d 5e13 febd
000000d0: cb42 543e 81dc 5dbd 1e4e 2f3d b2b8 95bd
000000e0: 3797 9b3d dac1 7abd 3d5c 5cbc 1093 853d
000000f0: 560c 17bd 33df c7bd b992 24bc 9f64 5b3d
00000100: 7dc5 b63d 0f71 813d 60a0 6f3b 2fdd f83d
00000110: d4f2 0abe fe41 1abd 1828 93bc e7bd b03d
00000120: ad57 9ebd 7336 c0bd 0dc0 9dbd 3d37 c73d
00000130: eaac c33d 1c5f 503d a58f fabb 3c0b febc
00000140: 8028 653b f17c a93d 9e96 dcbd 1f85 d2bd
00000150: fd16 d7bd 0797 b93d 80be 6a3b 63c8 cf3d
00000160: 9c18 c13d 7c1a 63bd 2010 45bd da51 2a3d
00000170: dfe3 483e 455d e9bb 140f 1f3d d9e0 b43d
00000180: d0df 353d 381f 2f3c 5422 ce3d 7437 a0bc
00000190: 7a48 ebbc 4582 223d 89ae e2bd c037 6ebd
000001a0: 2456 ca3d 93c0 50bd ce2a b4bd 5693 13bd
000001b0: 7cda 703d ed70 7d3d e00b cbbb 7cfb cfbd
000001c0: e01c 49be f21e 3b3d 1506 f83b 220b 043e
000001d0: 363c 603d 62ee 793d 224d 43be 364f da3d
000001e0: c06a 10bc de6f 953d 968f 3b3d ac26 4f3d
000001f0: 0a85 453d 2d41 6cbe 3cb4 1b3d 7fc9 c4bd
00000200: 0199 80bc 9631 20bd cdc7 c1bc 1cdf 9b3c
00000210: 148b 703d aa76 063d 6767 bf3d 3647 233d
00000220: a07b 4e3d e3b9 803d e0fc 923d 2869 893b
00000230: e002 b2bd 6f82 f7ba 8adc 053e 3f02 53bd
00000240: 7bb1 ab3d 895c 4cbd cae4 003d 6943 f53d
00000250: ec2a 31bd 3407 1ebb 2018 153e 3b9a c53c
00000260: cb84 ef3d 5cd9 bf3d dcac 183e 37c1 0f3d
00000270: 7167 a73d 763e 693d 6bc8 81be 781d 6a3c
00000280: 6092 423e 043f 513e 736a 61be 919a e5bd
00000290: c0d7 aa3d a0c0 923d fd41 34bd 1ab0 833e
000002a0: 80fc ab3c 3958 8cbc a11d 28be 60f3 30be
000002b0: fe28 1d3d c6e1 7b3d ce54 be3d 120c 923d
000002c0: 31a5 b33d c93c 473d 8587 633d 7ef2 573d
000002d0: 23ce b3bc 795a 3b3e 17df 5d3e a728 723d
000002e0: 5b16 a53d ea18 bfbd ce0c 69bb 4267 d43c
000002f0: 58f1 f93c 6c3a f93d 8291 913c ba36 fcbc
00000300: 17d1 3e3d 3886 b03d 064c b43d 2fc3 0abd
00000310: 0861 173c 34d8 f6bc 0679 4ebd 2658 7f3d
00000320: 7a10 ac3d 9e70 073e 1434 32bd c561 e63d
00000330: ccc0 bf3d 6f06 563d 34d7 c9bd 6e78 643d
00000340: 1294 a73d 8d00 053c 08ad bf3c b7a0 3e3d
00000350: b8ef 50bc 79b9 363d 1298 67be 23fb 7c3d
00000360: e701 8cbd 6e35 09bd b34f da3d f83d 953c
00000370: 9d79 b8ba 2c0f bc3d 5579 d93c 313d c4bc
00000380: 83b2 09bd 7c34 243d f57d 03bd 2762 3e3e
00000390: 41cd 88bc a481 e43c 502f 9b3c 581d 3fbd
000003a0: 0b93 afbd 3461 03bd dc85 1a3d 3d60 b03d
000003b0: 9ae8 bbbd d685 54be 88eb 9a3c bef2 04be
000003c0: 2150 c6bd 0c7a 14be cb12 b33c fdba bd3d
000003d0: e038 cc3d eea0 d03d a615 d33d df09 ed3d
000003e0: 5c43 c23d ad3b 57be 3a90 6e3d 4500 b1bd
000003f0: 88d9 423b a257 723d 1906 33bd e5f4 653d

weight_sigma f4 [1, 256]
0.0014338732 0.03125 0.005528299 0.026117206 0.03125 0.0095221065 0.0022132108 0.0014660482
0.0037907928 0.033419456 0.0114351595 0.005769429 0.016788922 0.016702766 0.03125 0.008096672
0.01965794 0.03125 0.03125 0.03125 0.03125 0.03125 0.03125 0.022696445
0.030669196 0.03422845 0.027685868 0.003622772 0.0053231018 0.009718743 0.010207064 0.02941046
0.010421309 -2.3909613e-05 0.0052691894 0.03125 0.0020957384 0.02883592 0.0070601464 0.018869357
0.03125 0.03125 0.031755924 0.03125 0.03125 0.0011887088 0.012325871 0.016603963
0.03125 0.03125 0.03125 0.018870976 0.01590357 0.03138312 0.031269364 0.012421041
0.0019613907 0.03125 0.030435694 0.011000467 0.03125 0.014686177 0.030335387 0.030953016
0.006293941 0.0017521981 0.03125 -0.0012096118 0.014637871 0.03125 0.03381236 0.011281948
0.004447047 0.018326314 0.009631311 0.0028399534 0.0036118173 0.03125 0.008621652 0.03125
0.03125 0.004340025 0.00916517 0.011382144 0.010839684 0.0008292512 0.03125 0.0021761905
0.00066830404 0.030791234 0.03125 0.03125 0.013581565 0.025814256 0.03125 0.017008256
0.03125 0.03125 0.0040412657 0.03125 0.03152064 0.0056511424 0.012779806 0.03125
0.01225126 0.026276184 0.014797649 0.029312503 0.029410612 0.030658359 0.03125 0.013562223
0.012161127 0.029048797 0.0144941155 6.482929e-05 0.03125 0.0019992217 0.012907945 0.00059682474
0.03125 0.008144588 0.03181876 0.03125 0.027775269 0.0041540703 0.03125 0.010080552
0.01174105 0.03125 0.027943028 0.029776879 0.03125 0.03125 0.0005138577 0.031193813
0.03125 0.008690224 0.008635999 0.011510114 0.00683815 0.019511307 0.0032869037 0.015430051
0.0007664246 0.0314497 0.028976705 0.0053324928 0.03125 0.029133402 0.021589743 0.02985754
0.0015480136 0.00025708342 0.0120600555 0.03148066 0.0016782018 0.030436004 0.008244143 0.03125
0.014876013 0.018050542 0.017070914 0.03238913 0.0041820146 0.0062966156 0.029989837 0.0022383854
0.03125 0.032504927 0.013031745 0.009149223 0.032340534 0.03125 4.9600316e-05 0.0022859036
0.00038524863 0.010551257 0.0088542085 0.03125 0.031222025 0.015635146 0.008847135 0.029002484
0.0013877907 0.012370882 0.030171806 0.028978793 0.030980367 0.024904119 0.0136633115 0.027318653
0.029079141 0.00073184486 0.007836382 0.029416235 0.03125 0.03125 0.02260058 0.0013055293
0.0022946578 0.00067929685 0.03125 0.014829633 0.0018104258 0.0125322435 0.02157764 0.0039333804
0.00230115 0.02981296 0.030529967 0.031019427 0.025021514 0.03392193 0.005174363 0.01067741
0.014955547 0.03125 0.0047198823 0.03125 0.00023805136 0.0023621032 0.02661322 0.030582177
0.0290022 0.03125 0.029782042 0.02520484 0.018817646 0.03125 0.03125 0.031195143
0.0097400155 0.029765707 0.03125 0.007975449 0.020372013 0.0041654566 0.03125 0.01995127
0.02684038 0.021124158 0.030400932 0.0083396165 0.0035079496 0.006821855 0.002493846 0.003481914
0.0004990129 0.000100810656 0.031131545 0.008593471 0.030560162 0.03125 0.03064195 0.034453556
00000000: cdf0 bb3a 0000 003d bc26 b53b c0f3 d53c
00000010: 0000 003d 9c02 1c3c 840b 113b 6a28 c03a
00000020: f36e 783b d7e2 083d 895a 3b3c 7a0d bd3b
00000030: ec88 893c 3dd4 883c 0000 003d e7a7 043c
00000040: b009 a13c 0000 003d 0000 003d 0000 003d
00000050: 0000 003d 0000 003d 0000 003d e5ed b93c
00000060: f73d fb3c 2233 0c3d 79cd e23c 076c 6d3b
00000070: 6a6d ae3b 5d3b 1f3c 883b 273c 34ee f03c
00000080: 23be 2a3c 8191 c8b7 2aa9 ac3b 0000 003d
00000090: a858 093b 4f39 ec3c cd58 e73b e993 9a3c
000000a0: 0000 003d 0000 003d 8012 023d 0000 003d
000000b0: 0000 003d 73ce 9b3a 73f2 493c 0905 883c
000000c0: 0000 003d 0000 003d 0000 003d 4e97 9a3c
000000d0: 3448 823c 968b 003d 4e14 003d 9f81 4b3c
000000e0: ad8a 003b 0000 003d 4754 f93c 4e3b 343c
000000f0: 0000 003d 4a9e 703c eb81 f83c 2e91 fd3c
00000100: 673d ce3b 03aa e53a 0000 003d d68b 9eba
00000110: aed3 6f3c 0000 003d d47e 0a3d ebd7 383c
00000120: 89b8 913b 1121 963c a5cc 1d3c 831e 3a3b
00000130: 3db4 6c3b 0000 003d d441 0d3c 0000 003d
00000140: 0000 003d c536 8e3b 8229 163c 2c7c 3a3c
00000150: ee98 313c 1b62 593a 0000 003d 6b9e 0e3b
00000160: 2031 2f3a e63d fc3c 0000 003d 0000 003d
00000170: 3685 5e3c 6b78 d33c 0000 003d e654 8b3c
00000180: 0000 003d 0000 003d 986c 843b 0000 003d
00000190: c91b 013d 382d b93b 6462 513c 0000 003d
000001a0: 82b9 483c 2741 d73c d771 723c c620 f03c
000001b0: 86ee f03c 3d27 fb3c 0000 003d 1634 5e3c
000001c0: 773f 473c bef7 ed3c ba78 6d3c f6f4 8738
000001d0: 0000 003d 6005 033b d87b 533c 3b74 1c3a
000001e0: 0000 003d e170 053c 6354 023d 0000 003d
000001f0: f688 e33c de1e 883b 0000 003d e628 253c
00000200: 885d 403c 0000 003d c7e8 e43c a4ee f33c
00000210: 0000 003d 0000 003d 68b4 063a 2b8a ff3c
00000220: 0000 003d 7161 0e3c 017e 0d3c eb94 3c3c
00000230: 8f12 e03b 2dd6 9f3c 1869 573b 53ce 7c3c
00000240: e2e9 483a 67d1 003d 8e60 ed3c 31bc ae3b
00000250: 0000 003d 2ca9 ee3c f9dc b03c cd97 f43c
00000260: b8e6 ca3a 27c9 8639 8a97 453c ddf1 003d
00000270: 1cf7 db3a ed54 f93c 7112 073c 0000 003d
00000280: 85ba 733c bbde 933c 4dd8 8b3c 77aa 043d
00000290: 4809 893b d753 ce3b 3fad f53c e0b1 123b
000002a0: 0000 003d e323 053d 1a83 553c 9fe6 153c
000002b0: 8277 043d 0000 003d ef09 5038 19cf 153b
000002c0: 32fb c939 2edf 2c3c 3e11 113c 0000 003d
000002d0: 55c5 ff3c 4715 803c 93f3 103c 9e96 ed3c
000002e0: 87e6 b53a 3daf 4a3c dd2a f73c ef64 ed3c
000002f0: 8aca fd3c b903 cc3c 15dc 5f3c 5ecb df3c
00000300: 6137 ee3c 47d9 3f3a 2b64 003c 51fa f03c
00000310: 0000 003d 0000 003d da24 b93c 4b1e ab3a
00000320: f861 163b d712 323a 0000 003d fdf7 723c
00000330: cf4b ed3a 0a54 4d3c 97c3 b03c 96e3 803b
00000340: e4ce 163b 4f3a f43c fb19 fa3c 741c fe3c
00000350: ebf9 cc3c b9f1 0a3d b48d a93b 4ef0 2e3c
00000360: 1c08 753c 0000 003d 3ea9 9a3b 0000 003d
00000370: 6d9d 7939 84cd 1a3b f803 da3c 7987 fa3c
00000380: 0696 ed3c 0000 003d 78f9 f33c 617a ce3c
00000390: 7727 9a3c 0000 003d 0000 003d f58c ff3c
000003a0: 9694 1f3c 36d7 f33c 0000 003d 75ab 023c
000003b0: 35e3 a63c 627e 883b 0000 003d d970 a33c
000003c0: 5be0 db3c 920c ad3c 600b f93c e3a2 083c
000003d0: a1e5 653b de89 df3b cb6f 233b d330 643b
000003e0: 30d0 023a 4f6a d338 9507 ff3c a1cb 0c3c
000003f0: 4e59 fa3c 0000 003d d404 fb3c 2c1f 0d3d

weight_epsilon f4 [1, 256]
-1.4823841 0.89945954 1.749552 1.1488813 1.7789047 -0.90558136 0.77936673 0.7221856
1.4600523 0.6764878 1.2054626 0.2940158 -1.1278852 0.24495533 -1.241542 -0.751657
0.9227689 -1.3986415 -0.71679074 -0.6947252 1.0815879 1.1526349 -0.9872492 1.2277943
0.71848303 -0.1273045 -0.824413 -0.07948843 1.0879668 -0.7276213 0.5589157 -1.2337644
-0.2839754 -1.7275959 0.684393 1.3465283 0.52301437 -0.5141178 1.2014269 -0.6354434
-0.9804615 1.3035685 0.9674693 -0.1427599 0.7649558 -1.5875009 -0.67889994 0.27794677
1.434087 0.8590087 1.501868 -1.4770182 -0.33270714 1.3768516 -0.8147536 0.5858862
0.8453141 0.9245142 1.3858893 -0.87740666 0.6924304 -0.857985 0.9720578 -0.50925887
1.0867815 -1.5763272 -0.26697326 -0.65221316 1.1045027 -0.94788873 -0.72356355 -1.3322417
-0.628753 -0.83941054 1.1631582 1.4873174 -1.0071114 1.2638428 1.7621307 -0.90506876
-0.60636693 1.1284312 -1.2834153 -0.6795875 0.83965963 -1.3697271 0.43178117 -0.47163504
-1.1156094 1.7593938 -1.6082075 -0.8009024 -0.2592618 -0.21771659 -1.4761232 0.30564758
1.9436338 -0.7751075 -0.7534262 0.6252841 0.947643 -0.8277707 -1.6152562 -1.5167471
-1.3878124 1.605383 1.7054719 1.0874887 -1.0958211 -1.4250277 0.8855813 -1.1016233
0.43095106 1.7190995 1.358393 0.21449587 -1.0867628 0.632674 -0.34531695 -1.2115688
-0.984856 -1.3144181 0.72707117 -0.7348669 0.91905916 1.5087942 0.7516219 -0.59743583
-0.2578063 -0.18702504 0.25505075 0.4502684 1.045904 -1.1723742 -0.4738506 1.0894616
0.5376553 0.3718965 -1.3062167 -0.9666093 0.72029924 -1.4496535 -1.1200222 0.16615239
0.3624314 1.3484911 -0.838174 0.8967245 0.8563472 -0.5980674 0.9263479 1.6884489
-0.89401233 -1.0601686 0.9784156 -0.8420713 0.5007204 1.3124741 -0.8684794 -0.712561
-0.59255475 -0.93961036 -1.1595421 -0.101407915 -1.6352943 -1.462351 0.79241306 -0.8898564
0.7362306 0.23942241 0.7924665 0.4113849 -1.953011 0.7471089 1.018903 -1.0313791
-1.0565282 -1.5913951 -0.24765074 0.9564008 0.91035646 -1.629331 -1.0624017 0.40974182
-1.015812 -0.49418122 -1.318057 -0.3999208 0.7697781 0.7074261 -1.3377638 0.9192182
-0.72768813 1.6421394 0.69871753 1.2298913 0.53286797 0.39004987 1.0166694 -0.4437341
-1.5809258 -1.0814883 1.3248621 0.35398802 -0.818712 -1.2133893 0.9534778 0.51267934
-0.8400089 -0.3310906 -1.2429773 0.35574004 -1.1312096 -0.28910014 0.67220294 0.9001773
-1.109998 1.3116626 -1.7307858 0.32355782 1.720654 -1.57336 -1.4581575 -0.7426973
1.1106825 -1.2249932 0.8054989 0.14005068 -1.0986402 0.4364489 0.7681046 1.0166389
-1.5950236 0.587984 0.83429235 1.1157552 -1.2681446 0.82261395 1.062771 -1.4470042
0.7314084 0.8659324 0.6272052 1.0698304 -1.675913 0.8318474 0.78027874 1.0094627
0.9300113 1.1981456 0.76962507 -1.2593135 0.48757225 -1.1408856 -0.18091771 1.6329643
00000000: c3be bdbf fb42 663f 52f1 df3f 8b0e 933f
00000010: 26b3 e33f 2ed4 67bf 9484 473f 28e1 383f
00000020: fee2 ba3f 4e2e 2d3f 994c 9a3f 3d89 963e
00000030: 8b5e 90bf 92d5 7a3e d9ea 9ebf 986c 40bf
00000040: 953a 6c3f af06 b3bf 997f 37bf 83d9 31bf
00000050: 7971 8a3f 8a89 933f 5dbc 7cbf 5d28 9d3f
00000060: 81ee 373f 1c5c 02be bb0c 53bf d4ca a2bd
00000070: 7f42 8b3f 6445 3abf 1915 0f3f feeb 9dbf
00000080: 3965 91be dd21 ddbf 6134 2f3f 0a5b ac3f
00000090: 45e4 053f 399d 03bf 5bc8 993f 6bac 22bf
000000a0: 86ff 7abf 55db a63f 11ac 773f a72f 12be
000000b0: 25d4 433f 3b33 cbbf 63cc 2dbf 0a4f 8e3e
000000c0: 2a90 b73f ffe7 5b3f 363d c03f ef0e bdbf
000000d0: 9758 aabe ac3c b03f b193 50bf a3fc 153f
000000e0: 8166 583f f6ac 6c3f d264 b13f b99d 60bf
000000f0: 1e43 313f e8a4 5bbf c8d8 783f ca5e 02bf
00000100: a81b 8b3f 17c5 c9bf b8b0 88be 71f7 26bf
00000110: 5860 8d3f d6a8 72bf 763b 39bf e586 aabf
00000120: f5f5 20bf 9ce3 56bf 5ee2 943f 6b60 be3f
00000130: 07e9 80bf 9ac5 a13f 808d e13f 96b2 67bf
00000140: dd3a 1bbf 6f70 903f f446 a4bf 72f9 2dbf
00000150: eff3 563f 3853 afbf 6c12 dd3e 267a f1be
00000160: 4acc 8ebf d133 e13f bed9 cdbf f107 4dbf
00000170: f6bd 84be 19f1 5ebe 9bf1 bcbf d77d 9c3e
00000180: fec8 f83f 726d 46bf 8ae0 40bf 9e12 203f
00000190: bb98 723f c8e8 53bf b7c0 cebf c524 c2bf
000001a0: d6a3 b1bf 317d cd3f e74c da3f d432 8b3f
000001b0: de43 8cbf 4f67 b6bf 75b5 623f fe01 8dbf
000001c0: 9ea5 dc3e 740b dc3f d2df ad3f cea4 5b3e
000001d0: 0b1b 8bbf ecf6 213f 62cd b0be b014 9bbf
000001e0: 861f 7cbf da3e a8bf 5621 3a3f 3d20 3cbf
000001f0: 7647 6b3f 2b20 c13f 4b6a 403f 8ef1 18bf
00000200: 30ff 83be 7e83 3fbe 0396 823e 9489 e63e
00000210: 2fe0 853f 5c10 96bf 8c9c f2be 7a73 8b3f
00000220: c7a3 093f 3869 be3e 1c32 a7bf b573 77bf
00000230: 8865 383f 3f8e b9bf e35c 8fbf da23 2a3e
00000240: 9c90 b93e 5b9b ac3f 9292 56bf bd8f 653f
00000250: 9239 5b3f f21a 19bf 2325 6d3f 181f d83f
00000260: fedd 64bf 9bb3 87bf 7279 7a3f fc91 57bf
00000270: 362f 003f 27ff a73f aa54 5ebf 666a 36bf
00000280: abb1 17bf 4e8a 70bf e06b 94bf f4ae cfbd
00000290: 5351 d1bf 512e bbbf 95db 4a3f a1cd 63bf
000002a0: 9c79 3c3f 262b 753e 16df 4a3f 0ba1 d23e
000002b0: 44fc f9bf 8742 3f3f 6a6b 823f 3b04 84bf
000002c0: 513c 87bf d6b2 cbbf 2898 7dbe afd6 743f
000002d0: 1f0d 693f eb8d d0bf c7fc 87bf aec9 d13e
000002e0: 2106 82bf 5205 fdbe 17b6 a8bf 6bc2 ccbe
000002f0: 2d10 453f e019 353f d83b abbf e251 6b3f
00000300: c549 3abf a031 d23f 27df 323f 146d 9d3f
00000310: 096a 083f 9eb4 c73e 3922 823f 1e31 e3be
00000320: c75b cabf 356e 8abf 1595 a93f eb3d b53e
00000330: 1c97 51bf 5750 9bbf 1f17 743f f43e 033f
00000340: d30a 57bf b584 a9be e119 9fbf 8f23 b63e
00000350: 7acb 90bf ef04 94be 7e15 2c3f 0572 663f
00000360: 6a14 8ebf 8fe4 a73f 648a ddbf 5fa9 a53e
00000370: 643e dc3f dc63 c9bf e8a4 babf 6921 3ebf
00000380: d82a 8e3f 94cc 9cbf 2d35 4e3f 7269 0f3e
00000390: 3ea0 8cbf 3b76 df3e 81a2 443f 3921 823f
000003a0: bc29 ccbf 1f86 163f 2f94 553f 11d1 8e3f
000003b0: 9052 a2bf d496 523f e108 883f 6f37 b9bf
000003c0: 953d 3b3f bfad 5d3f 8590 203f 34f0 883f
000003d0: 5184 d6bf f4f3 543f 59c0 473f 1336 813f
000003e0: 3815 6e3f d65c 993f 2606 453f 2f31 a1bf
000003f0: 12a3 f93e 8a08 92bf 7e42 39be f904 d13f

weight_mu f4 [21, 256]
-0.03787332 0.04278119 0.026685048 0.01114263 0.008437589 -0.015399238 0.07263855 0.066047475
0.060858697 0.04157531 -0.041694526 -0.015711784 -0.06562779 0.22110079 -0.046474196 0.076893255
-0.04233645 -0.050120607 0.022402808 0.046758987 0.04841812 0.011213519 0.05736266 0.08769258
-0.03391842 0.04818996 -0.012389604 0.025294412 -0.0065679154 -0.061246753 0.086947985 -0.0006670655
0.063094266 0.114098705 0.08904426 -0.035438314 0.13216835 -0.022453733 0.05091973 -0.052821517
0.01594615 0.048753314 0.01950462 -0.031183481 -0.05012531 -0.010933819 0.025776263 -0.035693
0.020776585 -0.02309709 -0.042804822 -0.037530795 0.10040585 0.051663075 0.02982828 -0.08089326
-0.057839356 -0.026758745 -0.03275199 0.03906236 0.037350804 -0.26199964 0.011059931 0.010254307
-0.0036533305 -0.05171079 -0.00029431283 0.10255475 -0.04129194 0.026312552 0.054690093 0.10615592
-0.21825139 -0.057740904 -0.038218267 0.04576398 0.08771867 -0.008109279 -0.101676136 0.050132744
0.0011086017 -0.0010320107 -0.2263054 -0.068270415 -0.07102868 0.008100642 0.048086032 0.08347488
-0.04162521 0.0596226 -0.025663413 0.013228975 0.116254345 -0.029548327 -0.024464235 0.06429462
0.02412939 -0.043813683 0.13023385 -0.016631022 0.04903231 -0.0067620696 -0.023491725 0.045696475
0.16271459 0.036861617 -0.023099786 -0.0063001923 0.034746893 0.06296845 -0.0011217445 -0.102475025
-0.12247739 -0.002882596 0.022142751 0.016103424 0.058490098 0.045616884 -0.042234167 0.036427144
0.00039944053 -0.07217264 -0.056904055 -0.028318614 -0.002955698 -0.20152465 -0.060799323 -0.11406404
-0.05304214 -0.06170558 0.05965565 -0.036077056 0.015416719 0.04290676 0.00902897 0.042224906
0.03135164 0.105065286 0.07582762 0.069625385 -0.19112027 -0.06053871 0.10387906 -0.056291178
0.022100266 0.059787713 0.047967132 0.09631228 -0.030109398 -0.0077664577 0.045687076 -0.005567386
0.013269784 0.0800825 -0.019781912 0.00856433 -0.013684928 -0.032192104 -0.18378751 -0.01837036
0.100854136 0.09986346 -0.013564595 -0.07379573 -0.02181665 0.030707983 -0.022558989 0.0699437
-0.055001058 -0.022530813 -0.05078251 -0.14466499 0.029262533 0.030418903 0.029338889 0.04612923
0.029129868 -0.039702196 0.079463474 -0.018768698 -0.051292676 0.26378426 0.0034622988 -0.023110876
0.07197339 0.038597718 -0.036887653 -0.03413617 0.04423854 0.09645631 -0.009990049 0.017480109
0.0029998142 0.030516692 -0.038351834 -0.0022003816 0.042294756 0.024025992 -0.06781718 -0.030414999
0.076745175 0.004336312 -0.05754576 0.09717031 0.06283708 -0.021153646 -0.10610462 0.10813839
0.011245215 -0.023337612 -0.0423954 0.022972798 0.06850212 -0.062206924 -0.11915767 0.07914698
0.04839406 0.027385257 0.061675668 -0.036301635 -0.25419945 0.14215381 -0.07515352 0.011013728
0.02344351 0.00048411638 0.031283427 0.23960233 0.16302985 -0.023855194 0.040133774 -0.048156496
0.0067158174 0.04527772 0.05238203 0.04146594 -0.061399844 -0.17614214 0.0027903765 -0.023713483
0.023511034 -0.06565937 0.019602979 0.061142933 0.10551147 0.07479876 0.08696502 0.042522073
0.040668525 -0.2052582 -0.053924788 0.20619044 -0.017197536 0.023017146 0.01888182 -0.036025677
00000000: 0e21 1bbd 543b 2f3d 9a9a da3c 948f 363c
00000010: d03d 0a3c 164d 7cbc 85c3 943d e643 873d
00000020: f846 793d df4a 2a3d e1c7 2abd 00b6 80bc
00000030: dd67 86bd 3f68 623e ba5b 3ebd 367a 9d3d
00000040: fc68 2dbd 444b 4dbd 1886 b73c 5a86 3f3d
00000050: 1452 463d e8b8 373c 1cf5 6a3d 2b98 b33d
00000060: 0bee 0abd d662 453d c4fd 4abc 3a36 cf3c
00000070: ab37 d7bb e0dd 7abd c911 b23d 02de 2eba
00000080: 9137 813d 95ac e93d d65c b63d c427 11bd
00000090: 2457 073e e4f0 b7bc 3591 503d 605b 58bd
000000a0: 80a1 823c 8eb1 473d 27c8 9f3c 8074 ffbc
000000b0: 3250 4dbd c323 33bc be28 d33c d332 12bd
000000c0: a833 aa3c 1c36 bdbc 1c54 2fbd e4b9 19bd
000000d0: 95a1 cd3d a99c 533d 705a f43c 5eab a5bd
000000e0: f6e8 6cbd 2835 dbbc f326 06bd daff 1f3d
000000f0: 28fd 183d d124 86be b634 353c ae01 283c
00000100: b76c 6fbb b1ce 53bd 004e 9ab9 3a08 d23d
00000110: bd21 29bd 6c8d d73c b802 603d 4668 d93d
00000120: 4b7d 5fbe ba81 6cbd c28a 1cbd 0373 3b3d
00000130: d9a5 b33d c8dc 04bc 943b d0bd fe57 4d3d
00000140: 804e 913a 8844 87ba 9abc 67be 5cd1 8bbd
00000150: 7c77 91bd 8eb8 043c dcf5 443d e1f4 aa3d
00000160: 327f 2abd d436 743d 143c d2bc 58be 583c
00000170: c216 ee3d 550f f2bc 3869 c8bc e6ac 833d
00000180: 00ab c53c fa75 33bd 065c 053e c83d 88bc
00000190: 1ad6 483d 5a94 ddbb b871 c0bc 3a2c 3b3d
000001a0: a79e 263e 35fc 163d c33b bdbc d871 cebb
000001b0: c252 0e3d 9af5 803d 8007 93ba 6dde d1bd
000001c0: 6dd5 fabd f0e9 3cbb b764 b53c 54eb 833c
000001d0: 5093 6f3d c5d8 3a3d bcfd 2cbd a134 153d
000001e0: 006c d139 40cf 93bd 3a14 69bd 70fc e7bc
000001f0: 62b4 41bb 7a5c 4ebe b608 79bd 689a e9bd
00000200: b742 59bd febe 7cbd 7c59 743d 89c5 13bd
00000210: 6896 7c3c 00bf 2f3d 3fee 133c 06f4 2c3d
00000220: 946a 003d 782c d73d 834b 9b3d c197 8e3d
00000230: 08b5 43be 70f7 77bd 8bbe d43d 9491 66bd
00000240: 9e0b b53c f6e3 743d 2f79 443d 5f3f c53d
00000250: fca7 f6bc c57d febb 5f22 3b3d 9e6e b6bb
00000260: 8269 593c 4b02 a43d ad0d a2bc 6751 0c3c
00000270: c036 60bc dedb 03bd cb32 3cbe 707d 96bc
00000280: 9d8c ce3d 3785 cc3d 093e 5ebc 3722 97bd
00000290: d5b8 b2bc 4f8f fb3c a1cd b8bc a53e 8f3d
000002a0: ca48 61bd 8a92 b8bc 5201 50bd 0f23 14be
000002b0: fbb7 ef3c 1031 f93c 1c58 f03c 01f2 3c3d
000002c0: c3a1 ee3c c59e 22bd bfbd a23d d0c0 99bc
000002d0: 4518 52bd bb0e 873e bce7 623b 0553 bdbc
000002e0: c966 933d a418 1e3d 8217 17bd 5ed2 0bbd
000002f0: 7933 353d e38a c53d 4dad 23bc 7232 8f3c
00000300: 8898 443b 24fe f93c d016 1dbd 4734 10bb
00000310: 443d 2d3d 28d2 c43c bce3 8abd e028 f9bc
00000320: 932c 9d3d 9f17 8e3b 1ab5 6bbd 3a01 c73d
00000330: bab0 803d 694a adbc 614d d9bd a977 dd3d
00000340: da3d 383c 852e bfbc cda6 2dbd 7331 bc3c
00000350: d74a 8c3d b0cc 7ebd f008 f4bd d017 a23d
00000360: da38 463d 0c57 e03c a09f 7c3d 06b1 14bd
00000370: 6e26 82be c590 113e 17ea 99bd ec72 343c
00000380: 9b0c c03c 00d1 fd39 0d23 003d 505a 753e
00000390: 4cf1 263e f86b c3bc 5063 243d bf3f 45bd
000003a0: 5c10 dc3b 2175 393d 8a8e 563d 31d8 293d
000003b0: 677e 7bbd 9b5e 34be c0de 363b c742 c2bc
000003c0: 369a c03c 6b78 86bd 6d96 a03c 0371 7a3d
000003d0: 6616 d83d 1830 993d b71a b23d a02b 2e3d
000003e0: 0a94 263d 352f 52be 3de0 5cbd 9623 533e
000003f0: d9e1 8cbc 748e bc3c 0cae 9a3c a98f 13bd
