experiments/diff_kappa_data/kappa1_1_kappa2_1_kappa3_1/rainbow_dqn_target_sse.pth (torch, 352338 bytes, 13 tensors)

weight f4 [256, 4]
-0.18809628 -0.22986591 -0.38821906 -0.39880955 -0.31232846 -0.48192942 -0.16833824 -0.4153806
0.72646433 0.38523945 0.66291016 0.9538553 0.9877174 0.8595935 0.83844614 1.3265674
0.75347227 0.88272446 0.5344777 1.1861541 -0.23663056 -0.13156271 0.0034660697 0.40887862
0.56094205 1.1461592 0.8278184 0.423912 0.39940768 1.292881 0.7791579 0.5868284
0.5116821 0.7039475 1.2915554 1.0206709 -0.09586048 -0.042440176 -0.096933484 -0.47276795
1.0636301 0.8270165 0.54376787 0.3865063 -0.45105562 0.03904879 0.060806572 0.017611146
0.8787429 0.84388244 0.81793183 0.60757625 -0.10254872 -0.21002579 -0.1622451 -0.36669075
0.592745 1.131016 0.75032204 1.0795352 0.6971128 1.2094762 0.72815377 1.2559274
0.77636504 1.0622212 0.5087359 1.3280813 0.8321715 1.0614179 0.60626847 0.84868056
0.7656579 0.77560437 0.63963115 0.4537806 -0.050597608 -0.17300117 -0.3312332 0.073305905
0.5274253 0.6855223 1.0265218 1.2828414 0.57640713 1.1120261 0.46049857 0.98878926
1.1029266 0.5436357 0.570788 0.57800305 0.7638695 1.0087656 0.39752242 0.4965016
0.25793087 1.2123194 0.29794627 0.47875667 0.8725255 0.9213242 0.52644765 1.1617965
0.7280577 1.1365514 0.9285859 1.1512889 0.8803362 0.6661377 0.6314369 0.5198743
-0.024946928 -0.4681979 0.03404385 0.39991373 0.7994097 0.9021378 1.2311559 0.44812578
0.6825742 0.5497343 0.70494574 0.53829306 -0.48917806 -0.34425676 -0.4983877 -0.07071149
0.81618446 0.5561022 0.6563161 0.69482577 0.51470745 1.1037722 0.6095766 1.1916271
0.9625601 1.2344017 1.0916098 0.93400705 0.61543 1.3411242 0.9190824 0.9240178
0.69331527 1.2263652 0.64896435 1.3607589 -0.38757265 -0.024195433 -0.45139265 -0.0024769902
0.41923225 1.379402 1.0360005 0.87031984 -0.055282354 -0.025473595 -0.055143356 -0.4460433
1.0710144 1.3384494 0.8201045 0.56245506 0.90232086 0.87901247 1.0688136 0.60229665
0.77432895 0.58618134 0.57949835 0.6158442 -0.17318308 -0.26929003 -0.42087597 0.09235412
0.3085549 0.8568814 1.3595122 1.3317596 1.073294 0.8846284 0.6909302 0.9641661
0.65902895 0.9550633 0.9591635 1.0253255 0.81085783 0.78567475 1.1135964 1.1844512
0.8922335 0.42077145 1.3223456 0.5399736 1.0798829 1.2854342 0.6019513 0.94895405
0.28888682 1.1301297 0.542452 0.51555145 0.99780107 0.6851999 1.2240124 1.2435163
0.980945 0.6152402 0.56017214 0.7135957 -0.24661905 0.15053928 -0.35821062 0.11017855
1.0139658 1.3209373 0.5043936 0.42548162 0.5369868 1.0713521 0.9454192 0.40397567
0.7247871 0.66321903 1.0404421 0.7833659 0.6873881 0.4903662 0.8313438 1.223203
-0.041816354 -0.26488632 -0.39850873 -0.43797046 0.7978021 1.1384724 1.3554085 0.5395746
1.0724876 0.75816286 1.3534465 0.81915784 1.1215738 0.42987502 1.2850527 0.9726226
1.0429417 1.1968561 0.36395755 1.3185534 0.36053637 1.2246212 0.7936662 1.0557135
00000000: 509c 40be f861 6bbe a6c4 c6be c430 ccbe
00000010: 84e9 9fbe 74bf f6be dc60 2cbe c4ac d4be
00000020: 91f9 393f 1b3e c53e 7bb4 293f dc2f 743f
00000030: 0cdb 7c3f 520e 5c3f 68a4 563f f6cc a93f
00000040: 8fe3 403f 3bfa 613f 88d3 083f e6d3 973f
00000050: 484f 72be 60b8 06be 0027 633b 8a58 d13e
00000060: e699 0f3f 58b5 923f e8eb 533f fe0a d93e
00000070: 2a7f cc3e 207d a53f e476 473f 633a 163f
00000080: 99fd 023f e735 343f b051 a53f 58a5 823f
00000090: 8052 c4bd c0d5 2dbd 1085 c6bd a40e f2be
000000a0: 0825 883f 5ab7 533f 5f34 0b3f 27e4 c53e
000000b0: c3f0 e6be a0f1 1f3d 5010 793d 4045 903c
000000c0: 4bf5 603f ae08 583f fb63 513f 1e8a 1b3f
000000d0: 1005 d2bd 0011 57be 9423 26be e4be bbbe
000000e0: 23be 173f 22c5 903f 1b15 403f 362e 8a3f
000000f0: fc75 323f 1ed0 9a3f 4968 3a3f 3bc2 a03f
00000100: dcbf 463f ddf6 873f 843c 023f 91fe a93f
00000110: 3109 553f 8bdc 873f 6934 1b3f 2143 593f
00000120: 2802 443f 028e 463f debe 233f ee55 e83e
00000130: 703f 4fbd 3827 31be 6697 a9be 6821 963d
00000140: 5805 073f 647e 2f3f 1165 833f 2634 a43f
00000150: 6b8f 133f df56 8e3f 78c6 eb3e 4b21 7d3f
00000160: b32c 8d3f b62b 0b3f 2a1f 123f 02f8 133f
00000170: f48c 433f 3b1f 813f 0f88 cb3e 7535 fe3e
00000180: 840f 843e 482d 9b3f 6a8c 983e 981f f53e
00000190: d55d 5f3f e7db 6b3f 46c5 063f bfb5 943f
000001a0: fd61 3a3f 847a 913f ceb7 6d3f 6f5d 933f
000001b0: b75d 613f 0088 2a3f d9a5 213f 7b16 053f
000001c0: 805d ccbc a3b7 efbe 9071 0b3d 7ec1 cc3e
000001d0: 1da6 4c3f 81f2 663f 8496 9d3f be70 e53e
000001e0: 2fbd 2e3f 63bb 0c3f 5377 343f 93cd 093f
000001f0: 8c75 fabe 6c42 b0be ac2c ffbe 30d1 90bd
00000200: 77f1 503f b75c 0e3f 5504 283f 1ae0 313f
00000210: dec3 033f 6848 8d3f 360d 1c3f 3d87 983f
00000220: 576a 763f e000 9e3f dfb9 8b3f 161b 6f3f
00000230: d28c 1d3f f5a9 ab3f fc48 6b3f 6e8c 6c3f
00000240: 1c7d 313f 89f9 9c3f 8722 263f 592d ae3f
00000250: ec6f c6be 8035 c6bc f01c e7be 0055 22bb
00000260: 9ca5 d63e 3f90 b03f aa9b 843f 48cd 5e3f
00000270: c06f 62bd 00ae d0bc 00de 61bd ca5f e4be
00000280: 0017 893f 4f52 ab3f 5ef2 513f 0efd 0f3f
00000290: 80fe 663f f606 613f e2ce 883f 1d30 1a3f
000002a0: 6c3a 463f fb0f 163f 015a 143f f7a7 1d3f
000002b0: e856 31be 62e0 89be 0e7d d7be 2824 bd3d
000002c0: e8fa 9d3e 945c 5b3f 7f04 ae3f 1977 aa3f
000002d0: b361 893f 0277 623f cde0 303f 97d3 763f
000002e0: 1fb6 283f 077f 743f bd8b 753f de3d 833f
000002f0: 6194 4f3f fb21 493f 548a 8e3f 199c 973f
00000300: 6a69 643f 5b6f d73e 9f42 a93f b63b 0a3f
00000310: 9a39 8a3f 1c89 a43f 7b19 1a3f a7ee 723f
00000320: f9e8 933e 17a8 903f 22de 0a3f 2efb 033f
00000330: e46f 7f3f 4369 2f3f 70ac 9c3f 8b2b 9f3f
00000340: 361f 7b3f 6280 1d3f 7167 0f3f 35ae 363f
00000350: b489 7cbe f826 1a3e 6267 b7be 4ba5 e13d
00000360: a2c9 813f 7914 a93f f01f 013f bad8 d93e
00000370: f877 093f 1122 893f fe06 723f e6d5 ce3e
00000380: a68b 393f b9c8 293f 352d 853f ab8a 483f
00000390: abf8 2f3f 4711 fb3e f3d2 543f ea91 9c3f
000003a0: a047 2bbd 2e9f 87be 5609 ccbe aa3d e0be
000003b0: c23c 4c3f 77b9 913f 077e ad3f 9021 0a3f
000003c0: 4647 893f f616 423f bc3d ad3f 54b4 513f
000003d0: bb8f 8f3f 9418 dc3e 9b7c a43f cbfd 783f
000003e0: 1d7f 853f 9532 993f a558 ba3e 5cc6 a83f
000003f0: 3998 b83e 63c0 9c3f b52d 4b3f 9f21 873f

bias f4 [256]
0.14944613 -0.32581133 1.3710765 0.86357445 0.4641805 0.21815592 0.97227097 1.412705
0.43757755 -0.40518382 0.48336434 -0.016087353 1.0671103 0.4811749 0.8426221 1.358077
0.3827435 0.4412054 0.51324433 0.15112734 0.92431754 0.5255622 0.71187973 1.1109375
0.52090406 0.77254885 1.0736616 0.5196697 -0.0026673079 0.42015877 1.1356692 0.36533028
1.2287109 1.4138193 0.5929916 1.0594386 0.81008095 0.37982446 1.3652028 -0.30484372
0.87583566 0.5337866 1.0461116 -0.085642755 1.272504 0.62457556 1.172352 1.2326112
0.6563256 0.9250094 0.6749117 1.1813323 1.3112069 -0.21289611 0.50435233 0.9371677
0.6288956 1.2420844 0.006767869 0.72154677 0.7461048 1.0848197 0.4246853 1.3465197
0.8566941 0.9812788 0.5403158 0.9611857 0.3447358 0.580543 1.1340334 -0.49825472
0.6215703 0.1343906 0.9095756 1.2386346 1.2063202 0.8380834 1.3276403 -0.45906222
0.73025656 0.50478494 1.1148517 0.89860255 1.3842778 0.9190608 1.0898823 1.3113073
0.091374815 1.0100114 1.0113059 0.9264008 0.9755889 0.52568567 0.5218778 -0.14388591
0.48846325 1.3323375 1.2325094 1.3059816 0.7410387 1.173051 0.6788897 0.36041725
0.5517894 0.49905515 0.9505343 1.151393 0.47071344 0.492003 0.9275879 0.82907575
0.41628402 1.011969 -0.36447746 0.99461067 0.70399284 0.3771324 0.4465198 0.8242048
0.49223998 0.85214764 0.7426161 -0.3872341 1.0642099 0.041125953 0.5258512 1.3496987
1.2475755 1.3411268 0.45536762 0.46101272 0.9366826 1.2018812 1.1481912 0.522346
-0.20047814 0.5787279 0.56679404 1.3129138 0.20158613 0.7582073 -0.13449305 0.9913267
0.70370483 0.75075066 1.1567986 1.1051388 0.7247708 0.85317004 1.1152691 -0.26512927
-0.39448506 -0.20966035 0.73260146 1.1331155 1.3252969 0.48262444 0.35864332 1.3357114
0.8474315 0.5821651 1.3131837 0.7360909 0.3526007 0.5088307 0.7146474 0.8851158
0.49984047 -0.22700906 0.36912543 0.73492235 0.58883274 1.1128548 0.9478095 1.3344011
-0.08641487 1.1053919 1.2548046 1.2327305 1.1146106 0.77410954 0.61091375 0.9515084
0.7333462 1.2682657 1.182467 1.0700032 1.3845582 0.34990722 -0.30295086 0.55211383
1.3921188 1.2357302 1.3371253 0.98344445 1.2354261 0.99167544 1.0305519 0.9175853
1.0917722 0.77676314 0.67156637 0.28734326 0.41424084 -0.21106982 0.9779258 0.86579216
1.2692511 1.3898091 1.050675 1.2905855 -0.17897224 0.2691361 0.74730015 1.0255544
0.7021795 0.84541 -0.079348326 0.5338688 1.1452734 1.2324682 1.2635634 0.98117006
1.1581813 0.998334 0.8674164 1.1645855 0.64055306 0.67094076 -0.36042947 0.62150776
0.7501807 0.4300264 1.0772688 0.7318001 1.0911777 1.2639654 0.8301928 -0.4276322
1.1341499 0.4388168 0.7569874 0.3700055 0.2959227 0.6806334 1.0165999 1.2081517
1.2285637 0.367433 0.47684836 0.91238976 0.4205736 0.46280366 1.4513713 1.0713818
00000000: 6808 193e bed0 a6be 6f7f af3f 3713 5d3f
00000010: 11a9 ed3e 4464 5f3e c0e6 783f 84d3 b43f
00000020: 2a0a e03e 4174 cfbe 887b f73e a0c9 83bc
00000030: 1297 883f 8e5c f63e 15b6 573f 78d5 ad3f
00000040: f5f6 c33e ade5 e13e fb63 033f 20c1 1a3e
00000050: 13a0 6c3f 3f8b 063f c03d 363f 3333 8e3f
00000060: f859 053f c3c5 453f be6d 893f 1309 053f
00000070: 00ce 2ebb 0d1f d73e 9c5d 913f 920c bb3e
00000080: 6646 9d3f 08f8 b43f 4cce 173f af9b 873f
00000090: 7761 4f3f 5a78 c23e f7be ae3f 7a14 9cbe
000000a0: c436 603f 3da6 083f fce6 853f 7865 afbd
000000b0: 69e1 a23f 2fe4 1f3f a10f 963f 34c6 9d3f
000000c0: f404 283f 6bcd 6c3f 03c7 2c3f e635 973f
000000d0: a1d5 a73f 7001 5abe 3c1d 013f 39ea 6f3f
000000e0: 4dff 203f 9ffc 9e3f 00c5 dd3b 4ab7 383f
000000f0: b900 3f3f 5fdb 8a3f 5a70 d93e c25a ac3f
00000100: 4e50 5b3f 1635 7b3f 2352 0a3f 4410 763f
00000110: 3681 b03e 779e 143f 0228 913f 3e1b ffbe
00000120: 3b1f 1f3f b09d 093e f2d9 683f 948b 9e3f
00000130: b368 9a3f a28c 563f 1ef0 a93f 340a ebbe
00000140: 18f2 3a3f 9639 013f 76b3 8e3f d10a 663f
00000150: 0430 b13f 9247 6b3f 4381 8b3f ebd8 a73f
00000160: b822 bb3d 0e48 813f 7972 813f 9a28 6d3f
00000170: 32c0 793f 5693 063f c999 053f d456 13be
00000180: db17 fa3e 098a aa3f dec2 9d3f 682a a73f
00000190: b6b4 3d3f 8926 963f b7cb 2d3f 9c88 b83e
000001a0: 1242 0d3f 2884 ff3e 3756 733f d960 933f
000001b0: 5a01 f13e d1e7 fb3e 6776 6d3f 4f3e 543f
000001c0: 2e23 d53e 3388 813f ca9c babe ce9e 7e3f
000001d0: e038 343f 7f17 c13e 3e9e e43e 16ff 523f
000001e0: e106 fc3e 5926 5a3f 171c 3e3f 8c43 c6be
000001f0: 0838 883f b073 283d 2f9e 063f edc2 ac3f
00000200: 8eb0 9f3f 0baa ab3f f225 e93e dc09 ec3e
00000210: 6eca 6f3f 3ed7 993f eef7 923f 78b8 053f
00000220: 244a 4dbe 8327 143f 6a19 113f 8f0d a83f
00000230: 986c 4e3e e019 423f 8cb8 09be 96c7 7d3f
00000240: 0026 343f 3231 403f fa11 943f 3075 8d3f
00000250: 948a 393f 5a69 5a3f 23c1 8e3f 06bf 87be
00000260: f2f9 c9be 34b1 56be c58b 3b3f ee09 913f
00000270: 54a3 a93f 8d1a f73e 19a0 b73e 97f8 aa3f
00000280: 45f1 583f c608 153f 6716 a83f 7470 3c3f
00000290: 1488 b43e bb42 023f 22f3 363f f396 623f
000002a0: 17eb ff3e 1075 68be 02fe bc3e df23 3c3f
000002b0: bebd 163f 0772 8e3f a5a3 723f a8cd aa3f
000002c0: 48fa b0bd 7b7d 8d3f 709d a03f 1dca 9d3f
000002d0: 8fab 8e3f 0b2c 463f d864 1c3f 0e96 733f
000002e0: 94bc 3b3f 8856 a23f 145b 973f ddf5 883f
000002f0: 3439 b13f 0a27 b33e 601c 9bbe 5557 0d3f
00000300: f330 b23f 682c 9e3f ec26 ab3f 04c3 7b3f
00000310: 7122 9e3f 71de 7d3f 20e9 833f dfe6 6a3f
00000320: 31bf 8b3f f3d9 463f c6eb 2b3f a81e 933e
00000330: 6017 d43e b022 58be 5859 7a3f 8ea4 5d3f
00000340: d276 a23f 44e5 b13f 857c 863f e831 a53f
00000350: 8044 37be 35cc 893e 104f 3f3f 5e45 833f
00000360: 09c2 333f ca6c 583f 6081 a2bd a0ab 083f
00000370: 5298 923f 85c1 9d3f 72bc a13f f62d 7b3f
00000380: 493f 943f d192 7f3f 000f 5e3f 2311 953f
00000390: 49fb 233f c6c2 2b3f 368a b8be 221b 1f3f
000003a0: d80b 403f 6c2c dc3e f2e3 893f 4057 3b3f
000003b0: b6ab 8b3f 9ec9 a13f 8487 543f 9cf2 dabe
000003c0: d32b 913f 98ac e03e edc9 413f 5c71 bd3e
000003d0: 2e83 973e fe3d 2e3f f21f 823f b7a4 9a3f
000003e0: 9341 9d3f 2e20 bc3e 7825 f43e 6092 693f
000003f0: 6c55 d73e 9af4 ec3e 89c6 b93f 0a23 893f

weight f4 [256, 256]
-0.04221735 0.027950048 0.02490154 -0.055785906 0.008431364 0.00622157 -0.05250094 -0.05338011
-0.038076602 -0.030444287 -0.023390934 -0.012631379 0.040399693 0.04190225 0.03879707 0.024937674
0.01948757 -0.00857721 0.027575556 -0.033896238 0.031361572 -0.055597406 0.01327704 0.015377547
0.0351135 -0.04255664 0.028706927 -0.0075682607 -0.0007775873 -0.007828194 -0.008001839 -0.042648047
0.020704623 -0.029793225 -0.007888031 0.023772404 0.007634384 0.015638657 0.02952314 0.0066596344
0.019001046 0.05628062 -0.012343668 0.060780518 -0.04907963 -0.051028706 0.027930949 -0.04276749
0.008222189 -0.021898955 -0.0085656615 -0.020524321 -0.026335407 -0.000789091 -0.05616365 0.037450004
-0.047892753 -0.035451017 -0.04983844 0.023615196 -0.054750275 -0.019801242 -0.015310492 -0.050336543
0.0016717837 -0.016997958 0.040358715 -0.0684031 0.05411712 -0.02386889 0.055397727 0.0012096316
-0.028317263 0.01975286 0.020177122 -0.026777972 0.029982671 -0.033365596 -0.021714553 -0.05361367
0.051611338 0.044672605 0.051678393 0.031536475 0.05042371 -0.010836415 -0.050320897 -0.04280847
0.061312653 -0.03465529 -0.0032678046 0.009292279 0.012032233 0.049622774 0.0026421412 -0.03238245
-0.0114972815 -0.061964676 0.023605883 -0.06672672 -0.020126088 -0.05100263 0.0415821 0.01972599
-0.031584907 0.044446852 -0.060815796 -0.058457684 0.043812063 0.020712446 -0.041032996 0.036950815
0.05531279 0.045758154 0.03948272 0.003377747 -0.05770145 0.03676455 -0.0035461485 -0.044035584
-0.03855642 -0.02336523 0.012108229 0.007759236 -0.0017462898 -0.040704444 0.029899394 0.0087726
0.007945027 -0.05241824 -0.020400269 -0.011991442 0.051251475 0.039134584 -0.0245156 0.02662784
-0.021506816 0.056755222 0.052125428 -0.038222633 -0.03333027 0.028792981 0.05596174 0.027818818
-0.028174585 -0.025966603 -0.029657252 -0.066260315 -0.044979572 0.049604893 -0.027416116 0.04916863
-0.002760522 0.049214974 0.032984123 0.030994257 -0.043723404 -0.013429033 -0.044592887 -0.06155564
0.017072462 0.020436775 -0.05202038 -0.0058223084 0.0030117836 -0.023936318 0.006902271 0.054499183
-0.0010436528 -0.037544116 0.045248777 -0.05446268 0.042968653 0.026755618 0.013351359 -0.053979136
0.0584035 -0.056563 0.028344456 0.047201335 0.011809088 0.011247686 0.01511361 0.0011354113
0.0018991664 0.050441593 0.00603763 0.029354757 -0.052394398 -0.017975457 -0.048461996 0.054365072
3.603967e-05 -0.045508564 -0.005646568 0.038099695 -0.034801323 -0.02456105 -0.048833016 -0.038722567
0.047993332 0.022195114 0.008894977 0.028419137 -0.06532154 0.0126828775 -0.0008961835 0.021319296
0.049873114 -0.019864945 0.022653697 -0.020022525 0.010437198 0.046438396 -0.029179668 8.4463034e-05
0.050251603 -0.028095609 0.0022481382 0.033110037 -0.03256168 -0.026610706 -0.03835153 0.055158563
-0.017873403 -0.025386946 -0.057546478 -0.035265498 0.005419604 0.03892373 -0.04283827 -0.0061221947
-0.045551777 0.042450838 0.051930968 0.014104614 -0.019100513 0.042590164 0.032710686 0.058638513
0.015935503 -0.010429054 -0.009526601 -0.0064466596 -0.056344256 -0.018781628 -0.05056155 0.041905455
-0.052729674 -0.044714756 0.0010493337 0.005751155 0.051629964 0.03754388 0.024964124 0.009448555
00000000: 1aec 2cbd 80f7 e43c 50fe cb3c c37f 64bd
00000010: b423 0a3c 50de cb3b 3a0b 57bd 1aa5 5abd
00000020: 36f6 1bbd 4c66 f9bc 589e bfbc d8f3 4ebc
00000030: 267a 253d b2a1 2b3d ade9 1e3d 184a cc3c
00000040: 65a4 9f3c 6d87 0cbc 22e6 e13c c8d6 0abd
00000050: fe74 003d 1bba 63bd f187 593c 1bf2 7b3c
00000060: 2cd3 0f3d df4f 2ebd ca2a eb3c 2cff f7bb
00000070: 00d7 4bba d341 00bc 251a 03bc b8af 2ebd
00000080: be9c a93c ec10 f4bc cd3c 01bc 58be c23c
00000090: db29 fa3b a41c 803c 83da f13c 1039 da3b
000000a0: 15a8 9b3c 8286 663d 193d 4abc fef4 783d
000000b0: b907 49bd 7a03 51bd 72cf e43c f72c 2fbd
000000c0: 5cb6 063c 7065 b3bc fd56 0cbc 9f22 a8bc
000000d0: 5abd d7bc 00db 4eba db0b 66bd 2d65 193d
000000e0: 312b 44bd 1635 11bd 6423 4cbd a874 c13c
000000f0: d341 60bd 3736 a2bc dcd8 7abc b12d 4ebd
00000100: c11f db3a 4d3f 8bbc 2e4f 253d ed16 8cbd
00000110: eaa9 5d3d b188 c3bc bae8 623d 808c 9e3a
00000120: 9bf9 e7bc c0d0 a13c 7e4a a53c 7a5d dbbc
00000130: 389e f53c 5daa 08bd b8e2 b1bc 029a 5bbd
00000140: 6966 533d 9ffa 363d b9ac 533d 642c 013d
00000150: 1889 4e3d 388b 31bc 491d 4ebd ef57 2fbd
00000160: fa22 7b3d b5f2 0dbd aa28 56bb a53e 183c
00000170: d822 453c 4041 4b3d c627 2d3b 76a3 04bd
00000180: 185f 3cbc acce 7dbd 2061 c13c 05a8 88bd
00000190: 77df a4bc 22e8 50bd fe51 2a3d 6698 a13c
000001a0: 2d5f 01bd e70d 363d fc19 79bd 5371 6fbd
000001b0: 4774 333d 26ad a93c 3712 28bd bd59 173d
000001c0: aa8f 623d e76c 3b3d a2b8 213d 315d 5d3b
000001d0: 5b58 6cbd 6d96 163d 8066 68bb a85e 34bd
000001e0: 56ed 1dbd 7068 bfbc 9861 463c 3041 fe3b
000001f0: c3e3 e4ba b4b9 26bd 93ef f43c f4ba 0f3c
00000200: dc2b 023c 82b4 56bd 771e a7bc c177 44bc
00000210: 11ed 513d 964b 203d f1d4 c8bc a122 da3c
00000220: 102f b0bc 2a78 683d 7981 553d 568f 1cbd
00000230: 5285 08bd 42df eb3c 2338 653d 4ae4 e33c
00000240: 63ce e6bc eab7 d4bc c4f3 f2bc 7db3 87bd
00000250: 803c 38bd 802e 4b3d c397 e0bc 0c65 493d
00000260: e0e9 34bb a495 493d 5c1a 073d abe7 fd3c
00000270: 5017 33bd 7205 5cbc 08a7 36bd c421 7cbd
00000280: 8cdb 8b3c 066b a73c 5213 55bd 10c9 bebb
00000290: 5861 453b 1916 c4bc 722c e23b 893a 5f3d
000002a0: 2dcb 88ba dcc7 19bd c856 393d 4214 5fbd
000002b0: e6ff 2f3d 992e db3c a9bf 5a3c 3a19 5dbd
000002c0: 8238 6f3d 9bae 67bd a232 e83c 3056 413d
000002d0: e87a 413c 3748 383c 139f 773c 15d2 943a
000002e0: 73ed f83a d89b 4e3d 50d7 c53b 6379 f03c
000002f0: 829b 56bd 4441 93bc 1680 46bd e9ad 5e3d
00000300: 4d29 1738 3067 3abd d806 b9bb 6d0e 1c3d
00000310: d58b 0ebd 4134 c9bc 2105 48bd 8e9b 1ebd
00000320: a894 443d 87d2 b53c 3dbc 113c 40cf e83c
00000330: 4dc7 85bd d8cb 4f3c dbed 6aba cea5 ae3c
00000340: c047 4c3d cfbb a2bc 3f94 b93c 4706 a4bc
00000350: c800 2b3c 3036 3e3d 330a efbc bf21 b138
00000360: a0d4 4d3d c328 e6bc 8055 133b 649e 073d
00000370: 655f 05bd b2fe d9bc 7e16 1dbd f2ed 613d
00000380: 3e6b 92bc 49f8 cfbc dbb5 6bbd 8e72 10bd
00000390: ef96 b13b 7d6e 1f3d 2f77 2fbd b19c c8bb
000003a0: 8094 3abd eee0 2d3d 91b5 543d 0a17 673c
000003b0: ae78 9cbc 0673 2e3d a4fb 053d f02e 703d
000003c0: 2c8b 823c 9fde 2abc 7615 1cbc 803e d3bb
000003d0: 3cc9 66bd eedb 99bc a119 4fbd 0ea5 2b3d
000003e0: 12fb 57bd d226 37bd cc89 893a 2f74 bc3b
000003f0: f179 533d 9dc7 193d 9081 cc3c 1dce 1a3c

bias f4 [256]
0.048214614 -0.057452895 0.036108155 0.5825683 0.026592825 0.50609636 -0.050782092 0.049160838
0.6070974 -0.03612753 0.5306716 -0.047894243 0.5389678 0.4978942 -0.058004595 0.46202248
0.45959717 0.00985723 0.017776012 0.657075 -0.00849842 -0.0137372315 -0.036095865 0.5210239
-0.046451062 0.02666025 0.566952 0.03255646 -0.062364027 -0.055934172 0.558892 0.05106819
0.5405816 0.66091913 -0.020920692 -0.05124832 -0.04723412 -0.0026377642 -0.036621504 0.5004402
-0.013867974 -0.05494777 0.5615422 -0.05717008 -0.051671498 -0.0028827488 0.57208616 0.5356225
-0.056247346 0.016624942 -0.02602154 0.5699618 -0.03225099 0.5091763 -0.035714768 0.535479
-0.029055616 0.04754278 0.5567547 -0.056777578 -0.037023574 0.48524186 -0.02691618 0.047553003
0.04759994 -0.04492891 0.032066897 0.00020449098 0.4373249 -0.009355983 0.036760826 0.49786946
0.62880254 0.55683935 0.47966662 0.5478482 0.04437011 0.006745793 0.6505731 0.02585952
-0.020215122 0.04950878 0.5398456 0.49702963 0.51402694 0.0048983423 0.06100718 0.045173284
0.02466163 0.55072105 0.03376834 -0.035406783 0.61702806 0.498397 0.05508431 -0.019056182
-0.01612624 0.015600242 0.051775996 -0.043546103 -0.02795293 0.5716818 0.47438866 0.47428116
0.5198702 0.554813 0.50723344 0.66415805 -0.00856324 -0.022315443 -0.0345947 0.579565
0.5880779 0.04766029 0.5701066 0.009225224 -0.050215844 0.5888455 0.547182 -0.06053938
0.03414437 -0.0032753018 -0.0029834716 0.049230874 -0.014561708 0.59212774 -0.000974566 0.4876394
0.5822134 -0.039018594 0.5746696 -0.03135338 -0.034223903 0.011205681 -0.021922052 -0.017649513
0.01908885 0.019370595 0.62006927 0.43613243 0.4598204 0.5336806 -0.0067723515 0.59891534
0.056393124 0.50008136 0.7040693 -0.039867725 0.05741723 0.48794156 -0.006702875 0.5470309
-0.039038472 0.017864833 0.003197536 -0.02171164 -0.029810734 0.026550762 0.4625276 -0.041529574
0.5780189 0.58935744 0.5056333 0.45331016 0.057715602 0.5299562 0.039646342 -0.03958684
0.0056706886 0.5988578 0.55006254 0.50669736 -0.010965869 -0.028024629 0.0057669873 -0.030212693
-0.037518553 0.5137313 0.53566587 -0.004908651 -0.013096049 -0.05513845 -0.028121686 0.02409017
-0.0595261 0.5122185 -0.057357978 0.0048770607 -0.03715869 -0.006376353 0.5331839 0.59164196
-0.045171052 -0.06845824 0.0155295385 0.5308695 0.022813268 -0.05329565 0.5904713 -0.043587804
0.0028065199 -0.031035982 -0.041351594 0.56172264 -0.010502442 0.57821596 0.58630925 0.46407503
-0.057036858 0.60093415 -0.008863872 0.008810599 0.5706354 -0.03980812 0.5248964 0.62840873
0.47857502 0.04084138 0.05300236 0.027974613 0.63235396 0.56310743 -0.063435055 0.495027
0.5550179 -0.009419126 0.5823847 0.060389824 0.59637135 0.046187706 -0.041845128 -0.042929914
0.48285156 0.57281697 -0.046195067 0.6072204 0.5052009 0.6054121 0.05487115 0.48917955
0.5591725 0.50402117 0.058012165 0.055440195 -0.062160626 -0.0411075 0.042695962 0.00697687
0.055795588 0.5492784 -0.02232103 0.5234073 0.58079755 0.06175758 0.56200755 0.041258
00000000: b07c 453d ba53 6bbd 25e6 133d 3223 153f
00000010: 32d9 d93c 888f 013f e200 50bd e05c 493d
00000020: bc6a 1b3f 76fa 13bd 18da 073f c12c 44bd
00000030: cbf9 093f fdeb fe3e 3a96 6dbd 368e ec3e
00000040: 5250 eb3e 3880 213c 009f 913c 1136 283f
00000050: f53c 0bbc 2012 61bc 42d9 13bd d361 053f
00000060: 7843 3ebd 9966 da3c c423 113f ec59 053d
00000070: 6c71 7fbd 3b1b 65bd 8c13 0f3f e12c 513d
00000080: 8e63 0a3f ff31 293f df61 abbc c2e9 51bd
00000090: 9178 41bd 57de 2cbb 6e00 16bd d91c 003f
000000a0: 8036 63bc ea10 61bd 3bc1 0f3f 2c2b 6abd
000000b0: 7ea5 53bd 80ec 3cbb 3d74 123f 8e1e 093f
000000c0: 9e63 66bd 0831 883c 202b d5bc 04e9 113f
000000d0: 9d19 04bd 6159 023f a649 12bd 2715 093f
000000e0: 0b06 eebc 38bc 423d 7a87 0e3f 9b8f 68bd
000000f0: 08a6 17bd 9f71 f83e 527f dcbc f0c6 423d
00000100: 28f8 423d 6007 38bd 9458 033d a16c 5639
00000110: 0de9 df3e d649 19bc 8592 163d bfe8 fe3e
00000120: 34f9 203f 068d 0e3f dd96 f53e c83f 0c3f
00000130: 6fbd 353d d00b dd3b f58b 263f 58d7 d33c
00000140: 2f9a a5bc b8c9 4a3d 5233 0a3f ab7a fe3e
00000150: 4597 033f 4682 a03b aae2 793d 9f07 393d
00000160: 3007 ca3c 0efc 0c3f ac50 0a3d b406 11bd
00000170: 8df5 1d3f e42d ff3e 16a0 613d b61b 9cbc
00000180: 2d1b 84bc 2898 7f3c 1113 543d 665d 32bd
00000190: 8bfd e4bc bd59 123f 12e3 f23e fbd4 f23e
000001a0: 3716 053f 3a08 0e3f 0dda 013f 4306 2a3f
000001b0: d54c 0cbc e0ce b6bc 2cb3 0dbd 5f5e 143f
000001c0: 468c 163f 7037 433d 82f2 113f 6525 173c
000001d0: 21af 4dbd 94be 163f 1f14 0c3f 24f8 77bd
000001e0: f8da 0b3d 72a6 56bb 5986 43bb 50a6 493d
000001f0: 3b94 6ebc af95 173f 047a 7fba dfab f93e
00000200: f00b 153f f6d1 1fbd 8c1d 133f 676c 00bd
00000210: 5d2e 0cbd 0898 373c e095 b3bc b695 90bc
00000220: 3860 9c3c 15af 9e3c dcbc 1e3f c04c df3e
00000230: 946d eb3e 4b9f 083f 9aea ddbb 8452 193f
00000240: 7afc 663d 5505 003f e33d 343f 574c 23bd
00000250: 542e 6b3d 7ad3 f93e caa3 dbbb 380a 0c3f
00000260: cee6 1fbd 4559 923c c18d 513b 9cdc b1bc
00000270: a435 f4bc fc80 d93c 6bd0 ec3e ea1a 2abd
00000280: 0cf9 133f 21e0 163f 2f71 013f 4518 e83e
00000290: 3267 6c3d 36ab 073f 3464 223d cf25 22bd
000002a0: 2fd1 b93b bf4e 193f e6d0 0c3f ebb6 013f
000002b0: 30aa 33bc e893 e5bc fff8 bc3b 9c80 f7bc
000002c0: 0ead 19bd e583 033f 6621 093f c0d8 a0bb
000002d0: d090 56bc dbd8 61bd 735f e6bc c058 c53c
000002e0: a4d1 73bd c020 033f 33f0 6abd c0cf 9f3b
000002f0: b633 18bd baf0 d0bb bd7e 083f d975 173f
00000300: 4805 39bd d533 8cbd 9b6f 7e3c 10e7 073f
00000310: e4e2 ba3c 8a4c 5abd 2129 173f 2089 32bd
00000320: 97ed 373b 2c3f febc 4a60 29bd 0ecd 0f3f
00000330: 6f12 2cbc f605 143f 5d18 163f 3e9b ed3e
00000340: 7b9f 69bd d2d6 193f c639 11bc 555a 103c
00000350: 2915 123f d70d 23bd 9c5f 063f 65df 203f
00000360: c907 f53e 4a49 273d 0119 593d 042b e53c
00000370: f3e1 213f cf27 103f 3dea 81bd 2e74 fd3e
00000380: a715 0e3f ae52 1abc 2a17 153f 525b 773d
00000390: cbab 183f 522f 3d3d cc65 2bbd 47d7 2fbd
000003a0: 5238 f73e 22a4 123f 0a37 3dbd cc72 1b3f
000003b0: d954 013f 4afc 1a3f 92c0 603d be75 fa3e
000003c0: ee25 0f3f 8807 013f 2a9e 6d3d 4215 633d
000003d0: 249c 7ebd 5760 28bd f6e1 2e3d 3a9e e43b
000003e0: ea89 643d 829d 0c3f 98da b6bc 05fe 053f
000003f0: 26af 143f 84f5 7c3d badf 0f3f 26fe 283d

weight_mu f4 [1, 256]
0.033048198 0.04843143 0.043356087 -0.7908956 -0.061894834 -0.84931934 0.04147183 0.01716075
-0.81504035 0.015410702 -0.844366 0.013959514 -0.80235916 -0.81632614 0.04205978 -0.8277512
-0.82165873 -0.054727178 0.025629975 -0.81463975 -0.04198518 0.0038165674 0.03830362 -0.8225244
0.051679883 -0.010421417 -0.8172207 0.047906905 0.015928425 0.021637438 -0.82923305 0.016610898
-0.82358825 -0.8011643 0.054002225 -0.008146204 0.04107248 0.055347808 0.025348574 -0.78258795
-0.021366306 -0.04507552 -0.8117585 -0.039004765 -0.003984928 0.037622858 -0.7686356 -0.82035255
-0.057320543 0.015073404 0.031313032 -0.80152273 0.022267384 -0.8437638 0.03849532 -0.80895907
0.039369278 -0.061220028 -0.8113878 0.015924327 -0.036877 -0.7932071 -0.01100219 0.053553704
0.045860227 0.030767014 0.0036564097 0.04312512 -0.8444061 -0.038534068 -0.021188913 -0.80156106
-0.85239893 -0.8043328 -0.8095321 -0.8183672 0.037815083 0.050871953 -0.81739354 -0.031011216
-0.00066589046 0.03663789 -0.8151904 -0.8255024 -0.8245117 0.026516082 0.0035819113 0.055979617
0.035564262 -0.8298224 -0.04811108 0.041581966 -0.8231475 -0.8034655 0.03883274 0.0064057824
0.04404154 0.0106885955 -0.00085257425 -0.019557692 -0.028971797 -0.79755795 -0.81158376 -0.84818417
-0.81303716 -0.82047707 -0.8110694 -0.79600877 0.05917145 0.06176723 -0.006196484 -0.8197114
-0.8338402 0.04771915 -0.8385989 0.039746277 0.05297703 -0.8057568 -0.8002318 0.038422305
-0.008814514 0.0491966 0.04578572 0.049721867 0.033624873 -0.8123735 0.03801368 -0.81665635
-0.81865364 -0.03910979 -0.81913835 0.020167809 0.058113463 0.03282801 0.04513305 0.03914725
0.050410867 0.00025860232 -0.82525885 -0.8382662 -0.8256608 -0.8239209 0.04467186 -0.8061223
0.023607 -0.80791926 -0.8297535 0.053440455 -0.043253824 -0.7935673 0.055426784 -0.8126675
0.04803729 0.037879158 0.054843403 0.035804294 0.05032611 0.05763837 -0.8311689 0.014289252
-0.8222362 -0.8130656 -0.79681 -0.8469417 0.033606246 -0.8127641 -0.040774472 0.050507158
0.018584931 -0.8419215 -0.8373513 -0.7943378 0.035061345 0.06149461 0.053791378 0.028502036
0.04178103 -0.801617 -0.79207546 0.052721493 -0.02206169 0.04326221 0.057328917 0.05989192
0.04523289 -0.81279427 -0.0059825894 0.028219342 0.030755632 0.058754962 -0.7902273 -0.8059025
0.040533803 0.04105907 0.039114468 -0.82765865 0.009239443 -0.03013239 -0.7948586 0.015877388
0.002111054 0.057209708 -0.043506697 -0.8051573 0.038996745 -0.8271867 -0.8074582 -0.82087034
0.0048811124 -0.830343 0.021323394 0.0444096 -0.79291415 0.048201203 -0.8265862 -0.8022031
-0.8254886 -0.03349822 0.034673914 0.018218026 -0.79540616 -0.79445875 0.0015211422 -0.8127779
-0.82075375 0.039177798 -0.8161622 0.05395536 -0.8075124 0.027893849 0.018943459 -0.047146205
-0.7849373 -0.83362293 0.037725314 -0.7902336 -0.83620185 -0.81545424 0.018911138 -0.8428726
-0.8419441 -0.8046496 0.021022879 0.046249148 0.016163863 0.03702681 0.05158973 0.040943585
0.03734346 -0.82610995 0.054296527 -0.80213964 -0.8074914 0.059165604 -0.83432454 0.05703164
00000000: 8c5d 073d 0960 463d 2796 313d 2278 4abf
00000010: 7085 7dbd fe6c 59bf 5ede 293d b494 8c3c
00000020: 7ca6 50bf 2b7d 7c3c 5f28 58bf 72b6 643c
00000030: 6967 4dbf c0fa 50bf e046 2c3d 81e7 53bf
00000040: 3a58 52bf 9b29 60bd f4f5 d13c 3b8c 50bf
00000050: a7f8 2bbd 601f 7a3b 42e4 1c3d f690 52bf
00000060: 49ae 533d 97be 2abc 6035 51bf 083a 443d
00000070: 547c 823c ff40 b13c 9e48 54bf 9413 883c
00000080: aed6 52bf 1b19 4dbf 7031 5d3d a877 05bc
00000090: 9e3b 283d 62b4 623d d0a7 cf3c af57 48bf
000000a0: 6408 afbc 1ca1 38bd 68cf 4fbf 76c3 1fbd
000000b0: 0094 82bb 6d1a 1a3d 4dc5 44bf a002 52bf
000000c0: f2c8 6abd 70f6 763c 1842 003d 9830 4dbf
000000d0: 176a b63c e800 58bf 45ad 1d3d f117 4fbf
000000e0: ae41 213d dac1 7abd 1cb7 4fbf bc73 823c
000000f0: 560c 17bd 9f0f 4bbf 8842 34bc 215b 5b3d
00000100: efd7 3b3d 1b0b fc3c 60a0 6f3b f7a3 303d
00000110: 002b 58bf e6d5 1dbd 5f94 adbc 1b33 4dbf
00000120: d136 5abf c1e8 4dbf 7f3d 4fbf 8380 51bf
00000130: fde3 1a3d 1c5f 503d b440 51bf 3c0b febc
00000140: 278f 2eba 9d11 163d 51b0 50bf 2054 53bf
00000150: 3313 53bf 4138 d93c 80be 6a3b e24a 653d
00000160: d5ab 113d 3e6f 54bf 2010 45bd da51 2a3d
00000170: cbb9 52bf eaaf 4dbf 140f 1f3d 99e7 d13b
00000180: e764 343d 381f 2f3c 4a7f 5fba 7437 a0bc
00000190: 4356 edbc c22c 4cbf f4c3 4fbf 9922 59bf
000001a0: 3423 50bf c90a 52bf 3fa2 4fbf 3bc7 4bbf
000001b0: c35d 723d a3ff 7c3d e00b cbbb 9bd8 51bf
000001c0: 8d76 55bf 2875 433d 6bae 56bf fecc 223d
000001d0: 71fe 583d 1446 4ebf fedb 4cbf b560 1d3d
000001e0: c06a 10bc 6082 493d cf89 3b3d 28a9 4b3d
000001f0: 3cba 093d b6f7 4fbf 3cb4 1b3d 6410 51bf
00000200: 4993 51bf 9631 20bd 0db3 51bf f636 a53c
00000210: 6208 6e3d aa76 063d 6fdd 383d de58 203d
00000220: a07b 4e3d 0495 8739 2a44 53bf 9d98 56bf
00000230: 825e 53bf 7bec 52bf d7f9 363d 085e 4ebf
00000240: 7863 c13c ccd3 4ebf ba6a 54bf 61e4 5a3d
00000250: ec2a 31bd 3a27 4bbf 3207 633d fa0a 50bf
00000260: c0c2 443d 2d27 1b3d 7aa3 603d 86a7 123d
00000270: c022 4e3d 3616 6c3d 7cc7 54bf 781d 6a3c
00000280: 127e 52bf 1125 50bf bdfb 4bbf 2cd1 58bf
00000290: b4a6 093d 4f11 50bf 2203 27bd 98e0 4e3d
000002a0: 6d3f 983c 2b88 57bf a85c 56bf b959 4bbf
000002b0: 7c9c 0f3d c6e1 7b3d 5954 5c3d 1a7d e93c
000002c0: 9622 2b3d c636 4dbf 75c5 4abf 7ef2 573d
000002d0: b8ba b4bc b733 313d bad1 6a3d 3b51 753d
000002e0: 1f46 393d 4913 50bf 9909 c4bb 402c e73c
000002f0: 3cf3 fb3c 0ba9 703d 564c 4abf a04f 4ebf
00000300: c606 263d 8e2d 283d 7e36 203d 70e1 53bf
00000310: 0861 173c 34d8 f6bc da7b 4bbf 4c11 823c
00000320: 9c59 0a3b ba54 6a3d 1434 32bd ca1e 4ebf
00000330: 0dbb 1f3d 82c2 53bf 95b5 4ebf 8f24 52bf
00000340: bdf1 9f3b 5c91 54bf 66ae ae3c d7e6 353d
00000350: 6cfc 4abf a06e 453d 279b 53bf 2f5d 4dbf
00000360: 3953 53bf 6e35 09bd 3c06 0e3d f83d 953c
00000370: bd9f 4bbf a661 4bbf 1061 c73a 3612 50bf
00000380: eb1c 52bf e678 203d 02f0 50bf 4c00 5d3d
00000390: 22b9 4ebf a481 e43c 502f 9b3c 611c 41bd
000003a0: a7f1 48bf 5068 55bf dc85 1a3d c04c 4abf
000003b0: 5311 56bf 9cc1 50bf 88eb 9a3c 80c6 57bf
000003c0: a689 57bf 84fd 4dbf 2c38 ac3c bf6f 3d3d
000003d0: 146a 843c 6da9 173d c14f 533d 76b4 273d
000003e0: 75f5 183d f17b 53bf 0966 5e3d 0659 4dbf
000003f0: c2b7 4ebf a257 723d 4b96 55bf 029a 693d

weight_sigma f4 [1, 256]
0.031089624 0.03125 0.031582672 0.039999746 0.03125 0.023105308 0.030786386 0.031144014
0.031323075 0.033160705 0.028263465 0.032216717 0.05137855 0.03681711 0.03125 0.03946524
0.03392779 0.03125 0.03125 0.02881106 0.031239009 0.03125 0.03125 0.018490434
0.03055132 0.03038629 0.025068875 0.031360086 0.031653453 0.031446327 0.02840456 0.030694371
0.03716721 0.017530402 0.030734604 0.03125 0.03091528 0.032043118 0.03202151 0.028157894
0.03125 0.03125 0.033770546 0.03125 0.03125 0.031209951 0.02593305 0.01569195
0.03125 0.03125 0.03125 0.028571693 0.03173094 0.04106429 0.032167543 0.02980028
0.030908575 0.03125 0.040058654 0.031613965 0.03125 0.020723222 0.029892316 0.030646315
0.030694744 0.030479047 0.03125 0.032103468 0.030189222 0.030547222 0.030698841 0.03171008
0.024001356 0.03373122 0.0334541 0.045669697 0.030505126 0.03125 0.02620752 0.03125
0.031802464 0.029561883 0.029019898 0.027781803 0.028377796 0.030876165 0.03125 0.03205802
0.030786758 0.033340234 0.03125 0.03125 0.03126709 0.025652692 0.03125 0.032266635
0.03137983 0.03125 0.031410564 0.03125 0.031162268 0.030508345 0.01570806 0.03355591
0.02865077 0.02758345 0.022940075 0.022319237 0.031073233 0.03181513 0.03125 0.038758826
0.038905688 0.031205108 0.03296964 0.02997092 0.02991057 0.040825758 0.032467876 0.03237318
0.03125 0.03212582 0.031841952 0.03160875 0.031628396 0.034625895 0.03125 0.017949862
0.02030788 0.03125 0.029701158 0.03078564 0.031564046 0.03125 0.030436581 0.032058764
0.03125 0.03077968 0.03881871 0.02342924 0.0449182 0.009190827 0.03186654 0.016003005
0.031858344 0.027971288 0.03953764 0.03046154 0.03125 0.030326325 0.031505186 0.035348352
0.030442541 0.03139361 0.031664625 0.03125 0.031238636 0.03125 0.03841872 0.03125
0.03787665 0.025557892 0.028052183 0.040283576 0.03042615 0.027293505 0.03125 0.03004468
0.03368001 0.034555294 0.021929696 0.023579922 0.030246219 0.03125 0.031228578 0.030989414
0.032043863 0.030134808 0.035511997 0.03125 0.03125 0.032192875 0.032100488 0.030836677
0.031391006 0.038224958 0.031957436 0.03125 0.03125 0.029581254 0.02211816 0.038467623
0.03058671 0.030377349 0.03104045 0.024911685 0.03125 0.03125 0.040174518 0.031527534
0.031995434 0.031016236 0.03125 0.039810255 0.031354126 0.034375954 0.030859694 0.023099493
0.031147366 0.0421122 0.030565476 0.030700332 0.025479902 0.031088134 0.041201096 0.027706986
0.030924844 0.03125 0.032160837 0.03125 0.030368034 0.032989457 0.030605337 0.033405993
0.038065746 0.032132525 0.031875096 0.03125 0.027675698 0.03125 0.03125 0.031069508
0.028583772 0.040685173 0.03125 0.02424944 0.033413984 0.025892647 0.03125 0.02987331
0.025596486 0.02248876 0.03125 0.031208089 0.032286003 0.03112129 0.0312025 0.031466443
0.032294203 0.025077887 0.03150593 0.033494107 0.041658033 0.03125 0.024280813 0.03129713
00000000: abaf fe3c 0000 003d d55c 013d c6d6 233d
00000010: 0000 003d 5847 bd3c bb33 fc3c bb21 ff3c
00000020: a04c 003d 85d3 073d c888 e73c adf5 033d
00000030: 5072 523d 8acd 163d 0000 003d 4ea6 213d
00000040: def7 0a3d 0000 003d 0000 003d 2c05 ec3c
00000050: f3e8 ff3c 0000 003d 0000 003d 4079 973c
00000060: c346 fa3c abec f83c 3e5d cd3c 6f73 003d
00000070: 0da7 013d ddcd 003d aeb0 e83c c372 fb3c
00000080: a53c 183d eb9b 8f3c 23c7 fb3c 0000 003d
00000090: 0b42 fd3c a53f 033d fd28 033d 62ab e63c
000000a0: 0000 003d 0000 003d fc52 0a3d 0000 003d
000000b0: 0000 003d 03ac ff3c 8c71 d43c 688c 803c
000000c0: 0000 003d 0000 003d 0000 003d 2f0f ea3c
000000d0: 4df8 013d 0733 283d 1dc2 033d b81f f43c
000000e0: fb33 fd3c 0000 003d 8b14 243d a57d 013d
000000f0: 0000 003d bfc3 a93c bbe0 f43c fb0d fb3c
00000100: 8b73 fb3c 32af f93c 0000 003d ed7e 033d
00000110: 634f f73c 2b3e fa3c 237c fb3c 6ee2 013d
00000120: 7e9e c43c bf29 0a3d 2b07 093d 2610 3b3d
00000130: e3e5 f93c 0000 003d 27b1 d63c 0000 003d
00000140: 4d43 023d c32b f23c 23bb ed3c aa96 e33c
00000150: 8d78 e83c 03f0 fc3c 0000 003d 454f 033d
00000160: 8334 fc3c c58f 083d 0000 003d 0000 003d
00000170: ec11 003d 9825 d23c 0000 003d 052a 043d
00000180: 2388 003d 0000 003d 5da8 003d 0000 003d
00000190: 0348 ff3c a3ec f93c 30ae 803c ec71 093d
000001a0: 05b5 ea3c b0f6 e13c d3ec bb3c d5d6 b63c
000001b0: 4b8d fe3c 9550 023d 0000 003d 93c1 1e3d
000001c0: 925b 1f3d dba1 ff3c 2c0b 073d 9385 f53c
000001d0: 0307 f53c e938 273d 09fd 043d bd99 043d
000001e0: 0000 003d 5d96 033d b56c 023d 2d78 013d
000001f0: c78c 013d e2d3 0d3d 0000 003d 970b 933c
00000200: b65c a63c 0000 003d d84f f33c 2b32 fc3c
00000210: 4d49 013d 0000 003d 2356 f93c 0d50 033d
00000220: 0000 003d ab25 fc3c 5e00 1f3d adee bf3c
00000230: 25fc 373d 1f95 163c 7d86 023d bc18 833c
00000240: e57d 023d 0b24 e53c 38f2 213d 7b8a f93c
00000250: 0000 003d ea6e f83c 950b 013d 6fc9 103d
00000260: a362 f93c 9696 003d c4b2 013d 0000 003d
00000270: 2be8 ff3c 0000 003d f35c 1d3d 0000 003d
00000280: 8c24 1b3d c95e d13c b1cd e53c 6400 253d
00000290: 4340 f93c a196 df3c 0000 003d 4320 f63c
000002a0: 0df4 093d da89 0d3d e8a5 b33c ae2a c13c
000002b0: ebc6 f73c 0000 003d 13d3 ff3c 83dd fd3c
000002c0: 6d40 033d 46dd f63c 0775 113d 0000 003d
000002d0: 0000 003d addc 033d cd7b 033d 339d fc3c
000002e0: db93 003d c691 1c3d cde5 023d 0000 003d
000002f0: 0000 003d 6354 f23c 2531 b53c 3a90 1d3d
00000300: fb90 fa3c ebd9 f83c 8b48 fe3c 9713 cc3c
00000310: 0000 003d 0000 003d 098e 243d 0423 013d
00000320: a50d 033d c315 fe3c 0000 003d 1410 233d
00000330: 2f6d 003d cdcd 0c3d 78cd fc3c 263b bd3c
00000340: c328 ff3c d87d 2c3d 7364 fa3c 437f fb3c
00000350: 3abb d03c 8bac fe3c 7bc2 283d c3f9 e23c
00000360: 1956 fd3c 0000 003d 15bb 033d 0000 003d
00000370: 62c6 f83c f41f 073d 0bb8 fa3c b9d4 083d
00000380: d4ea 1b3d 659d 033d 768f 023d 0000 003d
00000390: 25b8 e23c 0000 003d 0000 003d 7b85 fe3c
000003a0: 8428 ea3c 7fa5 263d 0000 003d c3a6 c63c
000003b0: 1add 083d d11c d43c 0000 003d dfb8 f43c
000003c0: b9af d13c 593a b83c 0000 003d 1ba8 ff3c
000003d0: 543e 043d 13f2 fe3c 639c ff3c f5e2 003d
000003e0: ed46 043d 2470 cd3c 5d0c 013d 1e31 093d
000003f0: 9da1 2a3d 0000 003d 8ee8 c63c 6b31 003d

weight_epsilon f4 [1, 256]
0.32678482 -0.27676788 0.45511824 -0.5756727 0.19004261 0.5288047 0.59023696 0.48259747
-0.26569462 0.5053659 0.5472343 -0.88459045 -0.75925416 -0.12537172 -0.9012574 -0.6164223
0.48715702 -0.11759277 0.7672696 0.70576704 -0.24146245 -0.94830704 0.5636473 -0.82105666
-0.5505337 -0.41497934 -0.27501607 -0.95083404 -0.6633963 0.7910316 -0.8707161 0.507766
-0.6280753 -0.3576595 0.72321135 1.1444473 0.6585979 -0.28942186 0.15827647 0.31811315
0.9883324 0.63701594 -0.60903406 -0.4165845 -0.84814125 0.52234364 -0.4434102 0.6288369
0.94282997 1.0122696 -0.657654 0.47342452 0.22526962 0.8566943 -0.44046378 -0.81021875
0.46106863 -0.552847 -0.49230707 -0.21634261 -0.58396524 0.52634543 -0.27785885 0.6605006
-0.5058866 -0.5258729 -0.032688953 -0.9007724 -0.83428985 0.7090545 -0.63947064 0.88678485
-0.16494156 -1.0003349 -0.5966955 0.7306763 0.6469333 0.1200775 -0.6956078 0.6366483
-0.6476034 -0.6573668 0.97743994 -0.4122881 -0.4690625 -0.8169479 0.2376055 -0.6020546
-0.5340092 -0.8016032 0.1587506 1.0028787 -0.58445835 0.21539211 -0.046542604 -0.22260372
0.4754755 -0.7523554 -0.64522105 0.7626661 0.9018063 0.44276872 0.5680563 -0.39778873
-0.6047102 -0.2528254 0.21675253 0.7806058 0.05578899 -0.655009 0.4804861 -0.052418277
0.54336274 0.43580818 0.712237 -0.3708364 0.83095306 -0.21840855 0.24728818 0.14773825
-0.62115914 0.52747506 -0.97981876 -0.48794505 -0.21069445 0.31272927 -0.99510646 1.1780766
0.4637355 -0.098758765 0.18985397 -0.9981704 0.9000997 -1.231118 -0.35292256 0.33216172
0.84021384 0.12551537 -0.5315338 0.6681576 0.70531696 0.41131416 -0.65170413 -0.8829122
-0.3502626 -0.2007456 0.4986819 -0.4650805 -0.48831153 -0.80030024 0.9026212 0.82071185
-0.63222474 -0.4778163 0.7572756 -0.70354104 0.37761873 0.4041811 -0.5272553 -0.9654284
0.70619476 -0.76268977 0.29535854 0.58641243 0.68286484 0.6204299 0.08655918 -0.52003187
-0.51970726 -0.4179879 0.4737076 -0.62450206 0.5624306 0.55166614 -0.8168316 -0.67412555
0.17226695 -0.9443886 0.38496527 0.46892115 -0.054885574 0.71355253 -0.7604442 -0.4876229
-0.22455794 -0.81863856 1.054639 -0.4120514 -0.6633432 -0.36856583 -0.28248215 -0.63933194
0.59581643 -0.81562287 -0.6933697 0.37652558 -0.96406114 -0.8737356 -0.33954322 -0.80687344
0.44654894 0.17530401 -0.55111593 0.6203229 0.55670094 0.44074917 0.58792293 -0.3276375
-0.26050666 -0.3382867 -1.0238327 -0.7144996 -0.42668417 -0.4399377 0.6639588 -0.54680127
-0.41628549 0.9848815 0.1487774 -0.6790713 -0.92800796 -0.41550958 0.75140965 -0.9078695
0.7804494 -0.33342865 0.5043996 0.73500776 -0.5685471 0.66904 0.7296859 0.76799315
-0.18893985 -0.6535399 -0.48792094 0.41055414 -0.9361962 -0.6130594 -0.2501258 -0.49632242
-0.62365234 -0.69806576 -0.76518285 0.34669638 0.73791414 0.30693 -0.54089445 0.48023406
-0.44261703 -0.21286626 -0.69853854 0.9066463 0.878262 0.39020738 -0.19833775 0.7785187
00000000: 5750 a73e 85b4 8dbe 4205 e93e 495f 13bf
00000010: 889a 423e bf5f 073f c519 173f 0417 f73e
00000020: 2009 88be a95f 013f 8c17 0c3f 8574 62bf
00000030: 7b5e 42bf 7261 00be ceb8 66bf dacd 1dbf
00000040: a56c f93e 7ad4 f0bd c86b 443f 26ad 343f
00000050: ef41 77be 40c4 72bf 304b 103f c530 52bf
00000060: c7ef 0cbf 2c78 d4be e8ce 8cbe dc69 73bf
00000070: 57d4 29bf 0c81 4a3f 40e7 5ebf f4fc 013f
00000080: 8bc9 20bf 251f b7be 6124 393f 407d 923f
00000090: df99 283f 1a2f 94be 3a13 223e badf a23e
000000a0: 5a03 7d3f 7a13 233f a8e9 1bbf 904a d5be
000000b0: c91f 59bf 50b8 053f a906 e3be 75fb 203f
000000c0: 4e5d 713f 0d92 813f 035c 28bf b364 f23e
000000d0: 14ad 663e 5150 5b3f 7884 e1be 7f6a 4fbf
000000e0: 3011 ec3e 6287 0dbf ac0f fcbe eb88 5dbe
000000f0: bf7e 15bf 93be 063f 8443 8ebe 9116 293f
00000100: c981 01bf 9b9f 06bf dae4 05bd 0599 66bf
00000110: 0594 55bf 9984 353f 59b4 23bf 5504 633f
00000120: 71e6 28be f90a 80bf 09c1 18bf 9a0d 3b3f
00000130: 6c9d 253f 31eb f53d 5a13 32bf 62fb 223f
00000140: 56c9 25bf 3149 28bf 8139 7a3f 6d17 d3be
00000150: f628 f0be 7f23 51bf db4e 733e 4020 1abf
00000160: d4b4 08bf de35 4dbf 848f 223e 545e 803f
00000170: 109f 15bf c08f 5c3e 75a3 3ebd 3bf2 63be
00000180: 8671 f33e 5d9a 40bf 352d 25bf 163e 433f
00000190: c7dc 663f 95b2 e23e 236c 113f f7aa cbbe
000001a0: 4ace 1abf 5572 81be 60f4 5d3e c8d5 473f
000001b0: ff82 643d abae 27bf 4602 f63e 8cb4 56bd
000001c0: d219 0b3f 4022 df3e 2a55 363f 45de bdbe
000001d0: 57b9 543f 7ea6 5fbe 1d39 7d3e b248 173e
000001e0: 4904 1fbf 9b08 073f 67d5 7abf efd3 f9be
000001f0: 49c0 57be 0d1e a03e 4cbf 7ebf 37cb 963f
00000200: bd6e ed3e 0942 cabd 1469 423e 1888 7fbf
00000210: ef6c 663f 4695 9dbf 44b2 b4be 1a11 aa3e
00000220: 4118 573f 1a87 003e 9912 08bf 600c 2b3f
00000230: a78f 343f c597 d23e 15d6 26bf 8906 62bf
00000240: 9f55 b3be 4190 4dbe 3c53 ff3e 081f eebe
00000250: f803 fabe 7ae0 4cbf 2f12 673f 2c1a 523f
00000260: 7bd9 21bf 57a4 f4be d0dc 413f 441b 34bf
00000270: 3e57 c13e d3f0 ce3e 34fa 06bf 5126 77bf
00000280: 2ec9 343f a33f 43bf 3c39 973e 201f 163f
00000290: 3bd0 2e3f 7ed4 1e3f f045 b13d cf20 05bf
000002a0: 890b 05bf 8302 d6be cd89 f23e 5edf 1fbf
000002b0: 74fb 0f3f fe39 0d3f e01b 51bf 7e93 2cbf
000002c0: bf66 303e 74c3 71bf 2b1a c53e 6f16 f03e
000002d0: b2cf 60bd 61ab 363f 79ac 42bf b5a9 f9be
000002e0: 84f2 65be 4c92 51bf 69fe 863f 67f8 d2be
000002f0: dcd0 29bf a9b4 bcbe 80a1 90be 42ab 23bf
00000300: 6d87 183f a9cc 50bf ad80 31bf f6c7 c03e
00000310: b6cc 76bf 23ad 5fbf 9cd8 adbe 428f 4ebf
00000320: 10a2 e43e e582 333e ef15 0dbf 7bcd 1e3f
00000330: f483 0e3f e0a9 e13e 1e82 163f 1ac0 a7be
00000340: 2161 85be ea33 adbe f30c 83bf 72e9 36bf
00000350: 5976 dabe 843f e1be 34f9 293f 2bfb 0bbf
00000360: 5f23 d5be 3221 7c3f 1a59 183e 9ed7 2dbf
00000370: ee91 6dbf acbd d4be 625c 403f 236a 68bf
00000380: 88cb 473f 29b7 aabe 5520 013f 7829 3c3f
00000390: 4e8c 11bf 3546 2b3f b2cc 3a3f 339b 443f
000003a0: 7379 41be 644e 27bf c6d0 f9be 2734 d23e
000003b0: 8eaa 6fbf 76f1 1cbf 7d10 80be f91d febe
000003c0: aea7 1fbf 70b4 32bf 06e3 43bf 3082 b13e
000003d0: f1e7 3c3f ee25 9d3e 0f78 0abf 3de1 f53e
000003e0: b39e e2be 9df9 59be 6cd3 32bf f919 683f
000003f0: c7d5 603f 43c9 c73e 0d19 4bbe 004d 473f

weight_mu f4 [24, 256]
-0.02629033 0.04278119 0.0035453856 0.028048199 0.008437589 0.050554536 0.03895577 0.05727453
0.12616755 0.039232187 0.04547471 -0.027102815 -0.036579307 0.06285962 -0.046474196 0.06485564
0.021126524 -0.050120607 0.022402808 0.1285152 0.048421744 0.011213519 0.05736266 0.07927601
-0.03441687 0.05366025 0.014631366 -0.020834636 0.0021459323 -0.038239766 0.05293374 0.0024637
0.081834786 0.12078531 0.04829881 -0.035438314 0.030288689 -0.019157508 0.026397992 -0.017237607
0.01594615 0.048753314 0.060355667 -0.031183504 -0.05012531 -0.04066419 0.019285202 0.04700545
0.020776585 -0.02309709 -0.042804822 -0.0063903653 -0.0015831217 0.0953659 0.034354288 -0.013316413
-0.05260897 -0.026758745 0.0060701394 0.027224634 0.037350804 -0.03302084 0.010012006 0.010184861
-0.010856344 -0.054019365 -0.00029431283 0.05384279 0.00718791 0.0263667 0.051800586 0.07819987
0.005034843 -0.030373346 0.0003687702 0.030185482 0.055306833 -0.008109279 0.061237402 0.050132744
-0.0009891937 -0.0015786747 -0.023054633 -0.018491145 -0.028221898 -0.014434302 0.048086032 0.06796948
-0.057085283 0.08302523 -0.025663413 0.013228985 0.09594497 0.01377087 -0.024464235 0.046308756
0.024146797 -0.043813683 0.06507567 -0.016631022 0.049044613 -0.0068086255 0.027115868 0.08747858
0.09591712 0.053079154 0.021250915 -0.062808275 0.038057975 0.06308786 -0.0011217445 -0.019876396
0.051807433 -0.000806043 -0.023411447 -0.052245382 0.058816805 0.0833488 -0.020761518 0.018078294
0.00039944053 -0.056110747 -0.056813337 -0.028264735 -0.0021608798 -0.023730043 -0.060799323 -0.010776908
0.04951948 -0.06170558 0.11102647 -0.036260147 0.015452426 0.04290676 -0.0047049993 0.042959716
0.03135164 0.062328264 0.075442456 0.08326174 -0.0111295525 0.023736434 0.048275713 -0.014852228
0.0004153732 0.07330007 0.04730442 0.06271719 -0.030109398 0.01364194 0.022413418 0.019519424
-0.023408813 0.05423171 -0.031488046 0.0092487335 -0.00907435 -0.032860026 -0.022171222 -0.01837036
0.062470414 0.08978206 0.033095337 -0.019605197 -0.057778187 0.03707601 -0.025543928 -0.010724468
-0.052608225 -0.034859702 0.06888061 -0.0049005384 0.03256615 0.030418903 0.021368844 0.040900376
0.014617587 0.0011868316 0.09009452 -0.018768698 -0.0514004 0.002756089 -0.048193008 -0.019255111
0.061216637 0.060019813 -0.03565665 -0.031847365 0.044222802 0.014137025 0.040170938 0.048977207
0.0030903409 0.01845939 -0.04177656 0.03843147 0.042294756 0.024025992 -0.024517477 -0.039025802
0.031786818 -0.045491423 -0.05754576 0.0857656 0.029694505 0.018793335 0.0018459379 0.03686536
-0.04176911 -0.046251375 -0.045638945 0.025102707 0.003970356 -0.05654884 -0.014604724 0.075800136
0.038018294 0.027385257 0.03356527 -0.036301635 0.01967069 0.112199314 -0.045444485 0.037665542
0.0555973 0.00067842845 0.068816 0.05986516 0.08383631 -0.023855194 0.040133774 -0.048132658
0.017833691 0.10705369 0.05238203 0.045915514 0.0058484124 0.0028261796 0.0027903765 0.06449665
0.049468264 -0.00854402 0.018788707 0.035911463 0.056438576 0.04815874 0.06352297 -0.0078748055
0.015248466 0.06037601 -0.049980402 0.0785917 0.02811198 0.023017146 0.06540751 -0.031903043
00000000: d15e d7bc 543b 2f3d b359 683b 56c5 e53c
00000010: d03d 0a3c 4612 4f3d 1690 1f3d b398 6a3d
00000020: 1132 013e eeb1 203d b143 3a3d b906 debc
00000030: 2fd4 15bd 8bbc 803d ba5b 3ebd 09d3 843d
00000040: 8811 ad3c 444b 4dbd 1886 b73c 7d99 033e
00000050: e155 463d e8b8 373c 1cf5 6a3d 765b a23d
00000060: b4f8 0cbd daca 5b3d 66b8 6f3c 66ad aabc
00000070: c5a2 0c3b 4da1 1cbd 0dd1 583d 0776 213b
00000080: ff98 a73d 4a5e f73d f9d4 453d c427 11bd
00000090: fc1f f83c 35f0 9cbc 9a40 d83c e235 8dbc
000000a0: 80a1 823c 8eb1 473d 8137 773d 8c74 ffbc
000000b0: 3250 4dbd 7e8f 26bd 00fc 9d3c c988 403d
000000c0: a833 aa3c 1c36 bdbc 1c54 2fbd 4566 d1bb
000000d0: c080 cfba 324f c33d 15b7 0c3d 162d 5abc
000000e0: 817c 57bd 2835 dbbc 05e8 c63b 3206 df3c
000000f0: 28fd 183d dc40 07bd 6609 243c 67de 263c
00000100: cfde 31bc 6943 5dbd 004e 9ab9 428a 5c3d
00000110: 8f88 eb3b fafe d73c da2c 543d 4127 a03d
00000120: 53fb a43b 86d1 f8bc 8057 c139 8b47 f73c
00000130: 6b89 623d c8dc 04bc 12d4 7a3d fe57 4d3d
00000140: d5a7 81ba 88eb ceba 12dd bcbc be7a 97bc
00000150: 9c31 e7bc da7d 6cbc dcf5 443d 9533 8b3d
00000160: 42d2 69bd 2209 aa3d 143c d2bc 62be 583c
00000170: cc7e c43d 379f 613c 3869 c8bc 40ae 3d3d
00000180: 81cf c53c fa75 33bd 6546 853d c83d 88bc
00000190: 01e3 483d e41a dfbb 1922 de3c f827 b33d
000001a0: 3270 c43d 8769 593d 6616 ae3c a0a1 80bd
000001b0: aee2 1b3d 3534 813d 8007 93ba d3d3 a2bc
000001c0: 0834 543d a14c 53ba 5dc9 bfbc 41ff 55bd
000001d0: e4e9 703d c7b2 aa3d 0f14 aabc ee18 943c
000001e0: 006c d139 62d4 65bd 1ab5 68bd 728b e7bc
000001f0: 8c9d 0dbb 8265 c2bc b608 79bd a191 30bc
00000200: f0d4 4a3d febe 7cbd d961 e33d 8585 14bd
00000210: 2c2c 7d3c 00bf 2f3d 652c 9abb 87f6 2f3d
00000220: 946a 003d ec4b 7f3d 9381 9a3d 2285 aa3d
00000230: ba58 36bc e972 c23c c1bc 453d c256 73bc
00000240: 72c6 d939 591e 963d 48c2 413d df71 803d
00000250: fca7 f6bc 7282 5f3c 589c b73c 33e7 9f3c
00000260: d7c3 bfbc 1222 5e3d 9cf9 00bd 0088 173c
00000270: 95ac 14bc 3c98 06bd 6ca0 b5bc 707d 96bc
00000280: fae0 7f3d a8df b73d fa8e 073d 149b a0bc
00000290: d2a8 6cbd 04dd 173d 8041 d1bc aeb5 2fbc
000002a0: b97b 57bd 0cc9 0ebd 4711 8d3d b294 a0bb
000002b0: 1564 053d 1031 f93c b70d af3c 2787 273d
000002c0: 9b7e 6f3c 768f 9b3a 7a83 b83d d0c0 99bc
000002d0: 3a89 52bd 809f 343b 0866 45bd e5bc 9dbc
000002e0: 4cbe 7a3d 56d7 753d b50c 12bd 6272 02bd
000002f0: f822 353d fb9e 673c 488a 243d 539c 483d
00000300: 5187 4a3b 2638 973c e61d 2bbd 516a 1d3d
00000310: 443d 2d3d 28d2 c43c e0d8 c8bc 85d9 1fbd
00000320: e532 023d 3755 3abd 1ab5 6bbd e0a5 af3d
00000330: e441 f33c 7bf4 993c 66f3 f13a 2200 173d
00000340: 1616 2bbd 1572 3dbd e7ef 3abd 31a4 cd3c
00000350: c319 823b c29f 67bd a748 6fbc 1a3d 9b3d
00000360: 12b9 1b3d 0c57 e03c bd7b 093d 06b1 14bd
00000370: 6d24 a13c c1c8 e53d ff23 3abd 2f47 1a3d
00000380: ffb9 633d 90d8 313a 67ef 8c3d 2c35 753d
00000390: 5fb2 ab3d f86b c3bc 5063 243d c026 45bd
000003a0: f617 923c f73e db3d 8a8e 563d e811 3c3d
000003b0: 0aa4 bf3b 6d37 393b c0de 363b d216 843d
000003c0: 3c9f 4a3d 38fc 0bbc c6ea 993c e617 133d
000003d0: 232c 673d 1942 453d 5518 823d 5405 01bc
000003e0: b4d4 793c d64c 773d 40b8 4cbd aff4 a03d
000003f0: 184b e63c 748e bc3c 5ff4 853d c4ac 02bd
