experiments/diff_kappa_data/kappa1_4_kappa2_1_kappa3_1/dqn_proposed_target_erf.pth (torch, 306152 bytes, 6 tensors)

weight f4 [256, 4]
0	0xbe409c50	-0.18809628
1	0xbe6b61f8	-0.22986591
2	0xbec6c4a6	-0.38821906
3	0xbecc30c4	-0.39880955
4	0xbe9fe984	-0.31232846
5	0xbef6bf74	-0.48192942
6	0xbe2c60dc	-0.16833824
7	0xbed4acc4	-0.4153806
8	0x3de7b510	0.11313832
9	0xbedf6f38	-0.4363954
10	0xbe9c6fd9	-0.30554083
11	0x3e4f1f26	0.20226726
12	0x3ecab2f2	0.3958965
13	0x3d392e42	0.04521013
14	0x3d982b10	0.074300885
15	0x3f246691	0.64219004
16	0x3e0adbf5	0.1356047
17	0x3d87353b	0.0660195
18	0xbf1664a0	-0.5874729
19	0x3f14ce7b	0.58127564
20	0xbe76274c	-0.24038428
21	0xbe0a9115	-0.13531907
22	0xb99ad45e	-0.00029531395
23	0x3ecf6e00	0.4051361
24	0xbe44ef99	-0.19232024
25	0x3ed20d4b	0.41025767
26	0xbe012636	-0.12612233
27	0xbf3d9899	-0.7406097
28	0xbee1c6b7	-0.4409692
29	0x3f02d004	0.51098657
30	0xbe9306b3	-0.2871605
31	0xbf1d5cd9	-0.614698
32	0xbd8e652e	-0.06952892
33	0xbec34659	-0.38139609
34	0x3f04759b	0.5174195
35	0x3ed213fd	0.41030875
36	0xbdc45280	-0.09586048
37	0xbd2dd5c0	-0.042440176
38	0xbdc68510	-0.096933484
39	0xbef20ea4	-0.47276795
40	0x3ee13816	0.43988103
41	0x3d0f3a0c	0.034967467
42	0xbeac401e	-0.33642668
43	0xbf16d2d5	-0.58915454
44	0xbee6f0c3	-0.45105562
45	0x3d1ff1a0	0.03904879
46	0x3d791050	0.060806572
47	0x3c904540	0.017611146
48	0x3e82de4f	0.25560233
49	0x3ddcb97d	0.107775666
50	0x3c8130c4	0.015770324
51	0xbef49e77	-0.4777715
52	0xbdd20510	-0.10254872
53	0xbe571100	-0.21002579
54	0xbe262394	-0.1622451
55	0xbebbbee4	-0.36669075
56	0xb7b70d7e	-2.1821583e-05
57	0x3ef2e066	0.47436827
58	0xbe8147cc	-0.2525009
59	0x3e4ac367	0.19801103
60	0x3d95aee5	0.07308749
61	0x3ef98d55	0.4874064
62	0xbdc59385	-0.09647278
63	0x3f09cce6	0.53828275
64	0x3e357abf	0.17722605
65	0x3e6fb180	0.23407555
66	0xbe9fa445	-0.31180015
67	0x3f5c3eba	0.86033213
68	0x3e465e1d	0.19371839
69	0x3e456e24	0.19280297
70	0xbe8d6c71	-0.27621797
71	0xbde7028e	-0.11279784
72	0x3e20db91	0.15708758
73	0xbc2ae610	-0.010430828
74	0xbe8a347d	-0.2699317
75	0xbf1136b7	-0.56724113
76	0xbd4f3f70	-0.050597608
77	0xbe312738	-0.17300117
78	0xbea99766	-0.3312332
79	0x3d962168	0.073305905
80	0xbd827b84	-0.06371215
81	0xbe788c24	-0.2427221
82	0x3e8bc279	0.27296808
83	0x3f284e37	0.65744346
84	0x3b983de6	0.0046460507
85	0x3ef043a2	0.469266
86	0xbeb6b4f1	-0.35684922
87	0x3e965fdc	0.2937001
88	0x3ef4155b	0.47672543
89	0xbe9431e7	-0.28944322
90	0xbea493b4	-0.3214394
91	0xbed01417	-0.40640327
92	0x3d66f461	0.0563854
93	0x3eedc73b	0.46441063
94	0xbeee309f	-0.4652147
95	0xbec268b2	-0.379705
96	0xbe9399ea	-0.28828365
97	0x3f1d48b0	0.6143904
98	0xbea25d36	-0.3171174
99	0xbe969bb3	-0.29415664
100	0x3e6f5bdf	0.2337489
101	0x3cff247b	0.031145325
102	0xbebc72ca	-0.36806327
103	0x3f1a11d9	0.60183483
104	0x3de752f2	0.112951174
105	0x3ea8f81a	0.33001786
106	0x3e1036a5	0.14083345
107	0x3eca73d9	0.3954151
108	0x3e83ab0f	0.25716445
109	0xbe6c7c39	-0.23094262
110	0xbe8db638	-0.27678084
111	0xbed184a6	-0.40921515
112	0xbccc5d80	-0.024946928
113	0xbeefb7a3	-0.4681979
114	0x3d0b7190	0.03404385
115	0x3eccc17e	0.39991373
116	0x3e22980f	0.15878318
117	0xbd8dcc14	-0.069236904
118	0x3ed5ddbf	0.4177074
119	0xbf45885c	-0.7716119
120	0x3d07d4e0	0.033161998
121	0xbea68be6	-0.3252861
122	0xbe41fdbc	-0.18944448
123	0xbeba8132	-0.36426693
124	0xbefa758c	-0.48917806
125	0xbeb0426c	-0.34425676
126	0xbeff2cac	-0.4983877
127	0xbd90d130	-0.07071149
128	0x3e4451ff	0.19171904
129	0xbeabdcbb	-0.3356684
130	0xbe61bf4c	-0.2204563
131	0xbe355e1b	-0.1771168
132	0xbe8f02f9	-0.27931955
133	0x3eadc5d7	0.33940002
134	0xbeb96e83	-0.36217126
135	0x3d36c8f6	0.044625245
136	0x3ebd69ff	0.3699493
137	0x3ee08431	0.43850854
138	0x3ea28040	0.31738472
139	0x3de0a952	0.10969795
140	0xba9de396	-0.0012045975
141	0x3f1ecb24	0.6202872
142	0x3dfcee2d	0.12350116
143	0x3dca5ae7	0.098806195
144	0x3d8fc2a2	0.07019545
145	0x3edfa49d	0.43680277
146	0xbe42cf2b	-0.19024341
147	0x3f489599	0.7835327
148	0xbec66fec	-0.38757265
149	0xbcc63580	-0.024195433
150	0xbee71cf0	-0.45139265
151	0xbb225500	-0.0024769902
152	0xbe4a5a25	-0.1976095
153	0x3f63047c	0.8867872
154	0x3e11e316	0.14246783
155	0xbdeb74af	-0.11496865
156	0xbd626fc0	-0.055282354
157	0xbcd0ae00	-0.025473595
158	0xbd61de00	-0.055143356
159	0xbee45fca	-0.4460433
160	0x3ed7a5fd	0.42118827
161	0x3f3fa42c	0.7485988
162	0xbdd4ca5f	-0.10390162
163	0xbf19fd4b	-0.6015212
164	0x3e81ded0	0.25365305
165	0xbe2b2465	-0.16713102
166	0x3e7d598d	0.24741192
167	0xbf084f88	-0.53246355
168	0x3dfab09b	0.12240716
169	0xbe6cf9ad	-0.23142119
170	0xbf169ac6	-0.58829916
171	0xbdd5826c	-0.104252666
172	0xbe3156e8	-0.17318308
173	0xbe89e062	-0.26929003
174	0xbed77d0e	-0.42087597
175	0x3dbd2428	0.09235412
176	0xbf06d0a2	-0.526621
177	0xbd842dbf	-0.06454038
178	0x3ed0c180	0.4077263
179	0x3f079aa6	0.5297035
180	0x3eeb7446	0.45987147
181	0x3dc2b64f	0.09507429
182	0xbd957b71	-0.07298935
183	0x3dbbd68f	0.09171783
184	0x3d2c8e01	0.042127613
185	0x3e6003bd	0.21876426
186	0x3e2578e0	0.16159391
187	0x3e8bdc9d	0.27316752
188	0x3e519c1d	0.20469709
189	0xbc2637a9	-0.010145106
190	0x3ea40657	0.32036087
191	0x3ef41721	0.47673896
192	0x3e932f37	0.2874696
193	0xbed17641	-0.40910533
194	0x3f1180c0	0.5683708
195	0xbe9906e8	-0.29888082
196	0x3eea23ee	0.45730537
197	0x3f21c8d8	0.6319709
198	0xbe7e3bc6	-0.2482749
199	0x3e1f8c4e	0.15580866
200	0xbe927428	-0.28604245
201	0x3f0b29d8	0.54360723
202	0xbe415d66	-0.18883285
203	0xbebef7cb	-0.37298426
204	0x3eca1545	0.39469352
205	0xbe0c8a88	-0.1372472
206	0x3edd1d51	0.4318643
207	0x3f13a96a	0.5768038
208	0x3ea99101	0.33118442
209	0xbce8092c	-0.028324686
210	0xbecc1de6	-0.3986656
211	0xbe4a0b4d	-0.19730873
212	0xbe7c89b4	-0.24661905
213	0x3e1a26f8	0.15053928
214	0xbeb76762	-0.35821062
215	0x3de1a54b	0.11017855
216	0x3ebd265c	0.36943328
217	0x3f1bb906	0.608292
218	0xbed49a47	-0.41523954
219	0xbed03843	-0.40667924
220	0xbd38dd1c	-0.04513274
221	0x3e97ee55	0.2967402
222	0x3dbd826b	0.09253391
223	0xbf870262	-1.0547602
224	0x3dd5aff9	0.10433955
225	0xbeacb444	-0.33731282
226	0x3e9098d8	0.2824161
227	0xbebb044c	-0.36526716
228	0x3d870e6d	0.065945484
229	0xbed13ae0	-0.4086523
230	0x3d015f83	0.031585228
231	0x3f219901	0.6312409
232	0xbd2b47a0	-0.041816354
233	0xbe879f2e	-0.26488632
234	0xbecc0956	-0.39850873
235	0xbee03daa	-0.43797046
236	0x3e33c9d5	0.17557462
237	0x3e979910	0.29608965
238	0x3f1567f2	0.5836173
239	0xbf260aad	-0.6486004
240	0x3ede38af	0.4340262
241	0xbe85f111	-0.26160482
242	0x3f111f4f	0.566884
243	0xbe20245c	-0.1563887
244	0x3efd1502	0.4943009
245	0xbef2541d	-0.47329798
246	0x3f00fdf9	0.5038753
247	0xbd2c1756	-0.042014442
248	0x3ed894e0	0.42301083
249	0x3ec87cc9	0.39157704
250	0xbefddbbd	-0.4958171
251	0x3f376cb7	0.7165026
252	0xbeea2537	-0.45731518
253	0x3eec0177	0.46094868
254	0xbe92231c	-0.2854241
255	0xbe0a6594	-0.13515311

bias f4 [256]
0	0x3e190868	0.14944613
1	0xbea6d0be	-0.32581133
2	0x3f0cb75f	0.549673
3	0x3d8341b0	0.06409013
4	0xbeb46d3d	-0.35239592
5	0x3e5b8c59	0.21440257
6	0x3d15a81a	0.036537267
7	0x3ed010f9	0.4063795
8	0xbf25c86e	-0.64758956
9	0xbecf7441	-0.40518382
10	0xbe9dfea7	-0.30858347
11	0xbc83c9a0	-0.016087353
12	0x3ea9e40d	0.331818
13	0x3ef65c8e	0.4811749
14	0x3e606f9f	0.2191758
15	0x3f2997f2	0.66247475
16	0xbee10b2b	-0.43953833
17	0xbee6bf1f	-0.4506769
18	0xbe8b90b8	-0.2725885
19	0x3e1ac120	0.15112734
20	0xbb79534c	-0.0038044034
21	0xbe3deec5	-0.18548115
22	0xbdf7bad8	-0.120961845
23	0x3f18b63a	0.59653056
24	0xbe42b104	-0.19012839
25	0xbde95340	-0.11392832
26	0x3e926a05	0.2859651
27	0xbec11e81	-0.37718585
28	0xbb2ece00	-0.0026673079
29	0xbf0df22c	-0.5544765
30	0x3e85920a	0.2608798
31	0x3ebb0c92	0.36533028
32	0x3eaca1e2	0.33717257
33	0x3ee709e3	0.4512473
34	0xbe3dc36f	-0.18531583
35	0x3eb9573f	0.36199376
36	0x3d2f0a30	0.042734325
37	0x3ec2785a	0.37982446
38	0x3f69d975	0.9134744
39	0xbe9c147a	-0.30484372
40	0x3e94097c	0.28913486
41	0xbf033db6	-0.5126604
42	0x3e6a39d4	0.22873622
43	0xbdaf6578	-0.085642755
44	0x3ece3a07	0.40278646
45	0xbe1eacfd	-0.15495677
46	0x3eeb1c5d	0.45920077
47	0x3eea1f75	0.45727125
48	0xbe3179b8	-0.17331588
49	0x3e965a60	0.29365826
50	0xbd9b02d5	-0.075688995
51	0x3ebfcdbd	0.37461653
52	0x3f29caf5	0.6632531
53	0xbe5a0170	-0.21289611
54	0xbe5c03a2	-0.21485761
55	0x3e14e4c2	0.14540389
56	0xbebe2a3b	-0.37141594
57	0x3eafc448	0.34329438
58	0x3bddc500	0.006767869
59	0xbe0389c8	-0.12845528
60	0xbe8cbaa1	-0.27486137
61	0x3e3a3afa	0.1818656
62	0xbebf224b	-0.3733085
63	0x3eb6274a	0.3557685
64	0x3d7b63b5	0.061374385
65	0x3ca7eaa5	0.02049763
66	0xbcb50ea4	-0.022101708
67	0x3e18ac6d	0.14909525
68	0x3eb08136	0.3447358
69	0xbe91c7d3	-0.28472766
70	0x3eb7863b	0.35844597
71	0xbeff1b3e	-0.49825472
72	0xbe9f6945	-0.31135002
73	0x3e099db0	0.1343906
74	0x3e2488f2	0.16067865
75	0x3f002f93	0.5007259
76	0x3e970820	0.29498386
77	0xbd252765	-0.040320773
78	0x3f0c01d5	0.54690295
79	0xbeeb0a34	-0.45906222
80	0xbdeecdcf	-0.116603486
81	0xbec96f67	-0.39342806
82	0x3e927b50	0.28609705
83	0xbd0e2fae	-0.03471344
84	0x3edf3c64	0.43600762
85	0x3c1d3066	0.009594059
86	0x3ec46187	0.38355657
87	0x3e9478e2	0.28998476
88	0x3dbb22b8	0.091374815
89	0x3edb18c5	0.42792335
90	0x3e007be7	0.12547265
91	0xbd412e14	-0.047163084
92	0x3c3a64f2	0.011376606
93	0xbed437af	-0.41448733
94	0xbe994079	-0.29932
95	0xbe1356d4	-0.14388591
96	0xbef5be2b	-0.4799665
97	0x3ecc9557	0.39957687
98	0x3ee83cc3	0.45358858
99	0x3f3298d2	0.69764435
100	0xbe0133e2	-0.12617448
101	0x3ea26f89	0.3172572
102	0xbdced846	-0.10099845
103	0xbf003407	-0.5007939
104	0xbe518b85	-0.20463379
105	0xbec691e6	-0.38783187
106	0x3c64174b	0.013921569
107	0x3ed6dfbc	0.4196757
108	0xbee4a311	-0.4465566
109	0xbe95a426	-0.29226798
110	0x3e15086e	0.14553997
111	0x3d8aabfb	0.06771084
112	0xbf21b15d	-0.6316126
113	0x3e8d6b87	0.276211
114	0xbeba9cca	-0.36447746
115	0x3b49e200	0.0030804873
116	0xbd8d52b0	-0.06900537
117	0xbee5c770	-0.4487872
118	0x3ee49e3e	0.4465198
119	0x3cc47d98	0.023985669
120	0xbe992dff	-0.29917905
121	0xbd3ce957	-0.046120968
122	0xbe9de72d	-0.30840436
123	0xbec6438c	-0.3872341
124	0x3e1ead00	0.15495682
125	0x3d2873b0	0.041125953
126	0xbec7f539	-0.39054278
127	0x3f0b6a43	0.5445902
128	0x3e9cf639	0.30656603
129	0x3f218208	0.63089037
130	0xbe9cf838	-0.30658126
131	0xbec35340	-0.38149452
132	0xbe83d199	-0.25745848
133	0x3eeb0c68	0.45907903
134	0x3e44b61c	0.19210094
135	0xbed03254	-0.40663397
136	0xbe4d4a24	-0.20047814
137	0xbec8ae72	-0.3919559
138	0xbeff0f62	-0.49816424
139	0x3f17f4b5	0.5935777
140	0x3e4e6c98	0.20158613
141	0xbe8456ce	-0.25847477
142	0xbe09b88c	-0.13449305
143	0x3e03f66f	0.12886976
144	0xbe75170b	-0.23934571
145	0xbca10740	-0.019656777
146	0x3dee5097	0.11636465
147	0x3ea2f873	0.31830177
148	0xbe306157	-0.17224632
149	0x3d76983c	0.060203776
150	0x3f10203e	0.562992
151	0xbe87bf06	-0.26512927
152	0xbec9f9f2	-0.39448506
153	0xbe56b134	-0.20966035
154	0xbc05fcd2	-0.008177953
155	0x3efe23f8	0.49636817
156	0x3f195297	0.5989165
157	0xbbe1e096	-0.006893228
158	0xbed33410	-0.41250658
159	0x3f18bf02	0.59666455
160	0xbe80d9fc	-0.2516631
161	0xbed03871	-0.4066806
162	0x3ed5cb7e	0.41756815
163	0xbe5ebdb2	-0.2175205
164	0xbefb351f	-0.49063966
165	0xbe63ae1c	-0.22234386
166	0xbe54c07c	-0.20776552
167	0x3d86b79e	0.06577991
168	0xbe71a7d8	-0.23599184
169	0xbe687510	-0.22700906
170	0x3ebcfe02	0.36912543
171	0xbcd68385	-0.02618576
172	0xbd9a9805	-0.07548527
173	0x3e9d8153	0.3076273
174	0x3e878bd0	0.26473856
175	0x3f2aa941	0.6666451
176	0xbdb0fa48	-0.08641487
177	0x3eedf9b7	0.4647958
178	0x3f0c2294	0.5474026
179	0x3eab049e	0.3340196
180	0x3ecbc8fb	0.39801773
181	0x3df95aab	0.12175497
182	0xbd9142cc	-0.070928186
183	0x3e0ae0dc	0.1356234
184	0xbe6211a8	-0.22077048
185	0x3f018954	0.5060017
186	0x3f062909	0.52406365
187	0x3eb0031e	0.34377378
188	0x3ec055ff	0.3756561
189	0x3eb3270a	0.34990722
190	0xbe9b1c60	-0.30295086
191	0xbea2df08	-0.31810784
192	0x3f0b3e44	0.54391885
193	0x3f053369	0.5203157
194	0x3f0fd1dd	0.561796
195	0x3e299c2f	0.16563486
196	0x3f33a972	0.7018043
197	0x3e2f4750	0.17117047
198	0x3d997deb	0.0749472
199	0xbd89b7a6	-0.06724481
200	0x3ea0f1ad	0.31434384
201	0x3d244ec8	0.040114194
202	0xbea503fe	-0.32229608
203	0x3e931ea8	0.28734326
204	0xbf3f134f	-0.7463884
205	0xbe5822b0	-0.21106982
206	0x3e1361ab	0.14392726
207	0x3d609479	0.054829095
208	0x3f00aa49	0.50259835
209	0x3f2edb55	0.68303424
210	0x3ef0a79f	0.47002885
211	0x3ea7f712	0.32805687
212	0xbe374480	-0.17897224
213	0x3e89cc35	0.2691361
214	0xbe174f5d	-0.14776368
215	0x3ebddc83	0.370823
216	0xbdde3867	-0.10850602
217	0x3c67daeb	0.014151315
218	0xbda28160	-0.079348326
219	0xbe270cea	-0.1631352
220	0x3e81fbc8	0.25387406
221	0x3ec1b908	0.3783648
222	0x3ea1d51f	0.3160791
223	0x3e99ec87	0.3006327
224	0x3d9a06d2	0.07520832
225	0x3ec78b05	0.3897325
226	0x3e156640	0.14589787
227	0x3e9efafe	0.31050867
228	0xbe8a0f6d	-0.26964894
229	0xbd5cef9e	-0.053939454
230	0xbeb88a36	-0.36042947
231	0xbce8b975	-0.028408745
232	0x3c44acef	0.012004121
233	0xbebcc9d9	-0.36872748
234	0x3e174307	0.14771663
235	0x3e182298	0.14856946
236	0x3e76a971	0.24088074
237	0x3f3b7ea9	0.73240143
238	0xbdf420ee	-0.11920343
239	0xbedaf29c	-0.4276322
240	0x3ec6ebc7	0.3885176
241	0xbeaa122a	-0.33216983
242	0x3dce826f	0.10083472
243	0x3ebd715c	0.3700055
244	0x3e97832e	0.2959227
245	0xbe06eb26	-0.1317564
246	0x3e02f62c	0.1278922
247	0x3f2c7ab2	0.6737472
248	0x3e8e1f5d	0.27758303
249	0x3ebc202e	0.367433
250	0xbebc01c2	-0.3672009
251	0xbbf24874	-0.007393891
252	0xbf0828cd	-0.5318726
253	0xbe92b654	-0.2865473
254	0x3f10992f	0.5648374
255	0x3dfd2235	0.1236004

weight f4 [256, 256]
0	0xbd2cec1a	-0.04221735
1	0x3ce4f780	0.027950048
2	0xbdf0fb16	-0.11766641
3	0xbd01e79d	-0.031715024
4	0xbe3a610a	-0.1820108
5	0x3b026804	0.0019898424
6	0xbe73a879	-0.23794736
7	0xbe68d847	-0.22738753
8	0x3e8e57df	0.27801415
9	0xbcf9664c	-0.030444287
10	0xbcd1868e	-0.025576856
11	0xbc4ef3d8	-0.012631379
12	0x3d85b541	0.06528712
13	0x3d2ba1b2	0.04190225
14	0x3ef1875a	0.47173578
15	0x3d82481d	0.06361411
16	0xbd04a505	-0.032383937
17	0xbd18c778	-0.037299603
18	0xbd846dd2	-0.06466259
19	0xbd0ad6c8	-0.033896238
20	0x3e3dd666	0.18538818
21	0xbf0713d1	-0.5276461
22	0x3c3d5fb3	0.011558461
23	0x3e473d3e	0.19456956
24	0xbe4de56d	-0.2010705
25	0xbd8b4c4f	-0.06801664
26	0x3d92e0aa	0.071717575
27	0xbd4f4822	-0.0506059
28	0xba4bd700	-0.0007775873
29	0x3d10411b	0.03521834
30	0xbb931630	-0.004488729
31	0xbd2eafb8	-0.042648047
32	0x3b923981	0.0044624214
33	0xbe4684df	-0.19386624
34	0x3ccdbdd0	0.025114924
35	0x3dada2d4	0.084783226
36	0x3c5329ea	0.012888411
37	0x3c801ca4	0.015638657
38	0x3e04dc24	0.12974602
39	0x3bda3910	0.0066596344
40	0x3d30c759	0.043158863
41	0x3daa7ee9	0.083249874
42	0xbe53ad3a	-0.2067155
43	0x3d78f4fe	0.060780518
44	0x3d0d6248	0.034517556
45	0xbd1814a7	-0.03712907
46	0x3dab30c5	0.083589114
47	0xba981006	-0.0011601455
48	0x3d2cc2be	0.042177908
49	0xbbb8b125	-0.0056363516
50	0xbe6439da	-0.22287694
51	0x3c79d455	0.015248378
52	0xbcd9271a	-0.026507903
53	0xba4edb00	-0.000789091
54	0xbd731f88	-0.059356242
55	0xbc8f09d6	-0.017460745
56	0xbc76fe31	-0.015075252
57	0xbc8ffc18	-0.017576262
58	0xbd4c2364	-0.04983844
59	0x3d96295d	0.07332108
60	0xbcaaab59	-0.020833658
61	0x3c3d0e16	0.011539003
62	0xbcc3cb9a	-0.023900796
63	0xbe658d7b	-0.22417252
64	0x3d710337	0.058840957
65	0xbdec334e	-0.11533223
66	0x3d5c970c	0.053854987
67	0x3c45ea3d	0.012079773
68	0x3d5da9ea	0.05411712
69	0xbe7881e5	-0.24268301
70	0x3d9f5ada	0.077810004
71	0x3a9e8c80	0.0012096316
72	0x3d21a9ae	0.03946846
73	0x3ca1d0c0	0.01975286
74	0x3d1f559b	0.0389
75	0x3dcc84aa	0.09986241
76	0x3cf59e38	0.029982671
77	0xbc3ad3de	-0.011403052
78	0xbce5416a	-0.027985293
79	0xbd5b9a02	-0.05361367
80	0x3d8f4a4b	0.06996592
81	0xbe3a52c3	-0.18195634
82	0x3d8d02b9	0.06885285
83	0x3d8ca8ca	0.068681315
84	0xbdd4fd42	-0.103998676
85	0xbe58686a	-0.21133581
86	0x3b28f930	0.0025783293
87	0xbe05ec4e	-0.13078424
88	0x3d7b22fa	0.061312653
89	0x3b0e889b	0.0021748904
90	0x3ce5c18a	0.028046388
91	0x3cd07c25	0.025449822
92	0x3bdb84b8	0.006699171
93	0xbc88d37b	-0.016702404
94	0x3c1b3c24	0.009474788
95	0xbd04a376	-0.03238245
96	0xbb085484	-0.0020802328
97	0xbd81ed87	-0.06344133
98	0xbcd6021f	-0.026124058
99	0x3c72be6a	0.014815906
100	0xbb2dcd8f	-0.0026520228
101	0xbcac2898	-0.02101545
102	0x3dab0f93	0.0835258
103	0x3ca45f71	0.020065041
104	0xbc8e7521	-0.017389836
105	0x3c7e365f	0.015515893
106	0xbe6b532f	-0.22980951
107	0xbd05c5a7	-0.0326592
108	0x3d25b248	0.040453225
109	0x3c9a1552	0.018808994
110	0x3cf2baf9	0.029630171
111	0x3dba37ca	0.09092672
112	0x3da3b19d	0.079928614
113	0x3da415b4	0.08011952
114	0x3d21b8a2	0.03948272
115	0xba95c0bb	-0.0011425236
116	0xbd2325ba	-0.0398309
117	0x3d9cdbbf	0.07659101
118	0xbb686680	-0.0035461485
119	0x3b6fef99	0.0036611317
120	0xbbba7234	-0.0056898836
121	0x3d17e872	0.03708691
122	0x3e4b9e89	0.19884695
123	0x3bfe4130	0.007759236
124	0xbd081fd3	-0.033233475
125	0xbd26b9b4	-0.040704444
126	0x3c9d32e4	0.019189306
127	0x3c6efc82	0.01458657
128	0x3d26fb64	0.04076709
129	0xbd2c2bbe	-0.042033903
130	0xbd1af0bc	-0.03782724
131	0xbb70d369	-0.0036747104
132	0x3ef6c64e	0.4819817
133	0x3e038dcd	0.12847061
134	0xbbf909de	-0.007600053
135	0x3d3605b3	0.04443903
136	0xbcb02f10	-0.021506816
137	0x3cba4352	0.022737179
138	0x3d729126	0.059220456
139	0xbd4532b7	-0.04814407
140	0xbd088552	-0.03333027
141	0x3e89b548	0.2689612
142	0x3d653823	0.05596174
143	0x3d48e843	0.049049627
144	0x3b75ca98	0.0037504788
145	0xbda5847e	-0.080819115
146	0x3e0e6e71	0.13909318
147	0x3d602d89	0.054730926
148	0xbd502223	-0.050813805
149	0xbe3ad53d	-0.18245406
150	0x3f0b5818	0.54431295
151	0x3d49650c	0.04916863
152	0xbb34e9e0	-0.002760522
153	0x3d4995a4	0.049214974
154	0x3cf889ff	0.03033924
155	0x3d2f2a69	0.042765055
156	0xbc0fbc8f	-0.008772983
157	0x3e9a1df5	0.3010098
158	0xbcdb6fdf	-0.026786743
159	0xba3cc407	-0.0007200841
160	0x3d1c7ed3	0.038206887
161	0x3d890c3b	0.06691786
162	0x3ca011f3	0.019539809
163	0xbdc79ce7	-0.097467236
164	0xbb024753	-0.0019878938
165	0x3b3dd622	0.0028966744
166	0xbe756725	-0.23965128
167	0x3de499d7	0.11162155
168	0x3d0e5cf5	0.03475662
169	0xbd19c7dc	-0.037544116
170	0x3d3956c8	0.045248777
171	0xbf06b94b	-0.52626485
172	0x3dd3a8f2	0.10334958
173	0x3e00afca	0.12567058
174	0x3e20c40e	0.15699789
175	0xbcca85e2	-0.024722043
176	0x3d6f3882	0.0584035
177	0xbcf606a2	-0.03003246
178	0x3d28b4d1	0.041188065
179	0x3d4e4670	0.050360143
180	0x3d329c47	0.04360607
181	0x3b964e1e	0.004586949
182	0x3d472b88	0.0486255
183	0xbeb3504e	-0.35022205
184	0x3d1b968a	0.037985362
185	0x3dbcefc1	0.09225417
186	0x3d402383	0.046908867
187	0x3d871fe1	0.06597877
188	0xbe7138d5	-0.23556836
189	0xbc934144	-0.017975457
190	0xbd468016	-0.048461996
191	0x3d058cbb	0.032604914
192	0x3da5a68f	0.08088409
193	0xbcea13ef	-0.028573958
194	0x3d8c67e2	0.068557516
195	0x3e19849f	0.14991997
196	0x3ec653d8	0.38735843
197	0xbc83a255	-0.016068617
198	0xbc5b464f	-0.013383462
199	0x3dd21fc5	0.10259966
200	0x3db7c06b	0.08972248
201	0x3d6e9a92	0.05825288
202	0x3d17519f	0.036943074
203	0x3ce8cf40	0.028419137
204	0x3f102fdc	0.5632303
205	0x3c4fcbd8	0.0126828775
206	0x3e104a64	0.14090878
207	0xbdf759ce	-0.12077676
208	0x3e12345a	0.14277783
209	0x3db75e27	0.08953505
210	0x3f21f349	0.6326185
211	0xbdf057ed	-0.117355205
212	0x3c2b00c8	0.010437198
213	0x3d3e3630	0.046438396
214	0xb9a7da97	-0.00032015584
215	0x3d41fc9a	0.04736004
216	0x3e24f208	0.16107953
217	0xbd34a37c	-0.044101223
218	0x3b135580	0.0022481382
219	0x3d7b206a	0.06131021
220	0xbe18d951	-0.1492665
221	0x3accc767	0.0015623391
222	0xbe1006c1	-0.14065076
223	0x3da9d0fa	0.08291812
224	0x3e494e94	0.19658881
225	0x3dafe969	0.08589441
226	0x3d7a970c	0.061179206
227	0xbdc52116	-0.09625451
228	0xbe092f89	-0.1339704
229	0x3dd17a9a	0.102284625
230	0xbd2f772f	-0.04283827
231	0x3c80320b	0.015648862
232	0xbe8ae325	-0.27126423
233	0x3da0519d	0.078280665
234	0x3de5fc96	0.112298176
235	0x3d3755eb	0.044759672
236	0xbc491aa4	-0.012274418
237	0x3f17ecc0	0.59345627
238	0x3da07e75	0.0783662
239	0x3d702ef0	0.058638513
240	0x3d5a4635	0.05328961
241	0xbe76847f	-0.24073981
242	0x3c8e8805	0.017398844
243	0xbbd33e80	-0.0064466596
244	0xbd66c93c	-0.056344256
245	0x3c3935a6	0.011304295
246	0xbdda6de5	-0.10665492
247	0x3f0a5ca2	0.54047596
248	0xbdffed3a	-0.12496419
249	0xbd3726d2	-0.044714756
250	0xbe34c6ca	-0.17653957
251	0x3cf48450	0.029848248
252	0x3c89d328	0.01682432
253	0x3d6958be	0.056969397
254	0x3d04002d	0.03222673
255	0x3d5e4240	0.0542624

bias f4 [256]
0	0x3de4c43b	0.111702405
1	0xbd6b53ba	-0.057452895
2	0x3d98af79	0.07455344
3	0x3dbfd780	0.09367275
4	0x3cd9d932	0.026592825
5	0x3dd93551	0.106058724
6	0x3c1e5178	0.009662978
7	0x3d954673	0.07288828
8	0xbd80f18d	-0.06296072
9	0xbd1440c6	-0.036194585
10	0x3d9bc831	0.07606543
11	0x3b75be8a	0.0037497603
12	0x3d709e14	0.058744505
13	0x3d967ee1	0.07348419
14	0xbd714d1c	-0.058911428
15	0x3cd21be9	0.025648074
16	0xbd50da12	-0.050989218
17	0x3c218038	0.00985723
18	0x3c919f00	0.017776012
19	0xbc9ed350	-0.019387871
20	0xbc007db0	-0.007842466
21	0xbc611220	-0.0137372315
22	0xbd13d942	-0.036095865
23	0x3daab3e9	0.083350964
24	0xbc9d98a6	-0.019237828
25	0x3cda9709	0.026683347
26	0x3d832295	0.064030804
27	0x3d9f836d	0.07788739
28	0xbd7eeef4	-0.062239602
29	0xbd738585	-0.059453506
30	0x3ca54df1	0.020178767
31	0x3d522551	0.05130512
32	0x3da6cf94	0.08145061
33	0x3e062c45	0.13102825
34	0xbcb50448	-0.022096768
35	0xbd51e9c2	-0.05124832
36	0x3e3a3329	0.18183579
37	0xbb8d0215	-0.0043032267
38	0xbcf5bdbe	-0.029997703
39	0x3d5d4652	0.05402214
40	0xbc633680	-0.013867974
41	0xbd6110ea	-0.05494777
42	0x3cafb5c7	0.021448983
43	0xbd6a2b2c	-0.05717008
44	0xbd53a57e	-0.051671498
45	0x3dd703d3	0.10498776
46	0x3dc4dc7b	0.09612366
47	0x3c2351ce	0.009968234
48	0xbd66639e	-0.056247346
49	0x3c883108	0.016624942
50	0xbcd52b20	-0.02602154
51	0x3d3df895	0.046379644
52	0x3ca93b53	0.02065817
53	0x3d3934e6	0.045216464
54	0xbd139b26	-0.036036633
55	0x3b206b13	0.0024477884
56	0x3c845581	0.016154053
57	0x3d42bc38	0.04754278
58	0x3d7c298a	0.061563052
59	0xbd83811f	-0.06421112
60	0xbd17a608	-0.037023574
61	0xbb991a06	-0.0046722917
62	0x3d1ce5ef	0.03830522
63	0x3d42e6f8	0.04758355
64	0x3da5683f	0.08076524
65	0xbc5e85c5	-0.013581698
66	0x3d035894	0.032066897
67	0x3e6fab42	0.23405173
68	0x3ba38e73	0.0049913465
69	0xbbebf843	-0.007201226
70	0x3d1a1120	0.037613988
71	0xbb0f873f	-0.0021900681
72	0x3d888828	0.06666595
73	0x3dbefae9	0.09325201
74	0xbc99fc12	-0.018796954
75	0x3d0a6973	0.03379197
76	0x3ddcaf00	0.10775566
77	0x3bdd0bd0	0.006745793
78	0x3def61c5	0.1168857
79	0x3cd3d758	0.02585952
80	0xbc97324c	-0.0184566
81	0x3d5e71f5	0.054307897
82	0xbbef07db	-0.0072946376
83	0x3cc6f9cc	0.024289034
84	0x3d835383	0.06412413
85	0x3d7d6e3e	0.061872713
86	0x3d79e2aa	0.06100718
87	0x3dd430f7	0.10360902
88	0x3cc6bf58	0.024261162
89	0x3dd8cdc9	0.105861254
90	0x3d0a50ac	0.03376834
91	0xbd1106b4	-0.035406783
92	0x3dd70a3f	0.10500001
93	0x3ce08acd	0.027409935
94	0x3d61a016	0.05508431
95	0x3d7748b6	0.060372077
96	0xbc61d468	-0.013783552
97	0x3c7f9828	0.015600242
98	0x3dc2f990	0.095202565
99	0xbd325d66	-0.043546103
100	0xbcdee230	-0.027207464
101	0x3b89e08c	0.0042076763
102	0x3ba99539	0.0051752594
103	0xbd1df220	-0.038560987
104	0x3b9e7cec	0.004836669
105	0x3dd21128	0.102571785
106	0xbd491ee6	-0.049101733
107	0xbd32de48	-0.043669015
108	0xbc089225	-0.008335625
109	0x3d964716	0.07337777
110	0xbd0db32c	-0.0345947
111	0x3de9f291	0.11423219
112	0x3d155239	0.036455367
113	0x3dcf1857	0.10112064
114	0xbbb7c4a9	-0.0056081605
115	0x3da4394e	0.080187425
116	0xbd4e66b9	-0.050390933
117	0x3db225bc	0.086986035
118	0x3c8eb7da	0.017421652
119	0xbd591cf9	-0.053006146
120	0x3d0bdaf8	0.03414437
121	0x3d3ffdd8	0.046872944
122	0x3d3d5637	0.0462248
123	0x3d52bb98	0.051448435
124	0x3d19c9d0	0.03754598
125	0x3dd5ff73	0.10449114
126	0xba7f7a04	-0.000974566
127	0xbcf44ea4	-0.029822655
128	0x3d8b8970	0.068133235
129	0xbd1fd1f6	-0.039018594
130	0x3bb67ff7	0.005569454
131	0xbd0970cd	-0.03355484
132	0xbd062ede	-0.03275954
133	0x3c379808	0.011205681
134	0x3bb53641	0.005530149
135	0x3d25fa33	0.04052181
136	0x3c9c6038	0.01908885
137	0x3d9c4a5a	0.07631369
138	0x3db2b365	0.08725623
139	0xbd99568d	-0.074872114
140	0x3d047881	0.032341484
141	0xbcca6d30	-0.024710268
142	0xbc07173d	-0.0082452865
143	0x3d2b4427	0.041813042
144	0x3d9688fe	0.07350348
145	0x3d217450	0.039417565
146	0x3c9f65a1	0.01945764
147	0xbbb1dc5c	-0.00542788
148	0x3d6b2e54	0.05741723
149	0xbc173aae	-0.009230299
150	0x3d408202	0.046998985
151	0x3c5ee6d8	0.013604842
152	0xbbd3685f	-0.006451651
153	0x3d879133	0.066194914
154	0x3d054740	0.032538652
155	0xbcb1dc9c	-0.02171164
156	0x3d554f94	0.052077845
157	0x3cd2d131	0.025734516
158	0xbd0936cc	-0.033499524
159	0xbd2a1aea	-0.041529574
160	0xbac021ef	-0.001465855
161	0xbd3e33d8	-0.04643616
162	0xbd13b082	-0.036057003
163	0x3c9bcc70	0.019018382
164	0x3dead08c	0.114655584
165	0xbb81b7b3	-0.003958666
166	0x3d1778fd	0.036980618
167	0x3c943828	0.018093184
168	0x3bee79f0	0.0072777197
169	0xbd086ca5	-0.033306736
170	0xbc1e9166	-0.00967822
171	0xbc724d84	-0.014788989
172	0xbc2c207f	-0.010505795
173	0xbce593e8	-0.028024629
174	0x3d444ba5	0.047923703
175	0x3ce4be9e	0.027922925
176	0xbbd2ad19	-0.0064293263
177	0x3d8c89e2	0.068622366
178	0x3c481887	0.012212879
179	0xbba0d8c0	-0.004908651
180	0xbc5690d0	-0.013096049
181	0x3c3b2718	0.011422895
182	0x3e0773cf	0.13227771
183	0x3cc16c10	0.023611099
184	0xbc8ac236	-0.01693831
185	0x3ca51048	0.020149365
186	0x3a919ea9	0.0011109906
187	0x3b9fcfc0	0.0048770607
188	0x3e45048a	0.19240013
189	0xbb8af5a0	-0.0042407066
190	0x3d3bf514	0.04588802
191	0x3d3ccd05	0.04609396
192	0x3e31d437	0.1736611
193	0xbced68b9	-0.0289806
194	0x3d221cab	0.03957812
195	0x3b8ab43c	0.0042329114
196	0x3cbae2e4	0.022813268
197	0xbd5a4c8a	-0.05329565
198	0x3e0e5795	0.13900597
199	0xbd97c46e	-0.07410513
200	0x3d80637f	0.062689774
201	0x3d163893	0.036675047
202	0xbd29604a	-0.041351594
203	0x3d30c4fd	0.043156613
204	0x3d30e469	0.04318658
205	0x3d2bf244	0.04197909
206	0x3dccad55	0.09993998
207	0x3cf84931	0.030308338
208	0x3ba2c77a	0.004967627
209	0x3d148b71	0.036265794
210	0xbe4d11f2	-0.20026377
211	0x3d7e91f3	0.062150907
212	0x3d0e20d4	0.034699276
213	0xbce2c2a6	-0.027680706
214	0x3da8d5b4	0.08243886
215	0x3d8e29dc	0.06941578
216	0xbbb01959	-0.0053741154
217	0x3d27494a	0.04084138
218	0x3d5c5db9	0.05380032
219	0x3ce52b04	0.027974613
220	0xbd082d33	-0.03324623
221	0xbc01e015	-0.0079269605
222	0xbc3fb273	-0.01170026
223	0xbc87141d	-0.016489083
224	0x3de07417	0.109596424
225	0xbc21a357	-0.009865603
226	0x3dd8d56b	0.10587581
227	0x3d775b52	0.060389824
228	0x3db6f5ed	0.08933625
229	0x3d31e767	0.043433573
230	0xbd2b65cc	-0.041845128
231	0xbd2867be	-0.04111456
232	0x3d1aa249	0.037752423
233	0x3ceafdbd	0.028685445
234	0xbd3d370a	-0.046195067
235	0x3dc39c6d	0.0955132
236	0x3da691c0	0.08133268
237	0x3e71297e	0.23550984
238	0x3d60c092	0.05487115
239	0xbe4a0cb7	-0.19731413
240	0x3d5ed369	0.054400835
241	0x3b73bfb8	0.003719313
242	0x3d6d9e2a	0.058012165
243	0x3d6377b2	0.055534072
244	0x3d381c18	0.044948667
245	0xbcab6180	-0.020920515
246	0x3d59096f	0.052987512
247	0x3db35824	0.08757046
248	0x3df1a770	0.11799514
249	0x3c847e64	0.016173549
250	0xbcd4170b	-0.025889894
251	0xbd18c696	-0.03729876
252	0x3da2018a	0.0791045
253	0x3d7cf584	0.06175758
254	0x3da2b295	0.07944218
255	0x3d326c80	0.043560505

weight f4 [33, 256]
0	0x3d9db96f	0.07701384
1	0x3d466009	0.04843143
2	0x3ddec762	0.10877873
3	0x3c4491cc	0.011997651
4	0xbd7d8570	-0.061894834
5	0xbd33980b	-0.04384617
6	0x3db882eb	0.090093456
7	0x3d75b04c	0.059982583
8	0x3dba2c32	0.09090461
9	0x3ca11cdc	0.019667082
10	0x3cb645ab	0.022250017
11	0x3dc785f1	0.09742344
12	0xbe37f395	-0.17964013
13	0xbea95108	-0.33069634
14	0x3d2c46e0	0.04205978
15	0x3c2d056c	0.010560375
16	0xbd068dbc	-0.032850012
17	0xbd60299b	-0.054727178
18	0x3cd1f5f4	0.025629975
19	0x3c1bede8	0.0095171705
20	0xbd2ba1ef	-0.04190248
21	0x3b7a1f60	0.0038165674
22	0x3d1ce442	0.03830362
23	0xbe0fef34	-0.14056093
24	0x3db757e9	0.089523144
25	0xbc15b110	-0.009136453
26	0x3d17a842	0.037025698
27	0x3dfca656	0.123364136
28	0x3ca3542c	0.019937597
29	0x3de95aa2	0.1139424
30	0x3d74bec8	0.059752256
31	0x3c92a680	0.017901659
32	0x3e076c6d	0.13224955
33	0x3de1a369	0.11017496
34	0x3d60f0ae	0.05491703
35	0xbc0577a8	-0.008146204
36	0x3e831854	0.25604498
37	0x3d665648	0.056234628
38	0x3d57f479	0.05272338
39	0x3b7d5ed8	0.0038661268
40	0xbcaf0864	-0.021366306
41	0xbd38a11c	-0.04507552
42	0x3d418526	0.04724612
43	0xbd1fc376	-0.039004765
44	0xbb829400	-0.003984928
45	0x3e37e46f	0.17958234
46	0xbe9f411d	-0.31104365
47	0xbcec9e48	-0.028884068
48	0xbd6ac8f2	-0.057320543
49	0x3c76f670	0.015073404
50	0x3d004218	0.031313032
51	0x3ba9f6ba	0.005186883
52	0x3dcff134	0.10153428
53	0x3cbd7efd	0.023131842
54	0x3d2fb312	0.042895384
55	0x3c62a7ad	0.013833922
56	0x3d9779e9	0.073962994
57	0xbd7ac1da	-0.061220028
58	0x3d24e24e	0.040254883
59	0x3c8ce3f1	0.017198535
60	0xbd170c56	-0.036877
61	0x3d1a4f1c	0.0376731
62	0x3d7d8024	0.061889783
63	0x3d611bcb	0.054958146
64	0x3df9a3cd	0.12189446
65	0x3d93f9b7	0.07225364
66	0x3b6fa060	0.0036564097
67	0x3e828f5e	0.25500005
68	0xbe2fd165	-0.17169721
69	0xbd1a41fe	-0.03766059
70	0xbca7df7c	-0.020492308
71	0x3d4f1d7c	0.050565228
72	0xbdab5db6	-0.08367483
73	0x3bebf67a	0.007201013
74	0xbc41d747	-0.011831111
75	0x3dce9556	0.10087077
76	0x3db4900c	0.08816537
77	0x3d505f1c	0.050871953
78	0x3deaa583	0.1145735
79	0xbcfe0b3c	-0.031011216
80	0x3b652883	0.0034966774
81	0x3da549c7	0.080707125
82	0xbd139805	-0.03603365
83	0xbc276185	-0.010216122
84	0x3b226b8e	0.0024783346
85	0x3deadb34	0.11467591
86	0x3b6abe80	0.0035819113
87	0x3dcb9a8c	0.09941587
88	0x3d203b2f	0.039118942
89	0xbe1f2365	-0.15540846
90	0xbd451020	-0.04811108
91	0x3d2a51da	0.041581966
92	0x3d93f3b7	0.07224219
93	0x3d5fb97b	0.054620247
94	0x3d1f0f14	0.03883274
95	0x3d9b79de	0.07591604
96	0x3d35dfd0	0.044402897
97	0x3c2f1f38	0.0106885955
98	0x3d3766de	0.044775836
99	0xbca03774	-0.019557692
100	0xbcec7e24	-0.028868742
101	0xbd48c2d3	-0.049013924
102	0xbbd4d4fc	-0.0064951163
103	0xbd6e37c0	-0.058158636
104	0x3d3553e4	0.044269457
105	0xbc191aed	-0.0093447985
106	0xbd7e37a9	-0.0620648
107	0xbd1b7de8	-0.03796187
108	0x3d78640a	0.06064228
109	0xbe751de6	-0.23937187
110	0xbbcb0be0	-0.006196484
111	0xbe4aef78	-0.19817913
112	0xbe647e48	-0.22313797
113	0x3d3f8be1	0.04676426
114	0x3d3e44b9	0.046452258
115	0x3dd7a607	0.10529714
116	0x3d603c36	0.05474492
117	0x3dbc7f31	0.09203947
118	0x3ca0ef8f	0.01964548
119	0x3deeb6ca	0.11655958
120	0xbc106ac0	-0.008814514
121	0x3dc8c56c	0.0980328
122	0x3e1727cd	0.14761277
123	0x3d4f26ac	0.05057399
124	0x3db825f9	0.08991618
125	0x3d02e001	0.031951908
126	0x3d1bb43c	0.03801368
127	0xbcd8e319	-0.026475476
128	0x3c0bc15f	0.00852999
129	0xbd203196	-0.03910979
130	0xbcc53914	-0.024075069
131	0x3ca90a64	0.020634837
132	0x3d708b14	0.058726385
133	0x3d0676aa	0.03282801
134	0x3da32977	0.07966893
135	0xbe4e53de	-0.2014918
136	0x3d4e7ba0	0.050410867
137	0x3d31c78d	0.043403197
138	0x3d009aae	0.031397514
139	0xbcadca2a	-0.021214563
140	0xbbbd481f	-0.00577642
141	0x3d9da7bd	0.07698009
142	0x3d432d2e	0.04765051
143	0xbe215d27	-0.15758191
144	0x3cc1e2b3	0.023667669
145	0xbcc3a85b	-0.02388399
146	0x3dd9cc7d	0.10634706
147	0x3e065ffc	0.13122553
148	0xbd312aec	-0.043253824
149	0x3cea5817	0.028606458
150	0x3dda5846	0.10661368
151	0x3d85dacf	0.06535875
152	0x3db11af2	0.086477175
153	0x3dc12dff	0.09432601
154	0x3da28ec0	0.07937384
155	0x3d12a786	0.035804294
156	0xbe45c824	-0.19314629
157	0x3d6c1636	0.05763837
158	0xbd250984	-0.040292278
159	0x3c6a1d78	0.014289252
160	0x3d28edf3	0.04124255
161	0x3b9c2150	0.0047647133
162	0xbd636cae	-0.055523567
163	0x3cdc57db	0.026897362
164	0x3da2fac1	0.07957984
165	0x3dc0eea9	0.09420521
166	0xbd270322	-0.040774472
167	0x3dd3e754	0.10346857
168	0x3cabfc80	0.020994425
169	0xbc62c592	-0.01384105
170	0xbd395ece	-0.04525643
171	0x3d4f9011	0.0506745
172	0x3d16ca70	0.036814153
173	0x3d7be1c6	0.06149461
174	0x3dbd4cfa	0.09243198
175	0x3d93d2e6	0.0721796
176	0x3daf857f	0.08570384
177	0xbec2bda9	-0.38035324
178	0x3d3141d8	0.043275684
179	0x3d57f27e	0.052721493
180	0xbcb4bab8	-0.02206169
181	0x3da61138	0.08108753
182	0x3e592c6d	0.21208353
183	0x3d7ba4ca	0.061436452
184	0xbe33ffb2	-0.17578009
185	0xbcad13f0	-0.021127671
186	0x3d5a63fa	0.053318
187	0x3ce72c40	0.028219342
188	0x3e6376c2	0.22213271
189	0x3d783e18	0.060606092
190	0x3d11042a	0.03540436
191	0x3c595dc8	0.013266988
192	0x3e8455cb	0.25846705
193	0x3db6ddd9	0.08929033
194	0x3d99a294	0.075017124
195	0xbd18087a	-0.03711746
196	0x3c176108	0.009239443
197	0xbcf6d834	-0.03013239
198	0xbec9ed90	-0.39439058
199	0x3e015f92	0.12634113
200	0x3d8fafd2	0.07015957
201	0x3e028a9c	0.12748188
202	0xbd323414	-0.043506697
203	0x3d4cdbcc	0.050014302
204	0x3ddff79e	0.10935901
205	0x3d4d1a2a	0.05007378
206	0x3c755cb6	0.014975717
207	0x3ca46173	0.020065999
208	0xbe8114d0	-0.2521119
209	0x3b3f106b	0.0029154073
210	0x3ea6c819	0.32574537
211	0x3dacf7c8	0.08445698
212	0xbcc5b293	-0.024133002
213	0x3cd3eced	0.025869811
214	0x3c7d224f	0.015450074
215	0xbe344789	-0.17605413
216	0xbc265261	-0.010151477
217	0xbd09356e	-0.03349822
218	0x3d178554	0.036992386
219	0x3c953df8	0.018218026
220	0x3e029659	0.12752666
221	0x397ad600	0.00023921579
222	0x3d8a28f1	0.0674609
223	0xbcbe1948	-0.023205414
224	0x3c116183	0.008873346
225	0x3d24347c	0.040089116
226	0x3c8695fc	0.01642894
227	0x3d5d004c	0.05395536
228	0x3c8f56a1	0.017497363
229	0x3ce481a4	0.027893849
230	0x3c9b2f50	0.018943459
231	0xbd3fa632	-0.046789356
232	0x3b8c93e8	0.0042900927
233	0xbe9c7905	-0.3056108
234	0x3d1a85dc	0.037725314
235	0x3d579d3a	0.052640177
236	0x3d0fcd9c	0.035108194
237	0x3e41e276	0.18934044
238	0x3c9aeb88	0.018911138
239	0x3e6ce24b	0.23133199
240	0xbd62ed6a	-0.055402197
241	0xbe96f652	-0.29484802
242	0x3cac382c	0.021022879
243	0x3d46e12a	0.048554577
244	0x3d808ca2	0.062768236
245	0x3d7c2b39	0.061564658
246	0xbd17d82a	-0.037071384
247	0x3e059877	0.13046442
248	0x3dacf8cc	0.08445892
249	0xbd13014e	-0.035889916
250	0x3e13d2c0	0.14435863
251	0xbb2fceae	-0.0026826072
252	0xbe8147e8	-0.25250173
253	0x3d7257a2	0.059165604
254	0x3d6b15fe	0.05739402
255	0x3d6a4978	0.05719897

bias f4 [33]
0	0x3d8ad5dc	0.06779072
1	0xbd50a84f	-0.05094176
2	0x3da2a626	0.079418465
3	0x3d5088cc	0.05091171
4	0xbbc00a3f	-0.0058605964
5	0x3d6c01f0	0.057619035
6	0x3d9a3913	0.07530417
7	0x3d8a6f34	0.067594916
8	0x3d94b749	0.07261521
9	0x3cb502ba	0.022096027
10	0xbc8847a4	-0.016635723
11	0x3d374574	0.04474397
12	0x3d1e0ced	0.038586546
13	0x3db201f9	0.086917825
14	0x3d4da127	0.050202515
15	0x3d8f98c9	0.07011563
16	0xbcb51a16	-0.022107165
17	0x3d60a541	0.0548451
18	0x3d20f4f3	0.0392961
19	0x3ca07170	0.019585341
20	0x3be714ed	0.007052055
21	0x3d7a46ad	0.061102558
22	0x3da8d360	0.082434416
23	0x3da9c537	0.08289569
24	0x3d03b00c	0.032150313
25	0xbcd9d638	-0.026591405
26	0x3db653bb	0.08902689
27	0xbce4b2d2	-0.0279173
28	0xbbb1a024	-0.0054207016
29	0x3cd3b19b	0.025841525
30	0x3d0b6791	0.034034315
31	0x3dccb5c5	0.09995607
32	0x3b7e1801	0.0038771632
