baselines/dqn/models/dqn_target_proposed_erf.pth (torch, 306232 bytes, 6 tensors)

weight f4 [256, 4]
00000000: a8b2 583e 47e1 f33e 25bb 7bbe d94b bbbd
00000010: 0463 ec3d 8527 dbbc d415 ea3e 4b05 17bf
00000020: d226 6c3d 650a e93e 7373 cfbe 3b2d 7a3c
00000030: 1322 793e 6c2c 8cbe bcef 8a3d c467 31bf
00000040: 7e74 cbbe 40e2 21be 80d2 75bd 7054 093e
00000050: aec6 ff3d 45bf f13d 383f ea3e db9c 0ebf
00000060: 4094 8a3e 9888 afbe ec7a 83bd 747f ffbe
00000070: 8c72 ecbe 60c8 a43d a60a 95be d841 d4bd
00000080: e6d2 d4bd c1ac 0f3e 6fb5 22be c1eb f23e
00000090: 6a9f d33e abd4 9bbe e0a9 ad3d b9d7 0abd
000000a0: f07a 7bbe 3a7c ddbe c6da a0be 320a 81be
000000b0: d4c2 463e 90f3 653e 8938 7b3e cbd9 07bf
000000c0: 10f0 8f3e e369 1abf f754 24be 327b 283f
000000d0: 271c bd3e 0810 a3be c751 f6be 77ca 403f
000000e0: 06e7 3abe 20e8 91be 26df 0a3f 5939 953e
000000f0: 9270 78be cf5b a6be e9bd 3f3e 8ca7 003f
00000100: 1727 553e 5b0b 35be 0106 adbe 61b4 4b3f
00000110: e90d e83d f49c 643d 9182 1abe e563 fc3e
00000120: ec8a cc38 8e10 4e3f e2c6 f9be c1c5 e13e
00000130: 153d 4f3e f044 8cbe fe97 24be 4713 f9be
00000140: fd28 133e 74a5 9abe 5be1 cc3d 8132 6f3d
00000150: 4f5a 233e e0ee 133f b644 a7ba b9c4 13bc
00000160: e513 a3be f42b f83e e9e2 01be cfb6 8b3e
00000170: 848a 693e 597c 173f f81c d53a 53ba ebbc
00000180: 3813 40be 841f 9bbe 40ed 4fbc c076 f0bd
00000190: acec 95be 38af 10be 40e9 1dbc 40d9 e83c
000001a0: 386a 813e 1874 c13e df76 163e 7ef6 f13e
000001b0: ecf8 7abe ce81 0b3f ae91 893e 18c8 0a3f
000001c0: 3e87 a63d 61da 81be 0e87 973e 2bf4 efbe
000001d0: bdfc 723d 2256 de3e e11c 043f 4186 013f
000001e0: 3c36 64be a4bf 7c3e d25e 893e 9a3a 083f
000001f0: 66aa ce3e a31e e1bd 62df 79be 4e0b d4be
00000200: 45f4 b53e b986 f0bd 6c15 eabe 4303 523e
00000210: 0679 353e 2e1c ff3d 79c3 86be 3429 10bf
00000220: 0f21 e93e 0cee 883e 10c0 2cbe d7f8 12bf
00000230: 4728 8dbe 08b7 933e 7be0 f53d 03ce 2b3f
00000240: c760 a63e 38cd 45bd a8fa dbbe 8daa 493d
00000250: a853 e9b7 9a37 c0be f760 9b3e 0f8a 48bd
00000260: 2404 69be 748f f1be c0bf 94bd 703e 323e
00000270: 786d 8d37 be15 5c3e d7b6 52be 21b9 023d
00000280: b026 833e 5fea cd3e 6aea cbbd 4869 adbe
00000290: f400 653d 09a6 303d 9edb c63e 24dd 033f
000002a0: 1e83 e43e b2e3 4abe 5dbc bf3e 55f9 1f3f
000002b0: 8e23 f83e 27c9 c43d 323b e43e df52 15be
000002c0: 6937 923d 7154 f9be 985a e63c 73e2 2bbf
000002d0: 29ae 113c ffc1 113f 6750 cd3c 2f13 c03d
000002e0: fceb 94be d26f 963e 22f0 f5bd 557b c23e
000002f0: 004b a73b 2006 e9bc ece5 cbbe a62b 973e
00000300: ba3f e7be 0f78 2f3e ed48 2abe 39ba 463e
00000310: 9807 c63e 248f 003f a0ac 51be 9087 43be
00000320: 0620 b1be 90ef 623e dfb8 e23e 1898 c13e
00000330: d1a1 c1be 1843 ce3e 0086 d53e 861d a7be
00000340: 82c1 9f3e 4696 cd3e cff7 a7be 8b42 db3d
00000350: 1773 7b3c e295 7d3e e19f b4be 0da9 643d
00000360: c038 afbc 4071 05be 4551 8bbe 8048 193d
00000370: 543e a5be 7204 babd 3eec 0c3f 17f4 1f3e
00000380: 62cc aebe 0b95 d9bd d68b da3e 731e 3c3e
00000390: 9165 6f3e 33ed 89be c940 803d 5dc1 06bf
000003a0: 7f15 ffbc 2e02 e2bd 8119 bf3e 1359 37bd
000003b0: 78cb 283e a48d 23be 66d4 0d3f 9a0d df3c
000003c0: 201d 863e b581 36be 28a5 91bb 4031 ae3c
000003d0: 0f6c ecbd d642 a63e 1661 acbe 3afe c4be
000003e0: 2f53 db3e 7111 613e f00c 053f c7b6 963e
000003f0: 1ef5 91bd 71ce d23e 060c 073f 39ec 53bf
0.21161902 0.4763281 -0.24583109 -0.09145326 0.11542323 -0.026752243 0.4571978 -0.5899245
0.05765421 0.45515743 -0.40517768 0.015269573 0.24329405 -0.2737764 0.06784007 -0.6929896
-0.39737314 -0.15808964 -0.0600152 0.13411117 0.12489067 0.1180406 0.45751357 -0.5570809
0.2706623 -0.342839 -0.0641993 -0.49901927 -0.46181142 0.08046031 -0.29109687 -0.10364121
-0.10391788 0.14030744 -0.15889524 0.4744549 0.4133256 -0.3043569 0.08479667 -0.033897135
-0.24558616 -0.4325884 -0.3141691 -0.2520309 0.19410259 0.22456193 0.24533285 -0.530667
0.2811284 -0.6031782 -0.16048037 0.6581298 0.3693554 -0.31848168 -0.48109266 0.75308937
-0.18252191 -0.2849741 0.5424675 0.29145315 -0.24261692 -0.3249192 0.18724789 0.50255656
0.20815693 -0.17680113 -0.33793643 0.7957211 0.11330778 0.055813745 -0.1508887 0.49294963
9.753354e-05 0.8049401 -0.48784548 0.44096187 0.20238145 -0.27396345 -0.16073605 -0.4864752
0.14371105 -0.30204356 0.10003921 0.058397774 0.15952419 0.5778637 -0.0012761566 -0.00901907
-0.31851116 0.48471034 -0.12684216 0.2728791 0.22806746 0.59174114 0.0016259244 -0.02877537
-0.18757331 -0.30297482 -0.012690842 -0.117414 -0.2928213 -0.1412934 -0.009638131 0.028423905
0.2527635 0.37783885 0.14693783 0.4725837 -0.24509019 0.5449494 0.26868957 0.5421157
0.08131264 -0.25361922 0.29595226 -0.46865973 0.05932306 0.4342509 0.51606566 0.5059548
-0.22286314 0.2468248 0.26830155 0.5321442 0.4036438 -0.109921716 -0.2440162 -0.41414875
0.35537925 -0.11744446 -0.4571947 0.20509057 0.17721948 0.12456547 -0.2632101 -0.5631287
0.45533034 0.26744115 -0.16870141 -0.5741095 -0.27569792 0.2885058 0.12005707 0.67111224
0.3249571 -0.048291415 -0.42964673 0.049234916 -2.781472e-05 -0.3754242 0.30347416 -0.048959788
-0.22755486 -0.4717976 -0.07263136 0.1740663 1.6859485e-05 0.21492669 -0.2057756 0.031914834
0.25615454 0.40217873 -0.0995682 -0.33869386 0.055909112 0.043127093 0.3883943 0.5150931
0.44631284 -0.19813421 0.37448397 0.62489825 0.48464626 0.09608679 0.44576412 -0.14582394
0.07139475 -0.48697236 0.02811937 -0.6714241 0.008891621 0.5693664 0.025062753 0.09378659
-0.29086292 0.29382187 -0.12008692 0.3798472 0.0051053762 -0.028445303 -0.39823854 0.2952549
-0.45165807 0.17135642 -0.16629381 0.19406976 0.3867767 0.50218415 -0.20476007 -0.19094682
-0.34594744 0.22161698 0.4428167 0.3781135 -0.3781877 0.40285563 0.41703796 -0.32639712
0.31202322 0.40153712 -0.3280625 0.107060514 0.015347264 0.24764207 -0.35278228 0.055825282
-0.021389365 -0.13031483 -0.2721044 0.037422657 -0.32274115 -0.09082879 0.55047977 0.15620457
-0.34140307 -0.10624131 0.4268481 0.1837099 0.23378588 -0.2693878 0.06262357 -0.526388
-0.03113818 -0.11035572 0.37324145 -0.044762682 0.16483867 -0.15972 0.5540222 0.027228165
0.26194096 -0.17822917 -0.004444737 0.021263719 -0.11544048 0.32472867 -0.3366782 -0.3847521
0.42836902 0.2197931 0.51972866 0.29436323 -0.071268305 0.41173127 0.5275272 -0.8278232

bias f4 [256]
00000000: 0e77 bfbe 0cbe cfbe ec30 163e e7be 48be
00000010: 82ad 92be 6b8b 53be 939d 963e 4080 a8bd
00000020: 67dc 023f 6d41 6ebe 8062 b53c 1381 b1be
00000030: f929 97bd d8ff 96be 85a1 9b3e d21a a83e
00000040: 7d9d 7c3e f27a af3d cbab 153f b456 bbbe
00000050: c712 3b3e 7d91 b8be 72ad a53e 5b2b 403e
00000060: a87e 5b3e d0ca 433e 8fa9 363e ac43 dd3e
00000070: 02fb 90be b476 54be 2ccc d23e 391c 0c3f
00000080: c58a eabe 4979 09ba 0962 a23e f942 1e3d
00000090: 54ea c43d 63cb 1bbf c614 abbe ef97 f33e
000000a0: 1d1f 0f3f cf1b 573e bd6c 0e3e ff6e 6cbe
000000b0: 67f1 d43e 20e0 df3e f5e9 4c3e 3cc8 eabe
000000c0: 2895 943e b284 1d3f 95bc 843e b51d 663e
000000d0: 9182 9cbe 18fb 58be bb9d 62be 0966 453e
000000e0: fec9 bcbe e241 f53a e60d 33be fdb2 5ebe
000000f0: 98e9 713e aaee 2d3e 1b28 933e 3704 f4be
00000100: 0b5f 013e de46 fcbe d887 34be bd0f 4d3e
00000110: 1425 3cbb 20d3 f93e ea63 dd3e 4109 f6be
00000120: 3adc e53e 0369 8e3e c2e3 c7be 94bb 04be
00000130: 117f 43bd da6a 05bf 6a57 8c3e 5db4 923e
00000140: 9c15 01be 4ef5 eebe 6204 bb3e b687 d93e
00000150: d519 213e 63ec 323f 6ac2 fcbd 917a 9c3e
00000160: b5e6 1cbe e9d8 f0be 5830 923d 0c84 053e
00000170: 2147 7d3e c8b9 36be 959e 293d f3f7 93be
00000180: 00bb 12bf 56ba 403d 984e 14bf 8a84 a03e
00000190: 6277 d6be b781 ae3e 4a15 b8be 71e7 9b3d
000001a0: 9ebf 1cbe 01f8 3abe 10b3 d43e dc93 eebe
000001b0: 904a adbe 7f64 493e 2f91 73bd da4f 0e3f
000001c0: 8139 ba3e c0f3 ad3e 961c ecbe 0fb1 a5be
000001d0: ff97 f8be 4ccd f83e 049d 933d 7ee5 933e
000001e0: 1fe7 0cbf e65a 0abf 2d1e cf3e 754e 093f
000001f0: de8e ad3c ebaa bd3e c2de d4be 84c1 a2be
00000200: e407 6abe daa1 71be 27c8 843e 5888 ecbe
00000210: df22 a7bc f4a7 1abd 2852 103d 61b3 2bbe
00000220: 89f1 0abe 4a4c 503e 17a4 863e daa3 b8bd
00000230: 1098 e7be 6644 cd3e ebf0 d53d 17fe b5bd
00000240: becf 2dbe ff59 0a3f e6db 80bb 144c 383e
00000250: 3536 36be f2a7 3a3e e0bd ff3c 8bdf 6a3d
00000260: 19ef ccba d229 44be 3694 743e d706 f03e
00000270: f278 3abe 05c8 d13d 45d6 a33e 1533 a6be
00000280: 34b7 f5be 52b8 623d 15d3 0e3d f2f8 093f
00000290: c0c0 fbbd 5c87 b1bd 40bf c53c 40e1 5fbd
000002a0: 26ad 0b3f 6d03 e7be 6f68 fd3d af3c 9abe
000002b0: bb55 b23e af17 063f 5c17 8cbe 6c6f 683e
000002c0: 2438 f3be 71f6 5bbe b4e9 eabe 53b8 ea3e
000002d0: 765a b73e 6c9d ea3e 96e6 c03e 3c9e 9dbe
000002e0: 7875 8a3d 782b 053e 415b c53e 34c5 b13e
000002f0: 9ab4 b23e 7f9a e13e 117a fd3e ff1c 003f
00000300: fa4d 35be fb25 a33d a7b4 b53e 9534 4f3e
00000310: 43e0 d33e 6cdb a6be 980f 8c3d fdee 47be
00000320: a5c6 78bd 3af2 91be baec 5f3e af0c edbe
00000330: c0e1 983d 0bfa d23e cdf1 7abe cabe cfbe
00000340: 369b 85be b71d 293e 9041 b03e 1f86 2c3e
00000350: 89b3 c8be 84ec 163e e6e9 1b3e c11a f7be
00000360: e4f7 cbbe 0ef5 a93d 4734 01bf bc46 c53e
00000370: c9e5 903e 9990 b3bd d462 bd3e 9001 d0bd
00000380: 90d5 5b3e ded9 223e 23a5 e6be d86d b63e
00000390: 9a2d fb3e 9deb 4bbe 100a fc3e db1f ff3d
000003a0: da74 b2be 60dc 36bd c5ed 103f 721e ba3e
000003b0: e0da 2dbd 27c7 be3e 8b3c 2abe b98c 27bf
000003c0: c4b0 223f 9685 14bd e3c0 bebe f2e7 163f
000003d0: 16d5 1c3f 4077 60be 6cc1 e4be d930 033f
000003e0: 6209 adbe 8971 dabe a869 88bd 36cb fc3e
000003f0: 561b 44be 4a6e 96be 860e ecbe 71e4 b73e
-0.3739552 -0.40574682 0.146671 -0.19604073 -0.28648 -0.20658652 0.29417095 -0.08227587
0.5111756 -0.23267145 0.022141695 -0.34668788 -0.073810525 -0.29492068 0.30396667 0.32832962
0.24669452 0.08568372 0.5846526 -0.36589587 0.18268882 -0.360485 0.3235889 0.18766539
0.21435034 0.19120336 0.17838119 0.43215692 -0.28316504 -0.20748407 0.41171396 0.54730564
-0.45808998 -0.0005244208 0.3171542 0.03863809 0.09615007 -0.6085722 -0.33414286 0.47576854
0.5590685 0.21006702 0.13908668 -0.23089217 0.41590425 0.4372568 0.20011123 -0.45855892
0.29020047 0.615306 0.25925127 0.2247227 -0.30568364 -0.21189535 -0.22130482 0.19277205
-0.36872858 0.0018711651 -0.1748577 -0.21747966 0.23624265 0.16985574 0.28741536 -0.47659466
0.12633912 -0.49272817 -0.17629945 0.20025535 -0.0028708624 0.48793888 0.4324029 -0.48053935
0.44894582 0.27814493 -0.39040953 -0.1296218 -0.0477286 -0.5211617 0.27410442 0.2865323
-0.126059 -0.46671528 0.3652678 0.42486352 0.1573251 0.6989195 -0.12341769 0.3056226
-0.15322383 -0.4704049 0.07138127 0.13038653 0.24734165 -0.17844307 0.041411 -0.28900108
-0.5731659 0.047052704 -0.57932425 0.3135112 -0.41887957 0.3408334 -0.35953742 0.07612503
-0.15307471 -0.18258668 0.41542864 -0.46597183 -0.3384595 0.19667242 -0.05946463 0.55590594
0.36371997 0.3397503 -0.4611556 -0.32361647 -0.48553464 0.4859413 0.07207683 0.28886026
-0.5504016 -0.5404495 0.4045271 0.5363534 0.021186288 0.37044463 -0.415762 -0.31788266
-0.22854573 -0.23596898 0.25933954 -0.46197772 -0.02040237 -0.03775783 0.0352346 -0.16767646
-0.13568701 0.20341602 0.26297066 -0.09015627 -0.45233202 0.40091246 0.10446342 -0.088863544
-0.16973779 0.54043573 -0.003932464 0.17997772 -0.17794116 0.18228129 0.03121847 0.057342093
-0.0015635221 -0.19156578 0.23884663 0.46880218 -0.182102 0.10243229 0.31999412 -0.32460847
-0.47991335 0.055351563 0.034869272 0.53895485 -0.122926235 -0.08668396 0.024139047 -0.054658175
0.5456108 -0.451198 0.12373435 -0.30124423 0.34831032 0.5237989 -0.27361572 0.22698754
-0.4750377 -0.21480729 -0.45881426 0.45843753 0.35811204 0.45823228 0.37675923 -0.30784786
0.06760687 0.13004863 0.38546184 0.34720767 0.34903413 0.44063184 0.49507192 0.50044245
-0.17705527 0.079662286 0.3548939 0.20234902 0.41382036 -0.3258928 0.06838912 -0.1952476
-0.060736317 -0.28505117 0.21867648 -0.4629874 0.074649334 0.41206393 -0.24506302 -0.40575248
-0.2609498 0.16515242 0.3442502 0.16848038 -0.39199474 0.14738661 0.15225944 -0.482626
-0.39837563 0.082986936 -0.50470394 0.3853053 0.28300312 -0.08767814 0.36989462 -0.10156548
0.21468186 0.15903422 -0.45047864 0.3563068 0.4905823 -0.19914098 0.49226427 0.12457248
-0.34854776 -0.04464376 0.5661281 0.36351353 -0.042445064 0.37261316 -0.16624658 -0.654491
0.6355097 -0.03626021 -0.37256536 0.5894767 0.61262643 -0.2192049 -0.4467882 0.5124641
-0.3379622 -0.42664745 -0.06660777 0.49373788 -0.19151053 -0.2938102 -0.4610483 0.35916474

weight f4 [256, 256]
00000000: 0ddf 25bd 3f57 1f3d ae17 b5bd 6dff 81bd
00000010: 463f 03bd b62d 86bd 6878 fe3c 7c4c 203d
00000020: a35d 0bbe 1f9f ef3c 3022 f0bc bc7a 453d
00000030: 7bda c2bc fd1e ed3c 0811 9e3c 9971 123e
00000040: d1b9 3f3c cdb0 ab3d 478f 3c3c 9daf 37bc
00000050: e6d4 933a d420 48bc 4089 883c b163 f0bb
00000060: 48cc 0fbc 2800 f03c eb15 bc3c f758 2b3c
00000070: addd cdbd b57e 013d 0343 d93c d996 d93a
00000080: 1aed 623d cdc3 53bd 5984 f43c 77b1 e43d
00000090: 8b99 4bbd e89a dfbe 2c53 4a3d 6fa6 8e3d
000000a0: ea09 29bb 73c8 0c3d 1f1b 0a3d efb5 343d
000000b0: 582a 18bd cb96 863d d1f9 9cbd 74f5 10bd
000000c0: 6d6d 6f3d f5f4 fc3c 1722 fdbb 43d7 13bd
000000d0: 51ed 7c3d f469 2abc 280f 5f3c 9fca 0dba
000000e0: 3fe6 043e 2ea2 b7bb 72cf b2bb 3316 cf3c
000000f0: ebac 09bc 2954 413d c315 3b3d 2430 4fbd
00000100: b6c7 0eba 96f1 2c3d a1f7 0a3d 3775 cc3d
00000110: 5deb 6d3d d9d8 3b3d 87be 60bd 21db e83c
00000120: eed8 02bd 1d1f bfbc d65e 563c 24cf a53c
00000130: 04e4 663d 5f10 a7bc 8172 02be 7de9 24bd
00000140: d634 1a3c 1807 f73c 0632 51bc 9184 5cbd
00000150: 3dab 5bbc fbf6 213d 63d1 f8bc a981 253c
00000160: 6470 b1bc 3bb4 bdbc 3e8a 5f3d 8f56 01bd
00000170: 96a6 493d 840d 98bc 07d8 2c3d bade aa3d
00000180: 5671 113c 4598 80bc 5adb b9bd 4482 dabc
00000190: 8348 debd 5100 b7bd 9015 c8bb cfd6 d7bc
000001a0: c7f0 643c 0f37 d43d c2fa 5c3b 9439 98bd
000001b0: 2eb6 ac3c bea1 493d 9ce9 963d 64eb 103d
000001c0: ddde f13c 8a36 fabc 40b3 4f3d 4a76 133d
000001d0: 73db 033d 7ce6 4d3d 6cca eb3c d9a3 25bd
000001e0: 904c 4fbc 5bb5 68bd baeb aebd e0a7 923c
000001f0: 4d97 ffbc ca54 4dbd 4e51 3fbd 9162 84bd
00000200: eab9 26bd de1c 113e 991a ce3c e986 ca3c
00000210: a558 96bd 0dfe 5dbd e05e 0a3d fa1b c9bc
00000220: d2a3 84bd 6b9c 27bd 6a03 733d 284c 163c
00000230: 2642 0dbd 3fdf 24bd d44c e93a ea06 85bc
00000240: a3ae 2d3d d496 adb9 b175 8fbc 60f4 463c
00000250: c22c 893c 6b55 3a3c 5cd3 9f3c b72c 8ebd
00000260: 1ace 353c 2349 8abd c457 7abd 7176 db3c
00000270: bcc5 423d 1be2 613d b462 fa3c 53fe 4bbc
00000280: 3567 e83a c54a 1f3d 13bc 163d 891b 5e3b
00000290: 95c4 503c 361a 4bbc 660f 363d 92e0 68bd
000002a0: 436b eb3c 2cc0 aabc 4b81 dd3d f8d2 443d
000002b0: 668b cabc 6d0b be3d a6a0 2ebd 7446 1cbd
000002c0: 95bf cbbd 3ec3 6abc 62cc 953c 1f27 fe3c
000002d0: cd85 223d 2c76 2a3d 74a2 e2bb a118 6d3d
000002e0: 2f40 07bd ce42 2f3d ae48 463d db30 253d
000002f0: 880d c1bb d86d 603d 6994 d6bb 4aec 3e3d
00000300: 2ad9 90bd 007d 9d3d ab71 f5ba e085 7d3d
00000310: fdab 183e f437 9dbc 20dc dc3c 7944 8a3d
00000320: f7e3 85bd 7a05 d3bc ba79 2dbd 8372 5dbd
00000330: fa8a d4bc d0be 9a3c 958d 783d aac3 823d
00000340: 16a7 01bd f873 0a3c 7c52 45bd 9bd0 d6bd
00000350: 76fc 82bc e860 80bc fd63 5d3d bed4 f1bb
00000360: 2223 bb3b e573 79bd 6ed9 633c ed82 48bd
00000370: 211d 04bd 3c49 e23c 2417 bc3d b04e bb3b
00000380: e494 403d 38f8 843c 4125 b7bd 747e 7c3d
00000390: 9f4a 5f3d d2cc 9a3d fde6 26bd 5c33 58bc
000003a0: c0d3 c0ba 187b 443c 55a3 dabc c0c6 453d
000003b0: 121d 4a3d 33da 473c 8be5 503d 7ca1 b6bd
000003c0: 89d1 9f3d 31df bc3c 7762 943d 90de d2bc
000003d0: 67a9 babd 1893 d1bd 9a9c 2dbd b91e 1c3c
000003e0: 8a52 3dbd 7d19 403d b6bb 4d3d 10ca 7d3c
000003f0: 19f0 383d 0b6a 423d 40dd 623b 2a2e 1d3c
-0.04049592 0.038901564 -0.08842407 -0.06347547 -0.032042764 -0.065516874 0.031063274 0.03913544
-0.13609938 0.02925068 -0.029313177 0.04821275 -0.02378582 0.02894544 0.01929523 0.14301147
0.011702017 0.083833314 0.011508769 -0.011211303 0.0011278659 -0.012214858 0.016667008 -0.007336103
-0.008776732 0.02929695 0.02295967 0.010458223 -0.10052047 0.031614978 0.026521211 0.0016600742
0.0554019 -0.051700402 0.029848265 0.11166661 -0.049706977 -0.43672872 0.049395725 0.069653384
-0.0025793263 0.03437085 0.03371727 0.044118818 -0.037149757 0.0657173 -0.07664836 -0.035390332
0.058453966 0.030878523 -0.007725011 -0.03609396 0.06174976 -0.010401238 0.013614453 -0.0005408916
0.12978457 -0.00560405 -0.0054568583 0.02527914 -0.008403043 0.047199402 0.04567505 -0.05058302
-0.00054466294 0.04222258 0.033927564 0.099832945 0.058085788 0.0458611 -0.0548692 0.028424801
-0.03194516 -0.023330266 0.013084134 0.020240374 0.056369796 -0.020393549 -0.12738992 -0.040261734
0.009412011 0.03015475 -0.012768274 -0.053837363 -0.013407526 0.03954218 -0.03037328 0.010101714
-0.021660037 -0.02315723 0.054575197 -0.03157669 0.049231134 -0.018561132 0.042198207 0.08343263
0.008877119 -0.015697608 -0.09075041 -0.026673444 -0.10853674 -0.08935607 -0.006106086 -0.026347546
0.013973421 0.10362064 0.00337188 -0.07432857 0.021082964 0.049226515 0.07368776 0.035380736
0.029525215 -0.030543584 0.050708055 0.03600148 0.032191705 0.050268635 0.028783046 -0.04043946
-0.012652531 -0.05681358 -0.08541055 0.017902315 -0.031200076 -0.05012969 -0.046708398 -0.064641126
-0.040704645 0.14171168 0.025159167 0.024722533 -0.07341126 -0.05419736 0.033781886 -0.024549473
-0.06476559 -0.040920656 0.059329428 0.0091734305 -0.034486912 -0.040251967 0.0017799386 -0.016238648
0.042402875 -0.00033109507 -0.017512174 0.0121432245 0.016744975 0.011372904 0.019509964 -0.069421224
0.011096502 -0.06752231 -0.061118856 0.026789876 0.047551855 0.05514727 0.030564643 -0.012450772
0.0017730953 0.038889665 0.036800455 0.0033890924 0.012742181 -0.012396386 0.04444828 -0.056854792
0.02873767 -0.020843588 0.10815676 0.048052758 -0.024724673 0.09279523 -0.042633675 -0.038153127
-0.09948651 -0.014328776 0.018285934 0.031024514 0.039678384 0.041616604 -0.0069163386 0.057884816
-0.033020195 0.04278832 0.048409157 0.040329795 -0.0058915056 0.054792255 -0.0065484536 0.04661206
-0.07072671 0.076898575 -0.0018725892 0.06189525 0.14909358 -0.01919172 0.026960433 0.067513414
-0.065376215 -0.025759447 -0.042352416 -0.054064285 -0.025945175 0.018889815 0.0606819 0.06384976
-0.031653486 0.008450501 -0.048174366 -0.10489007 -0.015989523 -0.015671209 0.054050434 -0.007380097
0.0057109753 -0.06090154 0.01390682 -0.048952986 -0.032254342 0.027622811 0.09184101 0.0057161674
0.047016993 0.016231641 -0.089426525 0.061644033 0.054514524 0.075585976 -0.04074763 -0.013195839
-0.0014711544 0.011992238 -0.02668921 0.048285246 0.04934413 0.012198019 0.05100016 -0.089175195
0.078036375 0.023055645 0.07245343 -0.025740892 -0.09114342 -0.10233134 -0.042385675 0.009528809
-0.046221294 0.046899308 0.050227843 0.01549007 0.04515085 0.04746441 0.0034616739 0.009593526

bias f4 [256]
00000000: e65d a9bb a1c3 9e3d 1ada 853d b2b9 70bd
00000010: c416 2abd 69ca 0f3d 2b7a f03c f188 44bd
00000020: 852e 963c 2c2c 493c 14c9 02bd 60bf 433d
00000030: b686 2e3d c051 e0bc 27c0 3b3d a052 b5bc
00000040: b270 5abd 4dc1 623d 40b5 d7bc 68c1 f0bc
00000050: ea47 253d 80d1 403a cfc3 3d39 0691 733b
00000060: 351c 52bc f9be 843c 98b2 23bc 1298 da3d
00000070: 2c66 bc3d 5054 0cbd 3017 6bbd bc28 963c
00000080: 95ef be3d b285 a43d e39a 86bc 75e4 153d
00000090: 1c13 07bd c049 5b3d 0297 5dbd 2930 47bd
000000a0: aca1 923d 00b0 0b38 92f6 e3bc 5ae1 c53d
000000b0: 3769 293d 9e8e 03bd ea49 6b3d 1458 163d
000000c0: 9195 7d3d 1342 613d c06c c2bb e943 5f3d
000000d0: f481 c33d 6fda df3d 2968 b23d 71d6 4ebd
000000e0: a930 f43d 6cb7 5bbd b836 393d 44ab ca3b
000000f0: c0a3 6e3d 0e85 133d 6ec9 583c 71bf 41bd
00000100: 506e a73d 1cdf d0bc f936 7a3d ca72 943c
00000110: 4993 873d 78aa 4d3d ea5b 4cbd 1834 d13c
00000120: 45bd aebc f51c 21bd 5143 cdbb 309d 183c
00000130: e04d c73c faef 2dbd cdeb 873c dcba b0bc
00000140: fb45 053d ba86 ea3b 8a06 4e3d 6410 5fbd
00000150: bda5 c2bc ea1a d1bc 991f 683d c309 983d
00000160: af1b cd3d dc78 be3d 5ba9 613c 0d31 69bb
00000170: f03a 10bd 87ba 9a3c 5cb7 843c f6dd 60bd
00000180: 5ca5 113d 47fa 25bd e8e6 94bc 3844 483d
00000190: e8bf 173d 119a 8f3d c718 cabc ee02 7e3d
000001a0: b1dd 583d 81c2 cd3d 08dc 32bd af31 4b3e
000001b0: 9975 4bbd e2a4 55bd b987 883d 58a4 383c
000001c0: d076 0fbd 127a 333d f0b0 f63b e643 ae3d
000001d0: 75c2 943c ea50 2e3d 16c9 4f3d 9bd9 ee3d
000001e0: 158e b53d 4022 68bd cf57 4dbd b8a6 a93d
000001f0: 1465 8ebc a263 39bd 7267 6b3d 5182 743e
00000200: ca6a 7e3d 9340 5e3d 75ba debc f826 30bd
00000210: d55b 1ebb e39b 003d aec9 9bbc d27b ca3d
00000220: a299 2c3d 344a 6a3d af1c de3d d278 503d
00000230: 2b86 da3d ff45 9b3d cfcd 32bd 7a27 ad3c
00000240: a0da 0ebd 5a5b db3d f875 9b3d 3543 213c
00000250: 601e 67bd bff5 bebc 66cb 403d 7233 ee3c
00000260: 1095 cf3b a30c e6ba 9a6d d63d a662 12bd
00000270: 6460 093d a2fa 0b3d d187 993c a5bb d73d
00000280: 143b 843e 71b8 313b 7d37 483d 6f89 a13d
00000290: 525b 783d 3695 ef3c 2eee b53d 5cec 373d
000002a0: 6683 98bc 6d01 81bd 0066 58bb 0448 d7bb
000002b0: ec4e f2bc 7f29 9b3d 5ca4 6439 2688 803d
000002c0: 32c3 cf3d 47e0 21bd c96f 193c 402f 423d
000002d0: e5c2 9e3c 6fbb 6f3d bcf6 fdbc 7b31 f33a
000002e0: 4468 9b3c da2a 5d3d 1c58 2cbd fa0b 253d
000002f0: b983 573c 7e06 8a3d 20c1 223b 6308 823d
00000300: 9d32 84bc f640 d93d e903 d93c e055 a43c
00000310: 447a 953c 4281 c93c 3dc0 293d d78d 2fbd
00000320: 9365 723d 4886 5bbc 5b4f df3d a474 f6bb
00000330: 02c4 bb3d 681a 2e3d 0f83 20bd 80d1 4d3d
00000340: 6c71 6a3d 23e8 e9bc e019 b7bc 93ed 12bd
00000350: 7738 083d 0cfb 213d eadb ca3b 7f22 343d
00000360: 6902 68bc 0c7e c63d 8b5f 0f3e b0a5 023c
00000370: 07e0 393d c814 84bc 50c1 e53c 40b2 efbb
00000380: 8cdd 61bd ffb1 8a3d 420c 603d ac73 8c3c
00000390: ce23 333d 7945 bdbc 805f 19bd b6f2 263c
000003a0: 4f27 f9bc 66e9 25bd 6023 073c c4c6 a2bb
000003b0: 1af4 ec3d 2221 6d3d fb0d 003d 5069 5abd
000003c0: 8a8f 4fbc 72c1 3fbd 0677 46bd 3954 2abd
000003d0: 38da 0e3c 4618 f7ba 1c8e 7bbd 5bc3 2fbc
000003e0: 526d 21bd d387 1fbd 8cba 9c3d 4f23 7d3d
000003f0: 1c74 3e3c 6afe 2d3d 1146 ef3c d837 35bc
-0.0051686643 0.07752157 0.0653574 -0.058770843 -0.041525617 0.035105143 0.02935513 -0.04798216
0.01833273 0.012278598 -0.031930044 0.04778993 0.04260894 -0.027382731 0.045837548 -0.022134125
-0.05333013 0.055360127 -0.026331544 -0.029389098 0.040351786 0.00073554367 0.00018097389 0.0037165298
-0.012824108 0.016204344 -0.009991311 0.10673536 0.09199175 -0.034260094 -0.05739516 0.01832997
0.093230404 0.08033313 -0.016431278 0.036594827 -0.03297721 0.05353713 -0.05409909 -0.048629913
0.07159743 3.3304095e-05 -0.027827535 0.09662123 0.041360106 -0.032118432 0.057443537 0.03670509
0.061910216 0.054994654 -0.005933374 0.054508124 0.09546271 0.10930335 0.08711273 -0.050497476
0.11923344 -0.05364172 0.0452182 0.0061849672 0.058261633 0.036015563 0.013231618 -0.047301713
0.08175337 -0.025497012 0.061087582 0.018121142 0.06619889 0.0502114 -0.049892344 0.025537536
-0.021330485 -0.039334256 -0.0062641283 0.00931482 0.024329126 -0.042465188 0.01659193 -0.021573476
0.03253744 0.007157174 0.050299205 -0.05445899 -0.02376067 -0.025525529 0.05667076 0.07423737
0.10015046 0.09300396 0.013773288 -0.0035582215 -0.035212457 0.018887771 0.016200714 -0.05489918
0.03555809 -0.040521886 -0.01817651 0.048893183 0.03704825 0.07011808 -0.024670018 0.062014513
0.052945796 0.10046864 -0.04366687 0.19843172 -0.049672697 -0.052159198 0.06666512 0.011269651
-0.035025418 0.043817587 0.007528417 0.08509044 0.01815913 0.042557634 0.05072888 0.11662599
0.088649906 -0.05667329 -0.05013257 0.08283752 -0.017382182 -0.045261033 0.0574717 0.23877837
0.06211356 0.0542608 -0.027188519 -0.043005913 -0.0024163623 0.031398665 -0.019017067 0.09886898
0.042138703 0.057199672 0.10845315 0.050896473 0.10670122 0.0758171 -0.043653306 0.021136988
-0.034876466 0.10710783 0.0759086 0.009842684 -0.056425452 -0.02331054 0.047068976 0.029077265
0.0063349083 -0.0017551373 0.104701236 -0.03573861 0.03353919 0.03417457 0.01874152 0.10533837
0.25826323 0.0027117992 0.048881043 0.078875415 0.060633965 0.029245954 0.0888332 0.044903144
-0.018617343 -0.062991 -0.003301978 -0.006569864 -0.029578649 0.07576274 0.00021805003 0.06275968
0.101446524 -0.03952053 0.009365031 0.047408342 0.019380042 0.05852836 -0.031001441 0.0018554175
0.018970616 0.053995945 -0.042076215 0.040294625 0.013153964 0.067395195 0.002483435 0.06349256
-0.016137416 0.106080934 0.026491122 0.02006048 0.018246777 0.024597768 0.0414431 -0.04285988
0.0591789 -0.013398714 0.10903808 -0.007521229 0.09168245 0.04250565 -0.039187487 0.050248623
0.057237074 -0.028553074 -0.022351205 -0.0358711 0.033256974 0.039546058 0.0061907666 0.04397821
-0.014160731 0.0969201 0.1400129 0.007974073 0.045379665 -0.01612319 0.02804628 -0.00731495
-0.055142924 0.06772231 0.05469919 0.017145 0.043735318 -0.023104416 -0.03744459 0.010189703
-0.030414252 -0.04050579 0.00824818 -0.0049675424 0.11569996 0.057892926 0.031263333 -0.05332309
-0.0126685 -0.046815343 -0.048453353 -0.041584227 0.00871902 -0.0018851839 -0.061414823 -0.010727729
-0.039410897 -0.03894789 0.076527685 0.06180125 0.011624362 0.042478956 0.029208215 -0.0110606775

weight f4 [33, 256]
00000000: 8d11 b8bb 5170 c53d c007 78bc 8a4d 5abd
00000010: 502d 643c 5ec6 15bd 06e9 2bbc d4b3 603d
00000020: c086 2f3b 4cec 58be 10c6 3f3d 083f 91bc
00000030: 2f9f 1b3d 2036 143d 8b97 7abc f019 b33c
00000040: 9ee6 443d a616 c53d 0009 14bb 00fc 74bd
00000050: d0a7 fa3c 48d9 563c c07b 20be d420 043d
00000060: 5908 28bd 6b07 a7bc 8c2d 2c3d d687 fcbb
00000070: 03c7 8e3d 4092 b6bc 308e f7bb 725f 413d
00000080: 9c26 943d 5218 e8bc 5ea3 07bd 1250 d73d
00000090: 7872 24bc 687b 5b3c c538 8d3c d6f1 073d
000000a0: 5a9c 893c 0444 5b3d 88d4 d03c fa5b b1bd
000000b0: f91c 43be 0065 25bb 3e73 19bd d253 a83d
000000c0: 5ad3 bb3c 7806 b23c 526d 213d d8e4 32bd
000000d0: 8b21 e13d ce83 c03d 0301 c33c 81cf 45bd
000000e0: 2ce6 8b3d 4d5f 9ebd 4adb 163e 7ed8 79bd
000000f0: cef1 733d c405 b53c 5b72 97bd 1ae4 10bd
00000100: 0fc4 6b3d e6e5 3b3d c011 fb3d 1443 12bb
00000110: 849c 9b3c 0943 323d 245c 62bd eed1 4cbd
00000120: b8df d3bd 9ef2 693b a89c 4f3c b8ed 1abd
00000130: 6ca4 e23c 5e94 0cbd 3653 9d3c d4e7 5fbd
00000140: 159b 93bd 4895 dfbc ec51 81bc b480 f93c
00000150: e47a 97bd 1f3b 26bd 875d f93c f203 0c3c
00000160: da78 f53d 6772 ac3d 69d6 003d bf17 53bd
00000170: 82cb 65bd bcb1 493d 70c3 273d 8556 3cbd
00000180: 02c9 dc3a 1b3d e33c 9042 6ebd 71e5 a13d
00000190: a25e b03d c43f 0c3d d2c3 ae3d 0574 cf3d
000001a0: da5a 8b3d 2d35 a13d e01f 04bc fab9 ec3d
000001b0: de51 2abd ac27 69bd cbd2 313d 5cc6 3ebd
000001c0: f3f6 6cbd 808d 5bba 59c5 ccbc ae12 1ebd
000001d0: 889d f03c acb1 1e3d 1613 91bd 46b6 133e
000001e0: 373a db3d 5463 8ebc 9a53 14be 9cea af3d
000001f0: 6a66 293d 008c adba cdd9 ad3d ceb0 283e
00000200: 23eb 9f3d 5c2e df3d be70 143d 90b6 a63c
00000210: ab79 3a3d 3b5d a43d ace9 43bd d6dc 9c3d
00000220: 0e54 4b3d d441 8bbc 78cf 30be 0a01 79bd
00000230: 5dde 9a3d b1c4 83bc 01e3 f8bd 8235 f4bd
00000240: 18f2 553c 3c06 0b3e 8d76 ca3b fc18 4abc
00000250: 893f 72bd 9bb0 69bd d445 c93c d3dd 67bd
00000260: 40c5 463d 5e7e 753d e78c 6438 9418 c83c
00000270: 2148 41bd 9475 b33c 5c8a dcbc 72c9 56be
00000280: 1061 b33d f977 983d 059f 933d a18d 2fbd
00000290: 4967 d83d 325c bc3c 8d30 6e3c 70c4 373d
000002a0: 4ce5 2e3d b17c 453d 5009 e3bb 57e4 263d
000002b0: 76ae 1e3d ab62 4ebc 2483 e1bd ff8a 44be
000002c0: ae13 86b9 871a 2ab9 58ee 97bd ce3d 5a3b
000002d0: 4482 a23d b635 043e a73e 3a3d 80d1 223b
000002e0: 3bfd 78bd b82b fabc b022 45bc 0036 3d3d
000002f0: a29b 13bd b4ce 053e 6056 32bb fb7d c33d
00000300: 8074 b23b 6b03 bcbc 80b8 5ebd 7003 683d
00000310: e710 813d 346d ad3d 78be cd3c e016 44bd
00000320: 8e6c 2abd 3280 67bd a06b b93d f66d a0bb
00000330: 5da3 b83d 2059 2b3d 241f be3c 70f6 a9bb
00000340: c0ff 843d 1baa ee3a 94f4 e83c c148 09be
00000350: 0021 6a3d 935b 1b3d 9a95 00be b8b8 38bc
00000360: a18c 853d 3809 8e3d f4a6 f53d 9824 33bd
00000370: 0043 2bbd b03b 07bd 747a 363d f429 5abd
00000380: 3eb6 54bd 4c32 873c 3cc5 d1bc a291 463d
00000390: 62cf ba3d 31d8 20be dc92 b43c 881a 79bd
000003a0: b4ac 0dbe 9342 52bd 0821 b6bc 6200 c83d
000003b0: fd0c 583d 384f 33bd 5649 38be ba39 40bd
000003c0: caa0 26be 885f 81bc 183a 4f3c 9d74 10be
000003d0: 80d8 b83b 9a71 cb3c 84d1 6d3d c7da c13b
000003e0: 1cd0 f23c 3dd6 96bd 4328 733d a288 4b3d
000003f0: 2e98 3dbd c0a1 55bc eb95 413d 6810 1cbd
-0.0056173266 0.09640563 -0.0151385665 -0.053296603 0.013926819 -0.03656613 -0.010492569 0.054858997
0.0026783198 -0.2118389 0.046819746 -0.017730251 0.037993606 0.03618443 -0.01529492 0.021862954
0.048071496 0.096234605 -0.0022588372 -0.05981064 0.030597597 0.013113327 -0.15672207 0.03225787
-0.041023586 -0.02038928 0.042035624 -0.0077066226 0.06971552 -0.022286534 -0.007554792 0.047210164
0.07233927 -0.02833191 -0.033114783 0.10513319 -0.010037057 0.013396122 0.017238984 0.033189617
0.016798187 0.05353166 0.025491968 -0.08660121 -0.19054021 -0.0025237203 -0.03746342 0.082191125
0.022927929 0.0217316 0.039410897 -0.043675274 0.10992726 0.0940014 0.023804193 -0.048293594
0.06831011 -0.07733021 0.1473209 -0.06099748 0.059556775 0.022097476 -0.073948584 -0.035373785
0.057560023 0.045873545 0.12259245 -0.0022317814 0.01899553 0.04352096 -0.055263653 -0.050004892
-0.10345405 0.003569759 0.012671627 -0.037824363 0.027666293 -0.03432118 0.019204717 -0.054664448
-0.07207314 -0.027292863 -0.015786134 0.030456878 -0.073964864 -0.040583726 0.030440105 0.0085458625
0.11985941 0.08420258 0.031454477 -0.051536318 -0.056102283 0.049241766 0.040957868 -0.04598095
0.0016844573 0.027739098 -0.058168948 0.079050906 0.086118 0.0342405 0.085334435 0.10129551
0.06804438 0.078714706 -0.00806424 0.1155891 -0.04158198 -0.0569226 0.04341392 -0.04657589
-0.057852697 -0.0008375272 -0.024996446 -0.038592033 0.029371992 0.03874366 -0.070837185 0.14425
0.10704463 -0.017381348 -0.14485016 0.0858967 0.041357435 -0.0013240576 0.08488808 0.16473696
0.07808521 0.10897514 0.03624033 0.020350724 0.045526188 0.08025595 -0.04783027 0.076593086
0.049640708 -0.016999163 -0.17266643 -0.060792007 0.07561944 -0.016085 -0.121526726 -0.11924268
0.013058208 0.13576597 0.006178683 -0.012335058 -0.059142623 -0.05705319 0.02456943 -0.056608032
0.048527956 0.059934966 5.449066e-05 0.024425782 -0.047187928 0.021906652 -0.026921444 -0.20975283
0.087587476 0.07444758 0.07208065 -0.042859677 0.10566575 0.02299318 0.014537943 0.04486507
0.042699143 0.048214618 -0.0069286004 0.040745106 0.038740598 -0.012596766 -0.11011341 -0.19193648
-0.00025573134 -0.00016222346 -0.07418507 0.0033300999 0.079350024 0.12911114 0.045469906 0.002484411
-0.060788374 -0.030538425 -0.012032196 0.046194077 -0.036037095 0.13067132 -0.0027212128 0.09545513
0.005446017 -0.022950849 -0.05437517 0.056643903 0.06302052 0.084680945 0.025115237 -0.047873378
-0.041607432 -0.05651874 0.09053731 -0.004895921 0.09015534 0.041833043 0.023208208 -0.0051868483
0.06494093 0.0018208654 0.028436936 -0.1340666 0.057160378 0.03792913 -0.12557068 -0.011274509
0.065209635 0.06935352 0.119947344 -0.04373607 -0.041811943 -0.033015907 0.044550374 -0.053262666
-0.051931612 0.016503476 -0.025606744 0.04847873 0.091215864 -0.1570747 0.022042684 -0.060816318
-0.13835412 -0.05133302 -0.022232547 0.09765698 0.05274676 -0.04377672 -0.17996725 -0.046930052
-0.16272274 -0.015792623 0.012648128 -0.14106984 0.005641043 0.024834443 0.058061138 0.005915973
0.02964025 -0.073650815 0.05936457 0.04969085 -0.046287708 -0.0130390525 0.047262114 -0.038101584

bias f4 [33]
00000000: f4f4 963d f0e2 bbbc 640c d1bc ceb0 3f3d
00000010: 7551 00bc aac5 d53c 96a4 ac3c d9e6 debc
00000020: 38b1 70bd 6157 a8bb 0b72 dd3c 23cb 723d
00000030: 41d8 613d 5141 283c 2ff4 553d 7cdc 623d
00000040: 6513 143d 8b4b b63b 1ea1 b23d 26dc 873d
00000050: 1170 843d 7080 ca3d e62b cc3c 4000 46bd
00000060: 57ee a83c 6e07 523c 7c9f 10bd 507f 193d
00000070: 16e5 d63b 05f3 cabc 9803 473d d9ef 853a
00000080: a351 b5bc
0.0737094 -0.02293536 -0.025518604 0.046799473 -0.007831921 0.02609523 0.021074574 -0.027209686
-0.05876276 -0.0051373695 0.027031919 0.059275758 0.055137876 0.010269479 0.052234825 0.05538605
0.03615131 0.0055632046 0.08722137 0.06633787 0.064666875 0.09887779 0.024923276 -0.048340082
0.020621462 0.012819154 -0.035308346 0.03747493 0.006558071 -0.024774084 0.04858741 0.0010218575
-0.022133654
