baselines/dqn/models/dqn_proposed.pth (torch, 89978 bytes, 6 tensors)

weight f4 [128, 4]
0.06581463 0.8085637 -0.3390177 -0.8142703 0.04867064 0.12617938 0.46463984 -0.25007808
-0.0017464401 0.78181726 -0.40744722 -0.31629232 0.13362303 -0.41038913 0.20501903 -1.1024089
-0.39737314 -0.15808964 -0.0600152 0.13411117 0.062494207 0.18496722 0.431805 -0.542999
0.15489444 -0.72647405 -0.34876043 -0.48071358 -0.46181142 0.08046031 -0.29109687 -0.10364121
-0.14731896 0.05136293 -0.19785547 0.30456197 0.05726428 -0.49435696 -0.20498788 -0.35593858
-0.24558616 -0.4325884 -0.3141691 -0.2520309 0.035067275 0.21280318 0.09187011 -0.8694514
0.110383414 -0.8255477 -0.1886555 1.1614456 0.27408114 -0.33789593 -0.5891603 0.56043094
-0.11726382 -0.597627 0.72830594 0.019586606 -0.29166442 -0.3896411 0.1182999 0.30328232
0.11304465 -0.1226912 -0.25057843 1.3602417 0.074426144 0.25539672 -0.48906848 -0.18957596
0.006323184 0.79930544 -0.4443746 0.995075 0.14964342 -0.3219073 -0.32832053 -0.810617
0.095594995 -0.67729527 0.29312474 -0.14465378 0.08676853 0.6216375 -0.020991292 -0.12206169
-0.47475517 0.25207967 -0.29384053 -0.09943563 0.14486773 0.6193705 0.018277507 -0.21373071
-0.18757331 -0.30297482 -0.012690842 -0.117414 -0.2928213 -0.1412934 -0.009638131 0.028423905
0.056803208 0.28356284 -0.11481662 0.37609848 -0.3792929 0.34366506 0.14530137 0.7691927
-0.0015309686 -0.9941921 0.8174269 -0.63287544 0.022113482 0.43451515 0.5350802 0.42793867
-0.14865345 0.3904909 0.21715468 0.9129704 0.14284536 -0.6190354 -0.29978618 -0.7822476
0.20941314 0.07744652 -0.625349 0.77970636 -0.0013851863 0.88636285 -0.23340514 -2.434102
0.18960394 -0.0074373046 -0.23649645 -1.5988474 -0.19359666 0.34210983 0.033577308 1.120468
0.1772378 -0.092038944 -0.4412669 -0.45002815 -0.0016999389 -0.70245624 0.58286864 -0.39545783
-0.22755486 -0.4717976 -0.07263136 0.1740663 -0.05928026 0.25074443 -0.10476928 0.37567756
0.0866323 0.75950867 -0.2554324 -1.2597582 -0.019599827 -0.0030518034 0.35858092 0.24541406
0.3262223 -0.30957666 0.3991118 0.40536046 0.32887304 -0.062326517 0.3818338 -0.37380522
0.0937897 -0.74402815 0.30617592 -0.52231777 -0.032863084 0.7607364 -0.09448181 0.36787245
-0.10988814 0.30782172 -0.73820144 0.608498 0.0051053762 -0.028445303 -0.39823854 0.29525483
-0.49025196 0.10785681 -0.20489031 0.18555546 -0.023483658 0.19464731 -0.46096694 -0.7414405
-0.30130714 0.47037578 0.33098283 1.1390411 -0.18318897 0.6122824 0.47901896 0.1897918
0.11930495 0.50396496 -0.50540036 0.5465545 0.0077024526 0.77234423 -1.2201424 -0.19417238
-0.00061404036 0.58235335 -0.49951836 0.3515119 -0.2505386 -0.07742493 0.6125379 -0.15062167
-0.41010413 -0.04877206 0.26250792 0.16765128 0.081553414 -0.6054345 -0.043496303 -0.4363029
-0.0005584136 -0.5818717 0.6339803 -0.043072775 -0.049121182 -0.32710174 0.3543317 -0.09051232
0.07021235 -0.6583489 0.063303865 -0.4303016 0.007552869 0.5517078 -0.9935068 -0.4913263
0.35136342 0.17926508 0.5235699 0.23533012 -0.038328897 0.6271843 0.61969256 -0.52681535
00000000: d2c9 863d 08fe 4e3f ba93 adbe 0574 50bf
00000010: dd5a 473d 2b35 013e 46e5 ed3e 3c0a 80be
00000020: cee8 e4ba 2d25 483f ec9c d0be 11f1 a1be
00000030: 7ad4 083e 861e d2be 82f0 513e bc1b 8dbf
00000040: 7e74 cbbe 40e2 21be 80d2 75bd 7054 093e
00000050: edf9 7f3d 0c68 3d3e 8c15 dd3e fc01 0bbf
00000060: a69c 1e3e 34fa 39bf ba90 b2be 1720 f6be
00000070: 8c72 ecbe 60c8 a43d a60a 95be d841 d4bd
00000080: c8da 16be f061 523d a09a 4abe 8cef 9b3e
00000090: f38d 6a3d 5b1c fdbe 58e8 51be 953d b6be
000000a0: f07a 7bbe 3a7c ddbe c6da a0be 320a 81be
000000b0: b4a2 0f3d 14e9 593e 6526 bc3d 5e94 5ebf
000000c0: b310 e23d 1857 53bf e82e 41be 40aa 943f
000000d0: 5d54 8c3e b200 adbe 36d3 16bf 6778 0f3f
000000e0: 0328 f0bd 15fe 18bf 4272 3a3f 1774 a03c
000000f0: 0a55 95be 0a7f c7be 3847 f23d d247 9b3e
00000100: f483 e73d 8645 fbbd d14b 80be 661c ae3f
00000110: bc6c 983d 5cc3 823e 2f67 fabe 3320 42be
00000120: b632 cf3b 489f 4c3f 1185 e3be 3cbd 7e3f
00000130: 203c 193e 09d1 a4be a119 a8be 9984 4fbf
00000140: 4fc7 c33d 3963 2dbf 7214 963e 1f20 14be
00000150: b3b3 b13d a323 1f3f eef5 abbc 7bfb f9bd
00000160: 1c13 f3be 9610 813e 4472 96be e8a4 cbbd
00000170: 3558 143e 118f 1e3f b6ba 953c 39dc 5abe
00000180: 3813 40be 841f 9bbe 40ed 4fbc c076 f0bd
00000190: acec 95be 38af 10be 40e9 1dbc 40d9 e83c
000001a0: 7baa 683d 262f 913e fa24 ebbd fb8f c03e
000001b0: ae32 c2be def4 af3e e2c9 143e d0e9 443f
000001c0: c8aa c8ba 6083 7ebf e442 513f 2004 22bf
000001d0: 5527 b53c c578 de3e 04fb 083f c71a db3e
000001e0: 9c38 18be 6cee c73e cc5d 5e3e 6eb8 693f
000001f0: 0e46 123e 1b79 1ebf 937d 99be 6141 48bf
00000200: 6670 563e 489c 9e3d df16 20bf d69a 473f
00000210: 248f b5ba ade8 623f c201 6fbe 54c8 1bc0
00000220: 8927 423e a2b4 f3bb 202c 72be 08a7 ccbf
00000230: 343e 46be 0529 af3e 5c88 093d 7f6b 8f3f
00000240: d37d 353e ea7e bcbd bced e1be 176a e6be
00000250: 7cd0 deba 2cd4 33bf e136 153f 7379 cabe
00000260: 2404 69be 748f f1be c0bf 94bd 703e 323e
00000270: dccf 72bd 9361 803e 4791 d6bd cf58 c03e
00000280: 466c b13d 296f 423f 09c8 82be c23f a1bf
00000290: d18f a0bc c400 48bb eb97 b73e d34d 7b3e
000002a0: 9c06 a73e d580 9ebe 6258 cc3e 688b cf3e
000002b0: 0c62 a83e 174a 7fbd b87f c33e 6663 bfbe
000002c0: d014 c03d a178 3ebf 17c3 9c3e 9eb6 05bf
000002d0: 719b 06bd 9fbf 423f ae7f c1bd c759 bc3e
000002e0: 080d e1bd cf9a 9d3e c5fa 3cbf 86c6 1b3f
000002f0: 004b a73b 2006 e9bc ece5 cbbe a42b 973e
00000300: 4e02 fbbe 08e4 dc3d c4ce 51be 4002 3e3e
00000310: cd60 c0bc a051 473e dc03 ecbe 0bcf 3dbf
00000320: ee44 9abe 18d5 f03e 9576 a93e 19cc 913f
00000330: e495 3bbe 8abe 1c3f f941 f53e c858 423e
00000340: 2756 f43d d903 013f eb61 01bf ffea 0b3f
00000350: db64 fc3b 5ab8 453f a02d 9cbf 20d5 46be
00000360: 8df7 20ba 1c15 153f dfc0 ffbe 5ef9 b33e
00000370: 9846 80be f690 9ebd 49cf 1c3f 913c 1abe
00000380: 2bf9 d1be 36c5 47bd 7067 863e c7ac 2b3e
00000390: 7a05 a73d c1fd 1abf 2e29 32bd 1863 dfbe
000003a0: 8162 12ba 8bf5 14bf 884c 223f 146d 30bd
000003b0: 4b33 49bd e179 a7be f76a b53e 865e b9bd
000003c0: 7ecb 8f3d 8e89 28bf 75a5 813d 7e50 dcbe
000003d0: 0f7e f73b b93c 0d3f 7656 7ebf 1f8f fbbe
000003e0: e8e5 b33e 4491 373e ad08 063f 61fa 703e
000003f0: c3fe 1cbd 268f 203f 2ca4 1e3f 5fdd 06bf

bias f4 [128]
0.22082222 0.46758497 0.43962848 -0.38326186 -0.18895108 0.31835672 -0.36277348 0.1724348
-0.08284032 -0.0759443 0.4450848 0.27163896 -0.15700017 -0.41438934 -0.19045343 -0.3279931
0.32312676 0.09453819 0.561043 -0.18536253 -0.48993534 0.62069315 -0.53248286 0.50360984
0.025768876 0.15250927 -0.078738324 0.013674889 -0.7356944 0.27950075 0.4167047 -0.76960194
0.3867656 0.6918922 0.044647094 0.39007053 0.22253527 -0.5376992 -0.3288496 0.5609119
0.007888105 0.26629147 -0.4944858 -0.48305452 -0.0035839244 -0.06194385 0.6088863 -0.4213314
0.007383704 -0.44037607 0.16220222 0.8066896 0.3817212 0.51837695 1.0105745 0.5098875
0.4840601 -0.26628903 -0.9698024 -0.24831262 -0.20941128 0.4254054 -0.34861684 -0.15860125
0.54734844 -0.7350837 0.9803163 -0.33538455 0.24335045 -0.7677003 0.6666093 -0.62036574
0.14065188 -0.013642428 -0.11001118 0.39545795 -0.60458237 -0.31746182 -0.3591099 -0.68196476
0.05959577 -0.46295327 -0.0819193 0.13144961 0.64316386 0.4580163 -0.37086558 0.16499195
-0.43263873 -0.8419628 -0.48950547 0.07997044 0.4528248 -0.20177698 0.75768864 -0.6878631
0.33625498 -0.5084105 -0.06447257 -0.19099855 -0.24130408 0.23098606 -0.107690275 -0.90418583
0.18306886 -0.5118353 -0.23811448 -0.23476756 0.55889815 0.50590223 -0.21447091 0.013629744
0.66258126 0.2699175 0.022549808 0.5743534 0.16517943 -0.37013894 -0.67118573 -0.16453856
-0.704693 0.035715017 0.44551608 0.47450387 0.0036932903 -0.23514685 0.14008349 0.01604878
00000000: 381f 623e 4c67 ef3e fc16 e13e e63a c4be
00000010: 647c 41be a7ff a23e 72bd b9be c092 303e
00000020: 30a8 a9bd af88 9bbd 28e2 e33e 4314 8b3e
00000030: a7c4 20be d72a d4be 3906 43be b6ee a7be
00000040: df70 a53e 3d9d c13d 84a0 0f3f adcf 3dbe
00000050: ced8 fabe bfe5 1e3f cc50 08bf 93ec 003f
00000060: 4019 d33c 642b 1c3e 8f41 a1bd a40c 603c
00000070: 7856 3cbf b91a 8f3e 525a d53e a204 45bf
00000080: 2406 c63e d91f 313f dfdf 363d 53b7 c73e
00000090: 49e0 633e a8a6 09bf fa5e a8be ec97 0f3f
000000a0: 1c3d 013c 5b57 883e 3e2d fdbe ec52 f7be
000000b0: 46e0 6abb d6b8 7dbd f9df 1b3f c0b8 d7be
000000c0: 00f3 f13b f978 e1be 5718 263e 3683 4e3f
000000d0: f670 c33e 5ab4 043f 815a 813f fd87 023f
000000e0: bad6 f73e 0957 88be f844 78bf aa45 7ebe
000000f0: e96f 56be bdce d93e e87d b2be 5e68 22be
00000100: 071f 0c3f 722e 3cbf 02f6 7a3f 86b7 abbe
00000110: dc30 793e 0288 44bf e8a6 2a3f 4ad0 1ebf
00000120: 0c07 103e 7e84 5fbc 8b4d e1bd 7779 ca3e
00000130: e9c5 1abf 5b8a a2be 41dd b7be 3e95 2ebf
00000140: b21a 743d 3608 edbe 4ec5 a7bd ba9a 063e
00000150: 63a6 243f 1d81 ea3e 18e2 bdbe a6f3 283e
00000160: d382 ddbe e08a 57bf 76a0 fabe 8bc7 a33d
00000170: a7d8 e73e a09e 4ebe e2f7 413f cc17 30bf
00000180: 9d29 ac3e 3127 02bf 320a 84bd 2095 43be
00000190: 6b18 77be 9c87 6c3e b88c dcbd b978 67bf
000001a0: 6776 3b3e a307 03bf 48d4 73be e866 70be
000001b0: f313 0f3f cf82 013f 439e 5bbe 4a4f 5f3c
000001c0: ed9e 293f a032 8a3e 60ba b83c d308 133f
000001d0: cc24 293e da82 bdbe d4d2 2bbf cc7c 28be
000001e0: c366 34bf e949 123d af1a e43e 2cf2 f23e
000001f0: 210b 723b 56ca 70be 0c72 0f3e bb78 833c

weight f4 [128, 128]
0.19669092 0.013914447 -0.8834453 0.12868473 0.076120056 0.13234082 -0.19017784 0.04410007
-0.001538232 -0.018711193 0.009516165 0.14427185 -0.09445297 -0.05872162 -0.41847423 -0.008490548
-0.083651036 -0.21632558 -0.06611584 -0.14092644 -0.05479737 0.14299834 -0.020116312 0.1450747
-0.041036848 -0.08294269 -0.004386099 0.25939012 0.45851323 0.015117747 -0.2554784 0.017006451
-0.10175274 0.074031405 0.082516186 -0.009815456 0.081926785 0.728646 -0.0859471 0.0038351142
0.12254174 0.065982684 -0.014337317 0.054059736 0.0138925 0.19465438 0.11302425 -0.06730869
0.021450609 0.062434968 0.043825164 0.03865519 0.011731483 0.9554214 -1.0056661 0.085365966
-0.17902 -0.14836347 0.60633403 0.0068134516 0.02072225 0.49089926 -0.0706618 0.19931771
-0.034350943 -0.055831563 0.5165799 -0.33404502 -1.0404623 -9.54097 0.38224852 -0.43800157
0.053134806 0.00021298796 0.08867213 0.024914023 0.0270705 0.08294217 -0.0754927 -0.028491937
0.007988865 -0.057842515 -0.053410724 0.025477277 0.42620006 0.34249607 -0.04823655 0.18420096
-0.0048668766 0.08357076 0.037659638 -0.05904657 0.029917944 0.06661945 0.020829346 -0.2507049
0.076854795 0.087256886 0.035505623 0.081255175 -0.7391652 0.44881755 0.056602128 0.06204281
0.12681592 -0.080701455 -0.05861493 -0.0114681795 0.12359931 -0.040682778 0.017032944 -0.03906696
0.086081915 0.056377027 0.055176996 -0.012250861 0.07210662 0.06793561 0.16440456 0.04850843
-0.04739981 0.058318548 0.57746613 0.1847966 0.030880911 0.02221434 0.028711978 0.9283527
0.2882828 0.14634123 0.34061828 -0.1612594 0.016839728 0.069047876 -0.24466465 0.06891685
0.025479533 0.0318506 0.050612383 0.17028596 -0.008953598 0.06558796 -1.3279892 0.076878436
0.01807453 -0.17088272 0.41844457 0.032969877 -0.469947 0.18445398 -0.28128514 0.23826174
-0.08043344 -0.034653928 0.034481198 0.21901421 -3.0192113 0.23239754 0.31977126 -0.17081492
0.12798405 0.42613763 0.13491067 0.30209136 0.15948737 -3.502651 0.05826997 0.21179186
0.27208135 0.07684935 0.008715703 -0.017327687 -0.5567282 0.48658994 -1.0193977 0.019316956
0.05482965 0.07905252 0.25228795 0.3618114 0.098284 -0.6505785 0.799843 0.017350947
0.06493492 -0.036375236 -3.8934646 0.11793375 -0.045223266 -0.9384149 0.12446826 0.26736656
0.0996269 -0.2110852 0.58135444 -0.5736884 0.4306851 -4.016285 0.13182235 -2.1582541
0.02431368 -0.4567182 0.16696116 0.12452265 -0.16644627 0.029003235 -0.04715514 0.036199868
0.06008082 0.05569703 -1.0227054 0.07244026 0.30092433 0.8812107 0.043934986 0.016221937
0.11097575 -0.38070336 -0.05304737 0.12168435 0.26526967 -0.057648376 0.25433835 -0.32838786
0.09887049 0.060817573 0.044971295 -0.07235244 -0.43542144 -1.0322728 0.06871221 -0.110299505
0.16678397 -0.85480493 0.025099874 0.13297465 0.30678532 0.7736975 0.10160517 -0.011221968
0.13274488 -0.038157593 -0.08653507 0.055165097 0.03554007 0.08487115 -1.8518384 0.022822281
-0.20055032 0.060712013 -0.7612488 -0.73873186 0.014866095 0.04972667 -0.026738958 -0.743175
00000000: 5869 493e 6cf9 633c 7929 62bf eec5 033e
00000010: d5e4 9b3d 5a84 073e fbbd 42be 46a2 343d
00000020: 809e c9ba 3748 99bc b0e9 1b3c 00bc 133e
00000030: 8f70 c1bd 1586 70bd 4142 d6be f01b 0bbc
00000040: 3c51 abbd 7484 5dbe be67 87bd 054f 10be
00000050: 3573 60bd 286e 123e f7ca a4bc 768e 143e
00000060: 4116 28bd dbdd a9bd 44b9 8fbb c8ce 843e
00000070: 3fc2 ea3e 6db0 773c 11ce 82be 1d51 8b3c
00000080: be63 d0bd c79d 973d 3ffe a83d 02d1 20bc
00000090: 3bc9 a73d 8b88 3a3f 0805 b0bd 8a56 7b3b
000000a0: 2af7 fa3d ee21 873d 11e7 6abc be6d 5d3d
000000b0: 5e9d 633c 7a53 473e 4279 e73d 23d9 89bd
000000c0: 30b9 af3c cfbb 7f3d 0482 333d e854 1e3d
000000d0: 6835 403c 7f96 743f abb9 80bf 5ad4 ae3d
000000e0: 0551 37be 98ec 17be b538 1b3f 6043 df3b
000000f0: b5c1 a93c 2657 fb3e 22b7 90bd f119 4c3e
00000100: 93b3 0cbd a3af 64bd 953e 043f f307 abbe
00000110: de2d 85bf d0a7 18c1 14b6 c33e be41 e0be
00000120: e2a3 593d 8555 5f39 bc99 b53d 7e18 cc3c
00000130: f4c2 dd3c 96dd a93d eb9b 9abd ec67 e9bc
00000140: bae3 023c 46ec 6cbd 34c5 5abd b9b5 d03c
00000150: e536 da3e a55b af3e b093 45bd 2d9f 3c3e
00000160: 527a 9fbb 2627 ab3d fe40 1a3d d1da 71bd
00000170: 7a16 f53c c76f 883d 4ea2 aa3c 655c 80be
00000180: 0c66 9d3d bdb3 b23d 586e 113d 1d69 a63d
00000190: ee39 3dbf 6acb e53e a2d7 673d 9a20 7e3d
000001a0: 08dc 013e ce46 a5bd 3516 70bd 08e5 3bbc
000001b0: a321 fd3d fca2 26bd ac88 8b3c ad04 20bd
000001c0: b74b b03d 99eb 663d 4601 623d d6b7 48bc
000001d0: a3ac 933d d321 8b3d ab59 283e c7b0 463d
000001e0: 4e26 42bd 6edf 6e3d d2d4 133f 523b 3d3e
000001f0: f7f9 fc3c d9fa b53c 6235 eb3c 86a8 6d3f
00000200: ce99 933e 7ada 153e 8565 ae3e 2f21 25be
00000210: 78f3 893c f968 8d3d 5f89 7abe 4724 8d3d
00000220: 74ba d03c c675 023d ee4e 4f3d 715f 2e3e
00000230: 1db2 12bc fb52 863d 8dfb a9bf 7172 9d3d
00000240: 0911 943c e1fb 2ebe 5e3e d63e 6c0b 073d
00000250: e59c f0be 81e1 3c3e 9b04 90be e3fa 733e
00000260: 4aba a4bd 47f1 0dbd 283c 0d3d 4345 603e
00000270: c23a 41c0 9ff9 6d3e 0fb9 a33e 1bea 2ebe
00000280: 400e 033e b62e da3e 0626 0a3e b8ab 9a3e
00000290: a850 233e 6f2b 60c0 7eac 6e3d f7df 583e
000002a0: 3f4e 8b3e 3163 9d3d 4fcc 0e3c cbf2 8dbc
000002b0: bd85 0ebf 5122 f93e a07b 82bf 983e 9e3c
000002c0: 0e95 603d 4ae6 a13d e32b 813e 583f b93e
000002d0: 1f49 c93d 508c 26bf 83c2 4c3f 9323 8e3c
000002e0: 99fc 843d 33fe 14bd 862e 79c0 4087 f13d
000002f0: 083c 39bd f53b 70bf 37e9 fe3d 45e4 883e
00000300: 3009 cc3d b826 58be a5d3 143f 3edd 12bf
00000310: c282 dc3e 6885 80c0 70fc 063e d620 0ac0
00000320: 7c2d c73c f8d6 e9be def7 2a3e bb05 ff3d
00000330: e470 2abe 3198 ed3c c025 41bd 5046 143d
00000340: 4e17 763d 9222 643d 03e8 82bf 8f5b 943d
00000350: c112 9a3e 0697 613f 2cf5 333d dee3 843c
00000360: 4147 e33d 8deb c2be 3348 59bd a535 f93d
00000370: 6dd1 873e b420 6cbd a338 823e 7422 a8be
00000380: 9d7c ca3d d91b 793d d233 383d 842d 94bd
00000390: 8fef debe 8421 84bf fdb8 8c3d b5e4 e1bd
000003a0: 6bc9 2a3e 7fd4 5abf 409e cd3c 822a 083e
000003b0: f712 9d3e 0a11 463f 5f16 d03d 58dc 37bc
000003c0: 46ee 073e 234b 1cbd 4c39 b1bd ccf4 613d
000003d0: 7792 113d edd0 ad3d 0a09 edbf cbf5 ba3c
000003e0: 105d 4dbe 29ad 783d 34e1 42bf 881d 3dbf
000003f0: ec90 733c 31ae 4b3d a90b dbbc b840 3ebf

bias f4 [128]
0.11989554 0.48192555 0.048061144 0.02657587 -0.097986564 0.0754999 0.12444928 0.121774405
0.4763854 0.07337965 0.08039809 -0.080789655 0.14363913 -0.07750392 -0.084295094 -0.029220376
0.11377272 0.033241592 0.11561655 -0.01366081 0.23334475 0.06635235 0.05782074 -0.024459606
-0.065177456 -0.05600543 0.019127607 0.0010386364 0.0063929707 0.124945946 -0.0111602815 -0.056879066
-0.012241836 -0.089214735 -0.09525604 -0.053940926 0.029906914 0.021901572 -0.04681191 0.24497978
-0.034940753 0.021222757 0.05002097 -0.118579336 -0.06825513 0.069745 -0.04401713 -0.04607759
0.06463876 -0.06891732 0.23619753 -0.097683646 0.029945066 -0.11075965 -0.17537764 0.4278071
-0.009171267 -0.008096928 -0.013402263 0.005382927 0.09409384 0.0070767696 -0.06695445 0.019445198
-0.015299208 0.12976632 -0.073051915 -0.092186935 -0.013628878 0.02837404 -0.10973627 0.17848407
-0.059513364 0.0823518 0.038446404 -0.2544847 0.019659057 -0.042616617 0.029880403 0.039430987
0.02883958 0.10803915 0.03156111 0.031491134 0.02535996 0.030911501 0.19723462 0.012936711
-0.02126775 0.008175534 0.02924892 0.034397878 -0.00339004 0.15006307 0.062275816 0.1630222
0.04765027 -0.06616714 -0.059147913 -0.035296973 -0.06302623 0.003526884 -0.06921913 0.03438672
0.10939148 0.024777029 0.038378667 0.1326205 -0.025039818 -0.08288307 0.002517218 0.019835854
0.013419443 0.06725836 -0.06277776 -0.008361675 -0.03490738 0.046040956 0.006279909 0.05551405
0.06411258 -0.032693464 0.09881449 -0.100561954 0.026211817 0.004835792 0.072359726 0.077399135
00000000: cb8b f53d f2be f63e c3db 443d a4b5 d93c
00000010: 2ead c8bd b19f 9a3d 44df fe3d dc64 f93d
00000020: cae8 f33e 1248 963d c1a7 a43d 0c75 a5bd
00000030: 2316 133e 60ba 9ebd e8a2 acbd 925f efbc
00000040: ac01 e93d 5628 083d 5fc8 ec3d 97d1 5fbc
00000050: edf1 6e3e bee3 873d 71d5 6c3d 835f c8bc
00000060: c27b 85bd f365 65bd 80b1 9c3c db22 883a
00000070: 207c d13b a9e3 ff3d 9dd9 36bc 06fa 68bd
00000080: fb91 48bc 37b6 b6bd 9915 c3bd 29f1 5cbd
00000090: 58ff f43c ed6a b33c d8bd 3fbd fbdb 7a3e
000000a0: 091e 0fbd 59db ad3c cae2 4c3d b9d9 f2bd
000000b0: 58c9 8bbd 77d6 8e3d 4e4b 34bd dbbb 3cbd
000000c0: 5461 843d 8624 8dbd c4dd 713e 5d0e c8bd
000000d0: 5b4f f53c f5d5 e2bd 3296 33be 8809 db3e
000000e0: 1543 16bc faa8 04bc 2a95 5bbc 4463 b03b
000000f0: 45b4 c03d 3fe4 e73b 6a1f 89bd 894b 9f3c
00000100: 88a9 7abc 76e1 043e 3e9c 95bd 81cc bcbd
00000110: a84b 5fbc ad70 e83c 69bd e0bd 87c4 363e
00000120: 49c4 73bd 0fa8 a83d fa79 1d3d d24b 82be
00000130: 080c a13c c38e 2ebd bfc7 f43c 6382 213d
00000140: fc40 ec3c a143 dd3d 3946 013d d9fc 003d
00000150: b1bf cf3c 1e3a fd3c dff7 493e 80f4 533c
00000160: b439 aebc adf2 053c 6e9b ef3c cae4 0c3d
00000170: 6f2b 5ebb 22aa 193e ed14 7f3d 4bef 263e
00000180: ee2c 433d a382 87bd 1545 72bd 8f93 10bd
00000190: e513 81bd 4b23 673b c2c2 8dbd 17d9 0c3d
000001a0: a408 e03d 32f9 ca3c f332 1d3d abcd 073e
000001b0: 4e20 cdbc 99be a9bd e9f7 243b cd7e a23c
000001c0: 39dd 5b3c c0be 893d a091 80bd 68ff 08bc
000001d0: 0afb 0ebd 7195 3c3d b2c7 cd3b b362 633d
000001e0: 754d 833d 95e9 05bd 405f ca3d 6df3 cdbd
000001f0: 2aba d63c 9075 9e3b 5631 943d 7083 9e3d

weight f4 [33, 128]
-0.9816413 0.5489659 -0.08370076 0.08407148 -0.03207642 0.17859739 0.11650285 0.2031956
0.5428017 -0.05043902 -0.09558258 0.049768176 0.21807669 -0.0621244 -0.010001697 0.02776701
0.030332997 -0.06300582 0.15994635 -0.08739317 0.16049239 0.22196719 0.11500362 0.027224043
0.030633226 0.12980422 0.026623338 -0.002069883 -0.0301814 0.1689672 0.19520505 0.08579875
0.04658913 -0.037146334 0.024833595 0.0399519 -0.036404517 -0.022708135 -0.05709055 0.31086063
0.033520304 -0.059702855 -0.08142206 -0.023158468 -0.054332767 0.18503967 0.018358046 0.15842299
0.00059451937 -0.038799092 0.23058721 -0.03331068 -0.054777723 0.00481287 0.3991159 0.44905648
0.060308337 0.08759288 0.026508756 0.11839134 0.15819739 0.22320649 0.036767833 -0.024598097
0.061593138 0.043684207 -0.06415476 -0.07192144 0.05343025 0.20571522 0.0021443889 0.17224331
0.029114423 0.19562823 -0.034172684 0.66956794 0.16341728 -0.031060424 0.08588437 0.004642181
-0.049926702 0.13150294 0.01679831 -0.6879694 -0.025298137 0.19461858 0.22361952 0.021664515
0.059836425 -0.04055883 -0.061357293 0.037752904 -0.014288127 0.15979932 0.15582633 -0.07446604
0.026520364 -0.007679872 0.008534633 -0.054582223 -0.011453641 0.005319413 -0.051894106 -0.06413657
-0.3474872 -0.08897813 -0.07743589 0.006939717 0.016403005 -0.009915168 -0.066962026 0.17430791
-0.018665366 0.23867686 0.029183783 -0.028008487 0.088809825 -0.06742047 0.10819626 -0.016522694
0.030018516 -0.011469983 -0.15410429 -0.001701218 0.072208814 -0.04046052 -0.03327261 -0.034657218
-0.699894 0.72225666 0.005923061 -0.08076584 -0.017292535 0.18865567 0.28602746 0.2334444
0.5535218 0.08752476 -0.24740943 0.017487444 0.19931626 -0.0026354392 0.082392834 -0.07716701
-0.15393594 0.04402942 0.20385839 0.006206386 0.26428226 0.18756521 0.15386994 0.084625855
0.023311235 0.22389217 -0.014880672 0.08421665 -0.08813265 -0.029929336 0.09557805 0.029480033
-0.021939501 -0.027316473 -0.038003583 -0.009562902 -0.015784413 0.01089161 -0.06658452 0.14654595
0.07455965 0.03252289 -0.04789101 0.014006896 -0.025899805 0.14369708 -0.0029649618 0.12231023
-0.00778708 -0.04704547 0.13906422 -0.07632449 -0.015753163 -0.0014386922 0.31478766 0.31745276
0.03936467 0.027512051 -0.058903202 0.17316797 0.25324693 0.16574265 0.0677978 0.013752547
0.073853485 0.013763971 0.021264276 -0.037636947 0.078066 0.1677133 -0.059360955 0.1512821
-0.032477804 0.1474365 -0.03142749 0.84490395 0.18552884 0.08559317 0.035029624 -0.007724397
-0.08508675 0.20460077 0.084839486 -0.4823956 0.053493913 0.22556274 0.16174182 0.030398674
-0.02832245 -0.05545182 0.070748895 0.08217055 0.03557288 0.19661218 0.13340576 -0.08363069
-0.4503811 -0.025580868 -0.06415956 0.081724726 0.02976033 -0.04293417 0.09145011 0.021838222
-0.4435495 0.023290765 0.06657145 0.14684895 0.0003131181 0.01322871 -0.048413068 0.20699438
0.06926126 0.22496584 -0.07368322 -0.03719497 -0.03781196 0.0033631176 0.05721537 -0.01915529
0.04696133 0.045718424 -0.20357853 0.053140987 -0.048603218 -0.027700394 0.08327281 0.025001638
00000000: d84c 7bbf 0789 0c3f 4e6b abbd ab2d ac3d
00000010: 9062 03bd 3ce2 363e 0c99 ee3d 8212 503e
00000020: 0df5 0a3f 2599 4ebd cdc0 c3bd b7d9 4b3d
00000030: 7f4f 5f3e 2876 7ebd 28de 23bc a477 e33c
00000040: e87c f83c 3209 81bd fac8 233e 31fb b2bd
00000050: 1e58 243e 5e4b 633e 0587 eb3d f504 df3c
00000060: 88f2 fa3c 66eb 043e 3019 da3c e0a6 07bb
00000070: fc3e f7bc bd05 2d3e d5e3 473e 41b7 af3d
00000080: 3ed4 3e3d c126 18bd d36f cb3c 9aa4 233d
00000090: e71c 15bd 6906 babc c8d7 69bd 2029 9f3e
000000a0: 964c 093d fb8a 74bd 9cc0 a6bd d4b6 bdbc
000000b0: 098c 5ebd 0a7b 3d3e 9d63 963c a339 223e
000000c0: 85d9 1b3a cceb 1ebd 0e1f 6c3e c870 08bd
000000d0: 9b5e 60bd 48b5 9d3b eb58 cc3e bbea e53e
000000e0: e005 773d e563 b33d e428 d93c 2977 f23d
000000f0: 7ffe 213e 3e90 643e de99 163d f381 c9bc
00000100: 1649 7c3d 36ee 323d 9263 83bd 8c4b 93bd
00000110: aed9 5a3d 03a7 523e e088 0c3b 8d60 303e
00000120: 5f81 ee3c c452 483e a8f8 0bbd ce68 2b3f
00000130: dc56 273e 6e72 febc 25e4 af3d 701d 983b
00000140: f17f 4cbd b5a8 063e 9c9c 893c c31e 30bf
00000150: 0a3e cfbc 184a 473e 84fc 643e c879 b13c
00000160: 0a17 753d 0421 26bd c951 7bbd caa2 1a3d
00000170: c018 6abc 6fa2 233e f090 1f3e a781 98bd
00000180: 3c41 d93c 70a7 fbbb d8d4 0b3c 9c91 5fbd
00000190: 0da8 3bbc 784e ae3b ea8e 54bd 095a 83bd
000001a0: d8e9 b1be 2a3a b6bd b596 9ebd 9166 e33b
000001b0: 985f 863c 3b73 22bc 6323 89bd c67d 323e
000001c0: 1ce8 98bc b567 743e d412 ef3c 0e72 e5bc
000001d0: ede1 b53d be13 8abd 0096 dd3d 9a5a 87bc
000001e0: 64e9 f53c 98ec 3bbc 84cd 1dbe 67fb deba
000001f0: 37e2 933d eeb9 25bd dc48 08bd baf4 0dbd
00000200: 412c 33bf d0e5 383f 3d16 c23b 9068 a5bd
00000210: 13a9 8dbc f42e 413e 3172 923e 0c0c 6f3e
00000220: 9bb3 0d3f 2e40 b33d e658 7dbe d441 8f3c
00000230: 9019 4c3e 55b7 2cbb 93bd a83d bd09 9ebd
00000240: 62a1 1dbe 3158 343d 41c0 503e f05e cb3b
00000250: 0150 873e 1811 403e 1590 1d3e 5250 ad3d
00000260: 34f7 be3c fd43 653e 10ce 73bc c779 ac3d
00000270: e47e b4bd 5e2e f5bc 6dbe c33d 1c80 f13c
00000280: 78ba b3bc ccc6 dfbc a5a9 1bbd b8ad 1cbc
00000290: 504e 81bc b972 323c 775d 88bd 2410 163e
000002a0: bbb2 983d b936 053d 5d29 44bd 2e7d 653c
000002b0: d42b d4bc 5425 133e ce4f 42bb c97d fa3d
000002c0: c32a ffbb c0b2 40bd da66 0e3e 0450 9cbd
000002d0: c70c 81bc 8092 bcba d92b a13e 2b89 a23e
000002e0: d93c 213d f460 e13c 7c44 71bd f252 313e
000002f0: 95a9 813e 71b8 293e 93d9 8a3d 5d52 613c
00000300: 7f40 973d 4782 613c 6b32 ae3c 3329 1abd
00000310: 11e1 9f3d 09bd 2b3e 7924 73bd b2e9 1a3e
00000320: 7207 05bd 98f9 163e 1dba 00bd a04b 583f
00000330: 46fb 3d3e 794b af3d 397b 0f3d f01c fdbb
00000340: f641 aebd dd82 513e 53c0 ad3d 8efc f6be
00000350: 6f1c 5b3d ebf9 663e a69f 253e a406 f93c
00000360: 7c04 e8bc 7321 63bd cce4 903d 0949 a83d
00000370: deb4 113d b454 493e 859b 083e 9146 abbd
00000380: 5a98 e6be f88e d1bc 1666 83bd 4b5f a73d
00000390: f0cb f33c bedb 2fbd 324a bb3d 12e6 b23c
000003a0: ec18 e3be 46cc be3c 9d56 883d 925f 163e
000003b0: 002a a439 3bbd 583c c84c 46bd 56f6 533e
000003c0: d9d8 8d3d 725d 663e 3ae7 96bd c159 18bd
000003d0: b7e0 1abd c067 5c3b aa5a 6a3d 8eeb 9cbc
000003e0: 865a 403d 3e43 3b3d e476 50be 5daa 593d
000003f0: 2b14 47bd f0eb e2bc ef8a aa3d 3cd0 cc3c

bias f4 [33]
0.16948332 0.13919604 0.21840215 0.102466196 -0.026238466 0.06421626 0.17355528 0.21733755
0.17614779 0.39047045 0.16291653 0.2349327 -0.017409323 0.10433978 0.04635764 0.0860407
0.16506422 0.023569416 0.3259714 0.107636325 0.22301163 0.15377836 0.0746525 0.0832225
0.0091705285 0.0050992137 0.1221988 0.08206897 0.08195254 0.16165762 0.108884975 0.15100034
0.17299399
00000000: 098d 2d3e 6889 0e3e d0a4 5f3e ccd9 d13d
00000010: 0df2 d6bc d183 833d 7ab8 313e bc8d 5e3e
00000020: 1660 343e beeb c73e 97d3 263e 3392 703e
00000030: ff9d 8ebc 18b0 d53d 82e1 3d3d 1b36 b03d
00000040: 9806 293e a614 c13c b9e5 a63e 6f70 dc3d
00000050: 295d 643e 1378 1d3e 69e3 983d 8f70 aa3d
00000060: fc3f 163c 4e17 a73b 5d43 fa3d c713 a83d
00000070: bcd6 a73d 9389 253e 16ff de3d d59f 1a3e
00000080: 5625 313e
