experiments/diff_reward_weights_data/kappa1_1_kappa2_1_kappa3_1.5/dqn_proposed_target_erf.pth (torch, 306152 bytes, 6 tensors)

weight f4 [256, 4]
-0.18809628 -0.22986591 -0.38821906 -0.39880955 -0.31232846 -0.48192942 -0.16833824 -0.4153806
0.10324058 -0.47181344 -0.26270473 -0.004679195 0.38887462 0.029542103 0.021369817 0.8060778
0.13508675 0.06895366 -0.44823092 0.4084076 -0.17890777 -0.0456564 0.05810055 0.5127647
-0.18228424 0.3232887 -0.04566111 -0.5477962 -0.37981653 0.41982007 -0.23117198 -0.4616083
-0.08984887 -0.20967756 0.5017967 0.3809475 -0.09586048 -0.042440176 -0.096933484 -0.47276795
0.4396992 0.0020211546 -0.31654805 -0.6716914 -0.45105562 0.03904879 0.060806572 0.017611146
0.24686386 -0.011842498 -0.0392491 -0.2798017 -0.10254872 -0.21002579 -0.1622451 -0.36669075
-0.009672713 0.4416472 -0.12069209 0.3130892 0.064146735 0.420139 -0.13860293 0.6153588
0.14225192 0.20571077 -0.42305085 0.34609473 0.17087789 0.19406314 -0.33325797 -0.22178717
0.13839045 -0.073551714 -0.27723208 -0.5870143 -0.050597608 -0.17300117 -0.3312332 0.073305905
-0.19078778 -0.21405302 0.15559211 0.47335052 0.0049956082 0.38038394 -0.2556109 0.2551672
0.48706636 -0.3209137 -0.2597544 -0.18385786 0.16056798 0.2581401 -0.49262595 -0.56972575
-0.35675552 0.4778223 -0.38558924 -0.29250747 0.23401643 0.11327575 -0.35385355 0.3048312
0.10374915 0.31382167 0.095412984 0.5555202 0.23834279 -0.22952597 -0.2775991 -0.5338024
-0.024946928 -0.4681979 0.03404385 0.39991373 0.15797018 -0.078276336 0.39626554 -0.3496775
0.07372939 -0.20929481 -0.47563717 -0.3912889 -0.48917806 -0.34425676 -0.4983877 -0.07071149
0.1863171 -0.3285608 -0.20181632 -0.32058033 -0.2695394 0.24151853 -0.30344957 0.18662561
0.3552738 0.4316639 0.2609903 0.26108104 -0.016897911 0.59399736 0.046801444 0.19116586
0.06422306 0.4759735 -0.23237866 0.64260423 -0.38757265 -0.024195433 -0.45139265 -0.0024769902
-0.17225178 0.67584056 0.21394736 0.06629488 -0.055282354 -0.025473595 -0.055143356 -0.4460433
0.426318 0.5182814 -0.045074996 -0.5329328 0.24711826 -0.14192283 0.21196583 -0.28821227
0.14463142 -0.26189896 -0.32841572 -0.44251963 -0.17318308 -0.26929003 -0.42087597 0.09235412
-0.45217964 -0.112127505 0.42897996 0.4994504 0.45304325 0.018177837 -0.14103532 0.23585834
0.02897424 0.1669141 0.10066136 0.29585007 0.1952649 -0.07073969 0.2899719 0.6340931
0.27643126 -0.46796107 0.51695865 -0.1289673 0.44840693 0.44100463 -0.258355 0.19649026
-0.2932108 0.4242128 -0.17581536 -0.25467047 0.38898146 -0.18085106 0.43306792 0.7111682
0.34299204 -0.13758354 -0.32413694 -0.2169934 -0.24661905 0.15053928 -0.35821062 0.11017855
0.377381 0.57651156 -0.3917387 -0.5503088 -0.06719279 0.30258656 0.11525885 -0.73923075
0.098377384 -0.2680013 0.20933649 0.014354792 0.06552761 -0.41499043 -0.0006611738 0.60622394
-0.041816354 -0.26488632 -0.39850873 -0.43797046 0.16289768 0.2731311 0.50128967 -0.5379085
0.42765212 -0.20927188 0.52200335 0.03466006 0.48850772 -0.44704324 0.45552617 0.044688847
0.41665813 0.4312845 -0.54731447 0.43587065 -0.3797527 0.3757064 -0.14374538 0.051620703
00000000: 509c 40be f861 6bbe a6c4 c6be c430 ccbe
00000010: 84e9 9fbe 74bf f6be dc60 2cbe c4ac d4be
00000020: cc6f d33d 8891 f1be 3c81 86be ef53 99bb
00000030: 931a c73e 4802 f23c c10f af3c 1d5b 4e3f
00000040: 2e54 0a3e 9437 8d3d 867e e5be cd1a d13e
00000050: 9933 37be 3502 3bbd d8fa 6d3d 8c44 033f
00000060: b8a8 3abe 1986 a53e 2507 3bbd 5f3c 0cbf
00000070: 5077 c2be a8f2 d63e 59b8 6cbe ec57 ecbe
00000080: af02 b8bd b7b5 56be c075 003f 8d0b c33e
00000090: 8052 c4bd c0d5 2dbd 1085 c6bd a40e f2be
000000a0: 4120 e13e 5975 043b 9612 a2be f8f3 2bbf
000000b0: c3f0 e6be a0f1 1f3d 5010 793d 4045 903c
000000c0: e1c9 7c3e 0907 42bc aac3 20bd 2b42 8fbe
000000d0: 1005 d2bd 0011 57be 9423 26be e4be bbbe
000000e0: 4c7a 1ebc 951f e23e 6a2d f7bd 3a4d a03e
000000f0: 5d5f 833d 761c d73e eded 0dbe 2888 1d3f
00000100: 7daa 113e d8a5 523e 1f9a d8be 5433 b13e
00000110: 9dfa 2e3e 7db8 463e caa0 aabe 2d1c 63be
00000120: 3ab6 0d3e 48a2 96bd 5df1 8dbe 9246 16bf
00000130: 703f 4fbd 3827 31be 6697 a9be 6821 963d
00000140: df5d 43be b730 5bbe 8a53 1f3e 005b f23e
00000150: 33b2 a33b afc1 c23e 6fdf 82be 46a5 823e
00000160: c360 f93e cd4e a4be 87fe 84be 3c45 3cbe
00000170: ef6b 243e f02a 843e 7839 fcbe 8cd9 11bf
00000180: a9a8 b6be 20a5 f43e f46b c5be 8ac3 95be
00000190: 01a2 6f3e 1efd e73d 4b2c b5be d612 9c3e
000001a0: 6f7a d43d 3cad a03e e267 c33d 9236 0e3f
000001b0: 2210 743e db08 6bbe 7821 8ebe 46a7 08bf
000001c0: 805d ccbc a3b7 efbe 9071 0b3d 7ec1 cc3e
000001d0: efc2 213e 584f a0bd 51e3 ca3e ee08 b3be
000001e0: 6fff 963d 6151 56be b786 f3be 0557 c8be
000001f0: 8c75 fabe 6c42 b0be ac2c ffbe 30d1 90bd
00000200: e9c9 3e3e 1f39 a8be f0a8 4ebe 1b23 a4be
00000210: 1101 8abe a250 773e be5d 9bbe c91a 3f3e
00000220: 73e6 b53e 0d03 dd3e 85a0 853e 6aac 853e
00000230: 7d6d 8abc 3610 183f dfb2 3f3d fcc0 433e
00000240: 6187 833d ccb2 f33e acf4 6dbe b681 243f
00000250: ec6f c6be 8035 c6bc f01c e7be 0055 22bb
00000260: c562 30be e303 2d3f 0415 5b3e 9cc5 873d
00000270: c06f 62bd 00ae d0bc 00de 61bd ca5f e4be
00000280: 5a46 da3e 17ae 043f 8fa0 38bd 496e 08bf
00000290: 920c 7d3e 3854 11be 920d 593e 8f90 93be
000002a0: 421a 143e 9f17 86be 1b26 a8be ef91 e2be
000002b0: e856 31be 62e0 89be 0e7d d7be 2824 bd3d
000002c0: 1784 e7be 1ba3 e5bd 43a3 db3e f6b7 ff3e
000002d0: 49f5 e73e b0e9 943c 906b 10be d984 713e
000002e0: 635b ed3c 88eb 2a3e 8b27 ce3d a979 973e
000002f0: 86f3 473e f8df 90bd 3277 943e ed53 223f
00000300: 6688 8d3e 9898 efbe 6757 043f 0110 04be
00000310: 9895 e53e 5ccb e13e 1b47 84be be34 493e
00000320: ba1f 96be 6c32 d93e f108 34be 2b64 82be
00000330: 9428 c73e 0531 39be 14bb dd3e 1f0f 363f
00000340: a79c af3e b3e2 0cbe 47f5 a5be 8533 5ebe
00000350: b489 7cbe f826 1a3e 6267 b7be 4ba5 e13d
00000360: 1538 c13e 4396 133f fa91 c8be 0ae1 0cbf
00000370: 609c 89bd a0ec 9a3e d50c ec3d 3a3e 3dbf
00000380: 157a c93d 7737 89be 4e5c 563e 5d30 6b3c
00000390: 5733 863d a079 d4be 9f52 2dba 7e31 1b3f
000003a0: a047 2bbd 2e9f 87be 5609 ccbe aa3d e0be
000003b0: a6ce 263e d7d7 8b3e 8554 003f 5fb4 09bf
000003c0: 38f5 da3e 5e4b 56be 03a2 053f b5f7 0d3d
000003d0: af1d fa3e dae2 e4be ba3a e93e a70b 373d
000003e0: 3754 d53e 52d1 dc3e cd1c 0cbf 702a df3e
000003f0: f26e c2be 975c c03e fd31 13be 3b70 533d

bias f4 [256]
0.14944613 -0.32581133 0.51425564 0.040059477 -0.34946212 0.30426612 0.08719646 0.4580343
-0.47587013 -0.40518382 -0.34153038 -0.016087353 0.2117821 0.4811749 0.1642189 0.5787346
-0.47880337 -0.43484178 -0.3357133 0.15112734 0.024864215 -0.22394563 -0.1524327 0.35665733
-0.25859958 -0.036748867 0.2607201 -0.37576827 -0.0026673079 -0.5613084 0.3768674 0.36533028
0.34428003 0.4764728 -0.20745671 0.32063302 0.06856128 0.37982446 0.67125946 -0.30484372
0.05447758 -0.4872789 0.19825658 -0.085642755 0.3030123 -0.24220967 0.3911488 0.38131434
-0.2321722 0.082619384 -0.08285534 0.31726342 0.55857444 -0.21289611 -0.23897058 0.16101076
-0.30210412 0.33695668 0.006767869 -0.14495762 -0.2215494 0.20812115 -0.33802497 0.43447435
-0.0011841806 0.14264388 -0.28398022 0.11884422 0.3447358 -0.28892452 0.3531504 -0.49825472
-0.3578893 0.1343906 0.0688943 0.40770596 0.29498386 -0.066136725 0.52620983 -0.45906222
-0.2116336 -0.39848465 0.16720866 -0.016245635 0.554867 0.035831176 0.3367274 0.48986
0.091374815 0.23167807 0.0907929 -0.0078370785 0.14532907 -0.42310002 -0.35054925 -0.14388591
-0.4046097 0.549343 0.42622134 0.5807483 -0.19721758 0.3045702 -0.16070144 -0.5050103
-0.23139557 -0.37742716 0.07246283 0.34727216 -0.43900532 -0.409725 0.045955647 -0.024736611
-0.5508768 0.11053554 -0.36447746 0.010680086 -0.044771094 -0.50286674 0.4465198 -0.052139483
-0.3218593 -0.134928 -0.2291348 -0.3872341 0.26474777 0.041125953 -0.3597583 0.587062
0.3098029 0.51990765 -0.2792247 -0.47202587 -0.04715535 0.44423944 0.28308865 -0.35754117
-0.20047814 -0.3036608 -0.3468045 0.58013785 0.20158613 -0.14175512 -0.13449305 0.062120184
-0.22266024 -0.100303195 0.19742972 0.30657357 -0.21389616 0.07550125 0.42445385 -0.26512927
-0.39448506 -0.20966035 -0.04349169 0.36412922 0.52961916 -0.19358367 -0.54404384 0.6127649
-0.18717307 -0.3017646 0.36476898 -0.19794364 -0.46073657 -0.36717594 -0.18801522 -0.021356128
-0.4003722 -0.22700906 0.36912543 -0.04473704 -0.18560104 0.220368 0.1414623 0.52078134
-0.08641487 0.3518846 0.47884816 0.5204473 0.37166747 0.038415544 -0.18459101 0.133458
-0.22744209 0.44900328 0.42281955 0.23925202 0.41797173 0.34990722 -0.30295086 -0.25675163
0.4964674 0.43107224 0.55756414 0.10878393 0.5569827 0.17652562 0.08391488 -0.048578326
0.22487228 -0.018179849 -0.3052191 0.28734326 -0.5359883 -0.21106982 0.11753772 0.05503204
0.46057838 0.5198664 0.3426931 0.3116692 -0.17897224 0.2691361 -0.11016025 0.27307153
-0.1599833 0.013987872 -0.079348326 -0.24286303 0.44984144 0.2658101 0.36079827 0.158506
0.19250071 0.27272376 -0.05284173 0.26197132 -0.24535613 -0.18923646 -0.36042947 -0.21118721
0.013170968 -0.50239074 0.14287494 -0.0764319 0.16140969 0.6038934 -0.12924334 -0.4276322
0.35739207 -0.31772387 0.028448131 0.3700055 0.2959227 -0.14345099 0.15100637 0.52385926
0.26260296 0.367433 -0.39818096 -0.008380046 -0.49086842 -0.48853293 0.5406613 0.05235714
00000000: 6808 193e bed0 a6be 42a6 033f 6815 243d
00000010: b3ec b2be c5c8 9b3e 0f94 b23d 7983 ea3e
00000020: 40a5 f3be 4174 cfbe 12dd aebe a0c9 83bc
00000030: 68dd 583e 8e5c f63e 0029 283e f327 143f
00000040: b725 f5be 95a3 debe 9de2 abbe 20c1 1a3e
00000050: 0ab0 cb3c 0152 65be 5117 1cbe ca9b b63e
00000060: 2a67 84be fb85 16bd 1b7d 853e b364 c0be
00000070: 00ce 2ebb e8b1 0fbf c4f4 c03e 920c bb3e
00000080: 7945 b03e 3ef4 f33e 886f 54be 032a a43e
00000090: db69 8c3d 5a78 c23e a9d7 2b3f 7a14 9cbe
000000a0: e223 5f3d 9f7c f9be c603 4b3e 7865 afbd
000000b0: 6e24 9b3e d005 78be a844 c83e a23b c33e
000000c0: 8dbe 6dbe 5a34 a93d 0fb0 a9bd 5a70 a23e
000000d0: bcfe 0e3f 7001 5abe b4b4 74be 01e0 243e
000000e0: 64ad 9abe 9685 ac3e 00c5 dd3b c56f 14be
000000f0: d9dd 62be b61d 553e 9c11 adbe 6c73 de3e
00000100: 8236 9bba 3d11 123e db65 91be 9964 f33d
00000110: 3681 b03e eaed 93be 21d0 b43e 3e1b ffbe
00000120: 443d b7be b09d 093e 7418 8d3d d6be d03e
00000130: 2008 973e b172 87bd b0b5 063f 340a ebbe
00000140: 7ab6 58be 2e06 ccbe bf38 2b3e 9115 85bc
00000150: c40b 0e3f b6c3 123d 8967 ac3e eece fa3e
00000160: b822 bb3d 043d 6d3e a1f1 b93d 1767 00bc
00000170: 25d1 143e 91a0 d8be 317b b3be d456 13be
00000180: 0129 cfbe bea1 0c3f af39 da3e ecab 143f
00000190: 68f3 49be a0f0 9b3e eb8e 24be 5b48 01bf
000001a0: f6f2 6cbe 223e c1be 6467 943d a8cd b13e
000001b0: 4ec5 e0be 7ac7 d1be fd3b 3c3d 6fa4 cabc
000001c0: 4306 0dbf 7560 e23d ca9c babe 87fb 2e3c
000001d0: e561 37bd e0bb 00bf 3e9e e43e 3690 55bd
000001e0: beca a4be 912a 0abe 50a2 6abe 8c43 c6be
000001f0: 058d 873e b073 283d 3d32 b8be b249 163f
00000200: 7c9e 9e3e ab18 053f 8af6 8ebe 60ad f1be
00000210: f825 41bd 5a73 e33e fff0 903e a30f b7be
00000220: 244a 4dbe 6e79 9bbe 5c90 b1be ea83 143f
00000230: 986c 4e3e 4128 11be 8cb8 09be bc71 7e3d
00000240: 0c01 64be c36b cdbd 042b 4a3e 36f7 9c3e
00000250: 9807 5bbe 66a0 9a3d 0452 d93e 06bf 87be
00000260: f2f9 c9be 34b1 56be 5824 32bd 256f ba3e
00000270: 1f95 073f cc3a 46be 7546 0bbf 29de 1c3f
00000280: 4caa 3fbe e480 9abe 00c3 ba3e bdb1 4abe
00000290: aae5 ebbe 7cfe bbbe 1087 40be 0cf3 aebc
000002a0: 96fd ccbe 1075 68be 02fe bc3e 303e 37bd
000002b0: 330e 3ebe 26a8 613e 7edb 103e ed51 053f
000002c0: 48fa b0bd 382a b43e 962b f53e 093c 053f
000002d0: 334b be3e 9e59 1d3d 6d05 3dbe 37a9 083e
000002e0: 94e6 68be c2e3 e53e ce7b d83e 7bfe 743e
000002f0: 6400 d63e 0a27 b33e 601c 9bbe f374 83be
00000300: fa30 fe3e 80b5 dc3e 86bc 0e3f 1cca de3d
00000310: 6b96 0e3f 22c3 343e 91db ab3d 11fa 46bd
00000320: eb44 663e e8ed 94bc ae45 9cbe a81e 933e
00000330: 8736 09bf b022 58be 9eb7 f03d 4769 613d
00000340: eed0 eb3e f715 053f 7875 af3e 1b93 9f3e
00000350: 8044 37be 35cc 893e b29b e1bd 08d0 8b3e
00000360: aad2 23be 632d 653c 6081 a2bd 16b1 78be
00000370: 9e51 e63e 4318 883e 8dba b83e 664f 223e
00000380: e81e 453e 73a2 8b3e 9270 58bd 1b21 863e
00000390: a33e 7bbe 34c7 41be 368a b8be 7641 58be
000003a0: 0bcb 573c ae9c 00bf cf4d 123e 5488 9cbd
000003b0: 9548 253e c298 1a3f 5e58 04be 9cf2 dabe
000003c0: 18fc b63e b4ac a2be 0e0c e93c 5c71 bd3e
000003d0: 2e83 973e d1e4 12be 6aa1 1a3e a41b 063f
000003e0: e573 863e 2e20 bc3e 60de cbbe 764c 09bc
000003f0: 1b53 fbbe fd20 fabe c768 0a3f 7174 563d

weight f4 [256, 256]
-0.04221735 0.027950048 -0.15390885 -0.045322645 -0.031443346 0.033384915 -0.09553148 0.005241535
0.11009825 -0.030444287 -0.028160142 -0.012631379 0.031294033 0.04190225 -0.24772586 -0.045857802
-0.12837887 -0.064257875 -0.115358196 -0.033896238 0.09602062 -0.041997097 0.02230265 -0.23717317
0.04842845 -0.068080656 0.017443856 -0.006120232 -0.0007775873 0.028083235 -0.004488729 -0.042648047
-0.0046168347 -0.016419418 -0.0025788208 -0.048025906 -0.093218096 0.015638657 -0.12656821 0.0066596344
0.004128647 0.08277548 -0.16101573 0.060780518 -0.036243342 -0.04394053 0.009287214 -0.028180169
0.05025279 -0.03882292 0.0048891227 -0.003049471 -0.045360107 -0.000789091 -0.092309 -0.18359543
0.020856645 0.07646466 -0.04983844 0.03327562 -0.032010462 0.0020620727 -0.034466814 -0.033128347
-0.0033764306 -0.017086659 0.031140175 -0.08671358 0.05411712 -0.12046187 0.050211865 0.0012096316
-0.025837697 0.01975286 -0.019924788 -0.013613951 0.029982671 0.06148301 -0.05392152 -0.05361367
0.08068552 -0.03834352 0.11240476 0.05835677 0.05701376 0.0023106835 -0.19160117 -0.08546882
0.061312653 -0.05087664 0.034852047 0.039509732 0.024446571 0.010044618 0.012516288 -0.03238245
0.02391308 -0.07432417 -0.06845372 -0.14146373 0.045684334 -0.054679416 0.05265204 0.02818279
-0.036465116 0.054569446 -0.108975574 -0.06484059 0.09650049 0.030567167 -0.027558513 0.06944978
0.13875373 0.05313354 0.03948272 0.0073242933 -0.058416627 0.056082923 -0.0035461485 -0.019152258
-0.026618376 -0.016649175 0.21073976 0.007759236 -0.026501907 -0.040704444 0.03364636 -0.026311262
0.030684663 -0.06436298 -0.05933123 -0.015383684 0.35055336 -0.0007375239 -0.0048940657 0.034992434
-0.021506816 0.07052706 0.09064779 -0.08858054 -0.03333027 0.21808495 0.05596174 0.054302257
-0.00027098073 0.08438793 0.10546181 -0.071408674 -0.014790146 0.064077295 -0.10037807 0.04916863
-0.002760522 0.049214974 0.018032586 -0.008045238 -0.04282447 -0.22678065 -0.03574643 -0.11184028
0.17462143 0.033425532 -0.017008327 -0.05796313 0.006096432 -0.020229908 -0.101222984 0.09401106
0.009893933 -0.037544116 0.045248777 -0.039886348 -0.006550487 0.047147855 0.035203576 -0.062821776
0.0584035 -0.0598496 -0.040343422 0.050360143 0.00439866 -0.037804503 0.024301192 0.014702525
0.09710279 0.042523872 -0.0089461645 0.026752073 -0.039197914 -0.017975457 -0.048461996 0.0067220177
0.037620228 -0.06987154 -0.015468841 0.040625557 -0.32101345 -0.03149554 0.035758406 -0.023422845
0.08040999 0.011816695 0.05816157 0.028419137 0.32891488 0.0126828775 0.09185544 0.0012980077
-0.031179002 -0.07892971 -0.27905393 0.051443584 0.010437198 0.046438396 -0.005896 -0.044456214
0.07323872 -0.05736746 0.0022481382 0.032749992 -0.41168195 -0.03977775 0.008694237 0.034055334
0.20085679 -0.09474324 -0.11256711 0.022960952 -0.16375035 0.05205458 -0.04283827 -0.008251008
-0.031863555 0.056576967 0.11160416 0.015683431 -0.043615814 -0.28570592 0.07787908 0.058638513
0.0014755538 0.0028717592 -0.04978672 -0.0064466596 -0.056344256 -0.009987833 0.016629864 -0.10212281
-0.029384226 -0.044714756 0.006700639 0.044462066 0.1524516 0.06432837 0.047780428 0.08882626
00000000: 1aec 2cbd 80f7 e43c 489a 1dbe 3da4 39bd
00000010: bdca 00bd 9fbe 083d 02a6 c3bd 2fc1 ab3b
00000020: 317b e13d 4c66 f9bc 19b0 e6bc d8f3 4ebc
00000030: 2c2e 003d b2a1 2b3d d9ab 7dbe 64d5 3bbd
00000040: c075 03be a299 83bd eb40 ecbd c8d6 0abd
00000050: 75a6 c43d 2605 2cbd 0cb4 b63c 86dd 72be
00000060: e95c 463d df6d 8bbd 6be6 8e3c 3a8c c8bb
00000070: 00d7 4bba d00e e63c 3016 93bb b8af 2ebd
00000080: d148 97bb 0482 86bc 6f01 29bb d0b6 44bd
00000090: 21e9 bebd a41c 803c 199b 01be 1039 da3b
000000a0: 9a49 873b 3186 a93d 4fe1 24be fef4 783d
000000b0: e673 14bd fcfa 33bd 6629 183c 19da e6bc
000000c0: dfd5 4d3d c804 1fbd ef34 a03b a2d9 47bb
000000d0: 85cb 39bd 00db 4eba 800c bdbd 7100 3cbe
000000e0: 8edb aa3c 8199 9c3d 6423 4cbd 044c 083d
000000f0: 671d 03bd d723 073b 132d 0dbd 97b1 07bd
00000100: 1b47 5dbb 52f9 8bbc ae19 ff3c e496 b1bd
00000110: eaa9 5d3d b7b4 f6bd f5aa 4d3d 808c 9e3a
00000120: 94a9 d3bc c0d0 a13c 4f39 a3bc 0d0d 5fbc
00000130: 389e f53c 9cd5 7b3d d0dc 5cbd 029a 5bbd
00000140: 733e a53d 180e 1dbd 7834 e63d 8207 6f3d
00000150: 4387 693d d66e 173b 1933 44be 470a afbd
00000160: fa22 7b3d 0664 50bd 05c1 0e3d f5d4 213d
00000170: 2d44 c83c 2e92 243c 1e11 4d3c 76a3 04bd
00000180: 5de5 c33c 4537 98bd 7731 8cbd dedb 10be
00000190: 7f1f 3b3d 86f7 5fbd aaa9 573d 98df e63c
000001a0: 725c 15bd 3684 5f3d 962e dfbd 25cb 84bd
000001b0: 0da2 c53d ff67 fa3c 64c2 e1bc b03b 8e3d
000001c0: 7515 0e3e 8ea2 593d a2b8 213d a000 f03b
000001d0: 4646 6fbd 35b7 653d 8066 68bb 32e5 9cbc
000001e0: c80e dabc da63 88bc 2acc 573e 3041 fe3b
000001f0: 871a d9bc b4b9 26bd c4d0 093d b78a d7bc
00000200: 675e fb3c bdd0 83bd 4e05 73bd d90b 7cbc
00000210: bb7b b33e 6456 41ba 665e a0bb 3a54 0f3d
00000220: 102f b0bc 7e70 903d 8ca5 b93d b769 b5bd
00000230: 5285 08bd a951 5f3e 2338 653d 0b6c 5e3d
00000240: 6b12 8eb9 94d3 ac3d 5dfc d73d b63e 92bd
00000250: 5e52 72bc f53a 833d 0493 cdbd 0c65 493d
00000260: e0e9 34bb a495 493d 13b9 933c 2dd0 03bc
00000270: b668 2fbd 3039 68be d96a 12bd 840c e5bd
00000280: f6cf 323e 36e9 083d 0c55 8bbc bf6a 6dbd
00000290: 94c4 c73b 31b9 a5bc ff4d cfbd df88 c03d
000002a0: 2a1a 223c dcc7 19bd c856 393d de5f 23bd
000002b0: 78a5 d6bb 1c1e 413d a031 103d b4a8 80bd
000002c0: 8238 6f3d db24 75bd 253f 25bd 7046 4e3d
000002d0: a222 903b e5d8 1abd 4b13 c73c dce2 703c
000002e0: d4dd c63d 832d 2e3d ef92 12bc 2a27 db3c
000002f0: fe8d 20bd 4441 93bc 1680 46bd 5f44 dc3b
00000300: ab17 1a3d cf18 8fbd 0671 7dbc fc66 263d
00000310: e05b a4be 7801 01bd 6877 123d 44e1 bfbc
00000320: fead a43d d09a 413c d43a 6e3d 40cf e83c
00000330: 8867 a83e d8cb 4f3c b41e bc3d e921 aa3a
00000340: 1b6b ffbc e6a5 a1bd 28e0 8ebe 82b6 523d
00000350: c800 2b3c 3036 3e3d 3c33 c1bb b817 36bd
00000360: 2ffe 953d 24fa 6abd 8055 133b db24 063d
00000370: fac7 d2be feed 22bd 4672 0e3c 9b7d 0b3d
00000380: 67ad 4d3e be08 c2bd 9689 e6bd 9b18 bc3c
00000390: 2cae 27be 2f37 553d 2f77 2fbd 3c2f 07bc
000003a0: 5c83 02bd 40bd 673d b990 e43d 8a7a 803c
000003b0: 7fa6 32bd 0c48 92be 117f 9f3d f02e 703d
000003c0: 5f67 c13a 2034 3c3b 29ed 4bbd 803e d3bb
000003d0: 3cc9 66bd 02a4 23bc 5a3b 883c c425 d1bd
000003e0: 30b7 f0bc d226 37bd 0991 db3b db1d 363d
000003f0: 461c 1c3e 98be 833d 69b5 433d 8bea b53d

bias f4 [256]
-0.043331746 -0.057452895 0.08982708 0.06571366 0.026592825 0.016432524 0.05253571 0.059707265
-0.08560764 -0.03688451 -0.010227074 0.023445519 0.050160203 0.046900745 -0.058004595 -0.052790646
-0.08004686 0.00985723 0.017776012 -0.019387871 -0.007842466 -0.0137372315 -0.036095865 0.0652517
-0.038479783 -0.0400137 0.012822497 0.042428132 -0.07601612 -0.06466435 -0.041374832 0.050618917
0.029282484 0.05134842 -0.033202376 -0.05124832 -0.02836505 -0.0037743514 -0.029337283 0.007897229
-0.013867974 -0.05494777 -0.01968464 -0.05717008 -0.051671498 0.07335399 0.04358098 0.010988406
-0.056247346 0.016624942 -0.02602154 0.020582292 -0.12319784 0.06513006 -0.03601726 -0.017312907
-0.011200398 0.04754278 0.027280385 -0.058369767 -0.037023574 -0.1203594 0.007012593 0.047475517
0.046958447 -0.0294211 0.032066897 0.0891942 -0.019925095 -0.007201226 0.035068795 -0.024344724
0.027273152 0.0543203 -0.037482888 -0.03194477 0.064695366 0.006745793 0.09065227 0.02585952
-0.0184566 0.055473387 0.017832953 0.019715223 0.023298424 0.019979706 0.06100718 0.056863975
0.048015635 0.055323843 0.03376834 -0.035406783 0.06314591 0.018488819 0.05508431 -0.014742535
-0.013783552 0.015600242 0.054019205 -0.043546103 -0.027207464 -0.025773928 -0.03115534 -0.03915247
-0.06462725 0.058333717 -0.03837537 -0.015132796 -0.008316067 -0.022362009 -0.0345947 0.07133239
0.0019538233 0.04740995 -0.036089938 0.043234307 -0.049962524 -0.04944917 -0.019635726 -0.07038054
0.03414437 -0.002870595 -0.10052377 0.051448435 0.040661164 0.06179439 -0.000974566 -0.020899924
0.048466414 -0.039018594 0.0053413184 -0.032768805 -0.03275954 0.011205681 -0.028276846 -0.028066989
0.01908885 0.034373358 0.0743373 -0.032181628 -0.0074513718 -0.04430586 -0.0066534216 0.014419987
0.051909994 -0.008273189 -0.029777206 -0.02674904 0.05741723 -0.011967318 -0.0906854 -0.009545327
-0.03861677 0.011463761 0.00109895 -0.02171164 -0.0016847664 0.024016038 -0.036033653 -0.041529574
-0.008030898 -0.083708555 -0.04302137 -0.019141808 0.0703417 -0.046491694 0.03769364 0.05351267
0.0072777197 -0.03328215 -0.007934597 -0.053503983 0.004019805 -0.028024629 0.009572343 -0.02216656
-0.02815691 -0.01818283 -0.050062254 -0.004908651 -0.013096049 -0.0396273 -0.03799346 -0.058335576
-0.055315524 -0.017177124 0.03624556 0.003316792 -0.05495829 -0.0054577054 -0.015284044 -0.038308438
-0.047114205 -0.06024973 0.010031834 0.0031779783 0.022813268 -0.05329565 0.07271963 -0.04042323
-0.03147334 0.062687874 -0.041351594 0.0007684408 0.0015142582 -0.00909051 0.0065470072 -0.0063667246
-0.058988914 0.033072036 -0.0016793363 0.010485461 0.047842093 -0.03756319 0.060248263 0.046689384
-0.055606492 0.04084138 0.14459404 0.027974613 0.042061515 -0.0071080006 -0.04806082 -0.01716783
0.06929104 -0.009430302 0.057951164 0.060389824 0.06259309 0.04383516 -0.041845128 -0.04111456
0.0021014682 -0.0115345325 -0.046195067 0.070404686 0.01310238 0.08005213 0.05487115 -0.00017311412
0.07470026 -0.058070287 0.058012165 0.08339317 -0.060610518 -0.03167375 0.046625122 0.024740616
0.078047596 0.015105781 -0.012718372 -0.022629084 0.017600194 0.06175758 -0.033658765 0.04292991
00000000: a17c 31bd ba53 6bbd 43f7 b73d e294 863d
00000010: 32d9 d93c 809d 863c af2f 573d 9b8f 743d
00000020: 0f53 afbd 3614 17bd 758f 27bc d110 c03c
00000030: c974 4d3d ff1a 403d 3a96 6dbd 013b 58bd
00000040: 9cef a3bd 3880 213c 009f 913c 50d3 9ebc
00000050: b07d 00bc 2012 61bc 42d9 13bd afa2 853d
00000060: fa9c 1dbd 68e5 23bd 7315 523c 1fc9 2d3d
00000070: 57ae 9bbd be6e 84bd a878 29bd c855 4f3d
00000080: d2e1 ef3c b952 523d 37ff 07bd c2e9 51bd
00000090: d25d e8bc 1c5b 77bb be54 f0bc 6163 013c
000000a0: 8036 63bc ea10 61bd af41 a1bc 2c2b 6abd
000000b0: 7ea5 53bd 9e3a 963d f881 323d b708 343c
000000c0: 9e63 66bd 0831 883c 202b d5bc 329c a83c
000000d0: 264f fcbd e962 853d d686 13bd ccd3 8dbc
000000e0: e081 37bc 38bc 423d 1d7b df3c 2315 6fbd
000000f0: 08a6 17bd fd7e f6bd e5c9 e53b b075 423d
00000100: 8057 403d 8504 f1bc 9458 033d 73ab b63d
00000110: f439 a3bc 43f8 ebbb 4ca4 0f3d 966e c7bc
00000120: f26b df3c f77e 5e3d a887 19bd 85d8 02bd
00000130: 017f 843d d00b dd3b e6a7 b93d 58d7 d33c
00000140: 4c32 97bc 1038 633d 6a16 923c d281 a13c
00000150: 56dc be3c 7bac a33c aae2 793d 33ea 683d
00000160: 0bac 443d 419b 623d ac50 0a3d b406 11bd
00000170: a552 813d dd75 973c 16a0 613d ac8a 71bc
00000180: 68d4 61bc 2898 7f3c 3e43 5d3d 665d 32bd
00000190: 30e2 debc d823 d3bc 7c39 ffbc 575e 20bd
000001a0: 4b5b 84bd 56ef 6e3d 7e2f 1dbd 8cef 77bc
000001b0: 1d40 08bc 8830 b7bc 2cb3 0dbd b716 923d
000001c0: b70b 003b f030 423d 0bd3 13bd 7516 313d
000001d0: 81a5 4cbd 368b 4abd 1adb a0bc ac23 90bd
000001e0: f8da 0b3d 9820 3cbb 68df cdbd 98bb 523d
000001f0: 528c 263d 1d1c 7d3d 047a 7fba 5136 abbc
00000200: b884 463d f6d1 1fbd 3a06 af3b 9538 06bd
00000210: de2e 06bd 0898 373c d8a4 e7bc beec e5bc
00000220: 3860 9c3c 14cb 0c3d 283e 983d e2d0 03bd
00000230: a32a f4bb 107a 35bd f204 dabb cf41 6c3c
00000240: 939f 543d 458c 07bc 54ef f3bc cd20 dbbc
00000250: 542e 6b3d 9212 44bc 44b9 b9bd 0164 1cbc
00000260: 9e2c 1ebd 80d2 3b3c a50a 903a 9cdc b1bc
00000270: 61d3 dcba 48bd c43c 0698 13bd ea1a 2abd
00000280: 0794 03bc 646f abbd 2d37 30bd 48cf 9cbc
00000290: 4f0f 903d 136e 3ebd a564 1a3d 1a30 5b3d
000002a0: f079 ee3b dd52 08bd 1d00 02bc fe26 5bbd
000002b0: 92b8 833b e893 e5bc 51d5 1c3c a596 b5bc
000002c0: 52a9 e6bc 29f4 94bc 140e 4dbd c0d8 a0bb
000002d0: d090 56bc 3c50 22bd 089f 1bbd 49f1 6ebd
000002e0: 8892 62bd 0ab7 8cbc 3976 143d 895e 593b
000002f0: f21b 61bd 8dd6 b2bb ed69 7abc 4fe9 1cbd
00000300: d3fa 40bd 6cc8 76bd 905c 243c a145 503b
00000310: e4e2 ba3c 8a4c 5abd 08ee 943d d492 25bd
00000320: 30ea 00bd 8062 803d 4a60 29bd 3071 493a
00000330: 137a c63a 5df0 14bc 4788 d63b f59f d0bb
00000340: 5c9e 71bd 8b76 073d 2d1d dcba 36cb 2b3c
00000350: 12f6 433d dcdb 19bd e2c6 763d 5e3d 3f3d
00000360: a2c3 63bd 4a49 273d 7610 143e 042b e53c
00000370: b248 2c3d 3bea e8bb 6cdb 44bd 8da3 8cbc
00000380: 76e8 8d3d 8e81 1abc 335e 6d3d 525b 773d
00000390: ce30 803d 7f8c 333d cc65 2bbd be67 28bd
000003a0: c9b8 093b 56fb 3cbc 0a37 3dbd 5530 903d
000003b0: 5dab 563c 5ff2 a33d 92c0 603d f885 35b9
000003c0: 73fc 983d 1cdb 6dbd 2a9e 6d3d 0aca aa3d
000003d0: bc42 78bd 56bc 01bd fcf9 3e3d d5ac ca3c
000003e0: 6bd7 9f3d 3d7e 773c b860 50bc a160 b9bc
000003f0: 482e 903c 84f5 7c3d c6dd 09bd 46d7 2f3d

weight f4 [33, 256]
0.08462469 0.04843143 0.09076545 -0.0044491696 -0.061894834 -0.032306146 0.13621056 0.041102234
0.08255844 0.019667082 0.048958838 0.07799836 -0.034377083 -0.07091391 0.04205978 -0.012241694
0.02842209 -0.054727178 0.025629975 0.0095171705 -0.04190248 0.0038165674 0.03830362 -0.0811944
0.06558426 0.042330123 -0.023976654 0.12239246 0.051140796 0.023189966 0.013197271 0.012629211
-0.03111118 0.053770177 0.06557653 -0.008146204 0.040946964 0.056234628 0.014101234 -0.015247389
-0.021366306 -0.04507552 0.0044702133 -0.039004765 -0.003984928 0.102445886 -0.001345504 -0.028884068
-0.057320543 0.015073404 0.031313032 -0.024018753 0.15882608 0.010212594 0.042895384 0.021207519
0.051987484 -0.061220028 0.047102645 0.018389354 -0.036877 0.048802678 0.02184564 0.05394039
0.05349932 0.05066091 0.0036564097 0.10395716 -0.102236584 -0.03766059 -0.020492308 0.02269295
-0.045189254 -0.020935131 -0.03441669 -0.0032374486 0.05862153 0.050871953 -0.04312076 -0.031011216
0.0034966774 0.06135904 -0.041444134 -0.0049469494 -0.040853534 0.087926745 0.0035819113 0.08225478
0.05604759 -0.037345715 -0.04811108 0.041581966 -0.02145078 -0.049116034 0.03883274 0.10825478
0.044402897 0.0106885955 0.041360784 -0.019557692 -0.028868742 0.015328554 -0.025921019 -0.058158636
0.0052786055 -0.021952897 -0.024526032 -0.12013872 0.06064228 0.062467135 -0.006196484 -0.079140075
-0.017822487 0.047773544 0.003479765 0.113514304 0.05474492 0.03821402 -0.0148673905 0.07363485
-0.008814514 0.052507646 0.18624145 0.05057399 0.09950502 0.00073004427 0.03801368 -0.07910989
-0.0066970773 -0.03910979 -0.028845768 0.020634837 0.058726385 0.03282801 0.036693152 0.07241365
0.050410867 0.01942865 0.025018241 -0.025261717 -0.024154698 -0.04600884 0.04765051 -0.017437804
0.04770948 -0.052086458 0.033795856 0.08763528 -0.043253824 -0.018122917 0.1918775 -0.039122898
0.048987985 0.06755157 0.059167832 0.035804294 0.043161534 0.05763837 -0.040292278 0.014289252
0.017371548 0.110930175 -0.029520134 0.015496143 0.061318364 0.07414838 -0.040774472 0.10906863
0.020994425 -0.013904566 -0.04525643 0.015098617 0.051644184 0.06149461 0.06827194 0.052088164
0.06297684 -0.057545267 0.026427224 0.052721493 -0.02206169 0.04597278 0.0066105495 0.17829607
0.042865947 -0.056482967 0.10974623 0.028219342 0.06636524 0.060606092 0.007868496 0.07116459
0.0587624 0.064426385 0.047633916 -0.03711746 0.009239443 -0.03013239 -0.020090686 -0.0045067947
0.06247539 0.18605344 -0.043506697 -0.020043014 0.07437069 0.037735544 0.008622617 0.01984592
0.0066025034 0.01393818 0.051106647 0.036635067 -0.01564422 -0.014438457 -0.034708053 -0.012843121
-0.025033789 -0.03349822 0.08144964 0.018218026 0.027301118 0.00023921579 0.06174652 -0.021535365
-0.0035418798 0.040089116 -0.0068133716 0.05395536 -0.046818316 0.027893849 0.018943459 -0.046789356
-0.012214779 -0.03709238 0.037725314 0.04197897 -0.07738857 0.046002783 0.018911138 -0.057089753
-0.026466142 -0.033653755 0.021022879 0.08768082 -0.0061298385 0.0495688 0.044844452 0.10067568
0.087479584 -0.035889916 0.1205633 -0.018305307 -0.027385874 0.059165604 0.04777722 0.055594422
00000000: b64f ad3d 0960 463d 3ce3 b93d 57ca 91bb
00000010: 7085 7dbd 7353 04bd c87a 0b3e d15a 283d
00000020: 6614 a93d dc1c a13c 1089 483d 9bbd 9f3d
00000030: fcce 0cbd 503b 91bd e046 2c3d 6391 48bc
00000040: 71d5 e83c 9b29 60bd f4f5 d13c e8ed 1b3c
00000050: efa1 2bbd 601f 7a3b 42e4 1c3d 4049 a6bd
00000060: 0a51 863d 5a62 2d3d b06a c4bc e6a8 fa3d
00000070: 0379 513d e2f8 bd3c 5e39 583c c0ea 4e3c
00000080: e0dc febc 1e3e 5c3d fd4c 863d a877 05bc
00000090: 01b8 273d 4856 663d dd08 673c 2fd0 79bc
000000a0: 6408 afbc 1ca1 38bd de7a 923b 76c3 1fbd
000000b0: 0094 82bb 26cf d13d 9f5b b0ba 489e ecbc
000000c0: f2c8 6abd 70f6 763c 1842 003d fac2 c4bc
000000d0: 4ea3 223e b952 273c 12b3 2f3d 64bb ad3c
000000e0: d4f0 543d dac1 7abd b4ee 403d 45a5 963c
000000f0: 560c 17bd 51e5 473d a1f5 b23c 99f0 5c3d
00000100: 1a22 5b3d d081 4f3d 60a0 6f3b 7ee7 d43d
00000110: 6a61 d1bd fe41 1abd 7cdf a7bc 91e6 b93c
00000120: 5e18 39bd 2780 abbc 84f8 0cbd 602b 54bb
00000130: 211d 703d 1c5f 503d 659f 30bd 3c0b febc
00000140: 8328 653b 9e53 7b3d 53c1 29bd 051a a2bb
00000150: 0956 27bd f012 b43d 80be 6a3b 3275 a83d
00000160: 2892 653d d2f7 18bd 2010 45bd da51 2a3d
00000170: 8cb9 afbc e52d 49bd 140f 1f3d afb4 dd3d
00000180: d0df 353d 381f 2f3c ed69 293d 7437 a0bc
00000190: 247e ecbc 9e24 7b3c 5158 d4bc c037 6ebd
000001a0: 27f8 ac3b 90d6 b3bc d1ea c8bc 4a0b f6bd
000001b0: 0a64 783d 8add 7f3d e00b cbbb 3114 a2bd
000001c0: 7700 92bc 31ae 433d c50c 643b 307a e83d
000001d0: 363c 603d 4e86 1c3d 5b96 73bc decd 963d
000001e0: c06a 10bc 4212 573d 14b6 3e3e ac26 4f3d
000001f0: 4ac9 cb3d 7160 3f3a 3cb4 1b3d 5e04 a2bd
00000200: 2873 dbbb 9631 20bd f64d ecbc 640a a93c
00000210: 148b 703d aa76 063d 8f4b 163d 9c4d 943d
00000220: a07b 4e3d d528 9f3c 0ef3 cc3c a9f1 cebc
00000230: 13e0 c5bc c473 3cbd 2e2d 433d bad9 8ebc
00000240: 046b 433d 9c58 55bd 866d 0a3d 207a b33d
00000250: ec2a 31bd 8376 94bc 897b 443e 553f 20bd
00000260: a0a7 483d 7a58 8a3d f859 723d 86a7 123d
00000270: 26ca 303d 3616 6c3d 8409 25bd 781d 6a3c
00000280: c74e 8e3c 5c2f e33d 35d4 f1bc 89e3 7d3c
00000290: f728 7b3d 1bdb 973d 2203 27bd 605f df3d
000002a0: 80fc ab3c facf 63bc ce5e 39bd 3160 773c
000002b0: da88 533d c6e1 7b3d 29d2 8b3d 665a 553d
000002c0: 00fa 803d 96b4 6bbd e87d d83c 7ef2 573d
000002d0: b8ba b4bc f44d 3c3d 4f9d d83b 3f93 363e
000002e0: 3494 2f3d af5a 67bd a2c2 e03d 402c e73c
000002f0: 80ea 873d 183e 783d ddea 003c bebe 913d
00000300: d8b0 703d fbf1 833d c81b 433d 7a08 18bd
00000310: 0861 173c 34d8 f6bc 3995 a4bc bcad 93bb
00000320: 32e6 7f3d cb84 3e3e 1434 32bd 3f31 a4bc
00000330: a94f 983d 9690 1a3d e145 0d3c e993 a23c
00000340: d059 d83b f75c 643c 3455 513d a70e 163d
00000350: 4f28 80bc 478f 6cbc 082a 0ebd f46b 52bc
00000360: a913 cdbc 6e35 09bd 12cf a63d f83d 953c
00000370: 98a6 df3c 00d6 7a39 ebe9 7c3d ef6a b0bc
00000380: e21e 68bb 7c34 243d b442 dfbb 4c00 5d3d
00000390: 90c4 3fbd a481 e43c 502f 9b3c 32a6 3fbd
000003a0: 7f20 48bc 2eee 17bd dc85 1a3d 24f2 2b3d
000003b0: e67d 9ebd 6a6d 3c3d 88eb 9a3c f2d6 69bd
000003c0: 86cf d8bc 85d8 09bd 2c38 ac3c 0092 b33d
000003d0: d0dc c8bb a708 4b3d d1ae 373d 0d2f ce3d
000003e0: 7f28 b33d 4e01 13bd e4e9 f63d 03f5 95bc
000003f0: 5758 e0bc a257 723d 0cb2 433d fab6 633d

bias f4 [33]
0.05422445 -0.049764816 0.083940685 0.042971194 -0.024394594 0.05591206 0.06122515 0.042039115
0.08072844 0.018956464 -0.015088511 0.024395894 0.050073028 0.06279023 0.0275192 0.061421078
-0.052782252 0.057667624 0.04258014 0.015678309 -0.026641404 0.030591846 0.06443253 0.05630456
0.015886504 -0.018005528 0.046246175 -0.04147817 -0.030859752 0.008437456 0.03177253 0.07395404
-5.3557458e-05
00000000: 751a 5e3d 31d6 4bbd 18e9 ab3d 9002 303d
00000010: 2cd7 c7bc 0b04 653d 39c7 7a3d 3531 2c3d
00000020: f454 a53d 964a 9b3c cd35 77bc e6d9 c73c
00000030: 6019 4d3d 2a98 803d f26f e13c ab94 7b3d
00000040: 3432 58bd e334 6c3d 8368 2e3d cc6f 803c
00000050: 133f dabc c09b fa3c 34f5 833d 9c9f 663d
00000060: 6a24 823c 5480 93bc a16c 3d3d 03e5 29bd
00000070: 97cd fcbc 413d 0a3c ea23 023d 3775 973d
00000080: e2a2 60b8
