experiments/diff_kappa_data/kappa1_1_kappa2_0.5_kappa3_1/rainbow_dqn_target_sse.pth (torch, 352338 bytes, 13 tensors)

weight f4 [256, 4]
-0.18809628 -0.22986591 -0.38821906 -0.39880955 -0.31232846 -0.48192942 -0.16833824 -0.4153806
0.1744918 0.39519057 0.5958856 0.9189928 0.42135334 0.8578388 0.75993687 1.2802093
0.20235266 0.887912 0.4638256 1.1469933 -0.23663056 -0.13156271 0.0034660697 0.40887862
0.01025779 1.1665803 0.7704277 0.3991296 -0.16249126 1.3113137 0.7180068 0.5586561
-0.039346017 0.7235056 1.2340746 0.9957029 -0.09586048 -0.042440176 -0.096933484 -0.47276795
0.5180802 0.7906637 0.43297887 0.30633822 -0.45105562 0.03904879 0.060806572 0.017611146
0.3089643 0.84842587 0.74522746 0.56734514 -0.10254872 -0.21002579 -0.1622451 -0.36669075
0.03748659 1.1500913 0.69153476 1.0534409 0.12290294 1.2250439 0.66621387 1.2266798
0.21722078 1.0670017 0.4363575 1.2881541 0.268458 1.0629336 0.5308279 0.8055942
0.21222445 0.77839905 0.56522924 0.41172367 -0.050597608 -0.17300117 -0.3312332 0.073305905
-0.019218389 0.7054167 0.96896654 1.2580243 0.027613461 1.1358283 0.4047371 0.9689949
0.5649502 0.49786085 0.45219266 0.48906556 0.19951811 1.0153117 0.3265536 0.45824957
-0.27793032 1.2701792 0.3125794 0.5045596 0.3085187 0.9188883 0.44714728 1.1147727
0.15526061 1.1515015 0.866054 1.121395 0.32651743 0.6526558 0.5420016 0.46212626
-0.024946928 -0.4681979 0.03404385 0.39991373 0.22804727 0.91214633 1.1640918 0.41348004
0.13271314 0.5629567 0.64083415 0.50651103 -0.48917806 -0.34425676 -0.4983877 -0.07071149
0.25161865 0.558074 0.5813941 0.652216 -0.035875715 1.1232159 0.5511597 1.1651809
0.39098307 1.2410487 1.0209645 0.89584583 0.042557854 1.3588426 0.85901815 0.8967957
0.12485668 1.2411084 0.5860454 1.3305442 -0.38757265 -0.024195433 -0.45139265 -0.0024769902
-0.13573286 1.400735 0.97964185 0.8466657 -0.055282354 -0.025473595 -0.055143356 -0.4460433
0.500258 1.3377303 0.7424894 0.51711684 0.33205712 0.88223004 0.9953593 0.5610538
0.21861754 0.5891199 0.5054105 0.57410383 -0.17318308 -0.26929003 -0.42087597 0.09235412
-0.252956 0.87400883 1.301342 1.3057896 0.5158675 0.86755955 0.5980845 0.9028002
0.08885733 0.97130233 0.8978952 0.99670005 0.23724087 0.7977013 1.0482538 1.1516317
0.3263058 0.42412198 1.2490319 0.49877885 0.5135187 1.2801166 0.51971525 0.8989461
-0.2890493 1.177158 0.5069287 0.5182988 0.42763013 0.6898439 1.1516168 1.2034237
0.41936916 0.60212827 0.470811 0.65612906 -0.24661905 0.15053928 -0.35821062 0.11017855
0.4517664 1.3100432 0.41688243 0.37002045 -0.014562364 1.0922965 0.8883935 0.37966785
0.15856566 0.67442405 0.97439474 0.74976635 0.12847002 0.50405174 0.76769626 1.1920272
-0.041816354 -0.26488632 -0.39850873 -0.43797046 0.22320788 1.1521583 1.291598 0.5083823
0.50278324 0.7580264 1.2769297 0.7746631 0.5557989 0.42393002 1.203152 0.9223936
0.48812878 1.1742563 0.26523998 1.2515348 -0.20611927 1.2428913 0.7320014 1.0254672
00000000: 509c 40be f861 6bbe a6c4 c6be c430 ccbe
00000010: 84e9 9fbe 74bf f6be dc60 2cbe c4ac d4be
00000020: faad 323e 6b56 ca3e f58b 183f 1d43 6b3f
00000030: a0bb d73e 539b 5b3f 398b 423f e6dd a33f
00000040: 8935 4f3e 334e 633f 8d7a ed3e add0 923f
00000050: 484f 72be 60b8 06be 0027 633b 8a58 d13e
00000060: 4a10 283c 8152 953f c03a 453f b75a cc3e
00000070: 1c64 26be 21d9 a73f 4bcf 373f 1604 0f3f
00000080: 4a29 21bd aa37 393f 28f6 9d3f 63e6 7e3f
00000090: 8052 c4bd c0d5 2dbd 1085 c6bd a40e f2be
000000a0: e7a0 043f f068 4a3f 68af dd3e 5dd8 9c3e
000000b0: c3f0 e6be a0f1 1f3d 5010 793d 4045 903c
000000c0: 9230 9e3e 7032 593f 3ac7 3e3f 883d 113f
000000d0: 1005 d2bd 0011 57be 9423 26be e4be bbbe
000000e0: 8a8b 193d 3136 933f 6c08 313f 27d7 863f
000000f0: 89b4 fb3d 3dce 9c3f fe8c 2a3f d803 9d3f
00000100: 206f 5e3e 8393 883f 406a df3e 3ce2 a43f
00000110: 5473 893e 350e 883f 56e4 073f 6c3b 4e3f
00000120: 5e51 593e 2945 473f ddb2 103f 72cd d23e
00000130: 703f 4fbd 3827 31be 6697 a9be 6821 963d
00000140: e26f 9dbc 3096 343f 310e 783f f106 a13f
00000150: a035 e23c d262 913f b339 cf3e 0d10 783f
00000160: 94a0 103f 9ee7 fe3e cc85 e73e cd66 fa3e
00000170: 7a4e 4c3e bcf5 813f 0932 a73e b09f ea3e
00000180: e24c 8ebe 3b95 a23f 680a a03e d12a 013f
00000190: 2af6 9d3e 433c 6b3f 7df0 e43e dfb0 8e3f
000001a0: a3fc 1e3e 6764 933f b7b5 5d3f df89 8f3f
000001b0: 4b2d a73e 7314 273f 9ec0 0a3f d09b ec3e
000001c0: 805d ccbc a3b7 efbe 9071 0b3d 7ec1 cc3e
000001d0: 3985 693e 6c82 693f f600 953f a8b3 d33e
000001e0: f4e5 073e ee1d 103f b50d 243f b5aa 013f
000001f0: 8c75 fabe 6c42 b0be ac2c ffbe 30d1 90bd
00000200: 29d4 803e f0dd 0e3f 3ed6 143f a1f7 263f
00000210: 6af2 12bd 8ac5 8f3f cd18 0d3f a624 953f
00000220: ef2e c83e afda 9e3f f7ae 823f 2756 653f
00000230: 2551 2e3d 8eee ad3f 9de8 5b3f 6794 653f
00000240: dcb4 ff3d a4dc 9e3f 1207 163f 464f aa3f
00000250: ec6f c6be 8035 c6bc f01c e7be 0055 22bb
00000260: 8efd 0abe 494b b33f cfc9 7a3f 15bf 583f
00000270: c06f 62bd 00ae d0bc 00de 61bd ca5f e4be
00000280: e910 003f bf3a ab3f c913 3e3f c561 043f
00000290: 6403 aa3e d4d9 613f decf 7e3f 39a1 0f3f
000002a0: 47dd 5f3e 90d0 163f 9562 013f 78f8 123f
000002b0: e856 31be 62e0 89be 0e7d d7be 2824 bd3d
000002c0: 7383 81be 0bbf 5f3f 6092 a63f 1d24 a73f
000002d0: e40f 043f 6218 5e3f 111c 193f ea1d 673f
000002e0: d5fa b53d 45a7 783f 76dc 653f bc27 7f3f
000002f0: 45ef 723e 2736 4c3f 2e2d 863f ab68 933f
00000300: 8e11 a73e 8426 d93e 47e0 9f3f f15f ff3e
00000310: f675 033f dcda a33f 0f0c 053f 5521 663f
00000320: 45fe 93be 1dad 963f 14c6 013f 3baf 043f
00000330: 56f2 da3e 9c99 303f 2e68 933f ca09 9a3f
00000340: 8eb7 d63e 1425 1a3f 240e f13e 13f8 273f
00000350: b489 7cbe f826 1a3e 6267 b7be 4ba5 e13d
00000360: ed4d e73e 7faf a73f 9d71 d53e 5273 bd3e
00000370: fb96 6ebc 5fd0 8b3f c26d 633f d363 c23e
00000380: 095f 223e 0ea7 2c3f ef71 793f b0f0 3f3f
00000390: a58d 033e 8909 013f be87 443f 5994 983f
000003a0: a047 2bbd 2e9f 87be 5609 ccbe aa3d e0be
000003b0: 9b90 643e ec79 933f 1553 a53f 5825 023f
000003c0: 67b6 003f 050e 423f 6f72 a33f 5250 463f
000003d0: d648 0e3f 5b0d d93e e200 9a3f fd21 6c3f
000003e0: 04ec f93e 084e 963f 89cd 873e 4b32 a03f
000003f0: ee10 53be 1017 9f3f 7264 3b3f 8242 833f

bias f4 [256]
0.14944613 -0.32581133 1.3807222 0.86150205 0.4690655 0.21815592 0.99241775 1.4291503
0.45682776 -0.40518382 0.44668427 -0.016087353 1.0713445 0.4811749 0.86138874 1.3733305
0.3872124 0.4424152 0.51572746 0.15112734 0.94390345 0.54867357 0.665785 1.1171743
0.5719604 0.7698026 1.0883033 0.5058807 -0.0026673079 0.4298669 1.1485769 0.36533028
1.2303827 1.432645 0.5993186 1.0768616 0.82451385 0.37982446 1.3862311 -0.30484372
0.8747976 0.5366997 1.0487455 -0.085642755 1.289254 0.60719 1.1882929 1.2443306
0.65937907 0.9193864 0.7168515 1.1856542 1.2977828 -0.21289611 0.49314308 0.95779467
0.63980526 1.2554699 0.006767869 0.73492366 0.74566346 1.0785621 0.40175894 1.3611699
0.873621 0.99928254 0.52828264 0.97992766 0.3447358 0.59979105 1.135252 -0.49825472
0.6401474 0.1343906 0.91638196 1.2586926 1.249993 0.8473082 1.308001 -0.45906222
0.73603314 0.5243502 1.1341428 0.9044691 1.4045551 0.94154376 1.1102465 1.330232
0.091374815 1.0208167 1.0184486 0.92868066 0.9444659 0.5433201 0.50157833 -0.14388591
0.46523026 1.3208904 1.2460668 1.3236383 0.75990844 1.1737845 0.6907449 0.3580009
0.5380167 0.46859547 0.97037065 1.1557362 0.46869102 0.48113558 0.94612634 0.8439132
0.42082492 1.0109502 -0.36447746 1.0133582 0.69808334 0.3864767 0.4465198 0.83811444
0.49467066 0.87104595 0.760496 -0.3872341 1.0562983 0.041125953 0.5206432 1.3487949
1.2456456 1.3240267 0.44229266 0.44906884 0.95425564 1.221363 1.1399071 0.51375
-0.20047814 0.5113251 0.54044 1.3050652 0.20158613 0.77697074 -0.13449305 0.99184394
0.7043868 0.7610228 1.1749163 1.125104 0.72535086 0.87969476 1.1314528 -0.26512927
-0.39448506 -0.20966035 0.70646036 1.1298681 1.3293803 0.49559823 0.36397648 1.3558404
0.863092 0.59437835 1.3298037 0.75445646 0.33421168 0.51248163 0.734675 0.90020007
0.50787085 -0.22700906 0.36912543 0.7515419 0.6056956 1.1326852 0.9684031 1.3330793
-0.08641487 1.107289 1.262624 1.2475414 1.1205144 0.76781887 0.6194403 0.9685036
0.74639404 1.2796832 1.1961775 1.0797025 1.404764 0.34990722 -0.30295086 0.5481883
1.4114158 1.2315087 1.355035 1.0029912 1.2503424 0.9952118 1.0494728 0.9376317
1.1017623 0.7902676 0.67411935 0.28734326 0.43094113 -0.21106982 0.9969927 0.8737081
1.28877 1.4099486 1.0671829 1.306092 -0.17897224 0.2691361 0.7544371 1.041496
0.7225042 0.8144863 -0.079348326 0.5374274 1.1655278 1.2519026 1.2822092 0.9891661
1.1758202 1.0189474 0.8877769 1.1841594 0.6202221 0.6866476 -0.36042947 0.61997736
0.7930342 0.43718678 1.0915673 0.7286724 1.1112702 1.2785828 0.8424042 -0.4276322
1.1457739 0.47199446 0.7690564 0.3700055 0.2959227 0.6795835 1.0372229 1.2259562
1.2468904 0.367433 0.46438476 0.9180805 0.40855157 0.4563706 1.471249 1.0874424
00000000: 6808 193e bed0 a6be 81bb b03f 668b 5c3f
00000010: 5a29 f03e 4464 5f3e 170f 7e3f 66ee b63f
00000020: 54e5 e93e 4174 cfbe cdb3 e43e a0c9 83bc
00000030: d121 893f 8e5c f63e f983 5c3f 4bc9 af3f
00000040: b440 c63e 3f84 e23e b706 043f 20c1 1a3e
00000050: a8a3 713f df75 0c3f e370 2a3f 91ff 8e3f
00000060: ff6b 123f c811 453f 864d 8b3f 6681 013f
00000070: 00ce 2ebb 8417 dc3e 9104 933f 920c bb3e
00000080: 2e7d 9d3f e960 b73f f26c 193f 9ad6 893f
00000090: 5713 533f 5a78 c23e 0570 b13f 7a14 9cbe
000000a0: bcf2 5f3f 2765 093f 4b3d 863f 7865 afbd
000000b0: 4606 a53f ce70 1b3f fb19 983f 3a46 9f3f
000000c0: 11cd 283f e85c 6b3f 9483 373f 84c3 973f
000000d0: bf1d a63f 7001 5abe 407d fc3e 0832 753f
000000e0: 47ca 233f 3db3 a03f 00c5 dd3b f523 3c3f
000000f0: cde3 3e3f 530e 8a3f 59b3 cd3e d13a ae3f
00000100: a0a5 5f3f fbd0 7f3f 883d 073f 8adc 7a3f
00000110: 3681 b03e e88b 193f f04f 913f 3e1b ffbe
00000120: b3e0 233f b09d 093e 0298 6a3f d71c a13f
00000130: c5ff 9f3f 31e9 583f 946c a73f 340a ebbe
00000140: ab6c 3c3f d13b 063f 972b 913f 498b 673f
00000150: 76c8 b33f 0309 713f 8f1c 8e3f 0b45 aa3f
00000160: b822 bb3d 1faa 823f 865c 823f 04be 6d3f
00000170: 84c8 713f 0717 0b3f 7067 003f d456 13be
00000180: a932 ee3e f012 a93f 1e7f 9f3f fb6c a93f
00000190: 5c89 423f 923e 963f a8d4 303f e54b b73e
000001a0: 76bb 093f bfeb ef3e 366a 783f 2aef 933f
000001b0: 45f8 ef3e 6757 f63e 5635 723f b20a 583f
000001c0: 5d76 d73e d166 813f ca9c babe b9b5 813f
000001d0: 97b5 323f 46e0 c53e 3e9e e43e ab8e 563f
000001e0: 7945 fd3e defc 5e3f deaf 423f 8c43 c6be
000001f0: c834 873f b073 283d df48 053f 50a5 ac3f
00000200: 5171 9f3f b579 a93f 2f74 e23e 5aec e53e
00000210: 194a 743f 9f55 9c3f 7ae8 913f 1f85 033f
00000220: 244a 4dbe 34e6 023f 475a 0a3f 600c a73f
00000230: 986c 4e3e 8ee7 463f 8cb8 09be 7ce9 7d3f
00000240: b152 343f 64d2 423f a863 963f 6803 903f
00000250: 98b0 393f ad33 613f 72d3 903f 06bf 87be
00000260: f2f9 c9be 34b1 56be 96da 343f 859f 903f
00000270: 2229 aa3f 0dbf fd3e 205b ba3e 2e8c ad3f
00000280: 99f3 5c3f 2e29 183f 0237 aa3f 0f24 413f
00000290: cb1d ab3e ff31 033f a913 3c3f 8373 663f
000002a0: d303 023f 1075 68be 02fe bc3e 0d65 403f
000002b0: de0e 1b3f d4fb 903f 44e9 773f 58a2 aa3f
000002c0: 48fa b0bd a5bb 8d3f aa9d a13f 70af 9f3f
000002d0: 046d 8f3f c78f 443f a493 1e3f daef 773f
000002e0: ae13 3f3f a9cc a33f 581c 993f b133 8a3f
000002f0: 4fcf b33f 0a27 b33e 601c 9bbe 1256 0c3f
00000300: 46a9 b43f 14a2 9d3f c971 ad3f 0462 803f
00000310: 380b a03f 33c6 7e3f 2055 863f a208 703f
00000320: 8c06 8d3f fa4e 4a3f 1693 2c3f a81e 933e
00000330: 51a4 dc3e b022 58be ea3a 7f3f 56ab 5f3f
00000340: 6af6 a43f 3279 b43f 7399 883f 062e a73f
00000350: 8044 37be 35cc 893e ca22 413f be4f 853f
00000360: 09f6 383f 2d82 503f 6081 a2bd d894 093f
00000370: 0430 953f 583e a03f 6e1f a43f fd39 7d3f
00000380: 4781 963f de6c 823f 5945 633f 8992 973f
00000390: e0c6 1e3f 23c8 2f3f 368a b8be d6b6 1e3f
000003a0: 4a04 4b3f f2d6 df3e 7ab8 8b3f 468a 3a3f
000003b0: 1a3e 8e3f 9aa8 a33f cda7 573f 9cf2 dabe
000003c0: b8a8 923f 42a9 f13e e1e0 443f 5c71 bd3e
000003d0: 2e83 973e 2ff9 2d3f b8c3 843f 22ec 9c3f
000003e0: 1b9a 9f3f 2e20 bc3e d7c3 ed3e 5307 6b3f
000003f0: ac2d d13e 68a9 e93e e351 bc3f 5031 8b3f

weight f4 [256, 256]
-0.04221735 0.027950048 0.024898559 -0.05578367 0.008428197 0.00622157 -0.05248455 -0.053409167
-0.038075857 -0.030444287 -0.023386836 -0.012631379 0.040402673 0.04190225 0.038814206 0.024941027
0.019484216 -0.008573112 0.027572203 -0.033896238 0.03131687 -0.055636894 0.013280579 0.01537587
0.03508444 -0.042552914 0.02870879 -0.0075648148 -0.0007775873 -0.007827169 -0.007998859 -0.042648047
0.020709466 -0.0298234 -0.007885982 0.023774639 0.0076380162 0.015638657 0.029558903 0.0066596344
0.019004026 0.05628211 -0.012347207 0.060780518 -0.049066223 -0.051025726 0.027932066 -0.042766
0.008222934 -0.021895602 -0.008595278 -0.020522831 -0.02633131 -0.000789091 -0.05615918 0.03751408
-0.047892753 -0.035450272 -0.04983844 0.023616314 -0.05474804 -0.019799381 -0.015306953 -0.050364856
0.001672296 -0.017027015 0.04036244 -0.06839416 0.05411712 -0.023903908 0.055401452 0.0012096316
-0.02831242 0.01975286 0.02018122 -0.026761953 0.029982671 -0.03336634 -0.021710083 -0.05361367
0.051613573 0.044648763 0.05165008 0.031537965 0.05038795 -0.0108656585 -0.0502978 -0.04283529
0.061312653 -0.03465231 -0.0032669664 0.009294515 0.012035213 0.049646616 0.0026452146 -0.03238245
-0.011495046 -0.061961696 0.02360551 -0.06672225 -0.020102618 -0.05099965 0.04158359 0.019729342
-0.031581927 0.044451322 -0.060843363 -0.058454704 0.043815043 0.0207158 -0.041034486 0.036950815
0.05531279 0.04576039 0.03948272 0.0033846854 -0.05769847 0.03676604 -0.0035461485 -0.044035584
-0.03855493 -0.023363367 0.012105249 0.007759236 -0.0017421687 -0.040704444 0.029902374 0.0087768845
0.007946704 -0.05241526 -0.020395426 -0.011988276 0.051245514 0.039134584 -0.024513366 0.02663082
-0.021506816 0.056758948 0.052127663 -0.038217418 -0.03333027 0.02882092 0.05596174 0.027821053
-0.028173095 -0.025966976 -0.029654644 -0.066254355 -0.044976592 0.04956764 -0.02741537 0.04916863
-0.002760522 0.049214974 0.032987848 0.030998355 -0.04372117 -0.013430523 -0.044591397 -0.061583206
0.017067246 0.020437893 -0.05202634 -0.0058082454 0.0030155554 -0.02393371 0.006877591 0.054498438
-0.0010417436 -0.037544116 0.045248777 -0.05449844 0.042970892 0.026763441 0.01333236 -0.053976156
0.0584035 -0.056560766 0.028348554 0.047202826 0.01181151 0.011252715 0.0151154725 0.0011095671
0.0018982351 0.050444573 0.0060398653 0.029357364 -0.05242271 -0.017975457 -0.048461996 0.054370288
4.6642206e-05 -0.04550484 -0.0056738555 0.03809895 -0.034798343 -0.024557324 -0.048806194 -0.03871735
0.047994077 0.022197349 0.008896281 0.028419137 -0.06531856 0.0126828775 -0.00088557805 0.021252241
0.049896955 -0.019832907 0.02266003 -0.01999682 0.010437198 0.046438396 -0.029177805 8.719734e-05
0.05027172 -0.028090766 0.0022481382 0.033112273 -0.03252815 -0.026613314 -0.038385056 0.055161543
-0.0178775 -0.02536832 -0.05751444 -0.03534224 0.0054158787 0.03892522 -0.04283827 -0.0061192145
-0.04558307 0.042453073 0.051928733 0.014107222 -0.019118767 0.04259091 0.032710686 0.058638513
0.015937738 -0.010462767 -0.009522876 -0.0064466596 -0.056344256 -0.018779766 -0.05059359 0.041911416
-0.052708067 -0.044714756 0.0010491707 0.0057529244 0.05163369 0.037546862 0.024968967 0.009447065
00000000: 1aec 2cbd 80f7 e43c 10f8 cb3c 6b7d 64bd
00000010: 6c16 0a3c 50de cb3b 0afa 56bd 92c3 5abd
00000020: 6ef5 1bbd 4c66 f9bc c095 bfbc d8f3 4ebc
00000030: 467d 253d b2a1 2b3d a5fb 1e3d 2051 cc3c
00000040: 5d9d 9f3c 3d76 0cbc 1adf e13c c8d6 0abd
00000050: 1e46 003d 83e3 63bd c996 593c 13eb 7b3c
00000060: b4b4 0f3d f74b 2ebd b22e eb3c 44e2 f7bb
00000070: 00d7 4bba 873d 00bc a50d 03bc b8af 2ebd
00000080: e6a6 a93c 3450 f4bc 3534 01bc 08c3 c23c
00000090: 5348 fa3b a41c 803c 8325 f23c 1039 da3b
000000a0: 55ae 9b3c 1288 663d f14b 4abc fef4 783d
000000b0: aaf9 48bd 5a00 51bd cad1 e43c 672b 2fbd
000000c0: 7cb9 063c 685e b3bc 35d3 0cbc 7f1f a8bc
000000d0: c2b4 d7bc 00db 4eba 2b07 66bd 5da8 193d
000000e0: 312b 44bd 4e34 11bd 6423 4cbd 0077 c13c
000000f0: 7b3f 60bd 5032 a2bc 04ca 7abc 614b 4ebd
00000100: f130 db3a 3d7c 8bbc 1653 253d 3d12 8cbd
00000110: eaa9 5d3d 21d2 c3bc a2ec 623d 808c 9e3a
00000120: 73ef e7bc c0d0 a13c 1653 a53c e23b dbbc
00000130: 389e f53c 25ab 08bd 58d9 b1bc 029a 5bbd
00000140: c168 533d 9fe1 363d 098f 533d f42d 013d
00000150: 9863 4e3d e005 32bc 1105 4ebd 0f74 2fbd
00000160: fa22 7b3d 95ef 0dbd 9a1a 56bb 0548 183c
00000170: 582f 453c 405a 4b3d 565b 2d3b 76a3 04bd
00000180: b855 3cbc 8ccb 7dbd 5860 c13c ada5 88bd
00000190: 3fae a4bc 02e5 50bd 8e53 2a3d 6e9f a13c
000001a0: 0d5c 01bd 9712 363d e436 79bd 336e 6fbd
000001b0: 6777 333d 2eb4 a93c c713 28bd bd59 173d
000001c0: aa8f 623d 3f6f 3b3d a2b8 213d 99d1 5d3b
000001d0: 3b55 6cbd fd97 163d 8066 68bb a85e 34bd
000001e0: c6eb 1dbd 8864 bfbc 1855 463c 3041 fe3b
000001f0: 7b59 e4ba b4b9 26bd d3f5 f43c eccc 0f3c
00000200: e432 023c 62b1 56bd 4f14 a7bc 796a 44bc
00000210: d1e6 513d 964b 203d 41d0 c8bc e128 da3c
00000220: 102f b0bc 127c 683d d183 553d de89 1cbd
00000230: 5285 08bd da19 ec3c 2338 653d fae8 e33c
00000240: 43cb e6bc b2b8 d4bc 4cee f2bc 5db0 87bd
00000250: 6039 38bd 7007 4b3d 3396 e0bc 0c65 493d
00000260: e0e9 34bb a495 493d 441e 073d 43f0 fd3c
00000270: f814 33bd b20b 5cbc 78a5 36bd ac3e 7cbd
00000280: 9cd0 8b3c 5e6d a73c 9219 55bd 1853 bebb
00000290: a0a0 453b a110 c4bc 6a5d e13b c139 5f3d
000002a0: 1d8b 88ba dcc7 19bd c856 393d c239 5fbd
000002b0: 3f02 303d 013f db3c f96f 5a3c 1a16 5dbd
000002c0: 8238 6f3d 43ac 67bd 3a3b e83c c057 413d
000002d0: 1085 413c 4f5d 383c e3a6 773c e56e 913a
000002e0: 33ce f83a f89e 4e3d 10ea c53b db7e f03c
000002f0: 32b9 56bd 4441 93bc 1680 46bd 61b3 5e3d
00000300: b0a1 4338 4863 3abd c0eb b9bb a50d 1c3d
00000310: b588 0ebd 712c c9bc 01e9 47bd 1696 1ebd
00000320: 7095 443d 37d7 b53c b5c1 113c 40cf e83c
00000330: bdc5 85bd d8cb 4f3c 2326 68ba 2e19 ae3c
00000340: c060 4c3d 9f78 a2bc 87a1 b93c 5fd0 a3bc
00000350: c800 2b3c 3036 3e3d 4b06 efbc b7dd b638
00000360: b8e9 4d3d 9b1e e6bc 8055 133b bca0 073d
00000370: 3d3c 05bd 2a04 dabc a639 1dbd 12f1 613d
00000380: d673 92bc 39d1 cfbc 4394 6bbd 06c3 10bd
00000390: af77 b13b 0d70 1f3d 2f77 2fbd b183 c8bb
000003a0: 50b5 3abd 46e3 2d3d 39b3 543d fa21 673c
000003b0: f69e 9cbc ce73 2e3d a4fb 053d f02e 703d
000003c0: dc8f 823c 076c 2bbc d605 1cbc 803e d3bb
000003d0: 3cc9 66bd 06d8 99bc 393b 4fbd 4eab 2b3d
000003e0: 6ae4 57bd d226 37bd 5484 893a 0783 bc3b
000003f0: d97d 533d bdca 193d b88b cc3c ddc7 1a3c

bias f4 [256]
0.04821834 -0.057452895 0.036208738 0.621584 0.026592825 0.5496128 -0.050779108 0.04916233
0.64097315 -0.035763197 0.57363874 -0.047886048 0.58085054 0.54190385 -0.058004595 0.5057045
0.5014121 0.00985723 0.017776012 0.6879026 0.48917702 -0.0137372315 -0.036095865 0.5657948
-0.046451807 0.02666025 0.60528827 0.032558694 -0.062279835 -0.05591629 0.5908919 0.051059995
0.58272487 0.69589204 -0.020920692 -0.05124832 -0.047243807 -0.0026378108 -0.036621504 0.54221654
-0.013867974 -0.05494777 0.5968147 -0.05717008 -0.051671498 -0.0028970912 0.6048663 0.5773351
-0.056247346 0.016624942 -0.02602154 0.60812867 -0.032254715 0.55158335 -0.035715513 0.57232755
-0.029056361 0.04754278 0.59478307 -0.056762677 -0.037023574 0.5228465 -0.02691618 0.047560453
0.047597706 -0.044932634 0.032066897 0.00020907483 0.48226306 0.73219854 0.036788393 0.53718895
0.65924454 0.59702283 0.51995647 0.58436 0.044370856 0.006745793 0.6864342 0.02585952
-0.020230768 0.049508035 0.57862335 0.53928834 0.55659026 0.0048887497 0.06100718 0.04517254
0.024673179 0.5936399 0.03376834 -0.035406783 0.65350467 0.5392784 0.05508431 -0.019048732
-0.016141513 0.015600242 0.05176333 -0.043546103 -0.02795293 0.6026367 0.51624584 0.51755446
0.5583164 0.5973124 0.54626983 0.6825223 -0.00858168 -0.02237691 -0.0345947 0.6203852
0.6241333 0.04766029 0.5938929 0.0092170285 -0.05007801 0.6258222 0.58407694 -0.060544595
0.03414437 -0.0032768385 -0.0029834716 0.049200326 0.44161215 0.63028705 -0.000974566 0.52840686
0.6213673 -0.039018594 0.61300427 -0.03135338 -0.034787912 0.011205681 -0.021922052 -0.01764914
0.01908885 0.019365752 0.65650415 0.47984576 0.5040735 0.5700571 -0.006744598 0.6340201
0.05642218 0.5422621 0.7256507 -0.039878156 0.05741723 0.5269606 -0.0067067863 0.57724464
-0.039039962 0.017850304 0.0031996781 -0.02171164 -0.029817812 0.026550762 0.50489044 -0.041529574
0.61084956 0.63034475 0.54335684 0.4981185 0.057719328 0.5684156 0.039646342 -0.039580878
0.006051693 0.61120486 0.5901897 0.542929 -0.010965683 -0.028024629 0.0057600024 -0.030210085
-0.03752526 0.5524703 0.571586 -0.004908651 -0.013096049 -0.055134725 -0.49716803 0.024089798
-0.05952908 0.5532368 -0.057375114 0.0048770607 -0.03715869 -0.0063652704 0.5719733 0.6288935
-0.045166582 -0.06845675 0.01552898 0.5719028 0.022813268 -0.05329565 0.62928945 -0.0436638
0.0028122475 -0.031063922 -0.041351594 0.59885055 -0.01050002 0.6108746 0.62548 0.50821924
-0.057039093 0.63179404 -0.008857911 0.008785266 0.6090225 -0.039808866 0.56799686 0.66213715
0.51909524 0.04084138 0.053003106 0.027974613 0.6663732 0.60079664 -0.06351999 0.5359128
0.5976318 -0.009419126 0.6220089 0.060389824 0.6346665 0.046187706 -0.041845128 -0.043141514
0.52411306 0.61195165 -0.046195067 0.64419633 0.5476933 0.640326 0.05487115 0.53329396
0.6029441 0.540939 0.058012165 0.055449136 -0.062144235 -0.041108247 0.042693727 0.0069813402
0.055789627 0.58991194 -0.0223255 0.5605972 0.61647433 0.06175758 0.6029494 0.04130345
00000000: 9880 453d ba53 6bbd 9d4f 143d 2120 1f3f
00000010: 32d9 d93c 6db3 0c3f c1fd 4fbd 705e 493d
00000020: d116 243f 6e7c 12bd fdd9 123f 2924 44bd
00000030: 9fb2 143f 36ba 0a3f 3a96 6dbd da75 013f
00000040: 8b5c 003f 3880 213c 009f 913c 631a 303f
00000050: 6975 fa3e 2012 61bc 42d9 13bd eed7 103f
00000060: 4044 3ebd 9966 da3c 2cf4 1a3f 445c 053d
00000070: 2419 7fbd 7b08 65bd b144 173f 4924 513d
00000080: 752d 153f fb25 323f df61 abbc c2e9 51bd
00000090: b982 41bd 1fdf 2cbb 6e00 16bd b4ce 0a3f
000000a0: 8036 63bc ea10 61bd d9c8 183f 2c2b 6abd
000000b0: 7ea5 53bd 20dd 3dbb 85d8 1a3f 3ccc 133f
000000c0: 9e63 66bd 0831 883c 202b d5bc 52ae 1b3f
000000d0: 851d 04bd 9134 0d3f 6e4a 12bd 0f84 123f
000000e0: 9b07 eebc 38bc 423d b443 183f fb7f 68bd
000000f0: 08a6 17bd 45d9 053f 527f dcbc c0ce 423d
00000100: d0f5 423d 480b 38bd 9458 033d 193b 5b39
00000110: 2feb f63e 5d71 3b3f 6daf 163d 3785 093f
00000120: 40c4 283f 7dd6 183f de1b 053f 9e98 153f
00000130: 37be 353d d00b dd3b 27ba 2f3f 58d7 d33c
00000140: ffba a5bc f0c8 4a3d a920 143f cd0e 0a3f
00000150: b37c 0e3f ce31 a03b aae2 793d d706 393d
00000160: 681f ca3c c9f8 173f ac50 0a3d b406 11bd
00000170: 154c 273f 260e 0a3f 16a0 613d 160c 9cbc
00000180: 353b 84bc 2898 7f3c c905 543d 665d 32bd
00000190: 8bfd e4bc 6646 1a3f b028 043f 737e 043f
000001a0: d3ed 0e3f 77e9 183f 57d8 0b3f c8b9 2e3f
000001b0: 2d9a 0cbc c84f b7bc 2cb3 0dbd 91d1 1e3f
000001c0: 33c7 1f3f 7037 433d 5d09 183f 0503 173c
000001d0: 991e 4dbd e235 203f 1186 153f 9cfd 77bd
000001e0: f8da 0b3d 3ac0 56bb 5986 43bb 4886 493d
000001f0: fd1a e23e 7e5a 213f 047a 7fba ac45 073f
00000200: ed11 1f3f f6d1 1fbd d9ed 1c3f 676c 00bd
00000210: c57d 0ebd 0898 373c e095 b3bc ee94 90bc
00000220: 3860 9c3c eda4 9e3c a810 283f 58ae f53e
00000230: f60a 013f 43ef 113f ca01 ddbb 244f 223f
00000240: f21a 673d b0d1 0a3f 3fc4 393f 4757 23bd
00000250: 542e 6b3d e4e6 063f 9ac4 dbbb 4ec6 133f
00000260: 5ee8 1fbd cd3a 923c b1b1 513b 9cdc b1bc
00000270: 7c44 f4bc fc80 d93c 8040 013f ea1a 2abd
00000280: a360 1c3f 465e 213f 6f19 0b3f 6309 ff3e
00000290: 1a6b 6c3d af83 113f 3464 223d 8f1f 22bd
000002a0: 484d c63b ec77 1c3f ac16 173f 65fd 0a3f
000002b0: 68a9 33bc e893 e5bc 67be bc3b 247b f7bc
000002c0: 16b4 19bd b26e 0d3f 7653 123f c0d8 a0bb
000002d0: d090 56bc f3d4 61bd cf8c febe f857 c53c
000002e0: c4d4 73bd eda0 0d3f 2b02 6bbd c0cf 9f3b
000002f0: b633 18bd c293 d0bb d86c 123f 2aff 203f
00000300: 9800 39bd 0d33 8cbd 436d 7e3c 3968 123f
00000310: e4e2 ba3c 8a4c 5abd 1d19 213f d0d8 32bd
00000320: af4d 383b c479 febc 4a60 29bd 454e 193f
00000330: 4708 2cbc 4762 1c3f 751f 203f a81a 023f
00000340: d3a1 69bd 41bd 213f c620 11bc 14f0 0f3c
00000350: e6e8 1b3f 9f0e 23bd 3e68 113f d281 293f
00000360: 6de3 043f 4a49 273d c919 593d 042b e53c
00000370: 6f97 2a3f cfcd 193f c516 82bd 9531 093f
00000380: 66fe 183f ae52 1abc fa3b 1f3f 525b 773d
00000390: 8179 223f 522f 3d3d cc65 2bbd 28b5 30bd
000003a0: 462c 063f dda8 1c3f 0a37 3dbd 0dea 243f
000003b0: a135 0c3f 68ec 233f 92c0 603d f485 083f
000003c0: 8b5a 1a3f fa7a 0a3f 2a9e 6d3d a21e 633d
000003d0: f48a 7ebd 1f61 28bd 9edf 2e3d bac3 e43b
000003e0: aa83 643d 7804 173f f8e3 b6bc 4c83 0f3f
000003f0: 43d1 1d3f 84f5 7c3d e45a 1a3f ce2d 293d

weight_mu f4 [1, 256]
0.033045962 0.04843143 0.043407496 -0.72682786 -0.061894834 -0.78668934 0.041474067 0.017193161
-0.74369234 0.019248033 -0.7820882 0.013945172 -0.7397889 -0.7551279 0.04205978 -0.76640874
-0.75914824 -0.054727178 0.025629975 -0.74404055 -0.526271 0.0038165674 0.03830362 -0.76163924
0.05168063 -0.010421044 -0.75165796 0.04790914 0.015959717 0.02178794 -0.76113504 0.016611272
-0.76087743 -0.73116946 0.054001484 -0.008146204 0.041080676 0.055347063 0.025349692 -0.7194791
-0.021366306 -0.04507552 -0.7443503 -0.039004765 -0.003984928 0.037625838 -0.70099443 -0.75704944
-0.057320543 0.015073404 0.031313032 -0.73576987 0.022267757 -0.7804728 0.038502026 -0.74215657
0.039370768 -0.061220028 -0.74580216 0.015907936 -0.036877 -0.72806615 -0.01100219 0.05355445
0.045860227 0.030768504 0.0036564097 0.04312959 -0.78430223 -0.7415456 -0.02101159 -0.73613393
-0.7822485 -0.7407544 -0.7447141 -0.7511437 0.037816573 0.050871953 -0.74979866 -0.031011216
0.0034220316 0.036587972 -0.7497766 -0.76256764 -0.76170325 0.026514592 0.0035819113 0.055970676
0.034307346 -0.76786524 -0.04811108 0.041581966 -0.7550403 -0.7406492 0.03883274 0.0063987975
0.044152554 0.0106885955 -0.00085662556 -0.019557692 -0.02895615 -0.7291672 -0.7490074 -0.78528905
-0.74676454 -0.7572293 -0.7453226 -0.7275466 0.059185605 0.061766487 -0.006196484 -0.7555687
-0.7658874 0.047423363 -0.7638048 0.039749257 0.052962128 -0.7395575 -0.73417765 0.038440187
-0.008814514 0.049197346 0.04578572 0.050460964 -0.50652146 -0.7472093 0.03801368 -0.75306726
-0.7535175 -0.03910979 -0.7531508 0.020166691 0.057209708 0.03282801 0.045135286 0.039149486
0.050410867 0.00024930655 -0.75714153 -0.77649003 -0.7652545 -0.7554686 0.044642057 -0.7378299
0.02361855 -0.7449707 -0.7546194 0.053444926 -0.043253824 -0.7294644 0.05543647 -0.7443407
0.04804325 0.03785606 0.054790504 0.035804294 0.05032909 0.05763837 -0.76877236 0.014289252
-0.7533839 -0.74244803 -0.73061055 -0.786022 0.033609226 -0.74557406 -0.040774472 0.05050865
0.020918828 -0.7582755 -0.7717204 -0.7281003 0.035062835 0.06149461 0.053780947 0.028490487
0.041789226 -0.736364 -0.7254385 0.052721493 -0.02206169 0.043268915 0.61092913 0.059892666
0.04523885 -0.7491423 -0.0059571643 0.028219342 0.030755632 0.05872367 -0.72531724 -0.7389101
0.040538274 0.04105609 0.039115958 -0.76411104 0.009239443 -0.03013239 -0.7302423 0.016043536
0.002112777 0.057219394 -0.043506697 -0.73865896 0.03899749 -0.7590164 -0.7437421 -0.7601604
0.0048864214 -0.76460737 0.021323767 0.044410344 -0.7276976 0.04820791 -0.7649798 -0.73435545
-0.7608397 -0.03349822 0.034675404 0.018218026 -0.7254114 -0.72730994 0.0018938811 -0.74968773
-0.7584335 0.039270185 -0.7509262 0.05395536 -0.7418814 0.027893849 0.018943459 -0.048320416
-0.7216312 -0.7678704 0.037725314 -0.7245587 -0.7739595 -0.7479845 0.018911138 -0.781228
-0.78066033 -0.7379333 0.021022879 0.046247657 0.015940718 0.03703128 0.051593456 0.040943585
0.037344206 -0.7615453 0.054298017 -0.7360919 -0.7406249 0.059165604 -0.769742 0.057011522
00000000: 345b 073d 0960 463d 0fcc 313d 6411 3abf
00000010: 7085 7dbd 7964 49bf b6e0 293d acd8 8c3c
00000020: 9f62 3ebf 0dae 9d3c ef36 48bf 4a7a 643c
00000030: ce62 3dbf 1050 41bf e046 2c3d 5d33 44bf
00000040: 8a57 42bf 9b29 60bd f4f5 d13c 7179 3ebf
00000050: b2b9 06bf 601f 7a3b 42e4 1c3d cafa 42bf
00000060: 11af 533d 07bd 2abc a86c 40bf 603c 443d
00000070: f4bd 823c 9f7c b23c bfd9 42bf 5d14 883c
00000080: ddc8 42bf ec2d 3bbf a930 5d3d a877 05bc
00000090: 3644 283d 9ab3 623d 28aa cf3c c82f 38bf
000000a0: 6408 afbc 1ca1 38bd be8d 3ebf 76c3 1fbd
000000b0: 0094 82bb 8d1d 1a3d 5f74 33bf fecd 41bf
000000c0: f2c8 6abd 70f6 763c 1842 003d 6a5b 3cbf
000000d0: df6a b63c 11cd 47bf 4db4 1d3d f9fd 3dbf
000000e0: 3e43 213d dac1 7abd e4ec 3ebf 5c51 823c
000000f0: 560c 17bd 8b62 3abf 8842 34bc e95b 5b3d
00000100: efd7 3b3d 3b0e fc3c 60a0 6f3b a7a8 303d
00000110: 08c8 48bf efd5 3dbf 7f20 acbc 4673 3cbf
00000120: 7041 48bf 15a2 3dbf 95a5 3ebf f44a 40bf
00000130: 8de5 1a3d 1c5f 503d cef2 3fbf 3c0b febc
00000140: 2a44 603b 45dd 153d 5cf1 3fbf a237 43bf
00000150: fcfe 42bf 2135 d93c 80be 6a3b 8241 653d
00000160: dc85 0c3d d192 44bf 2010 45bd da51 2a3d
00000170: 524a 41bf 309b 3dbf 140f 1f3d 01ad d13b
00000180: 4fd9 343d 381f 2f3c 2b8f 60ba 7437 a0bc
00000190: 7335 edbc b4aa 3abf f3be 3fbf b408 49bf
000001a0: f62b 3fbf c8d9 41bf 76cd 3ebf 7e40 3abf
000001b0: 9b6c 723d dbfe 7c3d e00b cbbb f36c 41bf
000001c0: 3211 44bf 003f 423d b688 43bf 1ed0 223d
000001d0: d1ee 583d a453 3dbf 11f3 3bbf 7573 1d3d
000001e0: c06a 10bc 2883 493d cf89 3b3d 28b0 4e3d
000001f0: 64ab 01bf 1c49 3fbf 3cb4 1b3d 04c9 40bf
00000200: 86e6 40bf 9631 20bd 7ece 40bf 9e34 a53c
00000210: ba54 6a3d aa76 063d c7df 383d 365b 203d
00000220: a07b 4e3d 5cb5 8239 07d4 41bf 0dc8 46bf
00000230: b8e7 43bf 6466 41bf 97da 363d 6ce2 3cbf
00000240: b07b c13c 66b6 3ebf bd2e 41bf 11e9 5a3d
00000250: ec2a 31bd 2ebe 3abf 5a11 633d 1d8d 3ebf
00000260: 00c9 443d f50e 1b3d 026c 603d 86a7 123d
00000270: e025 4e3d 3616 6c3d 44ce 44bf 781d 6a3c
00000280: c4dd 40bf 1311 3ebf 4b09 3bbf bd38 49bf
00000290: d4a9 093d f1dd 3ebf 2203 27bd 28e2 4e3d
000002a0: f65d ab3c 581e 42bf 788f 45bf c864 3abf
000002b0: 0c9e 0f3d c6e1 7b3d 6949 5c3d e264 e93c
000002c0: 2e2b 2b3d 5a82 3cbf 56b6 39bf 7ef2 573d
000002d0: b8ba b4bc bf3a 313d da65 1c3f 0352 753d
000002e0: 5f4c 393d cac7 3fbf 5134 c3bb 402c e73c
000002f0: 3cf3 fb3c 3b88 703d 64ae 39bf 3629 3dbf
00000300: 760b 263d 6e2a 283d 0e38 203d c89c 43bf
00000310: 0861 173c 34d8 f6bc 29f1 3abf bc6d 833c
00000320: 8476 0a3b e25e 6a3d 1434 32bd c118 3dbf
00000330: d5bb 1f3d e64e 42bf e265 3ebf df99 42bf
00000340: 461e a03b 4fbd 43bf 2eaf ae3c 9fe7 353d
00000350: 644a 3abf a875 453d b7d5 43bf b8fe 3bbf
00000360: 64c6 42bf 6e35 09bd cc07 0e3d f83d 953c
00000370: 90b4 39bf fc30 3abf 1b3c f83a 89eb 3fbf
00000380: b328 42bf c6d9 203d b33c 40bf 4c00 5d3d
00000390: f0eb 3dbf a481 e43c 502f 9b3c a1eb 45bd
000003a0: d3bc 38bf 2893 44bf dc85 1a3d ae7c 39bf
000003b0: 3622 46bf ea7b 3fbf 88eb 9a3c 8ffe 47bf
000003c0: 5bd9 47bf 32e9 3cbf 2c38 ac3c 2f6e 3d3d
000003d0: 1c96 823c 1dae 173d a953 533d 76b4 273d
000003e0: 3df6 183d a2f4 42bf 9967 5e3d 8570 3cbf
000003f0: 9899 3dbf a257 723d d00d 45bf ea84 693d

weight_sigma f4 [1, 256]
0.03108739 0.03125 0.03148507 0.03146478 0.03125 0.020441674 0.03078713 0.031148484
0.026044793 0.031592358 0.024749922 0.032222677 0.04380291 0.034284387 0.03125 0.029538637
0.025779597 0.03125 0.03125 0.025018912 0.021492155 0.03125 0.03125 0.013645369
0.030553183 0.030385917 0.018949687 0.031359714 0.03161322 0.031407584 0.023130387 0.03069847
0.02882462 0.011666849 0.03073535 0.03125 0.030919751 0.032043118 0.032017786 0.024079923
0.03125 0.03125 0.028560977 0.03125 0.03125 0.031208461 0.01925323 0.010487876
0.03125 0.03125 0.03125 0.023543486 0.03173243 0.033582844 0.032165308 0.026127506
0.0309123 0.03125 0.03424937 0.03160279 0.03125 0.017021911 0.029892316 0.030643707
0.030693626 0.030478304 0.03125 0.032104213 0.025756272 0.019750947 0.030907458 0.027169866
0.019634318 0.02631245 0.025375322 0.037661966 0.030504009 0.03125 0.022529043 0.03125
0.03126174 0.029564863 0.024097757 0.026807213 0.0223332 0.0308784 0.03125 0.032057274
0.03078117 0.025192231 0.03125 0.03125 0.028992046 0.02124373 0.03125 0.032351572
0.031129858 0.03125 0.031410564 0.03125 0.031176051 0.023249144 0.015148442 0.026361484
0.020917818 0.022533584 0.018733222 0.025278993 0.031076586 0.03181513 0.03125 0.029796856
0.02929022 0.030949926 0.02815319 0.02997539 0.029886728 0.030508902 0.024966076 0.032372434
0.03125 0.032124333 0.031841952 0.03125466 0.024968503 0.027967585 0.03125 0.018913772
0.016080534 0.03125 0.023393083 0.030784896 0.03227036 0.03125 0.030436208 0.03205802
0.03125 0.03078117 0.027729888 0.017829906 0.037775327 0.009654578 0.03193732 0.015037988
0.031849403 0.023507034 0.028943345 0.03045856 0.03125 0.027424462 0.0315104 0.027292673
0.030438816 0.031392865 0.031708583 0.03125 0.031239754 0.03125 0.032412674 0.03125
0.029537326 0.022929931 0.022660146 0.035412326 0.030425033 0.02363923 0.03125 0.030043563
0.031311657 0.026771089 0.016012313 0.016634343 0.030245474 0.03125 0.03122448 0.03099314
0.032043118 0.02679625 0.028373826 0.03125 0.03125 0.03219362 0.020459287 0.030837422
0.03139175 0.0289612 0.031952966 0.03125 0.03125 0.029537296 0.02000992 0.02899075
0.030584848 0.030378466 0.031037843 0.018486237 0.03125 0.03125 0.033216532 0.0315165
0.032005865 0.030991277 0.03125 0.03257448 0.031354498 0.025597436 0.025184741 0.020166013
0.031146621 0.031707577 0.030565849 0.030702567 0.015474444 0.031089997 0.033787444 0.021157509
0.023899648 0.03125 0.032159347 0.03125 0.024934998 0.026195662 0.030590435 0.025108596
0.03269944 0.032028962 0.0235119 0.03125 0.02168329 0.03125 0.03125 0.032198835
0.021513337 0.03260824 0.03125 0.019523505 0.028841099 0.023574233 0.03125 0.025490573
0.021185374 0.02134845 0.03125 0.03119952 0.032286752 0.031125387 0.031202128 0.031456757
0.032291222 0.023437804 0.031505186 0.027559334 0.034131154 0.03125 0.018938594 0.03109372
00000000: fbaa fe3c 0000 003d 7df6 003d 37e1 003d
00000010: 0000 003d 4c75 a73c 4b35 fc3c 1b2b ff3c
00000020: e45b d53c fd66 013d 59c0 ca3c edfb 033d
00000030: ae6a 333d c96d 0c3d 0000 003d 03fb f13c
00000040: bc2f d33c 0000 003d 0000 003d 76f4 cc3c
00000050: 5110 b03c 0000 003d 0000 003d d390 5f3c
00000060: ab4a fa3c e3eb f83c 603c 9b3c 0b73 003d
00000070: dd7c 013d 3da5 003d f07b bd3c 5c7b fb3c
00000080: 9c21 ec3c 5026 3f3c b3c8 fb3c 0000 003d
00000090: 6b4b fd3c a53f 033d 1525 033d 4243 c53c
000000a0: 0000 003d 0000 003d b6f8 e93c 0000 003d
000000b0: 0000 003d e3a8 ff3c f3b8 9d3c 57d5 2b3c
000000c0: 0000 003d 0000 003d 0000 003d 45de c03c
000000d0: ddf9 013d 2a8e 093d c5bf 033d 5a09 d63c
000000e0: cb3b fd3c 0000 003d 1149 0c3d ed71 013d
000000f0: 0000 003d 8971 8b3c bbe0 f43c 8308 fb3c
00000100: 3371 fb3c a3ad f93c 0000 003d b57f 033d
00000110: d1fe d23c bdcc a13c a331 fd3c 5793 de3c
00000120: 26d8 a03c 358d d73c e8df cf3c 6f43 1a3d
00000130: 8be3 f93c 0000 003d d48e b83c 0000 003d
00000140: 4f0c 003d 0332 f23c a968 c53c cd9a db3c
00000150: 1df4 b63c b3f4 fc3c 0000 003d 7d4e 033d
00000160: cb28 fc3c f05f ce3c 0000 003d 0000 003d
00000170: ba80 ed3c 5507 ae3c 0000 003d 1583 043d
00000180: 0b04 ff3c 0000 003d 5da8 003d 0000 003d
00000190: eb64 ff3c fd74 be3c 2c31 783c 0af4 d73c
000001a0: d85b ab3c 5a98 b83c 6a76 993c e415 cf3c
000001b0: 5394 fe3c 9550 023d 0000 003d 8918 f43c
000001c0: 0bf2 ef3c b38a fd3c 85a1 e63c f38e f53c
000001d0: 03d5 f43c ceed f93c a885 cc3c f598 043d
000001e0: 0000 003d ce94 033d b56c 023d e304 003d
000001f0: bf8a cc3c 471c e53c 0000 003d 0ef1 9a3c
00000200: 53bb 833c 0000 003d daa2 bf3c 9b30 fc3c
00000210: ed2d 043d 0000 003d 5b55 f93c 454f 033d
00000220: 0000 003d cb28 fc3c ca29 e33c 0610 923c
00000230: 4dba 1a3d 3c2e 1e3c b5d0 023d e561 763c
00000240: 8574 023d d391 c03c 981a ed3c 3b84 f93c
00000250: 0000 003d 44a9 e03c 0d11 013d e294 df3c
00000260: d35a f93c ce95 003d dce0 013d 0000 003d
00000270: 83ea ff3c 0000 003d 27c3 043d 0000 003d
00000280: 43f8 f13c 8dd7 bb3c c5a1 b93c 840c 113d
00000290: eb3d f93c 0fa7 c13c 0000 003d eb1d f63c
000002a0: a740 003d 0b4f db3c 412c 833c bf44 883c
000002b0: 5bc5 f73c 0000 003d 7bca ff3c 53e5 fd3c
000002c0: a53f 033d cf83 db3c 3a70 e83c 0000 003d
000002d0: 0000 003d 75dd 033d 3c9a a73c c39e fc3c
000002e0: a394 003d 0a40 ed3c 1de1 023d 0000 003d
000002f0: 0000 003d 33f8 f13c d8eb a33c 027e ed3c
00000300: 138d fa3c 43dc f83c 1343 fe3c 7370 973c
00000310: 0000 003d 0000 003d 0f0e 083d 7217 013d
00000320: 9518 033d 6be1 fd3c 0000 003d d16c 053d
00000330: 936d 003d b7b1 d13c 3b50 ce3c 3233 a53c
00000340: 3327 ff3c cedf 013d 3b65 fa3c f383 fb3c
00000350: 8688 7d3c 73b0 fe3c b464 0a3d 8352 ad3c
00000360: 32c9 c33c 0000 003d 85b9 033d 0000 003d
00000370: 7b44 cc3c 4998 d63c cb98 fa3c 8bb0 cd3c
00000380: d9ef 053d cd30 033d 079c c03c 0000 003d
00000390: 28a1 b13c 0000 003d 0000 003d ede2 033d
000003a0: bd3c b03c 3890 053d 0000 003d c2ef 9f3c
000003b0: 2b44 ec3c c01e c13c 0000 003d 9bd1 d03c
000003c0: f38c ad3c f2e2 ae3c 0000 003d 2396 ff3c
000003d0: 1d3f 043d abfa fe3c 9b9b ff3c cdd8 003d
000003e0: cd43 043d a300 c03c 950b 013d 1dc4 e13c
000003f0: 1ccd 0b3d 0000 003d 1c25 9b3c 42b8 fe3c

weight_epsilon f4 [1, 256]
0.32678482 -0.27676788 0.45511824 -0.5756727 0.19004261 0.5288047 0.59023696 0.48259747
-0.26569462 0.5053659 0.5472343 -0.88459045 -0.75925416 -0.12537172 -0.9012574 -0.6164223
0.48715702 -0.11759277 0.7672696 0.70576704 -0.24146245 -0.94830704 0.5636473 -0.82105666
-0.5505337 -0.41497934 -0.27501607 -0.95083404 -0.6633963 0.7910316 -0.8707161 0.507766
-0.6280753 -0.3576595 0.72321135 1.1444473 0.6585979 -0.28942186 0.15827647 0.31811315
0.9883324 0.63701594 -0.60903406 -0.4165845 -0.84814125 0.52234364 -0.4434102 0.6288369
0.94282997 1.0122696 -0.657654 0.47342452 0.22526962 0.8566943 -0.44046378 -0.81021875
0.46106863 -0.552847 -0.49230707 -0.21634261 -0.58396524 0.52634543 -0.27785885 0.6605006
-0.5058866 -0.5258729 -0.032688953 -0.9007724 -0.83428985 0.7090545 -0.63947064 0.88678485
-0.16494156 -1.0003349 -0.5966955 0.7306763 0.6469333 0.1200775 -0.6956078 0.6366483
-0.6476034 -0.6573668 0.97743994 -0.4122881 -0.4690625 -0.8169479 0.2376055 -0.6020546
-0.5340092 -0.8016032 0.1587506 1.0028787 -0.58445835 0.21539211 -0.046542604 -0.22260372
0.4754755 -0.7523554 -0.64522105 0.7626661 0.9018063 0.44276872 0.5680563 -0.39778873
-0.6047102 -0.2528254 0.21675253 0.7806058 0.05578899 -0.655009 0.4804861 -0.052418277
0.54336274 0.43580818 0.712237 -0.3708364 0.83095306 -0.21840855 0.24728818 0.14773825
-0.62115914 0.52747506 -0.97981876 -0.48794505 -0.21069445 0.31272927 -0.99510646 1.1780766
0.4637355 -0.098758765 0.18985397 -0.9981704 0.9000997 -1.231118 -0.35292256 0.33216172
0.84021384 0.12551537 -0.5315338 0.6681576 0.70531696 0.41131416 -0.65170413 -0.8829122
-0.3502626 -0.2007456 0.4986819 -0.4650805 -0.48831153 -0.80030024 0.9026212 0.82071185
-0.63222474 -0.4778163 0.7572756 -0.70354104 0.37761873 0.4041811 -0.5272553 -0.9654284
0.70619476 -0.76268977 0.29535854 0.58641243 0.68286484 0.6204299 0.08655918 -0.52003187
-0.51970726 -0.4179879 0.4737076 -0.62450206 0.5624306 0.55166614 -0.8168316 -0.67412555
0.17226695 -0.9443886 0.38496527 0.46892115 -0.054885574 0.71355253 -0.7604442 -0.4876229
-0.22455794 -0.81863856 1.054639 -0.4120514 -0.6633432 -0.36856583 -0.28248215 -0.63933194
0.59581643 -0.81562287 -0.6933697 0.37652558 -0.96406114 -0.8737356 -0.33954322 -0.80687344
0.44654894 0.17530401 -0.55111593 0.6203229 0.55670094 0.44074917 0.58792293 -0.3276375
-0.26050666 -0.3382867 -1.0238327 -0.7144996 -0.42668417 -0.4399377 0.6639588 -0.54680127
-0.41628549 0.9848815 0.1487774 -0.6790713 -0.92800796 -0.41550958 0.75140965 -0.9078695
0.7804494 -0.33342865 0.5043996 0.73500776 -0.5685471 0.66904 0.7296859 0.76799315
-0.18893985 -0.6535399 -0.48792094 0.41055414 -0.9361962 -0.6130594 -0.2501258 -0.49632242
-0.62365234 -0.69806576 -0.76518285 0.34669638 0.73791414 0.30693 -0.54089445 0.48023406
-0.44261703 -0.21286626 -0.69853854 0.9066463 0.878262 0.39020738 -0.19833775 0.7785187
00000000: 5750 a73e 85b4 8dbe 4205 e93e 495f 13bf
00000010: 889a 423e bf5f 073f c519 173f 0417 f73e
00000020: 2009 88be a95f 013f 8c17 0c3f 8574 62bf
00000030: 7b5e 42bf 7261 00be ceb8 66bf dacd 1dbf
00000040: a56c f93e 7ad4 f0bd c86b 443f 26ad 343f
00000050: ef41 77be 40c4 72bf 304b 103f c530 52bf
00000060: c7ef 0cbf 2c78 d4be e8ce 8cbe dc69 73bf
00000070: 57d4 29bf 0c81 4a3f 40e7 5ebf f4fc 013f
00000080: 8bc9 20bf 251f b7be 6124 393f 407d 923f
00000090: df99 283f 1a2f 94be 3a13 223e badf a23e
000000a0: 5a03 7d3f 7a13 233f a8e9 1bbf 904a d5be
000000b0: c91f 59bf 50b8 053f a906 e3be 75fb 203f
000000c0: 4e5d 713f 0d92 813f 035c 28bf b364 f23e
000000d0: 14ad 663e 5150 5b3f 7884 e1be 7f6a 4fbf
000000e0: 3011 ec3e 6287 0dbf ac0f fcbe eb88 5dbe
000000f0: bf7e 15bf 93be 063f 8443 8ebe 9116 293f
00000100: c981 01bf 9b9f 06bf dae4 05bd 0599 66bf
00000110: 0594 55bf 9984 353f 59b4 23bf 5504 633f
00000120: 71e6 28be f90a 80bf 09c1 18bf 9a0d 3b3f
00000130: 6c9d 253f 31eb f53d 5a13 32bf 62fb 223f
00000140: 56c9 25bf 3149 28bf 8139 7a3f 6d17 d3be
00000150: f628 f0be 7f23 51bf db4e 733e 4020 1abf
00000160: d4b4 08bf de35 4dbf 848f 223e 545e 803f
00000170: 109f 15bf c08f 5c3e 75a3 3ebd 3bf2 63be
00000180: 8671 f33e 5d9a 40bf 352d 25bf 163e 433f
00000190: c7dc 663f 95b2 e23e 236c 113f f7aa cbbe
000001a0: 4ace 1abf 5572 81be 60f4 5d3e c8d5 473f
000001b0: ff82 643d abae 27bf 4602 f63e 8cb4 56bd
000001c0: d219 0b3f 4022 df3e 2a55 363f 45de bdbe
000001d0: 57b9 543f 7ea6 5fbe 1d39 7d3e b248 173e
000001e0: 4904 1fbf 9b08 073f 67d5 7abf efd3 f9be
000001f0: 49c0 57be 0d1e a03e 4cbf 7ebf 37cb 963f
00000200: bd6e ed3e 0942 cabd 1469 423e 1888 7fbf
00000210: ef6c 663f 4695 9dbf 44b2 b4be 1a11 aa3e
00000220: 4118 573f 1a87 003e 9912 08bf 600c 2b3f
00000230: a78f 343f c597 d23e 15d6 26bf 8906 62bf
00000240: 9f55 b3be 4190 4dbe 3c53 ff3e 081f eebe
00000250: f803 fabe 7ae0 4cbf 2f12 673f 2c1a 523f
00000260: 7bd9 21bf 57a4 f4be d0dc 413f 441b 34bf
00000270: 3e57 c13e d3f0 ce3e 34fa 06bf 5126 77bf
00000280: 2ec9 343f a33f 43bf 3c39 973e 201f 163f
00000290: 3bd0 2e3f 7ed4 1e3f f045 b13d cf20 05bf
000002a0: 890b 05bf 8302 d6be cd89 f23e 5edf 1fbf
000002b0: 74fb 0f3f fe39 0d3f e01b 51bf 7e93 2cbf
000002c0: bf66 303e 74c3 71bf 2b1a c53e 6f16 f03e
000002d0: b2cf 60bd 61ab 363f 79ac 42bf b5a9 f9be
000002e0: 84f2 65be 4c92 51bf 69fe 863f 67f8 d2be
000002f0: dcd0 29bf a9b4 bcbe 80a1 90be 42ab 23bf
00000300: 6d87 183f a9cc 50bf ad80 31bf f6c7 c03e
00000310: b6cc 76bf 23ad 5fbf 9cd8 adbe 428f 4ebf
00000320: 10a2 e43e e582 333e ef15 0dbf 7bcd 1e3f
00000330: f483 0e3f e0a9 e13e 1e82 163f 1ac0 a7be
00000340: 2161 85be ea33 adbe f30c 83bf 72e9 36bf
00000350: 5976 dabe 843f e1be 34f9 293f 2bfb 0bbf
00000360: 5f23 d5be 3221 7c3f 1a59 183e 9ed7 2dbf
00000370: ee91 6dbf acbd d4be 625c 403f 236a 68bf
00000380: 88cb 473f 29b7 aabe 5520 013f 7829 3c3f
00000390: 4e8c 11bf 3546 2b3f b2cc 3a3f 339b 443f
000003a0: 7379 41be 644e 27bf c6d0 f9be 2734 d23e
000003b0: 8eaa 6fbf 76f1 1cbf 7d10 80be f91d febe
000003c0: aea7 1fbf 70b4 32bf 06e3 43bf 3082 b13e
000003d0: f1e7 3c3f ee25 9d3e 0f78 0abf 3de1 f53e
000003e0: b39e e2be 9df9 59be 6cd3 32bf f919 683f
000003f0: c7d5 603f 43c9 c73e 0d19 4bbe 004d 473f

weight_mu f4 [24, 256]
-0.026285859 0.04278119 0.0034937903 0.025907958 0.008437589 0.043806907 0.038953535 0.057246964
0.10133141 0.040368404 0.04059816 -0.027088286 -0.03722859 0.06404761 -0.046474196 0.06225931
0.01670359 -0.050120607 0.022402808 0.074396536 0.056969803 0.011213519 0.05736266 0.07963983
-0.03441687 0.05366025 0.005359782 -0.020836126 0.002114733 -0.038389523 0.033331703 0.0024633273
0.07569194 0.09804075 0.04829881 -0.035438314 0.03028012 -0.019157136 0.026396874 -0.015836842
0.01594615 0.048753314 0.04546527 -0.031183504 -0.05012531 -0.040666424 0.013047128 0.040312257
0.020776585 -0.02309709 -0.042804822 -0.011286864 -0.0015835408 0.08839134 0.034348328 -0.022641461
-0.052611206 -0.026758745 -0.0049120653 0.027241025 0.037350804 -0.03806579 0.01001182 0.010184302
-0.010851129 -0.05401713 -0.00029431283 0.05383832 0.00656577 0.005592523 0.051731296 0.06955993
-0.028778005 -0.03320275 -0.002933627 0.012775623 0.055305343 -0.008109279 0.040129974 0.050132744
0.0011118024 -0.0015215613 -0.028922945 -0.022149228 -0.031048395 -0.014432998 0.048086032 0.06798289
-0.05562199 0.08151802 -0.025663413 0.013228985 0.07634371 0.009154678 -0.024464235 0.04631546
0.024140837 -0.043813683 0.06508014 -0.016631022 0.049043868 -0.012434529 0.027271552 0.08104449
0.08349689 0.050495125 0.012712523 -0.097581536 0.03804382 0.06308935 -0.0011217445 -0.025693089
0.02903542 -0.00078901136 -0.008368199 -0.052248362 0.058830217 0.0673051 -0.027859932 0.01806004
0.00039944053 -0.056111492 -0.056813337 -0.028313909 0.05855014 -0.03256458 -0.060799323 -0.015855635
0.0408134 -0.06170558 0.09873127 -0.036257166 0.015635153 0.04290676 -0.0047072344 0.04295748
0.03135164 0.06234242 0.055481844 0.07946402 -0.011094915 0.0043567102 0.048305515 -0.025345879
0.00043449443 0.07339757 0.07054294 0.06271272 -0.030109398 0.008872284 0.02240336 0.014418386
-0.023414774 0.054261513 -0.031435147 0.0092487335 -0.009076399 -0.032860026 -0.026774898 -0.01837036
0.04246657 0.05847256 0.026859105 -0.02348695 -0.057781167 0.02165521 -0.025543928 -0.010729125
-0.054998375 -0.09911777 0.05742683 -0.015889872 0.03256466 0.030418903 0.021383746 0.040916767
0.014612372 -0.0057884 0.079384774 -0.018768698 -0.0514004 0.0027495697 -0.2792129 -0.019255856
0.061209932 0.056160994 -0.03568347 -0.031847365 0.044222802 0.014176513 0.03516632 0.041180506
0.003085917 0.018467586 -0.04177805 0.03183301 0.042294756 0.024025992 -0.029617546 -0.03919568
0.031785328 -0.045500364 -0.05754576 0.07573944 0.02969376 -0.00045687822 -0.0027645987 0.03518068
-0.041774325 -0.038649973 -0.04563969 0.025102334 0.00037177434 -0.056555547 -0.016877417 0.06233253
0.03165657 0.027385257 0.03356378 -0.036301635 -0.002830205 0.099335596 -0.045329746 0.0335242
0.05259605 0.00060710066 0.061351903 0.05986516 0.07805226 -0.023855194 0.040133774 -0.04795906
0.017949153 0.092974775 0.05238203 0.036411103 0.0010495834 -0.013238617 0.0027903765 0.061408512
0.04515953 -0.01719327 0.018788707 0.035912953 0.05659355 0.04815427 0.06351999 -0.007875178
0.015246976 0.05198611 -0.049981892 0.06940991 0.013999529 0.023017146 0.055883974 -0.0319023
00000000: 7155 d7bc 543b 2f3d 13f8 643b ed3c d43c
00000010: d03d 0a3c df6e 333d be8d 1f3d cb7b 6a3d
00000020: d886 cf3d 5759 253d 424a 263d 41e8 ddbc
00000030: 027d 18bd 652b 833d ba5b 3ebd 9e03 7f3d
00000040: f8d5 883c 444b 4dbd 1886 b73c 365d 983d
00000050: 2b59 693d e8b8 373c 1cf5 6a3d 351a a33d
00000060: b4f8 0cbd daca 5b3d 1ca1 af3b 86b0 aabc
00000070: 5597 0a3b 553e 1dbd d386 083d c66f 213b
00000080: 6004 9b3d 97c9 c83d f9d4 453d c427 11bd
00000090: 040e f83c 6def 9cbc 423e d83c 44bc 81bc
000000a0: 80a1 823c 8eb1 473d ca39 3a3d 8c74 ffbc
000000b0: 3250 4dbd d691 26bd 9fc3 553c 771e 253d
000000c0: a833 aa3c 1c36 bdbc 1c54 2fbd 8aec 38bc
000000d0: d08e cfba 8506 b53d d5b0 0c3d 967a b9bc
000000e0: d97e 57bd 2835 dbbc 64f5 a0bb 9228 df3c
000000f0: 28fd 183d e0ea 1bbd 9e08 243c 0fdc 263c
00000100: efc8 31bc 1141 5dbd 004e 9ab9 9285 5c3d
00000110: ac25 d73b 7c41 b73b 32e4 533d 7075 8e3d
00000120: dabf ebbc 9bff 07bd 1842 40bb d950 513c
00000130: db87 623d c8dc 04bc 545f 243d fe57 4d3d
00000140: e6b9 913a 206f c7ba d0ef ecbc 4c72 b5bc
00000150: 3459 febc 6278 6cbc dcf5 443d 9d3a 8b3d
00000160: e2d3 63bd ebf2 a63d 143c d2bc 62be 583c
00000170: 175a 9c3d 81fd 153c 3869 c8bc 48b5 3d3d
00000180: 01c3 c53c fa75 33bd bd48 853d c83d 88bc
00000190: 39e2 483d 32ba 4bbc 9768 df3c a7fa a53d
000001a0: 6b00 ab3d fad3 4e3d 3048 503c d4d8 c7bd
000001b0: d6d3 1b3d fd34 813d 8007 93ba 507a d2bc
000001c0: b0db ed3c a8d5 4eba c51a 09bc 6102 56bd
000001d0: f4f7 703d 42d7 893d 833a e4bc a6f2 933c
000001e0: 006c d139 2ad5 65bd 1ab5 68bd 92f2 e7bc
000001f0: 46d2 6f3d 7062 05bd b608 79bd ade3 81bc
00000200: f42b 273d febe 7cbd 9f33 ca3d 6582 14bd
00000210: 4b15 803c 00bf 2f3d 253f 9abb 2ff4 2f3d
00000220: 946a 003d c45a 7f3d ee40 633d 08be a23d
00000230: 72c7 35bc bcc2 8e3b 01dc 453d 29a2 cfbc
00000240: dbcc e339 7751 963d d178 903d 876f 803d
00000250: fca7 f6bc 0e5d 113c 4087 b73c 183b 6c3c
00000260: 57d0 bfbc 5241 5e3d 24c2 00bd 0088 173c
00000270: 2db5 14bc 3c98 06bd 0857 dbbc 707d 96bc
00000280: 6df1 2d3d ec80 6f3d a007 dc3c b467 c0bc
00000290: f2ab 6cbd 4466 b13c 8041 d1bc 36c9 2fbc
000002a0: fa45 61bd 42fe cabd 6538 6b3d 7a2b 82bc
000002b0: 8562 053d 1031 f93c f72c af3c 5798 273d
000002c0: bb68 6f3c 9eac bdbb 7c94 a23d d0c0 99bc
000002d0: 3a89 52bd 2032 343b fef4 8ebe 75be 9dbc
000002e0: 44b7 7a3d 1209 663d d528 12bd 6272 02bd
000002f0: f822 353d 9b44 683c 8f0a 103d e4ac 283d
00000300: 193d 4a3b 5649 973c 761f 2bbd 5563 023d
00000310: 443d 2d3d 28d2 c43c 7fa0 f2bc a68b 20bd
00000320: 5531 023d 975e 3abd 1ab5 6bbd 481d 9b3d
00000330: 5440 f33c 2889 efb9 452e 35bb 9e19 103d
00000340: 8e1b 2bbd 6f4f 1ebd aff0 3abd 69a3 cd3c
00000350: b5ea c239 caa6 67bd 8242 8abc 6550 7f3d
00000360: 52aa 013d 0c57 e03c 2d7a 093d 06b1 14bd
00000370: f67a 39bb 7670 cb3d afab 39bd ac50 093d
00000380: f56e 573d d625 1f3a 224c 7b3d 2c35 753d
00000390: ddd9 9f3d f86b c3bc 5063 243d b870 44bd
000003a0: 1a0a 933c 8f69 be3d 8a8e 563d cf23 153d
000003b0: 2d92 893a c9e6 58bc c0de 363b 7e87 7b3d
000003c0: 33f9 383d e7d8 8cbc c6ea 993c 7619 133d
000003d0: a3ce 673d 693d 453d c516 823d e406 01bc
000003e0: 74ce 793c 63ef 543d d0b9 4cbd c826 8e3d
000003f0: 485e 653c 748e bc3c 98e6 643d fcab 02bd
