experiments/diff_kappa_data/kappa1_1_kappa2_4_kappa3_1/rainbow_dqn_tem.pth (torch, 342918 bytes, 13 tensors)

weight f4 [256, 4]
-0.18809628 -0.22986591 -0.38821906 -0.39880955 -0.31232846 -0.48192942 -0.16833824 -0.4153806
0.100559235 -0.48641083 -0.21449256 0.16165805 0.3746113 0.05497691 0.0070378087 0.43400112
0.094526514 0.06772656 -0.5354796 0.21238032 -0.22032495 -0.11524093 0.026625244 0.43574712
-0.031474736 0.35506538 -0.014872741 -0.49555084 -0.5241685 0.38602185 -0.2544736 -0.5554379
-0.14365822 -0.18335591 0.436552 0.20048712 -0.09586048 -0.042440176 -0.096933484 -0.47276795
0.4383663 -0.010665909 -0.3018789 -0.5585943 -0.4510553 0.03904879 0.060806572 0.017611146
0.24631712 0.03869773 -0.050994154 -0.29045677 0.0030558142 -0.050725322 -0.2563952 -0.32169202
-0.012799985 0.34808382 -0.097401954 0.17512581 0.05833691 0.40347615 -0.13329318 0.32939205
0.12915784 0.27998585 -0.46730924 0.454739 0.18636563 0.16306534 -0.26782113 0.021921875
0.11646273 -0.11878482 -0.2796047 -0.40741226 -0.050597608 -0.17300111 -0.3312332 0.073305905
-0.13176721 -0.19861236 0.1742703 0.4294539 -0.12014106 0.32932958 -0.25328568 0.1679686
0.4771342 -0.27781576 -0.28531423 -0.3541249 0.14052434 0.21620528 -0.47865176 -0.45254368
-0.3921097 0.52331495 -0.30092767 -0.26322445 0.23131028 0.03386753 -0.3579317 0.36118716
0.09119641 0.33611044 0.066291295 0.2417938 0.24795967 -0.2440743 -0.22735897 -0.29237667
-0.024946928 -0.46819758 0.03404385 0.39991373 0.15999016 0.056965094 0.39307883 -0.29466587
0.0543582 -0.2012578 -0.34330124 -0.43419147 -0.48917806 -0.34425676 -0.49838758 -0.07071149
0.17965484 -0.32171407 -0.20782508 -0.30496526 -0.23293124 0.278987 -0.32134464 0.15528846
0.3563954 0.45665115 0.26296118 0.041388933 -0.013639405 0.5456362 0.06876981 0.0065304325
0.063162364 0.44111735 -0.21084669 0.45340937 -0.38757265 -0.024195433 -0.45139265 -0.0024769902
-0.1764089 0.5789261 0.17986155 -0.055573955 -0.055282354 -0.025473595 -0.055143356 -0.4460433
0.43385428 0.5091474 -0.055866797 -0.40487802 0.2599557 -0.010581566 0.21356909 -0.20461345
0.124874264 -0.28071487 -0.36317846 -0.22564182 -0.17318308 -0.26929003 -0.42087597 0.09235412
-0.4796171 -0.062961705 0.4056692 0.4094529 0.44565195 0.059105054 -0.16535923 0.24812967
0.028233338 0.15303876 0.106044486 0.10841675 0.19059823 -0.030122278 0.27871695 0.26660514
0.2625479 -0.43503526 0.48104817 -0.20863903 0.44774157 0.4774551 -0.2564302 0.028990662
-0.36827362 0.4252612 -0.12423905 -0.24697816 0.38740766 -0.09879129 0.3850167 0.3540813
0.33752868 -0.27049285 -0.30567372 -0.13070357 -0.24661905 0.15053928 -0.35821062 0.11017853
0.3710998 0.45649776 -0.3719914 -0.5773012 -0.04092757 0.29923332 0.11377465 -0.5033372
0.10129053 -0.18171774 0.21943833 0.01975242 0.0635722 -0.3971296 -0.012991054 0.44219854
-0.041816354 -0.26488632 -0.39850873 -0.43797046 0.1577087 0.30718535 0.47549877 -0.3877645
0.4260717 -0.10531688 0.497845 0.061580785 0.4802135 -0.45381346 0.4224661 0.18344527
0.41594064 0.3812166 -0.49003863 0.39811987 -0.5244726 0.34425843 -0.24049337 -0.07196202
00000000: 509c 40be f861 6bbe a6c4 c6be c430 ccbe
00000010: 84e9 9fbe 74bf f6be dc60 2cbe c4ac d4be
00000020: 00f2 cd3d d70a f9be f0a3 5bbe b089 253e
00000030: 0dcd bf3e 782f 613d 6b9d e63b 6535 de3e
00000040: 1e97 c13d 39b4 8a3d 3115 09bf 3a7a 593e
00000050: dd9c 61be 7003 ecbd 2f1d da3c 3f1a df3e
00000060: a7eb 00bd 21cb b53e ccac 73bc d7b8 fdbe
00000070: e82f 06bf a8a4 c53e 5d4a 82be 2e31 0ebf
00000080: 241b 13be a7c1 3bbe be83 df3e 7f4c 4d3e
00000090: 8052 c4bd c0d5 2dbd 1085 c6bd a40e f2be
000000a0: 8c71 e03e 11c0 2ebc df8f 9abe 0900 0fbf
000000b0: b8f0 e6be a0f1 1f3d 5010 793d 4045 903c
000000c0: 8e3a 7c3e 8381 1e3d 3fdf 50bd c0b6 94be
000000d0: 0e44 483b 5bc5 4fbd 3b46 83be d1b4 a4be
000000e0: 07b7 51bc 0b38 b23e ad7a c7bd 2e54 333e
000000f0: aff2 6e3d 6d94 ce3e 027e 08be 13a6 a83e
00000100: f441 043e 4e5a 8f3e 2843 efbe 8dd3 e83e
00000110: a2d6 3e3e 9afa 263e da1f 89be 8195 b33c
00000120: 0384 ee3d 7545 f3bd 5928 8fbe 5798 d0be
00000130: 703f 4fbd 3427 31be 6697 a9be 6821 963d
00000140: fced 06be 0a61 4bbe ea73 323e 62e1 db3e
00000150: 840c f6bd e39d a83e a9ae 81be f6ff 2b3e
00000160: ef4a f43e de3d 8ebe b514 92be dc4f b5be
00000170: 9de5 0f3e eb64 5d3e d811 f5be ceb3 e7be
00000180: 9ac2 c8be f8f7 053f 3113 9abe 5bc5 86be
00000190: 9adc 6c3e aeb8 0a3d d342 b7be 86ed b83e
000001a0: 2fc5 ba3d ab16 ac3e bbc3 873d cb98 773e
000001b0: 24e9 7d3e 9dee 79be cad0 68be 65b2 95be
000001c0: 805d ccbc 98b7 efbe 9071 0b3d 7ec1 cc3e
000001d0: 76d4 233e 3b54 693d a141 c93e 72de 96be
000001e0: b4a6 5e3d 8616 4ebe 2ec5 afbe 584e debe
000001f0: 8c75 fabe 6c42 b0be a82c ffbe 30d1 90bd
00000200: 70f7 373e b5b7 a4be 19d0 54be 6824 9cbe
00000210: 8785 6ebe 62d7 8e3e 4987 a4be f003 1f3e
00000220: 7579 b63e 2ece e93e d9a2 863e 7187 293d
00000230: d077 5fbc d0ae 0b3f 30d7 8c3d 3dfd d53b
00000240: 455b 813d 22da e13e 32e8 57be 4625 e83e
00000250: ec6f c6be 8035 c6bc f01c e7be 0055 22bb
00000260: 89a4 34be 8034 143f a02d 383e 84a1 63bd
00000270: c06f 62bd 00ae d0bc 00de 61bd ca5f e4be
00000280: 2622 de3e 7c57 023f 95d4 64bd 2c4c cfbe
00000290: ea18 853e 4e5e 2dbc dbb1 5a3e 3086 51be
000002a0: 14be ff3d dcb9 8fbe 87f2 b9be a60e 67be
000002b0: e856 31be 62e0 89be 0e7d d7be 2824 bd3d
000002c0: 5f90 f5be 11f2 80bd e0b3 cf3e cfa3 d13e
000002d0: 7e2c e43e 2418 723d ee53 29be b415 7e3e
000002e0: 9a49 e73c 31b6 1c3e da2d d93d 9a09 de3d
000002f0: 2f2c 433e ffc2 f6bc fdb3 8e3e 7880 883e
00000300: ae6c 863e f1bc debe f24b f63e 78a5 55be
00000310: 623e e53e ff74 f43e d24a 83be d37d ed3c
00000320: 5c8e bcbe d6bb d93e 0b71 febd d8e7 7cbe
00000330: 4c5a c63e 1653 cabd e920 c53e 254a b53e
00000340: 8fd0 ac3e 0a7e 8abe 4481 9cbe 28d7 05be
00000350: b489 7cbe f826 1a3e 6267 b7be 48a5 e13d
00000360: cb00 be3e 13ba e93e a875 bebe 03ca 13bf
00000370: aba3 27bd 1c35 993e af02 e93d b5da 00bf
00000380: 6971 cf3d 3714 3abe 71b4 603e d4cf a13c
00000390: 2432 823d 9254 cbbe 6ed8 54bc d967 e23e
000003a0: a047 2bbd 2e9f 87be 5609 ccbe aa3d e0be
000003b0: 647e 213e 6647 9d3e 9374 f33e 1289 c6be
000003c0: 1226 da3e 60b0 d7bd 8ae5 fe3e 223c 7c3d
000003d0: 8bde f53e 3d5a e8be 7a4d d83e 14d9 3b3e
000003e0: 2cf6 d43e d22e c33e 58e6 fabe 5ed6 cb3e
000003f0: d643 06bf a442 b03e e543 76be d360 93bd

bias f4 [256]
0.14944613 -0.32581133 0.49965513 0.06288777 -0.35069034 0.23446153 0.18969625 0.321695
-0.44954863 -0.4051838 -0.35421678 -0.016087353 0.26922965 0.6415336 0.06429256 0.5556712
-0.40820107 -0.46324295 -0.38094616 0.15112734 0.040305015 -0.36291665 -0.109334335 0.32455227
-0.29395384 -0.11546827 0.27759406 -0.3903172 -0.0026673079 -0.42319477 0.3849039 0.36533028
0.35112607 0.49621964 -0.18048106 0.26781183 0.029816514 0.37982446 0.5706671 -0.30484372
0.04953864 -0.35933784 0.17944312 -0.085642755 0.35839334 -0.19984919 0.37470487 0.4205333
-0.19924536 0.12142378 -0.15791579 0.40328994 0.42566746 -0.21289611 -0.36670506 0.17021361
-0.21582128 0.35481623 0.006767869 -0.103426084 -0.1074958 0.20135258 -0.38699022 0.28612998
0.046565402 -0.12255523 -0.33864295 0.1299453 0.3447358 -0.32918435 0.32149968 -0.49825472
-0.28424004 0.1343906 0.10136495 0.41677883 0.43039218 0.019448252 0.47278035 -0.45906222
-0.14616099 -0.4529534 0.32447505 0.08886994 0.57651633 -0.07711207 0.29515037 0.5349824
0.091374815 0.20788133 0.20634189 0.08904425 0.11921769 -0.45511985 -0.34089038 -0.14388591
-0.38917133 0.5427215 0.3693874 0.5030764 -0.1637462 0.35333017 -0.118287705 -0.5469496
-0.26943237 -0.38002145 -0.0756533 0.36722982 -0.416279 -0.39493373 0.11441431 0.0081654545
-0.45432448 0.123741224 -0.36447746 0.052710332 -0.17751221 -0.44024682 0.4465198 0.01505776
-0.293622 -0.027081048 -0.1265254 -0.3872341 0.15388732 0.041125953 -0.36723316 0.44673762
0.36599916 0.5253641 -0.36894187 -0.4095331 0.075631216 0.4033605 0.25371394 -0.29003912
-0.20047814 -0.28849384 -0.33522534 0.53012747 0.20158613 -0.11120502 -0.13449305 0.10744523
-0.20577377 -0.08949305 0.2981232 0.26450005 -0.12939098 0.0010744195 0.34307998 -0.26512927
-0.39448506 -0.20966035 -0.0827544 0.26682702 0.5354106 -0.30451056 -0.46231598 0.5284446
-0.021480512 -0.23183568 0.47330976 -0.2337941 -0.43987304 -0.3150787 -0.26492223 0.024397831
-0.35171533 -0.22700906 0.36912543 -0.20866083 -0.19828126 0.22103536 0.18129323 0.4888478
-0.08641487 0.30247128 0.4573503 0.47595719 0.33847418 -0.02882958 -0.18068926 -0.008199761
-0.08242865 0.46710387 0.39901373 0.2589513 0.26996192 0.34990722 -0.30295086 -0.31736585
0.49688914 0.42964137 0.52560014 0.17142126 0.46250382 0.20748846 0.12302604 0.018847734
0.28749564 0.00033985774 -0.19607247 0.28734326 -0.46304548 -0.21106982 0.17109784 0.014342763
0.38706622 0.52288574 0.28707507 0.29971492 -0.17897224 0.2691359 -0.12798388 0.22403961
-0.11792349 -0.037597142 -0.079348326 -0.23884039 0.3764876 0.34839493 0.38746932 0.18300377
0.29458335 0.19758855 -0.0037949348 0.35328043 -0.26469666 -0.1551244 -0.36042947 -0.16555654
-0.07570473 -0.40203977 0.250683 -0.12112821 0.273977 0.50778615 -0.021014575 -0.4276322
0.3510357 -0.3843688 -0.035224386 0.3700055 0.2959227 -0.0948446 0.04852327 0.44787258
0.32324857 0.367433 -0.37506205 0.058062624 -0.44229147 -0.3883072 0.6013054 0.2048662
00000000: 6808 193e bed0 a6be ccd2 ff3e 4ecb 803d
00000010: af8d b3be af16 703e bc3f 423e 35b5 a43e
00000020: 3d2b e6be 4074 cfbe e75b b5be a0c9 83bc
00000030: 78d8 893e 8c3b 243f d1ab 833d 7840 0e3f
00000040: bbff d0be 2e2e edbe 600b c3be 20c1 1a3e
00000050: df16 253d 36d0 b9be aeea dfbd b72b a63e
00000060: 1e81 96be a17a ecbd cf20 8e3e a8d7 c7be
00000070: 00ce 2ebb fcac d8be 2012 c53e 920c bb3e
00000080: ccc6 b33e 8010 fe3e 07d0 38be a21e 893e
00000090: c341 f43c 5a78 c23e 3d17 123f 7a14 9cbe
000000a0: 07e9 4a3d 21fb b7be f0bf 373e 7865 afbd
000000b0: 557f b73e 44a5 4cbe 51d9 bf3e 2450 d73e
000000c0: fa06 4cbe 08ad f83d adb4 21be 057c ce3e
000000d0: 16f1 d93e 7001 5abe c4c0 bbbe 7a4c 2e3e
000000e0: 4100 5dbe 79aa b53e 00c5 dd3b 0ed1 d3bd
000000f0: c226 dcbd 5f2f 4e3e 9523 c6be a17f 923e
00000100: 5dbb 3e3d 3dfe fabd 9c62 adbe 6110 053e
00000110: 3681 b03e da8a a8be 9b9b a43e 3e1b ffbe
00000120: e987 91be b09d 093e 6d98 cf3d 0964 d53e
00000130: 5d5c dc3e f151 9f3c 4410 f23e 340a ebbe
00000140: 3aab 15be 82e9 e7be 9821 a63e 7101 b63d
00000150: 9396 133f efec 9dbd f31d 973e 9bf4 083f
00000160: b822 bb3d d8de 543e 4a4b 533e d55c b63d
00000170: 6728 f43d 7805 e9be 2f89 aebe d456 13be
00000180: 7741 c7be ccef 0a3f 5820 bd3e 9dc9 003f
00000190: 15ad 27be b1e7 b43e d340 f2bd e404 0cbf
000001a0: 0af3 89be 2c92 c2be 1ef0 9abd 8c05 bc3e
000001b0: 8522 d5be c134 cabe 0d52 ea3d 66c8 053c
000001c0: 389d e8be 0a6c fd3d ca9c babe cae6 573d
000001d0: c3c5 35be 0868 e1be 3e9e e43e d3b4 763c
000001e0: 9f55 96be 13d9 ddbc e08f 01be 8c43 c6be
000001f0: a394 1d3e b073 283d fc05 bcbe cbba e43e
00000200: 3e64 bb3e 437e 063f f3e5 bcbe 53ae d1be
00000210: 8ae4 9a3d 4485 ce3e cbe6 813e 0280 94be
00000220: 244a 4dbe 77b5 93be a8a2 abbe 6fb6 073f
00000230: 986c 4e3e 75bf e3bd 8cb8 09be 3f0c dc3d
00000240: 5cb6 52be 2248 b7bd 9ba3 983e 8d6c 873e
00000250: 127f 04be 89d3 8c3a 2ea8 af3e 06bf 87be
00000260: f2f9 c9be 34b1 56be 247b a9bd 8d9d 883e
00000270: ab10 093f cfe8 9bbe aeb4 ecbe 2548 073f
00000280: e6f7 afbc 5566 6dbe a855 f23e b867 6fbe
00000290: 0a37 e1be ff51 a1be e3a3 87be f6dd c73c
000002a0: 0814 b4be 1075 68be 02fe bc3e 2fab 55be
000002b0: 3e0a 4bbe 1857 623e efa4 393e 424a fa3e
000002c0: 48fa b0bd 84dd 9a3e d229 ea3e a9b0 f33e
000002d0: 7d4c ad3e 032c ecbc 9b06 39be 4a58 06bc
000002e0: 5ad0 a8bd 3d28 ef3e 874b cc3e 4495 843e
000002f0: 7338 8a3e 0a27 b33e 601c 9bbe c77d a2be
00000300: 4168 fe3e f4f9 db3e bb8d 063f 0e89 2f3e
00000310: 4dcd ec3e db77 543e 14f5 fb3d 9066 9a3c
00000320: a132 933e ef2e b239 39c7 48be a81e 933e
00000330: 4c14 edbe b022 58be 4634 2f3e e9fd 6a3c
00000340: 8b2d c63e d7db 053f 81fb 923e 3c74 993e
00000350: 8044 37be 2ecc 893e 350e 03be a46a 653e
00000360: df81 f1bd 76ff 19bd 6081 a2bd 9392 74be
00000370: fcc2 c03e d260 b23e 6162 c63e 5765 3b3e
00000380: a1d3 963e a754 4a3e 71b4 78bb 2ce1 b43e
00000390: 5286 87be eed8 1ebe 368a b8be a787 29be
000003a0: 150b 9bbd 28d8 cdbe 8659 803e 1112 f8bd
000003b0: b746 8c3e 46fe 013f c226 acbc 9cf2 dabe
000003c0: f4ba b33e fdcb c4be 7247 10bd 5c71 bd3e
000003d0: 2e83 973e e33d c2bd 56c0 463d 8e4f e53e
000003e0: d680 a53e 2e20 bc3e 2208 c0be 13d3 6d3d
000003f0: 0774 e2be 34d0 c6be 27ef 193f 72c8 513e

weight f4 [256, 256]
-0.04221735 0.027950048 0.024909938 -0.056597836 0.010685826 0.00622157 -0.05314612 -0.05247441
-0.035618618 -0.030444287 -0.02350536 -0.012631379 0.0396533 0.04190225 0.036525395 0.02371202
0.019453326 -0.008610063 0.027631115 -0.033896238 0.032880116 -0.054112215 0.013151612 0.015277672
0.036053084 -0.042575173 0.027556017 -0.0076121716 -0.0007775873 -0.008776792 -0.004488729 -0.042648047
0.020639427 -0.028915614 -0.008873349 0.022401618 0.007183144 0.015638657 0.030852614 0.0066596344
0.018195469 0.055446584 -0.012354108 0.060780518 -0.048241764 -0.05154396 0.02672523 -0.04379988
0.007350729 -0.022578549 -0.0075831697 -0.021510327 -0.026494458 -0.000789091 -0.056305837 0.04281602
-0.048649266 -0.035712495 -0.04983844 0.022529813 -0.055709407 -0.020714564 -0.015441811 -0.04949487
0.0004647841 -0.016723812 0.03981141 -0.06864163 0.05411712 -0.022556933 0.054739557 0.0012096316
-0.027824812 0.01975286 0.01951355 -0.026021086 0.029982671 -0.03403809 -0.021819633 -0.05361367
0.05097049 0.04579701 0.051521562 0.03055677 0.051381655 -0.009932644 -0.04968032 -0.042942677
0.061312653 -0.035658605 -0.004165808 0.008616335 0.011894398 0.05096422 0.0022887238 -0.03238245
-0.011981269 -0.06224643 0.023713026 -0.06776578 -0.017499207 -0.051934224 0.04052785 0.019566668
-0.032187205 0.04442447 -0.060002588 -0.059254386 0.043742377 0.020598631 -0.04207552 0.035897307
0.05468108 0.04480886 0.03948272 0.0038409068 -0.058335405 0.035749365 -0.0035461485 -0.045100566
-0.03953025 -0.02314866 0.011517546 0.007759236 -0.0018520907 -0.040704444 0.029634414 0.008490553
0.0070065036 -0.052835997 -0.02048836 -0.012497582 0.051893067 0.03817496 -0.025231058 0.025989493
-0.021506816 0.056728795 0.05168117 -0.03833774 -0.03333027 0.0309337 0.05596169 0.027153522
-0.029090414 -0.026416294 -0.029856004 -0.06625919 -0.04507008 0.050831918 -0.02990514 0.04916863
-0.002760522 0.049214974 0.032798402 0.030393597 -0.04472188 -0.013846958 -0.045334153 -0.061828304
0.016006956 0.019378647 -0.052875374 -0.0055476325 0.0029515722 -0.024726693 0.007958843 0.053520653
-0.002013868 -0.037544116 0.045248777 -0.053244364 0.041692495 0.02731286 0.013628224 -0.054835062
0.0584035 -0.05736841 0.027661728 0.050360143 0.0108486265 0.011205181 0.014157225 0.0017529622
0.0011256165 0.049387075 0.0049328418 0.028333178 -0.051547445 -0.017975457 -0.048461996 0.05436942
0.0007086969 -0.046143975 -0.0059480546 0.03739267 -0.035320554 -0.02499305 -0.047292925 -0.0379472
0.047003817 0.02115337 0.008093161 0.028419137 -0.062789045 0.0126828775 4.1362884e-05 0.022366628
0.051312733 -0.018611982 0.020857347 -0.018075567 0.010437198 0.04643836 -0.030044137 -0.0011976237
0.051245 -0.028152151 0.0022481382 0.032210268 -0.03453848 -0.026132427 -0.041257914 0.054328583
-0.018145256 -0.024779664 -0.05628933 -0.02723709 0.0054256613 0.03802469 -0.042838246 -0.0068355007
-0.044814833 0.04150863 0.05104982 0.013216394 -0.018633038 0.0409132 0.031816296 0.058638513
0.014863546 -0.009296766 -0.010324665 -0.0064466596 -0.056344256 -0.019708188 -0.04597637 0.03936933
-0.05171144 -0.044714756 0.00444822 0.0050417245 0.05165205 0.036916096 0.026088627 0.008481685
00000000: 1aec 2cbd 80f7 e43c ed0f cc3c 22d3 67bd
00000010: 9a13 2f3c 50de cb3b bfaf 59bd 68ef 56bd
00000020: d4e4 11bd 4c66 f9bc 508e c0bc d8f3 4ebc
00000030: 806b 223d b2a1 2b3d a79b 153d b63f c23c
00000040: 955c 9f3c 3911 0dbc a65a e23c c8d6 0abd
00000050: 4dad 063d c5a4 5dbd dc79 573c 334f 7a3c
00000060: 66ac 133d 4e63 2ebd 28bd e13c 866f f9bb
00000070: 00d7 4bba 89cc 0fbc 3016 93bb b8af 2ebd
00000080: 0414 a93c 70e0 ecbc 8661 11bc 9983 b73c
00000090: 9460 eb3b a41c 803c 9fbe fc3c 1039 da3b
000000a0: aa0e 953c f51b 633d e268 4abc fef4 783d
000000b0: 2899 45bd c21f 53bd dfee da3c 8167 33bd
000000c0: 62de f03b a6f6 b8bc 3d7c f8bb 6d36 b0bc
000000d0: e80a d9bc 00db 4eba f3a0 66bd da5f 2f3d
000000e0: 7444 47bd 4447 12bd 6423 4cbd 7190 b83c
000000f0: 8c2f 64bd 97b1 a9bc a6ff 7cbc 22bb 4abd
00000100: 44ae f339 6000 89bc 4a11 233d fc93 8cbd
00000110: eaa9 5d3d 51c9 b8bc 9636 603d 808c 9e3a
00000120: dcf0 e3bc c0d0 a13c e1da 9f3c 2c2a d5bc
00000130: 389e f53c 866b 0bbd 16bf b2bc 029a 5bbd
00000140: 6fc6 503d a595 3b3d 4608 533d 3152 fa3c
00000150: 9275 523d 87bc 22bc 977d 4bbd a9e4 2fbd
00000160: fa22 7b3d c20e 12bd 5581 88bb 872b 0d3c
00000170: b9e0 423c dcbf 503d 6afe 153b 76a3 04bd
00000180: 164d 44bc 1df6 7ebd d241 c23c c9c8 8abd
00000190: 7f5a 8fbc fbb8 54bd 8800 263d 474a a03c
000001a0: bbd6 03bd 6ff6 353d 46c5 75bd bab4 72bd
000001b0: 352b 333d 76be a83c 6157 2cbd 0e09 133d
000001c0: 45f9 5f3d 7f89 373d a2b8 213d b9b7 7b3b
000001d0: 1bf1 6ebd ed6d 123d 8066 68bb 5fbb 38bd
000001e0: 79ea 21bd 42a2 bdbc 17b4 3c3c 3041 fe3b
000001f0: dac1 f2ba b4b9 26bd dfc3 f23c f61b 0b3c
00000200: d096 e53b 8f6a 58bd 35d7 a7bc a8c2 4cbc
00000210: d38d 543d 595d 1c3d 5db1 cebc ebe7 d43c
00000220: 102f b0bc 745c 683d a2af 533d 0908 1dbd
00000230: 5285 08bd ac68 fd3c 1638 653d 1071 de3c
00000240: 054f eebc fc66 d8bc 9494 f4bc e6b2 87bd
00000250: 679b 38bd 2135 503d a0fb f4bc 0c65 493d
00000260: e0e9 34bb a495 493d 9e57 063d fefb f83c
00000270: 4a2e 37bd 5ade 62bc 4eb0 39bd ad3f 7dbd
00000280: 0521 833c f8bf 9e3c d993 58bd eac8 b5bb
00000290: 2a6f 413b a28f cabc cf65 023c 7938 5b3d
000002a0: 19fb 03bb dcc7 19bd c856 393d c316 5abd
000002b0: c0c5 2a3d 38bf df3c ea48 5f3c bb9a 60bd
000002c0: 8238 6f3d 23fb 6abd d99a e23c 7046 4e3d
000002d0: 70be 313c ef95 373c b5f3 673c a7c3 e53a
000002e0: 6c89 933a 1a4a 4a3d ada3 a13b fb1a e83c
000002f0: 6a23 53bd 4441 93bc 1680 46bd 78b2 5e3d
00000300: d8c7 393a 7701 3dbd e6e7 c2bb 0e29 193d
00000310: 49ac 10bd 3abe ccbc 3ab6 41bd 866e 1bbd
00000320: 1387 403d d549 ad3c 2d99 043c 40cf e83c
00000330: 8b97 80bd d8cb 4f3c 0f7d 2d38 383a b73c
00000340: 4d2d 523d 2878 98bc 07dd aa3c 3613 94bc
00000350: c800 2b3c 2636 3e3d 1f1f f6bc 95f9 9cba
00000360: 47e6 513d 579f e6bc 8055 133b eaee 033d
00000370: 3978 0dbd ac13 d6bc 0ffe 28bd a687 5e3d
00000380: 5ca5 94bc b9fe cabc a48f 66bd 5120 dfbc
00000390: bfc9 b13b c7bf 1b3d 2877 2fbd 56fc dfbb
000003a0: c28f 37bd f404 2a3d 9e19 513d 9389 583c
000003b0: 50a4 98bc 9994 273d ce51 023d f02e 703d
000003c0: 3b86 733c 7651 18bc c928 29bc 803e d3bb
000003d0: 3cc9 66bd 1173 a1bc b851 3cbd bc41 213d
000003e0: 60cf 53bd d226 37bd 60c2 913b 0d35 a53b
000003f0: 1a91 533d 5535 173d d1b7 d53c c4f6 0a3c

bias f4 [256]
0.046731777 -0.057452895 0.013677972 0.07643268 0.02659282 0.040751904 -0.050681405 0.027456857
0.006974431 -0.048831448 0.06900644 -0.023640785 0.073473155 0.065149754 -0.058004595 0.011578265
-0.011911247 0.00985723 0.017776012 0.010575211 -0.007842466 -0.0137372315 -0.036095865 0.08384799
-0.046494544 0.027102567 0.0313923 0.031510998 -0.06235396 -0.051391263 -0.06798424 0.050219055
0.0743352 0.06297205 -0.02094644 -0.05124832 -0.047089715 -0.0041290396 -0.03577176 0.030921964
-0.013867974 -0.05494777 -0.020020979 -0.05717008 -0.051671498 -0.0025427903 -0.00031517912 0.009565729
-0.056247346 0.016624942 -0.02602154 0.056169923 -0.032696713 0.042725526 -0.036035493 -0.027627783
-0.0306131 0.04754278 0.031158969 -0.056788635 -0.037023574 -0.049847353 -0.026547821 0.047548685
0.028708037 -0.065497786 0.032066897 0.0007488103 0.0033344734 -0.0072012246 0.035404287 -0.01106092
0.013529716 0.068350784 -0.007250729 -0.009761943 0.043622404 0.006745793 0.083053626 0.02585952
-0.0184566 0.024372766 0.033981528 0.025075013 0.051127832 0.006475799 0.06100718 0.03272577
0.024064532 0.093806535 0.03376834 -0.035406783 0.07090115 0.01636916 0.05508431 -0.051874895
-0.013783552 0.015600242 0.10273185 -0.043546103 -0.027207464 -0.044358276 0.0062733945 -0.038560987
-0.0033083148 0.08603114 0.000841505 -0.015411075 -0.0106669245 -0.022209052 -0.0345947 0.09298676
-0.0029125118 -0.052516937 0.02690918 0.07314279 -0.13313372 0.05985072 0.0071140393 -0.060811505
0.03414437 -0.0032192199 -0.0029835643 0.051448435 0.019352783 0.084878005 -0.00097456574 0.003108831
0.07471893 -0.039018594 0.05495868 0.012027726 -0.03275954 0.011205681 -0.022591263 -0.048799574
0.01908885 -0.00090243167 0.06400021 -0.012792264 0.01866983 -0.028764982 -0.0060840603 0.026864337
0.055335138 0.039169203 -0.029495731 -0.0399215 0.05741723 -0.0120821595 -0.00659064 -0.04053065
-0.038883675 0.01559834 -0.10953941 -0.02171164 -0.055835374 0.023199232 -0.0024068616 -0.041529574
0.01763808 -0.03320416 -0.021153852 0.013827066 0.0574177 -0.05426126 0.039646342 -0.020619282
0.0072777197 -0.033069603 0.04561572 -0.017945463 0.033246227 -0.028024629 -0.024962274 -0.057315227
-0.06557039 -0.000645354 -0.021699984 -0.004908651 -0.013096049 -0.054771185 -0.02774817 -0.008718441
-0.08386044 0.03313884 -0.040905472 0.0048770607 -0.039276056 -0.008816708 0.037421092 0.065871805
-0.14405982 -0.09767764 0.0152899865 0.05947723 0.022813268 -0.05329565 0.09357987 0.010942576
0.002160509 -0.031724907 -0.041351594 0.021526318 -0.011808382 -0.028484799 0.085081264 0.026406962
-0.019137675 0.045070074 -0.008985229 0.008056329 0.05839485 -0.040855814 0.06764772 0.061818793
-0.012285412 0.04084138 0.053207435 0.027974613 0.04729127 0.03845845 -0.055574723 0.018213637
0.09168409 -0.008334927 0.07698389 0.060389824 0.07820577 0.008724246 -0.041845128 -0.043419633
0.010588114 -0.0018428842 -0.046195067 0.0987343 0.04503896 0.015509552 0.05487115 0.04593622
0.10516304 -0.03337055 0.058012165 0.055435263 -0.02078214 -0.040866878 0.04241306 0.0057911566
0.0536542 0.01596375 -0.022839978 -0.054213475 0.038638964 0.06175758 0.0709589 0.043560505
00000000: d269 3f3d ba53 6bbd 9319 603c bd88 9c3d
00000010: 30d9 d93c 78eb 263d 4e97 4fbd 34ed e03c
00000020: c589 e43b 7c03 48bd 4053 8d3d 52aa c1bc
00000030: 1879 963d 3c6d 853d 3a96 6dbd c3b2 3d3c
00000040: 6427 43bc 3880 213c 009f 913c a643 2d3c
00000050: b07d 00bc 2012 61bc 42d9 13bd 7fb8 ab3d
00000060: 1071 3ebd 3406 de3c 3695 003d ad11 013d
00000070: de66 7fbd a57f 52bd 523b 8bbd 7fb2 4d3d
00000080: 0e3d 983d 7df7 803d de97 abbc c2e9 51bd
00000090: 25e1 40bd e54c 87bb 6985 12bd 0f50 fd3c
000000a0: 8036 63bc ea10 61bd 0903 a4bc 2c2b 6abd
000000b0: 7ea5 53bd f1a4 26bb a03e a5b9 93b9 1c3c
000000c0: 9e63 66bd 0831 883c 202b d5bc 6f12 663d
000000d0: fdec 05bd f600 2f3d f499 13bd a953 e2bc
000000e0: 53c8 fabc 38bc 423d 1841 ff3c 339b 68bd
000000f0: 08a6 17bd bd2c 4cbd d17a d9bc 69c2 423d
00000100: 1e2d eb3c b423 86bd 9458 033d cf4b 443a
00000110: 2e87 5a3b 40f8 ebbb 1604 113d dc38 35bc
00000120: beab 5d3c 7ffb 8b3d 8697 edbb 8ef0 1fbc
00000130: 68ad 323d d00b dd3b 0518 aa3d 58d7 d33c
00000140: 4c32 97bc 65a9 c73c 3730 0b3d 1d6a cd3c
00000150: 6b6b 513d f032 d43b aae2 793d 750b 063d
00000160: fb22 c53c a41d c03d ac50 0a3d b406 11bd
00000170: 9f34 913d 9e18 863c 16a0 613d c57a 54bd
00000180: 68d4 61bc 2898 7f3c 1465 d23d 665d 32bd
00000190: 30e2 debc 06b1 35bd 0c91 cd3b 20f2 1dbd
000001a0: 50d0 58bb 1831 b03d 7298 5c3a bc7e 7cbc
000001b0: 53c4 2ebc c2ef b5bc 2cb3 0dbd d86f be3d
000001c0: d7df 3ebb 001c 57bd a470 dc3c e3cb 953d
000001d0: 3554 08be 0726 753d e31c e93b 7c15 79bd
000001e0: f8da 0b3d 8cf9 52bb e787 43bb 98bb 523d
000001f0: ba89 9e3c 85d4 ad3d 007a 7fba 87bd 4b3b
00000200: 3d06 993d f6d1 1fbd 5a1c 613d f00f 453c
00000210: de2e 06bd 0898 373c 5011 b9bc 10e2 47bd
00000220: 3860 9c3c 2a91 6cba 8b12 833d a596 51bc
00000230: 79f1 983c 8aa4 ebbc cc5c c7bb 9912 dc3c
00000240: 19a7 623d e36f 203d 08a1 f1bc ba84 23bd
00000250: 542e 6b3d 40f4 45bc 4cf6 d7bb 7803 26bd
00000260: 7d44 1fbd 2e90 7f3c 3356 e0bd 9cdc b1bc
00000270: a2b3 64bd 510c be3c 70bc 1dbb ea1a 2abd
00000280: bc7d 903c 1601 08bd d84a adbc eb8a 623c
00000290: d22e 6b3d 0e41 5ebd 3464 223d c5e9 a8bc
000002a0: f079 ee3b fe73 07bd 8dd7 3a3d 5d02 93bc
000002b0: 322d 083d e893 e5bc af7d ccbc 5fc3 6abd
000002c0: c549 86bd f92c 29ba 2ac4 b1bc c0d8 a0bb
000002d0: d090 56bc c057 60bd 2150 e3bc cbd7 0ebc
000002e0: 06bf abbd 98bc 073d 7f8c 27bd c0cf 9f3b
000002f0: eedf 20bd f473 10bc dc46 193d cce7 863d
00000300: 6b84 13be 370b c8bd da82 7a3c 659e 733d
00000310: e4e2 ba3c 8a4c 5abd cea6 bf3d 7e48 333c
00000320: 5397 0d3b faf1 01bd 4a60 29bd f657 b03c
00000330: f277 41bc f458 e9bc 163f ae3d 6a53 d83c
00000340: 9dc6 9cbc 669b 383d c836 13bc b1fe 033c
00000350: 702f 6f3d 6d58 27bd e38a 8a3d b435 7d3d
00000360: c148 49bc 4a49 273d 0af0 593d 042b e53c
00000370: 7eb4 413d 9c86 1d3d 52a2 63bd c434 953c
00000380: dec4 bb3d 388f 08bc bba9 9d3d 525b 773d
00000390: 592a a03d 24f0 0e3c cc65 2bbd c9d8 31bd
000003a0: c579 2d3c ef8c f1ba 0a37 3dbd 3535 ca3d
000003b0: c67a 383d c71b 7e3c 92c0 603d 9e27 3c3d
000003c0: b85f d73d 8faf 08bd 2a9e 6d3d 1610 633d
000003d0: 4e3f aabc 0764 27bd 51b9 2d3d bec3 bd3b
000003e0: 82c4 5b3d 69c6 823c e81a bbbc f30e 5ebd
000003f0: e443 1e3d 84f5 7c3d e652 913d 806c 323d

weight_mu f4 [1, 256]
0.033051234 0.04843141 0.104674384 -0.041154794 -0.061894834 -0.10865008 0.04177646 0.043349467
-0.025464762 0.065965824 -0.095773354 0.055954408 -0.06453638 -0.083835 0.04205978 -0.07999265
-0.07361832 -0.054727145 0.025629975 0.06372868 -0.041902453 0.0038165674 0.03830362 -0.092114724
0.05163124 -0.010486351 -0.049941696 0.051774617 0.01815805 0.07053309 0.025418418 0.016064081
-0.08371852 -0.072808206 0.057245184 -0.008146204 0.040690836 0.053814 0.024352325 -0.054039035
-0.021366306 -0.04507552 -0.0012620569 -0.039004765 -0.003984928 0.03861781 -0.0432636 -0.030789496
-0.057320543 0.015073404 0.031313032 -0.06560782 0.022301191 -0.11466179 0.04231038 -0.062275894
0.038956035 -0.061220028 -0.034513474 0.01785929 -0.036877 -0.05067657 -0.011650627 0.053347398
0.060061153 0.06632836 0.0036564097 0.043757353 -0.08565799 -0.03766059 -0.018329265 -0.051585775
-0.06767998 -0.06675264 -0.06689012 -0.021178737 0.037690707 0.050871953 -0.016960306 -0.031011216
0.0034966767 0.06510296 -0.066834256 -0.08164275 -0.07463977 0.018080557 0.0035819113 0.06568355
0.03670465 -0.085552245 -0.04811108 0.041581966 -0.052646764 -0.048094586 0.03883274 0.12843013
0.044402897 0.0106885955 -0.25569245 -0.019557692 -0.028868742 0.056049924 -0.07218965 -0.058158636
-0.08568042 -0.08496337 -0.043471657 -0.09052327 0.06274129 0.061875295 -0.006196484 -0.07060742
-0.064393096 0.1787602 -0.26433352 -0.15147962 0.166449 -0.073513836 -0.059879217 0.038617097
-0.008814514 0.049140915 0.04578896 0.05057399 0.19807705 -0.08035578 0.03801368 -0.060625337
-0.062133644 -0.03910979 -0.07807214 -0.104268014 0.058726385 0.03282801 0.044898033 0.1387877
0.050410867 -0.020306945 -0.059485253 -0.09067263 -0.08448904 -0.06128908 0.045334294 -0.040819548
0.029107194 -0.0778504 0.036134664 0.0532 -0.043253824 -0.048160445 0.05583166 0.02432134
0.048294995 0.03855465 0.19024861 0.035804294 0.06896611 0.05665358 -0.10820291 0.014289252
0.0002078544 0.043145187 -0.053131793 -0.12134586 0.033683088 -0.008028608 -0.040774472 0.069986515
0.020994425 -0.016438661 -0.11834118 -0.004252199 -0.061078306 0.06149461 0.07244496 0.06008669
0.085944206 -0.0378123 -0.052353133 0.052721493 -0.02206169 0.044076744 0.057784438 0.16816336
0.06387227 -0.063002676 -0.0615714 0.028219342 0.030277606 0.056036662 0.009621984 -0.054221917
0.16386776 0.0515277 0.039063107 -0.113522545 0.009239443 -0.03013239 -0.024080819 -0.24370928
0.0010763828 0.05731147 -0.043506697 -0.044771943 0.039034583 0.0050146175 -0.06849262 -0.0843375
-0.0835939 0.057294566 0.021293435 0.04472602 -0.044920918 0.04539562 -0.07148649 -0.059093177
-0.081524245 -0.03349822 0.03501088 0.018218026 0.018418182 -0.0753197 0.055777706 -0.07387737
-0.06566992 0.040089116 -0.055210907 0.05395536 -0.062395826 0.05818396 0.018943459 -0.044532847
-0.05375476 -0.033000045 0.037725314 -0.0045212405 -0.1149892 -0.039678995 0.018911138 -0.0851585
-0.10195549 -0.05238276 0.021022879 0.046575356 -0.063261606 0.036751498 0.05162677 0.04059924
0.037070718 -0.036668908 0.05242639 0.011679599 -0.06177219 0.059165604 -0.09228279 0.05719897
00000000: bb60 073d 0460 463d 865f d63d ee91 28bd
00000010: 7085 7dbd ef83 debd cb1d 2b3d 368f 313d
00000020: 7a9b d0bc 1719 873d d224 c4bd 7330 653d
00000030: a62b 84bd afb1 abbd e046 2c3d 30d3 a3bd
00000040: 34c5 96bd 9229 60bd f4f5 d13c 2f84 823d
00000050: e8a1 2bbd 601f 7a3b 42e4 1c3d a5a6 bcbd
00000060: 477b 533d f2ce 2bbc aa8f 4cbd 9f11 543d
00000070: 31c0 943c a773 903d 493a d03c d298 833c
00000080: 9e74 abbd 781c 95bd ed79 6a3d a877 05bc
00000090: 6fab 263d 126c 5c3d 877e c73c 0958 5dbd
000000a0: 6408 afbc 1ca1 38bd 9a6b a5ba 76c3 1fbd
000000b0: 0094 82bb b52d 1e3d 2c35 31bd 413a fcbc
000000c0: f2c8 6abd 70f6 763c 1842 003d 655d 86bd
000000d0: fdb0 b63c cdd3 eabd a64d 2d3d 0215 7fbd
000000e0: 5d90 1f3d dac1 7abd 005e 0dbd a54d 923c
000000f0: 560c 17bd 3c92 4fbd 45e2 3ebc cd82 5a3d
00000100: af02 763d 2ad7 873d 60a0 6f3b e93a 333d
00000110: 756d afbd fe41 1abd 4127 96bc 9b4b 53bd
00000120: cd9b 8abd 9cb5 88bd b0fd 88bd 087f adbc
00000130: 9261 1a3d 1c5f 503d 57f0 8abc 3c0b febc
00000140: 8028 653b b354 853d 66e0 88bd 5034 a7bd
00000150: bcdc 98bd ad1d 943c 80be 6a3b 1985 863d
00000160: 9d57 163d 0436 afbd 2010 45bd da51 2a3d
00000170: 22a4 57bd d4fe 44bd 140f 1f3d 3083 033e
00000180: d0df 353d 381f 2f3c 1fea 82be 7437 a0bc
00000190: 247e ecbc 9b94 653d 2bd8 93bd c037 6ebd
000001a0: 3779 afbd 4601 aebd 560f 32bd 4464 b9bd
000001b0: 817e 803d f370 7d3d e00b cbbb 9f9a 90bd
000001c0: 87e0 83bd ea0c 373e b956 87be 791d 1bbe
000001d0: 9b71 2a3e 6c8e 96bd e943 75bd f62c 1e3d
000001e0: c06a 10bc fc47 493d 348d 3b3d ac26 4f3d
000001f0: b6d4 4a3e 9291 a4bd 3cb4 1b3d 4652 78bd
00000200: d97f 7ebd 9631 20bd 49e4 9fbd 788a d5bd
00000210: 148b 703d aa76 063d 00e7 373d 5d1e 0e3e
00000220: a07b 4e3d c05a a6bc cfa6 73bd 92b2 b9bd
00000230: 9708 adbd 420a 7bbd 74b0 393d 6632 27bd
00000240: 3672 ee3c 0870 9fbd f101 143d 3ee8 593d
00000250: ec2a 31bd e343 45bd bdaf 643d 8c3d c73c
00000260: f9d0 453d 7beb 1d3d 88d0 423e 86a7 123d
00000270: 1b3e 8d3d 960d 683d 7d99 ddbd 781d 6a3c
00000280: 7ef3 5939 02b9 303d b9a0 59bd 2e84 f8bd
00000290: 47f7 093d 6c8a 03bc 2203 27bd 1755 8f3d
000002a0: 80fc ab3c 5faa 86bc dc5c f2bd 0856 8bbb
000002b0: 3f2d 7abd c6e1 7b3d 065e 943d 761d 763d
000002c0: 8403 b03d 12e1 1abd 3d70 56bd 7ef2 573d
000002d0: b8ba b4bc d189 343d 60af 6c3d 0433 2c3e
000002e0: 77cf 823d 8c07 81bd 4b32 7cbd 402c e73c
000002f0: be08 f83c b386 653d 87a5 1d3c cd17 5ebd
00000300: f3cc 273e b60e 533d a300 203d 827e e8bd
00000310: 0861 173c 34d8 f6bc 2345 c5bc ed8e 79be
00000320: 6a15 8d3a 6fbf 6a3d 1434 32bd c962 37bd
00000330: bae2 1f3d a951 a43b dc45 8cbd 24b9 acbd
00000340: 4733 abbd b5ad 6a3d 926f ae3c a232 373d
00000350: fffe 37bd c2f0 393d 8267 92bd b00b 72bd
00000360: 2ff6 a6bd 6e35 09bd 9267 0f3d f83d 953c
00000370: bae1 963c 3741 9abd 2a77 643d 054d 97bd
00000380: f37d 86bd 7c34 243d d524 62bd 4c00 5d3d
00000390: c492 7fbd 4e52 6e3d 502f 9b3c 1368 36bd
000003a0: f42d 5cbd 0e2b 07bd dc85 1a3d ea26 94bb
000003b0: 757f ebbd 7186 22bd 88eb 9a3c 9467 aebd
000003c0: 0ace d0bd 4e8f 56bd 2c38 ac3c cdc5 3e3d
000003d0: 4d8f 81bd bd88 163d 9876 533d 644b 263d
000003e0: 77d7 173d 2332 16bd 0ebd 563d ca5b 3f3c
000003f0: d604 7dbd a257 723d c2fe bcbd 7849 6a3d

weight_sigma f4 [1, 256]
0.030899072 0.03125 0.005525106 0.0073506683 0.03125 0.0030642126 0.03056876 0.01609701
0.014508069 0.0034921684 0.00028284403 0.011420314 0.00086194446 0.0023910096 0.03125 0.0033412096
0.0014693033 0.03125 0.03125 0.017832108 0.03125 0.03125 0.03125 -0.00045318605
0.030680686 0.032485843 0.0131140025 0.030431444 0.0307472 0.0010176346 0.025155766 0.029413613
3.5673125e-05 0.0052291816 0.033541366 0.03125 0.030543275 0.033638615 0.031764373 0.0070895674
0.03125 0.03125 0.030806066 0.03125 0.03125 0.03096039 0.019756693 0.030100994
0.03125 0.03125 0.03125 0.008380385 0.031199297 0.0035291829 0.030666674 0.01782104
0.031434793 0.03125 0.0049560685 0.031145755 0.03125 0.012973424 0.029522665 0.031006813
0.007186969 0.025770899 0.03125 0.030731574 0.000506359 0.03125 0.033450216 0.0067573762
0.01172821 0.0067544826 0.00068057276 0.007349065 0.030718883 0.03125 0.0081642205 0.03125
0.03125 0.00954143 0.0019998793 -6.056538e-05 0.0048283087 0.010448988 0.03125 0.012697364
0.031450998 0.0028997052 0.03125 0.03125 0.017987901 0.004946328 0.03125 0.016389076
0.03125 0.03125 0.012141864 0.03125 0.03125 0.01734621 0.0026573867 0.03125
0.006534397 0.0018339425 0.0083575 0.012245822 0.030095587 0.03065839 0.03125 0.011283044
0.011492582 0.017773455 0.008146306 0.0021463945 0.017850367 0.0035020076 0.0047422065 0.030823046
0.03125 0.030652104 0.031827252 0.03125 0.022693805 0.009228191 0.03125 0.002694632
0.009883413 0.03125 0.01028145 0.003827338 0.03125 0.03125 0.03221979 0.0005953808
0.03125 0.019117894 0.0010671664 0.0005119638 0.0002205618 0.009056469 0.031723104 0.0070425766
0.031020507 -0.0006787469 0.033542182 0.03216481 0.03125 0.017469008 0.031942885 0.031501878
0.031146532 0.032232665 0.0026557134 0.03125 0.0074930135 0.029531026 0.013628998 0.03125
0.018509097 0.0044011576 0.007119871 0.005563031 0.031169847 0.030905517 0.03125 0.0047995606
0.03125 0.030924052 0.0011875702 0.012396574 0.008549584 0.03125 0.027820248 0.016822303
0.021829156 0.0068736663 0.022556981 0.03125 0.03125 0.030511582 0.03168439 0.006861986
0.008702814 0.0030217378 0.021040192 0.03125 0.03140136 0.033636283 0.014953889 0.0025934246
0.011623048 0.017308952 0.031945903 -4.7124016e-05 0.03125 0.03125 0.011988786 0.0055648433
0.030891554 0.030833 0.03125 0.00948726 0.031434793 0.019887693 0.008695778 0.0033013222
0.008843102 0.024798745 0.03115182 0.031442016 0.0022830465 0.03213578 0.0035239966 0.015827047
0.0011396131 0.03125 0.030841155 0.03125 0.0027285405 0.010608988 0.00746461 0.008850943
0.0035885728 0.03125 0.008097308 0.03125 0.002855062 0.021228986 0.03125 0.02895985
-7.427978e-05 0.02902553 0.03125 0.011199981 0.0023547336 0.013724512 0.03125 0.0033259215
-0.0021941883 0.009736306 0.03125 0.030451618 0.012318816 0.031064939 0.03107021 0.03173205
0.031312067 0.030935552 0.029140439 0.012091763 0.010771625 0.03125 0.0018038977 0.03125
00000000: 0d20 fd3c 0000 003d f30b b53b e0dd f03b
00000010: 0000 003d f5d0 483b 566b fa3c e0dd 833c
00000020: 40b3 6d3c dddc 643b af4a 9439 451c 3b3c
00000030: 1df4 613a 7cb2 1c3b 0000 003d 32f8 5a3b
00000040: a395 c03a 0000 003d 0000 003d a414 923c
00000050: 0000 003d 0000 003d 0000 003d 9a99 edb9
00000060: 1056 fb3c e00f 053d 1ddc 563c 5d4b f93c
00000070: 8de1 fb3c 2762 853a 7713 ce3c d1f4 f03c
00000080: ba9f 1538 8e59 ab3b ac62 093d 0000 003d
00000090: e435 fa3c a5c8 093d 5c1b 023d 9a4f e83b
000000a0: 0000 003d 0000 003d 015d fc3c 0000 003d
000000b0: 0000 003d a5a0 fd3c cad8 a13c 5c96 f63c
000000c0: 0000 003d 0000 003d 0000 003d e24d 093c
000000d0: ab95 ff3c dd49 673b ad38 fb3c 6efd 913c
000000e0: c5c1 003d 0000 003d 8466 a23b 6225 ff3c
000000f0: 0000 003d 7c8e 543c 84d9 f13c 0002 fe3c
00000100: aa80 eb3b 7e1d d33c 0000 003d c8c0 fb3c
00000110: 2dbd 043a 0000 003d 1803 093d fb6c dd3b
00000120: ae27 403c b554 dd3b 7768 323a 6dd0 f03b
00000130: 2ba6 fb3c 0000 003d 39c3 053c 0000 003d
00000140: 0000 003d a853 1c3c 6810 033b 9507 7eb8
00000150: ca36 9e3b 3b32 2b3c 0000 003d 9b08 503c
00000160: c3d2 003d fb08 3e3b 0000 003d 0000 003d
00000170: 5d5b 933c ce14 a23b 0000 003d 6242 863c
00000180: 0000 003d 0000 003d abee 463c 0000 003d
00000190: 0000 003d a419 8e3c 8d27 2e3b 0000 003d
000001a0: 7f1e d63b e660 f03a e5ed 083c b3a2 483c
000001b0: 058b f63c 4e27 fb3c 0000 003d 84dc 383c
000001c0: 624b 3c3c a399 913c 1578 053c 86aa 0c3b
000001d0: ef3a 923c f081 653b 8364 9b3b 9d80 fc3c
000001e0: 0000 003d 1f1a fb3c 4b5d 023d 0000 003d
000001f0: 5ce8 b93c d731 173c 0000 003d 6c98 303b
00000200: 0aee 213c 0000 003d 8773 283c 14d4 7a3b
00000210: 0000 003d 0000 003d e6f8 033d 5413 1c3a
00000220: 0000 003d 219d 9c3c 2ae0 8b3a 4f35 063a
00000230: 9b46 6739 9661 143c 16f0 013d 6ac5 e63b
00000240: b81e fe3c efed 31ba 8763 093d 3fbf 033d
00000250: 0000 003d 2a1b 8f3c 8bd6 023d 1d08 013d
00000260: 0327 ff3c 6606 043d 7a0b 2e3b 0000 003d
00000270: f487 f53b 0deb f13c 294c 5f3c 0000 003d
00000280: 64a0 973c 9637 903b cf4d e93b 164a b63b
00000290: e857 ff3c 912d fd3c 0000 003d a245 9d3b
000002a0: 0000 003d 7054 fd3c 3ea8 9b3a 001b 4b3c
000002b0: 8e13 0c3c 0000 003d 4ae7 e33c edce 893c
000002c0: 0fd3 b23c 7e3c e13b 6bc9 b83c 0000 003d
000002d0: 0000 003d 6df3 f93c 7ec7 013d 83da e03b
000002e0: 3f96 0e3c 5908 463b 7b5c ac3c 0000 003d
000002f0: b69e 003d 33c6 093d 2801 753c 72f6 293b
00000300: 996e 3e3c 81cb 8d3c b5d9 023d 07a7 45b8
00000310: 0000 003d 0000 003d 9d6c 443c 4a59 b63b
00000320: 4910 fd3c 7d95 fc3c 0000 003d 7470 1b3c
00000330: c5c1 003d 84eb a23c bd78 0e3c ff5a 583b
00000340: a8e2 103c bd26 cb3c 1a32 ff3c 58c9 003d
00000350: 2a9f 153b cfa0 033d daf2 663b b9a7 813c
00000360: 125f 953a 0000 003d 97a6 fc3c 0000 003d
00000370: 50d1 323b 52d1 2d3c b099 f43b 8c03 113c
00000380: 432e 6b3b 0000 003d 92aa 043c 0000 003d
00000390: fe1b 3b3b 69e8 ad3c 0000 003d 353d ed3c
000003a0: a7c6 9bb8 f3c6 ed3c 0000 003d 2080 373c
000003b0: e051 1a3b c7dc 603c 0000 003d b4f7 593b
000003c0: 5fcc 0fbb 0785 1f3c 0000 003d ac75 f93c
000003d0: dcd4 493c e67b fe3c f486 fe3c 77f9 013d
000003e0: 1541 003d 8e6c fd3c eeb7 ee3c 881c 463c
000003f0: 787b 303c 0000 003d c370 ec3a 0000 003d

weight_epsilon f4 [1, 256]
-1.4823841 0.89945954 1.749552 1.1488813 1.7789047 -0.90558136 0.77936673 0.7221856
1.4600523 0.6764878 1.2054626 0.2940158 -1.1278852 0.24495533 -1.241542 -0.751657
0.9227689 -1.3986415 -0.71679074 -0.6947252 1.0815879 1.1526349 -0.9872492 1.2277943
0.71848303 -0.1273045 -0.824413 -0.07948843 1.0879668 -0.7276213 0.5589157 -1.2337644
-0.2839754 -1.7275959 0.684393 1.3465283 0.52301437 -0.5141178 1.2014269 -0.6354434
-0.9804615 1.3035685 0.9674693 -0.1427599 0.7649558 -1.5875009 -0.67889994 0.27794677
1.434087 0.8590087 1.501868 -1.4770182 -0.33270714 1.3768516 -0.8147536 0.5858862
0.8453141 0.9245142 1.3858893 -0.87740666 0.6924304 -0.857985 0.9720578 -0.50925887
1.0867815 -1.5763272 -0.26697326 -0.65221316 1.1045027 -0.94788873 -0.72356355 -1.3322417
-0.628753 -0.83941054 1.1631582 1.4873174 -1.0071114 1.2638428 1.7621307 -0.90506876
-0.60636693 1.1284312 -1.2834153 -0.6795875 0.83965963 -1.3697271 0.43178117 -0.47163504
-1.1156094 1.7593938 -1.6082075 -0.8009024 -0.2592618 -0.21771659 -1.4761232 0.30564758
1.9436338 -0.7751075 -0.7534262 0.6252841 0.947643 -0.8277707 -1.6152562 -1.5167471
-1.3878124 1.605383 1.7054719 1.0874887 -1.0958211 -1.4250277 0.8855813 -1.1016233
0.43095106 1.7190995 1.358393 0.21449587 -1.0867628 0.632674 -0.34531695 -1.2115688
-0.984856 -1.3144181 0.72707117 -0.7348669 0.91905916 1.5087942 0.7516219 -0.59743583
-0.2578063 -0.18702504 0.25505075 0.4502684 1.045904 -1.1723742 -0.4738506 1.0894616
0.5376553 0.3718965 -1.3062167 -0.9666093 0.72029924 -1.4496535 -1.1200222 0.16615239
0.3624314 1.3484911 -0.838174 0.8967245 0.8563472 -0.5980674 0.9263479 1.6884489
-0.89401233 -1.0601686 0.9784156 -0.8420713 0.5007204 1.3124741 -0.8684794 -0.712561
-0.59255475 -0.93961036 -1.1595421 -0.101407915 -1.6352943 -1.462351 0.79241306 -0.8898564
0.7362306 0.23942241 0.7924665 0.4113849 -1.953011 0.7471089 1.018903 -1.0313791
-1.0565282 -1.5913951 -0.24765074 0.9564008 0.91035646 -1.629331 -1.0624017 0.40974182
-1.015812 -0.49418122 -1.318057 -0.3999208 0.7697781 0.7074261 -1.3377638 0.9192182
-0.72768813 1.6421394 0.69871753 1.2298913 0.53286797 0.39004987 1.0166694 -0.4437341
-1.5809258 -1.0814883 1.3248621 0.35398802 -0.818712 -1.2133893 0.9534778 0.51267934
-0.8400089 -0.3310906 -1.2429773 0.35574004 -1.1312096 -0.28910014 0.67220294 0.9001773
-1.109998 1.3116626 -1.7307858 0.32355782 1.720654 -1.57336 -1.4581575 -0.7426973
1.1106825 -1.2249932 0.8054989 0.14005068 -1.0986402 0.4364489 0.7681046 1.0166389
-1.5950236 0.587984 0.83429235 1.1157552 -1.2681446 0.82261395 1.062771 -1.4470042
0.7314084 0.8659324 0.6272052 1.0698304 -1.675913 0.8318474 0.78027874 1.0094627
0.9300113 1.1981456 0.76962507 -1.2593135 0.48757225 -1.1408856 -0.18091771 1.6329643
00000000: c3be bdbf fb42 663f 52f1 df3f 8b0e 933f
00000010: 26b3 e33f 2ed4 67bf 9484 473f 28e1 383f
00000020: fee2 ba3f 4e2e 2d3f 994c 9a3f 3d89 963e
00000030: 8b5e 90bf 92d5 7a3e d9ea 9ebf 986c 40bf
00000040: 953a 6c3f af06 b3bf 997f 37bf 83d9 31bf
00000050: 7971 8a3f 8a89 933f 5dbc 7cbf 5d28 9d3f
00000060: 81ee 373f 1c5c 02be bb0c 53bf d4ca a2bd
00000070: 7f42 8b3f 6445 3abf 1915 0f3f feeb 9dbf
00000080: 3965 91be dd21 ddbf 6134 2f3f 0a5b ac3f
00000090: 45e4 053f 399d 03bf 5bc8 993f 6bac 22bf
000000a0: 86ff 7abf 55db a63f 11ac 773f a72f 12be
000000b0: 25d4 433f 3b33 cbbf 63cc 2dbf 0a4f 8e3e
000000c0: 2a90 b73f ffe7 5b3f 363d c03f ef0e bdbf
000000d0: 9758 aabe ac3c b03f b193 50bf a3fc 153f
000000e0: 8166 583f f6ac 6c3f d264 b13f b99d 60bf
000000f0: 1e43 313f e8a4 5bbf c8d8 783f ca5e 02bf
00000100: a81b 8b3f 17c5 c9bf b8b0 88be 71f7 26bf
00000110: 5860 8d3f d6a8 72bf 763b 39bf e586 aabf
00000120: f5f5 20bf 9ce3 56bf 5ee2 943f 6b60 be3f
00000130: 07e9 80bf 9ac5 a13f 808d e13f 96b2 67bf
00000140: dd3a 1bbf 6f70 903f f446 a4bf 72f9 2dbf
00000150: eff3 563f 3853 afbf 6c12 dd3e 267a f1be
00000160: 4acc 8ebf d133 e13f bed9 cdbf f107 4dbf
00000170: f6bd 84be 19f1 5ebe 9bf1 bcbf d77d 9c3e
00000180: fec8 f83f 726d 46bf 8ae0 40bf 9e12 203f
00000190: bb98 723f c8e8 53bf b7c0 cebf c524 c2bf
000001a0: d6a3 b1bf 317d cd3f e74c da3f d432 8b3f
000001b0: de43 8cbf 4f67 b6bf 75b5 623f fe01 8dbf
000001c0: 9ea5 dc3e 740b dc3f d2df ad3f cea4 5b3e
000001d0: 0b1b 8bbf ecf6 213f 62cd b0be b014 9bbf
000001e0: 861f 7cbf da3e a8bf 5621 3a3f 3d20 3cbf
000001f0: 7647 6b3f 2b20 c13f 4b6a 403f 8ef1 18bf
00000200: 30ff 83be 7e83 3fbe 0396 823e 9489 e63e
00000210: 2fe0 853f 5c10 96bf 8c9c f2be 7a73 8b3f
00000220: c7a3 093f 3869 be3e 1c32 a7bf b573 77bf
00000230: 8865 383f 3f8e b9bf e35c 8fbf da23 2a3e
00000240: 9c90 b93e 5b9b ac3f 9292 56bf bd8f 653f
00000250: 9239 5b3f f21a 19bf 2325 6d3f 181f d83f
00000260: fedd 64bf 9bb3 87bf 7279 7a3f fc91 57bf
00000270: 362f 003f 27ff a73f aa54 5ebf 666a 36bf
00000280: abb1 17bf 4e8a 70bf e06b 94bf f4ae cfbd
00000290: 5351 d1bf 512e bbbf 95db 4a3f a1cd 63bf
000002a0: 9c79 3c3f 262b 753e 16df 4a3f 0ba1 d23e
000002b0: 44fc f9bf 8742 3f3f 6a6b 823f 3b04 84bf
000002c0: 513c 87bf d6b2 cbbf 2898 7dbe afd6 743f
000002d0: 1f0d 693f eb8d d0bf c7fc 87bf aec9 d13e
000002e0: 2106 82bf 5205 fdbe 17b6 a8bf 6bc2 ccbe
000002f0: 2d10 453f e019 353f d83b abbf e251 6b3f
00000300: c549 3abf a031 d23f 27df 323f 146d 9d3f
00000310: 096a 083f 9eb4 c73e 3922 823f 1e31 e3be
00000320: c75b cabf 356e 8abf 1595 a93f eb3d b53e
00000330: 1c97 51bf 5750 9bbf 1f17 743f f43e 033f
00000340: d30a 57bf b584 a9be e119 9fbf 8f23 b63e
00000350: 7acb 90bf ef04 94be 7e15 2c3f 0572 663f
00000360: 6a14 8ebf 8fe4 a73f 648a ddbf 5fa9 a53e
00000370: 643e dc3f dc63 c9bf e8a4 babf 6921 3ebf
00000380: d82a 8e3f 94cc 9cbf 2d35 4e3f 7269 0f3e
00000390: 3ea0 8cbf 3b76 df3e 81a2 443f 3921 823f
000003a0: bc29 ccbf 1f86 163f 2f94 553f 11d1 8e3f
000003b0: 9052 a2bf d496 523f e108 883f 6f37 b9bf
000003c0: 953d 3b3f bfad 5d3f 8590 203f 34f0 883f
000003d0: 5184 d6bf f4f3 543f 59c0 473f 1336 813f
000003e0: 3815 6e3f d65c 993f 2606 453f 2f31 a1bf
000003f0: 12a3 f93e 8a08 92bf 7e42 39be f904 d13f

weight_mu f4 [21, 256]
-0.026608914 0.04278119 -0.07444174 -0.0068646926 0.008437589 0.006282626 0.038645044 -0.0137264
0.04417081 -0.035221294 0.0016901374 -0.06241941 -0.06430485 0.03646913 -0.046474196 0.035051994
-0.010420279 -0.050120607 0.022402808 0.008447551 0.04841812 0.011213519 0.05736266 0.05699201
-0.034352697 0.051244903 -0.024043448 -0.025408773 -8.6136126e-05 -0.090918824 0.0037740436 0.0029323585
0.04149087 0.073878355 0.045951102 -0.035438314 0.032133657 -0.017999722 0.025419116 -0.04406764
0.01594615 0.048753314 0.018242154 -0.031183481 -0.05012531 -0.041785162 0.026179463 0.005342511
0.020776585 -0.02309709 -0.042804822 -0.033570584 -0.0015798499 0.06764114 0.03044805 -0.029054366
-0.052295487 -0.026758745 -0.056503605 0.025345087 0.037350804 -0.052869365 0.013220163 0.010401363
-0.06683367 -0.12451978 -0.00029431283 0.053082295 -0.036397576 0.026312552 0.04945808 0.03789024
0.008695307 -0.05356542 -0.039626572 -0.054922175 0.055226605 -0.008109279 -0.027322968 0.050132744
0.0011086017 -0.0687931 -0.057993747 -0.056481056 -0.06406289 -0.063030094 0.048086032 0.023741761
-0.058454756 0.056298915 -0.025663413 0.013228975 0.05303105 -0.021924313 -0.024464235 -0.0926385
0.02412939 -0.043813683 0.3226638 -0.016631022 0.04904002 -0.09367626 -0.0026994885 0.045696475
0.06633997 0.023267968 -0.030139511 0.02634939 0.033718612 0.06296804 -0.0011217445 -0.053345367
0.01350393 -0.1316824 0.2597206 0.13914293 -0.053071376 0.066752546 -0.037209302 0.01846501
0.00039944053 -0.056003194 -0.056871388 -0.028318614 -0.14994185 -0.029243112 -0.060799323 -0.045895334
0.008813447 -0.06170558 0.075414434 0.08521462 0.015416719 0.04290676 -0.0045665354 -0.06674968
0.03135164 0.050882436 0.0019218733 0.039734572 -0.039030336 -0.041727293 0.04761279 -0.060230784
-0.0054312414 0.044804774 0.048758782 0.06346158 -0.030109398 -0.006642243 0.02200767 0.00025407443
-0.023823502 0.053392235 -0.16688219 0.0092487335 -0.0698993 -0.032012697 0.002904737 -0.01837036
0.03143385 -0.042209193 0.00028488622 -0.034536485 -0.057872694 -0.020440036 -0.025543928 -0.029011907
-0.055001058 -0.02599087 0.056487992 -0.0676378 0.11124825 0.030418903 -0.038011454 -0.031630877
-0.07276234 -0.040788252 0.068121865 -0.018768698 -0.0514004 0.0017942355 -0.048727386 -0.13987608
0.003744355 0.021410353 0.006645982 -0.031847365 0.044251736 0.018271478 -0.031818856 0.007548887
-0.12021606 -0.030328223 -0.041836653 0.031228878 0.042294756 0.024025992 -0.07380003 0.22880873
0.03267518 -0.045592558 -0.05754576 0.044309128 0.029651716 -0.045672767 -0.01938575 0.020369072
0.0050085345 -0.07296196 -0.045649644 0.024786599 -0.03128386 -0.053891134 -0.048489764 0.08799584
0.0007082406 0.027385257 0.03322841 -0.036301635 -0.097853735 0.10308439 -0.084239155 0.024516247
0.012019398 0.00048411638 0.029581938 0.05986516 0.048328742 -0.053817715 0.040133774 -0.049169894
-0.014106243 0.04624186 0.05238203 0.0009188377 -0.007036564 -0.045979228 0.0027903765 0.017998775
0.018151872 -0.045907978 0.018788703 0.035585217 0.11051822 0.048355944 0.06333638 -0.0073841275
0.015401644 0.017753644 -0.0481245 -0.011598627 -0.02615973 0.023017146 0.018854601 -0.03191036
00000000: f0fa d9bc 543b 2f3d e974 98bd 37f1 e0bb
00000010: d03d 0a3c 7dde cd3b 444a 1e3d b2e4 60bc
00000020: 74ec 343d 3444 10bd 9a87 dd3a 7fab 7fbd
00000030: 43b2 83bd a860 153d ba5b 3ebd ae92 0f3d
00000040: d1b9 2abc 444b 4dbd 1886 b73c 9967 0a3c
00000050: 1452 463d e8b8 373c 1cf5 6a3d 7470 693d
00000060: 6ab5 0cbd 2de6 513d c4f6 c4bc 0f26 d0bc
00000070: fba3 b4b8 a633 babd f255 773b d02c 403b
00000080: 55f2 293d 894d 973d 3937 3c3d c427 11bd
00000090: 959e 033d 2774 93bc c03b d03c 4580 34bd
000000a0: 80a1 823c 8eb1 473d 9270 953c 8074 ffbc
000000b0: 3250 4dbd eb26 2bbd 5076 d63c 3b10 af3b
000000c0: a833 aa3c 1c36 bdbc 1c54 2fbd 4f81 09bd
000000d0: f712 cfba 7087 8a3d 306e f93c 6c03 eebc
000000e0: cb33 56bd 2835 dbbc 5370 67bd 80a0 cf3c
000000f0: 28fd 183d 8c8d 58bd 6299 583c 7a6a 2a3c
00000100: 17e0 88bd 3a04 ffbd 004e 9ab9 d26c 593d
00000110: a015 15bd 6c8d d73c 8e94 4a3d cc32 1b3d
00000120: c376 0e3c 6a67 5bbd 794f 22bd 13f6 60bd
00000130: 4b35 623d c8dc 04bc 6bd4 dfbc fe57 4d3d
00000140: 804e 913a 66e3 8cbd da8a 6dbd ae58 67bd
00000150: 6833 83bd ec15 81bd dcf5 443d 157e c23c
00000160: 416e 6fbd b199 663d 143c d2bc 58be 583c
00000170: 1637 593d 9e9a b3bc 3869 c8bc 41b9 bdbd
00000180: 00ab c53c fa75 33bd 3134 a53e c83d 88bc
00000190: 30de 483d 57d9 bfbd e7e9 30bb 3a2c 3b3d
000001a0: 40dd 873d 779c be3c 23e7 f6bc adda d73c
000001b0: 871c 0a3d 63f5 803d 8007 93ba ac80 5abd
000001c0: 963f 5d3c c0d7 06be 19fa 843e 7c7b 0e3e
000001d0: 5f61 59bd 8fb5 883d c868 18bd ef43 973c
000001e0: 006c d139 9b63 65bd f9f1 68bd 70fc e7bc
000001f0: 5b8a 19be 408f efbc b608 79bd bffc 3bbd
00000200: 4766 103c febe 7cbd e272 9a3d 0185 ae3d
00000210: 6896 7c3c 00bf 2f3d e0a2 95bb 0eb4 88bd
00000220: 946a 003d 1a6a 503d 5ee7 fb3a b8c0 223d
00000230: 46de 1fbd 3dea 2abd a105 433d 8eb4 76bd
00000240: 8ef8 b1bb 3685 373d 4ab7 473d 25f8 813d
00000250: fca7 f6bc 2ca7 d9bb 6e49 b43c 4b35 8539
00000260: 8129 c3bc d1b1 5a3d 2ae3 2abe 0088 173c
00000270: 5d27 8fbd bf1f 03bd 665d 3e3b 707d 96bc
00000280: c8c0 003d 8ce3 2cbd c85c 9539 2176 0dbd
00000290: eb0b 6dbd dd71 a7bc 8041 d1bc 61aa edbc
000002a0: ca48 61bd ceea d4bc f45f 673d b085 8abd
000002b0: 1fd6 e33d 1031 f93c e6b1 1bbd 618f 01bd
000002c0: 6c04 95bd 9511 27bd 7a83 8b3d d0c0 99bc
000002d0: 3a89 52bd 8e2c eb3a 5e96 47bd ad3b 0fbe
000002e0: da63 753b c464 af3c 8ac6 d93b 6272 02bd
000002f0: 4f41 353d 11ae 953c 7d54 02bd a75c f73b
00000300: d633 f6bd e572 f8bc e95c 2bbd b4d3 ff3c
00000310: 443d 2d3d 28d2 c43c 7824 97bd d64c 6a3e
00000320: 69d6 053d 43bf 3abd 1ab5 6bbd 7d7d 353d
00000330: 28e8 f23c 5e13 3bbd ddce 9ebc 0add a63c
00000340: a21e a43b 156d 95bd 1ffb 3abd 440d cb3c
00000350: 8123 00bd f3bc 5cbd 349d 46bd 2a37 b43d
00000360: 39a9 393a 0c57 e03c 831a 083d 06b1 14bd
00000370: 8a67 c8bd e91d d33d 9485 acbd 4cd6 c83c
00000380: 02ed 443c 00d1 fd39 d255 f23c 2c35 753d
00000390: 5cf4 453d f76f 5cbd 5063 243d 5f66 49bd
000003a0: df1d 67bc 1b68 3d3d 8a8e 563d 27de 703a
000003b0: fa92 e6bb b754 3cbd c0de 363b 2b72 933c
000003c0: 3cb3 943c 010a 3cbd c4ea 993c cec1 113d
000003d0: 6057 e23d e210 463d 81b6 813d 8df6 f1bb
000003e0: 2d57 7c3c 1770 913c 321e 45bd 2b08 3ebc
000003f0: ee4c d6bc 748e bc3c f774 9a3c 70b4 02bd
