experiments/diff_reward_weights_data/kappa1_1_kappa2_1_kappa3_2.5/rainbow_dqn_tem.pth (torch, 342918 bytes, 13 tensors)

weight f4 [256, 4]
0	0xbe409c50	-0.18809628
1	0xbe6b61f8	-0.22986591
2	0xbec6c4a6	-0.38821906
3	0xbecc30c4	-0.39880955
4	0xbe9fe984	-0.31232846
5	0xbef6bf74	-0.48192942
6	0xbe2c60dc	-0.16833824
7	0xbed4acc4	-0.4153806
8	0x3d9ee900	0.07759285
9	0xbef2e3ce	-0.47439426
10	0xbe8ecef2	-0.27892262
11	0x3d987308	0.074438155
12	0x3ec19209	0.37806728
13	0x3d119923	0.035546433
14	0xbb61dc9d	-0.003446377
15	0x3f0ee366	0.5581573
16	0x3dcd27e4	0.10017374
17	0x3cece339	0.028916942
18	0xbef4f29d	-0.4784135
19	0x3e9765f0	0.2956996
20	0xbe4ebf2a	-0.20190111
21	0xbdb613f9	-0.08890528
22	0x3d0ed0ab	0.03486697
23	0x3eeddf6a	0.46459514
24	0xbddcbb3b	-0.10777899
25	0x3e897a91	0.26851323
26	0xbdce4e51	-0.100735314
27	0xbee20968	-0.441478
28	0xbece3a2e	-0.40278763
29	0x3ea6acee	0.3255381
30	0xbe61c000	-0.22045898
31	0xbec74758	-0.38921618
32	0xbe1124c3	-0.1417418
33	0xbe3efb1f	-0.18650483
34	0x3ee294a3	0.44254026
35	0x3e57b086	0.21063432
36	0xbdc45280	-0.09586048
37	0xbd2dd5c0	-0.042440176
38	0xbdc68510	-0.096933484
39	0xbef20ea4	-0.47276795
40	0x3edefeac	0.43553674
41	0xbcdfbc00	-0.027311325
42	0xbea3cbb2	-0.31991345
43	0xbf1320da	-0.57472
44	0xbee6f0b8	-0.4510553
45	0x3d1ff1a0	0.03904879
46	0x3d791050	0.060806572
47	0x3c904540	0.017611146
48	0x3e7c6c41	0.2465067
49	0x3b24bbae	0.002513628
50	0xbd080e86	-0.033216976
51	0xbe273c51	-0.16331603
52	0xb93d0a21	-0.00018028218
53	0xbd9e129a	-0.07718392
54	0xbe5f4dca	-0.21807018
55	0xbe4bd3aa	-0.19904962
56	0xbc5be629	-0.013421574
57	0x3eacc5b6	0.3374459
58	0xbda5f5e0	-0.081035376
59	0x3eb0bd5f	0.3451948
60	0x3d7a2efc	0.061079964
61	0x3ebc71cf	0.3680558
62	0xbe0951fa	-0.13410178
63	0x3ef1f8b3	0.47260055
64	0x3e1651fc	0.14679712
65	0x3e825bd5	0.25460687
66	0xbebb6e22	-0.36607462
67	0x3f07a5e5	0.5298751
68	0x3e2f909e	0.17145011
69	0x3e311b00	0.17295456
70	0xbe99e86b	-0.30060133
71	0xbe1879a2	-0.14890149
72	0x3e1518a5	0.14560182
73	0xbd9ee239	-0.07757992
74	0xbe5b537e	-0.21418568
75	0xbf019a72	-0.5062629
76	0xbd4f3f70	-0.050597608
77	0xbe312734	-0.17300111
78	0xbea99766	-0.3312332
79	0x3d962168	0.073305905
80	0xbe19fbc2	-0.15037444
81	0xbe445c37	-0.19175802
82	0x3e264721	0.16238071
83	0x3ecd9916	0.40155858
84	0xbe178386	-0.14796266
85	0x3e62c057	0.22143684
86	0xbecd8584	-0.40140927
87	0x3d9c406c	0.07629475
88	0x3ef63585	0.48087707
89	0xbebf3256	-0.3734309
90	0xbe8111c1	-0.25208858
91	0xbe7996ff	-0.24374007
92	0x3de2c47b	0.11072632
93	0x3e727c7f	0.23680304
94	0xbf0dfb03	-0.5546114
95	0xbe90715c	-0.28211486
96	0xbedf6cf3	-0.4363781
97	0x3ecbdf69	0.39818886
98	0xbeee3037	-0.4652116
99	0xbebe7891	-0.3720136
100	0x3e62f998	0.22165525
101	0x3d38c3f8	0.045108765
102	0xbebeb44a	-0.37246925
103	0x3e702f3f	0.23455523
104	0x3dc95491	0.09830583
105	0x3e980c5d	0.29696932
106	0x3d9220d9	0.071351714
107	0x3ec2c835	0.3804337
108	0x3e6da7de	0.23208568
109	0xbe6b22d6	-0.22962508
110	0xbe7e29b9	-0.24820603
111	0xbee9365d	-0.45549288
112	0xbccc5d80	-0.024946928
113	0xbeefb798	-0.46819758
114	0x3d0b7190	0.03404385
115	0x3eccc17e	0.39991373
116	0x3e1a8068	0.15088046
117	0xbd9de9af	-0.07710587
118	0x3ecc4810	0.3989873
119	0xbee8cc6d	-0.45468464
120	0x3d682849	0.056679044
121	0xbe8f4699	-0.2798355
122	0xbe82e20d	-0.25563088
123	0xbea76517	-0.32694313
124	0xbefa758c	-0.48917806
125	0xbeb0426c	-0.34425676
126	0xbeff2ca8	-0.49838758
127	0xbd90d130	-0.07071149
128	0x3e334ba9	0.17509331
129	0xbea8a117	-0.32935402
130	0xbe63b4d8	-0.22236955
131	0xbe8a0706	-0.26958483
132	0xbe3188d1	-0.17337348
133	0x3e530978	0.20609081
134	0xbe95b8a7	-0.2924244
135	0x3e9b5944	0.30341542
136	0x3eb2d9d4	0.34931815
137	0x3ed93a83	0.42427453
138	0x3e81d6e8	0.25359273
139	0x3e266909	0.16251005
140	0xbc0f0885	-0.008730059
141	0x3f04b003	0.5183107
142	0x3d8bb0e8	0.068208516
143	0x3e18ee96	0.14934763
144	0x3d829f9d	0.063781
145	0x3eccfeeb	0.40038237
146	0xbe5540e2	-0.20825532
147	0x3f190fc0	0.5978966
148	0xbec66fec	-0.38757265
149	0xbcc63580	-0.024195433
150	0xbee71cf0	-0.45139265
151	0xbb225500	-0.0024769902
152	0xbe371ae9	-0.17881359
153	0x3f19fa5b	0.6014764
154	0x3e40aaa1	0.1881509
155	0x3e04986a	0.12948766
156	0xbd626fc0	-0.055282354
157	0xbcd0ae00	-0.025473595
158	0xbd61de00	-0.055143356
159	0xbee45fca	-0.4460433
160	0x3eddb502	0.4330216
161	0x3f026023	0.50927943
162	0xbd8ff33b	-0.070288144
163	0xbea54f2e	-0.32286972
164	0x3e8061d7	0.25074646
165	0xbcba3de8	-0.022734597
166	0x3e3e5c37	0.18589865
167	0xbec3dfcd	-0.38256684
168	0x3e12dff7	0.14343248
169	0xbe8b8b27	-0.27254602
170	0xbe988895	-0.29791704
171	0xbeafeaff	-0.34358975
172	0xbe3156e8	-0.17318308
173	0xbe89e062	-0.26929003
174	0xbed77d0e	-0.42087597
175	0x3dbd2428	0.09235412
176	0xbedf2a11	-0.43586782
177	0xbd8df1dd	-0.069308974
178	0x3edbe308	0.4294665
179	0x3ee32529	0.44364288
180	0x3ee0f28b	0.43935046
181	0x3d7fa983	0.06241752
182	0xbe3784b5	-0.17921717
183	0x3cc2adfc	0.023764603
184	0x3ce46c9a	0.027883817
185	0x3dd38d4a	0.10329683
186	0x3dd0e5be	0.1020007
187	0x3e64571c	0.22298855
188	0x3e3d178f	0.18466018
189	0xbd5f4ef0	-0.05451864
190	0x3e83553e	0.25650972
191	0x3ead4de5	0.3384849
192	0x3e811785	0.25213256
193	0xbef4f194	-0.4784056
194	0x3ef20ff8	0.47277808
195	0xbe8a1356	-0.26967877
196	0x3ee58e31	0.44835046
197	0x3ee91168	0.45521092
198	0xbe8471c9	-0.2586806
199	0x3dbbd4a2	0.09171416
200	0xbed09738	-0.4074037
201	0x3e9984cf	0.29984137
202	0xbe947c00	-0.29000854
203	0xbeb4b7b0	-0.35296392
204	0x3ec1f3f2	0.37881428
205	0xbe18b038	-0.14910972
206	0x3ec087f5	0.37603727
207	0x3ee682ae	0.45021576
208	0x3eacff65	0.337886
209	0xbe554fac	-0.20831174
210	0xbea74333	-0.32668456
211	0xbd25bd55	-0.040463764
212	0xbe7c89b4	-0.24661905
213	0x3e1a26f8	0.15053928
214	0xbeb76762	-0.35821062
215	0x3de1a548	0.11017853
216	0x3ebb5388	0.36587167
217	0x3ef594a8	0.47964978
218	0xbec5b6a9	-0.3861592
219	0xbf081fd7	-0.53173584
220	0xbd66533c	-0.056231722
221	0x3e7baec5	0.24578388
222	0x3df215f4	0.118205935
223	0xbf164e60	-0.5871334
224	0x3dbbc5a8	0.09168559
225	0xbe513629	-0.20430817
226	0x3e4f2c18	0.20231664
227	0xbd49901d	-0.049209703
228	0x3d76a59a	0.060216524
229	0xbeb9a00d	-0.36254922
230	0xbc6a96f2	-0.014318215
231	0x3ee38ab8	0.44441772
232	0xbd2b47a0	-0.041816354
233	0xbe879f2e	-0.26488632
234	0xbecc0956	-0.39850873
235	0xbee03daa	-0.43797046
236	0x3e279c33	0.16368179
237	0x3e8bda22	0.2731486
238	0x3f036db0	0.51339245
239	0xbe8546ca	-0.2603057
240	0x3edb0efc	0.4278487
241	0xbdb958eb	-0.09050163
242	0x3efc1a56	0.49238843
243	0x3babc6c3	0.0052422
244	0x3efa2df0	0.48863173
245	0xbed57f83	-0.41698846
246	0x3edb1efa	0.4279707
247	0x3e52e755	0.20596059
248	0x3ed73356	0.42031354
249	0x3ec10b7a	0.37704068
250	0xbef9a59c	-0.48759162
251	0x3f14236c	0.5786655
252	0xbee12b21	-0.43978217
253	0x3e8be3a4	0.27322114
254	0xbe46574a	-0.19369236
255	0x3d9d7415	0.076881565

bias f4 [256]
0	0x3e190868	0.14944613
1	0xbea6d0be	-0.32581133
2	0x3f02fca6	0.5116676
3	0x3d210505	0.039311428
4	0xbec76ca6	-0.3895008
5	0x3e858733	0.2607971
6	0x3de3fa92	0.11131777
7	0x3edb9c64	0.42892754
8	0xbee7c7ca	-0.45269614
9	0xbecf7440	-0.4051838
10	0xbebde1ba	-0.37086278
11	0xbc83c9a0	-0.016087353
12	0x3e670a4b	0.2256252
13	0x3f1d2f49	0.61400276
14	0x3d4b8123	0.0496837
15	0x3f043878	0.51648664
16	0xbed99a53	-0.42500553
17	0xbee510c6	-0.4473936
18	0xbeadf299	-0.3397415
19	0x3e1ac120	0.15112734
20	0x3d41279b	0.04715691
21	0xbec80efc	-0.39073932
22	0xbe51de60	-0.20494986
23	0x3ead8b49	0.3389533
24	0xbead2b77	-0.33822224
25	0xbdd4ab87	-0.10384279
26	0x3e6f7ba2	0.23387006
27	0xbec07183	-0.37586603
28	0xbb2ece00	-0.0026673079
29	0xbf0f32b2	-0.5593673
30	0x3e9cd7b8	0.3063333
31	0x3ebb0c92	0.36533028
32	0x3eafdd6a	0.34348613
33	0x3f0587d1	0.52160364
34	0xbe5e82c5	-0.21729572
35	0x3e7236f1	0.23653771
36	0xbc841ddc	-0.01612752
37	0x3ec2785a	0.37982446
38	0x3f16473c	0.58702445
39	0xbe9c147a	-0.30484372
40	0x3d3dde2e	0.046354465
41	0xbebc81c5	-0.36817756
42	0x3e401cd6	0.18761
43	0xbdaf6578	-0.085642755
44	0x3eaf9927	0.34296533
45	0xbe4aaf6c	-0.1979348
46	0x3ea41c86	0.32053012
47	0x3ec8b999	0.392041
48	0xbe78705a	-0.24261609
49	0x3dc1a87d	0.09455965
50	0xbe49c735	-0.19704898
51	0x3eb18bb7	0.34676906
52	0x3ef9c74e	0.4878487
53	0xbe5a0170	-0.21289611
54	0xbeac9779	-0.33709314
55	0x3de7e182	0.11322309
56	0xbe742235	-0.23841174
57	0x3ec75f00	0.38939667
58	0x3bddc500	0.006767869
59	0xbe138cac	-0.14409131
60	0xbdd26d89	-0.102747984
61	0x3e73e4b0	0.23817706
62	0xbeca5597	-0.39518425
63	0x3ebddc03	0.37081918
64	0x3bdff15f	0.0068341936
65	0x387e51c8	6.0634484e-05
66	0xbe94a936	-0.29035348
67	0x3d1e1d09	0.03860191
68	0x3eb08136	0.3447358
69	0xbec18101	-0.37793735
70	0x3e907522	0.28214365
71	0xbeff1b3e	-0.49825472
72	0xbea35106	-0.31897753
73	0x3e099db0	0.1343906
74	0x3daa930c	0.08328828
75	0x3ec2bffc	0.38037097
76	0x3ea265df	0.31718346
77	0xbd9c64dd	-0.07636426
78	0x3eea67e0	0.45782375
79	0xbeeb0a34	-0.45906222
80	0xbe25c06a	-0.16186681
81	0xbeded9f8	-0.43525672
82	0x3e1f2158	0.15540063
83	0x3d0a5c6a	0.03377954
84	0x3f05a80e	0.52209556
85	0x3bd802c1	0.006592125
86	0x3eb30d37	0.3497102
87	0x3ee96381	0.45583728
88	0x3dbb22b8	0.091374815
89	0x3e3ba0eb	0.18323104
90	0x3e142d33	0.14470367
91	0x3d707741	0.05870748
92	0x3dccbe72	0.09997262
93	0xbee64da9	-0.44981125
94	0xbeaff12e	-0.34363693
95	0xbe1356d4	-0.14388591
96	0xbec4e821	-0.3845835
97	0x3ef3ade0	0.47593594
98	0x3ecbf538	0.39835525
99	0x3ef75ef0	0.4831462
100	0xbe69a81d	-0.22818036
101	0x3ea26aaf	0.31722018
102	0xbe2d0834	-0.1689766
103	0xbf0ba633	-0.54550475
104	0xbe92c0a1	-0.2866259
105	0xbebe8c14	-0.37216246
106	0xbb9bf780	-0.004759729
107	0x3eae6a74	0.34065592
108	0xbedf8cb3	-0.43662032
109	0xbeca4a50	-0.3950982
110	0x3da8030f	0.082037084
111	0xbcd649f4	-0.02615831
112	0xbef98267	-0.48732302
113	0x3dfbfb4d	0.12303791
114	0xbeba9cca	-0.36447746
115	0x3d18c398	0.037295908
116	0xbdb29822	-0.08720423
117	0xbeeee2a0	-0.46657276
118	0x3ee49e3e	0.4465198
119	0x3aed5027	0.0018105552
120	0xbeacd3bc	-0.3375529
121	0xbd5d2487	-0.053989913
122	0xbe1eef0a	-0.15520874
123	0xbec6438c	-0.3872341
124	0x3e761016	0.24029574
125	0x3d2873b0	0.041125953
126	0xbed1817c	-0.409191
127	0x3f05ad8a	0.52217925
128	0x3eabf87f	0.33588025
129	0x3ef994ab	0.48746237
130	0xbec964be	-0.39334673
131	0xbed64913	-0.41852626
132	0x3d443c51	0.047909085
133	0x3ec07ff6	0.37597626
134	0x3e9148ef	0.28375956
135	0xbea4949a	-0.32144624
136	0xbe4d4a24	-0.20047814
137	0xbe995a5c	-0.2995175
138	0xbe99d2b0	-0.30043554
139	0x3f0767d0	0.5289278
140	0x3e4e6c98	0.20158613
141	0xbde83819	-0.11338825
142	0xbe09b88c	-0.13449305
143	0x3d59ef66	0.053206824
144	0xbe1498c5	-0.14511402
145	0xbd8d0c9a	-0.06887169
146	0x3e696508	0.22792447
147	0x3e878bfa	0.2647398
148	0xbe188118	-0.14892995
149	0xbc5e181a	-0.013555551
150	0x3e9e3ff5	0.3090817
151	0xbe87bf06	-0.26512927
152	0xbec9f9f2	-0.39448506
153	0xbe56b134	-0.20966035
154	0xbdac0ff0	-0.08401477
155	0x3e98daf9	0.29854563
156	0x3f031caa	0.5121561
157	0xbeba568b	-0.36394152
158	0xbefb385f	-0.49066445
159	0x3ec2d77c	0.38055027
160	0xbe0786e5	-0.13235052
161	0xbe86e5ae	-0.26347107
162	0x3ed178e1	0.40912536
163	0xbe36feaf	-0.17870592
164	0xbef6e482	-0.48221213
165	0xbebb4553	-0.36576328
166	0xbe4127c1	-0.18862821
167	0x3cdc09df	0.026860176
168	0xbeb038e5	-0.34418407
169	0xbe687510	-0.22700906
170	0x3ebcfe02	0.36912543
171	0xbe5e3a1a	-0.21701851
172	0xbe7483fa	-0.2387847
173	0x3e344093	0.17602758
174	0x3e369c0d	0.17832966
175	0x3f096dab	0.53682965
176	0xbdb0fa48	-0.08641487
177	0x3e8f9023	0.28039655
178	0x3ecf4a8a	0.40486556
179	0x3ed5d0aa	0.4176076
180	0x3e9cfa71	0.30659822
181	0xbd388b7b	-0.045054894
182	0xbe4b4330	-0.19849849
183	0xbc9c1af0	-0.019055814
184	0xbe082462	-0.13295129
185	0x3ec46631	0.38359216
186	0x3ec0d492	0.37662178
187	0x3e5ef709	0.21773924
188	0x3ee98935	0.45612493
189	0x3eb3270a	0.34990722
190	0xbe9b1c60	-0.30295086
191	0xbea3d74d	-0.320002
192	0x3ee4394b	0.4457496
193	0x3ed3be24	0.41356003
194	0x3ebba53c	0.366495
195	0x3e0a03f6	0.13478073
196	0x3ecf6a61	0.40510848
197	0x3e1d1871	0.15341355
198	0x3db15405	0.086586036
199	0x3c80dadd	0.015729362
200	0x3e74bb8a	0.23899665
201	0xbd11fb3d	-0.03563999
202	0xbe5df0ce	-0.21673891
203	0x3e931ea8	0.28734326
204	0xbef2bfd0	-0.47411966
205	0xbe5822b0	-0.21106982
206	0x3df2e6a7	0.118604
207	0xbc94b468	-0.01815243
208	0x3eb925e0	0.3616171
209	0x3f01fb39	0.5077396
210	0x3e7ffb51	0.24998213
211	0x3ea494d0	0.32144785
212	0xbe374480	-0.17897224
213	0x3e89cc2e	0.2691359
214	0xbdc323e7	-0.09528332
215	0x3e433594	0.19063407
216	0xbe5a67ba	-0.21328631
217	0x3cb033d9	0.021509098
218	0xbda28160	-0.079348326
219	0xbe85aff2	-0.26110798
220	0x3ebdb9ca	0.37055808
221	0x3eb50dd0	0.353621
222	0x3eb8c41b	0.36087117
223	0x3e05220a	0.13001266
224	0x3e86aa81	0.2630196
225	0x3e5e257e	0.2169399
226	0xbd03c234	-0.03216763
227	0x3ea864a9	0.32889298
228	0xbe76af4b	-0.24090306
229	0xbe5e44e2	-0.21705964
230	0xbeb88a36	-0.36042947
231	0xbe3cdeb4	-0.1844433
232	0xbdd53a85	-0.10411552
233	0xbeda610f	-0.42652175
234	0x3e0880f3	0.1333044
235	0xbe02c3a6	-0.12769946
236	0x3e8d3018	0.27575755
237	0x3ed6bc3d	0.4194049
238	0xbdcc0643	-0.09962132
239	0xbedaf29c	-0.4276322
240	0x3e9d8faa	0.3077367
241	0xbed6a3e1	-0.41921905
242	0xbd94ef95	-0.07272259
243	0x3ebd715c	0.3700055
244	0x3e97832e	0.2959227
245	0xbe21d8b1	-0.15805317
246	0x3dc916c3	0.098187946
247	0x3eba6474	0.36404765
248	0x3e8f1d1b	0.27951893
249	0x3ebc202e	0.367433
250	0xbeca08ec	-0.39459932
251	0x3d0ac32e	0.033877544
252	0xbee02daa	-0.4378484
253	0xbee2a139	-0.44263628
254	0x3f100502	0.5625764
255	0x3e1c4a36	0.15262684

weight f4 [256, 256]
0	0xbd2cec1a	-0.04221735
1	0x3ce4f780	0.027950048
2	0x3cd2bb11	0.025723966
3	0xbd485e74	-0.048918203
4	0x3c2f308e	0.010692729
5	0x3cb22986	0.021748316
6	0xbd26da2d	-0.040735412
7	0xbd19b5eb	-0.037527006
8	0x3d354925	0.04425921
9	0xbcf9664c	-0.030444287
10	0xbce07add	-0.027402336
11	0xbc4ef3d8	-0.012631379
12	0x3d185fd9	0.037200782
13	0x3d096642	0.033544786
14	0xbd0d46e5	-0.03449144
15	0x3c18d5c4	0.009328309
16	0x3cb1ee02	0.021719936
17	0xbcb74e18	-0.022376105
18	0xbd6eb56b	-0.058278482
19	0xbd0ad6c8	-0.033896238
20	0x3d805446	0.06266074
21	0xbd28a68a	-0.04117445
22	0x3c86c7e7	0.016452743
23	0xbdbf016c	-0.09326443
24	0x3d452af1	0.048136655
25	0xbd32a5f4	-0.043615296
26	0x3cebb3c0	0.028772235
27	0xbc202ce9	-0.009776332
28	0xba4bd700	-0.0007775873
29	0x3a2b678f	0.0006538564
30	0xbb931630	-0.004488729
31	0xbd2eafb8	-0.042648047
32	0x3c048378	0.008087985
33	0xbc84fae7	-0.01623292
34	0xbb96f3bf	-0.0046066935
35	0x3beaaac6	0.007161471
36	0xbb3fcc9b	-0.0029266241
37	0x3c801ca4	0.015638657
38	0xbd2fa10b	-0.042878192
39	0x3bda3910	0.0066596344
40	0x3c6aa634	0.0143218525
41	0x3d7c915d	0.061662067
42	0xbe1255fd	-0.14290614
43	0x3d78f4fe	0.060780518
44	0xbd5eb676	-0.054373227
45	0xbd435130	-0.04768485
46	0x3ce42728	0.027850702
47	0xbd142708	-0.036170036
48	0x3ca8411c	0.02053886
49	0xbcd637a7	-0.026149584
50	0x3b9377ec	0.00450038
51	0xbc565b8a	-0.013083348
52	0xbd06de77	-0.032927003
53	0xba4edb00	-0.000789091
54	0xbd92bfe1	-0.07165504
55	0xbe0cc56b	-0.13747184
56	0xbce9bdb9	-0.02853285
57	0x3bc62010	0.0060463026
58	0xbd4c2364	-0.04983844
59	0x3cd8e17c	0.026474707
60	0xbd434eae	-0.047682457
61	0xbc3cdca7	-0.011527217
62	0xbc72f263	-0.014828297
63	0xbd183159	-0.037156437
64	0x3b8b2734	0.0042466167
65	0x3a4ad8cb	0.0007737993
66	0x3d171fbc	0.0368955
67	0xbd9ab000	-0.075531006
68	0x3d5da9ea	0.05411712
69	0xbc23d6bc	-0.009999927
70	0x3d700135	0.0585949
71	0x3a9e8c80	0.0012096316
72	0xbd4e99ec	-0.05043976
73	0x3ca1d0c0	0.01975286
74	0x3b8ea142	0.0043527195
75	0xbcf7a224	-0.030228682
76	0x3d06ee65	0.032942194
77	0x3bdde9f2	0.006772273
78	0xbd10d18c	-0.03535609
79	0xbd5b9a02	-0.05361367
80	0x3d6292e7	0.05531588
81	0x3d43ed9f	0.047834035
82	0x3d8f2bf4	0.06990805
83	0x3d2a8380	0.041629314
84	0x3db1f4cd	0.0868927
85	0x3b1114f3	0.002213773
86	0xbddf58e2	-0.10905625
87	0xbd38087a	-0.04492996
88	0x3d7b22fa	0.061312653
89	0xbd2d0dfb	-0.04224966
90	0x3c4cf710	0.012510076
91	0x3ca7f3d2	0.020502005
92	0x3cb05271	0.021523686
93	0x3d949c9a	0.07256432
94	0x3b8f4437	0.0043721455
95	0xbd04a376	-0.03238245
96	0xba0367ba	-0.000501271
97	0xbd7b9104	-0.061417595
98	0xbd275aee	-0.0408582
99	0xbdb10b95	-0.08644787
100	0xbb666136	-0.0035153157
101	0xbd56754f	-0.052357968
102	0x3d3c9528	0.046040684
103	0x3cd1bd1c	0.02560287
104	0xbcf0d1ad	-0.029396856
105	0x3d2e79c1	0.042596582
106	0xbd44dcd6	-0.048062168
107	0xbd70b4c6	-0.05876615
108	0x3d7d6bdb	0.061870437
109	0x3cbfe343	0.023423797
110	0xbd0b4703	-0.03400327
111	0x3d49f0b5	0.04930182
112	0x3da43282	0.08017446
113	0x3d4327df	0.047645446
114	0x3d21b8a2	0.03948272
115	0xbc8178c6	-0.01580466
116	0xbd6ebec6	-0.058287404
117	0x3d2d4ffe	0.042312615
118	0xbb686680	-0.0035461485
119	0xbd0b23d0	-0.0339697
120	0xbd0378f8	-0.032097787
121	0xbd300a4e	-0.042978577
122	0x3d86a122	0.065737024
123	0x3bfe4130	0.007759236
124	0xbbd6b1e0	-0.006551966
125	0xbd26b9b4	-0.040704444
126	0x3d134343	0.035952818
127	0xbb77c1fc	-0.0037804833
128	0x3c7ac2c2	0.015305223
129	0xbd61005c	-0.054931983
130	0xbcf7f936	-0.0302702
131	0xbc6ca197	-0.014442823
132	0x3e15f4c0	0.14644146
133	0x3d15f391	0.036609236
134	0xbc89a21a	-0.016800929
135	0x3cdf7cc4	0.027281173
136	0xbcb02f10	-0.021506816
137	0x3d861e32	0.06548728
138	0x3d8d23c0	0.068915844
139	0xbd62d795	-0.055381376
140	0xbd088552	-0.03333027
141	0x3d9df95a	0.07713576
142	0x3d653816	0.05596169
143	0x3d13c53a	0.03607676
144	0xbca5ec75	-0.020254353
145	0xbd04c857	-0.03241762
146	0xbba068c6	-0.0048953025
147	0xbd662af1	-0.056193296
148	0xbd17f96e	-0.03710311
149	0x3d81eeee	0.063444
150	0xbc8cafba	-0.017173637
151	0x3d49650c	0.04916863
152	0xbb34e9e0	-0.002760522
153	0x3d4995a4	0.049214974
154	0x3d01f3e7	0.031726744
155	0x3ca18c55	0.019720236
156	0xbd2a3774	-0.04155679
157	0xbc34b652	-0.011029797
158	0xbd1d6b25	-0.03843226
159	0xbd495ffd	-0.049163807
160	0x3d6d9abe	0.0580089
161	0x3cb7dfb3	0.022445535
162	0xbd6ea7ec	-0.05826561
163	0x3cadeef7	0.021232111
164	0x3be71b8d	0.007052845
165	0xbcb6eeac	-0.022330604
166	0x3d156fcf	0.036483582
167	0x3d861b02	0.0654812
168	0x3b376832	0.002798569
169	0xbd19c7dc	-0.037544116
170	0x3d3956c8	0.045248777
171	0xbd2cb0c6	-0.04216077
172	0x3d004a2f	0.031320747
173	0x3c7862ac	0.015160244
174	0xba91a9bf	-0.001111321
175	0xbd6c2683	-0.057653915
176	0x3d6f3882	0.0584035
177	0xbd587d7f	-0.052854057
178	0x3b5dc8f2	0.0033841697
179	0x3d52aa7d	0.05143212
180	0x3c3ffb76	0.011717668
181	0xbc555939	-0.013021761
182	0x3ca24a87	0.019810928
183	0x3c625005	0.013813023
184	0x3cff59f2	0.031170819
185	0x3d4174ee	0.047230653
186	0x3b7b1220	0.0038310364
187	0x3cf412c7	0.02979411
188	0xbd1d3534	-0.038380817
189	0xbc934144	-0.017975457
190	0xbd468016	-0.048461996
191	0x3d0a36c2	0.033743627
192	0xbc721bfb	-0.014777179
193	0xbd5720ed	-0.052521635
194	0x3b2a5992	0.002599333
195	0x3d5223ac	0.05130355
196	0xbe3c95a9	-0.18416466
197	0xbcde4ec6	-0.027137171
198	0xbc371b80	-0.01117599
199	0xbd5092a5	-0.0509211
200	0x3d7c8c0b	0.061656993
201	0x3cbd66f3	0.02312038
202	0x3ca97a20	0.020688117
203	0x3ce8cf40	0.028419137
204	0x3dbe201e	0.092834696
205	0x3c4fcbd8	0.0126828775
206	0x3cf3e91e	0.029774245
207	0x3bf597d4	0.007494906
208	0x3d25fb83	0.040523063
209	0xbcf50e9f	-0.029914198
210	0x3cf05ffa	0.02934264
211	0xbba8c66c	-0.005150607
212	0x3c2b00c8	0.010437198
213	0x3d3e3626	0.04643836
214	0xbcb13854	-0.021633305
215	0xbbd23b64	-0.0064157713
216	0x3d6552d0	0.05598718
217	0xbd221f03	-0.039580356
218	0x3b135580	0.0022481382
219	0x3d1418f2	0.036156602
220	0xbdd12397	-0.10211866
221	0xbd96fb9c	-0.073722094
222	0xbd9ad787	-0.0756064
223	0x3d47f9ad	0.048822094
224	0x3d20f73e	0.03929829
225	0xbd3a63f2	-0.04550547
226	0xbd79a9e0	-0.06095302
227	0xbd2253dd	-0.03963076
228	0xbda6880b	-0.08131417
229	0x3d1881d4	0.03723319
230	0xbd2f7728	-0.042838246
231	0xbbe4c534	-0.0069815163
232	0xbd06bae0	-0.03289306
233	0x3d375d2f	0.0447666
234	0x3d8a6d41	0.0675912
235	0x3c6c51fd	0.014423844
236	0xbd8801c0	-0.06640959
237	0x3d487334	0.04893799
238	0x3d2d218b	0.042268317
239	0x3d702ef0	0.058638513
240	0x3c427eb8	0.011871032
241	0x3b3a965a	0.0028470964
242	0xbc8a1b54	-0.016858734
243	0xbbd33e80	-0.0064466596
244	0xbd66c93c	-0.056344256
245	0xbc75b094	-0.014995713
246	0xbca60236	-0.020264726
247	0x3d7d84db	0.06189428
248	0xbd3a5c9c	-0.045498475
249	0xbd3726d2	-0.044714756
250	0x3b91c260	0.00444822
251	0x3c527ead	0.012847585
252	0x3db6c27e	0.08923815
253	0x3d39ac20	0.045330167
254	0xbc9fdf99	-0.0195158
255	0x3c82730e	0.015924003

bias f4 [256]
0	0x3ca7f938	0.020504579
1	0xbd6b53ba	-0.057452895
2	0x3d8bbf17	0.06823557
3	0x3d80f6a3	0.06297042
4	0x3cd9d930	0.02659282
5	0xbba8b21b	-0.005148185
6	0xbd084cfc	-0.033276543
7	0x3d87cf7b	0.06631371
8	0xbc9a9a2a	-0.01887234
9	0xbcafffc6	-0.021484267
10	0x3ce23620	0.0276137
11	0xbd4706a7	-0.04859033
12	0x3d679575	0.056539018
13	0x3c713e82	0.014724376
14	0xbd6d963a	-0.058004595
15	0xbced2ea1	-0.028952898
16	0xbd5009b9	-0.050790522
17	0x3c218038	0.00985723
18	0x3c919f00	0.017776012
19	0xbcb86ad8	-0.022511885
20	0xbc007db0	-0.007842466
21	0xbc611220	-0.0137372315
22	0xbd13d942	-0.036095865
23	0x3d484002	0.048889168
24	0xbd3db3ce	-0.046314053
25	0x3cd451cc	0.02591791
26	0x3c4ca987	0.01249159
27	0x3da7fd07	0.08202558
28	0xbd7eff63	-0.062255275
29	0xbd6eb6ea	-0.05827991
30	0xbceb0c10	-0.028692275
31	0x3d4db492	0.050221033
32	0x3d49fab9	0.049311373
33	0x3d445a9c	0.047937974
34	0x3bfa91fa	0.0076467963
35	0xbd51e9c2	-0.05124832
36	0xbd28a6c9	-0.041174684
37	0xbb87eb47	-0.0041479203
38	0xbd109c73	-0.03530545
39	0xbba5da91	-0.0050614555
40	0xbc633680	-0.013867974
41	0xbd6110ea	-0.05494777
42	0xbca25649	-0.019816535
43	0xbd6a2b2c	-0.05717008
44	0xbd53a57e	-0.051671498
45	0x3d4b23fb	0.04959486
46	0x3c90d09f	0.017677603
47	0x3c20b87c	0.0098096095
48	0xbd66639e	-0.056247346
49	0x3c883108	0.016624942
50	0xbcd52b20	-0.02602154
51	0x3c82dd63	0.015974706
52	0xbd01a525	-0.031651635
53	0xbc3e0e4e	-0.01160009
54	0xbd139915	-0.036034662
55	0xbd08c393	-0.03338964
56	0xbc8ee6f2	-0.017444108
57	0x3d42bc38	0.04754278
58	0x3bb09c8e	0.0053897565
59	0xbd68a3d3	-0.05679686
60	0xbd17a608	-0.037023574
61	0xbd89c29d	-0.06726573
62	0xbcd8eee1	-0.026481094
63	0x3d429094	0.04750116
64	0x3d806c89	0.062707014
65	0xbd3e7e29	-0.046507034
66	0x3d035894	0.032066897
67	0x3a7d8bd9	0.0009672023
68	0xbd24326a	-0.04008714
69	0xbbebf840	-0.0072012246
70	0x3d132eda	0.035933353
71	0xbd1772d6	-0.03697475
72	0x3c5134dd	0.012768951
73	0x3d356015	0.044281084
74	0xbd481a55	-0.048853237
75	0xbd0488f5	-0.032357175
76	0x3d87818c	0.06616506
77	0x3bdd0bd0	0.006745793
78	0x3d90ea84	0.0707598
79	0x3cd3d758	0.02585952
80	0xbc97324c	-0.0184566
81	0x3d907035	0.07052652
82	0xbbb268dc	-0.005444629
83	0xbb1b91ae	-0.0023737955
84	0x3ccf03cf	0.02527037
85	0x3cd76fd9	0.02629845
86	0x3d79e2aa	0.06100718
87	0x3d845712	0.0646192
88	0x3cc707cf	0.024295716
89	0x3d6954d4	0.056965664
90	0x3d0a50ac	0.03376834
91	0xbd1106b4	-0.035406783
92	0x3d5f7803	0.05455781
93	0xbc5fc6b8	-0.013658218
94	0x3d61a016	0.05508431
95	0xbc811ac7	-0.015759839
96	0xbc61d468	-0.013783552
97	0x3c7f9828	0.015600242
98	0x3d937635	0.072002806
99	0xbd325d66	-0.043546103
100	0xbcdee230	-0.027207464
101	0xba3c5b4f	-0.0007185237
102	0xbd1f5bd8	-0.03890595
103	0xbd1df220	-0.038560987
104	0xbd45a0ba	-0.048248984
105	0x3d62971b	0.055319887
106	0xbc90205c	-0.017593555
107	0xbd3321a1	-0.043733243
108	0xbc1a27e9	-0.009408929
109	0xbcb5efc2	-0.022209052
110	0xbd0db32c	-0.0345947
111	0x3d6036b7	0.05473968
112	0x3bcdede6	0.006284463
113	0x3d3e7907	0.04650214
114	0xbce77fe8	-0.028259233
115	0x3d32246a	0.04349176
116	0xbd44f4bc	-0.04808496
117	0x3d4da56e	0.050206594
118	0x3b9a09de	0.0047008833
119	0xbd18459a	-0.037175752
120	0x3d0bdaf8	0.03414437
121	0xbb633349	-0.003466802
122	0xbb4387b3	-0.0029835522
123	0x3d52bb98	0.051448435
124	0xbc7575c3	-0.01498169
125	0x3d857b2c	0.06517634
126	0xba7f7a00	-0.00097456574
127	0xbcd513fe	-0.02601051
128	0x3c4862e3	0.012230608
129	0xbd1fd1f6	-0.039018594
130	0x3cd805a9	0.026369886
131	0xbd0d9efb	-0.034575444
132	0xbd062ede	-0.03275954
133	0x3c379808	0.011205681
134	0xbbb0f542	-0.0054003308
135	0xbc90393f	-0.017605422
136	0x3c89ca1a	0.016820002
137	0x3d64535d	0.055743564
138	0x3cedd227	0.029030873
139	0xbd80a97e	-0.06282328
140	0xbcf35d81	-0.029707672
141	0xbd90b062	-0.07064892
142	0xbc067eed	-0.008208972
143	0x3c6577d6	0.014005622
144	0x3d68f507	0.0568743
145	0x3ac94f35	0.0015358689
146	0x3bbd42e6	0.005775797
147	0xbc46c8e8	-0.012132861
148	0x3d6b2e54	0.05741723
149	0xbcd11265	-0.025521467
150	0xbbd58ba1	-0.006516889
151	0xbd26c89d	-0.040718663
152	0xbd1e82e0	-0.03869903
153	0x3d3853c7	0.04500177
154	0x3ca2fd22	0.019896094
155	0xbcb1dc9c	-0.02171164
156	0xbcf16192	-0.02946547
157	0x3cd34a18	0.025792167
158	0xbc888f35	-0.016669849
159	0xbd2a1aea	-0.041529574
160	0xba52f45f	-0.00080472784
161	0xbd3e6b38	-0.04648897
162	0xbd0a21c4	-0.033723608
163	0xbccc0262	-0.02490348
164	0x3d6bbe81	0.057554726
165	0xbd62ad2c	-0.05534093
166	0x3d226434	0.039646342
167	0xbcbacf66	-0.022803973
168	0x3bee79f0	0.0072777197
169	0xbd062208	-0.0327473
170	0x3cf35eff	0.029708384
171	0xbced0cc0	-0.028936744
172	0xbc7273d7	-0.014798126
173	0xbce593e8	-0.028024629
174	0x3cfb8ee7	0.03070779
175	0xbc432a13	-0.011911887
176	0xbc8939ea	-0.016751248
177	0xbd565b4e	-0.05233317
178	0xbc9bacad	-0.019003237
179	0xbba0d8c0	-0.004908651
180	0xbc5690d0	-0.013096049
181	0xbd5ed470	-0.054401815
182	0xbce1c47e	-0.027559515
183	0x3d71912c	0.058976337
184	0xbd0fe08e	-0.03512626
185	0xbc140139	-0.009033495
186	0xbd3a0b58	-0.045420974
187	0x3b23c275	0.0024987732
188	0xbd1f5b9f	-0.038905736
189	0xbc0615b8	-0.008183889
190	0xbb740a74	-0.0037237676
191	0x3ce67b95	0.0281351
192	0xbd3ea81e	-0.046547048
193	0xbd4712ac	-0.04860179
194	0x3d0b17a8	0.033958107
195	0x3ca173f3	0.01970861
196	0x3cbae2e4	0.022813268
197	0xbd5a4c8a	-0.05329565
198	0x3d70e76d	0.058814455
199	0xbcd873cb	-0.026422402
200	0x3b2b0e36	0.0026101
201	0xbb955843	-0.0045576408
202	0xbd29604a	-0.041351594
203	0x3d17c021	0.037048463
204	0x3d0d6734	0.03452225
205	0xbc533e85	-0.012893324
206	0x3d4ce0b5	0.050018985
207	0xbc68cd4b	-0.014209102
208	0xbd0fdfdb	-0.035125595
209	0x3d088e94	0.033339098
210	0xbc1456a5	-0.009053861
211	0x3bfb16d9	0.0076626358
212	0x3ccc7ddf	0.024962364
213	0xbd291305	-0.041277904
214	0x3d5ec62b	0.054388206
215	0x3d77729a	0.060412027
216	0xbd4165b7	-0.047216143
217	0x3d27494a	0.04084138
218	0x3ddf8ef4	0.10915938
219	0x3ce52b04	0.027974613
220	0x3c2cf6bc	0.010556873
221	0x3c687c98	0.014189862
222	0xbd106601	-0.03525353
223	0xbc89b82d	-0.016811455
224	0x3cfdcead	0.03098234
225	0xbc161fec	-0.009162884
226	0x3d4dbe29	0.05023018
227	0x3d6dd509	0.058064494
228	0x3d4f7306	0.050646804
229	0x3d3d2f52	0.046187706
230	0xbd2b65cc	-0.041845128
231	0xbd2867be	-0.04111456
232	0xbca0aa2d	-0.019612396
233	0x3cf9c1e0	0.030487955
234	0xbd41367a	-0.047171094
235	0x3d472a9f	0.04862463
236	0x3cb57660	0.022151172
237	0x3ca470c9	0.020073311
238	0x3d60c092	0.05487115
239	0x3a2da6ed	0.00066243
240	0x3d851693	0.06498446
241	0xbd6dcf2e	-0.05805891
242	0x3d689460	0.056782126
243	0x3d633dd6	0.055478893
244	0xbd18f358	-0.037341446
245	0xbd24f14b	-0.040269177
246	0x3d97dbae	0.074149475
247	0x3d2294b4	0.039692596
248	0x3d928cd7	0.07155769
249	0x3c8eff61	0.017455759
250	0xbcd7ae1b	-0.026328137
251	0xbce52b16	-0.027974647
252	0x3c01eabc	0.0079295
253	0x3d7cf584	0.06175758
254	0x3c6158f8	0.013754122
255	0x3d326c80	0.043560505

weight_mu f4 [1, 256]
0	0x3dbbcf28	0.09170371
1	0x3d466004	0.04843141
2	0x3dcf9702	0.10136224
3	0xbca987f1	-0.020694705
4	0xbd7d8570	-0.061894834
5	0xbd6e2693	-0.058142256
6	0x3d9fb0c0	0.07797384
7	0x3d4f9c14	0.050685957
8	0x3d91d04c	0.071198076
9	0x3d964523	0.073374055
10	0xbc996b04	-0.018727787
11	0x3c8a7d64	0.016905494
12	0x3ce8b188	0.028404966
13	0xbd5a25c5	-0.053258676
14	0x3d2c46e0	0.04205978
15	0xbd476f9f	-0.048690435
16	0xbd3809b4	-0.04493113
17	0xbd602992	-0.054727145
18	0x3cd1f5f4	0.025629975
19	0x3afa47f9	0.0019094936
20	0xbd2ba1e8	-0.041902453
21	0x3b7a1f60	0.0038165674
22	0x3d1ce442	0.03830362
23	0xbdf218e7	-0.11821156
24	0x3d5402f8	0.051760644
25	0xbbe03893	-0.0068426817
26	0xbcac2d2d	-0.021017635
27	0x3e838015	0.25683656
28	0x3c9b13ed	0.0189304
29	0x3d0f3bb1	0.034969036
30	0x3d4adc30	0.049526393
31	0x3c83a1e3	0.016068405
32	0xbd5e481f	-0.054268
33	0x3d675cca	0.056484975
34	0x3dd0025f	0.10156702
35	0xbc0577a8	-0.008146204
36	0x3d9b6137	0.07586902
37	0x3d5c4c2a	0.053783573
38	0x3ce03bbf	0.02737224
39	0xbcfacb7d	-0.030614609
40	0xbcaf0864	-0.021366306
41	0xbd38a11c	-0.04507552
42	0x3ac92b0e	0.0015347914
43	0xbd1fc376	-0.039004765
44	0xbb829400	-0.003984928
45	0x3e3e1b9c	0.1856522
46	0x3d341827	0.043968346
47	0xbcd767fc	-0.0262947
48	0xbd6ac8f2	-0.057320543
49	0x3c76f670	0.015073404
50	0x3d004218	0.031313032
51	0xbd300436	-0.042972766
52	0x3ca2a922	0.01985604
53	0xbd5d79b6	-0.05407115
54	0x3d2d6847	0.042335775
55	0xbc9aba6b	-0.01888772
56	0x3d6d5f42	0.057952173
57	0xbd7ac1da	-0.061220028
58	0xbc184a0d	-0.009294999
59	0x3c921404	0.01783181
60	0xbd170c56	-0.036877
61	0xbd83718b	-0.06418141
62	0xbc16ce9a	-0.009204531
63	0x3d5a764e	0.05333548
64	0x3da54b11	0.080709584
65	0x3d092296	0.03348025
66	0x3b6fa060	0.0036564097
67	0x3d34b8b2	0.04412145
68	0xbdcd205a	-0.10015936
69	0xbd1a41fe	-0.03766059
70	0xbca24d73	-0.019812321
71	0x3d83a269	0.06427462
72	0xbbead556	-0.007166545
73	0xbda90205	-0.08252338
74	0xbd36a6d6	-0.0445927
75	0xbbef8eb2	-0.007310712
76	0x3d913b58	0.07091397
77	0x3d505f1c	0.050871953
78	0x3d284075	0.041077096
79	0xbcfe0b3c	-0.031011216
80	0x3b652880	0.0034966767
81	0x3d92d9a0	0.07170415
82	0xbd58d1c3	-0.05293442
83	0xbdabefb6	-0.083953306
84	0xbdc89595	-0.097941555
85	0x3d968d70	0.07351196
86	0x3b6abe80	0.0035819113
87	0x3db86a88	0.09004694
88	0x3d16cf6d	0.03681891
89	0xbe06ae53	-0.13152437
90	0xbd451020	-0.04811108
91	0x3d2a51da	0.041581966
92	0x3c80ead5	0.015736977
93	0x3ae48b0a	0.0017436456
94	0x3d1f0f14	0.03883274
95	0x3d0bf91f	0.034173127
96	0x3d35dfd0	0.044402897
97	0x3c2f1f38	0.0106885955
98	0x3d841987	0.064501815
99	0xbca03774	-0.019557692
100	0xbcec7e24	-0.028868742
101	0x3c99b3d0	0.0187625
102	0xbd43feca	-0.047850408
103	0xbd6e37c0	-0.058158636
104	0xbcaeb594	-0.021326818
105	0xbdc453cf	-0.09586298
106	0xbdd63a83	-0.10460379
107	0xbd1aebf2	-0.03782267
108	0x3d70e0e2	0.058808215
109	0x3d7d70f0	0.061875284
110	0xbbcb0be0	-0.006196484
111	0xbd0c5fc2	-0.03427101
112	0xbe03d723	-0.12875037
113	0x3d3c8343	0.04602362
114	0xbb063699	-0.002047932
115	0x3dc9ac23	0.098472856
116	0x3d603c36	0.05474492
117	0x3d846cf0	0.06466091
118	0xbdd565c3	-0.104198
119	0x3db8de84	0.090268165
120	0xbc106ac0	-0.008814514
121	0x3d3b4084	0.045715824
122	0x3d3b8dd0	0.04578954
123	0x3d4f26ac	0.05057399
124	0x3d25f286	0.04051449
125	0xbe135dbe	-0.14391229
126	0x3d1bb43c	0.03801368
127	0xbdbe7290	-0.09299195
128	0x3d64db73	0.055873346
129	0xbd203196	-0.03910979
130	0xbccf54f0	-0.025309056
131	0x3c87e73a	0.01658975
132	0x3d708b14	0.058726385
133	0x3d0676aa	0.03282801
134	0x3d9fa4e9	0.07795126
135	0x3d22b6d6	0.039725147
136	0x3d4e65c4	0.05039002
137	0x3dffa2aa	0.124821976
138	0x3bddf806	0.0067739515
139	0xbd54e6b9	-0.051977847
140	0xbd3eb5ea	-0.046560206
141	0x3c3c4359	0.011490666
142	0x3d422397	0.047397222
143	0xbcb68e90	-0.022284776
144	0x3d03654a	0.03207902
145	0xbde7329f	-0.11288952
146	0x3db6702d	0.089081146
147	0x3dd6eba1	0.104941614
148	0xbd312aec	-0.043253824
149	0xbd10f13b	-0.035386305
150	0x3d6585cf	0.056035813
151	0x3cd2f4e1	0.025751533
152	0x3d44d77c	0.048057064
153	0x3d9c9dc4	0.07647279
154	0x3df196ca	0.11796339
155	0x3d12a786	0.035804294
156	0x3d573b95	0.052547056
157	0x3d68ee65	0.056867976
158	0xbdfe4ed8	-0.12417382
159	0x3c6a1d78	0.014289252
160	0x3cbfe775	0.023425797
161	0x3c031c96	0.008002421
162	0xbd96691d	-0.073442675
163	0xbdb4954e	-0.0881754
164	0x3d06d801	0.03292084
165	0xbbcfb476	-0.0063386513
166	0xbd270322	-0.040774472
167	0x3dc61d46	0.09673552
168	0x3cabfc80	0.020994425
169	0xbc84441c	-0.016145758
170	0x3e0a584a	0.13510242
171	0xbdfbca2a	-0.12294419
172	0x3d33ca90	0.04389435
173	0x3d7be1c6	0.06149461
174	0x3da91394	0.08255687
175	0x3d7819b6	0.060571395
176	0x3d9e3f1f	0.07726883
177	0x3d5e8e83	0.05433513
178	0x3d33ad58	0.043866485
179	0x3d57f27e	0.052721493
180	0xbcb4bab8	-0.02206169
181	0x3d388d54	0.045056656
182	0x3d6a7810	0.057243407
183	0x3dd5aadc	0.104329795
184	0x3d6c8729	0.057746086
185	0xbd2c091d	-0.04200088
186	0xbd88e3ef	-0.066841
187	0x3cd3f540	0.02587378
188	0x3d038fba	0.03211949
189	0x3d675ab6	0.056482993
190	0x3ac8ac92	0.0015310219
191	0xbcfb818c	-0.030701421
192	0x3d36b23d	0.044603575
193	0x3d96a060	0.07354808
194	0x3da56db6	0.08077566
195	0xbd513a4f	-0.051080998
196	0x3c176108	0.009239443
197	0xbcf6d834	-0.03013239
198	0xbc42a6c6	-0.011880582
199	0x3d657944	0.05602385
200	0x3aea94b8	0.0017897105
201	0x3e166a5b	0.14689009
202	0xbd323414	-0.043506697
203	0x3d78d8ef	0.06075376
204	0x3e3f8798	0.18704069
205	0x3d624f87	0.055251624
206	0xbd1683b5	-0.0367467
207	0x3d2af0b6	0.041733466
208	0xbb83b99e	-0.00401993
209	0x3b36dc3b	0.0027902264
210	0x3caedbee	0.021345105
211	0x3d3758e9	0.044762526
212	0xbca0a2e2	-0.019608919
213	0x3d3a0d3e	0.045422785
214	0xbe26d106	-0.16290674
215	0x3d09736c	0.03355734
216	0x3ca0a383	0.019609218
217	0xbd09356e	-0.03349822
218	0x3e2dde0e	0.16979238
219	0x3c953df8	0.018218026
220	0x3d75b850	0.059990227
221	0x3d387f49	0.045043264
222	0x3d93c336	0.07214968
223	0xbcbf95c2	-0.02338684
224	0x3d49a349	0.049227986
225	0x3d23cbe1	0.039989356
226	0xbd02000e	-0.031738333
227	0x3d54a7cd	0.05191784
228	0xbd73887d	-0.059456337
229	0x3ce481a4	0.027893849
230	0x3c9b2f50	0.018943459
231	0xbd3fa632	-0.046789356
232	0xbd56279a	-0.05228386
233	0xbe1954e9	-0.14973797
234	0x3d1a95dd	0.037740577
235	0x3d088918	0.033333868
236	0xbe214411	-0.15748622
237	0xbd73db66	-0.059535407
238	0x3c9aeb88	0.018911138
239	0xbd6f68cd	-0.058449555
240	0xbdce89ba	-0.10084863
241	0xbd6d3415	-0.057910997
242	0x3cad3937	0.021145446
243	0x3d3e018e	0.0463882
244	0x3d87ab87	0.06624513
245	0x3d1a0d3d	0.03761028
246	0x3db3f051	0.08786071
247	0x3db2c180	0.087283134
248	0x3d958f77	0.07302754
249	0xbd1905e2	-0.037359126
250	0x3d75caf6	0.06000801
251	0x3b8d3a40	0.0043099225
252	0x3b1e86aa	0.0024189153
253	0x3d7257a2	0.059165604
254	0x3c1ffe4b	0.009765218
255	0x3d6a4978	0.05719897

weight_sigma f4 [1, 256]
0	0x3c75e7f5	0.015008916
1	0x3d000000	0.03125
2	0x39e4a4b7	0.0004361027
3	0x3cac0216	0.020997088
4	0x3d000000	0.03125
5	0x3d0f845c	0.035038337
6	0x3ba47268	0.005018521
7	0x3b389e47	0.0028170513
8	0x3c841c6e	0.016126838
9	0x3cdde3be	0.027086135
10	0x3bd48770	0.006485872
11	0x3cf187aa	0.029483635
12	0x3c81cd70	0.01584503
13	0x3ce1389c	0.027492814
14	0x3d000000	0.03125
15	0x3ccca01e	0.024978694
16	0x3ce15309	0.027505415
17	0x3d000000	0.03125
18	0x3d000000	0.03125
19	0x3cf36def	0.029715506
20	0x3d000000	0.03125
21	0x3d000000	0.03125
22	0x3d000000	0.03125
23	0x3cb070ad	0.021538103
24	0x3cfbdf45	0.030746112
25	0x3ced76b4	0.028987266
26	0x3cd5a8b8	0.026081428
27	0x3bcf4991	0.0063259085
28	0x3cf0a35c	0.02937477
29	0x3cc4b9d0	0.024014384
30	0x3cd7e1c0	0.026352763
31	0x3cf10075	0.029419163
32	0x3b72a14b	0.0037022408
33	0x3afad4c7	0.0019136899
34	0x3b14b5d7	0.0022691393
35	0x3d000000	0.03125
36	0x3cdf450c	0.027254604
37	0x3cebed63	0.028799718
38	0x3cf46398	0.029832646
39	0x3cf2f19d	0.029656226
40	0x3d000000	0.03125
41	0x3d000000	0.03125
42	0x3d012f4c	0.031539246
43	0x3d000000	0.03125
44	0x3d000000	0.03125
45	0x3b9e553f	0.0048319395
46	0x3c09fdc5	0.00842232
47	0x3cfd84f5	0.030947188
48	0x3d000000	0.03125
49	0x3d000000	0.03125
50	0x3d000000	0.03125
51	0x3cbf0da3	0.023321932
52	0x3ce1f3ee	0.027582135
53	0x3d0448ca	0.03229598
54	0x3cfb78f8	0.03069733
55	0x3cf05729	0.029338436
56	0x3b8ad5df	0.004236921
57	0x3d000000	0.03125
58	0x3ced20d4	0.028946318
59	0x3cff3e26	0.031157564
60	0x3d000000	0.03125
61	0x3c60cc44	0.013720576
62	0x3cf1f9dd	0.02953809
63	0x3cfdc641	0.030978324
64	0x3b95b95e	0.0045692166
65	0x3cfda1be	0.030960914
66	0x3d000000	0.03125
67	0x3cfcc5f2	0.030856106
68	0x3c83e460	0.016100109
69	0x3d000000	0.03125
70	0x3ce1cc9b	0.027563384
71	0x3c391ab9	0.011297875
72	0x3ce6b51d	0.028162533
73	0x3ca77004	0.020439155
74	0x3ccf18a6	0.025280308
75	0x3d0149fa	0.03156469
76	0x3b8e7c1d	0.0043482915
77	0x3d000000	0.03125
78	0x3b9e31b4	0.0048277024
79	0x3d000000	0.03125
80	0x3d000000	0.03125
81	0x3b22b0eb	0.002482469
82	0x3ce1d136	0.02756558
83	0x3c6947cc	0.014238309
84	0x3c929f1f	0.01789814
85	0xba3c02e0	-0.0007172059
86	0x3d000000	0.03125
87	0x3afadd08	0.0019139359
88	0x3d004d23	0.031323563
89	0x3cb30086	0.021850836
90	0x3d000000	0.03125
91	0x3d000000	0.03125
92	0x3ce29d6e	0.027662959
93	0x3cda63fd	0.026659006
94	0x3d000000	0.03125
95	0x3c8e8a0e	0.017399814
96	0x3d000000	0.03125
97	0x3d000000	0.03125
98	0x3bd11303	0.00638044
99	0x3d000000	0.03125
100	0x3d000000	0.03125
101	0x3c16f667	0.00921402
102	0x3ce69608	0.028147712
103	0x3d000000	0.03125
104	0x3cb16e1a	0.021658946
105	0x3c69e1a3	0.014274987
106	0x3c1eb5f5	0.009686937
107	0x3d005b9e	0.031337373
108	0x3cf101f9	0.029419886
109	0x3cfb2747	0.030658377
110	0x3d000000	0.03125
111	0x3cf504d8	0.029909536
112	0x3bddfd58	0.0067745857
113	0x3d03ed80	0.03220892
114	0x3ceda4f5	0.029009322
115	0xba2632c5	-0.0006339963
116	0x3d000000	0.03125
117	0x3bbf21af	0.005832873
118	0x3c56321a	0.013073469
119	0x3b4a7c55	0.0030896862
120	0x3d000000	0.03125
121	0x3d1529b9	0.036416743
122	0x3d025af5	0.031825025
123	0x3d000000	0.03125
124	0x3cf792b8	0.030221328
125	0x3bccf315	0.0062545636
126	0x3d000000	0.03125
127	0x3c607aff	0.0137012
128	0x3ca8724c	0.020562313
129	0x3d000000	0.03125
130	0x3c8caf7d	0.017173523
131	0x3d022c4a	0.03178052
132	0x3d000000	0.03125
133	0x3d000000	0.03125
134	0x3ab54ca6	0.0013832047
135	0x3cff98ce	0.031200793
136	0x3cffda75	0.031232098
137	0x3c4fb7f7	0.012678138
138	0x3c820094	0.015869416
139	0x3cc1a961	0.023640336
140	0x3cd4ad9e	0.025961693
141	0x3c672c32	0.014109658
142	0x3ce50623	0.027957028
143	0x3cb93a8f	0.02261093
144	0x3cea691f	0.028614579
145	0x3cd32578	0.025774702
146	0x397d313f	0.00024146306
147	0x3b81fd3b	0.003966955
148	0x3d000000	0.03125
149	0x3cd0734c	0.025445603
150	0x3d01f640	0.031728983
151	0x3cfd1cc7	0.030897511
152	0x3cfe117f	0.031014202
153	0x3a87e785	0.0010368681
154	0x3ca389ee	0.019963231
155	0x3d000000	0.03125
156	0x3ce01813	0.02735523
157	0x3cf93b82	0.030423883
158	0x3c253ba8	0.010085024
159	0x3d000000	0.03125
160	0x3cd22a3d	0.025654906
161	0x3d013e33	0.03155346
162	0x3ce94ff5	0.02848051
163	0x3cc71f53	0.024306929
164	0x3cfb8492	0.030702863
165	0x3cfd50b0	0.030922264
166	0x3d000000	0.03125
167	0x3c43af24	0.011943612
168	0x3d000000	0.03125
169	0x3d00aeb4	0.03141661
170	0x3bf9ecfb	0.007627127
171	0x3bfbf506	0.007689121
172	0x3cf221b4	0.029557087
173	0x3d000000	0.03125
174	0xba3235a6	-0.00067981554
175	0x3aa306b9	0.0012437917
176	0x39d39d78	0.0004036238
177	0x3c9d290a	0.019184608
178	0x3c4857c5	0.012227957
179	0x3d000000	0.03125
180	0x3d000000	0.03125
181	0x3cc16daa	0.023611862
182	0x3d00dbce	0.031459622
183	0x3b469b38	0.003030492
184	0x3be82304	0.0070842523
185	0x3c867e34	0.0164176
186	0x3ca8255a	0.020525623
187	0x3cecdab5	0.028912881
188	0x3cf4e717	0.029895348
189	0x3cf15614	0.02945999
190	0x3cbfd541	0.023417117
191	0x3cdbbe18	0.026824042
192	0x3cfc39a5	0.030789206
193	0xb8d09a17	-9.946914e-05
194	0x3b74e591	0.0037368278
195	0x3cab67e6	0.020923566
196	0x3d000000	0.03125
197	0x3d000000	0.03125
198	0x3cf3a39b	0.0297411
199	0x3bcc7342	0.0062393257
200	0x3cf9023f	0.030396579
201	0x3bf9ed13	0.0076271384
202	0x3d000000	0.03125
203	0x3c3c2fd5	0.011486013
204	0x3be0331d	0.0068420307
205	0x3c814310	0.015779048
206	0x3cf2d5f9	0.029643046
207	0x3caf011a	0.02136283
208	0x3cae9985	0.021313438
209	0x3d023f0c	0.031798407
210	0x3cff5fb4	0.031173564
211	0x3d023d78	0.031796902
212	0x3cc5b880	0.024135828
213	0x3cf7f983	0.030270344
214	0x3b6b8272	0.0035935906
215	0x3c971fd4	0.018447794
216	0x3ca313bf	0.019906877
217	0x3d000000	0.03125
218	0x3bc72240	0.006077081
219	0x3d000000	0.03125
220	0x3ad59865	0.0016296027
221	0x3c811ab0	0.015759796
222	0x3b6e135a	0.0036327452
223	0x3cff55d4	0.031168856
224	0x3cca1036	0.024665933
225	0x3d05b2fb	0.032641392
226	0x3cd22ac9	0.025655167
227	0x3cf89380	0.030343771
228	0x3c6d118f	0.014469518
229	0x3d000000	0.03125
230	0x3d000000	0.03125
231	0x3d000000	0.03125
232	0x3c974d78	0.018469557
233	0x3c5331f6	0.01289033
234	0x3cffff0b	0.031249544
235	0x3c9f427e	0.019440886
236	0x3b2d0c5b	0.002640507
237	0x3ca01c26	0.019544672
238	0x3d000000	0.03125
239	0x3cdd8dc1	0.027045133
240	0x3ca8ebd8	0.020620272
241	0x3ca353fa	0.019937504
242	0x3cff3da0	0.031157315
243	0x3cf94878	0.030430064
244	0x3bbf3cad	0.0058360905
245	0x3ce8c94f	0.028416304
246	0x3aa164ce	0.0012313367
247	0x3a4bb6c1	0.0007771068
248	0x3a504fd2	0.00079464645
249	0x3ce12c6c	0.027487002
250	0x3cecca1d	0.028904969
251	0x3cab7cf5	0.020933608
252	0x3cfc0121	0.030762257
253	0x3d000000	0.03125
254	0x3c623ee6	0.0138089415
255	0x3d000000	0.03125

weight_epsilon f4 [1, 256]
0	0xbfbdbec3	-1.4823841
1	0x3f6642fb	0.89945954
2	0x3fdff152	1.749552
3	0x3f930e8b	1.1488813
4	0x3fe3b326	1.7789047
5	0xbf67d42e	-0.90558136
6	0x3f478494	0.77936673
7	0x3f38e128	0.7221856
8	0x3fbae2fe	1.4600523
9	0x3f2d2e4e	0.6764878
10	0x3f9a4c99	1.2054626
11	0x3e96893d	0.2940158
12	0xbf905e8b	-1.1278852
13	0x3e7ad592	0.24495533
14	0xbf9eead9	-1.241542
15	0xbf406c98	-0.751657
16	0x3f6c3a95	0.9227689
17	0xbfb306af	-1.3986415
18	0xbf377f99	-0.71679074
19	0xbf31d983	-0.6947252
20	0x3f8a7179	1.0815879
21	0x3f93898a	1.1526349
22	0xbf7cbc5d	-0.9872492
23	0x3f9d285d	1.2277943
24	0x3f37ee81	0.71848303
25	0xbe025c1c	-0.1273045
26	0xbf530cbb	-0.824413
27	0xbda2cad4	-0.07948843
28	0x3f8b427f	1.0879668
29	0xbf3a4564	-0.7276213
30	0x3f0f1519	0.5589157
31	0xbf9debfe	-1.2337644
32	0xbe916539	-0.2839754
33	0xbfdd21dd	-1.7275959
34	0x3f2f3461	0.684393
35	0x3fac5b0a	1.3465283
36	0x3f05e445	0.52301437
37	0xbf039d39	-0.5141178
38	0x3f99c85b	1.2014269
39	0xbf22ac6b	-0.6354434
40	0xbf7aff86	-0.9804615
41	0x3fa6db55	1.3035685
42	0x3f77ac11	0.9674693
43	0xbe122fa7	-0.1427599
44	0x3f43d425	0.7649558
45	0xbfcb333b	-1.5875009
46	0xbf2dcc63	-0.67889994
47	0x3e8e4f0a	0.27794677
48	0x3fb7902a	1.434087
49	0x3f5be7ff	0.8590087
50	0x3fc03d36	1.501868
51	0xbfbd0eef	-1.4770182
52	0xbeaa5897	-0.33270714
53	0x3fb03cac	1.3768516
54	0xbf5093b1	-0.8147536
55	0x3f15fca3	0.5858862
56	0x3f586681	0.8453141
57	0x3f6cacf6	0.9245142
58	0x3fb164d2	1.3858893
59	0xbf609db9	-0.87740666
60	0x3f31431e	0.6924304
61	0xbf5ba4e8	-0.857985
62	0x3f78d8c8	0.9720578
63	0xbf025eca	-0.50925887
64	0x3f8b1ba8	1.0867815
65	0xbfc9c517	-1.5763272
66	0xbe88b0b8	-0.26697326
67	0xbf26f771	-0.65221316
68	0x3f8d6058	1.1045027
69	0xbf72a8d6	-0.94788873
70	0xbf393b76	-0.72356355
71	0xbfaa86e5	-1.3322417
72	0xbf20f5f5	-0.628753
73	0xbf56e39c	-0.83941054
74	0x3f94e25e	1.1631582
75	0x3fbe606b	1.4873174
76	0xbf80e907	-1.0071114
77	0x3fa1c59a	1.2638428
78	0x3fe18d80	1.7621307
79	0xbf67b296	-0.90506876
80	0xbf1b3add	-0.60636693
81	0x3f90706f	1.1284312
82	0xbfa446f4	-1.2834153
83	0xbf2df972	-0.6795875
84	0x3f56f3ef	0.83965963
85	0xbfaf5338	-1.3697271
86	0x3edd126c	0.43178117
87	0xbef17a26	-0.47163504
88	0xbf8ecc4a	-1.1156094
89	0x3fe133d1	1.7593938
90	0xbfcdd9be	-1.6082075
91	0xbf4d07f1	-0.8009024
92	0xbe84bdf6	-0.2592618
93	0xbe5ef119	-0.21771659
94	0xbfbcf19b	-1.4761232
95	0x3e9c7dd7	0.30564758
96	0x3ff8c8fe	1.9436338
97	0xbf466d72	-0.7751075
98	0xbf40e08a	-0.7534262
99	0x3f20129e	0.6252841
100	0x3f7298bb	0.947643
101	0xbf53e8c8	-0.8277707
102	0xbfcec0b7	-1.6152562
103	0xbfc224c5	-1.5167471
104	0xbfb1a3d6	-1.3878124
105	0x3fcd7d31	1.605383
106	0x3fda4ce7	1.7054719
107	0x3f8b32d4	1.0874887
108	0xbf8c43de	-1.0958211
109	0xbfb6674f	-1.4250277
110	0x3f62b575	0.8855813
111	0xbf8d01fe	-1.1016233
112	0x3edca59e	0.43095106
113	0x3fdc0b74	1.7190995
114	0x3faddfd2	1.358393
115	0x3e5ba4ce	0.21449587
116	0xbf8b1b0b	-1.0867628
117	0x3f21f6ec	0.632674
118	0xbeb0cd62	-0.34531695
119	0xbf9b14b0	-1.2115688
120	0xbf7c1f86	-0.984856
121	0xbfa83eda	-1.3144181
122	0x3f3a2156	0.72707117
123	0xbf3c203d	-0.7348669
124	0x3f6b4776	0.91905916
125	0x3fc1202b	1.5087942
126	0x3f406a4b	0.7516219
127	0xbf18f18e	-0.59743583
128	0xbe83ff30	-0.2578063
129	0xbe3f837e	-0.18702504
130	0x3e829603	0.25505075
131	0x3ee68994	0.4502684
132	0x3f85e02f	1.045904
133	0xbf96105c	-1.1723742
134	0xbef29c8c	-0.4738506
135	0x3f8b737a	1.0894616
136	0x3f09a3c7	0.5376553
137	0x3ebe6938	0.3718965
138	0xbfa7321c	-1.3062167
139	0xbf7773b5	-0.9666093
140	0x3f386588	0.72029924
141	0xbfb98e3f	-1.4496535
142	0xbf8f5ce3	-1.1200222
143	0x3e2a23da	0.16615239
144	0x3eb9909c	0.3624314
145	0x3fac9b5b	1.3484911
146	0xbf569292	-0.838174
147	0x3f658fbd	0.8967245
148	0x3f5b3992	0.8563472
149	0xbf191af2	-0.5980674
150	0x3f6d2523	0.9263479
151	0x3fd81f18	1.6884489
152	0xbf64ddfe	-0.89401233
153	0xbf87b39b	-1.0601686
154	0x3f7a7972	0.9784156
155	0xbf5791fc	-0.8420713
156	0x3f002f36	0.5007204
157	0x3fa7ff27	1.3124741
158	0xbf5e54aa	-0.8684794
159	0xbf366a66	-0.712561
160	0xbf17b1ab	-0.59255475
161	0xbf708a4e	-0.93961036
162	0xbf946be0	-1.1595421
163	0xbdcfaef4	-0.101407915
164	0xbfd15153	-1.6352943
165	0xbfbb2e51	-1.462351
166	0x3f4adb95	0.79241306
167	0xbf63cda1	-0.8898564
168	0x3f3c799c	0.7362306
169	0x3e752b26	0.23942241
170	0x3f4adf16	0.7924665
171	0x3ed2a10b	0.4113849
172	0xbff9fc44	-1.953011
173	0x3f3f4287	0.7471089
174	0x3f826b6a	1.018903
175	0xbf84043b	-1.0313791
176	0xbf873c51	-1.0565282
177	0xbfcbb2d6	-1.5913951
178	0xbe7d9828	-0.24765074
179	0x3f74d6af	0.9564008
180	0x3f690d1f	0.91035646
181	0xbfd08deb	-1.629331
182	0xbf87fcc7	-1.0624017
183	0x3ed1c9ae	0.40974182
184	0xbf820621	-1.015812
185	0xbefd0552	-0.49418122
186	0xbfa8b617	-1.318057
187	0xbeccc26b	-0.3999208
188	0x3f45102d	0.7697781
189	0x3f3519e0	0.7074261
190	0xbfab3bd8	-1.3377638
191	0x3f6b51e2	0.9192182
192	0xbf3a49c5	-0.72768813
193	0x3fd231a0	1.6421394
194	0x3f32df27	0.69871753
195	0x3f9d6d14	1.2298913
196	0x3f086a09	0.53286797
197	0x3ec7b49e	0.39004987
198	0x3f822239	1.0166694
199	0xbee3311e	-0.4437341
200	0xbfca5bc7	-1.5809258
201	0xbf8a6e35	-1.0814883
202	0x3fa99515	1.3248621
203	0x3eb53deb	0.35398802
204	0xbf51971c	-0.818712
205	0xbf9b5057	-1.2133893
206	0x3f74171f	0.9534778
207	0x3f033ef4	0.51267934
208	0xbf570ad3	-0.8400089
209	0xbea984b5	-0.3310906
210	0xbf9f19e1	-1.2429773
211	0x3eb6238f	0.35574004
212	0xbf90cb7a	-1.1312096
213	0xbe9404ef	-0.28910014
214	0x3f2c157e	0.67220294
215	0x3f667205	0.9001773
216	0xbf8e146a	-1.109998
217	0x3fa7e48f	1.3116626
218	0xbfdd8a64	-1.7307858
219	0x3ea5a95f	0.32355782
220	0x3fdc3e64	1.720654
221	0xbfc963dc	-1.57336
222	0xbfbaa4e8	-1.4581575
223	0xbf3e2169	-0.7426973
224	0x3f8e2ad8	1.1106825
225	0xbf9ccc94	-1.2249932
226	0x3f4e352d	0.8054989
227	0x3e0f6972	0.14005068
228	0xbf8ca03e	-1.0986402
229	0x3edf763b	0.4364489
230	0x3f44a281	0.7681046
231	0x3f822139	1.0166389
232	0xbfcc29bc	-1.5950236
233	0x3f16861f	0.587984
234	0x3f55942f	0.83429235
235	0x3f8ed111	1.1157552
236	0xbfa25290	-1.2681446
237	0x3f5296d4	0.82261395
238	0x3f8808e1	1.062771
239	0xbfb9376f	-1.4470042
240	0x3f3b3d95	0.7314084
241	0x3f5dadbf	0.8659324
242	0x3f209085	0.6272052
243	0x3f88f034	1.0698304
244	0xbfd68451	-1.675913
245	0x3f54f3f4	0.8318474
246	0x3f47c059	0.78027874
247	0x3f813613	1.0094627
248	0x3f6e1538	0.9300113
249	0x3f995cd6	1.1981456
250	0x3f450626	0.76962507
251	0xbfa1312f	-1.2593135
252	0x3ef9a312	0.48757225
253	0xbf92088a	-1.1408856
254	0xbe39427e	-0.18091771
255	0x3fd104f9	1.6329643
