experiments/diff_context_data/fog_models/rainbow_dqn_target_sse.pth (torch, 352338 bytes, 13 tensors)

weight f4 [256, 4]
000000 50 9c 40 be f8 61 6b be a6 c4 c6 be c4 30 cc be
       -0.18809628 -0.22986591 -0.38821906 -0.39880955
000010 84 e9 9f be 74 bf f6 be dc 60 2c be c4 ac d4 be
       -0.31232846 -0.48192942 -0.16833824 -0.4153806
000020 b9 b1 a2 3d 28 06 04 bf b2 a2 75 be 57 35 47 3d
       0.07944054 -0.51571894 -0.23987845 0.048634853
000030 c6 fb c1 3e 45 be 71 3d a3 d8 0b 3b 48 6d fc 3e
       0.378874 0.059019346 0.0021338842 0.49302125
000040 af e0 e0 3d 48 98 9d bc f5 2b c5 be 88 e1 86 3e
       0.10980355 -0.019237652 -0.385101 0.26343942
000050 48 4f 72 be 60 b8 06 be 00 27 63 3b 8a 58 d1 3e
       -0.23663056 -0.13156271 0.0034660697 0.40887862
000060 80 3d f3 bd df 2d 93 3e 91 84 77 bd d6 84 09 bf
       -0.118769646 0.28745934 -0.06042916 -0.53718317
000070 66 12 ef be 29 30 b4 3e 08 bc 37 be 6d 80 0e bf
       -0.46693724 0.35192993 -0.17942822 -0.5566471
000080 11 23 36 be cc f6 4b be e5 8a d0 3e 6c 3e 0b 3e
       -0.17786814 -0.19918364 0.40730968 0.13598031
000090 80 52 c4 bd c0 d5 2d bd 10 85 c6 bd a4 0e f2 be
       -0.09586048 -0.042440176 -0.096933484 -0.47276795
0000a0 75 91 e4 3e d3 15 85 3c ba 1e 9b be 1f f1 ea be
       0.44642225 0.016245758 -0.3029688 -0.45887086
0000b0 c3 f0 e6 be a0 f1 1f 3d 50 10 79 3d 40 45 90 3c
       -0.45105562 0.03904879 0.060806572 0.017611146
0000c0 2c bd 78 3e 41 7b 49 3c a0 9d 30 bd e3 0b 83 be
       0.24290913 0.012297452 -0.043119073 -0.25595006
0000d0 10 05 d2 bd 00 11 57 be 94 23 26 be e4 be bb be
       -0.10254872 -0.21002579 -0.1622451 -0.36669075
0000e0 0b b4 80 bc 84 fd af 3e 3c a1 99 bd 93 ea 81 3e
       -0.015710851 0.34373105 -0.07501456 0.25374278
0000f0 d1 c6 78 3d 51 c2 c5 3e 36 b4 07 be d0 2b cd 3e
       0.06073648 0.38624814 -0.13252339 0.4007249
000100 25 6b 00 3e 2d aa 21 3e 6a ab c8 be e9 a1 d8 3e
       0.12540872 0.15787573 -0.3919328 0.42311028
000110 d5 96 32 3e 9f 3c 19 3e 29 8d 93 be d9 dc 76 bd
       0.1744035 0.14964531 -0.28818634 -0.06026921
000120 9b f3 00 3e 18 db ed bd b4 84 78 be d6 81 e3 be
       0.12592928 -0.116140544 -0.24269372 -0.44434994
000130 70 3f 4f bd 38 27 31 be 66 97 a9 be 68 21 96 3d
       -0.050597608 -0.17300117 -0.3312332 0.073305905
000140 69 83 2e be 3e db 6a be 25 b8 0f 3e a1 bf bb 3e
       -0.17042316 -0.22935197 0.1403509 0.3666964
000150 b0 19 db bd 2f d3 87 3e 27 60 b6 be 8b 42 e1 3d
       -0.10698259 0.26528308 -0.35620233 0.1099902
000160 dd e1 f5 3e 38 af 89 be ad 27 8d be f9 62 89 be
       0.48023883 -0.26891494 -0.27569333 -0.26833323
000170 27 60 03 3e 23 5b 3c 3e cc d9 ef be df 27 c0 be
       0.12829648 0.18394141 -0.46845853 -0.3753042
000180 3d c0 bc be 79 9b ef 3e 33 f6 c9 be 9f 63 9e be
       -0.36865416 0.46798304 -0.39445648 -0.3093538
000190 cd 74 5b 3e 8a b8 fd 3c 54 a9 b6 be 30 14 87 3e
       0.21431275 0.030971784 -0.35676062 0.2638259
0001a0 86 a5 c4 3d 75 fd 9b 3e be 83 8a 3d 64 43 92 3e
       0.096018836 0.3046681 0.06763409 0.2856704
0001b0 38 57 6e 3e c3 82 6c be 18 58 82 be b9 37 c0 be
       0.23275459 -0.23096757 -0.25457835 -0.37542513
0001c0 80 5d cc bc a3 b7 ef be 90 71 0b 3d 7e c1 cc 3e
       -0.024946928 -0.4681979 0.03404385 0.39991373
0001d0 bb 8f 19 3e f1 31 73 3b 19 0d b3 3e ae dc e4 be
       0.14996235 0.0037108625 0.3497093 -0.44699615
0001e0 a9 fc 82 3d d4 ae a4 be ba a0 11 be a0 53 ae be
       0.06395847 -0.32164633 -0.14221469 -0.34048176
0001f0 8c 75 fa be 6c 42 b0 be ac 2c ff be 30 d1 90 bd
       -0.48917806 -0.34425676 -0.4983877 -0.07071149
000200 30 74 31 3e 46 cb a7 be e8 5b 65 be 67 19 3e be
       0.17329478 -0.32772273 -0.2239834 -0.18564378
000210 64 48 77 bd 74 94 aa 3e 52 bf 24 be ca 12 c8 3e
       -0.06037177 0.33316386 -0.16088608 0.39076835
000220 b4 6a b4 3e 4d 50 de 3e c7 dd 80 3e 0a 4a ca 3d
       0.35237658 0.4342064 0.25169203 0.09877403
000230 9c 43 23 bc 88 c2 06 3f af 96 8c 3d e3 59 9e 3d
       -0.00996485 0.5264058 0.06864678 0.07731988
000240 cd 4b 67 3d d7 04 ce 3e 90 6e 5c be f0 0d 01 3f
       0.056468774 0.40238068 -0.21526551 0.5041189
000250 ec 6f c6 be 80 35 c6 bc f0 1c e7 be 00 55 22 bb
       -0.38757265 -0.024195433 -0.45139265 -0.0024769902
000260 74 f0 2a be 8f 4f 19 3f 7a c0 45 3e fb c6 91 3d
       -0.16693288 0.5988702 0.19311705 0.07118031
000270 c0 6f 62 bd 00 ae d0 bc 00 de 61 bd ca 5f e4 be
       -0.055282354 -0.025473595 -0.055143356 -0.4460433
000280 ed aa df 3e 25 78 f9 3e e0 47 60 bd 74 18 a3 be
       0.43685094 0.48724476 -0.054756045 -0.31854594
000290 56 f1 7f 3e 78 8c e0 bb 89 46 3d 3e 45 a9 93 be
       0.24994406 -0.0068526827 0.18483938 -0.2884008
0002a0 4b dd fd 3d e8 3f a0 be eb c1 a6 be 2a eb 92 be
       0.12395724 -0.31298757 -0.32569823 -0.2869504
0002b0 e8 56 31 be 62 e0 89 be 0e 7d d7 be 28 24 bd 3d
       -0.17318308 -0.26929003 -0.42087597 0.09235412
0002c0 32 af f9 be 67 48 ca bd bd cc c7 3e b5 87 ca 3e
       -0.48766476 -0.09877091 0.3902339 0.3955666
0002d0 a5 fd e0 3e 2d 9a 36 3d d4 70 2d be 47 bf cc 3d
       0.43943515 0.044580627 -0.16937572 0.09997421
0002e0 54 8d fa 3c fe 00 0d 3e ac d6 d4 3d 5f 8d 33 3e
       0.030584969 0.1376991 0.10392508 0.17534398
0002f0 94 9b 45 3e b8 8b c5 bc 2c a8 87 3e 93 2d af 3e
       0.1929763 -0.024114475 0.26495492 0.34214458
000300 77 82 81 3e 9b 92 eb be 2a b2 ea 3e c7 de ad be
       0.2529485 -0.4601029 0.45839053 -0.33959028
000310 fb 93 e4 3e 5e 67 e8 3e 41 ff 82 be ed 69 ad 3d
       0.4464415 0.45391363 -0.25585368 0.08467469
000320 b6 2e b2 be 70 2d bf 3e cd 99 56 be 9d 29 a4 be
       -0.34801263 0.37339354 -0.20957108 -0.32062998
000330 8e 29 c4 3e 6a f6 f1 bd 9e ff c3 3e 00 a0 d0 3e
       0.38312954 -0.11814578 0.38280958 0.4074707
000340 82 66 a8 3e 2c db 83 be 68 d2 a6 be eb 20 45 be
       0.32890707 -0.25753152 -0.32582402 -0.19250838
000350 b4 89 7c be f8 26 1a 3e 62 67 b7 be 4b a5 e1 3d
       -0.24661905 0.15053928 -0.35821062 0.11017855
000360 79 e1 b0 3e df 84 d3 3e cc 69 cb be ad 18 00 bf
       0.34547022 0.4131231 -0.39729154 -0.5003765
000370 24 cf 6a bd ee 06 8e 3e 3d 98 db 3d 70 4e d2 be
       -0.05732645 0.27739662 0.107223965 -0.41075468
000380 e7 64 b1 3d cd 81 5e be 3c d8 2e 3e 7d 3f bb bd
       0.08661824 -0.21729203 0.17074674 -0.09142969
000390 72 fa 54 3d 6d af c9 be 0d c0 15 bd 3d d6 b0 3e
       0.051996656 -0.39391652 -0.036560107 0.3453845
0003a0 a0 47 2b bd 2e 9f 87 be 56 09 cc be aa 3d e0 be
       -0.041816354 -0.26488632 -0.39850873 -0.43797046
0003b0 01 58 23 3e 02 e5 9b 3e 08 03 fa 3e 20 f2 a7 be
       0.1595154 0.30448157 0.48830438 -0.32801914
0003c0 b0 63 d6 3e f9 99 12 be 50 16 ee 3e 97 c3 a1 bd
       0.4187293 -0.14316548 0.46501398 -0.07898634
0003d0 c9 75 f4 3e 11 1a e4 be 89 aa d3 3e 4b fc b5 3d
       0.47746113 -0.44551137 0.41341045 0.08886012
0003e0 d1 4b d3 3e 5d 51 bc 3e 1e 29 f6 be b5 93 ea 3e
       0.4126878 0.36780825 -0.48078245 0.45815817
0003f0 d3 9d ef be 89 fa a0 3e 0a a3 12 be 25 46 0b bc
       -0.46800098 0.31441143 -0.14320007 -0.0085006105

bias f4 [256]
000000 68 08 19 3e be d0 a6 be aa d1 f0 3e 3e 05 82 3d
       0.14944613 -0.32581133 0.4703496 0.06348656
000010 29 14 e0 be 44 64 5f 3e c5 93 82 3d 95 37 ba 3e
       -0.4376538 0.21815592 0.06375841 0.3637053
000020 c1 45 ee be 41 74 cf be 94 94 a7 be a0 c9 83 bc
       -0.46537593 -0.40518382 -0.32730544 -0.016087353
000030 c0 2f 72 3e 8e 5c f6 3e 8e 6c 66 3d c8 f8 08 3f
       0.23651028 0.4811749 0.05625587 0.5350461
000040 76 b3 05 bf 08 55 f1 be 8a b0 c1 be 20 c1 1a 3e
       -0.5222696 -0.47135186 -0.3783 0.15112734
000050 70 c0 1c 3c e2 13 b3 be cd b0 cd bd 99 07 93 3e
       0.009567365 -0.34976107 -0.10043488 0.28716734
000060 be 7e 8a be f6 c7 f0 bd 05 bb 77 3e b9 21 c1 be
       -0.27049822 -0.117568895 0.24192436 -0.3772104
000070 00 ce 2e bb 4c 1f f5 be 85 77 87 3e 92 0c bb 3e
       -0.0026673079 -0.4787544 0.26458374 0.36533028
000080 53 b3 b0 3e 0b 37 23 3f 5d e0 53 be 23 e6 7a 3e
       0.34511814 0.63755864 -0.20691057 0.24501853
000090 7d 91 5c bc 5a 78 c2 3e 9c 99 16 3f 7a 14 9c be
       -0.0134624215 0.37982446 0.5882814 -0.30484372
0000a0 a1 4d c8 3c 22 6c b4 be 43 b4 16 3e 78 65 af bd
       0.024451079 -0.3523875 0.14717202 -0.085642755
0000b0 ee fa a1 3e e8 ea 5a be ea 22 b6 3e 35 c7 d8 3e
       0.31636757 -0.21378672 0.35573512 0.42339483
0000c0 fa b1 65 be eb 0b bf 3d 99 f5 0c be 6a 08 c2 3e
       -0.22431174 0.09328445 -0.13765563 0.37897044
0000d0 07 94 e0 3e 70 01 5a be f7 64 cf be ea f3 19 3e
       0.43862936 -0.21289611 -0.40506718 0.15034452
0000e0 de b6 80 be ac 4f b7 3e 00 c5 dd 3b 2a 1f e6 bd
       -0.25139517 0.35802972 0.006767869 -0.11236413
0000f0 f7 81 1f be c9 af 56 3e f5 fb ce be eb 84 b0 3e
       -0.15576921 0.20965494 -0.40426603 0.34476408
000100 49 26 18 3d dd d9 53 bd cf 44 b3 be 9b ce ee 3d
       0.037145887 -0.051721442 -0.35013434 0.116605006
000110 36 81 b0 3e 8e 6e aa be f5 b1 93 3e 3e 1b ff be
       0.3447358 -0.33287472 0.28846708 -0.49825472
000120 cc 00 bb be b0 9d 09 3e c6 a1 62 3d 5a 8b d7 3e
       -0.36524045 0.1343906 0.05533006 0.42098504
000130 fb e5 bb 3e 65 72 1f 3b c3 8d da 3e 34 0a eb be
       0.366989 0.002432966 0.4268628 -0.45906222
000140 1e c2 03 be 28 15 db be 2e bb e1 3d 19 b9 34 3d
       -0.12867019 -0.42789578 0.1102203 0.044121835
000150 cf a0 1c 3f a6 50 96 bd 95 3e 96 3e 2d 89 aa 3e
       0.61182874 -0.07339601 0.2934462 0.33307782
000160 a3 2f 68 3e e2 56 39 3e 22 9b 0c 3e a7 31 d1 3d
       0.22674422 0.1809955 0.13731053 0.102145486
000170 25 1f f4 3d 5c 18 e9 be 82 bb 9c be d4 56 13 be
       0.11920003 -0.45526397 -0.30611807 -0.14388591
000180 58 d2 cc be eb f9 ff 3e 95 fa bc 3e 81 4a f9 3e
       -0.4000423 0.4999536 0.3690993 0.48689654
000190 4a a6 5e be ea b7 b0 3e 3d 66 ff bd f3 40 06 bf
       -0.21743122 0.34515315 -0.12470672 -0.52442855
0001a0 a5 d0 99 be b3 57 c2 be 1a d7 14 bd 22 02 a8 3e
       -0.30041996 -0.37957534 -0.03633795 0.32814127
0001b0 83 93 d3 be d9 79 cc be 86 96 ee 3d dd 33 5b 3b
       -0.4132348 -0.39936712 0.11649804 0.003344766
0001c0 2d 4c ed be 2c 0d f6 3d ca 9c ba be 7c 11 87 3c
       -0.4634718 0.12014231 -0.36447746 0.01648783
0001d0 40 b1 12 be 77 70 e4 be 3e 9e e4 3e bf 7c 51 3c
       -0.14325428 -0.44617054 0.4465198 0.012786089
0001e0 b4 9b a4 be 0a d3 da bd 45 aa 07 be 8c 43 c6 be
       -0.32150042 -0.10684784 -0.13248546 -0.3872341
0001f0 96 7a 32 3e b0 73 28 3d bb 51 bf be 19 5b ed 3e
       0.17429575 0.041125953 -0.37367043 0.46358564
000200 d5 1b cc 3e 76 d3 00 3f 06 f6 c8 be bd 0d d1 be
       0.39864984 0.50322664 -0.392502 -0.40830794
000210 ca 57 8c 3d 9a 55 c9 3e 9b 18 72 3e 33 a6 b0 be
       0.06852682 0.3932312 0.23642199 -0.345018
000220 24 4a 4d be 51 cc 94 be fe 6d a7 be fc 2e 00 3f
       -0.20047814 -0.2906213 -0.32701105 0.5007169
000230 98 6c 4e 3e b2 45 07 be 8c b8 09 be 45 73 b8 3d
       0.20158613 -0.1321018 -0.13449305 0.09006361
000240 8d 57 3f be f7 8b c4 bd 6b fc 86 3e a1 2b 90 3e
       -0.18685742 -0.09597009 0.26364455 0.28158286
000250 e3 6d 0f be e5 f2 42 3d 62 17 97 3e 06 bf 87 be
       -0.14006762 0.047594924 0.29510027 -0.26512927
000260 f2 f9 c9 be 34 b1 56 be dd 83 d1 bd 89 ac 84 3e
       -0.39448506 -0.20966035 -0.10230229 0.25912884
000270 fe ad 04 3f fa 2a bc be 6c 9a ff be 47 29 d1 3e
       0.5182799 -0.3675154 -0.49922502 0.40851805
000280 7e f6 eb bc 09 64 8a be 99 5f f0 3e 3f 83 73 be
       -0.02880406 -0.27029446 0.46947935 -0.23780535
000290 58 94 ea be 4b 33 aa be 8e 15 58 be 95 14 3e 3d
       -0.45816302 -0.33242258 -0.21101972 0.046406347
0002a0 a3 fb a4 be 10 75 68 be 02 fe bc 3e a7 27 5a be
       -0.32223234 -0.22700906 0.36912543 -0.21304189
0002b0 e4 db 68 be 32 8c 52 3e 96 11 31 3e 5b cf fd 3e
       -0.22740132 0.20561293 0.17291865 0.49572262
0002c0 48 fa b0 bd 06 98 89 3e 3f 39 dd 3e 6b 84 c5 3e
       -0.08641487 0.26873797 0.43207738 0.3857759
0002d0 b5 23 a3 3e 8b 34 cc bc b4 e0 43 be ca 83 93 bb
       0.3186318 -0.024927398 -0.19128686 -0.0045017945
0002e0 46 dd d5 bd b5 9e df 3e 78 70 bc 3e 30 a2 6c 3e
       -0.10442595 0.4367577 0.36804557 0.23108745
0002f0 a5 94 9f 3e 0a 27 b3 3e 60 1c 9b be 67 c6 ac be
       0.31168094 0.34990722 -0.30295086 -0.3374512
000300 95 d2 f0 3e 96 8b c4 3e d9 59 d4 3e 01 08 1a 3e
       0.4703566 0.38387746 0.41474798 0.15042116
000310 7f 9d ce 3e b6 b9 2e 3e 96 5c 35 3c da b0 6a bc
       0.40354535 0.1706303 0.0110694375 -0.014324391
000320 29 6d 8b 3e 04 f6 ed bc a6 60 6d be a8 1e 93 3e
       0.2723172 -0.029047973 -0.231814 0.28734326
000330 d6 db e1 be b0 22 58 be 53 3f 31 3e cb c4 e2 bc
       -0.44113034 -0.21106982 0.17309313 -0.027681729
000340 59 9d d1 3e 14 be 03 3f 44 ec 82 3e 5b 40 94 3e
       0.4094036 0.5146191 0.2557088 0.2895535
000350 80 44 37 be 35 cc 89 3e 90 10 08 be d4 e7 56 3e
       -0.17897224 0.2691361 -0.13287568 0.20986873
000360 ac b6 e2 bd 0a 7b 61 bd 60 81 a2 bd 2a b1 84 be
       -0.11069998 -0.05504898 -0.079348326 -0.25916415
000370 1a 28 c3 3e ea 07 99 3e 36 dc 8a 3e d7 48 11 3e
       0.38116533 0.2988885 0.27121133 0.14187942
000380 4f cc 93 3e b0 b7 49 3e 1a 09 f5 bc 73 f6 9a 3e
       0.28866813 0.19698977 -0.029911567 0.3026615
000390 19 0b 88 be 36 e5 55 be 36 8a b8 be 81 e4 35 be
       -0.26570967 -0.20888218 -0.36042947 -0.17762949
0003a0 6f 6e 83 bd da 60 cb be f1 83 6f 3e 22 6b c0 bd
       -0.06417548 -0.3972233 0.23390175 -0.09395434
0003b0 b5 ff 51 3e 44 b4 e4 3e 2a 36 28 bd 9c f2 da be
       0.205077 0.44668782 -0.04106728 -0.4276322
0003c0 47 66 a8 3e 73 2f bb be 84 7f 8c bd 5c 71 bd 3e
       0.3289053 -0.36559638 -0.06860259 0.3700055
0003d0 2e 83 97 3e 23 e1 df bd d6 04 d7 3d b1 e2 d8 3e
       0.2959227 -0.10931613 0.10498969 0.42360452
0003e0 89 34 8e 3e 2e 20 bc 3e 73 40 cf be 91 f4 68 3d
       0.27774456 0.367433 -0.40478858 0.05687386
0003f0 33 9a e7 be 81 62 d5 be 67 ff 01 3f 5b 28 62 3e
       -0.45234832 -0.41676715 0.5078034 0.22085707

weight f4 [256, 256]
000000 1a ec 2c bd 80 f7 e4 3c 48 49 cf 3c 43 27 60 bd
       -0.04221735 0.027950048 0.025303498 -0.054724943
000010 49 50 52 3b 50 de cb 3b f9 ee 49 bd 59 2a 4a bd
       0.003209131 0.00622157 -0.049300168 -0.049356792
000020 35 be 03 bd 4c 66 f9 bc 68 a2 b0 bc d8 f3 4e bc
       -0.032163817 -0.030444287 -0.021561816 -0.012631379
000030 36 1f 2a 3d b2 a1 2b 3d 5e 9a ac 3c 60 bb cc 3c
       0.04153367 0.04190225 0.021069702 0.024991691
000040 06 7f ac 3c 69 af cb bb fb 9a f0 3c c8 d6 0a bd
       0.021056663 -0.006215979 0.029370775 -0.033896238
000050 22 a9 e7 3c 68 31 47 bd b3 e0 77 3c bc 74 86 3c
       0.028278891 -0.0486311 0.015129256 0.016413085
000060 0f 79 2a 3d 8f 6b 26 bd 9a 77 ec 3c 8e b3 9a bb
       0.041619357 -0.04062992 0.028865624 -0.0047211116
000070 00 d7 4b ba 43 03 e6 bb a8 dd bc bb b8 af 2e bd
       -0.0007775873 -0.007019432 -0.005763728 -0.042648047
000080 ff 68 bb 3c 7b 8b e4 bc eb 4c ea bb 1f 14 b9 3c
       0.022877214 -0.02789854 -0.0071502826 0.022592602
000090 14 a5 0f 3c a4 1c 80 3c 9e 55 ac 3c 10 39 da 3b
       0.008767385 0.015638657 0.02103692 0.0066596344
0000a0 1e e9 a2 3c 3a f7 6a 3d 70 71 31 bc fe f4 78 3d
       0.01988655 0.05736468 -0.010830268 0.060780518
0000b0 ea a5 57 bd e9 57 4b bd c2 a4 e2 3c 2f 1f 2d bd
       -0.052648462 -0.049644385 0.027666453 -0.042266067
0000c0 15 8e 17 3c e7 87 aa bc e4 96 02 bb f7 48 a2 bc
       0.009250184 -0.020816756 -0.0019926364 -0.019810183
0000d0 71 bc ca bc 00 db 4e ba 1a a0 5f bd d6 0d 23 3d
       -0.024748059 -0.000789091 -0.054596044 0.039808117
0000e0 50 07 3e bd 0d 6b 0b bd 64 23 4c bd d0 8b c3 3c
       -0.046393692 -0.03403764 -0.04983844 0.023870379
0000f0 6a df 5c bd 56 cd 9a bc 0a 15 5f bc e9 c5 41 bd
       -0.053924 -0.01889674 -0.013615856 -0.047307882
000100 74 a5 84 3a 52 6d 5f bc 7e 5e 2a 3d c6 30 9f bd
       0.001012011 -0.013636904 0.04159402 -0.07772975
000110 ea a9 5d 3d d4 d5 8a bc da b4 67 3d 80 8c 9e 3a
       0.05411712 -0.016947664 0.056568958 0.0012096316
000120 73 fc e9 bc c0 d0 a1 3c de d2 ad 3c 95 7e 0b bd
       -0.02856276 0.01975286 0.021218713 -0.034056265
000130 38 9e f5 3c 9d 8f 01 bd ef ab a1 bc 02 9a 5b bd
       0.029982671 -0.0316311 -0.019735305 -0.05361367
000140 71 df 59 3d 61 6a 4d 3d b9 e6 5a 3d 24 14 04 3d
       0.053191606 0.05015028 0.05344269 0.03224577
000150 75 ea 1e 3d 74 b3 8a bb e4 e9 70 bd 17 73 28 bd
       0.038797814 -0.0042328183 -0.058816805 -0.041125383
000160 fa 22 7b 3d dd 40 0b bd ee d4 16 bb 3e 2d 2d 3c
       0.061312653 -0.033997405 -0.00230151 0.010569869
000170 e2 c0 62 3c 18 0c 4e 3d 14 8b 8b 3b 76 a3 04 bd
       0.013839932 0.050304502 0.0042585228 -0.03238245
000180 5f 65 20 bc bc e7 77 bd e9 c0 df 3c 66 04 90 bd
       -0.009789794 -0.060523733 0.027313666 -0.07032089
000190 69 81 c2 bc f1 b6 4d bd e6 e5 2b 3d 0e 10 af 3c
       -0.023743348 -0.050223295 0.041967295 0.02136996
0001a0 9c c5 f8 bc a8 ac 40 3d ba 77 60 bd ab 72 6b bd
       -0.030367665 0.047039658 -0.05480168 -0.057482403
0001b0 c7 f9 3c 3d 07 82 b8 3c df 9a 2e bd d5 a0 17 3d
       0.046136644 0.02252294 -0.042628165 0.037018616
0001c0 ea 39 69 3d e7 8c 3e 3d a2 b8 21 3d fa c5 ed 3a
       0.056939997 0.046521094 0.03948272 0.0018140667
0001d0 4b 1d 67 bd ad f4 18 3d 80 66 68 bb 60 25 33 bd
       -0.05642442 0.037342716 -0.0035461485 -0.043736815
0001e0 c6 cb 1a bd 12 c9 d7 bc 87 e5 b6 3b 30 41 fe 3b
       -0.03779199 -0.026340995 0.005581561 0.007759236
0001f0 bf 74 38 39 b4 b9 26 bd a4 ce 00 3d 0e cf 24 3c
       0.00017591099 -0.040704444 0.031447068 0.010059131
000200 f5 b4 10 3c 22 01 51 bd be 21 98 bc 5f 88 2f bc
       0.008832206 -0.05102647 -0.018570777 -0.010713666
000210 0f 00 3a 3d f4 2f 09 3d 20 41 be bc aa 9c e4 3c
       0.045410212 0.033492997 -0.023224413 0.027906734
000220 10 2f b0 bc 1b 79 72 3d c1 19 5c 3d ae 89 15 bd
       -0.021506816 0.059197526 0.0537355 -0.036508255
000230 52 85 08 bd 42 05 ee 3c 23 38 65 3d 6a 86 ef 3c
       -0.03333027 0.029055241 0.05596174 0.029238898
000240 62 94 df bc d4 20 8b bc 86 ab 16 bd 6e e2 9a bd
       -0.027292434 -0.016983427 -0.03678467 -0.07562719
000250 57 68 2f bd 53 8e 66 3d 2d 88 0f bd 0c 65 49 3d
       -0.042824116 0.056288075 -0.035041977 0.04916863
000260 e0 e9 34 bb a4 95 49 3d 6c 1d 0d 3d 24 33 03 3d
       -0.002760522 0.049214974 0.034451887 0.032031193
000270 50 74 30 bd da 27 59 bc f8 cf 31 bd 35 1b 81 bd
       -0.043079674 -0.01325413 -0.043411225 -0.063040175
000280 f1 37 5e 3c 16 03 aa 3c 13 49 64 bd c2 49 d4 bb
       0.013563142 0.020753425 -0.05573375 -0.006478519
000290 c6 e6 a2 3b f8 93 bb bc fa d4 5e 3c 01 5f 5e 3d
       0.004971358 -0.022897705 0.013600582 0.05428982
0002a0 38 6e ba b9 dc c7 19 bd c8 56 39 3d 70 37 43 bd
       -0.00035558804 -0.037544116 0.045248777 -0.04766029
0002b0 0e fd 2d 3d f1 b8 d5 3c e7 45 35 3c 52 46 59 bd
       0.04247766 0.026089163 0.011064029 -0.05304558
0002c0 82 38 6f 3d c3 b7 63 bd fb 04 f0 3c 96 5a 2a 3d
       0.0584035 -0.05559517 0.02929925 0.041590296
0002d0 28 84 4d 3c 69 e3 53 3c bc 73 82 3c 6c 0a f3 3b
       0.012543716 0.012932637 0.015924327 0.007417014
0002e0 31 28 51 3b 29 59 50 3d 49 0b d1 3b 63 f7 f4 3c
       0.0031914825 0.05086628 0.006379519 0.02990312
0002f0 49 b8 49 bd 44 41 93 bc 16 80 46 bd 82 4e 67 3d
       -0.049248014 -0.017975457 -0.048461996 0.056471355
000300 ce 1e 1f bc 88 04 36 bd 59 0f c2 bb a3 7f f0 3c
       -0.009711934 -0.044437915 -0.0059222397 0.029357737
000310 4d 91 0e bd 78 cc bc bc 51 46 40 bd 5e 13 1d bd
       -0.03480654 -0.023046717 -0.04694206 -0.038348548
000320 48 60 47 3d 77 23 bb 3c f6 8e 27 3c 40 cf e8 3c
       0.048675805 0.02284406 0.010226956 0.028419137
000330 bd ca 80 bd d8 cb 4f 3c 88 16 33 bc 1e 50 af 3c
       -0.06288669 0.0126828775 -0.010930665 0.021400508
000340 0f c8 3a 3d 0a da d3 bc 6c 6a 95 3c af 76 ad bc
       0.045600947 -0.025860805 0.018239222 -0.021174757
000350 c8 00 2b 3c 30 36 3e 3d f3 33 e7 bc 37 f4 2c b9
       0.010437198 0.046438396 -0.028223014 -0.00016494175
000360 b7 0e 33 3d 92 5e d6 bc 80 55 13 3b 4c 3f 0b 3d
       0.043715205 -0.026168142 0.0022481382 0.03399591
000370 c6 bd 14 bd 44 34 fb bc 89 b9 4e bd 82 be 65 3d
       -0.036313795 -0.03066457 -0.05046991 0.056089886
000380 01 34 c8 bc 6d d6 03 bd 24 b8 71 bd 81 7f ca bc
       -0.02443886 -0.032186914 -0.0590135 -0.024719002
000390 52 77 ee 3b 5d 20 1f 3d 2f 77 2f bd df 27 a4 bb
       0.0072774077 0.038849223 -0.04283827 -0.005009636
0003a0 ad fc 1f bd df 6f 31 3d 09 06 55 3d f3 8e 75 3c
       -0.03905933 0.04331958 0.05200771 0.014987695
0003b0 f0 22 bc bc 4d 9b 1d 3d 3c 8e 08 3d f0 2e 70 3d
       -0.022965878 0.038478184 0.03333877 0.058638513
0003c0 74 80 86 3c ea 0e 6c bb bd 63 0d bc 80 3e d3 bb
       0.016418673 -0.0036019632 -0.0086297365 -0.0064466596
0003d0 3c c9 66 bd d6 d7 92 bc 1d 03 8e bd 0c f9 04 3d
       -0.056344256 -0.017925184 -0.069341876 0.032464072
0003e0 b2 28 53 bd d2 26 37 bd 8e 9e aa 3b 72 79 ea 3b
       -0.051552482 -0.044714756 0.0052068895 0.0071555907
0003f0 53 e5 64 3d 9d 8a 1f 3d 6d 08 9d 3c a3 62 f9 3b
       0.055882763 0.03895055 0.019169057 0.0076106354

bias f4 [256]
000000 50 40 41 3d ba 53 6b bd d1 f4 eb 3c dd 7a a0 3d
       0.047180474 -0.057452895 0.028803261 0.07835934
000010 32 d9 d9 3c 0d 77 2e 3d 7a 03 51 bd 8f 7c 38 3d
       0.026592825 0.042594004 -0.051028706 0.045040663
000020 44 1f d8 bc 1e f1 10 bd 95 07 9b 3d a8 32 78 bd
       -0.026382096 -0.035386197 0.075698055 -0.060595185
000030 33 1f 8a 3d b8 b3 5d 3d 3a 96 6d bd 6b ff 5c 3c
       0.06744232 0.05412647 -0.058004595 0.013488631
000040 86 01 c0 bc 38 80 21 3c 00 9f 91 3c 50 d3 9e bc
       -0.023438226 0.00985723 0.017776012 -0.019387871
000050 b0 7d 00 bc 09 b7 e4 bb 42 d9 13 bd 84 2e 9e 3d
       -0.007842466 -0.0069798273 -0.036095865 0.07723716
000060 75 50 3e bd 91 92 de 3c 44 6e 2f 3d 56 45 00 3d
       -0.04646345 0.027169498 0.042829767 0.031316124
000070 1c f9 7e bd 23 39 63 bd d0 f4 3e bd f8 71 49 3d
       -0.062249288 -0.05547441 -0.04662019 0.049180955
000080 70 51 32 3d f8 78 35 3d e8 a3 b6 bc c2 e9 51 bd
       0.043534696 0.044304818 -0.022294953 -0.05124832
000090 59 9f 43 bd 06 17 11 bd 06 08 12 bd ed 9a b4 3c
       -0.047759388 -0.035422347 -0.035652183 0.02204653
0000a0 80 36 63 bc ea 10 61 bd f6 9e 9c bc 2c 2b 6a bd
       -0.013867974 -0.05494777 -0.019118767 -0.05717008
0000b0 7e a5 53 bd bb 48 6c bb d2 76 53 bb b2 53 61 3d
       -0.051671498 -0.0036054093 -0.0032266867 0.05501146
0000c0 9e 63 66 bd 08 31 88 3c 20 2b d5 bc 08 c5 4c 3d
       -0.056247346 0.016624942 -0.02602154 0.04999259
0000d0 e1 3a 3e bd 52 6e 14 3d de de 12 bd f4 d4 fa bc
       -0.04644287 0.036238022 -0.035857074 -0.030619122
0000e0 dd 0f 0c bd 38 bc 42 3d b8 89 36 3d fb b7 67 bd
       -0.034194816 0.04754278 0.044564933 -0.05657194
0000f0 08 a6 17 bd 15 c5 48 bd 9a 33 d6 bc a8 68 43 3d
       -0.037023574 -0.049016077 -0.026147652 0.04770723
000100 67 79 3b 3d 06 49 74 bd 94 58 03 3d 66 63 15 b9
       0.045770075 -0.059639953 0.032066897 -0.00014246776
000110 74 04 2d bc 43 f8 eb bb 5d c7 18 3d b3 0a 2f bc
       -0.010560144 -0.007201226 0.037299503 -0.010683703
000120 87 3b 10 3c e9 62 88 3d 7f ba 8c bc fb 20 85 bb
       0.008803255 0.066594906 -0.017178772 -0.0040627695
000130 dc 06 22 3d d0 0b dd 3b e6 15 64 3d 58 d7 d3 3c
       0.039557323 0.006745793 0.055684946 0.02585952
000140 4c 32 97 bc 40 e7 40 3d 64 84 bf 3c 2e b5 b1 3c
       -0.0184566 0.047095537 0.023378558 0.021692839
000150 65 9f 20 3d 76 cf af 3b aa e2 79 3d ae 89 2e 3d
       0.03921451 0.0053653074 0.06100718 0.04261177
000160 ea d4 11 3d 95 2a b1 3d ac 50 0a 3d b4 06 11 bd
       0.03560344 0.086507 0.03376834 -0.035406783
000170 51 88 5a 3d 17 a5 20 3c 16 a0 61 3d d6 73 64 bc
       0.053352658 0.0098049855 0.05508431 -0.013943633
000180 68 d4 61 bc 28 98 7f 3c 78 1b 4d 3d 66 5d 32 bd
       -0.013783552 0.015600242 0.050075024 -0.043546103
000190 3b fd e9 bc 9e 9a 94 bc 70 3e 27 ba f6 d3 28 3c
       -0.028563133 -0.018140133 -0.00063798483 0.010304442
0001a0 f1 d1 7f 3b 3f 13 af 3d 1f 09 a7 bb 8e d2 24 bc
       0.0039035047 0.08548593 -0.005097523 -0.010059966
0001b0 45 31 08 bc 90 f2 b5 bc 2c b3 0d bd 1f f3 a5 3d
       -0.008312528 -0.02221039 -0.0345947 0.08103012
0001c0 b8 de 90 bc 87 e1 3f 3d 27 d0 d7 bc b3 25 e2 3b
       -0.017684326 0.04684594 -0.026344372 0.0069014668
0001d0 ed 9b 2a bd 1a 84 c9 3c 12 ef d8 3b b3 1d 7d bd
       -0.04165261 0.024599124 0.0066202963 -0.0617959
0001e0 f8 da 0b 3d 90 6f 36 bb 01 9d 43 bb 98 bb 52 3d
       0.03414437 -0.0027837493 -0.002984822 0.051448435
0001f0 ac e0 7b bc 37 55 8c 3d 04 7a 7f ba b4 3d f5 bc
       -0.01537339 0.06852191 -0.000974566 -0.029936649
000200 25 43 11 3d f6 d1 1f bd fb 0d 77 3d 3f 8a ab 3b
       0.035464425 -0.039018594 0.060316067 0.005234986
000210 de 2e 06 bd 08 98 37 3c 30 b1 b6 bc b5 a1 8e bc
       -0.03275954 0.011205681 -0.022301286 -0.017411092
000220 38 60 9c 3c bd f5 96 3c 09 3c 40 3d 74 ae 76 bd
       0.01908885 0.018427724 0.046932254 -0.060224965
000230 f8 b8 4a 3c 03 b1 da bc cb 35 e5 bb fc 88 28 3d
       0.012373202 -0.026695734 -0.006994938 0.041146263
000240 71 2f 55 3d f7 fd ed 3c 64 35 f3 bc fc 6a 27 bd
       0.052047197 0.029051764 -0.029688545 -0.040873513
000250 54 2e 6b 3d f8 44 b5 bc 49 5f b0 bc df 02 26 bd
       0.05741723 -0.022127613 -0.02152981 -0.04053008
000260 bf b9 20 bd bb ee 7a 3c b2 1d be ba 9c dc b1 bc
       -0.03923964 0.015315707 -0.00145047 -0.02171164
000270 aa 0e 33 bd 11 3a da 3c 85 25 0b bd ea 1a 2a bd
       -0.043715157 0.026639016 -0.03397133 -0.041529574
000280 4b 26 ec bc 80 10 37 bd c7 7f d8 bc 32 a6 f9 3b
       -0.028826853 -0.04469347 -0.026428116 0.007618689
000290 02 e4 65 3d a4 c8 fb bc 34 64 22 3d 36 37 55 bd
       0.05612565 -0.030735321 0.039646342 -0.052054606
0002a0 f0 79 ee 3b 4d 9c 08 bd e3 6f 14 3d 5b 64 6a bd
       0.0072777197 -0.033352185 0.036239516 -0.057224613
0002b0 f5 5d e4 bc e8 93 e5 bc 75 44 3d bc b9 fb 3b bd
       -0.027876833 -0.028024629 -0.011551966 -0.04589436
0002c0 cb dd 63 bd 63 b7 8b bc 38 59 e7 bc c0 d8 a0 bb
       -0.05563144 -0.017055219 -0.028240785 -0.004908651
0002d0 56 f8 5a 3b 62 b7 8f bd 4b b2 e3 bc b0 2c ca 3c
       0.003341218 -0.07017399 -0.027794978 0.024679512
0002e0 68 2c 97 bd 54 fd d1 3c 43 0c 4d bd 2c 03 88 3b
       -0.07381517 0.025633492 -0.05006052 0.0041507687
0002f0 a6 fb 1e bd 06 d1 16 bc a8 83 76 3b 84 78 67 3d
       -0.03881421 -0.0092051085 0.0037615094 0.056511417
000300 82 9e 8f bd 1e 32 9b bd ed 98 57 3c 92 e4 1e 3d
       -0.07012655 -0.075779185 0.013159019 0.0387922
000310 e4 e2 ba 3c 8a 4c 5a bd a5 92 9d 3d 78 68 3c bd
       0.022813268 -0.05329565 0.07693986 -0.045998067
000320 ce a3 26 3b 61 f1 16 bd 4a 60 29 bd 5f f2 9b 3b
       0.0025427225 -0.03685129 -0.041351594 0.0047591175
000330 27 11 80 bc 8f 19 a3 bc b4 74 a0 3d 50 23 bf 3c
       -0.015633179 -0.019909648 0.07834759 0.023332268
000340 b5 cb 22 bd d1 7d d6 3c bd f9 0d bc 54 4c 0a 3c
       -0.03974505 0.02618304 -0.008665499 0.00844105
000350 5c b5 3d 3d 17 14 23 bd e0 47 80 3d 71 07 12 3d
       0.046315536 -0.03981408 0.06263709 0.035651628
000360 00 96 a7 bc 4a 49 27 3d 49 38 56 3d 04 2b e5 3c
       -0.020457268 0.04084138 0.05229977 0.027974613
000370 9e 6d 3a 3c a2 bc d3 bb fe ff 37 bd 25 35 8b bc
       0.011378674 -0.006461696 -0.044921868 -0.016993115
000380 a9 94 b8 3d bf ad 22 bc 70 75 41 3d 52 5b 77 3d
       0.0901273 -0.00992912 0.047231138 0.060389824
000390 3c 34 97 3d 41 a9 0d 3d cc 65 2b bd be 67 28 bd
       0.0738301 0.03458524 -0.041845128 -0.04111456
0003a0 6f 87 57 3b ad 76 5c 3d 0a 37 3d bd 49 69 52 3d
       0.0032887121 0.053824116 -0.046195067 0.05136994
0003b0 d3 fb 1d 3d d7 ff 1c 3d 92 c0 60 3d 9e f0 84 3c
       0.038570236 0.038329925 0.05487115 0.016228016
0003c0 71 96 d2 3d cf 1e 20 bd 1a f9 65 3d d9 f6 5c 3d
       0.10282601 -0.03909188 0.056145765 0.05394635
0003d0 92 da 90 bd 68 89 30 bd ce 0e 2a 3d b1 bf d7 3b
       -0.07072939 -0.04309979 0.041518025 0.0065841307
0003e0 75 0c 4e 3d e2 d6 7e 3d 2d 5e 73 bd 1d 4f bb bc
       0.05030485 0.062216647 -0.059415985 -0.022864873
0003f0 3a 7a dd 3b cb 5e 73 3d 27 d9 85 3d 66 bf 27 3d
       0.0067589553 0.059416573 0.06535559 0.040954016

weight_mu f4 [1, 256]
000000 7c 94 08 3d 09 60 46 3d 37 95 75 3d 60 8a 56 bd
       0.03334473 0.04843143 0.059956755 -0.05237806
000010 70 85 7d bd a7 f8 d1 bd ce 85 2b 3d 5d 7d 9c 3c
       -0.061894834 -0.10252505 0.041875653 0.019102747
000020 2a b9 03 3c 8d ac 97 3c bf 28 dd bd 5b 95 1b 3d
       0.008039752 0.018514896 -0.10798787 0.037984233
000030 9c 5d 87 bd c8 9c a4 bd e0 46 2c 3d a5 cb b8 bd
       -0.066096514 -0.08037716 0.04205978 -0.09023217
000040 13 0c 84 bd 9b 29 60 bd f4 f5 d1 3c e8 ed 1b 3c
       -0.064476155 -0.054727178 0.025629975 0.0095171705
000050 ef a1 2b bd 0a 00 5f bc 42 e4 1c 3d 72 62 aa bd
       -0.04190248 -0.013610849 0.03830362 -0.08319558
000060 5c 22 39 3d 4f 98 2a bc 34 13 96 bd 48 7e 42 3d
       0.045198783 -0.01041229 -0.073278815 0.047483712
000070 6d 82 91 3c 76 92 33 3a 8a 2c 59 3c 5c 46 88 3c
       0.017762387 0.00068501325 0.013255248 0.016635112
000080 f0 dc 58 bd cf 16 2a bd c9 c3 5e 3d a8 77 05 bc
       -0.052945077 -0.04152566 0.054385934 -0.008146204
000090 d6 db 22 3d d4 d1 aa 3d 41 52 dd 3c aa 86 48 bd
       0.039760433 0.08340803 0.02701676 -0.04895655
0000a0 64 08 af bc 1c a1 38 bd d2 77 57 b9 76 c3 1f bd
       -0.021366306 -0.04507552 -0.00020548634 -0.039004765
0000b0 00 94 82 bb b5 6d 1f 3d c7 6d 32 3c 04 34 9c bd
       -0.003984928 0.038922984 0.010890431 -0.07627109
0000c0 f2 c8 6a bd 70 f6 76 3c 18 42 00 3d f2 a1 73 bd
       -0.057320543 0.015073404 0.031313032 -0.059480615
0000d0 a9 b0 54 3d c8 f1 eb bd 5e f7 29 3d 6d b6 99 bc
       0.05192629 -0.115207255 0.041495673 -0.018763745
0000e0 24 2d 24 3d da c1 7a bd 4e c5 88 bd 4e 21 90 3c
       0.040082112 -0.061220028 -0.06678258 0.017594006
0000f0 56 0c 17 bd 25 c1 25 bd 27 d2 27 bc 19 b8 5b 3d
       -0.036877 -0.0404674 -0.010242975 0.053642366
000100 5f d6 3b 3d c6 fd 6c 3d 60 a0 6f 3b 16 66 26 3d
       0.045858737 0.057859205 0.0036564097 0.0406247
000110 f4 c0 97 bd fe 41 1a bd 4e 40 a8 bc ed 38 5e bd
       -0.0740985 -0.03766059 -0.020538475 -0.054253507
000120 57 53 56 3b d9 f0 87 bd 79 8d 82 bd db 25 6c bd
       0.0032703483 -0.06637735 -0.0637464 -0.05765329
000130 b9 b1 44 3d 1c 5f 50 3d a3 35 3c bc 3c 0b fe bc
       0.048021052 0.050871953 -0.011487397 -0.031011216
000140 83 28 65 3b 27 72 37 3d 60 fb 84 bd bb f5 9a bd
       0.0034966774 0.0447866 -0.064932585 -0.075664006
000150 4e 24 88 bd 49 4b d7 3c 80 be 6a 3b f2 fd 6f 3d
       -0.066475496 0.026281016 0.0035819113 0.05859179
000160 a0 a4 dc 3c 96 28 aa bd 20 10 45 bd da 51 2a 3d
       0.026933968 -0.083085224 -0.04811108 0.041581966
000170 02 4e e3 bc 41 4d 3f bd 14 0f 1f 3d ce b5 0d 3b
       -0.027747158 -0.046704534 0.03883274 0.0021623257
000180 d0 df 35 3d 38 1f 2f 3c 27 d2 a7 3a 74 37 a0 bc
       0.044402897 0.0106885955 0.0012803719 -0.019557692
000190 02 4d e1 bc e7 58 36 3c 47 a8 8b bd 9b d0 cd bd
       -0.02750254 0.011129594 -0.06819206 -0.10049554
0001a0 4d cd bd bd c0 9d a6 bd 2b 33 a6 bd 8d 22 d5 bd
       -0.09267674 -0.08135557 -0.08115228 -0.10406981
0001b0 2b 5c 75 3d 23 70 7d 3d e0 0b cb bb 18 fe 78 bd
       0.05990235 0.06187452 -0.006196484 -0.060789198
0001c0 83 09 78 bb c6 76 24 3d a6 49 0f bc eb e5 93 3b
       -0.0037847466 0.040152334 -0.0087455865 0.0045134923
0001d0 58 c1 78 3d 63 89 21 bc a5 b6 49 bd 6b 34 42 3d
       0.060731262 -0.009859416 -0.04924645 0.04741327
0001e0 c0 6a 10 bc 10 cb 46 3d 07 89 3b 3d ac 26 4f 3d
       -0.008814514 0.0485335 0.045784976 0.05057399
0001f0 cf d2 67 3d eb 74 64 bd 3c b4 1b 3d 3a f6 e6 bc
       0.056597527 -0.055775564 0.03801368 -0.028193582
000200 0a 09 e1 bc 96 31 20 bd 31 ee ab bd 0b 9b bd bd
       -0.02747013 -0.03910979 -0.08395041 -0.09258088
000210 14 8b 70 3d aa 76 06 3d df 8a 39 3d be b9 20 3d
       0.058726385 0.03282801 0.045298453 0.039239638
000220 a0 7b 4e 3d e6 49 ac 3b 15 0a 3e bd 50 f3 51 bd
       0.050410867 0.005257833 -0.046396334 -0.05125743
000230 fc 6f a0 bd fc 7f 82 bd 47 1c 31 3d 3e f9 53 bd
       -0.07833859 -0.06372067 0.043239858 -0.051751368
000240 6c 7a f1 3c 8b ff 94 bd 0c 11 01 3d 55 99 53 3d
       0.02947732 -0.072753035 0.031510398 0.0516599
000250 ec 2a 31 bd 61 85 02 bd 5c a9 a1 3d e1 98 d8 3c
       -0.043253824 -0.03186548 0.07893631 0.026440086
000260 8f d5 3e 3d 4e 6b 25 3d bc 79 86 3d 86 a7 12 3d
       0.046590384 0.040385537 0.06566188 0.035804294
000270 7f 07 88 3d 24 17 77 3d 70 33 33 bd 78 1d 6a 3c
       0.06642055 0.060324803 -0.043750226 0.014289252
000280 49 ee 62 3c 6c d1 88 3b 08 60 5a bd 85 3b e2 bd
       0.013850757 0.0041753557 -0.05331424 -0.11046509
000290 f3 4a f8 3c 90 26 58 bd 22 03 27 bd df 34 97 3d
       0.030309176 -0.05277115 -0.040774472 0.07383131
0002a0 80 fc ab 3c f3 9b 77 bc d6 25 bb bd 46 4c 10 3c
       0.020994425 -0.015112865 -0.09138076 0.0088072475
0002b0 0c 9b b5 3d c6 e1 7b 3d b2 35 92 3d 96 11 61 3d
       0.088674635 0.06149461 0.07139148 0.054948412
0002c0 1d 38 93 3d 2b a2 b6 bc 63 54 cb ba 7e f2 57 3d
       0.07188437 -0.022294125 -0.001551282 0.052721493
0002d0 81 a6 6e bd 31 d5 92 3d c2 fc 64 3d 9b ea 76 3d
       -0.05826426 0.07169569 0.05590511 0.06028233
0002e0 cd 5d a6 3d 8e 17 82 bd 05 ea ea bc a8 45 cd 3c
       0.0812336 -0.06352149 -0.028676042 0.025057629
0002f0 eb 48 f3 3c 22 dd 6f 3d e5 10 19 bc b7 a5 6b bd
       0.029697856 0.058560498 -0.009342407 -0.057531085
000300 4f b6 a0 3d fe ed 29 3d 9c cd 39 3d c5 a8 94 bd
       0.078472726 0.041486733 0.0453621 -0.07258753
000310 08 61 17 3c 34 d8 f6 bc 4a 67 33 bd f6 1d a5 3c
       0.009239443 -0.03013239 -0.043799676 0.020155888
000320 cd fc 13 3b 89 fe b1 3d 14 34 32 bd d3 2c c2 bc
       0.00225811 0.08691127 -0.043506697 -0.023703014
000330 a5 9a 39 3d 8c 46 8f 3b 3a 6c 67 bd 01 10 af bd
       0.045313496 0.0043724235 -0.056499697 -0.085479744
000340 68 11 37 bd 3d 3f 91 3b 37 dc b0 3c 5f 8b 3b 3d
       -0.044694334 0.0044325874 0.021589382 0.04578721
000350 ba 48 4d bd c8 9f 4b 3d ff b1 9f bd 93 60 74 3a
       -0.050118186 0.049712926 -0.07797622 0.0009322252
000360 65 61 a6 bd 6e 35 09 bd ad 05 12 3d f8 3d 95 3c
       -0.08124045 -0.03349822 0.035649944 0.018218026
000370 bd eb 06 3c 8d eb 93 bb db 61 9e bb 9f 14 bb bc
       0.008234915 -0.004514164 -0.0048334426 -0.022836981
000380 c7 71 91 bd be 87 20 3d 14 14 f1 bc 4c 00 5d 3d
       -0.071017794 0.039191954 -0.02942852 0.05395536
000390 d0 ce 86 bd a6 48 7e 3d 50 2f 9b 3c 32 a6 3f bd
       -0.06582415 0.062081 0.018943459 -0.046789356
0003a0 76 0c 5d bd 39 3e c9 bd dc 85 1a 3d bc 3e 0f 3c
       -0.05396696 -0.09826321 0.037725314 0.008742984
0003b0 27 bd b0 bd 84 66 50 bd 88 eb 9a 3c c0 90 86 bd
       -0.08629828 -0.050879017 0.018911138 -0.065705776
0003c0 8b d6 d7 bd 43 c7 5e bd 04 5e 8c 3c b9 0e 4c 3d
       -0.10538968 -0.05438925 0.017134674 0.049818728
0003d0 02 c5 29 3d fd db 13 3d 59 6c 58 3d 2e d8 23 3d
       0.041447647 0.03609847 0.052837703 0.040001087
0003e0 ce 0e 22 3d f0 14 b0 bd 9d c9 f0 3d 5a 83 88 bb
       0.0395649 -0.085977435 0.11757205 -0.004166049
0003f0 9d bc 63 3c 1a aa 6e 3d 17 82 b0 bd ba 45 60 3d
       0.013899949 0.05826769 -0.08618563 0.054753996

weight_sigma f4 [1, 256]
000000 4b 8c fa 3c 00 00 00 3d ac 7c 5a 3c ab bf 18 3c
       0.030584475 0.03125 0.013335388 0.009323041
000010 00 00 00 3d e6 f8 d1 38 94 1e 02 3d 5d 1a 07 3d
       0.03125 0.000100122576 0.031767443 0.032984126
000020 30 c3 8e 3c bb 89 f6 3c 20 7d 17 39 de 35 a9 3c
       0.017427057 0.030094972 0.00014447095 0.020655569
000030 b7 85 98 3a 8d 67 af 39 00 00 00 3d 49 00 dd b8
       0.001163653 0.00033455752 0.03125 -0.00010538154
000040 ab e3 74 3b 00 00 00 3d 00 00 00 3d 00 00 00 3d
       0.0037367146 0.03125 0.03125 0.03125
000050 00 00 00 3d f9 d1 43 3c 00 00 00 3d 91 84 29 ba
       0.03125 0.011951917 0.03125 -0.00064665923
000060 14 54 ae 3c d3 f7 fc 3c 7a 3a cc 3b dc 55 fb 3c
       0.021280326 0.03087989 0.006232557 0.03068059
000070 bb c1 f5 3c 9c 84 9a 3c 8a 09 e3 3c b3 5c f4 3c
       0.029999604 0.018862061 0.02771451 0.029829359
000080 23 0c 73 3c 5e dc 91 3c db 0a fb 3c 00 00 00 3d
       0.014834437 0.017805275 0.030644825 0.03125
000090 63 0c fe 3c 79 1c 55 3c a3 b3 f8 3c 9b 6f 7e 3a
       0.031011766 0.013007277 0.030359095 0.00097059616
0000a0 00 00 00 3d 00 00 00 3d 53 9e f4 3c 00 00 00 3d
       0.03125 0.03125 0.029860651 0.03125
0000b0 00 00 00 3d ab c2 ff 3c d3 71 f1 3c 1a c7 a8 3a
       0.03125 0.031220755 0.02947322 0.001287672
0000c0 00 00 00 3d 00 00 00 3d 00 00 00 3d b5 cc 83 3a
       0.03125 0.03125 0.03125 0.0010055514
0000d0 1a 6f 94 3c ca de c6 39 1b 44 ff 3c 53 9e f4 3c
       0.018119384 0.00037931494 0.031160405 0.029860651
0000e0 41 65 da 3c 00 00 00 3d f3 09 ee 3a b3 bc fd 3c
       0.02665961 0.03125 0.0018160924 0.030973768
0000f0 00 00 00 3d 52 75 f2 3b a3 24 fb 3c 03 1b fa 3c
       0.03125 0.0073992396 0.030657118 0.030530458
000100 44 87 02 3d 3d 22 b7 3c 00 00 00 3d 4b 73 fa 3c
       0.03186728 0.022355193 0.03125 0.030572554
000110 af 23 99 39 00 00 00 3d 6a a2 e2 3c 9d 57 9a b9
       0.0002920902 0.03125 0.027665336 -0.00029438446
000120 1c 46 cc 3c 5c db 5c 3a 27 d5 85 3a d4 de a7 3b
       0.024935775 0.0008425021 0.0010210619 0.0051229987
000130 05 aa b6 3c 00 00 00 3d 0e 2d bb 3c 00 00 00 3d
       0.022297869 0.03125 0.022848632 0.03125
000140 00 00 00 3d 72 08 e8 3c 4a 19 ce 39 6a c8 a8 39
       0.03125 0.02832434 0.00039310224 0.00032192777
000150 1b a2 34 39 23 ec f9 3c 00 00 00 3d 79 44 db 3c
       0.00017226527 0.030508107 0.03125 0.026766049
000160 05 ae 8d 3c 35 2a 12 ba 00 00 00 3d 00 00 00 3d
       0.017294893 -0.00055757473 0.03125 0.03125
000170 56 57 9a 3c 88 18 41 3c 00 00 00 3d fa 5d 83 3c
       0.018840473 0.011785634 0.03125 0.016036022
000180 00 00 00 3d 00 00 00 3d c3 3e f3 3c 00 00 00 3d
       0.03125 0.03125 0.029693013 0.03125
000190 2b 7b f4 3c 79 32 de 3c bd 89 73 3a 58 95 b9 b9
       0.029843887 0.027123677 0.0009290239 -0.0003539722
0001a0 de 50 d8 b9 2b 35 52 39 2c 82 c8 3b 23 c3 1e 3c
       -0.0004125898 0.00020046967 0.0061190333 0.009690079
0001b0 7b ee f9 3c 7d 6d 02 3d 00 00 00 3d 35 41 ae 3b
       0.030509224 0.031842697 0.03125 0.005317832
0001c0 12 ed ef 3c 2d 9b 10 3d 54 8a f5 3c b0 37 87 3c
       0.029287849 0.035304237 0.029973187 0.016506046
0001d0 14 cc 00 3d 77 4d 8c 3c dc 43 f5 3b c2 77 b0 3c
       0.031444624 0.017126782 0.007484896 0.02154148
0001e0 00 00 00 3d 3b ce f5 3c 45 6e 02 3d 00 00 00 3d
       0.03125 0.030005565 0.031843442 0.03125
0001f0 d0 5c 6e 3c 17 40 3d 3c 00 00 00 3d bb 7d f8 3c
       0.014548495 0.011550925 0.03125 0.03033339
000200 1b 48 f6 3c 00 00 00 3d b4 7b 27 b9 7a 1c a9 3b
       0.03006368 0.03125 -0.00015972444 0.0051608654
000210 00 00 00 3d 00 00 00 3d 7b 45 f8 3c 7c fc ff 3c
       0.03125 0.03125 0.030306568 0.031248324
000220 00 00 00 3d d3 34 f7 3c 11 cb 68 3b 74 76 f7 3c
       0.03125 0.030176556 0.0035521428 0.03020785
000230 54 29 14 37 61 d0 91 ba b3 11 f4 3c b3 74 1b 3c
       8.83111e-06 -0.0011124724 0.029793596 0.0094882725
000240 bb e9 ff 3c e8 a8 18 3a 63 e8 ea 3c d5 f2 9d 3c
       0.031239381 0.0005823509 0.028675264 0.01928083
000250 00 00 00 3d e5 59 89 3c da 4b 4f 3b 7b f3 f4 3c
       0.03125 0.016766498 0.0031630904 0.029901257
000260 4c 10 fe 3c f3 a6 f1 3c 78 4e a1 3c 00 00 00 3d
       0.03101363 0.029498553 0.019690737 0.03125
000270 e3 46 78 3c e5 0d 04 3d a2 d5 ea 3c 00 00 00 3d
       0.015153619 0.032239813 0.028666321 0.03125
000280 f5 51 ce 3c 93 6d f9 3c f9 3a 84 3b 48 1a aa 39
       0.025185565 0.030447757 0.0040353504 0.00032444508
000290 76 48 00 3d fc d2 11 3c 00 00 00 3d d1 51 cf 3c
       0.031319104 0.0089004 0.03125 0.025307568
0002a0 00 00 00 3d 43 6b f6 3c 6f ef fc b9 c4 03 01 3d
       0.03125 0.030080443 -0.00048243577 0.03149773
0002b0 94 40 0f 3c 00 00 00 3d 41 29 9d 3c 2f a7 b2 3c
       0.008743424 0.03125 0.01918471 0.021808235
0002c0 d4 87 a8 3c d3 45 b6 3c 47 0f c1 3c 00 00 00 3d
       0.02057258 0.022250092 0.023566855 0.03125
0002d0 9f 3a ac 3c 37 03 6b 3c 84 e4 00 3d 64 b5 ff 3c
       0.021024046 0.014344028 0.03146793 0.031214423
0002e0 a9 2e 84 3c 03 ba eb 39 f0 d1 8c 3c cb 84 f5 3c
       0.01613553 0.00044961282 0.01718995 0.029970547
0002f0 b2 64 fb 3c 35 28 03 3d d1 22 d7 3c 3a b5 a8 3a
       0.030687664 0.032020766 0.026261719 0.0012871393
000300 57 c1 72 3c 22 bd ec 3c 1c 64 bd 3c ea ed a9 3a
       0.014816604 0.02889878 0.023119025 0.0012964581
000310 00 00 00 3d 00 00 00 3d b8 8b 5d 3c ac 07 01 3d
       0.03125 0.03125 0.013522081 0.031501457
000320 d3 d0 f6 3c c5 b5 a4 3c 00 00 00 3d 38 86 f8 3c
       0.030128872 0.020106206 0.03125 0.030337438
000330 2c 63 e2 3c a3 16 f5 3c cf 5c bd 3b 47 e8 fa 36
       0.02763518 0.02991802 0.005778886 7.4776212e-06
000340 c7 6f fb 3b 03 66 fa 3c 43 c4 fc 3c 7c 4d ff 3c
       0.007673237 0.030566221 0.030855304 0.031164877
000350 1a b8 ea 3b 0b 26 f1 3c 84 cf e7 3a e0 9b e7 3c
       0.00716306 0.029437086 0.0017685746 0.02827257
000360 6a 16 69 39 00 00 00 3d 56 5e 00 3d 00 00 00 3d
       0.00022228961 0.03125 0.031339966 0.03125
000370 ad c9 07 3c 4c e5 96 3c 4c 24 b9 3a 4c 02 f8 3c
       0.008287829 0.018419884 0.0014125197 0.030274533
000380 17 e9 5d 3a d5 50 03 3d 23 0a f5 3c 00 00 00 3d
       0.0008465214 0.03205951 0.02991206 0.03125
000390 d0 b7 63 3b 67 91 88 3c 00 00 00 3d 00 00 00 3d
       0.0034747012 0.016670896 0.03125 0.03125
0003a0 66 24 16 3b 3c b3 15 ba 00 00 00 3d 43 d4 f1 3c
       0.0022909879 -0.0005710607 0.03125 0.02952016
0003b0 fa 3a 9c b9 a1 81 b9 3b 00 00 00 3d d6 ba 08 3c
       -0.0002979858 0.005661205 0.03125 0.008345326
0003c0 3d d1 dd 39 e4 86 a4 3b 5b c6 fb 3c 23 3e fd 3c
       0.000423083 0.005020963 0.030734232 0.030913418
0003d0 1a f6 98 3c 17 71 00 3d 9a 45 ec 3c 7d 82 0b 3d
       0.018672038 0.03135785 0.028841782 0.03405999
0003e0 7f d6 e7 3c 0e a9 66 3b be 90 a6 3b db a2 c8 3c
       0.028300522 0.003519598 0.0050831726 0.024491718
0003f0 b5 cc b6 3c 3d 35 02 3d f1 ce f5 39 25 3b 0a 3d
       0.022314409 0.031789053 0.00046884225 0.03374781

weight_epsilon f4 [1, 256]
000000 01 63 c8 bf e3 63 b4 bf 3a 0b ca bf e8 52 0f 3e
       -1.5655214 -1.4092983 -1.5784676 0.1399647
000010 2b 29 30 3f ba 1b 5f 3f 65 0e a6 3f 27 c8 a9 3f
       0.6881282 0.8715168 1.2973143 1.3264207
000020 7e b5 1d 3f 23 d5 72 bf 49 2c c1 bf c6 13 5c 3f
       0.6160506 -0.9485647 -1.509164 0.8596767
000030 47 a7 58 3f 43 d2 80 bf 12 cc 0c bf 37 cb a8 3f
       0.84630245 -1.0064167 -0.54998887 1.3187016
000040 1d 2b 63 3f 19 08 8d 3f e3 ac 5c bf 7f 34 4c bf
       0.8873766 1.1018096 -0.86201304 -0.797676
000050 38 18 98 bf 7a 73 3c bf 42 84 bd 3e be cb fc 3e
       -1.1882391 -0.73613703 0.37014967 0.49374193
000060 0b fa 44 3f 38 d7 2d bf 25 3a 94 3f 29 53 f1 be
       0.76944035 -0.6790652 1.1580244 -0.4713376
000070 60 bd 76 bf 0c f1 48 3f 28 6b 37 3f d6 68 51 bf
       -0.96382713 0.7849281 0.7164788 -0.8180059
000080 74 94 92 bf 43 02 b0 bf 43 65 89 bf 81 cc fd be
       -1.1451554 -1.375069 -1.0734028 -0.49570087
000090 92 b3 70 3f 53 d3 a0 3f 48 88 9a bf be f1 b8 3f
       0.94024 1.2564491 -1.207284 1.4448774
0000a0 42 89 45 3e f0 ae a2 3f 22 82 09 bf ba e6 a1 3f
       0.19290641 1.2709637 -0.5371419 1.2648537
0000b0 a2 4a 4f 3f 11 66 56 bf f8 2f 64 3f 4d 76 ef bd
       0.80973256 -0.8374949 0.89135695 -0.11692486
0000c0 98 9a af be bb 35 b9 be e1 dc a4 bf f3 66 53 bf
       -0.34297633 -0.36173806 -1.2879907 -0.82578963
0000d0 85 ff 42 3f 2d 55 c2 3f 43 fd 7e bf 83 42 e5 3e
       0.7617114 1.5182244 -0.99605197 0.44777307
0000e0 0d d8 7f 3e ca cd 99 bf 54 87 8f 3f 83 e5 23 bf
       0.2498476 -1.2015927 1.1213174 -0.6402208
0000f0 83 d0 a2 3f 0f 9b a9 bf 89 f2 80 bf c6 ed a5 bf
       1.2719883 -1.3250445 -1.0074016 -1.2963188
000100 2f fb be 3f 57 c4 95 3f e8 15 91 3f e7 7d a9 bf
       1.4920405 1.1700543 1.133481 -1.3241547
000110 3e f5 ca bf db 25 87 3f 98 98 6a bf 94 4d b2 3f
       -1.5856092 1.0558428 -0.9163909 1.3929925
000120 f1 cb 36 bf 41 fb 06 bf 12 87 2b bf e0 8f ac bf
       -0.7140494 -0.52727133 -0.67002976 -1.3481407
000130 e2 d1 4c 3f 02 5b d6 3f e3 be 07 bf 62 61 67 bf
       0.80007756 1.6746523 -0.53025645 -0.9038297
000140 a7 93 16 bf f2 85 32 3f ee ef 66 3f 0a 9c 95 3f
       -0.5881905 0.69735634 0.90209854 1.1688244
000150 f5 3f 2a 3f f8 46 4f 3f bd 10 13 bf 39 a3 cf 3f
       0.6650384 0.80967665 -0.57447416 1.6221687
000160 50 de 13 3f 7e 6a 6f 3f 5f e4 d1 be 25 ef a7 bf
       0.57761097 0.9352187 -0.40994546 -1.3119856
000170 6a e8 80 3f 91 48 89 bf 24 d5 9b 3f 58 3a ad 3e
       1.0070927 -1.072527 1.217442 0.33833575
000180 2d 36 9c bf f5 e5 86 3f 0c 12 b6 3f ee e0 87 bf
       -1.2204033 1.0538927 1.4224257 -1.0615518
000190 d6 d5 c2 bf 6b 6e 66 bf 4c 16 84 bf 7f c4 f1 bf
       -1.5221508 -0.90012234 -1.0319304 -1.8888091
0001a0 96 6c 31 bf 3d 79 74 bf 41 f7 a4 3f 50 82 8b be
       -0.69306314 -0.95497495 1.2887956 -0.27247858
0001b0 ab ed a7 bf bd f4 a9 3f e9 e4 18 3f cd 79 88 3f
       -1.3119406 1.3277813 0.5972429 1.0662171
0001c0 bc cc 0a 40 42 1c 7e bf f3 2a ab bf e4 c5 42 bf
       2.168746 -0.9926187 -1.3372482 -0.7608321
0001d0 5e 55 78 bf 64 da b8 3f 38 dd b3 3f 64 96 2b 3f
       -0.9700526 1.4441648 1.4051886 0.6702635
0001e0 0f ad 9d bf 31 b7 3d bf 13 16 9f 3f f6 c1 b3 3f
       -1.2318438 -0.7410765 1.2428612 1.4043567
0001f0 89 69 93 3f 4b c7 6f bf a1 89 07 3f 53 de 98 3f
       1.1516582 -0.9366347 0.5294438 1.1942848
000200 97 8d 60 bf 12 3b c0 bf 27 6c 4c 3f a3 6d bb be
       -0.8771605 -1.5018027 0.7985253 -0.36607084
000210 24 01 2e bf fb 78 3f 3f d1 9f 3f 3f 86 98 1f 3f
       -0.6797049 0.74793977 0.74853235 0.6234211
000220 bd 19 d6 bf 54 b0 a5 bf 05 cd 88 3f e8 3c 89 3f
       -1.6726605 -1.2944436 1.0687567 1.0721712
000230 1c 5f 95 3f f0 61 95 bf cd e5 a7 be 45 ae 6b 3f
       1.166965 -1.1670513 -0.32792512 0.9206279
000240 83 22 6b bf 82 f7 4f bf 45 8c 5d 3f e9 c1 35 bf
       -0.91849536 -0.8123704 0.8654216 -0.7099901
000250 30 03 23 3f a2 10 99 be 81 8b 09 3f 30 64 76 bf
       0.6367674 -0.29895502 0.5372849 -0.96246624
000260 67 3b 65 bf 7b 0a 5c 3f d4 90 89 3f 1b 8e 4f 3f
       -0.89543766 0.8595349 1.0747323 0.8107621
000270 6e 30 a4 3f ed c5 4e bf 63 32 74 3f 75 b8 56 bf
       1.282728 -0.8077076 0.95389384 -0.8387521
000280 41 11 eb be e7 64 a4 3f 0e 4b a5 3f cb 4f 90 bf
       -0.459116 1.2843293 1.291353 -1.1274351
000290 da 99 1e 3f 9b 9f 42 bf 70 b7 99 be 2d 36 1d bf
       0.6195351 -0.7602479 -0.30022764 -0.6141079
0002a0 a7 0c 87 bf e7 c6 d3 3f 42 f5 ec be 40 2f 35 bf
       -1.0550736 1.6545075 -0.46280867 -0.7077522
0002b0 3b 0f 8a 3f 2c 97 ac be 1e cc 53 3f 5c 40 55 be
       1.0785898 -0.33709085 0.82733333 -0.20825332
0002c0 cf f2 96 3f 95 ec 96 be 2f d2 97 bf c9 c1 87 bf
       1.1792849 -0.29477373 -1.1861018 -1.0606014
0002d0 94 c7 87 3f 34 46 da be 50 39 b2 be 2d 78 09 3f
       1.0607781 -0.42631686 -0.3480935 0.53699
0002e0 44 c1 a9 3f 07 12 7d 3f 65 34 7c 3f d8 e2 d3 3f
       1.3262105 0.9885563 0.9851745 1.6553602
0002f0 53 91 19 3f 4b cb 91 3f b7 9d 92 bf 5e bc 39 3f
       0.5998737 1.1390165 -1.1454381 0.7255305
000300 f8 5d b6 3e 55 60 9d 3f 99 1d 3c bf 4c 55 1e 3f
       0.35618567 1.2295023 -0.7348266 0.618489
000310 18 4b 6e 3f d2 d9 88 3f ca 20 18 bf 09 78 97 3f
       0.93083334 1.0691473 -0.5942503 1.1833507
000320 24 23 90 bf 36 fb 8f bf cd 70 95 3f a7 ec e6 3e
       -1.1260724 -1.1248538 1.1675049 0.45102426
000330 09 b1 9e 3e 0c 9e 72 3f 84 77 b9 bf 3d 49 d6 bf
       0.30994442 0.9477241 -1.4489598 -1.67411
000340 31 01 2e bf 20 d1 7b 3f 41 4b bd bf 8d db 4d bf
       -0.6797057 0.98365974 -1.4788591 -0.8041313
000350 ee 10 8f 3f 36 98 8c 3f d4 2b 7d bf 1b 0a 6e bf
       1.1177042 1.0983951 -0.98895 -0.9298417
000360 fa 97 f2 be 6d bf 6f bf c2 a3 ab 3f c0 35 43 bf
       -0.47381574 -0.9365147 1.340935 -0.7625389
000370 dd 11 ce 3f a2 da 2d bf bf 64 ad be 65 cb 18 bf
       1.6099201 -0.6791173 -0.33865926 -0.59685355
000380 26 a2 8a 3f 82 52 8a 3f 0a 8b 79 bc ed 45 a7 bf
       1.0830734 1.0806429 -0.015230903 -1.3068215
000390 f4 36 8f bf 5a 16 be 3f ee 45 3a 3f db a2 8e 3e
       -1.1188645 1.4850571 0.72762954 0.27858624
0003a0 aa 3f 66 3f 5a 24 87 bf 80 9a 74 be 66 c4 f7 bf
       0.89940894 -1.0557969 -0.23887062 -1.9356811
0003b0 2d 15 ae bf 83 13 2e bf c9 a8 b2 3f a5 33 b9 bf
       -1.3600212 -0.6799852 1.3957759 -1.4468886
0003c0 ae cb 34 be 39 f9 d5 bf 6b 56 13 3f 7b 93 d9 bf
       -0.17655823 -1.6716682 0.5755374 -1.6998132
0003d0 24 bb 05 3e 26 ee a8 bf ee d4 ca 3f 08 bf 94 bf
       0.1305967 -1.3197677 1.5846231 -1.1620798
0003e0 c9 3a 4a bf 82 9c be 3f e1 89 19 bf 30 2c af 3e
       -0.7899595 1.4891512 -0.5997601 0.342134
0003f0 43 9f 87 bf 95 04 53 3f da cc 9b 3f b3 c2 31 bf
       -1.0595478 0.82428867 1.2171891 -0.6943771
